server/policies/checkpoints/policy_1_700/model.pt (torch, 338258 bytes, 11 tensors)

actor.fc1.weight f4 [256, 21]
000000 32 99 0b 3e 64 6d 38 be ee 70 06 be 4f 8d 1b be
       0.13632658 -0.18010479 -0.13129017 -0.15190624
000010 10 d8 89 ba 30 7b 56 ba d8 b5 d5 3d 02 09 65 bd
       -0.0010516662 -0.00081818085 0.104350746 -0.055916794
000020 0b b1 44 3e 95 a4 11 3d 12 af e8 3d 0a 44 8e 3d
       0.19208162 0.03555735 0.11361517 0.06946571
000030 91 7a 7c 3d 67 7b f1 3d 85 89 d1 3d a2 eb 4c bd
       0.061640326 0.11791115 0.10231308 -0.050029404
000040 bb 97 4b bd 40 e9 1e be c4 60 46 3e 64 f1 fa ba
       -0.04970525 -0.15518665 0.1937285 -0.0019145426
000050 0c c9 03 3e 4c b6 c7 bd 58 3f 3d bd 1a cd 20 3e
       0.12869662 -0.09751567 -0.046202987 0.1570324
000060 74 80 2f 3e ad e6 c5 bd d6 b5 78 3d d6 7a 03 3e
       0.17138845 -0.096631385 0.060720287 0.12839827
000070 43 45 05 3e 15 21 9a bd 4f b0 7a 3d 60 56 9d 3c
       0.13014702 -0.07525841 0.061203297 0.019206226
000080 ee d3 a5 bd 71 62 12 3e bd 61 a4 3d 6c 95 ae bd
       -0.08097063 0.14295365 0.080264546 -0.08524594
000090 a6 fa f1 3d 17 4e 20 be ec 0a 67 bc 2a ed 45 bc
       0.118153855 -0.15654789 -0.014101725 -0.01208047
0000a0 89 ca df 3d c9 cf 22 3d cf 79 32 3e 4c b1 16 3e
       0.109273024 0.03974894 0.17429279 0.14716071
0000b0 ab 4d 87 3d 90 9c ee bd 10 4b b1 bc 4e fb 36 be
       0.06606611 -0.11650956 -0.021642238 -0.17869303
0000c0 79 ef c3 bd 46 aa ba 3a be 83 26 3c 66 53 c2 3d
       -0.0956716 0.0014241419 0.010163246 0.09488563
0000d0 91 37 47 3e 09 db 0c be fe f7 5f 3d ad 38 55 3e
       0.1945479 -0.1375543 0.054679863 0.20822401
0000e0 35 91 34 3e be 40 5b 3d d5 c0 3f be ca 22 8e bb
       0.17633517 0.05352854 -0.18725903 -0.0043376433
0000f0 23 94 5c be 11 25 a8 3c 39 f5 10 3e 24 40 52 3e
       -0.21540885 0.020525487 0.14156045 0.2053228
000100 79 97 a2 3d c4 7c af bc b9 8f 53 be 85 a7 d6 bc
       0.07939047 -0.021421798 -0.20660295 -0.026202926
000110 c4 55 c8 3b 70 90 c4 3d b2 b6 2e 3e d2 8f 4c be
       0.0061137397 0.09597862 0.1706188 -0.19976738
000120 a5 a9 3a 3e 7e f1 93 bc 81 30 5e be 9e d9 5e 3e
       0.18228777 -0.018059488 -0.2169819 0.21762702
000130 c0 bd 0f 3e e4 59 2f bb e3 80 4e 3e 22 87 95 3b
       0.14037228 -0.002675646 0.20166354 0.004563228
000140 87 1f 3c 3d 00 d9 52 3e 01 65 4c be 27 e8 0d 3e
       0.045928504 0.20590591 -0.19960405 0.1385809
000150 6c 49 3d bd f3 b0 3f 3e 13 63 3b 3e 3e f5 17 3d
       -0.0462126 0.18719845 0.18299513 0.037099116
000160 4e b6 0b bd f9 5c d5 3d 43 ea ae 3d b7 c6 1c be
       -0.034109406 0.10418124 0.085407756 -0.15310179
000170 31 09 ba 3d e2 81 d8 3d 1a 72 9a bc 30 01 56 be
       0.09083784 0.10571648 -0.018853236 -0.2089889
000180 fd 46 60 3d 50 60 49 3d 5a b5 39 3e 11 62 12 3d
       0.0547552 0.049164116 0.18135586 0.035738055
000190 14 eb f7 bc 72 00 db bd a8 89 37 be 02 f5 4c be
       -0.030263461 -0.10693444 -0.17923605 -0.20015338
0001a0 45 50 c7 bc b3 97 8c 3d d0 31 0e 3d af 5c 38 bd
       -0.024330268 0.06864872 0.034715474 -0.045010265
0001b0 f8 71 b6 3b da 30 d4 3d fb 26 45 3c 3d 4c 9f 3c
       0.0055677854 0.1036088 0.012033219 0.019445533
0001c0 b0 fb 00 3c f2 02 4c 3e 9e f8 22 3e 17 5d 81 bd
       0.007872507 0.19922999 0.15915152 -0.063165836
0001d0 d3 47 60 3e 45 36 8d 3d 12 3b 15 be 65 88 08 3e
       0.21902399 0.06895117 -0.14573315 0.1333328
0001e0 bb 9a 15 bc 86 ee 16 3e 6d 13 dd bd 9c e5 82 3d
       -0.009131129 0.14739427 -0.10794721 0.06391451
0001f0 2d 12 90 bd 93 7c 44 3e de fd 9c bd 1f a1 0a be
       -0.07034717 0.19188146 -0.07665609 -0.13538025
000200 54 a0 03 be 8e c2 c2 bd 3a 23 7a bd e7 53 75 3d
       -0.12854129 -0.095097646 -0.06106875 0.05989447
000210 02 07 6e bc 6f 11 0f 3e f6 4b 15 3e b4 e8 65 3b
       -0.014528038 0.13971494 0.14579758 0.0035081329
000220 04 55 58 3d f3 58 5b be cf a4 3f bd 72 f1 08 3e
       0.052815452 -0.2142065 -0.046788033 0.13373354
000230 45 9b f5 bd 96 55 ac 3c e9 b2 1f be 7c 42 8d 3d
       -0.11992506 0.021036904 -0.15595593 0.068974465
000240 3f 6d 5b 3e a4 40 3e 3e ad 03 c4 bc 39 14 5f 3e
       0.21428393 0.18579346 -0.023927534 0.21785058
000250 91 af ea bd 08 2e 19 3e 88 8a f6 3d 7a 24 4d be
       -0.11459268 0.14958966 0.120381415 -0.20033446
000260 88 93 d0 bc e5 0e 0b be 71 0e 71 3d a3 5e 41 3e
       -0.025460973 -0.135799 0.058851663 0.18883757
000270 a2 56 12 3d 53 a7 87 3d 0a 54 27 be 22 36 9c bd
       0.03572715 0.066237114 -0.16340652 -0.076275125
000280 9c d6 e5 bd cc 4e 14 bd 4d a3 37 be e2 d6 b4 3d
       -0.11222574 -0.03620796 -0.17933388 0.08830048
000290 72 6f f4 3d ec cb 06 3e a8 54 73 bd 16 c9 00 3d
       0.11935319 0.13163728 -0.059406906 0.03144177
0002a0 27 e5 5a 3e 77 32 42 be 4b b3 5e 3e 44 17 38 3e
       0.21376477 -0.18964563 0.21748082 0.17977625
0002b0 d3 5c 6f bb 68 e7 c8 3d 73 0d d1 3c 1d 14 12 be
       -0.0036523833 0.09809762 0.025519108 -0.14265485
0002c0 ca f9 43 be a8 eb 4a be e3 ea d9 bc 64 34 11 be
       -0.19138256 -0.19816458 -0.02660126 -0.14180142
0002d0 50 2b 36 3e ad 09 1e 3e 4e 5d 60 3d a8 c9 a6 bd
       0.1778996 0.15433379 0.054776482 -0.081439316
0002e0 c4 ef 2b bd ae 57 57 3e e9 c9 c9 bd b7 01 e7 bb
       -0.041976705 0.21029541 -0.098529644 -0.007049765
0002f0 1e fd 09 bd 65 62 5d 3e c3 6d 98 bc ce 6c 9b bd
       -0.033688657 0.21619566 -0.018607026 -0.07589112
000300 07 12 26 be db 41 94 3d 46 e5 04 bd dd f9 dc 3d
       -0.16217814 0.072391234 -0.032445215 0.10789845
000310 53 dd cb bd 93 fc 2b 3e 85 f8 62 3d 33 79 90 3d
       -0.099543236 0.16795568 0.055412788 0.07054367
000320 68 27 25 3e db 9b 6c bd 2a 83 81 3b 2d e5 12 be
       0.16128314 -0.057765823 0.0039524036 -0.14345236
000330 08 c6 56 be b8 53 10 be e1 f3 26 3e f8 96 f1 bd
       -0.2097398 -0.14094436 0.1630397 -0.11796373
000340 75 99 0d 3a 55 d8 37 be 22 82 cd 3a 73 c2 14 be
       0.000540159 -0.17953618 0.0015679041 -0.14527301
000350 57 de 8b bd 7c a8 c0 bd 20 e5 5a be 54 17 16 be
       -0.06829517 -0.09407136 -0.21376467 -0.14657336
000360 16 1c ee bd 77 f2 5c 3e 5f b9 2a be 41 9f e6 bd
       -0.11626451 0.21576868 -0.16672276 -0.11260844
000370 fb cb 00 3e a1 ae 3d 3c f1 a7 94 bd f3 55 60 3d
       0.12577812 0.011577279 -0.07258595 0.054769468
000380 83 e8 18 3e 90 72 12 3d 39 f3 eb 3d cc c9 e9 3d
       0.14932446 0.035753787 0.115210004 0.11415443
000390 f6 7c 5b bc 5a 68 38 be 09 8d 39 3e c9 69 1f 3e
       -0.013396492 -0.18008557 0.18120207 0.15567698
0003a0 05 35 31 be 2b 24 19 be a5 f5 58 3e 89 c7 27 bc
       -0.17305382 -0.14955203 0.21187456 -0.010240444
0003b0 d7 3f 3d be bc cd 56 be c4 4c ff 3c bf c2 f6 3c
       -0.18481384 -0.20976919 0.031164534 0.030122159
0003c0 a4 d8 4a be d1 a6 19 bd 7b f7 29 be 17 89 96 bd
       -0.19809204 -0.037512604 -0.16598313 -0.073503666
0003d0 4a 6c 0a bd ae 92 59 be cd d4 01 be 7b 26 a6 3c
       -0.03379468 -0.2124736 -0.12678833 0.02028202
0003e0 3b 9b 1f be 3c 20 39 be e9 6b 81 3d 3b c7 8d bc
       -0.1558656 -0.18078703 0.0631941 -0.017306915
0003f0 ec 02 43 3e f1 d5 8c bd ae 37 d8 3d 82 34 9b bc
       0.19044083 -0.068767436 0.10557495 -0.018945936

actor.fc1.bias f4 [256]
000000 87 26 3e 3d dd dd f5 bd 1b 19 e7 3d b4 3d 3c bd
       0.04642346 -0.12005208 0.11284085 -0.045957282
000010 58 57 02 bd 8e 9a ca 3d 89 2a 8b bd 32 00 11 be
       -0.03182158 0.0989276 -0.06795222 -0.14160231
000020 eb fb 39 bd 59 45 16 3e dd 61 eb bc 36 b7 ed bd
       -0.045406263 0.14674892 -0.028733188 -0.1160721
000030 8c 37 4e 3d 22 4a 51 be 73 98 43 3e 42 20 72 3c
       0.050345942 -0.20438436 0.19101124 0.014778199
000040 a3 cd d1 bb 0e e2 fa bd e7 90 23 be 64 6d 2f 3e
       -0.0064026876 -0.12250148 -0.15973245 0.17131573
000050 ea 66 c2 3c 2d 7e 20 be 01 55 a9 bc ca dc 55 be
       0.023730714 -0.15673132 -0.020670416 -0.20885006
000060 af 12 82 bd cd 5c 4f 3d dd 87 b1 bd 92 a2 11 3e
       -0.0635122 0.05062561 -0.08668492 0.14222172
000070 85 b2 d7 bc 97 97 4b 3e 4b 01 78 3d 38 f6 37 3d
       -0.026330242 0.19882046 0.060548108 0.044912547
000080 9e 54 24 3e b4 53 ad 3d d6 c8 32 3e d7 5f ba 3d
       0.16047904 0.08463231 0.17459425 0.09100311
000090 01 6a 12 3e b0 31 f2 bb 0c 94 1b be 55 a5 c9 bd
       0.1429825 -0.007391177 -0.15193194 -0.09845988
0000a0 18 e9 2b 3d 93 6c 0e 3e 12 41 27 bd 28 b7 a5 3c
       0.041970342 0.13908605 -0.04083354 0.020228937
0000b0 19 15 57 be 8f 2c 2d be 14 64 5a be bd 93 0e 3e
       -0.21004142 -0.16911529 -0.2132724 0.13923545
0000c0 17 30 58 3e e2 07 c6 bd 58 5f e4 bc 9b d6 2c be
       0.21112095 -0.09669472 -0.027877495 -0.1687874
0000d0 76 83 fc 3c 27 89 a4 3c 0c 60 06 be 7e 19 52 be
       0.030824404 0.02008493 -0.13122576 -0.20517537
0000e0 41 e1 80 3d d4 29 b0 3c ac b2 59 be 4a b7 86 3d
       0.06292964 0.02150432 -0.21259564 0.06577928
0000f0 38 68 56 3e 6b a9 28 be 53 1e 2d 3c 87 a9 8a bc
       0.20938194 -0.16470878 0.010566312 -0.01692654
000100 4c d6 f0 3c 90 6c d2 bd 44 47 94 ba 03 ff 30 3e
       0.02939906 -0.10274613 -0.0011312743 0.17284779
000110 66 70 ff b9 1b 0e 18 3e 27 32 3b be fb 2a 19 be
       -0.00048721133 0.14849131 -0.1828085 -0.14957802
000120 df 87 3c 3b 45 78 dc 3d b0 03 56 3e ea 98 98 bd
       0.002876751 0.10765127 0.20899844 -0.07451041
000130 b6 b3 77 3d 75 6f 1d bd 47 fe 93 bd 9c cf f2 3d
       0.06047412 -0.03843637 -0.07226234 0.118560046
000140 c3 fa 4c 3e df 22 65 3d e4 ca f8 bc c3 ee 59 3d
       0.20017533 0.05594146 -0.030370183 0.053206217
000150 26 68 2a 3e ae e8 5d bd c6 0d 9e 3d 88 77 90 3d
       0.16641292 -0.05417698 0.07717471 0.07054049
000160 fc 81 b7 bc d0 f7 a8 3d 6e 6e cd 3d c9 aa fa 3d
       -0.022400849 0.082503915 0.100308284 0.12239606
000170 e4 1b 71 3d 41 eb d1 bd 61 43 62 3d b0 93 40 bc
       0.05886449 -0.10249949 0.05524004 -0.011753961
000180 8e f1 05 3d 87 04 0a 3d 08 44 38 3e 98 51 e4 3d
       0.032701068 0.033695724 0.17994702 0.11148375
000190 2c 92 7d bd 48 26 ec 3a 68 b2 08 be b0 8c 45 be
       -0.06190698 0.001801678 -0.13349307 -0.1929195
0001a0 27 4e c0 bd 08 36 5a be 38 7d 66 bd a8 a1 18 3e
       -0.093899064 -0.21309674 -0.05627176 0.14905417
0001b0 46 60 36 be dc 33 94 3d 20 0a ae 3d 43 e0 90 bc
       -0.17810163 0.07236454 0.08498025 -0.017685061
0001c0 0a 00 12 3e 13 58 b3 3d 8d 39 12 3e 51 d5 e6 bc
       0.14257827 0.08757033 0.14279766 -0.028177889
0001d0 ca a7 89 bc e0 e8 e2 3d 7f 75 b6 3d 6b ae 29 3e
       -0.01680364 0.11079574 0.08909129 0.16570441
0001e0 b3 4e e2 bd 80 8c ac 38 5d 4e 92 3d e5 ad 2b 3e
       -0.11050167 8.227769e-05 0.07143853 0.16765554
0001f0 6c 67 2b 3e 7c a1 8c bd 4c 63 42 3d 89 ec 6f bd
       0.16738671 -0.06866738 0.047457978 -0.058575187
000200 95 12 bb bd b5 a5 82 bb 73 06 5c bc 5c 0d 51 3d
       -0.091344036 -0.003987039 -0.013429272 0.05103813
000210 9f ef 92 3d aa 74 a1 3d 05 1a cf bc d2 91 47 3e
       0.0717461 0.0788358 -0.025280962 0.1948922
000220 4c f0 43 3e ff ae 1a 3e 44 1f 09 be 77 c2 4b be
       0.19134635 0.15105818 -0.13390833 -0.19898401
000230 e4 c6 22 3e 8b 3d 02 be 19 a8 c1 3d 4a 11 e1 3d
       0.15896183 -0.1271879 0.0945589 0.10989626
000240 28 bf 3f 3e 26 b8 2d be a2 d0 e3 3d 0d 03 bb 3d
       0.18725264 -0.16964778 0.11123778 0.09131441
000250 f8 b1 b4 bd 81 db 54 3e 62 e0 00 3e 89 59 55 be
       -0.08823007 0.20786859 0.12585595 -0.20834936
000260 a1 f9 cb 3d be 0c da 3d 94 39 2b bc 4c 64 3e bb
       0.09959722 0.10646962 -0.010450739 -0.002905148
000270 0e bf 0c be 49 0f 41 be 60 4d 99 bd db 14 25 be
       -0.13744757 -0.18853487 -0.07485461 -0.16121237
000280 b7 71 00 be 63 1c bc 3d 8d a9 59 be 84 ac fb bd
       -0.12543379 0.09185102 -0.21256085 -0.12288764
000290 59 67 a0 3d c9 5d 97 3c 3e 09 3d 3e 4e 83 57 3e
       0.07832212 0.018477337 0.18460557 0.21046183
0002a0 84 b6 49 be 06 0c 85 3d 96 a7 19 be d9 2e 5e be
       -0.1969853 0.06496434 -0.15005335 -0.21697558
0002b0 0e 64 4e 3e 3e 45 87 bc 09 0e 27 be 12 f7 10 3e
       0.20155355 -0.01651251 -0.16313948 0.1415675
0002c0 b9 25 ad 3d 63 c0 af 3c 5a 65 cc 3d 86 74 2f be
       0.08454461 0.021454042 0.09980269 -0.17134294
0002d0 b6 49 94 ba 6d ac 34 3e a9 d8 bd bd ae b6 eb 3d
       -0.0011313471 0.176439 -0.0926984 0.11509453
0002e0 a9 c2 de bb c3 b1 84 bd 59 9c 3e 3e 52 fa 3f be
       -0.0067981076 -0.06479218 0.1861433 -0.18747833
0002f0 50 56 05 be fa 35 19 bd 3e 1a 38 3d 47 1b 5e be
       -0.13021207 -0.03740499 0.0449469 -0.21690093
000300 b4 72 4a 3d 7d 34 5c 3e 1f 58 5b 3e cf dd 00 be
       0.049425796 0.21504398 0.21420334 -0.12584613
000310 76 37 15 3e 4b 9e 11 bd 98 1f 41 3e 96 87 07 3e
       0.14571938 -0.03555135 0.18859708 0.13235316
000320 a7 0d 29 3d 85 a7 22 3e cd 8b dd 3d a4 b1 92 3d
       0.041272786 0.15884216 0.108176805 0.071627885
000330 f7 bc ca bd 19 00 05 be 0f 3a 87 bd 8d 63 bd bd
       -0.098993234 -0.12988319 -0.06602871 -0.092475034
000340 7e ef ab 3d bc 59 f1 bd 03 c9 08 3d 76 86 32 3d
       0.08395289 -0.117846936 0.033394825 0.043585263
000350 dc 76 d1 bd 69 e2 48 3e 38 90 52 be e2 b0 b7 3d
       -0.10227749 0.19617619 -0.20562828 0.089692846
000360 28 7a 7f bd 62 ce 38 3e d3 04 06 bc 28 5e 5a be
       -0.062372357 0.18047479 -0.008179861 -0.2132498
000370 a4 cc 96 3d 4c a5 a7 bd 6e b9 40 bd 44 2f 81 3c
       0.07363251 -0.08185825 -0.04705184 0.015769608
000380 74 14 3e 3e c7 04 27 3d 86 a3 c2 3c 89 5e 3f be
       0.1856249 0.04077604 0.023759615 -0.18688406
000390 0e 0a a3 3d f1 35 10 3d 79 70 05 be 8e b3 60 3d
       0.07960902 0.035207693 -0.13031186 0.054858737
0003a0 cf a4 65 bd a8 cf c9 bd 9f 38 f7 bd 2d b9 c3 bd
       -0.056065377 -0.098540604 -0.120713465 -0.09556804
0003b0 e0 69 e0 bd 74 a2 26 3d 1f ce 14 be 2e d1 30 be
       -0.10957694 0.04068227 -0.14531754 -0.17267296
0003c0 b4 43 48 3e 56 45 ac bc b4 91 4d 3d e5 5a b6 bd
       0.19557077 -0.021029156 0.05018778 -0.089040555
0003d0 1b e7 51 3d 2b 3f 55 be 98 3d 08 be 28 f4 c9 3d
       0.05124579 -0.20824878 -0.13304746 0.09861022
0003e0 45 25 21 3d 00 84 9e bc e8 a9 65 bd ae ac 10 3e
       0.039342184 -0.019350052 -0.05607024 0.14128372
0003f0 ff d1 17 3e 24 1f 90 bd 8e da 59 3e aa 4d 42 3c
       0.14826201 -0.070371896 0.21274778 0.011859337

actor.fc2.weight f4 [128, 256]
000000 44 0d 4b bd 7c 5d 0f 3d 31 41 f0 bc 29 3d 61 3c
       -0.049573198 0.035001263 -0.02932796 0.013747492
000010 2b 6b 17 3d 44 7a a3 3c f5 09 48 bc fa 59 2f 3d
       0.036967438 0.019955762 -0.012209405 0.042810418
000020 2d 3a 5a 3c 11 ea 2c 3d 32 69 c2 bb 04 9c 27 bd
       0.013319534 0.04221541 -0.0059329504 -0.040920272
000030 48 b7 f2 bc 81 75 67 3d 7b 95 4b bc 00 f4 fb 3c
       -0.029628411 0.056508545 -0.012425776 0.030755997
000040 c3 8c 9e bc fd 9e 0c 3b e4 0b 22 3d 18 de 2f 3c
       -0.01935423 0.002145707 0.03956212 0.010734104
000050 26 38 3b 3d 87 72 65 3c 3f 88 1d 3d 0f fa d8 3c
       0.045707844 0.014004356 0.038460013 0.026486425
000060 b4 6e 09 3b 76 6f 1c 3b fa fc 58 bd 63 7a 9d 3c
       0.0020970525 0.0023870147 -0.052975632 0.019223398
000070 e3 e2 7e 3d 90 a7 80 3d db 70 51 3d 63 02 87 3c
       0.062228095 0.0628196 0.051133018 0.01648063
000080 2f 35 71 bd 5f 99 74 3c df bb 13 bd a4 4b e0 bc
       -0.05888861 0.014929145 -0.03606784 -0.027379818
000090 8a c7 ef bb ec c3 64 bd 13 e4 7c bd cd 0d 4b bd
       -0.007317488 -0.05585091 -0.061740946 -0.04957371
0000a0 d8 75 4b bd b0 fe 58 bd 85 21 8c bc 6c 09 b4 3c
       -0.04967293 -0.052977264 -0.017105827 0.021977149
0000b0 0d 65 25 3c 8a 0f fa ba a8 42 4e bd 1b 8a 66 bc
       0.010094893 -0.0019078117 -0.050356537 -0.014071013
0000c0 01 16 4c bd 90 c8 c7 bc dd 85 2a bd 8f 7c 93 bc
       -0.049825672 -0.024387628 -0.04163157 -0.01800373
0000d0 94 52 56 3d d3 39 0d 3c df 80 51 3d 5c 9e c6 3c
       0.052324846 0.008619743 0.05114829 0.024245434
0000e0 ea c0 56 3a 69 a7 b0 bc 16 7a 2c 3b 32 fb bc bb
       0.00081921986 -0.021564202 0.0026317886 -0.0057672495
0000f0 98 8e 1c 3d 3b 54 6f 3d f9 33 1d bd 87 ff 25 3d
       0.038221925 0.058429938 -0.038379643 0.040526893
000100 5e 43 54 bd 49 e0 a3 3a 65 5d ea 3b ec 8e 24 3d
       -0.05182206 0.0012502755 0.007152247 0.040175363
000110 a4 e6 82 bc bf 37 c3 bc a7 83 77 bd a8 c5 12 bd
       -0.015979119 -0.023830293 -0.060428288 -0.03583303
000120 1c db 57 bb d4 ac 47 bc 28 c1 0a 3c 91 f5 1b 3d
       -0.0032936996 -0.0121872015 0.008468904 0.038075987
000130 03 da 57 3c 92 8c 76 bd 48 56 4d 3d 56 4d b1 3c
       0.013174537 -0.060192652 0.050131112 0.021643322
000140 ff cd 66 bd f7 ac 03 3d 85 b2 4a bd 2a 94 11 bd
       -0.056348797 0.032147374 -0.049486656 -0.03554169
000150 2f 4b 1d bd cc 82 56 bd a3 aa 34 bd 2e 9b 49 3d
       -0.03840178 -0.05237083 -0.044108044 0.049220257
000160 77 3a 84 3b 4a 6e ae 3b 77 76 06 bd 2c 13 76 bd
       0.00403529 0.005323206 -0.03282782 -0.060076877
000170 df ae 90 3c dc ab 5a 3b fc af 03 bd e8 10 24 bc
       0.01766151 0.0033366596 -0.032150254 -0.010013796
000180 28 7a 23 3c 4f b5 73 bd 44 eb ee 3a 8e 53 c4 bc
       0.009977855 -0.05949908 0.0018228074 -0.023965623
000190 f0 2c cd 3c b1 b6 80 3d ab a0 1c bd 0b ba cc 3c
       0.025045842 0.062848456 -0.038239162 0.024991056
0001a0 82 78 59 3b 26 ec 0f 3d 59 37 51 bd 6a dd 5e 3d
       0.00331834 0.035137318 -0.051078174 0.054410376
0001b0 c6 b2 f6 3b 9f 21 2a bc 65 ae 6a 3d cf c7 d3 bc
       0.0075286357 -0.010383992 0.05729522 -0.025852112
0001c0 04 57 71 bd 8b 02 b6 bc 9c af 74 3d a1 dc 7a 3b
       -0.058920875 -0.02221801 0.059737787 0.0038278478
0001d0 2a 58 c4 3c 56 20 a7 bc c8 0d 69 bd fd 1a 69 3d
       0.023967821 -0.020401161 -0.05689791 0.056910504
0001e0 17 9e 22 3c e1 92 93 bc e6 87 2a bd ac cc a5 ba
       0.009925387 -0.018014373 -0.04163351 -0.0012649498
0001f0 d5 33 4f bd e7 75 78 3d 86 4f 36 bd 60 5e b5 bb
       -0.05058654 0.060659315 -0.044509433 -0.005534932
000200 d1 a8 39 3d af cf 24 bd 67 af 65 3d 0a db d6 3c
       0.04532701 -0.040237125 0.05607548 0.026227493
000210 0d 80 2c bd 3f 41 82 bb 41 21 bd bc 16 eb b0 bb
       -0.042114306 -0.003975063 -0.023087146 -0.005399118
000220 b4 4b 71 3d 50 df 49 b9 b8 b5 3c bd 23 c6 c1 bc
       0.058910087 -0.00019252044 -0.046071738 -0.02365405
000230 9f f7 6f 3d b5 ce 7c 3d 42 8d 8b bc 25 95 3c bd
       0.05858576 0.06172057 -0.01703513 -0.046040673
000240 dc 39 a5 bb ea 18 ed bb 63 cf 3a 3c 30 79 45 3d
       -0.0050422978 -0.007235636 0.011401984 0.048211277
000250 01 49 28 3d 80 5c 05 bd b0 2c 27 3d f0 c3 02 bd
       0.041085247 -0.032558918 0.0408141 -0.03192514
000260 4f c1 54 bd e7 f5 da bb 9c ae 10 bd 13 51 2b bd
       -0.051942166 -0.006682146 -0.03532277 -0.041825365
000270 35 c9 fc 3c ec da da 3c 6f 7a f8 3c 2e 5f 28 bd
       0.030857662 0.026715718 0.030331818 -0.041106395
000280 94 87 02 bd 79 8b 9d 3b 7f 38 86 bc 0e b4 23 bd
       -0.03186758 0.004807886 -0.016384361 -0.039966635
000290 4a 46 c9 bc 1d 8f 49 bd 99 e8 06 3d 87 50 4c 3c
       -0.02456965 -0.04920875 0.032936666 0.012470371
0002a0 02 11 02 bb ab 57 0e bc ad 1e 76 bd ad 59 b7 bc
       -0.0019846563 -0.008687894 -0.06008785 -0.022381628
0002b0 bb 9d e1 bc 05 0a 75 bd ef 97 e1 3b 98 7b a8 3c
       -0.027541032 -0.05982401 0.006884567 0.020566747
0002c0 23 61 67 bd e8 7e f2 39 fd f7 24 bc 1b bf 80 3d
       -0.05648912 0.0004625239 -0.010068891 0.062864505
0002d0 a4 1c b6 ba f6 12 1b 3d 8d 0f 3f 3b d5 88 60 bc
       -0.0013894034 0.03785988 0.0029153556 -0.013704498
0002e0 e5 fc 37 bd 0f 0e 0c 3d 89 02 c5 bc 87 78 57 3c
       -0.044918913 0.034193095 -0.02404906 0.013151295
0002f0 e8 ae 9a bc 8d ac 07 3d 5b 2b 57 3d 83 ae 3f 3c
       -0.01888223 0.03312354 0.05253158 0.011699322
000300 85 10 86 bc 7c fa cd 3b 25 d2 17 3c 59 64 09 3d
       -0.016365299 0.0062859636 0.009266411 0.033542965
000310 64 08 6b 3c 99 17 7a 3c 12 87 62 bd a5 e0 41 3d
       0.014345262 0.015264415 -0.055304594 0.04733338
000320 21 93 19 bd 04 2c f3 bc a0 22 41 bd 50 a6 5a bd
       -0.03749383 -0.029684074 -0.04715216 -0.053381264
000330 75 49 c2 3c ee 1f 06 3c 07 62 51 bd d7 0f 49 3d
       0.023716668 0.008186324 -0.051118877 0.04908737
000340 09 99 ea 3c 46 67 80 3d 74 e9 93 bc cd ba 9d bc
       0.028637426 0.06269698 -0.018055655 -0.019254113
000350 34 90 cb bc d3 72 95 3c 5e d8 42 3d 73 c1 66 3d
       -0.024849035 0.018243229 0.047569625 0.05633683
000360 2a 08 7c bd 8b 16 05 3c a2 b3 42 3d ea 43 68 3d
       -0.061531223 0.00812305 0.047534592 0.056705393
000370 45 f9 7c 3d 18 e7 26 3d fc b5 b2 bc ac 95 b8 bc
       0.06176116 0.040747732 -0.021815293 -0.022532307
000380 56 5b 28 ba 7e d9 2a 3d bf c7 b9 3b 8e 6b f3 bb
       -0.00064223015 0.041711323 0.0056695635 -0.007428593
000390 f8 22 9c 3c fb fe 38 3d 59 5c 72 bb b5 1c 61 3d
       0.019059643 0.045165043 -0.0036981313 0.054959018
0003a0 88 27 06 bd 67 78 1b 3d 88 95 f7 bc 8d ec 07 3d
       -0.032752544 0.03795662 -0.03022267 0.033184577
0003b0 45 1f 7d 3d 1b 88 05 bc 9f 4f 4a 3d 74 42 b0 3c
       0.0617974 -0.008150126 0.04939234 0.021516062
0003c0 70 22 96 3c 19 09 66 3c 68 ae 7c 3d d2 08 4a 3d
       0.018326968 0.014040255 0.061689764 0.049324818
0003d0 5f 86 d5 bc bd a7 bc bb c8 ad f8 3c fa bb 27 bd
       -0.02606505 -0.0057573006 0.030356303 -0.040950753
0003e0 d2 37 4d 3d 6e 20 3a bc 70 6e 64 bd 9f 65 4c 3d
       0.050102063 -0.011360271 -0.055769384 0.0499016
0003f0 9c 75 14 3d d4 fc e4 bc a4 98 b4 3c 34 e6 52 3d
       0.036244974 -0.02795259 0.022045441 0.05148907

actor.fc2.bias f4 [128]
000000 2d 86 30 bd bf b7 bb 3b 54 05 70 3c b8 24 b3 bc
       -0.04309671 0.0057286914 0.014649708 -0.021868095
000010 97 0f 6f 3d 90 eb 54 bd 55 0d 48 bd b3 27 65 bc
       0.058364477 -0.051982462 -0.04884084 -0.013986516
000020 35 91 0e 3d 63 cb 5c 3d aa 2e 0f bd ae 1e dd 3c
       0.03480645 0.053904902 -0.03495661 0.026992168
000030 3e e3 2d 3c 6f 6f cd bb 7d e1 37 3c 9b 38 6d bd
       0.010613261 -0.0062693874 0.011223194 -0.05791531
000040 8d e8 35 bc a7 a8 44 3c 7f 4d ad 3c 32 3f 38 3d
       -0.011102808 0.0120031005 0.021155117 0.044982143
000050 55 5e 61 3c 04 61 22 bb 9d 93 c8 3a b5 f1 19 bd
       0.013755401 -0.0024777064 0.0015302781 -0.037584025
000060 14 20 41 bd 66 42 3b 3d 61 46 73 3d d0 67 e9 3c
       -0.047149733 0.04571762 0.05939329 0.028491884
000070 10 42 a5 ba 01 f4 5b 3d 06 fa 94 bc 7d 34 04 bd
       -0.0012608189 0.053699497 -0.018185627 -0.03227662
000080 81 9f 52 bd 11 72 09 bd 91 ca 02 3d 5d 36 7c bc
       -0.051421646 -0.033556048 0.031931464 -0.015393821
000090 33 33 6b bd 77 19 36 3d c6 be 18 bc 33 b5 9d bc
       -0.057421874 0.04445788 -0.009322828 -0.019251442
0000a0 00 1c 06 3d 89 e9 64 3d dd d6 0e 3d 32 46 28 bd
       0.032741547 0.05588678 0.03487288 -0.04108257
0000b0 60 ad be bc a4 a0 04 bd 20 5a 8a bc 05 d3 cf 3c
       -0.023276031 -0.03237976 -0.016888678 0.025369177
0000c0 e2 1a 5d 3c 42 1f 15 bd 85 3a 04 bc a7 3c 90 bc
       0.013495179 -0.036406763 -0.008070593 -0.017607046
0000d0 e0 ca af 3b 0c 63 3b bd c8 3e 53 bd f7 13 0d bc
       0.0053647608 -0.045748755 -0.051573545 -0.008610717
0000e0 2e d8 c0 3a a5 b7 de bc 0f 72 4c bd 70 0c 46 3c
       0.0014712864 -0.027187178 -0.049913462 0.012087926
0000f0 28 c3 f2 3c 97 88 54 3d 5c 58 1b bb a7 93 9a bc
       0.029634073 0.051888075 -0.002370379 -0.018869234
000100 47 ed 63 3d 99 36 59 3d ef d3 58 3d 59 00 d1 3c
       0.055646207 0.053030584 0.05293649 0.025512861
000110 e6 5f 38 3c 62 2c fa 39 44 0b 2b bd f8 f7 96 3c
       0.011253333 0.00047716784 -0.04175879 0.018428788
000120 2c 41 46 bd 58 0f a6 bc f8 f7 00 3d 31 09 3e 3d
       -0.048401996 -0.020270988 0.03148648 0.046395484
000130 8c b3 db ba 9b 56 10 3d 94 7c 3a bd 02 3a 68 bd
       -0.0016761883 0.035238843 -0.045528963 -0.056695946
000140 28 1a cb 3c ff 46 9f 3b 0c eb 9b 3a 3c ca 62 bc
       0.024792746 0.0048607583 0.0011895611 -0.013842162
000150 c8 93 c3 3b d2 0d 46 bd 22 d9 9a 3c 0b 8a aa 3c
       0.0059685446 -0.048353024 0.018902365 0.020817777
000160 c6 1b 94 3c 96 43 2b 3d fa 5c 53 bd 03 a5 70 3d
       0.01807965 0.0418125 -0.05160234 0.058751117
000170 2e 7b 60 3d 08 cf 46 3d ef 4b 62 bd ec 16 3f bd
       0.054804973 0.048537284 -0.055248197 -0.04665272
000180 42 f1 e9 3b 4b f1 fd 3c 0f 1f 32 3d a9 e4 50 3d
       0.007139356 0.030998847 0.04348665 0.050999317
000190 ae d9 57 bd af 2c 7c 3d 7f 18 39 bc 96 d6 41 bb
       -0.05269783 0.06156605 -0.011297344 -0.0029577366
0001a0 69 fe 96 3c 4a f1 28 3d 9b 3a 27 bb e2 dd 5c 3c
       0.01843186 0.041245736 -0.002551711 0.013480635
0001b0 1e db 5b bd 90 1c 68 bd e5 b3 47 3d f8 ff 82 bc
       -0.053675763 -0.056667864 0.048755545 -0.015991196
0001c0 26 7f 60 3d 43 ff 4e bd 9f 0a 6f 3d d1 cd 50 3d
       0.05480876 -0.050536405 0.05835974 0.05097753
0001d0 2a 71 14 3d da 40 a2 bc fd ad 57 3d fb 31 45 bd
       0.036240734 -0.019806314 0.052656163 -0.04814337
0001e0 81 91 be bc 66 13 07 3d 44 a5 5a 3d a0 7a 05 3d
       -0.023262741 0.032977484 0.053380266 0.032587647
0001f0 bc 50 2b 3d 77 aa a0 3c 0d 80 33 bc f3 f1 f8 bc
       0.04182504 0.019612534 -0.010955823 -0.030388808

actor.policy_head.weight f4 [50, 128]
000000 4e 29 86 bb 39 b8 85 bd fc c1 76 bd 8d a9 2a bd
       -0.0040942794 -0.06529278 -0.06024359 -0.041665602
000010 0d ae 1a bd e6 1e 02 bd b7 a0 59 bd 8f 91 c7 ba
       -0.037763644 -0.03176775 -0.053131785 -0.0015225875
000020 f6 68 ea 3c a4 30 f5 3b 86 99 a3 3d ae 49 94 bd
       0.028614502 0.007482605 0.07988267 -0.07240616
000030 d7 c7 8e 3c 00 02 19 bc c5 4b 30 bd 7a 42 25 bd
       0.017429275 -0.009338856 -0.04304101 -0.0403466
000040 2f cc 48 bd 64 5a 11 bb da 85 48 bd 1f fd 41 bd
       -0.04902285 -0.002217912 -0.048955776 -0.047360536
000050 85 75 8e bd 6c 4a 33 bc 28 40 a2 3c b2 57 67 bd
       -0.06956009 -0.0109430365 0.019805983 -0.056480117
000060 e0 7e de 3c 83 bf ad bc c1 f3 ac bd 61 23 b6 bc
       0.027160108 -0.021209484 -0.0844493 -0.022233667
000070 64 ad aa bd 7a f1 a1 3c fe 2a cb bc c2 94 18 3c
       -0.08333853 0.019768465 -0.024800774 0.00931281
000080 19 8f a6 bb 34 dc 51 3d 19 8b 2d bd 9c 31 7e bc
       -0.0050829765 0.051235393 -0.042368982 -0.0155147575
000090 79 20 09 3c 67 08 80 3c ce 04 61 3d 8a 62 bb 3b
       0.0083695585 0.015629007 0.054936223 0.005718534
0000a0 dd 24 09 3d 8d 0b 7e bd 5d 4f 94 3c 3f 3b 90 3d
       0.03348242 -0.062022734 0.01810425 0.0704255
0000b0 b6 62 a8 3a 41 1b e0 bc ea 21 0c bc f3 5c 94 bd
       0.0012846801 -0.027356746 -0.008553008 -0.07244291
0000c0 ac 0b ec 3c 5a 6d 98 bd 64 16 8a bc 87 34 92 3d
       0.02881416 -0.07442732 -0.01685638 0.07138925
0000d0 b2 65 85 3d 25 66 89 bd c7 c4 54 3d 3e cd 59 3b
       0.065135375 -0.06708936 0.051945474 0.0033233906
0000e0 81 58 9f 3d 88 7c 40 bc 44 c9 59 3d 23 05 2e bd
       0.07780553 -0.011748441 0.053170457 -0.042485368
0000f0 9e a6 a4 bd 57 23 62 bd fb 10 3e bd a5 59 0b 3d
       -0.08039592 -0.055209484 -0.046402913 0.03402104
000100 59 4e c4 bc 37 92 66 3d bc bf 16 bd 2c a5 9b bd
       -0.02396314 0.056291785 -0.036803946 -0.075998634
000110 56 ad ab 3d 39 50 92 3c ab d5 e4 3c aa 01 94 bd
       0.083826706 0.017860519 0.027933916 -0.0722688
000120 34 8e b9 bc 30 54 06 bd 9a 22 22 bd f0 0d 14 3c
       -0.022650816 -0.03279513 -0.03958378 0.009036526
000130 53 e6 71 bd ed 8d a1 bd 14 72 82 bc db a9 b4 bd
       -0.059057545 -0.07888398 -0.015923537 -0.0882146
000140 6b df 9b 3d 4b 00 8a bc bc 37 89 3d 30 73 9f bd
       0.07610973 -0.016845843 0.067000836 -0.07785642
000150 5e b5 1f bd 51 eb 11 bc 61 8d 42 3d dc 56 85 bd
       -0.038991325 -0.008906201 0.04749811 -0.06510708
000160 e5 8e 99 3d 21 6f 5c 3d b0 6d 8e 3d b9 29 5b bd
       0.07497958 0.05381692 0.06954515 -0.053506587
000170 72 7e 7c bc fb 93 9e 3d 13 c8 ac bd 04 db a4 3d
       -0.015411006 0.07743069 -0.08436599 0.080495864
000180 c2 79 5e 3d 5a 5b 46 bd 9f 9b 44 3d 4f f0 b4 bd
       0.054315336 -0.048426963 0.047999974 -0.08834898
000190 d9 c9 9b 3d 7f 08 21 bd 0e eb a4 bd 0c 89 2d bb
       0.07606859 -0.039314743 -0.080526456 -0.0026479391
0001a0 b5 da 74 bd 6f 57 b5 3c 85 d3 96 3d 09 43 93 bd
       -0.059778888 0.022136418 0.07364563 -0.0719052
0001b0 ec d6 a5 bc 88 8e 66 bc 87 9c c8 3c 0f be 88 bd
       -0.020244084 -0.014072068 0.0244887 -0.06676876
0001c0 de d6 ab bd fd 5b 68 3c c1 88 a8 3c 3a 57 15 bb
       -0.08390592 0.014182088 0.020573022 -0.0022787587
0001d0 ea c1 3d bd ab a3 48 bd 55 98 98 bd ed bf f2 bc
       -0.04632751 -0.04898421 -0.0745093 -0.029632533
0001e0 d4 32 80 3d c0 b7 79 bd 71 6e 99 bd 93 12 85 bc
       0.06259695 -0.060966253 -0.07491768 -0.016244208
0001f0 3f 64 ac 3d 2d 8b 47 ba 15 54 e6 ba 89 bc 02 3d
       0.08417558 -0.00076119864 -0.0017572666 0.031918082
000200 72 07 2d bd 00 cf 1b bd 75 d1 93 3d b8 ce b2 bd
       -0.04224343 -0.038039207 0.07217685 -0.08730835
000210 03 2f ab 3d e6 18 56 bd 08 a2 af 3d 8d 16 31 bd
       0.08358576 -0.05226984 0.08575827 -0.043234397
000220 cc a9 9a bc 81 a8 fe 3c 85 6d 0a 3d 3e c0 d0 bc
       -0.018879794 0.031086208 0.033795852 -0.025482293
000230 5e 7d 34 bd 80 6a a3 bd b9 5a d7 3c f1 ff 61 3d
       -0.044064872 -0.07979298 0.026288377 0.055175725
000240 d2 e4 2a bb 84 41 1c 3d e6 0e da bc d4 13 26 bd
       -0.002607633 0.038148418 -0.026618432 -0.040546253
000250 fd 34 a9 3d 95 be db 3c a1 bd ab 3d c4 95 95 3d
       0.0826206 0.026824275 0.08385778 0.07303956
000260 11 a1 38 3d a0 1d 0b 3d d4 97 61 3d db 53 ed bc
       0.04507548 0.0339638 0.055076435 -0.02897065
000270 aa f8 61 bd d5 df b0 3d ba c6 fe bc 37 67 b9 3c
       -0.055168785 0.086364426 -0.03110062 0.022632224
000280 ce c6 af bd b2 18 3f bd 70 95 39 bd 6c 3e bd bc
       -0.08582841 -0.04665441 -0.04530853 -0.023101054
000290 1c 29 f5 bc 71 c9 79 bd 9a 2c f5 3b a4 d7 92 3d
       -0.029926829 -0.060983125 0.0074821236 0.071700364
0002a0 73 31 b1 bd 58 70 87 bd 9e d3 76 3d b7 9f a5 3d
       -0.0865201 -0.06613225 0.060260408 0.08087104
0002b0 39 4c 13 3d 14 d9 d2 3c c7 71 b1 3d 0f 9d 38 3d
       0.035961363 0.025738277 0.086642794 0.045071658
0002c0 42 52 ff 3c 87 db b0 bc 6f 5a ab 3d 83 45 d5 3c
       0.031167153 -0.021589054 0.08366858 0.026034122
0002d0 96 97 97 3d 67 03 0f bd 9d e3 83 bd 89 eb cf 3c
       0.074019596 -0.034915354 -0.06439898 0.025380867
0002e0 b4 60 af bc 74 67 e8 3c ef 56 3f 3c a0 7c 01 bd
       -0.021408416 0.028369643 0.011678441 -0.031612992
0002f0 b1 f7 32 3c f7 06 a0 bd 0f 6d a3 bb 2b f3 01 3d
       0.010923312 -0.078138284 -0.004987366 0.031726044
000300 49 0c 31 bd e6 d5 ff 3c 14 b6 a9 bd be 0c 0b bd
       -0.043224607 0.031229924 -0.08286682 -0.0339477
000310 ca fe 4b bd 9b a1 a6 3c be 2b a3 3d 7a 52 28 bd
       -0.049803533 0.020340731 0.079673275 -0.04109428
000320 26 a5 68 3d c5 09 4f bd 96 ba a2 3d ee d1 39 3d
       0.056798123 -0.050546426 0.07945745 0.04536622
000330 33 b6 6d 3d 9b db ae 3d 24 cc 9c 3d 68 97 06 3d
       0.058035087 0.0853798 0.07656124 0.032859236
000340 3e e0 b2 bd 75 3b 44 bb b6 0c 68 bd a2 75 94 3c
       -0.08734177 -0.0029942666 -0.056652747 0.018122498
000350 7d cf 19 bb 2a 69 f3 bb 6e 02 a8 bd 05 b4 95 3d
       -0.002346962 -0.007428308 -0.082035884 0.073097266
000360 b9 c6 98 3c b7 5b 93 bd e6 82 99 bd 85 1d 0e 3d
       0.018649446 -0.071952276 -0.0749567 0.03469612
000370 9f 0c df 3c 5e de 05 bd 6a bb 6c 3d 8f ab c8 3a
       0.027227698 -0.03268277 0.05779592 0.0015309918
000380 75 fc a0 3c 60 cb 7c bb 93 5d 6b bd ad b5 8a 3c
       0.01965163 -0.003857337 -0.057462286 0.016932333
000390 ba 3d 3b 3d 11 85 92 3d 99 56 df 3c a2 a2 25 bd
       0.045713164 0.07154287 0.027262973 -0.0404383
0003a0 13 18 90 bd e3 3e 16 bd 5c 0a 04 3d 02 16 cf 3c
       -0.07035842 -0.036681067 0.032236442 0.025279049
0003b0 e6 7e 85 3d 2a d7 36 3c e4 0a b1 3d f5 e6 42 bd
       0.065183446 0.011159698 0.08644655 -0.04758354
0003c0 1f 4f 85 bd fe 14 64 bd 29 d4 99 3c b9 de 66 3c
       -0.06509232 -0.055684082 0.018777924 0.014091187
0003d0 d9 d7 44 bd a6 a8 90 3d 9e bd 00 3c 96 0a 0e bd
       -0.04805741 0.07063417 0.007857708 -0.034678064
0003e0 e3 7d 7d 3d ad fc b0 bd b5 a8 e0 3c cb 3e dd bc
       0.061887633 -0.08641944 0.027424196 -0.027007481
0003f0 38 c9 25 3d e1 3e a1 bd 0d 56 fa bc b3 0a 9e 3d
       0.0404751 -0.07873321 -0.03055861 0.077168845

actor.policy_head.bias f4 [50]
000000 3b fd f6 bc 8d 76 5d 3d 55 3c f1 3c d8 5c de bc
       -0.030150047 0.054068137 0.029447714 -0.02714388
000010 7f 5f 91 3d 31 85 8d 3c 0d 5a 09 3d e3 0b 86 3d
       0.070982926 0.017275425 0.033533145 0.06545236
000020 53 96 4f bd c0 6b 22 3d 19 f6 09 3c c6 5a a0 bd
       -0.05068047 0.03965354 0.008420491 -0.07829814
000030 db 9a 79 bd 9f f3 23 3d 81 97 95 3a 04 56 9a bd
       -0.060938697 0.040027257 0.001141295 -0.075359374
000040 ff b6 c6 3c 10 bc a6 3b 0f 2e 02 3d 05 5d e2 3b
       0.024257181 0.0050883368 0.031782206 0.0069080614
000050 be 2e c6 3c 8a 97 80 3d 3a d0 b0 3d 4f 96 44 3c
       0.02419221 0.06278904 0.08633466 0.011998727
000060 2e 0b f3 bc 1e 88 53 3c 38 e2 a1 bd 8a de 5a 3d
       -0.029668417 0.012910871 -0.07904476 0.053434886
000070 86 aa eb bc 00 65 ef bc 87 2f 4a 3c 61 de b3 3b
       -0.028767835 -0.029222965 0.012340433 0.005489156
000080 2c aa 89 3d 16 7b 9e bd b6 15 d3 39 f5 e6 9f bc
       0.06721911 -0.077383205 0.00040261232 -0.019519309
000090 03 a6 29 3d 60 73 42 bd ae ca 6b 3d 48 e8 b0 bd
       0.041418087 -0.04747331 0.057566337 -0.08638054
0000a0 0a df 57 3d 87 bf 1a 3d 43 91 27 bd ae 0b f2 3c
       0.05270294 0.03778031 -0.040910017 0.029546585
0000b0 e3 8e 9b bc 56 fe 4b 3c 5f 2b 92 3d 05 5a 5b 3d
       -0.018989032 0.012450775 0.07137179 0.053552646
0000c0 e8 61 3c bd 98 43 be bb
       -0.04599181 -0.0058063976

critic.fc1.weight f4 [256, 21]
000000 35 a4 87 3d 58 c9 9c bb 77 08 2a 3e d6 5c 08 3e
       0.06623117 -0.0047847442 0.16604792 0.13316664
000010 b1 17 54 3e 1e 45 e8 bd 16 69 93 bd 92 48 d8 3d
       0.20712163 -0.11341308 -0.07197778 0.10560717
000020 52 ac 3e be 78 b8 5c 3e 10 e0 92 bd 59 5b de 3d
       -0.18620422 0.21554744 -0.07171643 0.10857267
000030 ba cb 53 3e 8c 4c 26 3d e9 92 2e 3e c4 b5 4e 3e
       0.20683184 0.040600345 0.1704823 0.20186526
000040 12 cf 96 3d 2a 26 bf bd d3 a6 fa 3d 1e 7c b9 bd
       0.07363714 -0.09333451 0.122388504 -0.090568766
000050 f8 ae 38 3d 04 4d 41 3d ac a9 21 3e d7 cb d9 3d
       0.04508874 0.04719259 0.15787381 0.106345825
000060 83 e7 f5 bd 6b 82 2e 3e 66 9d 01 3d 72 e2 1b be
       -0.12007048 0.17041938 0.031644247 -0.15223101
000070 60 68 ea bc 26 3e 30 3c 59 a7 51 3e 7d 73 22 be
       -0.028614223 0.010757005 0.20473994 -0.15864368
000080 70 24 21 3e 27 68 a9 3c a7 f7 2b be 52 be 56 be
       0.15736556 0.020679547 -0.1679369 -0.20971039
000090 72 a0 62 3d 84 a9 5b be 49 a2 a3 3d 9a bf 64 3d
       0.055328794 -0.21451384 0.07989938 0.055846788
0000a0 1e ae c4 3d 30 c2 56 bc b8 e2 4e 3e 7d 78 00 bd
       0.09603523 -0.013107821 0.20203674 -0.031364907
0000b0 8d 2b 1b 3e f4 54 ee 3b 63 40 e1 3d a4 d3 21 bb
       0.15153332 0.007273311 0.10998609 -0.0024692798
0000c0 c0 21 c4 3d 4f cb 2d be 36 58 da bb 02 61 38 be
       0.0957675 -0.16972087 -0.0066633476 -0.18005756
0000d0 e0 cd d0 3d 7b df a4 bd dd ff 9b bd 9a 53 83 3d
       0.101955175 -0.08050438 -0.076171614 0.0641243
0000e0 7b af 2d be 76 7e 52 bd 45 54 e5 bd a1 50 1f bc
       -0.16961472 -0.051390134 -0.11197714 -0.009723813
0000f0 ab 24 80 bd 15 0a 1e 3d 4e c1 54 3c 23 99 9f bd
       -0.06256994 0.038583834 0.012985541 -0.077928804
000100 af 8e fa 3d f3 89 9d bc 7a 8d 0e be 57 a9 ca 3d
       0.12234246 -0.019230818 -0.13921157 0.0989558
000110 17 19 2f 3c 5b 9f 56 bd 4d 3d 3b bd b2 9b 14 be
       0.010687134 -0.052398067 -0.045712758 -0.14512518
000120 27 94 45 be 4e 1a 4b 3e 89 19 e7 bd d3 e9 06 be
       -0.19294797 0.19834253 -0.11284167 -0.13175134
000130 13 f1 1b 3e 1b d1 f2 bd d9 fb 02 3d 8a 0f 0e 3e
       0.15228681 -0.1185629 0.031978462 0.13873115
000140 bc f3 35 be 17 0b 5b bd ae 91 ea bd 7a f8 17 be
       -0.17768759 -0.053477373 -0.114535674 -0.1484088
000150 b6 46 e3 bd e8 8d fd bd f0 4e 61 bd c9 b6 00 3d
       -0.110974714 -0.12380582 -0.05500692 0.031424318
000160 ed f4 00 bd 97 d9 10 be 33 0d e3 bd 77 76 0f 3e
       -0.03148358 -0.14145504 -0.11086502 0.14010035
000170 4b 7f dc bd c7 11 d1 ba f5 dc ab 3d bf c2 e1 3c
       -0.10766467 -0.0015950733 0.083917536 0.027558682
000180 6d 07 4f be e0 96 cb 3d 88 f0 2f be fa 8f 91 bc
       -0.20217676 0.099408865 -0.17181599 -0.017768849
000190 ed 9d 02 bd fa 4f 3d be 89 34 08 bd 2f 7f 81 3d
       -0.03188889 -0.1848754 -0.033253226 0.063230865
0001a0 f1 ea f6 3d 0d ae 43 3e d7 fe 5b bd 7b 8b 3c be
       0.1205653 0.19109364 -0.05370983 -0.18412583
0001b0 f3 b7 50 3e c9 dc 3f 3b 90 ef 18 3e 91 19 ce bd
       0.20382671 0.0029275885 0.14935136 -0.1006347
0001c0 b5 e9 8e 3d ec 84 f7 bc 16 c2 3a be 1c 73 20 be
       0.0697817 -0.03021475 -0.182381 -0.1566891
0001d0 22 17 d9 bd 76 fd 11 be 37 37 e0 bd b7 cd c1 bd
       -0.10600115 -0.14256844 -0.109480314 -0.09463065
0001e0 2d c4 09 be 13 68 f6 bd c6 47 05 be 5a b9 54 be
       -0.13453741 -0.12031569 -0.1301566 -0.20773831
0001f0 11 f7 7c 3d b3 9a d1 bc 0c ce d9 3c 0a 56 4b bd
       0.06175906 -0.025586462 0.026587509 -0.0496426
000200 0f bc 31 bd 4c 32 3b be c1 5c 9f bd 17 dd 23 be
       -0.043392237 -0.18280905 -0.07781363 -0.16002308
000210 45 f3 1b 3d 72 c9 06 3e 34 af 37 3b f7 fd 9a bc
       0.038073797 0.13162783 0.0028028013 -0.018919928
000220 5c d1 d3 3d 1b b2 d5 bd c4 76 a6 bd 08 b4 4c be
       0.103426665 -0.104343615 -0.081281215 -0.19990551
000230 35 0b 40 3e 2c 1a 43 3e ce b5 c6 3d 82 9d 32 be
       0.18754275 0.19052953 0.09702645 -0.17442897
000240 d6 ea 32 be 56 1b 29 3d b1 82 bb bb 9d 38 48 3e
       -0.17472395 0.041285835 -0.0057223667 0.19552846
000250 bb 8e 38 bd 97 a9 3c be 5c a5 4b be 54 0d 1d be
       -0.045057993 -0.18424068 -0.19887298 -0.15337116
000260 74 4e c8 3d 3f 34 e5 bd 1b 36 91 3d 8d 70 01 be
       0.09780589 -0.11191606 0.07090398 -0.12640591
000270 b9 10 f6 3d 64 04 5c bd f4 44 f7 bd 8a 91 cf bd
       0.12014908 -0.053715125 -0.12073699 -0.10135181
000280 c6 04 ff 3d 28 79 db 3d 78 f7 0a 3e c9 5d e4 3c
       0.12452082 0.10716468 0.13570964 0.027876751
000290 16 13 1e bc 1c 7c 3b bd 33 31 92 bc 7c b9 57 be
       -0.009648105 -0.045772657 -0.017845726 -0.2106685
0002a0 c7 dd 2a be 67 ab 9e bd d3 23 9c 3c a4 3f c6 3c
       -0.16686164 -0.07747536 0.019060051 0.024200268
0002b0 16 c9 29 bc 4c 90 a4 bd d9 02 33 3e e9 75 e1 3d
       -0.010362884 -0.08035335 0.17481555 0.11008818
0002c0 f3 8a 0f bd b2 7f 4b bc 16 23 85 3d cc b8 ee bd
       -0.03504462 -0.012420582 0.06500833 -0.11656341
0002d0 4b 17 91 39 23 aa 6c bc 9f 91 30 3e 58 9e 8f 3a
       0.0002767391 -0.014444861 0.1724305 0.0010957224
0002e0 14 b3 39 be 2f 6b 17 3e cb 49 d8 bd 17 33 ff 3d
       -0.18134719 0.14786981 -0.1056095 0.124609165
0002f0 e8 ce 1f 3e 2b ca df 3d 9e 69 8d bd f4 4a 05 be
       0.15606272 0.10927232 -0.069049105 -0.13016874
000300 ca 0a fa bd 18 2c c4 bd 2e a3 27 be 94 58 44 3e
       -0.12209089 -0.09578723 -0.16370842 0.19174415
000310 af ed c1 bd 10 a6 02 3e 82 bf 2b 3e 49 f5 1c 3e
       -0.09469163 0.1275866 0.16772273 0.15327944
000320 72 45 09 bd da 70 14 be cf 58 1a be 49 ab 1f 3e
       -0.033513494 -0.14496174 -0.1507294 0.15592684
000330 42 96 23 3e 1d b5 30 3e a1 a7 55 3e 3c c5 c2 bc
       0.15975288 0.17256589 0.20864727 -0.02377569
000340 d3 b9 f3 bc 7d 52 0d be c0 8f 0e 3e 4d 96 39 be
       -0.029751694 -0.13800998 0.13922024 -0.18123741
000350 30 aa e3 3d 10 8a 5f ba dc f9 11 3e 28 57 cd bd
       0.11116445 -0.0008527348 0.1425547 -0.10026389
000360 9c 6e 3a be 25 96 12 3e ef 81 04 be d1 2a ee bc
       -0.18206257 0.14315088 -0.1294019 -0.02907315
000370 58 c7 33 3e d6 5a 3f 3e 33 5c c5 3c 1c f7 8e bd
       0.17556512 0.18686995 0.024091816 -0.06980726
000380 af db 2f be 62 c9 02 3c 3d e1 4d be 99 44 d1 3d
       -0.17173646 0.007982584 -0.20105453 0.10218162
000390 f1 d7 59 3e 1e aa 47 3e 64 b5 54 be 9b 0c 2e 3d
       0.21273781 0.19498488 -0.2077232 0.04249249
0003a0 23 de 5c be cb 08 4b be 2d eb fc 3d d7 ed a2 bc
       -0.21569113 -0.19827573 0.12349544 -0.019888802
0003b0 cc eb 90 3c 96 8a 2d 3e 28 43 8c 3a 88 0f 9a 3d
       0.017690562 0.16947398 0.0010701166 0.075224936
0003c0 10 bc f2 3c 00 68 21 3c 4e ed 20 be 6c 69 d4 bd
       0.02963069 0.009851456 -0.15715525 -0.1037167
0003d0 68 aa 61 bd 9b 8d 49 3e 95 7a e8 bc c1 c8 8f 3d
       -0.055094153 0.19682924 -0.028378764 0.07020713
0003e0 50 11 37 3e 53 ba 41 3e ed 08 00 3e f7 1e 1b be
       0.17877698 0.18918733 0.12503405 -0.15148531
0003f0 89 6f 9d 3b 91 a8 d4 ba db 2b b6 bd df a1 c4 bd
       0.004804556 -0.0016224553 -0.088950835 -0.09601187

critic.fc1.bias f4 [256]
000000 a0 0e 2f 3e cd b2 43 3e 4c e5 5e be 4b 2d 32 be
       0.17095423 0.19111176 -0.21767157 -0.1740009
000010 d5 3b e2 bd 2f 13 db 3b 0f 37 4b be 5d 74 da bd
       -0.11046568 0.0066856365 -0.19845222 -0.10666726
000020 73 3e 93 3d b5 d7 10 be 3b 1a f8 bd 9d 91 b5 3d
       0.071896456 -0.14144786 -0.12114378 0.08865664
000030 59 46 e9 bd 17 20 21 bd c8 99 47 3d 37 e7 4a bd
       -0.11390371 -0.039337244 0.04873064 -0.04953691
000040 5b 8e 57 3e 62 5f 5a 3d 1b 03 23 be 64 de ed bd
       0.21050398 0.05331362 -0.15919153 -0.11614683
000050 14 f6 70 bd 37 72 09 3e 51 38 2c be fa 4c b6 bc
       -0.05882843 0.13422476 -0.16818358 -0.022253502
000060 25 69 ab bd 1c be 37 3e 39 33 07 3d 4a 3b 8a bd
       -0.08369664 0.17943615 0.033007834 -0.0674959
000070 e1 f8 fd 3d d5 ec f3 bc 63 14 bb 3d ed a1 75 3b
       0.124009855 -0.029776016 0.09134748 0.0037480548
000080 e4 da 41 be 38 75 70 bc 9b a8 34 3e 4a 20 30 3e
       -0.18931156 -0.014676385 0.17642443 0.17199817
000090 c2 19 b4 3d cd e0 32 bd 69 fb 3f 3e d6 77 31 be
       0.087939754 -0.043671418 0.18748249 -0.1733087
0000a0 c1 2d 24 3d d5 13 49 be 3f 0b 5e 3e 26 8c 54 3c
       0.040082697 -0.19636472 0.21683978 0.012972867
0000b0 b6 62 19 be 28 f5 08 3e 5f 38 2d 3d b1 55 ab 3c
       -0.14979061 0.1337477 0.042290088 0.020914884
0000c0 2b c9 2f be 96 1b 0a be 32 57 3c 3e d0 06 11 be
       -0.17166583 -0.13487086 0.18392637 -0.14162755
0000d0 ec c3 4b 3e cf 63 2a bd 11 db 93 bd 18 cb fc 3c
       0.19898957 -0.04159909 -0.07219518 0.030858561
0000e0 b1 39 3d be c6 d7 c7 bd 79 af 7a bd 13 53 07 3e
       -0.18479039 -0.097579524 -0.0612025 0.13215284
0000f0 dd b6 1a 3e 8f 9f ed 3d 39 d1 1f be f1 c8 0d be
       0.1510882 0.11602699 -0.15607156 -0.13846184
000100 52 9a 3a be b5 52 25 3d f1 4a 12 be ac 6d 39 3d
       -0.18222931 0.04036208 -0.142864 0.045270607
000110 4b 6a 1a be 33 61 dc 3d 8e c5 25 be 02 9f 4b 3e
       -0.1507961 0.10760727 -0.16188642 0.19884875
000120 50 07 30 be 29 26 5f 3e c2 31 7a bd c9 41 70 3d
       -0.1719029 0.217919 -0.06108261 0.058656488
000130 bf 80 9b bc ea e8 72 3d 22 95 4b be 64 cd 30 be
       -0.01898229 0.059304155 -0.19881108 -0.1726585
000140 a7 9e b9 bd 74 8d 71 bd d4 7b 11 3e af 67 4b bd
       -0.09063464 -0.05897279 0.14207393 -0.049659427
000150 48 d8 3f 3e 26 35 2b be ec 2f 3d 3e c9 8a 8c 3d
       0.18734848 -0.16719493 0.18475312 0.06862409
000160 81 88 2d be ca bd 58 be 55 c8 4c 3e 30 c1 5e be
       -0.16946603 -0.21166149 0.19998296 -0.21753383
000170 57 29 f1 bd 44 4e 73 3d c9 45 ec bd 69 32 ab bc
       -0.11775463 0.05940081 -0.11536748 -0.02089806
000180 00 b5 ef bd 76 2d e9 3c 03 d2 98 bd 38 00 a3 39
       -0.11704445 0.02846406 -0.074619316 0.00031089946
000190 0d a5 01 3e 4f 82 23 3e 5b bb a5 bd c9 6d 1c 3d
       0.12660618 0.15967678 -0.08092376 0.038190637
0001a0 32 bb b8 3d cd 9c 3a be 5d 98 26 3e 3b b3 43 3e
       0.0902008 -0.18223877 0.1626906 0.1911134
0001b0 70 49 2e 3e f2 00 47 be 01 6d 54 be 11 3b 07 3c
       0.17020202 -0.19433954 -0.20744707 0.008253829
0001c0 f2 a6 01 be b9 e8 0a bd 29 95 14 be 8b 96 77 bd
       -0.12661341 -0.033913348 -0.14510025 -0.060446303
0001d0 5b b2 c7 3c 9e bc 71 3d b1 d0 78 bd 9b fc bd bd
       0.024377039 0.05901777 -0.0607459 -0.09276696
0001e0 d8 99 8f 3d a8 bb a0 3d 86 75 55 bd 31 f0 98 bc
       0.07011765 0.078482926 -0.052114032 -0.01866922
0001f0 17 15 20 3e ff fa 37 bd 42 a8 40 be 2b f9 c0 3c
       0.15633045 -0.044917103 -0.18814185 0.023556313
000200 53 5a 5a be 2e 2e 9d bd 5e 26 82 b9 73 ad 17 be
       -0.21323518 -0.07674824 -0.00024824118 -0.1481226
000210 15 5c 21 be b1 9d 56 3e 56 dc 03 be 72 8a 76 bd
       -0.15757783 0.20958592 -0.1287702 -0.060190625
000220 47 53 01 3d 7c e6 9b 3d 22 97 8c bd 50 83 be 3d
       0.03157356 0.07612321 -0.06864764 0.093023896
000230 81 24 22 be 59 60 31 be f8 c7 55 3d 79 02 36 3e
       -0.15834238 -0.1732191 0.05219266 0.1777438
000240 94 fd 10 3e a7 1f 52 bc 9a b5 c6 3d 74 42 46 3e
       0.14159232 -0.012824929 0.097026065 0.19361287
000250 88 ea 30 3e ce f3 ec bd cd 27 25 3e 89 0c c9 bd
       0.17276967 -0.115699396 0.16128464 -0.09816844
000260 db b6 95 3d 55 a1 7d bd 41 bf 71 3d e7 01 bf bd
       0.073102675 -0.061921436 0.059020285 -0.09326535
000270 53 92 31 3e ae 1c b9 bc 94 09 92 3c 44 a8 a1 bb
       0.17340975 -0.022596683 0.017826833 -0.004933389
000280 bd 14 34 3e 68 58 0a be 38 f6 8b 3b fb 48 fe bd
       0.17586036 -0.13510287 0.004271295 -0.12416264
000290 ba 6c 28 3e a4 fc 05 3d c2 60 16 3e 58 28 b3 3d
       0.16447726 0.03271164 0.14685348 0.08747929
0002a0 b9 97 e5 bd 3b a7 6c 3d 7f 2c b1 bd 82 3a 3d 3d
       -0.112105794 0.05777667 -0.08651065 0.046198376
0002b0 8b 74 d1 3d fa d5 ca 3d 50 03 58 3d cb 40 05 3d
       0.10227307 0.09904094 0.052737534 0.032532495
0002c0 eb 21 b9 bc 3a a1 9a bd 9f 7c 38 3e 81 81 48 3e
       -0.022599181 -0.07550283 0.18016289 0.19580652
0002d0 9d 59 44 be f1 f1 e4 3d 54 df 20 be 79 fd f0 bd
       -0.1917481 0.11178959 -0.15710193 -0.11767096
0002e0 75 d3 a7 3d 8f d1 bc bb 41 c1 13 be f9 46 16 3d
       0.08194629 -0.005762286 -0.1442919 0.03668878
0002f0 4a fb 65 bc d2 d8 48 3b 12 22 26 3e eb 5c fe bd
       -0.014036963 0.0030646813 0.16223934 -0.124200664
000300 9b ca 37 3e a2 10 bb bd 02 47 4a 3e 02 57 27 be
       0.17948382 -0.09134032 0.1975365 -0.16341785
000310 97 aa 09 3e a1 d7 f3 3d ac 29 b0 bd df 64 2a 3d
       0.13443981 0.11906362 -0.08601698 0.041600104
000320 f0 a7 a3 3d 1c 27 04 3e 15 96 bf 3d 04 9e cb 3d
       0.07991016 0.12905544 0.09354798 0.099422485
000330 ce 81 d1 bc 16 c0 2d 3d 52 74 08 3e 48 44 4a be
       -0.025574591 0.042419516 0.13325623 -0.1975261
000340 11 65 31 3e 81 31 15 be bd 9a b4 3c 5f ba e1 bd
       0.1732371 -0.14569665 0.022046441 -0.110218756
000350 cb 91 44 be 7e 88 38 3e 6a c6 b2 bd 02 79 8d 3c
       -0.1919624 0.18020818 -0.08729251 0.017269615
000360 1f 9e 7a 3c 8d 23 a6 bd 64 ab 3f 3e f4 22 88 bd
       0.015296488 -0.081122495 0.18717724 -0.06647292
000370 7d 03 eb bd 23 0c dc 3d 52 7f 2f bd f0 8f fa 3c
       -0.11475275 0.107445024 -0.04284603 0.030586213
000380 af 87 5e be 56 0e 62 3d 3f 22 15 bc ae bf 5e 3e
       -0.21731447 0.055189453 -0.009102403 0.21752807
000390 1c 9f 1d 3d 9a 98 1a be f7 31 af bb 24 32 9f 3d
       0.038481817 -0.15097275 -0.0053465324 0.077732354
0003a0 83 24 e0 bb 2e c7 9a 3b 11 9a 94 bd 4f d8 6a bd
       -0.00684029 0.004723451 -0.07255948 -0.057335194
0003b0 c9 21 3a 3d 3b 42 d0 3d 78 a4 b2 3d 16 fc 17 3e
       0.045442376 0.101688825 0.08722776 0.14842257
0003c0 8d 7c 4e be 4c 1f e0 3d 8e d1 9d 3d 01 dc 02 3e
       -0.201647 0.109434694 0.07705985 0.12779237
0003d0 82 5e f2 bd c4 11 19 3e 04 ce 48 3d 31 57 39 be
       -0.11834432 0.14948183 0.049024597 -0.18099667
0003e0 78 4b 08 3e 69 00 3d bd 38 4d 12 be ce 7f fe 3d
       0.13310039 -0.04614297 -0.14287269 0.124267206
0003f0 37 dd 37 bd 52 ac 12 3d f1 bd 20 be 6b 4d 39 be
       -0.0448887 0.03580887 -0.15697457 -0.18095939
