server/policies/checkpoints/policy_1_600/model.pt (torch, 338258 bytes, 11 tensors)

actor.fc1.weight f4 [256, 21]
0	0x3dbab772	0.09117021
1	0xbcd0d33d	-0.025491351
2	0x3e5b8fd8	0.21441591
3	0xbe056650	-0.1302731
4	0x3e255040	0.16143894
5	0xbe40b47f	-0.18818854
6	0xbe3ee9d7	-0.1864389
7	0x3e2bb7ee	0.16769382
8	0xbd1ab544	-0.037770525
9	0xbe427ffb	-0.18994133
10	0xbc930283	-0.017945534
11	0xbe11f75f	-0.14254521
12	0xbe4c5609	-0.19954695
13	0x3d62a1c5	0.055330057
14	0xbd9b7ba5	-0.07591943
15	0xbe2e0635	-0.16994555
16	0x3d87d53a	0.066324666
17	0x3b463a49	0.0030247143
18	0xbd0896c0	-0.03334689
19	0x3b931e02	0.004489661
20	0xbe27fa68	-0.16404116
21	0xbd33d215	-0.04390152
22	0x3df2d307	0.118566565
23	0xbda10a75	-0.07863323
24	0x3cae44e2	0.02127308
25	0x3e3089cf	0.1724007
26	0xbd1c69a5	-0.038186688
27	0x3dac3f1f	0.08410477
28	0xbe2d99d0	-0.16953206
29	0xbe50fb68	-0.20408404
30	0x3d96207c	0.07330415
31	0x3d234015	0.039856035
32	0xbda5d18d	-0.08096609
33	0xbe299c7d	-0.16563602
34	0x3cdb11b1	0.026741834
35	0x3da94d15	0.08266655
36	0x3e44fe45	0.19237621
37	0xbd8b92a4	-0.06815079
38	0xbe4bc4f2	-0.19899347
39	0xbe3a0438	-0.18165672
40	0xbdbbc92c	-0.0916923
41	0xbda84e5b	-0.0821807
42	0xbe116ed3	-0.14202432
43	0x3e5a8130	0.21338344
44	0xbdf4b408	-0.11948401
45	0xbd836463	-0.064156316
46	0x3d2acafd	0.04169749
47	0x3b077b27	0.002067277
48	0xbdba35d5	-0.09092299
49	0x3e549ed7	0.20763718
50	0x3e25dcec	0.16197556
51	0x3dee04f8	0.116220415
52	0x3e3c41f6	0.18384537
53	0xbde3df1e	-0.111265406
54	0xbd8d25c3	-0.06891968
55	0xbe59ec8e	-0.21281645
56	0x3e2c2c01	0.16813661
57	0xbcd5f31f	-0.026116906
58	0xbe58483b	-0.21121304
59	0x3e533615	0.206261
60	0x3e4a93e2	0.19782975
61	0xbe113992	-0.14182118
62	0x3ce2f779	0.027705895
63	0xbe4de7d5	-0.20107968
64	0xbe56739b	-0.20942537
65	0x3e1e2fba	0.15447894
66	0x3e3a7441	0.1820841
67	0x3d628d40	0.055310488
68	0xbdefa124	-0.11700657
69	0xbe2d857f	-0.16945456
70	0xbe0737c4	-0.13204867
71	0xbde9d099	-0.1141674
72	0x3e0b13b7	0.1358174
73	0xbc84cbac	-0.0162104
74	0x3e0b90c8	0.13629448
75	0x3a04dedc	0.0005068609
76	0xbe29e39f	-0.16590737
77	0xbe334437	-0.1750649
78	0x3cb31dc5	0.021864781
79	0x3e335adf	0.17515133
80	0x3e33767f	0.17525671
81	0x3e35b4d8	0.17744768
82	0xbe051d56	-0.12999472
83	0x3e15b130	0.14618373
84	0xbdf389c3	-0.1189151
85	0x3deb6ebc	0.1149573
86	0x3e5a8375	0.2133921
87	0xbe3bdb48	-0.18345368
88	0xbd79e467	-0.061008837
89	0xbc5f620a	-0.013634214
90	0x3d1f73bd	0.038928736
91	0xbe477856	-0.19479498
92	0xbe129f71	-0.14318635
93	0xbde993b7	-0.114051275
94	0xbe18c7e7	-0.14920007
95	0xbda4fb47	-0.0805574
96	0xbe379114	-0.17926437
97	0xbe0cf723	-0.1376615
98	0xbc74a893	-0.014932769
99	0x3e2cb60b	0.16866319
100	0xbc87128a	-0.016488332
101	0x3dcca4d0	0.09992373
102	0x3b5848b0	0.003300231
103	0x3e46dd9f	0.19420479
104	0xbe0750bd	-0.13214393
105	0xbd2f1dbf	-0.042752977
106	0xbcdd850d	-0.027040983
107	0x3dd53d98	0.10412139
108	0x3da44602	0.080211654
109	0xbc9bf941	-0.019039752
110	0x3e1c4663	0.15261225
111	0x3d07f60c	0.033193633
112	0xbd80d424	-0.062904626
113	0xbe002fca	-0.1251823
114	0xbcef4c67	-0.029211236
115	0x3dbe34dc	0.09287426
116	0xbda4ff30	-0.08056486
117	0xbe334863	-0.17508082
118	0xbdb2a4f3	-0.08722868
119	0xbcfad872	-0.030620787
120	0x3e277502	0.16353229
121	0x3e062fa7	0.13104115
122	0xbe4ee399	-0.20204009
123	0xbd3e8c56	-0.046520554
124	0x3cdb90d8	0.026802465
125	0x3da599f4	0.08086005
126	0xbdd1dd69	-0.10247309
127	0xbdf3d168	-0.119051754
128	0xbe3ac410	-0.18238854
129	0x3da7d648	0.08195168
130	0xbd8e854f	-0.0695902
131	0xbe182853	-0.14859132
132	0xbd86c271	-0.065800555
133	0x3d6eb68e	0.058279566
134	0x3e11c2f7	0.1423453
135	0xbe5b0a5c	-0.2139067
136	0xbe02d172	-0.1277521
137	0xbdfb1647	-0.122601084
138	0xbd661ff8	-0.05618283
139	0x3d16b2ea	0.03679172
140	0xbe4d1cc0	-0.20030499
141	0x3cff68c0	0.031177878
142	0xbafc2fc4	-0.001924031
143	0x3e5e2e1f	0.21697281
144	0xbdce6e40	-0.10079622
145	0xbe4cc784	-0.19997984
146	0x3d9e7f52	0.07739128
147	0x3be39d11	0.006946214
148	0xbc28775c	-0.010282364
149	0x3e3ee21e	0.18640944
150	0xbe0c215c	-0.136846
151	0xbde40423	-0.111336015
152	0x3c889200	0.01667118
153	0xbe2f1539	-0.1709794
154	0x3e39a419	0.18129005
155	0xbb0cc26f	-0.0021478196
156	0xbd91d073	-0.07119837
157	0x3d86d9d6	0.06584518
158	0x3e578642	0.21047309
159	0x3e38b2de	0.18036982
160	0x3e02f5bd	0.12789054
161	0xbdb1b14b	-0.08676394
162	0x3e3e278b	0.18569772
163	0xbddcd62a	-0.10783036
164	0xbd9120b7	-0.07086318
165	0x3ce89a6a	0.028393943
166	0xbd822347	-0.06354385
167	0xbe55e597	-0.20888363
168	0xbd082345	-0.03323676
169	0xbe287a60	-0.16452932
170	0xbe406d1a	-0.18791619
171	0x3e4a2d87	0.1974393
172	0xbe35238e	-0.17689344
173	0xbe5ad1de	-0.2136912
174	0x3e0145e8	0.12624323
175	0x3dcb0f56	0.099150345
176	0xbd50f734	-0.051017
177	0x3dc3b872	0.095566645
178	0x3b9eb0ef	0.0048428695
179	0x3e212a66	0.1573883
180	0xbe32d380	-0.17463493
181	0x3d3fd1a2	0.04683078
182	0x3e3a4976	0.18192086
183	0xbde5600e	-0.111999616
184	0xbc0d96f8	-0.008641951
185	0x3ddadb6c	0.10686383
186	0xbe5c43fd	-0.2151031
187	0x3c3e0c31	0.011599586
188	0x3dcf7790	0.101302266
189	0xbc35b613	-0.011090773
190	0x3dfc2cdf	0.12313246
191	0x3c2009da	0.009767974
192	0x3e2dc6f4	0.16970426
193	0x3dc5318f	0.09628593
194	0xbe18a3cf	-0.14906238
195	0x3d8821d9	0.06647081
196	0x3e025083	0.12726025
197	0x3da5d836	0.080978796
198	0xbc7012d1	-0.014652924
199	0x3b93efd6	0.0045146747
200	0xbd8431ac	-0.06454787
201	0x3c295da7	0.01033727
202	0x3e04ecd5	0.12980969
203	0xbd0fdc6a	-0.035122313
204	0x3e3f302e	0.18670723
205	0xbd5bb1ff	-0.053636547
206	0x3cadee9c	0.021231942
207	0x3dc32438	0.095283926
208	0x3d10965f	0.035299655
209	0xbdd79ecb	-0.10528334
210	0xbe0c4f7e	-0.13702199
211	0xbe270c30	-0.16313243
212	0xbd6c71df	-0.057725783
213	0x3ce2739f	0.027643023
214	0xbe1053a9	-0.14094414
215	0x3e2fde4c	0.17174643
216	0x3da94755	0.08265559
217	0x3e1e4162	0.15454629
218	0xbe237201	-0.15961458
219	0x3e51636d	0.20448084
220	0x3e01459a	0.12624207
221	0xbe12d77e	-0.14340016
222	0xbe2fd652	-0.171716
223	0xbd41354f	-0.04716998
224	0xbd867a33	-0.065662764
225	0xbe304a4c	-0.17215842
226	0xbdc97a6b	-0.098378025
227	0x3e0d4f54	0.13799793
228	0x3e32e092	0.1746848
229	0xbd056404	-0.032566085
230	0xbd29c18c	-0.041444346
231	0xbe428050	-0.1899426
232	0x3e117cd1	0.1420777
233	0x3e563ef8	0.20922458
234	0xbd871062	-0.06594922
235	0xbe56e14b	-0.2098438
236	0x3d52b2df	0.051440116
237	0xbe478b19	-0.19486655
238	0x3e4a47a5	0.19753893
239	0xbc879319	-0.016549634
240	0xbe4037af	-0.18771242
241	0x3e05d07d	0.13067813
242	0xbe40e062	-0.18835595
243	0x3c56ba20	0.013105899
244	0xbe057698	-0.13033521
245	0xbe2e9edc	-0.17052788
246	0xbe078ead	-0.1323802
247	0x3d86e076	0.06585781
248	0xbd1d072a	-0.03833691
249	0x3d342f7d	0.0439906
250	0x3e31874e	0.17336771
251	0x3d726297	0.059176054
252	0xbe3b9fdc	-0.183227
253	0x3e38a763	0.18032603
254	0xbc52cdb5	-0.012866427
255	0xbe292d6c	-0.16521233

actor.fc1.bias f4 [256]
0	0x3e248d5e	0.16069552
1	0xbe0f6f27	-0.14007245
2	0xbdc46919	-0.09590358
3	0xbdfbabdf	-0.12288641
4	0x3dd7e278	0.10541242
5	0x3b385c18	0.0028131064
6	0x3da895ec	0.0823172
7	0x3da3f6c9	0.08006055
8	0x3ce16823	0.027515477
9	0xbe423d39	-0.18968667
10	0xbdad6fd8	-0.08468598
11	0x3db45acb	0.0880638
12	0x3e186177	0.1488093
13	0x3dbb2686	0.09138207
14	0xbe2edde7	-0.17076837
15	0x3d506448	0.050876886
16	0xbe36ef15	-0.1786464
17	0x3d6ecc5a	0.058300354
18	0x3e406bbb	0.18791096
19	0x3d25161c	0.04030429
20	0xbe3155b6	-0.17317852
21	0xbe32c489	-0.17457785
22	0x3de0f77f	0.10984706
23	0x3d60700b	0.054794353
24	0x3e411976	0.18857369
25	0xbe54e532	-0.20790556
26	0x3d93de0b	0.07220086
27	0xbe39e351	-0.1815312
28	0xbd1042a7	-0.035219815
29	0x3e0f9e1a	0.14025155
30	0x3e066279	0.13123502
31	0x3df5161a	0.11967106
32	0x3dea2bce	0.11434136
33	0x3e0c0957	0.13675438
34	0xbdf22ea1	-0.118253
35	0xbdcf41bf	-0.10119962
36	0xbd9599a9	-0.07304699
37	0x3e44f721	0.19234897
38	0x3e5871af	0.21137117
39	0x3e4887fc	0.19583124
40	0x3d612aea	0.054972567
41	0xbe071a09	-0.13193525
42	0xbc3922f2	-0.0112998355
43	0xbc5798bc	-0.013158973
44	0x3ca5dc95	0.020246783
45	0x3e479d89	0.19493689
46	0x3df3b36a	0.11899455
47	0x3e351011	0.1768191
48	0xbdf873b8	-0.121314466
49	0xbe39ac53	-0.18132143
50	0x3dc5210e	0.09625445
51	0xbe5b1ca1	-0.2139764
52	0x3dc3ed9c	0.09566805
53	0xbe1cb905	-0.15304954
54	0x3d81a1d2	0.06329693
55	0xbd91637d	-0.07099054
56	0x3e1eb635	0.15499194
57	0x3e5e8c93	0.21733312
58	0xbd88aead	-0.06673942
59	0x3d9078fe	0.070543274
60	0x3cb926e7	0.022601558
61	0x3d4e47b3	0.050361346
62	0x3e1d80a7	0.15381108
63	0xbe3fb4e6	-0.18721351
64	0x3e0f1a57	0.13974892
65	0x3e3c2ba8	0.18376029
66	0x3e482ce2	0.19548371
67	0xbc5ed739	-0.013601118
68	0x3e5e7023	0.21722464
69	0xbc14c9bc	-0.0090813
70	0x3e13d43e	0.14436433
71	0xbe0b8f10	-0.13628793
72	0x3da521fe	0.08063124
73	0x3dff48a0	0.12465024
74	0xbb9f037b	-0.00485271
75	0x3d737f0f	0.059447344
76	0x3e2ea4e9	0.17055096
77	0xbcd54fca	-0.026039023
78	0xbd8eac82	-0.06966497
79	0x3e4e1588	0.20125401
80	0xbd9efb09	-0.07762725
81	0x3bc1537f	0.005899846
82	0xba510bd2	-0.00079744786
83	0x3dd5f3cd	0.10446892
84	0xbc9627d6	-0.018329542
85	0x3e17a068	0.14807284
86	0xbe58f2a5	-0.21186312
87	0x3e162f56	0.14666495
88	0x3dc09968	0.0940426
89	0x3cb26175	0.021774987
90	0xbe4f8ebd	-0.20269294
91	0x3e2794f0	0.16365409
92	0xbd8eccc6	-0.06972651
93	0x3e5cca7f	0.21561621
94	0x3de85d7b	0.11345955
95	0x3e1bc185	0.1521054
96	0x3cd5b315	0.02608637
97	0xbe0a1897	-0.13485943
98	0x3da9ea26	0.082966134
99	0x3e5fa47c	0.2184009
100	0xbc74737c	-0.014920112
101	0x3e3b9d3f	0.18321703
102	0x3e5cc182	0.21558192
103	0x3e2472d8	0.16059434
104	0x3e35ca2e	0.17752907
105	0xbe1cd42b	-0.1531531
106	0xbe598132	-0.2124069
107	0x3de59d9e	0.11211704
108	0xbe14d0a4	-0.14532715
109	0xbe49de2c	-0.19713658
110	0x3d29056d	0.04126494
111	0xbd9b8125	-0.07592992
112	0xbd733fb4	-0.059386924
113	0xbdcda64e	-0.10041486
114	0xbce2963d	-0.02765953
115	0xbdffe8be	-0.12495564
116	0xbd96fbe4	-0.07372263
117	0xbd82a6dd	-0.06379483
118	0xbde7cecc	-0.1131874
119	0x3e506cc2	0.20353988
120	0x3e340eff	0.17583846
121	0x3e5968c6	0.21231374
122	0xbe444e87	-0.19170581
123	0x3d984e56	0.074368164
124	0xbe2fde4f	-0.17174648
125	0xbdc58963	-0.09645345
126	0x3e406b57	0.18790947
127	0x3e5fa50c	0.21840304
128	0xbcfabd0b	-0.03060772
129	0xbd6732de	-0.056444995
130	0xbc949ebc	-0.018142097
131	0xbe284a7e	-0.16434667
132	0xbda76527	-0.0817359
133	0xbcbfb77b	-0.02340292
134	0x3da7cb40	0.08193064
135	0x3d444091	0.047913138
136	0x3e36ec12	0.17863491
137	0x3c1c155d	0.009526578
138	0xbe0606d8	-0.13088548
139	0x3dc254dd	0.09488843
140	0x3e37c9b8	0.17948043
141	0x3db12684	0.086499244
142	0x3d588e6f	0.05287021
143	0x3e0dcb7f	0.13847159
144	0xbe567750	-0.20943952
145	0x3cf723b6	0.030168395
146	0xbcd178d8	-0.025570318
147	0xbd8956eb	-0.067060314
148	0xbe2bb7f5	-0.16769393
149	0xbe3bb52e	-0.18330833
150	0xbe3132f6	-0.17304596
151	0x3db213f2	0.086952105
152	0x3de878e7	0.11351185
153	0x3de143f0	0.10999286
154	0xbe507f6c	-0.20361108
155	0x3e1b75b4	0.15181619
156	0x3e349f40	0.17638874
157	0xbe59624b	-0.21228902
158	0x3e2910b3	0.16510276
159	0xbe407800	-0.18795776
160	0xbe1f1cdd	-0.15538354
161	0x3d0f1b35	0.034938056
162	0x3c28c53d	0.0103009315
163	0xbac367df	-0.0014908275
164	0x3dbf8074	0.09350672
165	0x3c227544	0.009915654
166	0x3d9f8959	0.07789869
167	0xbe1fcd02	-0.15605548
168	0xbe2918d8	-0.16513383
169	0x3d0bb79b	0.034110647
170	0x3cc303a6	0.02380545
171	0xbdffaaf3	-0.12483778
172	0x3e420737	0.18948065
173	0x3e456af1	0.19279076
174	0xbb3a4c7d	-0.0028426938
175	0xbddaeff2	-0.10690297
176	0xbd777bc3	-0.060420763
177	0x3e143855	0.14474614
178	0x3c8c5d53	0.017134344
179	0xbe25a0c6	-0.16174611
180	0xbd40d972	-0.047082372
181	0x3d09b30e	0.033618025
182	0x3d333f98	0.04376182
183	0x3e14d017	0.14532505
184	0xbd5ca0b2	-0.05386419
185	0xbd31994b	-0.043359082
186	0x3dac05b9	0.08399529
187	0x3e2a5474	0.16633779
188	0x3e328346	0.1743289
189	0xbe50649d	-0.20350881
190	0xbe1ede5f	-0.15514515
191	0x3e2ceb8b	0.16886728
192	0xbe1f0396	-0.15528712
193	0x3e4955bc	0.19661611
194	0x3e50e87f	0.2040119
195	0xbd4d62ae	-0.050142936
196	0xbe3c9181	-0.1841488
197	0xbe36621b	-0.17810862
198	0xbe543405	-0.20722969
199	0x3dda77d3	0.10667386
200	0xbdea9ef8	-0.11456102
201	0x3e5131bf	0.20429133
202	0x3e50b12b	0.20380084
203	0xbe47a521	-0.19496585
204	0x3c483261	0.0122190425
205	0x3c675201	0.014118672
206	0x3d1000a0	0.035156846
207	0x3e02ea5e	0.12784716
208	0xbdb74e19	-0.08950443
209	0xbac15cc7	-0.0014752381
210	0xbe56680c	-0.20938128
211	0x3c245f73	0.0100325225
212	0x3e499880	0.1968708
213	0x3c606b43	0.013697448
214	0xbe58239c	-0.21107334
215	0xbdbc9e12	-0.09209837
216	0xbb1efaa6	-0.0024258285
217	0x3d8ff85a	0.07029791
218	0x3e4189f8	0.18900287
219	0x3e36992e	0.17831871
220	0x3deeda8e	0.1166278
221	0xbd90bfbb	-0.0706782
222	0xbe318979	-0.17337598
223	0xbc5c3f9b	-0.013442899
224	0x3d9656fc	0.0734081
225	0x3da345e8	0.07972318
226	0xbbe682ea	-0.007034649
227	0xbd062641	-0.032751326
228	0xbdb4fc3b	-0.08837172
229	0xbdd54d62	-0.1041515
230	0xbc307528	-0.01077012
231	0xbdb66b70	-0.08907211
232	0x3e4533f5	0.19258101
233	0x3df81dab	0.12115034
234	0xbdb655bf	-0.089030735
235	0xbbc974d7	-0.0061479616
236	0x3e2ad6f8	0.16683567
237	0xbdf57294	-0.11984745
238	0x38f2d638	0.000115793606
239	0x3dbcd2e2	0.0921991
240	0xbe190f6d	-0.1494729
241	0xbe21b845	-0.1579295
242	0xbe09e8cc	-0.13467711
243	0xbe1cf031	-0.15326001
244	0x3cd79d99	0.026320266
245	0xbdc592b8	-0.09647125
246	0xbdbdfbee	-0.092765674
247	0xbda227d3	-0.07917752
248	0xbe10db13	-0.1414607
249	0x3d043aee	0.032282762
250	0x3ba13214	0.0049193
251	0xbe3529b7	-0.17691694
252	0xbd4c8f2e	-0.049941234
253	0xbe40868c	-0.18801326
254	0xbe21e5fd	-0.1581039
255	0xbe2702d6	-0.16309676

actor.fc2.weight f4 [128, 256]
0	0x3d395796	0.045249544
1	0x3cf61a9f	0.03004199
2	0xbcb89867	-0.022533609
3	0x3d678ccc	0.05653076
4	0x3ca7bec4	0.020476706
5	0x3bb750ca	0.0055943476
6	0xbc0f8e6b	-0.008761982
7	0xbc4a34f3	-0.012341726
8	0xbd7c1c47	-0.061550405
9	0xbd52c227	-0.05145469
10	0x3c06fdd6	0.00823923
11	0x3cfb8995	0.030705253
12	0xbd71cc68	-0.059032828
13	0xbc0b518a	-0.008503327
14	0xbc544689	-0.01295627
15	0x3a313177	0.0006759385
16	0x3c4623b5	0.012093474
17	0xbd0df3d5	-0.034656364
18	0x3d67edf5	0.056623418
19	0xbd4524cb	-0.04813079
20	0xbd4f8411	-0.050663058
21	0xbc5c139a	-0.013432408
22	0x3cfbbc3d	0.030729407
23	0x3d5e5288	0.054277927
24	0xbd65e5bb	-0.05612729
25	0xbb6b77b7	-0.003592951
26	0xbcd241e9	-0.025666194
27	0x3d0914af	0.03346699
28	0xbca4409c	-0.02005034
29	0x3cc84c4c	0.024450444
30	0x3d55826b	0.05212633
31	0xbcecd88c	-0.028911851
32	0x3d5ccf8e	0.053908877
33	0xbc20aba9	-0.009806552
34	0x3ceebe81	0.029143574
35	0xbd6bf857	-0.057609882
36	0xbce4186d	-0.027843678
37	0x3d51d1cb	0.051225465
38	0x3d080926	0.03321185
39	0x3d57e11f	0.052704927
40	0x3d0c6fe2	0.034286387
41	0x3d3244e4	0.04352273
42	0xbcd3ff46	-0.02587856
43	0x3cdbf090	0.026848108
44	0xbcb57424	-0.022150107
45	0x3c2dc376	0.010605684
46	0x3b443550	0.0029939003
47	0xbd08d7c2	-0.033408888
48	0x3cd451c0	0.025917888
49	0x3ba877f9	0.005141255
50	0xbd41ad15	-0.047284205
51	0xbbd5c3b2	-0.006523573
52	0xbd238aed	-0.03992741
53	0xbd72fca8	-0.059322983
54	0xbc90eba7	-0.017690493
55	0xbc9bd644	-0.019023068
56	0xbc9b83a8	-0.018983677
57	0xbd616dde	-0.05503642
58	0x3d1aafac	0.03776519
59	0xbd130087	-0.035889175
60	0xbd364361	-0.04449785
61	0x3d75277b	0.059852105
62	0x3d68b1d6	0.056810223
63	0xbcfcc31f	-0.03085476
64	0x3d5af50a	0.053456344
65	0xbbc9ec2e	-0.006162188
66	0x3c296215	0.010338326
67	0xbcd4663e	-0.02592766
68	0xbcf0481b	-0.029331258
69	0x3a70d524	0.0009187034
70	0x3d71761e	0.058950536
71	0xbd18f015	-0.037338335
72	0xbc5b4788	-0.013383754
73	0xbbf8d9e9	-0.0075943363
74	0x3d550998	0.052011102
75	0xbcd06224	-0.025437422
76	0xbcb24394	-0.02176074
77	0xbcf642de	-0.030061182
78	0xbd1218d6	-0.035668217
79	0x3b2e2fb0	0.0026578717
80	0xbbf8d6f6	-0.0075939847
81	0x3d386ff7	0.045028653
82	0xbc56c5f2	-0.013108717
83	0x3b91d265	0.00445013
84	0x3d3c11c4	0.04591538
85	0xbd10509e	-0.035233133
86	0xbce7f19c	-0.02831345
87	0x3d58a215	0.05288895
88	0x3d80a91b	0.06282254
89	0x3c9055b9	0.017619
90	0x3c385234	0.0112500675
91	0xbc16630a	-0.009178886
92	0x3d4cb121	0.04997361
93	0xbc50c00e	-0.012741102
94	0x3d482a4d	0.048868466
95	0xbca2d827	-0.01987846
96	0xbca75fd6	-0.02043144
97	0xbc143536	-0.00904589
98	0xbd0dda56	-0.03463205
99	0x3d589232	0.052873798
100	0x3cdc0ded	0.02686211
101	0x3d3435c6	0.043996595
102	0x3d515966	0.051110648
103	0x3d3f81d0	0.04675466
104	0xbd663b92	-0.056209154
105	0x3c9538ce	0.018215563
106	0x3d3d5cb4	0.046230987
107	0x3c7cc07b	0.01542675
108	0x3d35ca8c	0.044382617
109	0x3d65d090	0.056107104
110	0x3cece0fd	0.028915877
111	0x3d3079a1	0.043084744
112	0xbb999a75	-0.004687602
113	0xbcd987b2	-0.026553962
114	0xbca8dabb	-0.020612111
115	0xbcd0671f	-0.025439797
116	0x3bfb9536	0.0076776994
117	0xbd4d1751	-0.050071064
118	0xbcd10958	-0.02551715
119	0xbd689934	-0.05678673
120	0xbc9d0b8f	-0.01917055
121	0xbd3ede1e	-0.046598546
122	0xbceee3d0	-0.029161364
123	0x3cdf1042	0.027229432
124	0x3d2eb2bc	0.042650923
125	0xbd77e4f9	-0.0605211
126	0xbd35d40f	-0.044391688
127	0xbd28d237	-0.0412161
128	0xbc568d8a	-0.013095269
129	0xbcdda3e2	-0.027055684
130	0x3c0a222f	0.008431002
131	0x3cf95ce1	0.030439796
132	0xbd3b6f8e	-0.045760684
133	0xbd58f32c	-0.05296628
134	0xbcf19f66	-0.029494952
135	0x3bda41c5	0.0066606724
136	0x3d3e5f67	0.0464777
137	0xbd232fee	-0.03984063
138	0x3d6fcf5f	0.058547374
139	0xbca607ea	-0.020267446
140	0x3cef7d29	0.029234486
141	0xbcbbcc9f	-0.02292472
142	0x3d4d104d	0.050064374
143	0xbbd79596	-0.0065791113
144	0x3d79109e	0.060806863
145	0x3c4508aa	0.012025991
146	0xbd26b3e9	-0.04069892
147	0xbc27f1ae	-0.010250492
148	0xbcd6e3ba	-0.026231635
149	0x3d0a4ccc	0.033764645
150	0xbcea8904	-0.028629787
151	0xbd0a9a0b	-0.033838313
152	0xbb254396	-0.0025217286
153	0x3d777c2c	0.060421154
154	0x3c2c898a	0.010530839
155	0x3d03608a	0.03207449
156	0x3d6ad0fa	0.0573282
157	0xb9dae676	-0.00041751907
158	0xbcffb175	-0.031212548
159	0xbccad099	-0.02475767
160	0x3d06616b	0.03280775
161	0xbcbc8607	-0.023013128
162	0xbcf8ca03	-0.030369764
163	0xbd12c55d	-0.03583275
164	0x3d4a302b	0.049362343
165	0xba061062	-0.00051141356
166	0xbb87f245	-0.004148754
167	0xbd6fa6f1	-0.058508817
168	0xbd29565d	-0.041342128
169	0xbd16c514	-0.036809042
170	0x3b2388e6	0.0024953424
171	0xbb5cff39	-0.003372146
172	0xbc62de72	-0.01384698
173	0x3d50012c	0.050782368
174	0xbd6f0143	-0.058350813
175	0xbcd3476d	-0.025790894
176	0x3d1f6073	0.03891034
177	0xbbfbd4b4	-0.0076852683
178	0xbcbe0919	-0.023197697
179	0x3b103652	0.0022005034
180	0x3d78d2ce	0.060747914
181	0xbc376e74	-0.011195768
182	0xbca038a1	-0.019558253
183	0xbc839b1c	-0.016065173
184	0x3d0e6ffc	0.034774765
185	0x3cf047dd	0.029331142
186	0xbd1ee39d	-0.038791288
187	0xbd3fc608	-0.046819717
188	0xbd33175d	-0.043723453
189	0x3d67002a	0.05639664
190	0x3d482873	0.0488667
191	0xbd774bb8	-0.060374945
192	0x3d794822	0.060859807
193	0x3c8909df	0.01672834
194	0xbd5b6b57	-0.053569164
195	0x3d06dc0e	0.032924704
196	0xbbcc32f4	-0.00623166
197	0xbd327c2e	-0.04357546
198	0xbd31422e	-0.043276004
199	0xbd2c326a	-0.042040266
200	0x3d0915d4	0.033468083
201	0x3d00faaf	0.03148907
202	0x3cf5fc7c	0.03002762
203	0xbd0f1ac1	-0.034937624
204	0xbcedc02a	-0.029022295
205	0xbd5426bc	-0.051794752
206	0x3d7d0fc5	0.061782617
207	0xbd5e0b51	-0.05421001
208	0x3bed5236	0.0072424663
209	0x3bc9e2fd	0.0061610923
210	0xbb2278d5	-0.002479126
211	0xbc61430a	-0.0137488935
212	0x3d0b48c5	0.034004945
213	0x3cbd0a0f	0.023076085
214	0xbd54e098	-0.051972
215	0x3d5cd620	0.053915143
216	0x3a65ca9f	0.00087658496
217	0x3ba39034	0.0049915556
218	0x3d30ab1e	0.04313194
219	0x3cff9d17	0.031202836
220	0xbc070c7f	-0.008242725
221	0x3bb3df49	0.005489264
222	0x3c214fd6	0.0098456945
223	0x3d2ff0c2	0.042954214
224	0x3d13bae0	0.03606689
225	0xbd37ea8e	-0.044901423
226	0x3d608a68	0.054819494
227	0xbd4ec8cb	-0.05048446
228	0xbd6bff3a	-0.05761645
229	0x3ce7f3f6	0.028314572
230	0x3d33a8ae	0.043862037
231	0xbd23fc82	-0.040035732
232	0xbd313dcf	-0.043271836
233	0xbd25324d	-0.040331174
234	0x3c9379c1	0.018002393
235	0x3c2ad84e	0.010427548
236	0xbcef83cf	-0.029237656
237	0xbc96a325	-0.01838834
238	0x3d7cd80d	0.06172948
239	0x3d29a899	0.041420553
240	0xbd7c009f	-0.06152403
241	0xbd5c70d7	-0.05381855
242	0xbc418887	-0.011812336
243	0xbab6c00e	-0.0013942735
244	0x3d067166	0.03282299
245	0xbd56a6b9	-0.052405093
246	0x3d7eaf59	0.062178943
247	0x3d15563f	0.036459204
248	0x3d46036d	0.04834311
249	0x3d15dddd	0.03658854
250	0x3c8071e0	0.0156793
251	0xbc64ddd6	-0.013968905
252	0x3c9da1fe	0.019242283
253	0xbd1cfde7	-0.038328078
254	0xbd653439	-0.055958007
255	0xbd4916ae	-0.049093895

actor.fc2.bias f4 [128]
0	0x3d147dcd	0.036252785
1	0xbd0cab03	-0.034342777
2	0x3d64c90d	0.0558558
3	0x3d764671	0.060125772
4	0xbd13845b	-0.036014896
5	0x3c4c64fa	0.012475247
6	0x3cbaefee	0.022819486
7	0x3c3b8350	0.011444882
8	0x3d6582a2	0.056032784
9	0x3d71ce2c	0.05903451
10	0xbd27b162	-0.04094065
11	0x3c220d01	0.009890796
12	0x3d6abee4	0.057310954
13	0x3d098214	0.033571318
14	0x3c40e1b5	0.011772563
15	0xbd5aeb95	-0.053447325
16	0xbb3848d4	-0.002811958
17	0xbbcb357d	-0.0062014447
18	0x3d6822f8	0.056673974
19	0x3c0dd473	0.008656609
20	0x3c06e6d8	0.008233748
21	0x3b428408	0.0029680748
22	0xbd31527d	-0.043291558
23	0x3d3dc85d	0.04633366
24	0xbbecd975	-0.0072280713
25	0x3d6a31c8	0.05717638
26	0x3d180f70	0.037124097
27	0x3d443ac6	0.047907613
28	0x3a097ff0	0.00052451994
29	0xbd55ae53	-0.0521682
30	0xbc91594c	-0.017742775
31	0xbc5cc55a	-0.013474787
32	0xbd1611d0	-0.03663808
33	0xbd2e7e59	-0.042600963
34	0x3c48a248	0.012245722
35	0x3b39e87b	0.002836733
36	0xbd19b057	-0.037521686
37	0xbcbd9cf1	-0.023146125
38	0x3c714585	0.014726047
39	0xbd6a0a08	-0.057138473
40	0x3d285d9f	0.04110491
41	0xbcaa118d	-0.020760322
42	0xbd30555f	-0.043050166
43	0xbd2f7602	-0.04283715
44	0x3d6bb3b7	0.057544436
45	0x3d5e1736	0.054221354
46	0x3c53c1e3	0.012924644
47	0x3d72747f	0.05919313
48	0x3d2e98e3	0.042626273
49	0x3d407e97	0.046995725
50	0x3be0ad40	0.0068565905
51	0x3d3d80f2	0.04626555
52	0xbd7382e6	-0.059451006
53	0x3c36b0f6	0.011150589
54	0xbd789532	-0.06068916
55	0xbb334126	-0.0027352064
56	0x3cab3d1e	0.020903166
57	0x3d815c3d	0.06316421
58	0xbd44e7c0	-0.048072577
59	0x3d610c86	0.054943584
60	0xbc9c34cc	-0.019068144
61	0xbcc36901	-0.02385378
62	0x3d686e1e	0.05674564
63	0xbc376158	-0.011192642
64	0x3cab1dbe	0.020888206
65	0xbc3e9bcd	-0.0116338255
66	0xbd239a4f	-0.039942082
67	0x3d6f9f05	0.058501262
68	0x3c9785af	0.018496362
69	0xbbb6a622	-0.005574004
70	0xbd5c3f6f	-0.053771432
71	0x3c8d3ce8	0.017240956
72	0x3b990251	0.0046694656
73	0x3cd3f55d	0.025873834
74	0xbb621194	-0.003449534
75	0x3d3c0365	0.045901675
76	0xbcf06c5b	-0.029348543
77	0x3d0737cb	0.033012193
78	0x3cd0b0d4	0.025474943
79	0xbc0d3f53	-0.008621055
80	0xbd592b1b	-0.053019624
81	0xbd329c4d	-0.04360609
82	0x3cecc8e5	0.028904388
83	0x3cdf6bbf	0.027273057
84	0x3d327e5b	0.043577533
85	0xbd01ee47	-0.03172138
86	0x3c8f8d29	0.017523365
87	0xbc863b88	-0.016385809
88	0xbc77ec07	-0.015131957
89	0x3d648999	0.055795286
90	0x3d73fce0	0.059567332
91	0xbd27cbc4	-0.04096581
92	0xbd6c8f07	-0.05775359
93	0x3d6cfc7f	0.057857987
94	0x3c207a07	0.009794719
95	0xbd2562b2	-0.040377326
96	0x3cc1a007	0.023635877
97	0x3d176f0d	0.03697114
98	0xbd472b9f	-0.048625585
99	0xbd033ceb	-0.032040518
100	0x3c39327b	0.011303539
101	0x3c827b8c	0.015928052
102	0x3ce4e9b8	0.027943477
103	0xbd353073	-0.044235658
104	0x3d5e93db	0.054340225
105	0xbd101519	-0.03517637
106	0xbd69549a	-0.056965448
107	0xbd7378fa	-0.059441544
108	0x3c9a388a	0.018825788
109	0xbba41606	-0.005007508
110	0x3c273147	0.01020462
111	0x3d5b1ab7	0.053492274
112	0x3d502106	0.050812744
113	0xbcd31999	-0.025769042
114	0xbcd3b7e3	-0.02584452
115	0x3cdb435f	0.026765523
116	0x3a9e5c8e	0.0012082027
117	0xbd46a4d0	-0.04849702
118	0xbd5507bf	-0.05200934
119	0x3cb88076	0.022522192
120	0xbd6f05fc	-0.058355317
121	0xbd4bbaac	-0.04973857
122	0xbd556421	-0.052097443
123	0xbd0ea3ff	-0.034824368
124	0xbd654721	-0.055976037
125	0x3ba6c400	0.005089283
126	0xbd5be0f9	-0.053681348
127	0x3cc277e0	0.023738801

actor.policy_head.weight f4 [50, 128]
0	0x3cef1686	0.029185545
1	0xbd9f4948	-0.07777649
2	0xbcf8705e	-0.030327018
3	0xbdadd2fe	-0.08487509
4	0x3d55e306	0.05221846
5	0xbcc034c0	-0.023462653
6	0x3db1465e	0.086559996
7	0xbc548226	-0.012970483
8	0x3c3dc923	0.011583599
9	0xbda30ffc	-0.07962033
10	0xbda533c7	-0.08066516
11	0x3d19510b	0.037430804
12	0x3ce6cc9e	0.028173741
13	0xbd929b93	-0.0715858
14	0xbd96e87b	-0.07368561
15	0xbd9d317c	-0.07675454
16	0x3c81d5cf	0.015849022
17	0x3c51f94e	0.0128157865
18	0xbcc05750	-0.023479134
19	0xbd33dc3c	-0.043911204
20	0x3d9f85ac	0.07789168
21	0x3d56a538	0.05240366
22	0xbdb2c677	-0.087292604
23	0xbc9548f4	-0.018223263
24	0xbda144c8	-0.07874447
25	0xbd7f856e	-0.062383108
26	0xbcb4e8c0	-0.02208364
27	0xbd73c64b	-0.05951528
28	0x3d35cb2a	0.044383205
29	0xbd8bda30	-0.06828725
30	0x3d0a9769	0.033835802
31	0xbd3c8362	-0.046023734
32	0xbd3127f8	-0.043251008
33	0xbdaab5a1	-0.08335424
34	0x3be60844	0.0070200283
35	0x3d5edb0c	0.054408118
36	0xbd70311f	-0.058640596
37	0x3d1b1c62	0.037868865
38	0xbd578c95	-0.052624304
39	0xbd9557c8	-0.072921336
40	0xbd3483de	-0.04407107
41	0xbd86b268	-0.06576997
42	0xbabbeafa	-0.0014336996
43	0x3d5cc9ad	0.05390327
44	0xbcfee46f	-0.031114785
45	0x3db0f9e0	0.0864141
46	0x3d806e0e	0.06270991
47	0x3ced5a5a	0.028973747
48	0x3cbc0fe3	0.022956794
49	0xbd9e9682	-0.07743551
50	0x3c8240a6	0.015899967
51	0x3d600aea	0.05469791
52	0xbdb37cc7	-0.08764034
53	0xbd6d6d2a	-0.057965435
54	0xbd9857d2	-0.074386254
55	0x3d577f52	0.052611656
56	0x3d5fb957	0.054620113
57	0x3cad8b9d	0.021184737
58	0xbda81cad	-0.082085945
59	0xbc0a6a7a	-0.008448238
60	0xbc814307	-0.015779031
61	0x3cf5e4d7	0.030016346
62	0xbb366086	-0.0027828529
63	0x3da378f7	0.079820566
64	0xbdb18204	-0.08667377
65	0x3a190f44	0.00058387616
66	0x3d1f834f	0.038943585
67	0xbc79f945	-0.015257184
68	0x3d8837b2	0.06651248
69	0xbdaf447c	-0.08557984
70	0x3c5de14c	0.0135424845
71	0xbb861fb5	-0.0040931352
72	0xbd6aa00e	-0.057281546
73	0xbd2afcd4	-0.041745022
74	0x3d6b9ff0	0.057525575
75	0x3d9f24b8	0.077706754
76	0xbd0bc5a1	-0.03412402
77	0x3d0b59c0	0.03402114
78	0xbbd33f08	-0.006446723
79	0x3b9d51a3	0.0048009916
80	0xbd951020	-0.07278466
81	0xbca49dae	-0.020094719
82	0xbd8d1dba	-0.068904355
83	0xbd1b662a	-0.037939228
84	0xbc80a019	-0.01570134
85	0xbdb13635	-0.08652917
86	0x3c960d62	0.018316928
87	0xbc26e2e7	-0.010185934
88	0x3c947e03	0.018126493
89	0x3d69f4d9	0.05711827
90	0x3d7f9b64	0.06240405
91	0x3d0a502e	0.03376787
92	0x3d33da91	0.043909613
93	0x3db0ec64	0.08638838
94	0xbd0ff693	-0.03514726
95	0x3d68f640	0.056875467
96	0xbcd252fc	-0.025674336
97	0x3b8de630	0.004330419
98	0xbdacf961	-0.08446003
99	0x3a014357	0.0004930994
100	0x3d61e4b4	0.05514975
101	0xbd130211	-0.035890643
102	0x3cbe72be	0.023248073
103	0xbd8484f1	-0.06470669
104	0x3d8b9dfc	0.068172425
105	0xbd6b0e12	-0.057386465
106	0xbd52a7f7	-0.051429715
107	0x3d89c66c	0.06727299
108	0x3d772ffb	0.060348492
109	0x3d9fe476	0.07807247
110	0x3cdd6b0d	0.027028585
111	0xbd51f005	-0.05125429
112	0xbda2ecaa	-0.07955296
113	0xbdb4585a	-0.08805914
114	0xbd825e25	-0.06365613
115	0xbc81e312	-0.015855346
116	0xbba451ba	-0.0050146254
117	0xbd3dd443	-0.046345007
118	0x3b14a495	0.0022681106
119	0xbd81d614	-0.0633966
120	0x3c8db440	0.017297864
121	0xbc71bd23	-0.014754566
122	0x3d6d87ea	0.057990946
123	0xbd9a3848	-0.07530266
124	0xbda8d0a1	-0.08242918
125	0xbdb23849	-0.08702142
126	0xbd66bd8d	-0.056333113
127	0x3ba21c32	0.004947209
128	0xbd38e439	-0.045139525
129	0x3d83b669	0.06431276
130	0xbd759805	-0.05995943
131	0xbd210912	-0.03931529
132	0xbcfbd834	-0.030742742
133	0x3d3e976b	0.046531122
134	0xbcb36bee	-0.02190205
135	0xbd894983	-0.067034744
136	0x3a7a410e	0.0009546437
137	0x3d9d4e2b	0.07680925
138	0xbd0bc673	-0.034124803
139	0x3c834033	0.016021824
140	0xbc8f9dfb	-0.017531386
141	0xbd589742	-0.052878626
142	0xbd46798e	-0.048455767
143	0x3b4daea8	0.003138462
144	0xbd5d1388	-0.053973705
145	0xbd2f1883	-0.042747986
146	0x3d9a819e	0.07544254
147	0xbda0f78f	-0.07859718
148	0xbd3828f9	-0.04496095
149	0x3d810cfe	0.06301306
150	0x3d1c8662	0.038214095
151	0x3ced5ab8	0.028973922
152	0x3d5ca58f	0.053868826
153	0x3da2e495	0.07953755
154	0x3ca00145	0.019531855
155	0xbd3ca34e	-0.046054177
156	0x3c524f7f	0.012836336
157	0x3d0bcd51	0.03413135
158	0xbcaf61b4	-0.021408893
159	0x3dac72ea	0.084203556
160	0xbda676b1	-0.08128107
161	0x3cd9d2f7	0.026589854
162	0xbcebe88f	-0.028797416
163	0xbca793ca	-0.020456214
164	0x3dafa024	0.08575466
165	0xbd74b758	-0.059745163
166	0x3c51eefd	0.012813327
167	0x3d8593b5	0.065223135
168	0xbd3ef8d2	-0.046624012
169	0x3d110467	0.03540459
170	0xbd84a0c1	-0.06475974
171	0xbcd6e729	-0.026233273
172	0x3d365da9	0.044522915
173	0x3cd577fc	0.02605819
174	0xbda5cfdd	-0.080962874
175	0xbad5d3df	-0.0016313753
176	0x3d55ec80	0.052227497
177	0xbd5e9d56	-0.054349266
178	0xbd5798e8	-0.052636057
179	0xbbcf09a4	-0.006318288
180	0xbd85c5c3	-0.06531861
181	0x3d7d62a1	0.061861638
182	0xbcfcbb9f	-0.030851183
183	0x3ceba605	0.028765688
184	0x3b5712e5	0.0032817659
185	0xbd679b3c	-0.056544527
186	0x3d4128f5	0.0471582
187	0x3d481ac9	0.04885367
188	0xbc8869cb	-0.016652009
189	0xbd47232c	-0.048617527
190	0xbd978816	-0.07399003
191	0xbd134714	-0.035956457
192	0xbd76427e	-0.060122006
193	0x3d8c5e5d	0.06853936
194	0x3daf72f8	0.085668504
195	0x3dad03d7	0.08447998
196	0x3da9a6de	0.082837805
197	0xbd4e42d9	-0.05035672
198	0xbd854153	-0.065066
199	0xbc4d966f	-0.012548073
200	0xbd5bd67b	-0.05367134
201	0xbd632e2a	-0.055463947
202	0x3d979c26	0.0740283
203	0xbd188c71	-0.03724331
204	0x3d490906	0.04908087
205	0xbd49b811	-0.049247805
206	0x3da4d546	0.08048491
207	0xbd1d4621	-0.03839696
208	0xbcb14e5e	-0.021643814
209	0x3cd9223a	0.026505578
210	0xbcb6f693	-0.022334373
211	0xbd9e33cd	-0.07724724
212	0x3cafd697	0.02146463
213	0x3ccdb909	0.025112646
214	0x3d5becd4	0.053692654
215	0xbcdc0675	-0.026858548
216	0x3d437e89	0.047728095
217	0xbc12e4d1	-0.008965687
218	0x3dab4cfd	0.08364294
219	0xbcb43d6f	-0.02200195
220	0xbd63537f	-0.05549955
221	0xbcdba4a0	-0.026811898
222	0xbd34a256	-0.044100128
223	0xbb98150e	-0.004641182
224	0xbd1ee73e	-0.03879475
225	0x3d3f3afe	0.04668712
226	0xbd816796	-0.063185856
227	0x3d1db85d	0.0385059
228	0x3d8b7b92	0.068106785
229	0xbd8bd21b	-0.06827184
230	0x3d9a8d6b	0.075465046
231	0x3bdf5fa3	0.0068168207
232	0xbd6842d8	-0.056704372
233	0xbd296c7e	-0.04136323
234	0xbd1ff011	-0.039047305
235	0xbc13c4a5	-0.009019052
236	0xbc0e511b	-0.008686329
237	0xbda1e4c2	-0.0790496
238	0x3d93508c	0.071930975
239	0xbd1e45fe	-0.03864097
240	0x3d84bbec	0.06481156
241	0xbd5ba69b	-0.053625684
242	0x3d7cd668	0.06172791
243	0x3da15cb4	0.0787901
244	0xbc8bf3eb	-0.017084083
245	0x3cc33400	0.023828506
246	0xbdb10901	-0.086442955
247	0xbda94ce4	-0.08266619
248	0xbd937c49	-0.0720144
249	0x3d9c8067	0.07641678
250	0xbbb51886	-0.005526605
251	0xbd9500ab	-0.07275518
252	0x3d64fd37	0.055905547
253	0xbc093ee5	-0.008376812
254	0xbc5138ee	-0.012769921
255	0xbd4da5c2	-0.050206907

actor.policy_head.bias f4 [50]
0	0xbd177771	-0.036979143
1	0xbdaea658	-0.08527821
2	0xbd295c2d	-0.04134767
3	0xbd0cb633	-0.034353446
4	0x3c57d8bd	0.013174233
5	0xbcaa6264	-0.02079887
6	0xbd53c5bf	-0.051702257
7	0x3bc3da98	0.005976986
8	0xbd8a1f55	-0.06744257
9	0x3da552f9	0.080724664
10	0xbd263a9b	-0.040583234
11	0x3d0df35f	0.034655925
12	0xbc689ca2	-0.0141975
13	0x3d1891b9	0.037248347
14	0x3d3da896	0.046303354
15	0xbd8cbccd	-0.068719484
16	0xbd2d3cbf	-0.04229426
17	0x3d0401c9	0.032228265
18	0x3d7ba6eb	0.061438482
19	0x3db155a8	0.08658916
20	0x3d91a319	0.071111865
21	0xbd8a6a85	-0.06758598
22	0x3d243a44	0.04009463
23	0xbd1b8768	-0.03797093
24	0xbd693724	-0.05693735
25	0x3ba3718c	0.004987901
26	0xbcf11829	-0.029430466
27	0x3d4c85ef	0.049932417
28	0xbd7ed42d	-0.062214065
29	0x3bfea55b	0.0077711768
30	0x3d49489c	0.04914151
31	0xbd416033	-0.047210883
32	0xbdab0fd2	-0.08352627
33	0xbd8d6ccc	-0.06905517
34	0xbd517cc3	-0.051144373
35	0xbd576554	-0.05258687
36	0x3d2882a7	0.041140225
37	0x3da3a04b	0.07989558
38	0xbd4e4ed6	-0.050368153
39	0x3c73833b	0.014862831
40	0xba401810	-0.00073278043
41	0xb9f74d37	-0.0004716904
42	0xbc221f1f	-0.009895115
43	0xbda9fe23	-0.08300426
44	0xbd0adb43	-0.03390051
45	0xbcd48b11	-0.025945218
46	0xbd95548c	-0.07291517
47	0x3d025fb6	0.03182956
48	0x3d69dd1f	0.057095643
49	0x3da1f774	0.07908526

critic.fc1.weight f4 [256, 21]
0	0x3d5016b6	0.05080291
1	0x3e45e993	0.19327383
2	0xbe1b1b24	-0.15147072
3	0x3d5a480a	0.053291358
4	0x3bd66ddc	0.006543858
5	0x3cc19505	0.023630628
6	0x3d38c116	0.045106016
7	0xbddadb4d	-0.106863596
8	0xbdf275b4	-0.11838856
9	0xbe5367d6	-0.20645079
10	0xbdfa5f69	-0.12225229
11	0xbdb3ecea	-0.08785422
12	0x3dee8af0	0.11647594
13	0x3dbc170a	0.09184082
14	0xbbe06f2d	-0.0068491907
15	0xbe4b6bf3	-0.19865398
16	0x3d265913	0.04061229
17	0x3e483a54	0.195535
18	0x3a304009	0.0006723409
19	0xbddc2ad1	-0.10750354
20	0xbdd6338b	-0.1045905
21	0xbdde7301	-0.10861779
22	0xbe472306	-0.19446954
23	0xbe3e219b	-0.18567507
24	0x3e3ecaef	0.186321
25	0xbd6e5ebe	-0.058195822
26	0xbcbe4f52	-0.023231182
27	0xbd91a023	-0.07110622
28	0xbe1cfc49	-0.15330614
29	0xbd0ca243	-0.034334432
30	0xbe2f762a	-0.1713492
31	0x3dff7c4a	0.12474878
32	0xbcf5bc06	-0.029996883
33	0x3d1cb7f6	0.038261376
34	0xbe3ef12d	-0.18646689
35	0xbe2d1298	-0.16901624
36	0xbe3c9886	-0.18417558
37	0xbe4f2a9e	-0.20231101
38	0x3d8e06ec	0.06934914
39	0xbe4dd2bc	-0.2009992
40	0xbdee9094	-0.1164867
41	0x3df29cad	0.1184629
42	0x3e0e2649	0.13881792
43	0xbd672044	-0.056427255
44	0xbc47d3b7	-0.012196473
45	0xbe50b5c8	-0.20381844
46	0xbd58020b	-0.052736323
47	0xbe33cae4	-0.17557865
48	0xbdb74e22	-0.089504495
49	0xbd60beea	-0.05486957
50	0x3d183bea	0.037166514
51	0x3e110aa3	0.14164214
52	0x3d6bbbc4	0.057552114
53	0x3e42dc10	0.1902926
54	0xbd9d4efd	-0.076810814
55	0x3cf50f80	0.029914618
56	0x3e13f315	0.14448197
57	0x3cd876cb	0.026423832
58	0x3e140d36	0.14458165
59	0xbe04025b	-0.12891524
60	0xbe0c76ff	-0.13717268
61	0x3d91868f	0.07105743
62	0x3dee1b0f	0.11626255
63	0x3e4c0f55	0.19927724
64	0xbdca14c1	-0.0986724
65	0x3c844756	0.016147297
66	0xbcd2da98	-0.025739
67	0xbdc3062a	-0.0952266
68	0xbcfe904c	-0.031074665
69	0xbe165c68	-0.14683688
70	0xbdfd2022	-0.123596445
71	0xbd551a0f	-0.052026805
72	0xbc87a498	-0.016557977
73	0xbe045f21	-0.12926914
74	0x3e303da7	0.17211019
75	0xbe20c0d6	-0.15698561
76	0xbd6e9d2a	-0.058255352
77	0x3e1dc34b	0.1540653
78	0x3daea00b	0.085266195
79	0x3dfcb26e	0.1233872
80	0xbe2cdfc9	-0.16882242
81	0x3e276a85	0.16349228
82	0xbe30bada	-0.17258778
83	0xbe0f17d0	-0.13973927
84	0x3cf75965	0.030193994
85	0xbe2b52f3	-0.16730861
86	0x3c2da110	0.010597482
87	0xbcc904d5	-0.024538437
88	0xbe281ccf	-0.1641724
89	0xbe545254	-0.2073453
90	0x3e137075	0.14398368
91	0x3e55bfdd	0.20873971
92	0xbda6117a	-0.08108802
93	0xbde25f26	-0.110533044
94	0xbcd4e9ec	-0.025990449
95	0x3e5e575e	0.21713015
96	0xbe4f21ea	-0.20227781
97	0x3dcd45ae	0.10023056
98	0x3d0e9acc	0.034815595
99	0xbd92c93f	-0.07167291
100	0xba03e7ed	-0.0005031813
101	0x3d1ad172	0.0377974
102	0x3a9e747d	0.001208916
103	0x3e499825	0.19686945
104	0x3df0ac6c	0.11751637
105	0xbe4e7f3d	-0.20165725
106	0xbe31cf26	-0.17364177
107	0xbd7696b5	-0.06020232
108	0xbe35b795	-0.17745812
109	0x3d514366	0.051089667
110	0x3da968ae	0.08271919
111	0xbdcc48eb	-0.099748455
112	0xbd2a0919	-0.041512582
113	0x3dd71dc5	0.10503725
114	0xbde84256	-0.113407776
115	0x3e2b3ef4	0.16723233
116	0x3dda7821	0.10667444
117	0xbe33efd3	-0.17571954
118	0xbe1786b4	-0.14797479
119	0xbe00a7c3	-0.12563996
120	0x3e15e9fe	0.14640042
121	0xbdd250dc	-0.10269329
122	0xbdfa7525	-0.12229375
123	0xbd6bb752	-0.057547875
124	0x3d6b72b3	0.057482433
125	0x3bdb9db3	0.006702149
126	0xbe5b8f80	-0.2144146
127	0x3d9a55a2	0.075358644
128	0x3d8e588f	0.06950485
129	0x3e18dccf	0.14927982
130	0x3e4a4fb9	0.19756974
131	0x3e35726d	0.17719431
132	0xbe33e19d	-0.17566533
133	0x3d10ed3c	0.035382494
134	0xbdef13af	-0.11673676
135	0xbd726252	-0.059175797
136	0x3dc0f83a	0.094223455
137	0x3d22feb1	0.039793674
138	0x3d28fb7c	0.04125546
139	0xbd03a5fa	-0.03214071
140	0xbc0e6547	-0.008691139
141	0xbe33a4b7	-0.17543302
142	0x3d832033	0.06402626
143	0x3deb37f8	0.114852846
144	0xbdd1dc68	-0.10247117
145	0x3d5479b2	0.05187387
146	0x3e2dd3ca	0.16975322
147	0xbe0bd29a	-0.13654557
148	0xbca08ec4	-0.019599326
149	0x3e206204	0.1566239
150	0xbd5393b6	-0.05165454
151	0xbd3546fc	-0.04425715
152	0x3dd67380	0.104712486
153	0x3d8db869	0.06919939
154	0xbd3ba6a8	-0.045813233
155	0xbe39c69b	-0.18142168
156	0x3dd58b46	0.10426955
157	0xbd55b9bd	-0.052179087
158	0xbd68c86d	-0.056831766
159	0xbddd15a7	-0.107951455
160	0x3c77bac9	0.015120217
161	0x3d7425f6	0.059606515
162	0x3dd911c4	0.10599092
163	0x3d0a57a9	0.033775005
164	0x3d017e80	0.03161478
165	0xbd96f447	-0.07370811
166	0x3dcca4fd	0.099924065
167	0xbd30ba19	-0.043146227
168	0xbe37c541	-0.1794634
169	0x3e2f3e8f	0.17113708
170	0x3d4f0fa1	0.050552014
171	0xbdc66a1c	-0.096882075
172	0xbe5129f8	-0.20426166
173	0x3d656c0e	0.056011252
174	0x3e0a3dfe	0.1350021
175	0x3e354a6b	0.1770417
176	0x3e5be59c	0.21474308
177	0xbe0aca51	-0.1355374
178	0x3e58e493	0.21180944
179	0x3dd8adf1	0.10580052
180	0x3e46d161	0.19415809
181	0x3e3fa212	0.18714169
182	0x3de074b4	0.10959759
183	0xbdb2aa39	-0.08723874
184	0x3e0627ba	0.13101092
185	0xbe03cfcc	-0.12872237
186	0xbddaa12e	-0.10675274
187	0x3e5f6ffc	0.21820062
188	0xbdf6373e	-0.12022255
189	0x3e52e69a	0.2059578
190	0xbe287f62	-0.16454843
191	0x3db6fc83	0.089348815
192	0xbcf1e19f	-0.02952653
193	0x3d4db1f6	0.050218545
194	0xbcf6cd0d	-0.030127073
195	0x3d673730	0.056449115
196	0xbdf5d704	-0.120039016
197	0x3e5aa90b	0.21353547
198	0xbe0b9690	-0.13631654
199	0x3db117f3	0.08647146
200	0x3e2dc406	0.16969308
201	0xbe48e017	-0.19616733
202	0xbe4c2da7	-0.1993929
203	0x3ca5ac08	0.020223632
204	0x3b82fa2e	0.003997109
205	0xbd5635dd	-0.05229746
206	0xbe0aeb0e	-0.13566229
207	0xbe43b889	-0.19113363
208	0xbd6d4cd5	-0.0579346
209	0x3c645e08	0.013938434
210	0x3c517683	0.012784603
211	0xbd976d64	-0.073939115
212	0xbde3bb67	-0.111197285
213	0xbe5400b2	-0.2070339
214	0xbe44b2df	-0.19208859
215	0x3d92b6b9	0.07163758
216	0xbdd2066a	-0.1025513
217	0xbdbe7bcb	-0.093009554
218	0x3e0c770f	0.13717292
219	0x3b9de0b9	0.004818049
220	0x3e3db386	0.18525514
221	0xbdfed4af	-0.1244291
222	0x3d4f1e21	0.050565843
223	0x3c8b3ed9	0.016997742
224	0xbe0ed472	-0.13948229
225	0x3e5a26a6	0.21303806
226	0x3c9d6286	0.019212019
227	0x3d9b70c8	0.07589871
228	0xbd4db852	-0.05022461
229	0xbc88f561	-0.016718568
230	0x3d4e1cf6	0.050320588
231	0x3d8ab21d	0.06772254
232	0xbd85d94e	-0.06535588
233	0xbe2d0464	-0.16896206
234	0x3e498de6	0.19683036
235	0xbe37d322	-0.17951635
236	0xbcb534a2	-0.022119824
237	0xbd82b6ff	-0.0638256
238	0x3c2dd51b	0.01060989
239	0x3e38951c	0.1802563
240	0xbd05c97d	-0.032662857
241	0x3ce5ad7e	0.02803683
242	0x3d9d4f5a	0.07681151
243	0xbdddc5a1	-0.1082871
244	0x3e29416d	0.16528864
245	0x3e22a661	0.15883781
246	0x3e40fecc	0.18847197
247	0xbe57560d	-0.2102892
248	0xbe254941	-0.16141225
249	0xbe2d98a9	-0.16952766
250	0xbe187bb5	-0.1489094
251	0xbe062fb7	-0.1310414
252	0x3c224b59	0.00990566
253	0x3d97ecce	0.07418214
254	0x3d40d724	0.047080174
255	0xbe4aeb74	-0.1981638

critic.fc1.bias f4 [256]
0	0x3c57bf20	0.013168126
1	0xbcea978c	-0.028636716
2	0xbddf3e01	-0.10900498
3	0xbe2ae46d	-0.166887
4	0x3cb4e003	0.022079473
5	0xbd4939a0	-0.04912722
6	0x3e5e06fd	0.21682353
7	0x3e328b54	0.17435962
8	0x3e0db2af	0.13837694
9	0x3d8b9598	0.06815642
10	0x3da9c8fb	0.08290287
11	0x3d968560	0.07349658
12	0x3e552088	0.20813191
13	0xbda723c1	-0.081611164
14	0xbcf231cb	-0.029564759
15	0x3e4d10b5	0.20025904
16	0xbc593924	-0.013258252
17	0x3de0fc43	0.10985615
18	0xbe21b829	-0.15792908
19	0xbdec6243	-0.115421794
20	0x3e13f686	0.1444951
21	0xbda3fe6f	-0.08007514
22	0x3e2b54cc	0.16731566
23	0x3d89a367	0.0672062
24	0x3e266cb5	0.16252406
25	0x3df5e865	0.12007216
26	0xbe565939	-0.20932473
27	0xbdceb31a	-0.10092755
28	0x3d7fba88	0.06243375
29	0xbe51de49	-0.20494951
30	0xbe54b9c2	-0.20773986
31	0xbd670243	-0.05639864
32	0x3e042efd	0.1290855
33	0xbd2bd03d	-0.04194664
34	0x3d343688	0.043997318
35	0x3e1f20e2	0.15539888
36	0x3e3c861c	0.18410534
37	0x3d64c42f	0.055851158
38	0xbdc27c87	-0.09496408
39	0x3e42424a	0.189706
40	0xbd5cbced	-0.05389111
41	0x3e29891e	0.16556212
42	0xbdcf504a	-0.10122736
43	0xbe1e30e9	-0.15448345
44	0x3d9658af	0.07341134
45	0xbdf49cdc	-0.11943981
46	0x3dffeff5	0.1249694
47	0xbda11546	-0.07865386
48	0xbce0f5e8	-0.027461007
49	0xbdc8c3f6	-0.098030016
50	0x3e1782a4	0.14795929
51	0x3e3b95d8	0.1831888
52	0x3dfc951a	0.12333126
53	0xbcd76c52	-0.026296768
54	0x3e4ff1dd	0.20307107
55	0x3e0a3f9d	0.13500829
56	0x3e403b3c	0.18772596
57	0xbe57bcd4	-0.21068126
58	0xbd651f50	-0.055938065
59	0x3cfc66a5	0.030810663
60	0x3c299173	0.010349619
61	0xbd241be0	-0.040065646
62	0xbe09525f	-0.13410328
63	0x3e07f414	0.13276702
64	0xbe529041	-0.20562841
65	0x3db4c270	0.088261485
66	0x3db3ffa1	0.08788992
67	0xbcf691a5	-0.030098746
68	0xbded1c36	-0.115776464
69	0x3e5883c9	0.21144022
70	0x3e0e237b	0.13880722
71	0xbdd2a3dc	-0.1028516
72	0x3d8fbd0d	0.070184804
73	0xbdd7924e	-0.10525952
74	0xbdedfd75	-0.11620609
75	0xbe00ef6e	-0.12591335
76	0xbe30b579	-0.17256726
77	0xbd8186e5	-0.06324557
78	0xba76d427	-0.00094157684
79	0x3e2bfb63	0.16795115
80	0x3d1f6bb8	0.038921088
81	0x3daf3a0e	0.08555995
82	0xbe00b792	-0.12570027
83	0xbe0b47b8	-0.13601577
84	0xbe28bd4f	-0.16478465
85	0x3e08795f	0.1332755
86	0xbe009cbd	-0.12559791
87	0xbe290e01	-0.16509248
88	0x3dba8c76	0.09108822
89	0x3e2c8dc6	0.16850957
90	0xbd6f8edc	-0.05848585
91	0x3abb47c0	0.0014288351
92	0xbe163265	-0.14667661
93	0x3e211ee7	0.15734445
94	0x3e37f8bb	0.17965977
95	0x3dd3b2cb	0.103368364
96	0xbdb6edfe	-0.08932112
97	0x3d4aa192	0.04947049
98	0x3c6dcbdd	0.014513937
99	0x3caf0430	0.021364301
100	0xbd42d215	-0.04756363
101	0xbdeb5a2b	-0.114918076
102	0xbe4fcc2e	-0.20292732
103	0xbd151397	-0.036395635
104	0x3dfd9aa2	0.123830095
105	0xbdfe1ff6	-0.1240844
106	0xbe03af31	-0.12859799
107	0x3ddac6b6	0.10682432
108	0xbdc21bea	-0.094779804
109	0x3ce7f30c	0.028314136
110	0x3dfc6dae	0.12325607
111	0x3dfb26a4	0.122632295
112	0x3c875bcf	0.01652327
113	0x3d828a9e	0.063740954
114	0x3c80b259	0.015710043
115	0x3d1bb845	0.03801753
116	0xbe0f030f	-0.1396601
117	0xbcde69be	-0.027150031
118	0xbe4d7e81	-0.20067789
119	0xbde01ed1	-0.10943378
120	0xbe085652	-0.13314179
121	0x3d22bfad	0.039733578
122	0x3dfe3d3e	0.12414025
123	0x3e3719e9	0.17880978
124	0x3baecba9	0.005334337
125	0xbe4d614e	-0.2005665
126	0x3e59a971	0.21256043
127	0x3e2e0d04	0.16997153
128	0xbd9c807d	-0.07641695
129	0xbe53e1fc	-0.20691675
130	0x3e44a528	0.19203627
131	0x3d9fa4f4	0.07795134
132	0xbcc970df	-0.024589954
133	0xbd8dd680	-0.06925678
134	0xbba839b6	-0.005133833
135	0x3e0515d5	0.1299661
136	0x3e1fd61f	0.15609024
137	0xbdae8092	-0.085206166
138	0xbd5d8cc0	-0.054089308
139	0xbe421848	-0.18954575
140	0xbd7f755b	-0.06236778
141	0x3ba0857d	0.0048987255
142	0xbdf06b63	-0.117392324
143	0x3deac24d	0.11462841
144	0xbcb28011	-0.021789582
145	0x3e1d5bed	0.15367098
146	0xbb376543	-0.002798394
147	0xbe5d0923	-0.21585517
148	0xbe31c870	-0.17361617
149	0x3cb2f4bf	0.02184522
150	0xbdce2e3f	-0.100674145
151	0xbe3184aa	-0.17335764
152	0x3db3fbf0	0.08788288
153	0xbe26e5a0	-0.16298532
154	0x3e3bb30e	0.18330023
155	0x3d31ca22	0.04340566
156	0xbc26e86b	-0.010187249
157	0x3e25e28d	0.16199704
158	0x3d31d81c	0.04341899
159	0xbe2ec50d	-0.17067356
160	0x3e44ba28	0.19211638
161	0x3b30ec07	0.0026996152
162	0x3d02f388	0.03197053
163	0xbd9093cc	-0.0705944
164	0x3e0d89f3	0.13822155
165	0x3d011eee	0.031523637
166	0x3e1576db	0.14596121
167	0x3e19649f	0.1497979
168	0x3cf55d00	0.029951572
169	0xbe546a11	-0.20743586
170	0x3e548d8e	0.20757124
171	0xbd5faee7	-0.05461016
172	0x3e42d086	0.19024858
173	0x3d3bdefd	0.045866955
174	0xbd47f45c	-0.048817024
175	0x3e407cdf	0.18797635
176	0x3e3115e8	0.17293513
177	0x3e2d5866	0.16928253
178	0x3e52a0ea	0.20569196
179	0xbdb57535	-0.08860246
180	0x3d08f526	0.033436917
181	0xbd71de17	-0.059049692
182	0xbc710ce7	-0.014712549
183	0xbdb58d7c	-0.08864877
184	0xbe4b110d	-0.19830723
185	0x3db58158	0.08862561
186	0xbd8bd0e8	-0.06826955
187	0xbe4cf7ec	-0.2001645
188	0xbded6f46	-0.11593489
189	0x3de21161	0.11038471
190	0x3e117999	0.14206542
191	0xbd8cce24	-0.06875256
192	0x3cf34c65	0.029699514
193	0xbd1ad8f9	-0.037804577
194	0x3d66b71f	0.05632698
195	0x3dff09e8	0.12453061
196	0xbd9d0683	-0.07667258
197	0xbddb09a9	-0.10695202
198	0x3d413495	0.047169287
199	0x3d4bc78e	0.049750857
200	0x3dde1f28	0.10845786
201	0xbdaec129	-0.08532936
202	0x3e0f467f	0.13991736
203	0x3e00df57	0.12585197
204	0x3e28b0ec	0.1647374
205	0x3e0455c7	0.12923346
206	0x3cbe1e12	0.023207698
207	0xbe02c731	-0.12771298
208	0xbe3d4840	-0.18484592
209	0xbe454851	-0.19265868
210	0x3e0cb9ab	0.13742702
211	0xbe0728b7	-0.13199125
212	0x3d87cd7d	0.06630991
213	0x3df99d18	0.121881664
214	0xbdf8f45b	-0.12155982
215	0xbe1ae952	-0.15128067
216	0x3b47c8b2	0.0030484614
217	0x3e5e748c	0.21724147
218	0x3c99bed4	0.018767752
219	0x3ddbec22	0.10738398
220	0x3de220b5	0.110413946
221	0xbe2c0f09	-0.1680261
222	0x3c5df767	0.013547755
223	0x3e1f912b	0.15582721
224	0x3dad5124	0.08462742
225	0x3d616ff0	0.055038393
226	0xbd16c89a	-0.036812402
227	0x3e5c4b0b	0.21513002
228	0x3d6ba893	0.05753381
229	0xbe2ec0b8	-0.17065704
230	0x3dac9091	0.08426011
231	0x3d4c3b1e	0.049861066
232	0x3d2867b1	0.041114513
233	0x3e1a7bf9	0.15086354
234	0x3e1eb818	0.15499914
235	0x3ddf9753	0.10917535
236	0xbdb8cef9	-0.09023852
237	0x3d5041c8	0.050843984
238	0x3e56981d	0.20956464
239	0x3d3a38f4	0.04546447
240	0xbe1ffd48	-0.15623963
241	0xbca04821	-0.019565644
242	0xbdfa0f19	-0.12209911
243	0x3cf96ba1	0.03044683
244	0xbe5e11cf	-0.21686481
245	0xbe031430	-0.1280067
246	0xbe0ac4a3	-0.13551573
247	0xbd944bc9	-0.07241017
248	0xbdf35898	-0.11882132
249	0xbe375515	-0.1790355
250	0xbe10be6e	-0.14135143
251	0x3db9b433	0.090675734
252	0xbc3ed4e6	-0.011647439
253	0xbe58e185	-0.21179779
254	0xbe395433	-0.18098526
255	0xbda88d63	-0.082300924
