result/simple_ref/default*4/policies/policy_7/model.pt (torch, 185051 bytes, 11 tensors)

actor.fc1.weight f4 [128, 21]
0.27007958 -0.14164756 -0.07786743 -0.10216946 -0.13360243 0.20575503 -0.12357976 0.096032225
0.09630289 0.010491079 0.018119223 0.08106255 0.10404413 0.182238 -0.11819301 0.19570607
0.17557514 0.08799209 -0.12233972 -0.16321549 0.058910545 0.056493152 0.05438641 -0.2126464
0.09950178 -0.16107747 0.08704431 -0.23176506 -0.06928094 -0.08635558 -0.13063024 -0.14160651
-0.14572695 -0.030948589 0.029211791 0.21115561 -0.17481631 -0.04687143 -0.15533988 0.043727938
0.16205436 0.12387881 0.25977024 0.008600595 -0.009089642 0.13487901 -0.01496012 0.14424074
-0.20089164 0.16804828 0.14467026 0.18468934 0.24136873 0.1392666 0.16055714 -0.1348435
0.040789247 -0.15434687 0.17806053 -0.018143374 0.23964751 -0.121656105 -0.09318794 0.08521293
-0.26241368 0.21728642 -0.0061110677 0.25358278 0.24094367 -0.108798526 0.18989487 0.017950853
0.13624647 0.24196541 0.16032356 -0.115739696 0.108904935 -0.12635195 0.08841155 -0.10819644
-0.11229447 0.18588282 0.1424681 -0.034422416 0.27248368 -0.2337982 -0.22095323 -0.096302055
-0.101767994 -0.10985516 -0.09020232 0.19042878 -0.09953276 -0.13617574 0.24081759 0.11197652
0.058493428 0.013872443 -0.014986941 -0.004942743 -0.17677546 -0.19275562 0.011041003 -0.100025296
-0.12845975 0.05506521 0.1851769 -0.05202234 -0.260296 0.003674931 -0.27418286 -0.08718277
-0.19003206 -0.042096365 0.17434661 0.032966293 -0.13298853 0.015114652 0.22123216 0.006065972
-0.1053974 -0.14299427 -0.083432145 -0.046449084 -0.10189938 0.10923348 -0.14661188 0.04678553
-0.20053387 -0.012408954 -0.18157008 0.21233739 -0.09919736 0.16877253 -0.1496706 0.22558816
-0.1261539 -0.0005245403 0.2169053 0.19809195 0.11606216 0.1076035 0.19892056 0.19757916
0.021438483 0.19708811 0.12441125 0.19651352 -0.08122792 -0.046253536 0.016021328 -0.23373213
0.0056281285 -0.13655657 -0.19070657 0.10440583 0.10544391 0.22768353 0.06790753 -0.06734753
0.030491654 0.19637798 0.084387265 0.06886491 0.038077973 0.098950535 -0.076889485 0.10294985
-0.022366386 -0.051180903 0.19223486 -0.025907068 -0.013406158 0.22380893 -0.20239112 0.02738349
0.17599565 -0.1842294 -0.024818791 -0.13601461 0.050802123 -0.03787756 0.17856805 -0.06276798
-0.19809587 0.10481002 0.18574758 -0.15400323 0.12573305 -0.1940201 0.03762553 -0.17993936
-0.08905969 0.18408413 0.104905255 0.20699055 0.10429884 0.053618643 -0.13072017 -0.13561296
0.101851374 -0.11050866 -0.11951633 -0.14724353 0.121840246 -0.0531414 0.011601795 0.12300927
0.15414529 0.18879573 -0.056812093 0.12648305 0.05017848 -0.015443906 -0.04835273 0.20263171
-0.1755189 0.118178315 -0.08816526 0.10668114 -0.07859375 -0.2119492 -0.12481115 -0.19923475
0.05758745 0.16714592 -0.15399812 -0.002020541 0.044028282 -0.067949206 -0.036592774 -0.30854595
0.07997007 0.13728903 -0.051686432 0.24590671 -0.07620318 0.07519665 0.19928335 0.13580666
0.20138916 0.1042279 -0.03538153 -0.03424058 0.050091565 0.1901661 0.12789777 0.09455312
0.07395815 -0.054345384 0.0717789 -0.13355304 0.026777154 -0.0907752 0.16134271 0.11021189
00000000: df47 8a3e 0f0c 11be f678 9fbd 393e d1bd
00000010: 13cf 08be 72b1 523e 6317 fdbd 8bac c43d
00000020: 733a c53d c6e2 2b3c c46e 943c 1f04 a63d
00000030: 1715 d53d 999c 3a3e 2d0f f2bd 2c67 483e
00000040: f8c9 333e 3235 b43d 3f8d fabd f621 27be
00000050: 2f4c 713d 5d65 673d 49c4 5e3d fabf 59be
00000060: 97c7 cb3d 7ef1 24be 4a44 b23d d253 6dbe
00000070: 2ae3 8dbd 32db b0bd efc3 05be 4c01 11be
00000080: 7239 15be e587 fdbc 914d ef3c 2d39 583e
00000090: 0c03 33be 42fc 3fbd 6b11 1fbe 111c 333d
000000a0: 94f1 253e 2cb4 fd3d 9b00 853e 83e9 0c3c
000000b0: b9ec 14bc b91d 0a3e 4b1b 75bc d8b3 133e
000000c0: 8ab6 4dbe d914 2c3e 7124 143e 341f 3d3e
000000d0: 5d29 773e e79b 0e3e 1769 243e 6a14 0abe
000000e0: a012 273d 1b0d 1ebe 8055 363e 6aa1 94bc
000000f0: 2866 753e d626 f9bd 52d9 bebd 1e84 ae3d
00000100: 165b 86be 5580 5e3e 5a3f c8bb 9ad5 813e
00000110: f0b9 763e c3d1 debd cd73 423e ab0d 933c
00000120: 3284 0b3e c8c5 773e dc2b 243e ef08 edbd
00000130: 8d09 df3d 6862 01be 1d11 b53d 1896 ddbd
00000140: a5fa e5bd 1158 3e3e 28e3 113e 85fe 0cbd
00000150: fb82 8b3e cc68 6fbe 9041 62be 033a c5bd
00000160: bd6b d0bd befb e0bd febb b8bd c3ff 423e
00000170: d5d7 cbbd a771 0bbe e398 763e f253 e53d
00000180: ce96 6f3d 3e49 633c c98b 75bc bcf6 a1bb
00000190: a004 35be bb61 45be 53e5 343c 10da ccbd
000001a0: f48a 03be 0f8c 613d 039f 3d3e 6115 55bd
000001b0: 8445 85be 1cd7 703b b261 8cbe e18c b2bd
000001c0: c497 42be 3d6d 2cbd eb87 323e aa07 073d
000001d0: 252e 08be 72a3 773c af8a 623e 10c5 c63b
000001e0: 98da d7bd 176d 12be 79de aabd 6541 3ebd
000001f0: 9fb0 d0bd ceb5 df3d 6d21 16be 2fa2 3f3d
00000200: c058 4dbe ed4e 4bbc 82ed 39be f96e 593e
00000210: fc27 cbbd b5d2 2c3e 4043 19be 9500 673e
00000220: 7d2e 01be 4e81 09ba 6c1c 5e3e 9ed8 4a3e
00000230: ffb1 ed3d 395f dc3d d5b1 4b3e 3152 4a3e
00000240: c29f af3c 77d1 493e 53cb fe3d d73a 493e
00000250: d35a a6bd 5974 3dbd 293f 833c 7a57 6fbe
00000260: 2a6c b83b 7cd5 0bbe 9548 43be b9d2 d53d
00000270: faf2 d73d df25 693e 1a13 8b3d 80ed 89bd
00000280: a2c9 f93c 4f17 493e 3bd3 ac3d 0c09 8d3d
00000290: a6f7 1b3d 94a6 ca3d 3c78 9dbd 5fd7 d23d
000002a0: b639 b7bc 11a3 51bd 37d9 443e 0f3b d4bc
000002b0: 81a5 5bbc 2b2e 653e 9e3f 4fbe 5753 e03c
000002c0: 3438 343e a2a6 3cbe c750 cbbc 6a47 0bbe
000002d0: e315 503d 8025 1bbd 8bda 363e 808c 80bd
000002e0: a5d9 4abe a3a6 d63d 9d34 3e3e 06b3 1dbe
000002f0: 2ac0 003e 35ad 46be 3a1d 1a3d 0642 38be
00000300: ed64 b6bd 8d80 3c3e 91d8 d63d 55f5 533e
00000310: a19a d53d 399f 5b3d 82db 05be 20de 0abe
00000320: 7497 d03d 5d52 e2bd fac4 f4bd 02c7 16be
00000330: 6187 f93d ccaa 59bd 7515 3e3c 49ec fb3d
00000340: 43d8 1d3e ab53 413e ccb3 68bd c684 013e
00000350: f387 4d3d 7008 7dbc 830d 46bd b07e 4f3e
00000360: 3abb 33be 7907 f23d fd8f b4bd a47b da3d
00000370: c3f5 a0bd 3609 59be fd9c ffbd 3204 4cbe
00000380: d1e0 6b3d 4d28 2b3e afb1 1dbe 0e6b 04bb
00000390: 0057 343d f428 8bbd 4ee2 15bd bcf9 9dbe
000003a0: 59c7 a33d 7f95 0c3e 27b5 53bd f8ce 7b3e
000003b0: 6a10 9cbd b400 9a3d ef10 4c3e e710 0b3e
000003c0: f638 4e3e 7075 d53d 39ec 10bd da3f 0cbd
000003d0: d02c 4d3d e7ba 423e a2f7 023e 11a5 c13d
000003e0: 5f77 973d 4499 5ebd d100 933d 21c2 08be
000003f0: c35b db3c 59e8 b9bd 0637 253e c5b6 e13d

actor.fc1.bias f4 [128]
0.032796815 0.20928422 -0.09531191 0.2584469 0.03413179 0.12337502 -0.052803267 -0.02686696
-0.1486959 -0.1404523 0.058863096 0.061831836 -0.08990336 0.23503886 -0.16708425 -0.014308767
-0.0018921978 0.19309428 0.01482292 0.11384215 0.22317113 -0.010611551 0.24737886 0.17686325
-0.07954667 -0.12743406 0.0019645623 0.14654525 0.07639071 0.03902838 0.14119224 0.06593402
0.18871315 0.21756677 0.1587451 0.2302904 0.09353305 -0.017895354 -0.0859425 -0.057290595
0.21524738 -0.007549987 0.24662095 0.06725491 0.14021404 0.20349789 -0.047452036 0.21635965
-0.14555557 0.05252997 0.002963051 0.2670613 0.10982103 -0.026723653 0.022378193 0.10645888
0.20449556 -0.020337187 -0.01708976 -0.06483457 0.043525677 0.07746862 -0.036310986 0.029098574
-0.21917601 0.18690665 0.13564219 0.27388242 0.2103393 -0.016423576 -0.042561755 0.062333237
0.25468394 -0.113480784 -0.048131224 0.07008104 0.01975916 0.11433428 0.022646425 -0.18793212
-0.12877306 -0.07490218 -0.13065727 -0.010750278 0.22593753 -0.1261185 0.03370282 -0.07105459
0.088107206 0.15562153 0.23669 0.035044603 0.14647418 0.06529981 0.11868771 0.17117779
-0.03987788 0.21763967 -0.04733415 0.08150521 -0.12259123 0.06630717 -0.088839225 0.20978382
0.033590972 0.17787567 0.1413716 0.097995326 0.063052945 0.16277437 0.15254034 0.08856574
0.007700414 0.18866654 0.006254623 0.034598477 0.054794226 0.2386369 -0.039750803 0.039775096
0.004083123 0.064423814 -0.08741895 -0.20283619 -0.019726548 0.036720883 -0.1677039 0.098875694
00000000: f455 063d 9a4e 563e e432 c3bd 2753 843e
00000010: c7cd 0b3d 0bac fc3d 3d48 58bd 1918 dcbc
00000020: bd43 18be bad2 0fbe 6e1a 713d 6143 7d3d
00000030: 411f b8bd 07ae 703e 2218 2bbe 526f 6abc
00000040: 9f03 f8ba 82ba 453e d5db 723c 1326 e93d
00000050: f986 643e 12dc 2dbc e250 7d3e a41b 353e
00000060: 5de9 a2bd 137e 02be e3bf 003b f50f 163e
00000070: bc72 9c3d 39dc 1f3d b394 103e 6a08 873d
00000080: 053e 413e d3c9 5e3e 138e 223e 3fd1 6b3e
00000090: 418e bf3d 4799 92bc 9f02 b0bd 8ba9 6abd
000000a0: cf69 5c3e e265 f7bb 348a 7c3e f1bc 893d
000000b0: 4594 0f3e c061 503e 115d 42bd 628d 5d3e
000000c0: 850c 15be aa29 573d bf2f 423b 42bc 883e
000000d0: d9e9 e03d 90eb dabc 7952 b73c 1d07 da3d
000000e0: 4967 513e 2c9a a6bc d3ff 8bbc fdc7 84bd
000000f0: fb47 323d dea7 9e3d d4ba 14bd 2260 ee3c
00000100: ad6f 60be 7564 3f3e c9e5 0a3e 513a 8c3e
00000110: 2f63 573e bc8a 86bc 3c55 2ebd 2351 7f3d
00000120: ef65 823e 9d68 e8bd 3f25 45bd a686 8f3d
00000130: f6dd a13c 1728 ea3d ff84 b93c 4771 40be
00000140: 16dd 03be 5066 99bd 05cb 05be ef21 30bc
00000150: 2b5c 673e 3525 01be f80b 0a3d 1285 91bd
00000160: 8d71 b43d 405b 1f3e dd5e 723e ee8a 0f3d
00000170: 54fd 153e e8bb 853d 8b12 f33d 3b49 2f3e
00000180: fd56 23bd efdc 5e3e 74e1 41bd 34ec a63d
00000190: 1c11 fbbd 0ecc 873d 57f1 b5bd 92d1 563e
000001a0: b096 093d 0a25 363e b7c3 103e c6b1 c83d
000001b0: e721 813d 53ae 263e 8933 1c3e f461 b53d
000001c0: c153 fc3b cd31 413e 95f3 cc3b 22b7 0d3d
000001d0: e96f 603d 3b5d 743e bdd1 22bd 36eb 223d
000001e0: b8cb 853b a2f0 833d b508 b3bd 4ab4 4fbe
000001f0: 9299 a1bc a368 163d 92ba 2bbe 577f ca3d

actor.fc2.weight f4 [128, 128]
0.00059379765 0.024736134 0.054670546 -0.007698789 -0.06585075 -0.036113042 -0.034222223 -0.124257095
0.08771021 0.0031480682 0.014976447 0.015859107 0.10926177 0.08275176 -0.05040564 0.02987033
0.021494603 -0.036021054 -0.04296926 -0.10972058 -0.05703874 -0.05600756 0.13603319 -0.041474774
0.09529394 0.013972287 -0.06110316 0.091096506 0.032147665 -0.06992746 0.032433566 -0.056450095
-0.045939818 -0.05923153 0.07730861 -0.09058435 0.056409784 0.05928906 0.02687838 0.0013418506
0.024221249 -0.10386751 0.06508949 -0.05829038 0.048471846 0.036696516 0.0055854437 0.101840355
-0.015941625 0.008442125 -0.070292704 0.0060172817 0.088548414 -0.0077655814 -0.0028319506 0.044063687
0.110980935 -0.038325507 0.040546197 0.05366931 -0.0314422 0.07760692 0.008421638 0.026885726
0.044313416 0.051426318 0.1105492 0.050713044 0.0032396615 -0.008322811 0.045976628 -0.04142758
-0.040726557 0.01874062 0.13798325 -0.04329944 0.022330077 0.011993396 0.027287662 0.027540207
-0.040741235 0.044863865 -0.05758555 -0.05008483 0.017257774 -0.08624305 0.03148942 0.023779487
-0.027217133 0.090567276 0.032478914 -0.04534606 0.07988484 -0.018964197 0.02316526 -0.056758408
0.07070344 0.08578086 -0.05133336 0.08259874 -0.011544365 0.0979148 -0.1004876 0.04047663
-0.01826062 0.027475549 -0.04435856 0.024337903 0.013346353 0.046055987 0.054478467 0.028687391
0.00062739407 -0.01986344 -0.05437233 0.036916282 0.03811285 -0.064101145 0.07581352 0.07654337
-0.092880696 -0.113041215 0.07019982 0.029178534 0.034746245 -0.04887652 -0.068992004 0.04622885
0.029789992 -0.08095087 -0.024203982 0.06653008 -0.017573154 0.0026488553 -0.080775835 0.053367596
0.05168886 0.074030675 0.07864529 0.0912363 -0.028961534 0.027274778 -0.007138832 0.069647744
-0.026632335 0.0838078 -0.109627604 -0.12706321 0.094327904 -0.08502102 0.06191105 0.08738691
0.09228062 -0.09519747 0.018425068 0.0037560174 0.032929264 -0.038780823 0.100311466 0.10527899
0.034966066 0.008686927 0.03990218 -0.05827882 0.047533777 0.0071339253 0.039033234 0.09640735
-0.037349846 -0.038832106 0.008195296 0.038121358 0.08670095 -0.03569227 -0.048623152 0.030112445
-0.07633165 0.029428145 0.028275354 -0.057664204 0.1099482 -0.086533464 -0.017251007 0.085766196
0.1260305 0.0800358 -0.0317682 0.0103941625 0.089188896 -0.042438395 -0.013547382 -0.059031025
-0.07264645 -0.052547783 0.12616928 -0.034229707 0.105269305 -0.00043349102 0.063922495 -0.025807336
-0.04163007 0.09343016 0.11616141 -0.03509458 0.012666788 -0.059729505 -0.08344722 -0.044624846
-0.07857344 0.07344106 0.06283397 -0.024530789 0.0033174441 -0.02251496 0.00816865 0.07385082
0.074224845 0.09966232 0.036960967 -0.012458459 -0.019864714 0.097861916 -0.040085256 -0.06583776
0.021669671 -0.037698086 -0.052869808 0.014314661 0.0063355817 -0.011543136 -0.00013714195 0.027956354
0.054333895 0.04786569 0.053371843 -0.043853097 0.019608736 0.039146297 0.030620359 0.10420674
-0.0526188 -0.037435263 0.04902019 -0.10690567 -0.07414397 -0.042385507 -0.05812314 0.006495915
0.031988077 -5.6539582e-05 0.037484378 0.035459533 0.028215708 0.005052788 0.06429047 0.07556721
00000000: 16a9 1b3a 6fa3 ca3c 39ee 5f3d 1f46 fcbb
00000010: c2dc 86bd 45eb 13bd 9a2c 0cbd 817a febd
00000020: 69a1 b33d d24f 4e3b c65f 753c f5ea 813c
00000030: a3c4 df3d c179 a93d 2576 4ebd 9fb2 f43c
00000040: 7315 b03c d08a 13bd 8900 30bd 2fb5 e0bd
00000050: 74a1 69bd 2f68 65bd 494c 0b3e 74e1 29bd
00000060: 7829 c33d 05ec 643c 4f47 7abd ce90 ba3d
00000070: 45ad 033d 2136 8fbd 0fd9 043d 3738 67bd
00000080: 642b 3cbd c39c 72bd fa53 9e3d 4a84 b9bd
00000090: f20d 673d 16d9 723d 0c30 dc3c 09e1 af3a
000000a0: a46b c63c 7db8 d4bd a34d 853d e5c1 6ebd
000000b0: 6a8a 463d 164f 163d 1906 b73b ad91 d03d
000000c0: 0398 82bc d750 0a3c 9ff5 8fbd 9e2c c53b
000000d0: df58 b53d 6b76 febb 3f98 39bb 207c 343d
000000e0: f949 e33d 35fb 1cbd c513 263d 5ad4 5b3d
000000f0: 89c9 00bd 60f0 9e3d e9fa 093c 743f dc3c
00000100: fc81 353d 67a4 523d 9e67 e23d 7bb8 4f3d
00000110: 8050 543b 665c 08bc fd51 3c3d f7af 29bd
00000120: e4d0 26bd ee85 993c 7b4b 0d3e c15a 31bd
00000130: 91ed b63c f37f 443c 608a df3c 009c e13c
00000140: 48e0 26bd 2cc3 373d d3de 6bbd c025 4dbd
00000150: 2d60 8d3c 32a0 b0bd 0dfb 003d 33cd c23c
00000160: 77f6 debc 567b b93d 9c08 053d cabc 39bd
00000170: aa9a a33d ce5a 9bbc 12c5 bd3c 817b 68bd
00000180: f7cc 903d e0ad af3d ee42 52bd 8729 a93d
00000190: 9424 3dbc 8e87 c83d 71cc cdbd d3ca 253d
000001a0: 4c97 95bc 6714 e13c 52b1 35bd 4860 c73c
000001b0: a9aa 5a3c 34a5 3c3d d024 5f3d d201 eb3c
000001c0: b477 243a a7b8 a2bc 85b5 5ebd 8735 173d
000001d0: 381c 1c3d 7647 83bd 1e44 9b3d c5c2 9c3d
000001e0: 3c38 bebd 2782 e7bd ecc4 8f3d d207 ef3c
000001f0: 1452 0e3d bf32 48bd ae4b 8dbd 765a 3d3d
00000200: 240a f43c 92c9 a5bd 6e47 c6bc ec40 883d
00000210: 93f5 8fbc 6b98 2d3b cd6d a5bd fb97 5a3d
00000220: b3b7 533d 659d 973d c810 a13d 19da ba3d
00000230: bd40 edbc 5b6f df3c ddec e9bb 7aa3 8e3d
00000240: 0e2c dabc 6da3 ab3d 7084 e0bd dc1c 02be
00000250: fd2e c13d 801f aebd 7196 7d3d e9f7 b23d
00000260: 9ffd bc3d e4f6 c2bd 2bf0 963c 8427 763b
00000270: d6e0 063d a4d8 1ebd 1970 cd3d 839c d73d
00000280: 9438 0f3d 9d53 0e3c 7870 233d c6b5 6ebd
00000290: c7b2 423d b4c3 e93b 50e1 1f3d 3771 c53d
000002a0: 27fc 18bd 6a0e 1fbd 9045 063c 2425 1c3d
000002b0: 4590 b13d 0f32 12bd 1229 47bd 60ae f63c
000002c0: c553 9cbd 4b13 f13c b7a1 e73c 4d31 6cbd
000002d0: 862c e13d 7538 b1bd fc51 8dbc 30a6 af3d
000002e0: 240e 013e cfe9 a33d 5f1f 02bd 474c 2a3c
000002f0: aba8 b63d e2d3 2dbd d7f5 5dbc 84ca 71bd
00000300: a9c7 94bd 583c 57bd 8532 013e 7334 0cbd
00000310: 6f97 d73d 2e46 e3b9 cce9 823d e869 d3bc
00000320: 4b84 2abd 5058 bf3d 09e6 ed3d 56bf 0fbd
00000330: 5c88 4f3c eda6 74bd 60e6 aabd 8bc8 36bd
00000340: 1deb a0bd 4468 963d 19af 803d cbf4 c8bc
00000350: 7a69 593b 4b71 b8bc cdd5 053c 193f 973d
00000360: 3203 983d c21b cc3d 6264 173d 901e 4cbc
00000370: 53bb a2bc d46b c83d 7030 24bd f3d5 86bd
00000380: 9884 b13c 4f69 1abd 038e 58bd 0a88 6a3c
00000390: b69a cf3b 6c1f 3dbc c3cd 0fb9 b904 e53c
000003a0: 388d 5e3d d00e 443d 6f9c 5a3d 4e9f 33bd
000003b0: 80a2 a03c de57 203d 8cd7 fa3c 586a d53d
000003c0: d086 57bd b855 19bd 65c9 483d 5cf1 dabd
000003d0: cbd8 97bd 6d9c 2dbd 8812 6ebd afdb d43b
000003e0: ee05 033d ea24 6db8 3889 193d 043e 113d
000003f0: a124 e73c dc91 a53b b9aa 833d fbc2 9a3d

actor.fc2.bias f4 [128]
0.096609175 0.087387316 0.048889577 0.0998655 0.070968226 0.08735801 0.041663285 0.100493945
0.043312114 0.08253419 0.04601042 0.08683134 0.08449776 0.030220255 -0.0051634447 -0.05418819
0.061676178 -0.052732192 -0.07772826 0.03222889 0.011381737 0.050206944 0.10323463 0.066966936
0.0495977 0.07711366 -0.091342494 0.049913943 0.08083071 -0.012327544 -0.060960993 -0.008685143
0.12212135 0.040086836 0.036775995 0.068317875 0.0029374596 0.04354437 0.08947178 0.06404849
-0.03318031 -0.039617978 0.06898774 -0.028230114 0.07233199 0.0021888595 -0.058881413 -0.020942653
-0.020273738 0.0002019536 0.103157006 -0.05101298 0.044487912 -0.08026844 0.03266383 -0.05680408
0.098054826 -0.0049126195 -0.014267964 -0.027561184 -0.054364342 0.06638027 0.09773018 -0.027296798
0.012191466 -0.04042148 -0.016958034 0.012259165 0.03969312 0.041021746 0.040166568 0.014160395
-0.054236133 0.053001344 0.046962537 0.08630261 0.05342309 0.0056748623 -0.030639298 -0.0099663725
-0.04550841 0.095861815 0.038973 0.07648812 0.05713779 0.06625001 -0.061156 0.051825628
0.009199117 -0.011593298 0.086670175 0.027752452 0.08178276 0.06652118 -0.010897218 -0.060991887
0.046010386 0.06910406 0.046916533 0.037449986 0.0132358335 0.009617169 0.011465949 -0.0332323
-0.027824704 0.06314282 -0.049227014 -0.046596408 0.049413275 0.046919767 -0.008939023 0.032362334
-0.022234809 -0.031294834 0.0632623 -0.019327855 -0.03449623 0.10638246 0.048251092 -0.03175908
0.015661357 -0.06271503 -0.054920997 -0.03969758 0.064319246 -0.007682683 0.11066591 -0.029397637
00000000: 08db c53d 1ff8 b23d 7040 483d 4986 cc3d
00000010: ca57 913d c2e8 b23d 1fa7 2a3d c5cf cd3d
00000020: 0b68 313d af07 a93d 6c75 3c3d a1d4 b13d
00000030: 290d ad3d 7890 f73c 1d32 a9bb 6ff4 5dbd
00000040: 29a0 7c3d b6fd 57bd fe2f 9fbd 7102 043d
00000050: 777a 3a3c cca5 4d3d ad6c d33d f625 893d
00000060: f526 4b3d c4ed 9d3d c611 bbbd 9072 4c3d
00000070: 928a a53d 78f9 49bc 3cb2 79bd 214c 0ebc
00000080: c21a fa3d 1832 243d 6da2 163d 3eea 8b3d
00000090: 6582 403b 955b 323d fb3c b73d db2b 833d
000000a0: 14e8 07bd 7646 22bd 7249 8d3d d742 e7bc
000000b0: cb22 943d f872 0f3b a32d 71bd ed8f abbc
000000c0: 1c15 a6bc 82c3 5339 fb43 d33d fdf2 50bd
000000d0: f538 363d c863 a4bd 82ca 053d 65ab 68bd
000000e0: f8d0 c83d 0afa a0bb 2ec4 69bc fec7 e1bc
000000f0: 25ad 5ebd 61f2 873d c326 c83d 899d dfbc
00000100: b7be 473c fe90 25bd 93eb 8abc aada 483c
00000110: 4195 223d 6b06 283d b385 243d 0001 683c
00000120: b526 5ebd f017 593d ca5b 403d 6cbf b03d
00000130: 2cd2 5a3d 32f4 b93b 44ff fabc ff49 23bc
00000140: 0767 3abd 3353 c43d 27a2 1f3d cea5 9c3d
00000150: 5109 6a3d 16ae 873d b77e 7abd 1c47 543d
00000160: e5b7 163c d1f1 3dbc 2280 b13d 1c59 e33c
00000170: b87d a73d 423c 883d 3f8a 32bc a1d2 79bd
00000180: 6375 3c3d 6e86 8d3d 8d2b 403d 2865 193d
00000190: 1cdb 583c 5591 1d3c addb 3b3c 981e 08bd
000001a0: a2f0 e3bc 0651 813d 44a2 49bd e0db 3ebd
000001b0: 9365 4a3d f12e 403d fb74 12bc 5e8e 043d
000001c0: c625 b6bc 032f 00bd aa8f 813d 7355 9ebc
000001d0: eb4b 0dbd 0cdf d93d f0a2 453d cf15 02bd
000001e0: 3f4c 803c bd70 80bd d7f4 60bd ee99 22bd
000001f0: cfb9 833d 04bf fbbb cfa4 e23d 50d3 f0bc

actor.policy_head.weight f4 [50, 128]
-0.005743151 0.0048979097 0.08110409 0.08326431 0.03233103 0.052720618 0.07175718 0.069987185
0.07782419 0.010152185 -0.055323306 -0.029074878 0.04192691 -0.07823862 0.07731025 -0.01716666
0.053108025 0.0011858566 0.02677237 0.048762932 0.0012989566 0.01877141 0.07234352 0.052322254
0.06762165 0.07007546 -0.044286594 0.08433803 0.01381685 0.05897654 -0.07933858 0.06327555
0.016985675 -0.063189715 0.039157882 0.03183887 -0.02702944 0.029795684 0.0038743718 -0.060541093
0.023751467 0.0309902 0.06568744 0.018712714 0.06647972 0.0045509483 0.060509287 -0.0773089
0.05712743 -0.04179978 -0.063802525 -0.07315633 -0.025230426 0.016028361 0.06744538 -0.007816469
0.057409383 0.005098421 -0.035737913 -0.055935424 -0.021621972 0.047772046 -0.024207395 -0.08894426
0.06966198 -0.03788609 0.055936836 -0.00036364712 0.06268042 -0.051375568 0.011645334 0.01346299
-0.03667239 0.04761703 0.00305872 0.074677564 0.067289405 0.04623793 0.036597002 0.022423815
0.00529991 -0.008875189 -0.039073367 -0.019681947 -0.042412203 -0.03373209 -0.07695373 -0.06329524
-0.032575246 -0.083965495 -0.007944483 0.060479995 -0.040197127 0.006848424 -0.028307209 0.038582332
-0.045536354 0.083469115 0.050645668 -0.029948458 0.007451911 -0.045777716 -0.04288565 0.022006495
0.055849742 -0.08160585 0.075415224 -0.03885907 0.09469256 0.01238803 -0.090936236 -0.08864615
-0.06254211 -0.0014811395 0.0029985285 -0.030687103 0.071119376 0.02405556 -0.03594897 -0.03924922
-0.017673219 0.05216921 0.05159894 -0.056345552 -0.051260307 0.04634619 -0.019151231 0.011217713
-0.048106816 0.005284918 -0.08805559 0.049297627 -0.07533546 0.12119776 0.030010814 -0.11343947
-0.0328481 0.08136345 0.05773244 0.07552458 0.052023463 -0.10173986 0.02382531 -0.07894478
-0.048100464 -0.017652337 0.037502844 -0.045386843 -0.045299474 0.018876709 0.113455355 -0.023661688
0.02733964 0.0036131076 0.055222306 0.0492465 0.0010227407 0.11284027 0.030660203 -0.056098755
0.013730951 -0.06300983 -0.07435437 0.059760876 -0.068341866 0.10376918 0.049965028 0.022126209
0.037483133 -0.0033794728 -0.080822416 -0.11992271 -0.00087200553 0.11571438 0.04001233 0.039126396
-0.030259734 -0.005784552 -0.05906859 0.02081503 0.02539618 -0.049256228 -0.096699566 0.078321554
-0.0046026483 0.026705615 0.028011361 0.086008415 -0.03735189 0.04569301 0.039268967 -0.08515559
0.04261253 -0.022822253 -0.0015623813 0.04212493 0.03524317 -0.057018287 -0.049693525 0.060315527
0.043679252 0.012418544 0.042127643 -0.07138154 -0.0042457343 -0.12370087 0.034592357 -0.0064650853
-0.0051932405 -0.01147657 0.009363413 -0.004345672 0.028103543 -0.071362965 0.008525278 0.07129904
0.005090452 0.0010032093 0.004869709 0.092988774 0.015524016 -0.059624285 0.088937655 -0.02263362
-0.10700067 -0.061681096 0.02806178 -0.06890969 -0.064292096 -0.0055406615 -0.06757407 0.018302413
0.105282 -0.026386183 0.0320208 0.095850155 0.052809205 -0.12006255 -0.0015430298 -0.07761722
-0.12455981 0.03188156 0.09025969 0.041695297 0.12258212 0.09770531 -0.07145901 0.00197859
0.059013 0.10700331 -0.07371 0.06780029 -0.03502841 -0.010427273 -0.103374496 0.037291862
00000000: 0b31 bcbb a57e a03b e719 a63d 7b86 aa3d
00000010: 8b6d 043d 93f1 573d 6ef5 923d 7155 8f3d
00000020: 4a62 9f3d 5a55 263c b19a 62bd 702e eebc
00000030: 8dbb 2b3d 923b a0bd d654 9e3d 18a1 8cbc
00000040: cd87 593d bf6e 9b3a bb51 db3c a4bb 473d
00000050: c041 aa3a 80c6 993c d728 943d dc4f 563d
00000060: 387d 8a3d b983 8f3d dc65 35bd 6bb9 ac3d
00000070: 1260 623c 6291 713d 447c a2bd 9d96 813d
00000080: 8b25 8b3c 9c69 81bd 0464 203d 7a69 023d
00000090: d86c ddbc 1416 f43c 2ce9 7d3b f0f9 77bd
000000a0: 7092 c23c 29df fd3c 2387 863d 684b 993c
000000b0: 8526 883d 1f20 953b 96d8 773d 2154 9ebd
000000c0: 74fe 693d 3f36 2bbd e6aa 82bd fcd2 95bd
000000d0: 0ab0 cebc e94d 833c ce20 8a3d a610 00bc
000000e0: 1a26 6b3d a810 a73b eb61 12bd 8b1c 65bd
000000f0: 9020 b1bc 9fac 433d 964e c6bc 6828 b6bd
00000100: f1aa 8e3d 722e 1bbd 061e 653d e4a7 beb9
00000110: 985e 803d 306f 52bd 12cc 3e3c df93 5c3c
00000120: ca35 16bd 130a 433d ce74 483b 8df0 983d
00000130: 07cf 893d fc63 3d3d bde6 153d 26b2 b73c
00000140: deaa ad3b 3e69 11bc 650b 20bd 093c a1bc
00000150: 6bb8 2dbd a92a 0abd eb99 9dbd efa0 81bd
00000160: 9f6d 05bd 1af6 abbd 9429 02bc dfb9 773d
00000170: bea5 24bd bf68 e03b 85e4 e7bc 8208 1e3d
00000180: 5484 3abd dbf1 aa3d d571 4f3d 7856 f5bc
00000190: 292f f43b 6a81 3bbd dda8 2fbd f746 b43c
000001a0: b3c2 643d f820 a7bd 4c73 9a3d b02a 1fbd
000001b0: 2cee c13d 2af7 4a3c c73c babd 1d8c b5bd
000001c0: 1416 80bd cb22 c2ba f682 443b 8563 fbbc
000001d0: 09a7 913d 2a10 c53c 3a3f 13bd cac3 20bd
000001e0: 6dc7 90bc 62af 553d 6959 533d 98ca 66bd
000001f0: 54f6 51bd 81d5 3d3d 0be3 9cbc 80ca 373c
00000200: a70b 45bd 1b2d ad3b 7d56 b4bd 4fec 493d
00000210: 7a49 9abd 8836 f83d 3dd9 f53c f452 e8bd
00000220: bb8b 06bd e1a1 a63d da78 6c3d a2ac 9a3d
00000230: 8e16 553d fd5c d0bd 4c2d c33c cdad a1bd
00000240: fe04 45bd a29b 90bc 959c 193d 8ee7 39bd
00000250: f18b 39bd 54a3 9a3c 485b e83d 28d6 c1bc
00000260: 61f7 df3c e3c9 6c3b c930 623d b3b6 493d
00000270: 7c0d 863a cd18 e73d 1b2b fb3c cfc7 65bd
00000280: c8f7 603c 4c0b 81bd 1b47 98bd d2c7 743d
00000290: d2f6 8bbd f084 d43d 21a8 4c3d 0642 b53c
000002a0: ea87 193d 257a 5dbb 3986 a5bd 0a9a f5bd
000002b0: 4d97 64ba a9fb ec3d f8e3 233d 0043 203d
000002c0: 43e3 f7bc 578c bdbb e8f1 71bd 4884 aa3c
000002d0: a60b d03c e6c0 49bd 6c0a c6bd 0d67 a03d
000002e0: d0d1 96bb bcc5 da3c 1578 e53c 2e25 b03d
000002f0: 4cfe 18bd 9828 3b3d 7fd8 203d 0e66 aebd
00000300: 7a8a 2e3d bcf5 babc d1c8 ccba 318b 2c3d
00000310: 245b 103d 028c 69bd 708b 4bbd 6a0d 773d
00000320: 04e9 323d 2677 4b3c 098e 2c3d 7c30 92bd
00000330: cd1f 8bbb e256 fdbd b7b0 0d3d 11d9 d3bb
00000340: 0f2c aabb 3908 3cbc 0069 193c 2466 8ebb
00000350: 6739 e63c bf26 92bd 9cad 0b3c 3b05 923d
00000360: cecd a63b 1e7e 833a 1492 9f3b e670 be3d
00000370: 7158 7e3c 9838 74bd f224 b63d 246a b9bc
00000380: 2b23 dbbd 51a5 7cbd d1e1 e53c 8620 8dbd
00000390: 93ab 83bd 708e b5bb 4664 8abd f1ee 953c
000003a0: 179e d73d d627 d8bc 3e28 033d 164d c43d
000003b0: 774e 583d 5be3 f5bd 7d3f caba c7f5 9ebd
000003c0: 3719 ffbd 3d96 023d 13da b83d b0c8 2a3d
000003d0: 560c fb3d b919 c83d 1a59 92bd 3bab 013b
000003e0: 9eb7 713d 8d24 db3d 45f5 96bd e1da 8a3d
000003f0: f379 0fbd 27d7 2abc 02b6 d3bd 5abf 183d

actor.policy_head.bias f4 [50]
-0.003006351 0.020307945 -0.015721956 -0.0075360076 -0.08389854 0.00526574 0.042976204 0.033340372
0.078863285 -0.04939112 0.019795882 -0.0068139005 -0.05233161 -0.009940512 -0.017278079 -0.040789656
0.058317497 0.028176852 0.025353117 -0.032620553 -0.07100235 -0.009847602 0.039629817 -0.095156565
0.027499696 0.010196639 0.04639475 0.065667346 0.037316162 -0.07163077 -0.022624066 0.012816467
0.05652692 -0.01379193 -0.053416044 0.07778155 -0.018683806 -0.01604666 0.07650709 -0.062948205
0.03832706 0.003277606 -0.02560227 -0.040587265 0.09165734 0.00041790053 -0.0083714565 -0.037173
0.025303358 -0.05624248
00000000: 3306 45bb d95c a63c 55cb 80bc 9df0 f6bb
00000010: ffd2 abbd 3b8c ac3b d107 303d ea8f 083d
00000020: 1383 a13d 584e 4abd f92a a23c 2447 dfbb
00000030: ac59 56bd 87dd 22bc c28a 8dbc 0e13 27bd
00000040: 54de 6e3d 24d3 e63c 57b1 cf3c 219d 05bd
00000050: ae69 91bd d657 21bc e052 223d 72e1 c2bd
00000060: 0b47 e13c ce0f 273c 6c08 3e3d 9a7c 863d
00000070: d5d8 183d 27b3 92bd 1b56 b9bc 29fc 513c
00000080: c688 673d 8cf7 61bc c8ca 5abd ef4b 9f3d
00000090: c80e 99bc 4974 83bc c0af 9c3d fdea 80bd
000000a0: d6fc 1c3d 1bcd 563b dabb d1bc d53e 26bd
000000b0: d8b6 bb3d a919 db39 6f28 09bc b742 18bd
000000c0: fd48 cf3c 845e 66bd

critic.fc1.weight f4 [128, 21]
0.25842392 -0.30299962 -0.046317138 0.13123591 0.10699833 0.1133278 0.29002482 0.20895395
0.203239 0.34779382 0.057371918 0.17412958 0.33208993 0.20217438 0.23467837 0.044546995
0.011117368 0.33896726 0.0026705877 0.10976749 0.16367693 0.07196448 -0.013065645 0.16832918
0.22589722 0.0028115103 -0.20987344 0.27472213 -0.052636556 0.21817926 -0.001801752 -0.060067575
-0.16945401 0.06787795 0.034622516 -0.11900807 0.16801408 0.04651849 0.2171366 0.12446367
0.030861298 0.11509692 0.28835618 -0.18559216 -0.26576886 0.1846337 -0.27209735 -0.16882464
-0.2592627 -0.12916082 0.2955267 0.13644058 0.05630317 0.26167995 0.23644471 0.21169823
0.32563502 0.36312687 0.17271878 0.1900719 -0.026838547 0.10201556 0.18720545 0.3847076
-0.3033834 -0.26399028 0.27430585 -0.33662352 -0.16938347 -0.12035075 -0.037823513 0.00955215
0.062351827 -0.026173024 -0.017587416 -0.036551807 0.23869614 0.27368578 0.31063494 0.055697836
0.23225448 0.23002829 0.07916713 0.010618169 -0.12537953 0.1139355 0.14289682 -0.3260177
0.21929933 -0.2013618 -0.022287907 -0.22726522 0.2693326 -0.0029434892 0.26867813 0.11498834
-0.03986879 0.2356797 0.2467893 0.18447222 0.2114368 0.3552203 0.07346473 0.04014281
0.19243845 0.23428763 0.039339572 -0.09415165 0.23392233 0.24434985 0.23245321 0.17294037
0.08128815 0.13224708 0.2423924 0.34113392 0.21210301 0.013088797 0.046397027 0.002267515
0.32843038 0.13699497 0.2965662 0.10636487 -0.024452835 -0.052891266 0.2726613 0.30660543
0.047217894 -0.0120839905 -0.2237332 -0.014386534 -0.18937504 -0.33859605 0.2178019 0.07869558
0.06830581 0.05954712 0.13410997 0.24977082 -0.05504298 -0.02556582 -0.046946127 0.21381581
0.22784093 -0.07940323 0.18558739 0.090448774 0.0022503275 0.30143505 -0.23125155 0.2860008
0.07155231 0.10780951 -0.26323712 0.1911734 0.21604897 0.22705995 -0.092835985 0.30360642
-0.03603712 0.1252405 -0.0037651681 0.045226805 0.08815066 0.22670321 0.16343561 0.18254007
0.059054747 0.29244617 0.09883004 0.22404826 0.34851107 -0.14267662 0.26954332 -0.1157189
0.1805866 0.18415609 0.0057215844 0.29610804 -0.010231762 0.3040005 0.35643563 0.112432815
0.2598136 0.1464368 -0.008926625 0.23507923 0.16920957 0.21831891 -0.15051606 0.011413692
0.2826434 -0.10705269 0.24835342 -0.22369185 0.2345272 0.32214227 0.0765841 0.29126957
0.13283074 0.22072965 0.17165726 -0.08502483 0.35729018 0.05506998 0.27923828 0.1255584
-0.007921723 0.18155472 0.31014845 0.03572681 -0.1843131 -0.32645062 0.11799846 0.019104172
-0.222724 -0.31128857 0.20818388 0.005957987 0.13624734 0.14987291 0.15853995 0.19050202
0.19050105 0.29396576 0.28980967 0.24367978 0.0025710235 -0.06495182 0.09939671 0.12766835
-0.2751065 -0.062897615 0.32888964 -0.3154322 0.076780185 -0.15303701 0.0028531174 0.054645363
-0.021797605 0.17214708 0.010383797 0.33441076 -0.046663534 0.19675298 0.21763015 0.20538096
0.0636797 0.078632094 0.0117718605 0.33038935 -0.082474105 0.20347758 0.14078881 0.16742508
00000000: 2450 843e c422 9bbe 0ab7 3dbd b562 063e
00000010: f121 db3d 6818 e83d 227e 943e 06f8 553e
00000020: e21d 503e 0812 b23e d1fe 6a3d 064f 323e
00000030: b107 aa3e cd06 4f3e 874f 703e e976 363d
00000040: 9f25 363c 1e8d ad3e 0705 2f3b c7cd e03d
00000050: ed9a 273e 1d62 933d 4911 56bc 7c5e 2c3e
00000060: 9a51 673e 5141 383b 10e9 56be 61a8 8c3e
00000070: 6e99 57bd 626a 5f3e c428 ecba 6b09 76bd
00000080: 5a85 2dbe 9803 8b3d 57d0 0d3d 81ba f3bd
00000090: e20b 2c3e 2c8a 3e3d 0f59 5e3e cfe6 fe3d
000000a0: d5d0 fc3c efb7 eb3d 6ca3 933e df0b 3ebe
000000b0: db12 88be 9e10 3d3e 5850 8bbe 5ee0 2cbe
000000c0: 15be 84be bc42 04be 474f 973e 14b7 0b3e
000000d0: 279e 663d eafa 853e 901e 723e 6cc7 583e
000000e0: a2b9 a63e c4eb b93e 31dd 303e 35a2 423e
000000f0: 83dc dbbc 89ed d03d c9b2 3f3e 65f8 c43e
00000100: 1255 9bbe bc29 87be d171 8c3e eb59 acbe
00000110: dc72 2dbe 747a f6bd d4ec 1abd 9f80 1c3c
00000120: a164 7f3d cf68 d6bc 7c13 90bc 59b7 15bd
00000130: c36c 743e 8b20 8c3e 8b0b 9f3e 6a23 643d
00000140: 1ed4 6d3e 898c 6b3e 6022 a23d d4f7 2d3c
00000150: 7e63 00be 0457 e93d 8b53 123e cbeb a6be
00000160: 0190 603e ca31 4ebe 2195 b6bc 37b8 68be
00000170: f6e5 893e 8ee7 40bb 2e90 893e 027f eb3d
00000180: 754d 23bd 0556 713e 56b6 7c3e 49e6 3c3e
00000190: e382 583e 6fdf b53e ad74 963d ca6c 243d
000001a0: 960e 453e 19e9 6f3e 8822 213d 95d2 c0bd
000001b0: 5689 6f3e d936 7a3e 3708 6e3e 4817 313e
000001c0: 677a a63d c76b 073e b735 783e 1ba9 ae3e
000001d0: 8831 593e 6572 563c cf0a 3e3d 979a 143b
000001e0: 0728 a83e 6948 0c3e 86d7 973e d3d5 d93d
000001f0: 5051 c8bc 83a4 58bd 439a 8b3e 63fb 9c3e
00000200: 8d67 413d eefb 45bc 511a 65be 7fb5 6bbc
00000210: 88eb 41be 765c adbe 7607 5f3e 262b a13d
00000220: ebe3 8b3d aee7 733d 2054 093e ecc3 7f3e
00000230: bf74 61bd 696f d1bc 954a 40bd 88f2 5a3e
00000240: 224f 693e 299e a2bd 9f0a 3e3e 353d b93d
00000250: 3b7a 133b b255 9a3e 35cd 6cbe b26e 923e
00000260: 048a 923d 3bcb dc3d 04c7 86be f6c2 433e
00000270: f13b 5d3e 6782 683e cb20 bebd 4d72 9b3e
00000280: a99b 13bd 0c3f 003e 0ac1 76bb be3f 393d
00000290: 5588 b43d e324 683e aa5b 273e c9eb 3a3e
000002a0: 64e3 713d 81bb 953e 6767 ca3d e86c 653e
000002b0: 0b70 b23e d219 12be 9501 8a3e 08fe ecbd
000002c0: b2eb 383e 6a93 3c3e 217c bb3b 799b 973e
000002d0: 1fa3 27bc f4a5 9b3e bb7e b63e 2d43 e63d
000002e0: 4a06 853e 87f3 153e fb40 12bc 9cb8 703e
000002f0: 4645 2d3e fe8e 5f3e e220 1abe 7e00 3b3c
00000300: a3b6 903e 713e dbbd 5c50 7e3e 7a0f 65be
00000310: e627 703e d5ef a43e 20d8 9c3d 4921 953e
00000320: c804 083e f406 623e ecc6 2f3e 8021 aebd
00000330: bdee b63e 0f91 613d 52f8 8e3e 6292 003e
00000340: 1dca 01bc 7be9 393e c7cb 9e3e 4756 123d
00000350: 93bc 3cbe 8924 a7be 2da9 f13d 5a80 9c3c
00000360: c311 64be 3761 9fbe 282e 553e 383b c33b
00000370: 6c84 0b3e 4978 193e 4c58 223e f612 433e
00000380: b512 433e ae82 963e ef61 943e 3187 793e
00000390: 9e7e 283b 7605 85bd 8190 cb3d 7ebb 023e
000003a0: c2da 8cbe 77d0 80bd 3964 a83e 5480 a1be
000003b0: ee3e 9d3d bcb5 1cbe 5efb 3a3b d1d3 5f3d
000003c0: e490 b2bc 5347 303e cd20 2a3c e337 ab3e
000003d0: 4322 3fbd 9d79 493e 70da 5e3e 634f 523e
000003e0: 816a 823d dd09 a13d c3de 403c cb28 a93e
000003f0: 2fe8 a8bd 6d5c 503e f12a 103e 7b71 2b3e

critic.fc1.bias f4 [128]
-0.045928217 0.12797959 0.21798834 0.16148967 0.37153274 0.29362038 -0.10917125 0.011640845
0.039817203 0.028860403 0.2542252 0.07084845 -0.011018678 0.3168718 0.074487515 -0.017472155
0.09399696 0.00045570443 0.33372778 0.2244959 0.26256445 0.1989276 -0.00817357 0.08901176
0.21095395 0.10730344 0.21246815 -0.058779676 0.035210777 0.15842506 0.26614618 0.2623649
0.053121965 0.14788698 0.08898684 0.083270915 0.23861344 0.0049370187 0.2981044 0.28968728
0.115319125 0.14432445 0.0821984 0.16686925 0.22681141 0.200668 -0.023708327 0.06107359
0.17652856 0.21754867 -0.023470111 0.31324407 0.36121014 0.07643333 0.09696789 0.07313527
-0.0012912813 0.12816094 0.042049464 0.22211233 0.105537 -0.040172853 0.013534611 0.3427971
0.09588962 0.3034789 0.22790062 0.023227181 -0.04045749 0.28133014 0.2892854 0.020858303
0.026800036 0.0058630216 -0.042486478 0.09868692 0.32167837 0.062036995 0.16675752 0.07014403
0.3396814 0.20432049 0.34220275 -0.018744266 0.32146668 0.15921354 -0.009487868 0.1773166
0.050104618 -0.03907033 0.11332515 0.23602413 0.06039312 0.34968102 -0.024830986 0.1633424
0.35913053 0.19776677 0.12784326 0.065613925 0.100327045 -0.006098572 0.053347357 0.09865168
0.0061802054 0.28108063 0.29335144 0.06804094 0.16574663 -0.041301955 0.190533 0.09444639
0.29200882 0.37020656 0.17285714 0.09878493 0.030033609 0.2119532 0.3159809 0.07546294
0.20403782 0.22785479 0.03707294 0.122267716 0.15855849 0.21424633 -0.0710442 0.06061975
00000000: 3a1f 3cbd 150d 033e 5638 5f3e 8c5d 253e
00000010: 8a39 be3e 6955 963e 2d95 dfbd 3eb9 3e3c
00000020: 5d17 233d a76c ec3c ce29 823e fe18 913d
00000030: af87 34bc 053d a23e e98c 983d c421 8fbc
00000040: 7a81 c03d 9deb ee39 5ede aa3e 41e2 653e
00000050: d96e 863e adb3 4b3e 70ea 05bc cc4b b63d
00000060: 5004 583e e8c1 db3d 4091 593e f5c2 70bd
00000070: 2d39 103d 2e3a 223e 5044 883e b154 863e
00000080: 6b96 593d af6f 173e bb3e b63d f189 aa3d
00000090: 1557 743e b7c6 a13b 24a1 983e e451 943e
000000a0: 6f2c ec3d cac9 133e a257 a83d c6df 2a3e
000000b0: 4041 683e ea7b 4d3e f737 c2bc 4d28 7a3d
000000c0: e7c3 343e 14c5 5e3e 6444 c0bc 8761 a03e
000000d0: 89f0 b83e 1489 9c3d 1a97 c63d f2c7 953d
000000e0: 3640 a9ba 9f3c 033e 0f3c 2c3d 6a71 633e
000000f0: c823 d83d 4a8c 24bd 46c0 5d3c 1a83 af3e
00000100: c761 c43d 9661 9b3e c85e 693e ee46 be3c
00000110: c1b6 25bd 810a 903e 371d 943e 08df aa3c
00000120: c08b db3c 971e c03b 4d06 2ebd 5e1c ca3d
00000130: 07b3 a43e 811a 7e3d 7cc2 2a3e aca7 8f3d
00000140: b8ea ad3e 6439 513e 3335 af3e 938d 99bc
00000150: 4897 a43e e008 233e 0173 1bbc 7c92 353e
00000160: 803a 4d3d 3608 20bd 0417 e83d 4fb0 713e
00000170: c75e 773d 6409 b33e 5a6a cbbc 3b43 273e
00000180: f5df b73e 5f83 4a3e 58e9 023e 9860 863d
00000190: 4478 cd3d 88d6 c7bb c282 5a3d e409 ca3d
000001a0: 5283 ca3b cde9 8f3e 2932 963e 0c59 8b3d
000001b0: 7cb9 293e 3d2c 29bd 151b 433e 1c6d c13d
000001c0: 2e82 953e b78b bd3e 7601 313e c14f ca3d
000001d0: 0b09 f63c 420a 593e 40c8 a13e 508c 9a3d
000001e0: 4aef 503e c452 693e ccd9 173d 7f67 fa3d
000001f0: 285d 223e 6463 5b3e 9f7f 91bd 6a4c 783d

critic.fc2.weight f4 [128, 128]
0.026799938 0.049516864 -0.0035187278 -0.08455991 0.0038916727 -0.013698103 0.06721392 0.031870533
-0.06285445 0.012752598 -0.07855578 0.07259436 -0.07864401 0.011396673 0.026612695 -0.018955976
0.06184973 0.004880438 -0.013708979 -0.026889749 0.0104198055 -0.00015120886 -0.030864388 -0.005809442
-0.04986192 -0.07082176 -0.0012523046 0.04703433 0.01242455 0.022902614 -0.06626994 -0.085403204
-0.0035019673 -0.060804166 -0.034168698 -0.017375499 -0.0654024 0.021213852 0.04363709 -0.08512901
-0.024982171 -0.06635618 0.06284559 -0.081481956 -0.04290598 0.04965295 -0.075267434 0.024926795
0.06148587 -0.061118793 -0.08951487 -0.058853738 -0.026645293 -0.031812593 -0.034422453 0.080360256
-0.070811525 -0.023035299 -0.0033711065 0.007393243 0.006759853 0.080633275 0.04015548 -0.048631527
0.06281045 -0.029425733 0.052751265 -0.010942282 -0.07245729 -0.09115291 0.025856778 -0.012823311
0.06258928 0.07566696 0.02522458 0.018457092 0.060394708 -0.051202793 0.052370667 0.04151938
-0.013372357 0.06470581 -0.051856373 0.01828075 0.004075342 -0.042092152 0.004337783 -0.008013788
-0.03863334 -0.05042945 0.038109332 0.018535355 0.06902056 -0.012768814 0.04313892 -0.0072095194
0.006860307 -0.03020278 -0.045807853 -0.024801344 -0.08388736 -0.032575257 -0.0648241 -0.00329442
0.056110464 -0.04401623 -0.030569883 0.012122098 0.05369877 0.033078417 -0.08954551 0.07769424
-0.031901013 -0.087197475 -0.07752824 -0.048346903 0.012531894 0.07863672 0.05272214 -0.027628712
0.009979249 0.057913527 -0.06844852 0.08369397 -0.062021784 0.042053185 -0.03568959 0.044552334
-0.07595481 0.00036837012 0.006356116 0.015068906 -0.09478489 -0.016058955 0.065907896 -0.0534412
-0.0072673387 -0.050007075 -0.09076178 -0.018185683 -0.07278052 0.0052874507 0.044538837 -0.03929518
-0.07010659 0.0079391105 -0.011863152 -0.007741213 -0.056066845 0.013380041 -0.012633606 -0.0010043877
-0.048765656 -0.08364297 0.046351343 -0.025433248 -0.05465838 0.010829006 0.028401041 -0.013490465
-0.0331261 -0.08336282 0.040911473 0.005390336 0.033368077 -0.08724594 -0.053034887 0.07546976
0.03078659 0.06850712 -0.04519169 -0.0028156783 0.057422783 -0.05912776 -0.025223164 -0.006721262
0.066887185 0.0005872469 -0.08052599 0.02448433 0.016914867 0.04200187 -0.06800618 0.01681277
-0.033751756 0.033530522 -0.00093324116 0.04894779 -0.09547985 -0.040997352 0.058806837 0.037256215
-0.05897045 -0.07261614 0.06196429 -0.012116935 -0.0033019506 -0.047254995 -0.00078181823 -0.023533575
-0.008969239 0.0076821106 -0.097297095 0.06174305 0.012567771 0.03991616 -0.008875513 -0.08998948
-0.012915152 -0.011846712 0.03422361 -0.03347221 0.03051381 0.002951627 0.07561263 -0.081216685
0.026323743 0.056505464 0.023457326 -0.094945446 -0.08365677 -0.027445104 0.0024282732 -0.039308745
-0.0033609762 0.052770335 -0.021789853 0.07201294 -0.04257852 -0.061187517 0.051967047 -0.036180135
-0.03307684 0.07070856 0.045389052 -0.044630148 0.027244775 -0.07077796 -0.060205072 0.05211226
0.053203035 -0.004473746 -0.05946203 -0.0060355 -0.012955875 0.00076444517 -0.07269309 -0.038101308
-0.052383903 0.026421737 0.012151438 0.07121137 -0.08024896 0.036564168 0.06012288 0.057001013
00000000: 8b8b db3c 32d2 4a3d 759a 66bb bf2d adbd
00000010: 6f0b 7f3b 026e 60bc 74a7 893d ad8a 023d
00000020: d5b9 80bd 46f0 503c dae1 a0bd 5aac 943d
00000030: 1c10 a1bd 1cb9 3a3c de02 da3c 9049 9bbc
00000040: 2456 7d3d 15ec 9f3b a09b 60bc e447 dcbc
00000050: d5b7 2a3c d28d 1eb9 50d7 fcbc 225d bebb
00000060: 033c 4cbd 000b 91bd 5f24 a4ba 12a7 403d
00000070: 5790 4b3c 439e bb3c 89b8 87bd e0e7 aebd
00000080: 4381 65bb ca0d 79bd 7af4 0bbd 1057 8ebc
00000090: b2f1 85bd acc8 ad3c cebc 323d 1e58 aebd
000000a0: 69a7 ccbc c0e5 87bd 30b5 803d 03e0 a6bd
000000b0: 2ebe 2fbd e460 4b3d d025 9abd 4733 cc3c
000000c0: 9cd8 7b3d b357 7abd 9253 b7bd 9e10 71bd
000000d0: 3b47 dabc ec4d 02bd 8ffe 0cbd eb93 a43d
000000e0: a205 91bd 86b4 bcbc c8ed 5cbb 0443 f23b
000000f0: c281 dd3b 0f23 a53d 137a 243d da31 47bd
00000100: c4a2 803d 3c0e f1bc b611 583d 4247 33bc
00000110: 7d64 94bd 60ae babd 98d1 d33c dd18 52bc
00000120: cf2e 803d 47f7 9a3d c7a3 ce3c 5433 973c
00000130: 7160 773d 05ba 51bd a082 563d 3a10 2a3d
00000140: bb17 5bbc 7b84 843d 5967 54bd 83c1 953c
00000150: 728a 853b d268 2cbd f623 8e3b 434c 03bc
00000160: fe3d 1ebd 1c8f 4ebd 8818 1c3d 75d7 973c
00000170: a75a 8d3d 4a34 51bc 70b2 303d d53d ecbb
00000180: 6dcc e03b d26b f7bc 04a1 3bbd 302c cbbc
00000190: 23cd abbd a26d 05bd 7fc2 84bd 32e7 57bb
000001a0: 16d4 653d 5d4a 34bd b16d fabc c49b 463c
000001b0: 3ef3 5b3d 3c7d 073d a363 b7bd 281e 9f3d
000001c0: a3aa 02bd 9794 b2bd 20c7 9ebd 6707 46bd
000001d0: 9352 4d3c 4a0c a13d 2cf3 573d 9c55 e2bc
000001e0: 0180 233c bc36 6d3d bd2e 8cbd bf67 ab3d
000001f0: 8e0a 7ebd f63f 2c3d 3f2f 12bd 827c 363d
00000200: 328e 9bbd cd21 c139 f746 d03b 93e3 763c
00000210: 951e c2bd 128e 83bc b8fa 863d 29e5 5abd
00000220: db22 eebb 38d4 4cbd 50e1 b9bd 24fa 94bc
00000230: f40d 95bd 5a42 ad3b 5b6e 363d fcf3 20bd
00000240: 0b94 8fbd 0b13 023c aa5d 42bc 00aa fdbb
00000250: 59a6 65bd f637 5b3c 2ffd 4ebc a9a5 83ba
00000260: 7fbe 47bd 014d abbd e8da 3d3d 6359 d0bc
00000270: 77e1 5fbd 256c 313c 4da9 e83c 1c07 5dbc
00000280: 3caf 07bd 20ba aabd ca92 273d 6aa1 b03b
00000290: f7ac 083d 00ae b2bd 1c3b 59bd e48f 9a3d
000002a0: 2934 fc3c 764d 8c3d ec1a 39bd 3e87 38bb
000002b0: 2734 6b3d f32f 72bd cfa0 cebc 083e dcbb
000002c0: 26fc 883d 79f1 193a cfea a4bd 5d93 c83c
000002d0: 0c91 8a3c 270a 2c3d d346 8bbd efba 893c
000002e0: 483f 0abd 4d57 093d c1a4 74ba 7a7d 483d
000002f0: f18a c3bd d7ec 27bd 70df 703d f999 183d
00000300: 008b 71bd c5b7 94bd 44ce 7d3d 1c86 46bc
00000310: 8a65 58bb 748e 41bd eff2 4cba 7cc9 c0bc
00000320: b7f3 12bc 37ba fb3b b343 c7bd 48e6 7c3d
00000330: 0de9 4d3c 217f 233d 9a6a 11bc 684c b8bd
00000340: 139a 53bc b618 42bc 0e2e 0c3d 281a 09bd
00000350: 19f8 f93c 1570 413b cbda 9a3d ef54 a6bd
00000360: e4a4 d73c 4672 673d 9429 c03c c272 c2bd
00000370: 3e54 abbd 8ed4 e0bc aa23 1f3b 3502 21bd
00000380: d343 5cbb b525 583d a280 b2bc 857b 933d
00000390: d066 2ebd c39f 7abd 66db 543d 9f31 14bd
000003a0: 957b 07bd a6cf 903d dfe9 393d 1ace 36bd
000003b0: 6f30 df3c 09f4 90bd 9899 76bd aa73 553d
000003c0: 6deb 593d 8098 92bb 758e 73bd 72c5 c5bb
000003d0: e144 54bc 0c65 483a 1de0 94bd 1e10 1cbd
000003e0: 8190 56bd 6672 d83c d316 473c 44d7 913d
000003f0: 9159 a4bd 4fc4 153d 6943 763d e579 693d

critic.fc2.bias f4 [128]
-0.06427697 -0.0019399767 0.0033518053 -0.048982162 0.12954634 0.12546103 -0.03045504 -0.08179766
0.06647816 0.030798309 0.022336643 0.10856926 0.033633176 -0.0011012728 -0.08910651 0.0035949924
0.066153124 0.030985596 0.059898965 0.13186647 0.14814295 0.15652743 0.07798209 0.15426476
-0.09126812 0.0932836 -0.0120995585 0.029501108 -0.0035456894 -0.069232285 0.057116445 0.1387432
-0.015992016 0.18190825 -0.089756675 0.024638796 -0.0028474 0.07134573 0.0763723 0.16672282
0.07735308 0.123467155 -0.007496893 -0.048901998 -0.0010850962 0.08285358 -0.04584708 0.15581398
0.0823191 -0.0035305368 0.03576501 -0.038185205 -0.035367515 0.08685452 -0.037026476 0.0030183666
0.029797146 0.10154579 0.13345751 0.03498395 0.11958372 -0.056673408 -0.010388246 -0.011027822
0.034069568 0.09764774 0.120438434 0.023582364 0.016278544 0.11062432 -0.0971099 0.10452017
0.012682005 0.048274796 -0.030857202 -0.08148723 0.013231754 -0.0804128 -0.050168235 0.035410617
-0.052361794 -0.075143635 -0.008919522 0.074609034 0.09266216 -0.08329373 0.03304925 -0.022450017
0.04164451 0.07500577 -0.09148019 -0.00035753855 -0.021785071 -0.092532344 0.018489609 -0.07135798
-0.010704844 0.06473089 0.14009468 0.13130935 0.07095904 0.14309612 -0.033004276 0.049584802
-0.019751716 -0.020347161 0.029178998 0.032171723 0.05503226 -0.06713098 -0.032752227 0.061072353
-0.040016256 0.09734745 0.07564591 0.05604844 -0.037828095 0.12917547 0.112261385 0.01825723
0.05679353 0.0071954834 -0.100021586 -0.026976373 0.13687646 0.04112864 0.011242628 0.006435269
00000000: a5a3 83bd d146 feba f6a9 5b3b 85a1 48bd
00000010: cca7 043e db78 003e d97c f9bc 8885 a7bd
00000020: b425 883d bc4c fc3c 56fb b63c 8f59 de3d
00000030: f1c2 093d 9558 90ba 797d b6bd f799 6b3b
00000040: 4a7b 873d 81d5 fd3c 9e58 753d 0108 073e
00000050: c9b2 173e ba48 203e 13b5 9f3d 95f7 1d3e
00000060: c8ea babd 790b bf3d 3a3d 46bc 4fac f13c
00000070: cc5e 68bb a8c9 8dbd eff2 693d b312 0e3e
00000080: b001 83bc 2846 3a3e 59d2 b7bd 4dd7 c93c
00000090: 729b 3abb b61d 923d 1569 9c3d 63b9 2a3e
000000a0: 4b6b 9e3d 59dc fc3d 7fa8 f5bb 764d 48bd
000000b0: c939 8eba 23af a93d 26ca 3bbd b38d 1f3e
000000c0: eb96 a83d 9460 67bb 557e 123d 1768 1cbd
000000d0: 87dd 10bd c8e0 b13d 13a9 17bd cacf 453b
000000e0: 2519 f43c 3df7 cf3d 16a9 083e 554b 0f3d
000000f0: 4fe8 f43d 6022 68bd 7633 2abc 0aae 34bc
00000100: 888c 0b3d 8afb c73d 6da8 f63d cd2f c13c
00000110: 955a 853c 018f e23d 8ee1 c6bd ac0e d63d
00000120: 2fc8 4f3c cbbb 453d 3ec8 fcbc c7e2 a6bd
00000130: 00ca 583c 77af a4bd 357d 4dbd b90a 113d
00000140: 5279 56bd e8e4 99bd 3023 12bc 9fcc 983d
00000150: a9c5 bd3d e795 aabd a65e 073d 19e9 b7bc
00000160: 6f93 2a3d a09c 993d f759 bbbd 0374 bbb9
00000170: 9b76 b2bc 9981 bdbd 8577 973c 2224 92bd
00000180: 5f63 2fbc a191 843d fb74 0f3e f575 063e
00000190: f952 913d ca87 123e 7e2f 07bd 6f19 4b3d
000001a0: 5ace a1bc 17af a6bc cb08 ef3c 7fc6 033d
000001b0: 8269 613d f87b 89bd 3327 06bd 0127 7a3d
000001c0: 16e8 23bd 1a5e c73d 3eec 9a3d 0d93 653d
000001d0: a2f1 1abd 9346 043e 4ce9 e53d 3090 953c
000001e0: 55a0 683d 17c8 eb3b 1ed8 ccbd 8efd dcbc
000001f0: 5829 0c3e 8176 283d 0033 383c f3de d23b

critic.value_head.weight f4 [1, 128]
0.057837717 0.019956259 -0.19050215 0.03200895 -0.14934187 -0.1929323 -0.18365672 0.049330276
0.077305876 0.031720676 -0.19628148 -0.15473768 -0.18592714 -0.0484278 0.06961391 -0.19520417
-0.19110183 0.055962283 -0.19846067 -0.18813148 -0.17088857 -0.14401957 -0.15510231 -0.1335071
0.09635624 -0.19893959 0.059910465 0.015000392 0.03657581 0.03632082 -0.18711147 -0.14695454
-0.15871209 -0.13083377 0.04207721 -0.15064839 0.03201293 0.027316943 -0.16267163 -0.1325503
-0.14155285 -0.17193069 0.0682883 0.07319983 -0.18761265 -0.13494946 0.079199836 -0.16176488
-0.17538813 0.058672875 -0.18836299 0.07466168 0.09598043 -0.15109344 0.06710334 0.07476741
-0.17361742 -0.17337629 -0.14691119 0.0035768081 -0.16122417 0.06704026 0.0028912888 0.04032116
0.020413037 -0.21374841 -0.18673413 0.011405417 -0.21694803 -0.20458287 0.06510151 -0.1782191
-0.21173006 -0.20842567 0.0045687906 0.14329724 0.07820018 0.031392515 -0.0084866155 -0.15686907
0.04451342 0.034555107 0.05352775 -0.19121823 -0.15705834 0.023959639 -0.20146194 0.05885014
-0.14013214 -0.16258936 0.015824864 0.03060589 0.032542694 0.08092071 0.06152749 0.013122167
0.046991326 0.039796926 -0.14006667 -0.22025292 0.041847304 -0.12532331 0.058705263 0.053735867
0.05777856 0.07150747 0.03281738 -0.21571836 0.03387802 0.023262538 0.0155089935 -0.17141874
0.014675212 -0.17786053 0.031693686 -0.18213753 0.07048802 -0.17145333 -0.13700162 -0.20300788
-0.21098071 0.015049174 0.031992324 0.06508707 -0.20974469 -0.16540298 -0.17595223 -0.19690537
00000000: 3ee7 6c3d 4f7b a33c ff12 43be d11b 033d
00000010: 13ed 18be 0b90 45be 8210 3cbe 8b0e 4a3d
00000020: 8b52 9e3d 8aed 013d 03fe 48be 8e73 1ebe
00000030: af63 3ebe 3b5c 46bd bd91 8e3d 9ae3 47be
00000040: 33b0 43be b538 653d 4639 4bbe 8aa5 40be
00000050: 6afd 2ebe de79 13be 24d3 1ebe 16b6 08be
00000060: 6c56 c53d d2b6 4bbe ad64 753d 34c4 753c
00000070: 84d0 153d 24c5 143d 269a 3fbe 407b 16be
00000080: 6c85 22be 4af9 05be 2759 2c3d 9243 1abe
00000090: fd1f 033d c8c7 df3c 6493 26be 44bb 07be
000000a0: 3bf3 10be 990e 30be bcda 8b3d cbe9 953d
000000b0: 881d 40be 3130 0abe 8633 a23d b1a5 25be
000000c0: f298 33be f852 703d 3ae2 40be 39e8 983d
000000d0: 6391 c43d 3db8 1abe 7a6d 893d a81f 993d
000000e0: c4c8 31be 8e89 31be e36f 16be e268 6a3b
000000f0: f317 25be 674c 893d c77b 3d3b cd27 253d
00000100: 3e39 a73c dde0 5abe 3b37 3fbe c9dd 3a3c
00000110: a027 5ebe 2c7e 51be f153 853d 117f 36be
00000120: c4cf 58be 8a6d 55be cbb5 953b 83bc 123e
00000130: 6a27 a03d 7095 003d 720b 0bbc 49a2 20be
00000140: b453 363d a889 0d3d ea3f 5b3d b6ce 43be
00000150: e7d3 20be 0147 c43c 0a4c 4ebe d80c 713d
00000160: cd7e 0fbe d37d 26be 25a3 813c 34b9 fa3c
00000170: 7d4b 053d c2b9 a53d 4004 7c3d 5cfe 563c
00000180: fa79 403d 1a02 233d a36d 0fbe fb89 61be
00000190: 1468 2b3d c154 00be ee74 703d 241a 5c3d
000001a0: 36a9 6c3d 8272 923d 846b 063d 46e5 5cbe
000001b0: aec3 0a3d 1491 be3c 6f19 7e3c 6588 2fbe
000001c0: 4d70 703c 1221 36be 3dd1 013d 4382 3abe
000001d0: 065c 903d 7691 2fbe 274a 0cbe 4ce1 4fbe
000001e0: 540b 58be d090 763c 620a 033d 5f4c 853d
000001f0: 50c7 56be 665f 29be d22c 34be 90a1 49be
