server/policies/policy_2/model.pt (torch, 185051 bytes, 11 tensors)

actor.fc1.weight f4 [128, 21]
-0.1146572 0.032197304 0.12771504 0.01024968 -0.1529316 0.14987913 0.13056508 -0.12032866
0.12364662 -0.089607894 0.15904623 0.011554093 0.18478543 0.17777225 -0.18373571 -0.12297178
-0.19276164 -0.061596345 -0.057493564 0.20124355 -0.16046228 0.1897775 -0.023744283 -0.15324648
0.14945173 -0.13641436 -0.033612397 -0.16393967 0.18875104 5.6710098e-05 0.036655325 -0.09319427
-0.1943062 0.06851831 -0.15199266 -0.1816791 -0.042758074 0.21595113 -0.19325443 -0.09796609
0.005873799 -0.09183512 -0.08991632 -0.038026933 0.13330323 -0.06920366 -0.084462784 -0.079448745
0.1508153 -0.0539807 0.19346371 0.2035758 0.08470546 0.13744915 -0.09927782 0.03275634
0.00022128038 -0.19917637 0.0757791 -0.13894768 0.17948478 -0.03875304 0.0898772 -0.020772373
-0.19554192 0.18199979 -0.0016814432 0.107005894 0.14440717 0.18050447 -0.04762401 0.20916215
0.02612837 -0.01535113 -0.12817784 -0.20674218 0.07104653 0.0449908 -0.14170085 -0.1167992
-0.1391593 -0.07107697 -0.19740525 -0.048414104 -0.21664271 -0.11719745 0.08556721 0.20703194
-0.09913956 0.15174626 0.1695662 0.002961131 0.11301558 0.0075893737 0.08816316 0.18313968
-0.16542462 0.16009569 -0.022959072 -0.01907067 -0.14984123 -0.032270648 0.0846368 0.028138345
-0.0042348215 0.15202461 0.016882224 0.023690635 -0.08185593 -0.069218576 0.18004632 0.13686667
-0.10701916 0.21494219 -0.035302527 0.104034945 0.18967907 -0.10001079 -0.0070993486 -0.09217726
0.21341181 -0.16041903 0.19841857 0.07868192 -0.13975014 -0.010973024 -0.023647696 -0.04062857
-0.19837269 -0.18875758 -0.13752832 0.184937 -0.18314421 0.10153839 -0.06679779 0.008246618
-0.17251913 -0.2098931 -0.08376031 -0.11198716 0.17027166 -0.12831946 -0.19594248 -0.0784569
0.071806766 -0.16035901 -0.027905598 0.1843742 0.21524015 0.14306305 0.13066404 -0.042985648
-0.13573948 -0.06644517 0.21080348 0.1571577 -0.1628813 -0.09447301 0.08903954 -0.091858745
0.016801178 -0.108986564 0.04602825 0.04080428 0.11141162 -0.19891605 0.19283138 0.08807528
-0.11460063 0.07086553 0.049285583 0.039272204 0.20185645 0.10817734 0.0712869 -0.0031497688
-0.035795152 0.040735133 -0.1898366 -0.18486898 0.1325961 0.17931953 0.18036185 -0.11483235
0.18722013 -0.020183325 -0.07143967 0.17971545 -0.022915207 -0.19402628 0.09063616 0.1459719
-0.03383336 -0.097045824 -0.09845956 0.09614084 0.0076403082 0.13344558 -0.1361917 -0.21362942
-0.09797063 -0.013692543 0.042550724 -0.043434173 -0.07901565 0.105771415 0.14046101 0.13336281
-0.123365074 0.034936056 -0.040525388 -0.016623985 0.07042359 0.13412637 -0.207131 -0.19974919
-0.021095166 -0.117947534 0.11838777 0.16934869 0.14923237 0.2011848 0.07474513 0.015786836
0.0865004 0.19803587 -0.033027045 -0.19136213 0.11737584 0.06380603 0.06996821 -0.106270865
-0.081947826 -0.022963434 -0.16704229 0.19833134 -0.17425174 -0.12535101 -0.2168927 0.024423754
0.10244002 0.0545826 0.14217375 0.08789019 0.1757609 -0.123720005 -0.19791505 -0.12760265
0.032595985 -0.20607226 0.11735843 -0.050442632 -0.088480905 -0.025250139 0.18134984 0.08284288
00000000: 65d1 eabd 52e1 033d bbc7 023e 46ee 273c
00000010: 1a9a 1cbe ea79 193e dab2 053e df6e f6bd
00000020: 703a fd3d 5884 b7bd 04dd 223e 614d 3d3c
00000030: 6438 3d3e ee09 363e 3725 3cbe a1d8 fbbd
00000040: 4f63 45be 734c 7cbd 5f7e 6bbd ca12 4e3e
00000050: 3950 24be 0855 423e 5f83 c2bc a5ec 1cbe
00000060: e009 193e 35b0 0bbe 27ad 09bd cddf 27be
00000070: f447 413e 01dc 6d38 e523 163d a3dc bebd
00000080: 34f8 46be 5453 8c3d f7a3 1bbe 160a 3abe
00000090: 1723 2fbd 4b22 5d3e 7de4 45be 72a2 c8bd
000000a0: ff78 c03b 0d14 bcbd 0c26 b8bd 21c2 1bbd
000000b0: a480 083e a6ba 8dbd d3fa acbd 06b6 a2bd
000000c0: 536f 1a3e de1a 5dbd 5a1b 463e 2d76 503e
000000d0: 0e7a ad3d 78bf 0c3e 2b52 cbbd 832b 063d
000000e0: 8007 6839 e4f4 4bbe 1332 9b3d 4d48 0ebe
000000f0: dcca 373e 82bb 1ebd 8a11 b83d d32a aabc
00000100: 243c 48be 275e 3a3e df63 dcba e825 db3d
00000110: 79df 133e 2ad6 383e 6511 43bd 9a2e 563e
00000120: 2a0b d63c 4e83 7bbc 0d41 03be 39b4 53be
00000130: d880 913d 4648 383d 071a 11be 6b34 efbd
00000140: c77f 0ebe cd90 91bd 9a24 4abe de4d 46bd
00000150: 96d7 5dbe 3705 f0bd dd3d af3d 2e00 543e
00000160: ae09 cbbd 5f63 1b3e c3a2 2d3e 890f 423b
00000170: b674 e73d 48b0 f83b e38e b43d f888 3b3e
00000180: 1265 29be 20f0 233e aa14 bcbc 183a 9cbc
00000190: fb6f 19be 3a2e 04bd 0f56 ad3d 6382 e63c
000001a0: 42c4 8abb 57ac 1b3e 974c 8a3c dd12 c23c
000001b0: 15a4 a7bd 78c2 8dbd 105e 383e c726 0c3e
000001c0: dd2c dbbd ce19 5c3e 6299 10bd 4610 d53d
000001d0: 3b3b 423e 75d2 ccbd a7a1 e8bb 6ec7 bcbd
000001e0: a088 5a3e e344 24be 3d2e 4b3e fd23 a13d
000001f0: a91a 0fbe 33c8 33bc d0b8 c1bc 256a 26bd
00000200: 3622 4bbe ab49 41be 39d4 0cbe 2060 3d3e
00000210: 288a 3bbe 5cf3 cf3d 48cd 88bd d31c 073c
00000220: dba8 30be 38ee 56be 878a abbd 8659 e5bd
00000230: b25b 2e3e 2d66 03be 25a5 48be 03ae a0bd
00000240: 6d0f 933d 2735 24be 489a e4bc 97cc 3c3e
00000250: ea67 5c3e 1f7f 123e cbcc 053e b811 30bd
00000260: 4aff 0abe 6814 88bd dedc 573e f3ed 203e
00000270: 5bca 26be 117b c1bd 5d5a b63d 7020 bcbd
00000280: a0a2 893c 5934 dfbd 1e88 3c3d 6422 273d
00000290: c72b e43d a6b0 4bbe 9775 453e d060 b43d
000002a0: bcb3 eabd f221 913d aedf 493d e4db 203d
000002b0: 75b3 4e3e 158c dd3d defe 913d 5a6c 4ebb
000002c0: f09d 12bd e2d9 263d 8764 42be 4b4e 3dbe
000002d0: 46c7 073e 8a9f 373e c7b0 383e 392d ebbd
000002e0: a2b6 3f3e 8057 a5bc f64e 92bd 5407 383e
000002f0: acb8 bbbc d3ae 46be 739f b93d a879 153e
00000300: d994 0abd f6bf c6bd 2aa5 c9bd 7de5 c43d
00000310: 8d5b fa3b f5a5 083e d675 0bbe acc1 5abe
00000320: d3a4 c8bd b056 60bc ab49 2e3d 08e8 31bd
00000330: f5d2 a1bd af9e d83d 03d5 0f3e 4390 083e
00000340: d4a6 fcbd 1c19 0f3d f3fd 25bd 062f 88bc
00000350: 3e3a 903d 6c58 093e 261a 54be 0d8b 4cbe
00000360: c5cf acbc 7a8e f1bd 4a75 f23d be69 2d3e
00000370: 5fd0 183e 6303 4e3e fa13 993d 6553 813c
00000380: 1f27 b13d eac9 4a3e 5e47 07bd 6ff4 43be
00000390: bf62 f03d bcac 823d 7e4b 8f3d 8aa4 d9bd
000003a0: 43d4 a7bd d01d bcbc 220d 2bbe 5f17 4b3e
000003b0: 0c6f 32be 045c 00be 1f19 5ebe 5314 c83c
000003c0: 13cc d13d 0192 5f3d ff95 113e c6ff b33d
000003d0: aafa 333e ea60 fdbd 3eaa 4abe 45aa 02be
000003e0: 5e83 053d 9b04 53be 9e59 f03d ef9c 4ebd
000003f0: 7a35 b5bd 61d9 cebc c6b3 393e 87a9 a93d

actor.fc1.bias f4 [128]
-0.1304835 -0.091917105 0.14126039 0.20250753 0.12861568 -0.021573547 0.100421205 -0.066833034
0.081256874 -0.21079263 0.013046253 -0.010873372 0.13269462 -0.0665733 0.03216519 0.1276236
0.19392945 -0.08590838 0.10266388 -0.012322604 0.12770009 -0.027712965 0.08197864 -8.62225e-05
-0.19623879 0.19720955 -0.019627744 0.07190517 -0.1389933 0.047886435 -0.17035584 0.21726643
-0.08588818 0.08927261 -0.024524275 0.12882029 -0.16579717 0.20398833 -0.071983986 0.15487936
-0.11827982 -0.051576633 0.16267005 0.15233901 0.19943276 -0.07036912 0.018877545 0.09483268
0.057905003 -0.077756286 0.21776038 0.17992465 0.13212572 0.18041538 -0.11671294 0.1395667
0.11155248 -0.17674398 0.084599786 0.019923091 0.17625579 0.18120697 0.08574122 0.091233
0.14992622 0.035705373 0.037092 0.059154045 0.20266244 -0.0017106796 0.056319207 0.19780129
0.0028161758 0.041871816 0.0037855157 0.10272125 0.075464584 0.18438086 0.20640169 -0.08251726
0.04214606 -0.15297419 0.021132467 0.15789632 0.14239822 0.21262527 0.036390986 -0.108548
-0.002715177 0.05493807 0.21394302 0.11507423 0.17855379 -0.11960177 -0.088798225 0.108635776
-0.0853462 -0.005116507 -0.06344303 0.012261567 0.008186528 0.096297614 -0.07053357 0.15005259
0.1979904 0.15037812 -0.1941947 -0.05114517 -0.024435181 0.18668753 -0.1735651 -0.08833656
0.07386765 0.18983461 -0.17790143 0.067311816 0.20034368 0.088005036 -0.19460239 -0.113884374
0.028812472 -0.12909046 0.12588243 -0.07395104 -0.1446189 0.198533 -0.048690327 -0.11080861
00000000: 779d 05be 093f bcbd 90a6 103e 225e 4f3e
00000010: d4b3 033e 02bb b0bc a2a9 cd3d c2df 88bd
00000020: 016a a63d 06da 57be f3bf 553c 3a26 32bc
00000030: 19e1 073e 9557 88bd a5bf 033d c3af 023e
00000040: 7195 463e bcf0 afbd 7141 d23d bfe4 49bc
00000050: d0c3 023e 4d06 e3bc 6be4 a73d 5ad2 b4b8
00000060: d2f2 48be 4df1 493e 5dca a0bc 0543 933d
00000070: 4254 0ebe 9124 443d c371 2ebe 177b 5e3e
00000080: 24e6 afbd 8fd4 b63d 22e7 c8bc 77e9 033e
00000090: bcc6 29be 51e2 503e 576c 93bd b298 1e3e
000000a0: b13c f2bd 0542 53bd fa92 263e c2fe 1b3e
000000b0: 1a38 4c3e af1d 90bd 15a5 9a3c a337 c23d
000000c0: cc2d 6d3d b03e 9fbd 94fc 5e3e 2b3e 383e
000000d0: f74b 073e cfbe 383e 3207 efbd 93ea 0e3e
000000e0: a075 e43d 60fc 34be a742 ad3d c035 a33c
000000f0: 667c 343e 528e 393e 1899 af3d 5ed8 ba3d
00000100: 4286 193e cc3f 123d c8ed 173d 834b 723d
00000110: be86 4f3e e238 e0ba f8ae 663d 6c8c 4a3e
00000120: 978f 383b c881 2b3d 6a16 783b 855f d23d
00000130: 2d8d 9a3d 56ce 3c3e f75a 533e cffe a8bd
00000140: 59a1 2c3d 44a5 1cbe ff1d ad3c 93af 213e
00000150: d7d0 113e 70ba 593e b70e 153d 6a4e debd
00000160: 1cf1 31bb be06 613d e113 5b3e 0aac eb3d
00000170: ced6 363e c6f1 f4bd d8db b5bd 6f7c de3d
00000180: fdc9 aebd 5fa8 a7bb 6bee 81bd bde4 483c
00000190: ca20 063c af37 c53d e873 90bd 63a7 193e
000001a0: ffbd 4a3e b9fc 193e fada 46be 997d 51bd
000001b0: 4a2c c8bc 042b 3f3e 0dbb 31be cce9 b4bd
000001c0: ec47 973d 0164 423e cb2b 36be c7da 893d
000001d0: e526 4d3e fc3b b43d d945 47be 363c e9bd
000001e0: 2208 ec3c 4a30 04be 53e7 003e a573 97bd
000001f0: fa16 14be 3c4c 4b3e 826f 47bd a0ef e2bd

actor.fc2.weight f4 [128, 128]
0.029931817 0.032050684 0.00025414908 0.0809823 0.06770445 -0.0388047 -0.086697154 0.018305039
-0.08724597 0.011668006 -0.030839594 0.04626739 0.084818386 -0.015680857 -0.048322786 -0.012463329
-0.019917024 0.021344937 0.08631194 -0.08682423 0.007748993 0.011782817 -0.038635436 -0.01733233
-0.08096912 -0.051639296 -0.040311325 0.0764731 0.06457561 0.019946516 -0.051339373 0.032920636
0.07062759 -0.003937731 -0.015999176 -0.07880509 -0.03747707 -0.0045781382 0.05915728 0.054183677
-0.053308673 -0.03120072 0.0075907926 0.031359684 -0.079402216 0.074164234 -0.030303119 -0.05381184
-0.0682524 -0.040068317 0.033722345 -0.041289914 0.0034910892 0.016832186 0.039188873 -0.07399146
-0.051443074 0.085109055 0.08821477 0.071062244 0.0029262537 -0.0004401942 0.054578774 -0.043544326
-0.03108254 -0.074562564 0.026926432 -0.07180128 0.0063399416 0.038175203 -0.07888978 -0.024601972
-0.0714742 0.042779814 0.07163544 0.027445119 0.03169262 0.009375022 -0.059397377 0.08007648
-0.06620858 0.05866201 -0.024893517 -0.078989714 -0.0058800816 0.08201183 0.07436536 -0.01320481
0.0047823125 -0.023943838 0.0020413597 0.0053595575 -0.015060955 -0.05224502 0.04528546 -0.04791382
-0.02059671 0.041235473 0.025715102 -0.08058035 0.07537602 -0.013193854 -0.0071495995 0.0396317
0.0094966935 0.060432993 -0.033756126 0.07123633 -0.010260587 0.013537252 0.0372199 -0.06962388
-0.044586826 -0.06255498 -0.061747763 0.040950336 -0.086039 0.024153337 0.07110373 -0.027466584
0.0752396 0.07409004 -0.024625795 0.0021256479 0.031543273 0.07500355 -0.050393112 0.07619548
-0.02047158 -0.05857567 -0.05448596 0.055918325 0.014036175 0.03225782 0.04559967 -0.039743584
0.0018305158 0.047110885 0.06693548 0.062254958 -0.0076983715 -0.024465844 0.054697577 -0.060810704
-0.07729016 -0.0005702684 0.056928445 0.024336126 -0.04381289 -0.08497484 -0.061246566 -0.0012463661
0.077061616 -0.013729991 0.07636115 0.06887339 0.024768459 0.056722313 -0.05375726 -0.014548793
0.00073450635 0.03608784 -0.064676285 -0.058768474 -0.063710034 -0.043308683 0.017663537 -0.01485619
-0.06680347 -0.049527843 -0.06472177 -0.08129978 0.078056976 0.051831774 0.04233651 -0.008676732
0.050373264 -0.054918732 -0.077084705 -0.08766546 0.075735986 0.08562836 0.08287346 -0.007529084
0.06482243 0.08288923 -0.02033857 0.043176416 0.04313937 0.029682769 0.06930585 0.038214333
0.03424399 0.0559602 -0.08715306 -0.002133291 -0.06397624 -0.07908369 0.005492126 0.07319618
-0.0585255 -0.010309364 -0.056246728 0.0066279303 -0.069839545 0.084933236 0.0070058657 -0.015673982
0.087928645 0.01150051 0.085584715 -0.0463782 0.0118108895 -0.03791221 0.07886713 0.0671621
-0.036980264 0.07659262 0.052325044 -0.0016854504 -0.046925146 -0.06453777 -0.07485728 0.07576948
0.08744467 0.026134064 -0.08364782 -0.009439461 0.02412157 0.060482915 0.055059664 -0.05314055
0.084566295 0.020199247 -0.034820132 -0.0022631935 0.07348076 -0.08076693 0.01394882 -0.07810601
0.012453403 -0.068115965 -0.04677664 -0.047322992 0.03649552 -0.0049467776 0.017311605 -0.057366796
-0.022418892 -0.0011169447 0.063454725 -0.02873801 -0.04404599 0.054839812 0.087605506 -0.05498298
00000000: 9233 f53c 9447 033d 503f 8539 0cda a53d
00000010: a1a8 8a3d adf1 1ebd 478e b1bd 73f4 953c
00000020: 04ae b2bd 2a2b 3f3c 51a3 fcbc e082 3d3d
00000030: 43b5 ad3d 2475 80bc 1dee 45bd fe32 4cbc
00000040: 0729 a3bc 94db ae3c 50c4 b03d e7d0 b1bd
00000050: 44eb fd3b b70c 413c 3140 1ebd 88fc 8dbc
00000060: 23d3 a5bd ba83 53bd 7d1d 25bd ee9d 9c3d
00000070: 3840 843d e066 a33c 3c49 52bd cad7 063d
00000080: 33a5 903d 1508 81bb b410 83bc 9064 a1bd
00000090: 8e81 19bd 3504 96bb e74e 723d b4ef 5d3d
000000a0: 325a 5abd a798 ffbc 2fbc f83b 0373 003d
000000b0: a19d a2bd 6be3 973d 3f3e f8bc ce69 5cbd
000000c0: eac7 8bbd ad1e 24bd 7120 0a3d 9d1f 29bd
000000d0: c2ca 643b a7e3 893c 8384 203d d688 97bd
000000e0: f9b5 52bd a84d ae3d f2a9 b43d 1589 913d
000000f0: 64c6 3f3b dec9 e6b9 fe8d 5f3d 895b 32bd
00000100: d0a0 febc 42b4 98bd d294 dc3c 8d0c 93bd
00000110: 49bf cf3b 9a5d 1c3d f790 a1bd 138a c9bc
00000120: 1161 92bd e339 2f3d 9ab5 923d 96d4 e03c
00000130: 1fd0 013d b199 193c aa4a 73bd 23ff a33d
00000140: 5d98 87bd 9347 703d 7ded cbbc 5cc5 a1bd
00000150: b3ad c0bb d1f5 a73d de4c 983d fd58 58bc
00000160: f2b4 9c3b de25 c4bc 55c8 053b 3a9f af3b
00000170: 39c2 76bc e0fe 55bd 3f7d 393d 4841 44bd
00000180: 6eba a8bc 87e6 283d 7aa8 d23c 4f07 a5bd
00000190: be5e 9a3d 092b 58bc 3047 eabb d954 223d
000001a0: 0598 1b3c 9688 773d dd43 0abd 5ae4 913d
000001b0: 051c 28bc 5acb 5d3c e573 183d f796 8ebd
000001c0: ada0 36bd d31c 80bd 39eb 7cbd 8abb 273d
000001d0: 3735 b0bd 38dd c53c d59e 913d 9a01 e1bc
000001e0: 3817 9a3d 85bc 973d 09bc c9bc 744e 0b3b
000001f0: 8533 013d 769b 993d 0269 4ebd 600c 9c3d
00000200: 04b4 a7bc 0bed 6fbd ac2c 5fbd 9d0a 653d
00000210: fcf7 653c c720 043d b8c6 3a3d 2bca 22bd
00000220: ebed ef3a 58f7 403d 7815 893d 0eff 7e3d
00000230: 9f42 fcbb 986c c8bc 910a 603d a514 79bd
00000240: 4e4a 9ebd 117e 15ba cd2d 693d 8e5c c73c
00000250: 2575 33bd 4a07 aebd aedd 7abd 1b5d a3ba
00000260: 7bd2 9d3d c2f3 60bc 3c63 9c3d 7e0d 8d3d
00000270: 39e7 ca3c a855 683d 9330 5cbd 105e 6ebc
00000280: e38b 403a d8d0 133d 0075 84bd 36b7 70bd
00000290: 687a 82bd 7264 31bd 1fb3 903c 6167 73bc
000002a0: 42d0 88bd b5dd 4abd d98c 84bd 8080 a6bd
000002b0: 56dc 9f3d 8e4d 543d 0c69 2d3d da28 0ebc
000002c0: 3254 4e3d 77f2 60bd 96de 9dbd f389 b3bd
000002d0: 781b 9b3d ec5d af3d 90b9 a93d 89b6 f6bb
000002e0: 9fc1 843d d4c1 a93d 139d a6bc c1d9 303d
000002f0: e8b2 303d 4729 f33c 3af0 8d3d a286 1c3d
00000300: 6d43 0c3d 8636 653d 4e7d b2bd afce 0bbb
00000310: fa05 83bd a1f6 a1bd 4bf7 b33b e1e7 953d
00000320: 6fb8 6fbd 9be8 28bc f862 66bd 1c2f d93b
00000330: 0908 8fbd 7af1 ad3d 7691 e53b b966 80bc
00000340: ef13 b43d a36c 3c3c 0a47 af3d 11f7 3dbd
00000350: 7682 413c d549 1bbd 1785 a13d 488c 893d
00000360: 9e78 17bd 97dc 9c3d c952 563d 55ea dcba
00000370: 9534 40bd 612c 84bd c64e 99bd 072d 9b3d
00000380: 3116 b33d 1b17 d63c 8c4f abbd f8a7 1abc
00000390: 999a c53c efbc 773d 3e86 613d e8a9 59bd
000003a0: 1831 ad3d e478 a53c 8e9f 0ebd 1652 14bb
000003b0: 157d 963d 2269 a5bd 9789 643c 0bf6 9fbd
000003c0: 5c09 4c3c 6280 8bbd dd98 3fbd c1d5 41bd
000003d0: 547c 153d 9418 a2bb 11d1 8d3c 72f9 6abd
000003e0: d3a7 b7bc 7266 92ba 8df4 813d fa6b ebbc
000003f0: 9169 34bd b69f 603d 846a b33d d535 61bd

actor.fc2.bias f4 [128]
0.023164883 0.036159113 -0.01686077 0.025304524 -0.066669054 -0.07321918 -0.058311116 0.05676035
0.03517022 0.02861284 -0.06277461 -0.058937985 -0.0877584 0.082545646 -0.033617828 0.064259656
-0.08010307 -0.058619726 0.051310338 -0.0825722 0.08411633 0.037032146 -0.01735235 -0.012427334
0.08373737 -0.03880381 0.08209581 0.061723348 -0.00955515 -0.006386853 -0.06898537 0.07020836
0.029408261 -0.014737314 -0.0024567407 0.04974318 -0.009673669 0.013672535 0.02451697 0.0137319835
0.013574131 0.051184222 0.07583597 0.07011228 -0.062275913 -0.036611356 -0.07230869 0.0037136057
0.05411677 0.00025204057 -0.008451583 0.04295054 -0.053477913 -0.046682566 0.01330074 0.0066664615
-0.07026042 0.08398386 0.06334852 0.080362596 0.006174102 0.088290766 0.0807538 0.020800442
0.064817235 0.015387119 -0.0825531 -0.061748706 -0.04131769 0.020298047 -0.011801274 -0.06257474
-0.023435758 -0.0012184663 0.048588157 0.07042302 0.086382 -0.06972934 -0.05146218 0.037845746
0.033268962 0.016863814 -0.0679017 0.006410994 -0.0190495 -0.042649116 -0.029081516 -0.05961894
-0.043045532 -0.06325234 -0.07259699 -0.013727473 -0.011887541 0.018555148 -0.053719174 0.050448176
0.019099858 0.04169876 -0.0829123 -0.024519578 0.0057196105 0.06583091 -0.043744985 -0.016772106
0.051829185 -0.03166627 -0.032447174 -0.0024001305 -0.049604848 0.035632465 -0.07324646 -0.046326634
0.004270831 0.06662645 -0.035651796 -0.004551073 -0.005162521 -0.042342205 -0.0867584 0.044377152
-0.08047146 0.019076535 -0.02120913 0.0573248 0.01653318 -0.055018418 0.030963259 -0.080713205
00000000: 48c4 bd3c 941b 143d 991f 8abc 6f4b cf3c
00000010: c989 88bd f0f3 95bd a3d7 6ebd 8a7d 683d
00000020: a60e 103d 7a65 ea3c fa8f 80bd f568 71bd
00000030: adba b3bd b10d a93d d9b2 09bd 919a 833d
00000040: 140d a4bd 3d1b 70bd ca2a 523d 9d1b a9bd
00000050: 2f45 ac3d 05af 173d 8426 8ebc 049c 4bbc
00000060: 807e ab3d bef0 1ebd d921 a83d 9fd1 7c3d
00000070: 348d 1cbc ce48 d1bb 3448 8dbd 67c9 8f3d
00000080: 98e9 f03c c674 71bc 4501 21bb 81bf 4b3d
00000090: 4f7e 1ebc c502 603c d0d7 c83c 1dfc 603c
000000a0: 0866 5e3c 8ca6 513d e44f 9b3d 0797 8f3d
000000b0: 0715 7fbd caf5 15bd 9416 94bd f75f 733b
000000c0: 8ca9 5d3d 5024 8439 8278 0abc e8ec 2f3d
000000d0: a80b 5bbd 3836 3fbd 59eb 593c 5572 da3b
000000e0: b2e4 8fbd bbff ab3d debc 813d 2595 a43d
000000f0: 1f50 ca3b cad1 b43d 4062 a53d b065 aa3c
00000100: e6be 843d 411a 7c3c 9a11 a9bd 36ec 7cbd
00000110: bd3c 29bd 1748 a63c 215a 41bc 2f27 80bd
00000120: 59fc bfbc f2b4 9fba 6004 473d f239 903d
00000130: 0ce9 b03d 42ce 8ebd 02ca 52bd 2404 1b3d
00000140: 0945 083d fb25 8a3c 0c10 8bbd 5113 d23b
00000150: b20d 9cbc d7b0 2ebd 5c3c eebc fd32 74bd
00000160: 8350 30bd 718a 81bd bbad 94bd 32e9 60bc
00000170: f6c3 42bc f700 983c a308 5cbd bfa2 4e3d
00000180: 4e77 9c3c 52cc 2a3d edcd a9bd 48dd c8bc
00000190: 926b bb3b 5bd2 863d f12d 33bd a865 89bc
000001a0: d74a 543d 7eb4 01bd 54e7 04bd 824b 1dbb
000001b0: 742e 4bbd 59f3 113d 3d02 96bd ffc0 3dbd
000001c0: 54f2 8b3b 7373 883d 9e07 12bd 2b21 95bb
000001d0: 5d2a a9bb 056f 2dbd 63ae b1bd d1c4 353d
000001e0: 39ce a4bd 6546 9c3c c5be adbc 69cd 6a3d
000001f0: 9770 873c fe5a 61bd a9a6 fd3c f74c a5bd

actor.policy_head.weight f4 [50, 128]
-0.002309871 -0.039316054 -0.052785747 0.08364405 -0.05032429 -0.07152823 0.06687368 0.028203389
-0.08630556 -0.08248403 0.0105560105 0.008193469 -0.04319116 -0.0055479896 0.08613433 -0.042638298
-0.079162054 0.045371037 -0.009939384 -0.03515267 -0.066511504 0.03682983 -0.05363338 0.045637142
0.04555005 -0.022673773 0.07479759 -0.017636286 -0.06694478 0.07587101 -0.017061764 -0.01193956
-0.079423465 0.074166216 -0.037954547 0.073851034 -0.069813065 0.03496567 -0.00028836515 0.045445267
-0.007651212 0.06621949 0.061193623 -0.049708076 -0.046061035 -0.066635154 0.039892755 0.0006042958
0.07932782 -0.009922051 -0.027849687 -0.077109754 0.041022245 -0.046791438 -0.040529612 0.011326031
0.022621643 -0.0110759735 0.014340426 0.07817403 0.016001467 0.013141937 -0.07064207 -0.03291932
8.171878e-05 0.08461025 -0.060344964 -0.03933105 -0.07127329 -0.021601511 -0.041147377 -0.046032842
-0.045156013 0.0023669102 0.033561874 0.053196166 -0.057433013 -0.05173066 0.070697516 -0.060925968
-0.005929364 -0.048055597 0.0651575 -0.08153569 0.034840193 0.031434014 -0.032785933 -0.006216123
-0.037392527 0.025482232 -0.073275924 0.06312269 -0.07565807 0.06360654 0.07024951 0.045924276
0.06838034 -0.019022018 0.044014778 0.020261312 0.008991346 0.027819037 -0.06437516 0.07078489
-0.021372972 0.080613874 -0.050294783 0.016163537 0.018362863 0.008571521 -0.0045993496 0.0035851356
-0.026627464 0.08679944 -0.044848837 -0.048449848 0.017526321 0.031897858 0.075736046 0.07941076
-0.0808509 0.017932827 0.065377355 0.055430338 -0.013849949 -0.04541785 -0.08694192 0.033222456
-0.0014291499 -0.062444516 -0.0685398 -0.022807116 -0.076897316 0.058414552 -0.043194465 -0.0587799
0.014962307 -0.0006840021 0.013442475 -0.051902153 -0.076850906 0.03454751 -0.03290445 -0.024599848
0.054124437 -0.006540082 -0.08059531 0.045682076 0.049098883 0.08269124 0.06276706 -0.070607774
-0.042753555 -0.038408693 0.038090955 -0.08307409 -0.04258191 0.009377335 0.0504836 -0.077885985
0.07218514 -0.042313512 0.0077102375 -0.04463368 -0.015783465 -0.013456526 -0.038784057 0.07280616
-0.04342931 -0.018168978 -0.033193942 0.0539299 0.036210425 0.07531499 -0.054841537 -0.07911913
0.031122249 -0.07613402 0.04250235 -0.051647 -0.016454186 0.08395222 -0.06450633 -0.026049849
0.00066602364 -0.013339918 0.081857696 0.019165508 -0.04758851 -0.076631114 -0.0367407 0.0005563256
-0.025802381 0.03053442 -0.054440167 0.024262592 0.026299061 0.016758325 0.07969651 -0.020072367
0.056682844 0.023264162 0.009756144 0.008203035 0.033915564 0.045250814 -0.07728067 0.04851392
0.039125673 -0.01876401 -0.08054035 0.076135494 0.022652194 -0.07161003 0.06302402 0.05822244
0.075684376 -0.02958193 -0.011453438 0.016625993 0.021478515 0.07321281 -0.08443134 -0.036741566
0.02931497 -0.066754684 0.05452732 0.055891853 -0.04902028 0.041126017 0.01607448 0.04440791
-0.043528657 0.023148835 0.038791787 -0.041426077 -0.015071697 0.022085793 0.03545876 -0.065890856
-0.029173383 0.02759589 0.039852276 -0.05312477 0.014031324 0.03662073 0.06534277 -0.036549468
0.081447855 -0.066211596 -0.06242324 0.07538619 -0.07323891 -0.0638475 0.015895827 0.016255751
00000000: 3461 17bb df09 21bd de35 58bd 924d ab3d
00000010: d820 4ebd 657d 92bd 11f5 883d cb0a e73c
00000020: f8c0 b0bd 63ed a8bd 1ef3 2c3c e63d 063c
00000030: 37e9 30bd e9cb b5bb 3267 b03d 7fa5 2ebd
00000040: b71f a2bd fbd6 393d ccd8 22bc 3ffc 0fbd
00000050: 2f37 88bd e0da 163d adae 5bbd 03ee 3a3d
00000060: b092 3a3d 59be b9bc 7b2f 993d f979 90bc
00000070: 581a 89bd 4362 9b3d 1dc5 8bbc 259e 43bc
00000080: c5a8 a2bd 75e4 973d 3a76 1bbd 363f 973d
00000090: 27fa 8ebd 2a38 0f3d b72f 97b9 d124 3a3d
000000a0: 05b7 fabb 159e 873d 2aa6 7a3d b29a 4bbd
000000b0: 7faa 3cbd 0378 88bd 9666 233d 9b69 1e3a
000000c0: a076 a23d 1990 22bc 0725 e4bc b8eb 9dbd
000000d0: f106 283d 61a8 3fbd 6102 26bd d190 393c
000000e0: 0651 b93c 0078 35bc 1bf4 6a3c b519 a03d
000000f0: 8215 833c 4751 573c caac 90bd 69d6 06bd
00000100: 7060 ab38 2448 ad3d 482c 77bd 9819 21bd
00000110: bbf7 91bd a7f5 b0bc 278a 28bd ef8c 3cbd
00000120: 83f5 38bd 2a1e 1b3b 2d78 093d 39e4 593d
00000130: e13e 6bbd 87e3 53bd dcc9 903d 828d 79bd
00000140: 1c4b c2bb f2d5 44bd 4c71 853d 2ffc a6bd
00000150: 97b4 0e3d f4c0 003d 8b4a 06bd 9eb0 cbbb
00000160: e828 19bd 1dc0 d03c b011 96bd 7846 813d
00000170: 9ef2 9abd 2544 823d fade 8f3d 181b 3c3d
00000180: fe0a 8c3d 10d4 9bbc d748 343d 0dfb a53c
00000190: 7050 133c c0e4 e33c 20d7 83bd abf7 903d
000001a0: 5f16 afbc e318 a53d e701 4ebd 6569 843c
000001b0: b76d 963c 916f 0c3c 24b6 96bb 98f4 6a3b
000001c0: d721 dabc e8c3 b13d 6ab3 37bd 5973 46bd
000001d0: 5c93 8f3c 54a7 023d 801b 9b3d 1ca2 a23d
000001e0: 2895 a5bd dde7 923c 90e4 853d ec0a 633d
000001f0: e6ea 62bc 1108 3abd 9b0e b2bd 4514 083d
00000200: 5052 bbba d2c5 7fbd 985e 8cbd fdd5 babc
00000210: 577c 9dbd 1944 6f3d aeec 30bd 31c3 70bd
00000220: 7724 753c 9b4e 33ba d43d 5c3c 5a97 54bd
00000230: 0264 9dbd b181 0d3d d1c6 06bd 9f85 c9bc
00000240: 96b1 5d3d 2f4e d6bb 270f a5bd 211d 3b3d
00000250: e91b 493d 065a a93d 048c 803d cf9a 90bd
00000260: 5a1e 2fbd 6f52 1dbd 4305 1c3d c022 aabd
00000270: 5e6a 2ebd 65a3 193c e4c7 4e3d b082 9fbd
00000280: cdd5 933d ef50 2dbd 29a6 fc3b ced1 36bd
00000290: 534c 81bc c378 5cbc 08dc 1ebd 651b 953d
000002a0: efe2 31bd 1cd7 94bc 5ff6 07bd 99e5 5c3d
000002b0: 6251 143d bf3e 9a3d 85a1 60bd 3609 a2bd
000002c0: 16f4 fe3c 27ec 9bbd f216 2e3d ce8b 53bd
000002d0: eeca 86bc 24ef ab3d e51b 84bd 7e66 d5bc
000002e0: 1798 2e3a ac8f 5abc 02a5 a73d fc00 9d3c
000002f0: 2bec 42bd c6f0 9cbd 6b7d 16bd 61d6 113a
00000300: 845f d3bc 5223 fa3c a7fc 5ebd 58c2 c63c
00000310: 2171 d73c c148 893c ed37 a33d ce6e a4bc
00000320: 452c 683d 7c94 be3c 3cd8 1f3c 0666 063c
00000330: 0ceb 0a3d eb58 393d 5445 9ebd 88b6 463d
00000340: 3e42 203d fbb6 99bc 57f2 a4bd edec 9b3d
00000350: 1891 b93c 48a8 92bd bd12 813d a77a 6e3d
00000360: 6900 9b3d ce55 f2bc 33a7 3bbc 3c33 883c
00000370: b6f3 af3c 99f0 953d 57ea acbd 537e 16bd
00000380: f325 f03c aeb6 88bd 0a58 5f3d dbee 643d
00000390: 7dc9 48bd c173 283d a1ae 833c 12e5 353d
000003a0: 1b4b 32bd a0a2 bd3c 23e4 1e3d 64ae 29bd
000003b0: 47ef 76bc 44ed b43c 343d 113d c9f1 86bd
000003c0: 05fd eebc c710 e23c 243c 233d 5c99 59bd
000003d0: a3e3 653c 9eff 153d 6ed2 853d e5b4 15bd
000003e0: 22ce a63d f299 87bd 83af 7fbd 1364 9a3d
000003f0: 48fe 95bd 7ac2 82bd f737 823c c82a 853c

actor.policy_head.bias f4 [50]
-0.0705172 0.04685737 0.03212886 0.07848137 0.0041925446 0.07034852 -0.068045124 -0.03616529
0.040368464 -0.037456293 -0.037679184 0.06474679 0.059119727 -0.0043278295 -0.017970828 0.054547682
0.04018328 0.02614416 -0.038811624 0.0021781428 -0.007301403 -0.04402242 -0.07863382 -0.02798882
-0.076812714 0.024078287 -0.06272974 0.05115884 0.06510439 -0.006437041 0.06138178 -0.08004364
0.049892727 0.01014434 -0.0794758 0.005644118 0.066812344 0.049220182 -0.048817314 0.024604188
-0.08280573 -0.06392131 -0.022677308 0.07325851 -0.01714088 0.038539715 -0.04683775 0.017766455
0.01690092 -0.033025064
00000000: 526b 90bd 83ed 3f3d 8d99 033d d7ba a03d
00000010: 9d61 893b e312 903d 3e5b 8bbd 0e22 14bd
00000020: 6759 253d c56b 19bd 7d55 1abd f799 843d
00000030: 8727 723d 77d0 8dbb 8f37 93bc 646d 5f3d
00000040: 3997 243d 472c d63c f0f8 1ebd 2cbf 0e3b
00000050: 9c40 efbb da50 34bd c50a a1bd cf48 e5bc
00000060: fc4f 9dbd d43f c53c 7378 80bd ef8b 513d
00000070: 7355 853d d0ed d2bb 766b 7b3d eced a3bd
00000080: 515c 4c3d 7234 263c 35c4 a2bd 4bf2 b83b
00000090: e9d4 883d 1a9b 493d aaf4 47bd b98e c93c
000000a0: 0d96 a9bd 2de9 82bd c3c5 b9bc 8f08 963d
000000b0: 086b 8cbc d2db 1d3d f1d8 3fbd f58a 913c
000000c0: cc73 8a3c 4a45 07bd

critic.fc1.weight f4 [128, 21]
-0.12344095 -0.01879701 -0.0850659 0.043938193 -0.09699293 0.0078119817 0.20844506 0.05860791
0.0018175531 -0.13360505 0.026127446 -0.11951724 -0.13873474 0.06124875 -0.16702147 0.054967552
0.14025894 -0.1330616 0.0652925 0.11637875 -0.19335514 0.20933194 -0.13503851 0.15217516
-0.081978075 -0.06672953 0.037745472 0.07495433 0.19810916 0.02792729 0.13793798 -0.11766263
0.080956206 0.16403584 0.1405503 0.13608597 -0.15488233 -0.1509797 -0.053121872 0.03783062
0.04883177 0.13044892 0.17325656 -0.046601128 0.10258097 0.04740112 0.14715227 0.19161652
0.1389737 0.083506815 -0.032870274 0.18658562 -0.18501645 -0.025252616 -0.20126243 -0.1062677
-0.21547842 -0.0076535647 0.031399235 -0.09001806 0.08005023 -0.2101327 0.07910985 0.17396258
0.21283913 -0.088307455 0.18971267 -0.200726 0.069019675 0.16063622 0.04148949 -0.002263534
-0.08715228 -0.121936694 -0.006791659 0.2053601 -0.013084537 0.06487394 0.19456014 -0.12780923
0.13228835 0.06304831 0.08387248 0.13254063 0.10993254 -0.14878766 0.13993381 -0.20809783
-0.0760989 0.14974806 0.10503536 0.015781542 -0.029738577 -0.18041334 0.14029035 -0.16469382
-0.07761906 -0.092495844 -0.061283987 0.15048377 -0.061567295 0.21120171 0.024714682 -0.036166552
-0.02117923 -0.018777382 0.028113721 -0.061854094 -0.21442899 -0.1320797 -0.087387115 -0.10883442
0.15354018 0.097486824 -0.18228965 0.0013610354 0.12356945 -0.07895547 0.10558565 0.08467292
-0.19123706 0.11797863 0.03901691 -0.09192984 0.08317813 -0.11232509 -0.084701866 0.15151703
0.20516923 0.12961169 -0.16856429 0.04085339 0.17473383 0.018544778 0.010137202 -0.17991339
0.025169743 -0.06101473 -0.06226438 0.002386447 -0.19066952 0.09150786 -0.20510496 -0.112328835
0.14653893 0.12098935 -0.21728987 -0.092584744 -0.18054335 0.07546379 -0.037924863 -0.13884813
0.19780038 -0.0475253 0.031556763 -0.117260225 -0.17376637 -0.13365407 -0.0011964492 0.1727441
-0.054563273 -0.16398102 0.14814985 -0.054758348 -0.13560528 -0.19232418 -0.0058176317 -0.12422773
-0.035642542 0.14839643 0.20185944 -0.00481273 0.18583079 0.2053157 0.19539672 0.14933223
0.09353041 0.06336515 0.1919903 -0.028772106 -0.062247958 0.115391254 -0.0048557823 -0.14603467
-0.21088839 0.21097861 -0.101515114 -0.024408866 -0.19056424 -0.14534453 -0.20722318 0.08516472
0.19331473 0.13905148 -0.15519299 -0.011243599 0.16514988 -0.0056633335 0.066371135 0.16136049
-0.14170894 -0.12508465 -0.21572754 0.13193679 -0.13363299 0.014222083 -0.20420831 0.21523385
0.02176506 -0.14181733 0.0373784 0.18339227 -0.21222419 0.06709403 -0.08322277 -0.15476416
0.028067227 -0.09837293 -0.03638061 -0.19444369 -0.12674221 0.16556339 -0.1368878 0.21109198
-0.037879173 -0.096854284 -0.09720101 -0.010004132 0.06352292 0.1120892 -0.15491347 0.06872008
0.07547565 0.14718847 0.2039464 -0.20485775 0.05903628 0.21726261 -0.1859084 -0.02656137
0.18042915 0.12188177 0.14870287 0.20926684 -0.13812965 0.18130386 -0.18739356 0.053477187
-0.05897659 -0.20752206 -0.09438647 0.2124381 0.0112585 -0.00017310723 -0.06169366 -0.15641229
00000000: 9cce fcbd 30fc 99bc 0837 aebd 89f8 333d
00000010: 3ba4 c6bd a7fb ff3b 9f72 553e d90e 703d
00000020: f63a ee3a c3cf 08be 3a09 d63c 74c5 f4bd
00000030: 7b10 0ebe f8df 7a3d ad07 2bbe a825 613d
00000040: 0aa0 0f3e 4d41 08be 13b8 853d fb57 ee3d
00000050: e4fe 45be 1d5b 563e 8947 0abe ced3 1b3e
00000060: 1fe4 a7bd 7ea9 88bd ff9a 1a3d a881 993d
00000070: 21dd 4a3e c6c7 e43c 9d3f 0d3e 1bf9 f0bd
00000080: 5ecc a53d 03f9 273e 6bec 0f3e 1f5a 0b3e
00000090: 7999 1ebe 6c9a 1abe 5296 59bd 48f4 1a3d
000000a0: d203 483d 6794 053e 2b6a 313e d3e0 3ebd
000000b0: f915 d23d ad27 423d 16af 163e 1f37 443e
000000c0: 1f4f 0e3e 9f05 ab3d fba2 06bd 4d10 3f3e
000000d0: f474 3dbe 93de cebc bd17 4ebe e1a2 d9bd
000000e0: 60a6 5cbe c1ca fabb 7c9c 003d 635b b8bd
000000f0: 60f1 a33d 072d 57be 5804 a23d 3f23 323e
00000100: 80f2 593e 8ada b4bd 0a44 423e 1e8b 4dbe
00000110: 305a 8d3d d27d 243e e2f0 293d cd57 14bb
00000120: e57c b2bd f2b9 f9bd 918c debb eb49 523e
00000130: 8760 56bc a1dc 843d c63a 473e 6ce0 02be
00000140: 9976 073e 791f 813d 56c5 ab3d bbb8 073e
00000150: 5024 e13d cb5b 18be cf4a 0f3e 9917 55be
00000160: bdd9 9bbd 8e57 193e c71c d73d 4b48 813c
00000170: 519e f3bc 46be 38be 46a8 0f3e 7fa5 28be
00000180: bef6 9ebd 766e bdbd eb04 7bbd 6b18 1a3e
00000190: fd2d 7cbd 4345 583e 7276 ca3c 6123 14bd
000001a0: 1180 adbc 06d3 99bc bf4e e63c b85a 7dbd
000001b0: 4693 5bbe e73f 07be 04f8 b2bd 95e4 debd
000001c0: a339 1d3e 2ca7 c73d 23aa 3abe c564 b23a
000001d0: fb11 fd3d 68b3 a1bd 4a3d d83d ff68 ad3d
000001e0: a6d3 43be c89e f13d 32d0 1f3d b645 bcbd
000001f0: 4c59 aa3d b20a e6bd 2c78 adbd 4827 1b3e
00000200: e217 523e edb8 043e 1e9c 2cbe e255 273d
00000210: 6ded 323e 38eb 973c 8216 263c 373b 38be
00000220: c730 ce3c 95ea 79bd ef08 7fbd f065 1c3b
00000230: df3e 43be 7968 bb3d 0907 52be a90c e6bd
00000240: 4d0e 163e 44c9 f73d 3c81 5ebe 129d bdbd
00000250: 5be0 38be c28c 9a3d 1a57 1bbd 342e 0ebe
00000260: 2f8c 4a3e e4a9 42bd aa41 013d 2126 f0bd
00000270: d0ef 31be 9ddc 08be 2cd2 9cba d4e3 303e
00000280: bd7d 5fbd a4ea 27be 98b4 173e 4a4a 60bd
00000290: 1cdc 0abe a1f0 44be d5a1 bebb 1c6b febd
000002a0: eafd 11bd 3cf5 173e 3eb4 4e3e 1bb4 9dbb
000002b0: 6d4a 3e3e 473e 523e 1416 483e 8cea 183e
000002c0: df8c bf3d 96c5 813d 1b99 443e 7bb3 ebbc
000002d0: b7f7 7ebd 4052 ec3d 411d 9fbb 1d8a 15be
000002e0: 20f3 57be c70a 583e 28e7 cfbd 1af5 c7bc
000002f0: 4623 43be 32d5 14be 5032 54be d76a ae3d
00000300: 4cf4 453e 8363 0e3e e9ea 1ebe 1237 38bc
00000310: 0d1d 293e 7c93 b9bb 97ed 873d af3b 253e
00000320: 261c 11be 3116 00be aee7 5cbe 701a 073e
00000330: 16d7 08be bd03 693c fc1b 51be 4366 5c3e
00000340: a44c b23c 9038 11be 181a 193d 2fcb 3b3e
00000350: 4c51 59be 9868 893d b370 aabd 7f7a 1ebe
00000360: 3eed e53c bf77 c9bd d603 15bd 3f1c 47be
00000370: b6c8 01be 7389 293e 512c 0cbe 7f28 583e
00000380: 3127 1bbd 8a5b c6bd 5311 c7bd 5fe8 23bc
00000390: 4e18 823d 068f e53d a3a1 1ebe 1dbd 8c3d
000003a0: fa92 9a3d 93b8 163e 53d7 503e 3bc6 51be
000003b0: 07d0 713d 177a 5e3e c65e 3ebe 3b97 d9bc
000003c0: 6bc2 383e 269d f93d 9145 183e 0c4a 563e
000003d0: dc71 0dbe b8a7 393e 19e4 3fbe e50a 5b3d
000003e0: 7091 71bd aa80 54be b24d c1bd 6089 593e
000003f0: 9275 383c 1e84 35b9 7eb2 7cbd 8b2a 20be

critic.fc1.bias f4 [128]
-0.15192027 0.0010676438 0.21552141 0.099520996 -0.012136755 -0.00124242 -0.15971953 0.17135346
-0.033802044 -0.06917502 -0.043432444 -0.0020503849 -0.20448332 0.010496171 0.18440767 0.08514235
0.13894233 0.015419437 0.008427631 0.0814447 -0.16345645 0.1845119 -0.11107276 -0.04858851
-0.11803664 0.017647805 -0.00082201534 -0.13562159 -0.021420352 -0.16962181 0.12227711 0.0035066265
-0.16497716 -0.18593422 0.06748046 -0.20633923 -0.04057539 0.10537316 -0.077047944 0.11622065
-0.105746485 -0.14348881 -0.16787556 0.13393764 0.15797849 -0.19734974 -0.0780764 -0.21171124
-0.047828257 -0.051694892 -0.15290867 0.07674252 0.022431077 -0.18122664 -0.12587419 0.113749295
-0.21395391 -0.16566987 -0.17874295 -0.118834354 0.14175369 0.082497336 -0.17440331 -0.21628065
-0.15967943 0.09593811 0.1081182 0.08082433 0.023831822 -0.0066617564 -0.19735608 0.20216006
0.06072665 0.16849765 -0.20693755 -0.100365505 0.058014017 -0.113723114 0.12127505 -0.059202816
0.09184267 0.12905084 0.041194875 -0.18082927 0.04356641 -0.10830016 -0.15651405 0.014606254
0.12823434 0.05050044 -0.1922008 0.13835886 -0.0014996518 -0.10328311 0.07676703 -0.1464404
0.04365232 0.15234779 -0.07751609 -0.008558581 -0.024706058 -0.086784825 0.15975173 -0.17888685
-0.07454442 -0.10897348 0.013206134 0.0814328 0.082498506 0.18265654 -0.18106925 -0.12660679
0.10956972 -0.21373193 0.0021712424 0.09927671 0.005270974 -0.09320448 0.19559965 -0.1066165
0.12870722 -0.10793893 -0.12547064 -0.161514 0.033923466 -0.054612346 0.2120885 -0.14208657
00000000: fd90 1bbe 2ef0 8b3a a5b1 5c3e aad1 cb3d
00000010: 3dd9 46bc b3d8 a2ba 848d 23be 4877 2f3e
00000020: 0374 0abd a2ab 8dbd 38e6 31bd c05f 06bb
00000030: 1364 51be 22f8 2b3c 5dd5 3c3e 1d5f ae3d
00000040: e646 0e3e cea1 7c3c 0c14 0a3c 7bcc a63d
00000050: 2161 27be b0f0 3c3e 1d7a e3bd bf04 47bd
00000060: 32bd f1bd 2192 903c 847c 57ba 63e0 0abe
00000070: bc79 afbc 57b1 2dbe 6c6c fa3d 6ecf 653b
00000080: c6ef 28be 8a65 3ebe 3233 8a3d 974a 53be
00000090: 6132 26bd e2cd d73d 50cb 9dbd 1805 ee3d
000000a0: 9d91 d8bd bbee 12be 92e7 2bbe f326 093e
000000b0: 1dc5 213e 0d16 4abe 85e6 9fbd d5ca 58be
000000c0: 90e7 43bd 06be 53bd 1794 1cbe 2f2b 9d3d
000000d0: 61c1 b73c 7a93 39be 2ae5 00be 64f5 e83d
000000e0: bc16 5bbe 5da5 29be 6408 37be 6d5f f3bd
000000f0: e127 113e 5df4 a83d c896 32be ad78 5dbe
00000100: 0183 23be 337b c43d 136d dd3d 3a87 a53d
00000110: f43a c33c dd4a dabb b617 4abe 0c03 4f3e
00000120: 82bc 783d a68a 2c3e 70e7 53be 6e8c cdbd
00000130: 1ba0 6d3d aae7 e8bd 0e5f f83d a77e 72bd
00000140: 0318 bc3d e725 043e f5bb 283d 4f2b 39be
00000150: b172 323d 79cc ddbd 3845 20be 124f 6f3c
00000160: dd4f 033e 8dd9 4e3d 49d0 44be f2ad 0d3e
00000170: f78f c4ba 1886 d3bd 0838 9d3d 79f4 15be
00000180: c6cc 323d 0f01 1c3e c1c0 9ebd 4a39 0cbc
00000190: 5c64 cabc 3ebc b1bd f595 233e 1d2e 37be
000001a0: bfaa 98bd 7d2d dfbd 8a5e 583c 3dc6 a63d
000001b0: faf4 a83d 510a 3b3e 386a 39be 36a5 01be
000001c0: 1766 e03d 8bdc 5abe 674b 0e3b 9651 cb3d
000001d0: 22b8 ac3b fee1 bebd 464b 483e c059 dabd
000001e0: d3cb 033e 160f ddbd 607b 00be ed63 25be
000001f0: 55f3 0a3d 32b1 5fbd ba2d 593e 247f 11be

critic.fc2.weight f4 [128, 128]
0.010666473 0.05742877 -0.02040677 0.05783726 -0.06548138 0.066928014 -0.070201375 0.008946333
-0.053478424 -0.03863158 -0.084300935 0.05403162 0.040737838 0.040634345 -0.06521379 0.05541827
-0.033609 0.05998392 0.059112594 0.056929756 -0.049352027 0.048206367 0.014191803 0.04544306
0.028617337 -0.062716745 0.0058334726 -0.062592134 -0.0026442774 0.029432384 -0.023342803 0.06717048
0.052775472 -0.015365567 -0.087765686 0.047215518 0.05018367 0.083943106 0.07389271 0.026362572
0.062139127 -0.021223363 0.07716517 0.0024650556 -0.0073697087 0.002692664 0.042090353 0.046098456
0.085916735 0.04417823 -0.025751978 -0.039730567 -0.07143348 -0.006494716 0.050856378 -0.067887835
-0.060589537 -0.051923834 -0.047190756 -0.015345393 -0.04271983 0.058688354 -0.081523426 -0.043000527
0.055093523 0.0668591 -0.049797274 -0.043901946 -0.016376875 -0.007433097 0.04183826 0.0507447
-0.019471964 0.054329716 0.08104214 -0.07978281 0.048749726 -0.029525222 -0.046656203 -0.051248144
0.051157936 0.07005526 -0.037209734 -0.05567958 -0.0678947 0.014893301 -0.07374772 0.0035399783
0.044191293 -0.030512631 -0.025434865 -0.029216776 -0.057243492 0.008586059 0.018099213 -0.0049982104
-0.07941498 -0.024062179 0.014154231 0.012864579 -0.04922977 0.013979977 -0.053256106 0.021917153
-0.060085338 0.020135684 -0.04193806 -0.024331424 0.0068411482 0.013701458 0.05616768 -0.05517067
-0.021250153 -0.0040469477 0.020812212 -0.045939684 -0.017161708 0.0025462613 0.058415752 -0.016368464
0.013930577 0.039606716 -0.070294626 -0.079238236 0.014940504 0.003690063 -0.058622934 0.06332236
-0.04551268 -0.052557465 -0.011439636 0.010180783 -0.038738552 -0.0023818193 -0.03304079 0.071732454
0.010005749 -0.0002710764 0.04335285 0.029345246 0.018129775 0.046142247 -0.082100384 0.024938237
-0.007484693 -0.046761274 -0.020921277 0.034577444 0.014681429 0.05992545 -0.07750683 0.06609916
0.06649853 0.008927438 -0.054597482 -0.046249177 0.047689244 0.05643293 0.07693795 0.004744295
-0.0738672 -0.035366293 -0.03598705 -0.01439449 0.04366021 0.006539612 -0.046346303 -0.03465442
-0.016108925 -0.069381475 0.046170007 -0.017367892 -0.05696189 -0.027658332 0.08586935 0.08622159
0.070819885 -0.03127842 -0.0064240214 0.00084529293 -0.064676695 0.047064506 0.005398381 0.008903188
-0.036131144 -0.06860446 0.043881312 0.021781446 0.02468398 0.054728046 -0.044174135 -0.0057943854
0.035814717 -0.022206146 -0.045598388 -0.08319489 -0.07080917 0.07541881 -0.07985672 0.041853055
-0.02032595 0.08390171 -0.00905298 -0.06705924 -0.04772234 -0.030059054 -0.045173723 0.0044343816
0.051381424 0.011831376 -0.005939924 0.083252236 0.04386273 0.063746706 -0.020237539 -0.083712675
0.048538823 -0.038763657 -0.005838252 0.05053294 -0.02542151 -0.061324414 -0.013988004 0.055937186
0.07552213 -0.03369141 -0.023933448 0.052424353 -0.036581762 0.05484492 -0.027776334 -0.047325157
0.028042119 0.00038372658 -0.0019407152 -0.018784327 0.08545487 0.04989992 -0.023484437 0.03537141
0.038228527 0.034891207 0.055076495 -0.070675746 0.07178187 0.0033429996 -0.06682359 -0.03160333
0.038753305 -0.07763085 -0.020547487 0.04271351 0.03735507 0.0044846586 0.06142552 -0.038650215
00000000: 6ec2 2e3c 6e3a 6b3d 192c a7bc c3e6 6c3d
00000010: 1a1b 86bd 8e11 893d bdc5 8fbd a493 123c
00000020: 310c 5bbd 263c 1ebd f8a5 acbd 4350 5d3d
00000030: b8dc 263d 3370 263d cf8e 85bd 45fe 623d
00000040: 97a9 09bd b3b1 753d 0c20 723d 2d2f 693d
00000050: 5a25 4abd 0a74 453d bc84 683c 8122 3a3d
00000060: e86e ea3c a371 80bd b726 bf3b 4e30 80bd
00000070: 9d4b 2dbb 2f1c f13c 6839 bfbc ad90 893d
00000080: 182b 583d dcbf 7bbc 7fbe b3bd 0f65 413d
00000090: 648d 4d3d 5dea ab3d 1055 973d 52f6 d73c
000000a0: 9985 7e3d 9edc adbc c608 9e3d c58c 213b
000000b0: 997d f1bb 6877 303b ef66 2c3d bcd1 3c3d
000000c0: 1df5 af3d 3bf4 343d d0f5 d2bc 85bc 22bd
000000d0: b74b 92bd a0d1 d4bb c74e 503d c708 8bbd
000000e0: bc2c 78bd 16ae 54bd 184b 41bd 3e6b 7bbc
000000f0: fdfa 2ebd 3363 703d c1f5 a6bd 5221 30bd
00000100: bfa9 613d 6ced 883d 3af8 4bbd 87d2 33bd
00000110: cc28 86bc 5691 f3bb 985e 2b3d add9 4f3d
00000120: ab83 9fbc d688 5e3d 6cf9 a53d 2b65 a3bd
00000130: cbad 473d e1de f1bc 931a 3fbd 93e9 51bd
00000140: fc8a 513d 2279 8f3d 3c69 18bd 4510 64bd
00000150: 600c 8bbd 0803 743c 0b09 97bd fbfe 673b
00000160: ee01 353d a0f5 f9bc c75c d0bc 0558 efbc
00000170: 2778 6abd 8bac 0c3c cd44 943c 07c8 a3bb
00000180: 52a4 a2bd 0c1e c5bc 26e7 673c f5c5 523c
00000190: 28a5 49bd 460c 653c 1323 5abd 9a8b b33c
000001a0: 0b1c 76bd 97f3 a43c 3ec7 2bbd b252 c7bc
000001b0: b62b e03b 157c 603c 1510 663d a4fa 61bd
000001c0: cd14 aebc 429c 84bb 5f7e aa3c 402b 3cbd
000001d0: b696 8cbc 2ddf 263b 5b45 6f3d 2817 86bc
000001e0: 133d 643c a73a 223d a1f6 8fbd a847 a2bd
000001f0: 04c9 743c fcd4 713b 9a1e 70bd 27af 813d
00000200: 816b 3abd 7f46 57bd 506d 3bbc 4dcd 263c
00000210: 51ac 1ebd 4c18 1cbb c855 07bd 77e8 923d
00000220: 27ef 233c 421f 8eb9 c292 313d 7165 f03c
00000230: e584 943c a7ff 3c3d 3f24 a8bd 464b cc3c
00000240: 2842 f5bb c088 3fbd 1963 abbc 14a1 0d3d
00000250: 608a 703c 6374 753d e7bb 9ebd ff5e 873d
00000260: 6230 883d 6444 123c 9ca1 5fbd c76f 3dbd
00000270: cc55 433d 3726 673d a591 9d3d 0876 9b3b
00000280: b047 97bd 3fdc 10bd 2867 13bd ded6 6bbc
00000290: 0cd5 323d 3e4a d63b 9fd5 3dbd cbf1 0dbd
000002a0: ddf6 83bc e017 8ebd c31c 3d3d 1c47 8ebc
000002b0: df50 69bd ba93 e2bc 45dc af3d f294 b03d
000002c0: 040a 913d cd1d 00bd 9980 d2bb a696 5d3a
000002d0: 3775 84bd b6c6 403d e7e4 b03b adde 113c
000002e0: 40fe 13bd 7f80 8cbd e4bc 333d 016f b23c
000002f0: 0f36 ca3c 842a 603d f0ef 34bd d4de bdbb
00000300: 74b2 123d aae9 b5bc 60c5 3abd 1562 aabd
00000310: 6604 91bd 2d75 9a3d ec8b a3bd 1c6e 2b3d
00000320: 9b82 a6bc a9d4 ab3d f352 14bc 5b56 89bd
00000330: 8078 43bd 683e f6bc 1508 39bd 4a4e 913b
00000340: 5475 523d 63d8 413c b2a3 c2bb 2680 aa3d
00000350: 68a9 333d a28d 823d 32c9 a5bc 8d71 abbd
00000360: a5d0 463d a4c6 1ebd cf4e bfbb a1fb 4e3d
00000370: c540 d0bc 4f2f 7bbd f12d 65bc 641e 653d
00000380: 59ab 9a3d 0100 0abd 1410 c4bc ebba 563d
00000390: c2d6 15bd 11a5 603d 328b e3bc 06d8 41bd
000003a0: 96b8 e53c e92e c939 995f feba 97e1 99bc
000003b0: f602 af3d dc63 4c3d 6f62 c0bc 9de1 103d
000003c0: 8495 1c3d 15ea 0e3d e497 613d 72be 90bd
000003d0: 6002 933d 3a16 5b3b ceda 88bd 7e72 01bd
000003e0: c9bb 1e3d ecfc 9ebd 3453 a8bc 5df4 2e3d
000003f0: a101 193d 0bf4 923b 5399 7b3d b04f 1ebd

critic.fc2.bias f4 [128]
-0.017611675 0.045636307 0.084563546 -0.02222539 -0.022849968 0.0078857 0.03138909 -0.08566049
0.035471696 -0.07613722 0.04742465 -0.049611833 0.070599504 0.03906312 0.059352413 -0.030471705
-0.08594944 0.0067533464 0.06873127 0.009542834 0.05549405 0.030569201 -0.020012988 -0.088749856
-0.08152506 -0.00438559 -0.050003424 0.040686827 0.02022321 -0.003058629 -0.008347133 -0.0025497663
-0.0368658 0.04827784 -0.00023409436 0.056390632 0.04314973 -0.01611375 -0.0046124044 0.05813026
0.07123929 0.03586274 -0.04981437 0.065002665 0.023147026 -0.0147676505 0.038716562 0.060136635
-0.016662575 -0.026551114 -0.064399794 -0.027451046 0.07249081 0.07777937 0.05002216 0.0761474
-0.013761475 -0.040979616 0.01134507 0.07321924 0.013058138 -0.08638743 -0.084868155 0.06943537
-0.017523374 0.053457335 0.052040588 0.060172997 -0.06330029 -0.07477998 0.038472477 0.009595968
0.025023522 -0.024484616 0.018124443 -0.060413733 0.08403165 -0.0392667 0.08797531 -0.053069618
-0.071341544 0.00051122846 0.03722129 -0.052725513 0.037573714 0.0042844056 -0.07405577 -0.06143726
-0.056598585 -0.069945686 -0.069830626 -0.012363387 -0.045023594 0.054876 -0.026055895 -0.03806457
-0.087292455 -0.056305744 0.015686933 0.006597547 -0.023578886 0.08254923 -0.016313907 0.08467167
-0.029663695 0.049800135 -0.06358466 -0.07642807 -0.025797697 -0.06077713 0.020178769 -0.0344722
-0.08526726 0.048726123 0.037799787 -0.008148365 0.055559542 -0.0734485 -0.07003915 0.04609149
-0.020874953 0.008532551 -0.04731832 0.00035701593 -0.041017894 0.0706168 0.024971541 0.02228788
00000000: 5c46 90bc 23ed 3a3d a72f ad3d 0512 b6bc
00000010: db2f bbbc 0633 013c d991 003d c46e afbd
00000020: c54a 113d d5ed 9bbd 5a40 423d c735 4bbd
00000030: 7996 903d a600 203d 841b 733d cc9f f9bc
00000040: 4306 b0bd 2d4b dd3b fbc2 8c3d 8c59 1c3c
00000050: bb4d 633d 436c fa3c 47f2 a3bc 7cc2 b5bd
00000060: 9cf6 a6bd ffb4 8fbb 64d0 4cbd 3ba7 263d
00000070: 25ab a53c 4873 48bb 6ac2 08bc fb19 27bb
00000080: 9800 17bd fcbe 453d 3a77 75b9 ddf9 663d
00000090: c5bd 303d fc00 84bc a723 97bb ff19 6e3d
000000a0: e8e5 913d cfe4 123d 270a 4cbd 1e20 853d
000000b0: d59e bd3c 04f4 71bc 4295 1e3d d551 763d
000000c0: f47f 88bc b981 d9bc 0ae4 83bd 04e1 e0bc
000000d0: 1076 943d ca4a 9f3d 09e4 4c3d 2bf3 9b3d
000000e0: cf77 61bc 3eda 27bd ace0 393c f8f3 953d
000000f0: cdf1 553c e5eb b0bd 5bcf adbd 2234 8e3d
00000100: 2e8d 8fbc 14f6 5a3d 8328 553d f677 763d
00000110: 95a3 81bd 3f26 99bd 5195 1d3d 6838 1d3c
00000120: 21fe cc3c f693 c8bc b679 943c 6474 77bd
00000130: c918 ac3d 1fd6 20bd 662c b43d 875f 59bd
00000140: 841b 92bd f603 063a 5a75 183d b5f6 57bd
00000150: e5e6 193d 3364 8c3b 8daa 97bd a3a5 7bbd
00000160: ebd3 67bd af3f 8fbd 5c03 8fbd ce8f 4abc
00000170: a96a 38bd a8c5 603d 2c73 d5bc 98e9 1bbd
00000180: 63c6 b2bd daa0 66bd e281 803c 3c30 d83b
00000190: 8228 c1bc 920f a93d bea4 85bc 5768 ad3d
000001a0: 4701 f3bc 3afb 4b3d ad38 82bd 5286 9cbd
000001b0: b155 d3bc 71f1 78bd f24d a53c b932 0dbd
000001c0: 9aa0 aebd 0b95 473d f3d3 1a3d b880 05bc
000001d0: 6792 633d 2b6c 96bd b070 8fbd 6eca 3c3d
000001e0: f301 abbc 1dcc 0b3c dbd0 41bd de2d bb39
000001f0: 6102 28bd 8a9f 903d 1e91 cc3c 1295 b63c

critic.value_head.weight f4 [1, 128]
-0.028320815 -0.05168417 -0.011645192 0.08517172 -0.086632065 0.047792245 0.057408247 -0.012608972
-0.03815696 0.011617526 0.05024316 0.070713766 -0.06267557 -0.032925177 0.063624665 0.041511912
0.061058935 0.05035159 -0.06328764 -0.073594004 0.07439498 0.08717857 -0.066328436 0.026817558
-0.0072825234 -0.019998513 0.07532095 0.05632138 -0.06308588 -0.061819963 -0.019721515 0.008166
0.06052265 0.05933501 -0.049146164 0.017935978 -0.037013125 -0.08202982 0.078494966 0.019502707
-0.06903612 0.085317165 -0.043351952 -0.015296331 -0.035268206 0.074615344 -0.016576355 -0.011880736
0.008219056 0.08339825 -0.06087609 0.07232253 0.07315807 0.052533526 -0.03937238 0.08265027
0.0009557186 -0.07420474 0.017492497 -0.049010668 -0.08679692 0.0109196305 0.0721501 0.026761923
0.03818391 0.06714287 -0.0766813 -0.08635074 0.027183829 0.0685154 0.07838824 -0.06015481
0.08181456 0.052491553 0.079641365 0.027763251 -0.020713923 0.009649566 -0.0022786858 0.08486845
-0.039515536 -0.006446143 -0.0011989473 0.04446514 -0.041154485 0.003659779 -0.0622127 -0.050848015
0.04170099 0.030690247 0.07996456 -0.069808334 -0.07089305 -0.081813164 -0.017480548 -0.017977018
-0.031061346 -0.03995671 0.0360564 -0.029061925 -0.02830858 -0.023326743 0.042403795 -0.027628208
0.04981656 0.008688032 0.007809272 -0.008087045 -0.08769782 0.07611389 -0.028742189 0.0862437
-0.08493613 0.018415047 -0.08031043 0.008480095 -0.014554158 -0.010382494 -0.051391687 0.01825699
0.054641005 -0.08137917 -0.06900931 -0.063113466 0.086720236 0.021080164 0.020957427 0.02422956
00000000: 0e01 e8bc c8b2 53bd 7acb 3ebc 836e ae3d
00000010: 276c b1bd cdc1 433d e924 6b3d dd95 4ebc
00000020: 794a 1cbd 7057 3e3c c6cb 4d3d 61d2 903d
00000030: 0d5c 80bd 8ddc 06bd a64d 823d 6508 2a3d
00000040: ef18 7a3d 783d 4e3d f39c 81bd 74b8 96bd
00000050: 655c 983d ae8a b23d 34d7 87bd 7fb0 db3c
00000060: 3ca2 eebb ecd3 a3bc df41 9a3d 3fb1 663d
00000070: 2b33 81bd ee36 7dbd 048f a1bc b0ca 053c
00000080: 99e6 773d 4409 733d 7d4d 49bd 79ee 923c
00000090: 139b 17bd 40ff a7bd f8c1 a03d 24c4 9f3c
000000a0: cf62 8dbd c4ba ae3d d191 31bd 769d 7abc
000000b0: 6575 10bd eecf 983d 23cb 87bc 6ba7 42bc
000000c0: 38a9 063c b4cc aa3d 3559 79bd d61d 943d
000000d0: e6d3 953d 652d 573d ef44 21bd 8b44 a93d
000000e0: 3189 7a3a a8f8 97bd 6d4c 8f3c 69bf 48bd
000000f0: 95c2 b1bd 40e8 323c 6ec3 933d d23b db3c
00000100: bb66 1c3d 3382 893d 160b 9dbd a8d8 b0bd
00000110: 9fb0 de3c cd51 8c3d 038a a03d e464 76bd
00000120: 648e a73d 6201 573d 031b a33d c26f e33c
00000130: 3fb0 a9bc 3719 1e3c 0156 15bb 83cf ad3d
00000140: 0bdb 21bd 2b3a d3bb ff25 9dba 1421 363d
00000150: 9b91 28bd e7d8 6f3b bed2 7ebd 0246 50bd
00000160: a8ce 2a3d 1d6a fb3c 76c4 a33d acf7 8ebd
00000170: 6030 91bd a98d a7bd 5e33 8fbc 8a44 93bc
00000180: 5d74 febc a6a9 23bd e0af 133d 4613 eebc
00000190: 65e7 e7bc ba17 bfbc 9aaf 2d3d 8d54 e2bc
000001a0: 730c 4c3d 3f58 0e3c ece4 ff3b 867f 04bc
000001b0: ea9a b3bd 99e1 9b3d bd74 ebbc 89a0 b03d
000001c0: fef2 adbd 27db 963c cb79 a4bd 19f0 0a3c
000001d0: 9074 6ebc 561b 2abc 1780 52bd af8f 953c
000001e0: 3fcf 5f3d 1faa a6bd c154 8dbd a241 81bd
000001f0: 619a b13d 4fb0 ac3c e9ae ab3c 127d c63c
