server/policies/policy_0/model.pt (torch, 288402 bytes, 11 tensors)

actor.fc1.weight f4 [256, 8]
000000 bd 15 e5 3e ba 1b 3d be 81 37 dc 3d 0f 03 ac 3e
       0.44743147 -0.18467608 0.10752774 0.33596084
000010 33 f8 1f 3e d8 b3 cf 3d 8b e2 44 3e 9f 6c a3 be
       0.15622024 0.10141724 0.19227044 -0.3191881
000020 b8 cd ed bb 84 0c d7 be 7e 45 74 be c9 56 26 3d
       -0.0072571896 -0.42001736 -0.23854634 0.04061011
000030 42 e2 54 3e 04 fd be be 48 f8 e3 3e a7 45 9f be
       0.20789436 -0.3730241 0.4452536 -0.31107828
000040 f3 3d 78 3e 7b 77 da 3e f8 4a d3 bd ac 4e bb 3e
       0.24242382 0.4266928 -0.103170335 0.3658346
000050 ca cc 5d bd 14 97 b3 3e 08 38 6b 3e 60 c3 82 3e
       -0.05415038 0.350762 0.22970593 0.25539684
000060 2e 48 e4 3e 25 0a 46 be 13 cd 11 be 13 7d b5 3d
       0.4458632 -0.19339807 -0.14238386 0.08861747
000070 00 18 8e bd f8 f5 f3 be e8 8f 72 3e d7 01 bf be
       -0.069381714 -0.47648597 0.23687708 -0.3730609
000080 61 58 7e be fd 63 e7 3d e3 99 83 3e 38 81 ed 3e
       -0.24838401 0.11298368 0.25703344 0.4638765
000090 2b 65 ee 3e 27 80 d0 3e db c3 55 3e 9d 7d b6 3e
       0.4656156 0.40722772 0.20875494 0.3564271
0000a0 1e ad 9c 3e 1d 29 0b 3f 7b 40 d2 3d 23 36 8c 3e
       0.30600828 0.5435961 0.10266205 0.27385053
0000b0 21 ca 52 3e d8 89 b0 3e f5 06 d6 bc 38 a5 c2 3e
       0.20584919 0.34480166 -0.026126364 0.38016677
0000c0 e5 08 90 be 1f eb 18 bd 9d 35 10 3e f4 ed ca 3e
       -0.28131786 -0.037333604 0.14082952 0.3963467
0000d0 96 f4 90 be 87 81 08 be d8 f9 f5 be 1e 46 d4 3e
       -0.28311604 -0.13330661 -0.48042178 0.41459745
0000e0 b9 67 24 bd e7 3c e0 be 16 cc eb be 02 b2 c1 be
       -0.04013798 -0.43796465 -0.46054143 -0.37831122
0000f0 2e 6e b5 3c 80 c1 7f be fa a7 b7 be 1f fa 08 3d
       0.022147264 -0.24976158 -0.35870343 0.03344166
000100 9b 12 da 3e 1e 60 ae be b9 82 1a 3e 08 1a 05 bf
       0.4259232 -0.34057707 0.15088929 -0.51992846
000110 98 c0 85 3e 80 7f 39 be db 84 9c 3e 3b 37 19 be
       0.261235 -0.18115044 0.3057011 -0.14962475
000120 dd 93 02 3f 37 99 96 be b3 40 49 3e 56 44 e0 bb
       0.5100687 -0.2941377 0.19653587 -0.006844084
000130 a8 0c f0 3e f6 01 ec be 55 7b f4 3e ee 31 37 be
       0.46884656 -0.46095246 0.47750345 -0.1789014
000140 ed 66 96 3d a5 00 91 3e 23 ed f8 be 9d cd 88 3e
       0.0734385 0.28320804 -0.4861842 0.2671937
000150 b7 88 33 bd 6b f2 fe 3e fa 33 8c be f6 10 fb 3d
       -0.043831553 0.49794325 -0.27383405 0.122590944
000160 87 66 ca bd 46 50 bb 3e 4f 0d d0 be e6 87 a0 3e
       -0.09882837 0.3658468 -0.40635154 0.31353682
000170 1a 73 c1 be 37 bf e1 3e 66 a4 3d 3d b5 eb be 3e
       -0.37783128 0.44091198 0.04629936 0.37289205
000180 41 07 e0 bc 73 af bc 3e 87 6a c6 3e 77 fa f5 3e
       -0.027347209 0.36852607 0.3875315 0.48042652
000190 68 26 5f 3e d9 7f ed bd ff 47 8c bd b3 14 b9 be
       0.21791995 -0.11596651 -0.0684967 -0.36148605
0001a0 2e 24 84 3c e3 b4 e1 3d ab 40 8d be e1 12 99 3e
       0.016130533 0.110208295 -0.275884 0.29897216
0001b0 ef a1 84 3e e9 5f 96 3e c5 94 e5 3e 33 89 6f 3e
       0.25904796 0.2937005 0.44840065 0.23392181
0001c0 99 18 89 3d b5 56 17 3e c5 6b ea be 54 ab e8 3e
       0.06694145 0.1477917 -0.45785347 0.45443213
0001d0 30 c4 e4 be 65 fa e8 bd bb 5b 98 be 13 91 3f 3e
       -0.4468093 -0.11375884 -0.29757485 0.18707685
0001e0 89 96 80 bc 76 a0 ab 3e 7f 6b d1 bd d9 98 9f be
       -0.01569678 0.3352086 -0.102255814 -0.311713
0001f0 83 02 c3 be e8 f3 9d be ae 7c 01 3d da ac eb 3e
       -0.38087854 -0.30850148 0.031613044 0.46030313
000200 d8 41 17 3e 1d 0e d5 3d 57 cd eb 3e ee f8 a2 3e
       0.14771211 0.104030825 0.460551 0.31830543
000210 dd 71 5d 3e cf d2 f1 3e e8 4f 0e bd da 39 36 bd
       0.21625467 0.47231147 -0.034744173 -0.044488765
000220 dc a5 86 b9 32 6d 9a be ec 03 7d 3e d3 da 33 be
       -0.00025682047 -0.30161434 0.24708527 -0.17563944
000230 89 f0 67 be 00 7a c0 bd 44 72 bd 3e 08 e6 f2 be
       -0.2265035 -0.0939827 0.3700124 -0.47441125
000240 ba 10 85 3d fb 3b d6 3e 99 ff 83 be 4d 6d 07 3f
       0.06497331 0.41842636 -0.25780943 0.52901155
000250 b9 7a c4 be e5 30 2d 3c 13 a0 46 3d a3 ad b0 3e
       -0.3837488 0.010570739 0.048492502 0.34507474
000260 cf a7 4c be f3 83 86 3e 10 40 e2 be 48 f0 ec 3e
       -0.19985889 0.26272544 -0.441895 0.4627707
000270 0a 23 0c 3e f2 3e 9c 3e 39 34 1d be 32 53 9a be
       0.13685241 0.30516773 -0.15351953 -0.30141598
000280 ed 76 e6 3e ac 69 d3 bd e0 4a fc 3e f0 80 68 be
       0.45012608 -0.1032289 0.49275875 -0.22705436
000290 2d 04 04 3f 30 33 bc be cf b5 49 3e 86 6d 94 3d
       0.5156887 -0.36757803 0.1969826 0.072474524
0002a0 6b 1f e3 3e ba 98 63 3e ea 24 76 3e aa e8 ba be
       0.44359908 0.2222623 0.24037519 -0.36505634
0002b0 c6 a4 0b 3f 9a e8 39 be f9 1a 95 3e 59 14 24 3e
       0.545483 -0.18155137 0.2912214 0.16023387
0002c0 c8 62 b7 3e e5 54 6a 3e 2d 72 0a 3f c5 d4 91 bc
       0.35817552 0.22883947 0.5408047 -0.017801652
0002d0 16 30 df 3e d6 b6 6d 3e b9 06 03 3f 5d 43 cf 3e
       0.43591374 0.23214278 0.5118213 0.40481082
0002e0 a0 34 d8 bd 76 02 9b be f7 80 05 be ce b6 a3 be
       -0.105569124 -0.30275315 -0.13037477 -0.31975406
0002f0 9f a6 b5 3e 25 2e ca be c7 57 77 be ee 2a 0c bf
       0.35478684 -0.3948833 -0.24154578 -0.54753006
000300 e5 83 f5 3e 14 2d b3 be 4d e7 7c 3d e0 1e 86 3d
       0.4795219 -0.3499533 0.061744023 0.06548858
000310 ce 06 80 be 81 08 41 bd 9b 4a 41 3d 40 ae 7e be
       -0.25005192 -0.04712725 0.04719029 -0.24871159
000320 13 10 70 3a 5a c4 eb be fb 69 92 be d2 33 3d be
       0.00091576687 -0.46048242 -0.28596482 -0.18476799
000330 58 da 75 3e 6a 94 20 be a6 c4 86 be 31 35 9d be
       0.24009073 -0.15681615 -0.26321906 -0.30704644
000340 fb 16 4e bd c8 48 97 3e 4c 86 7d 3e 57 22 0c 3f
       -0.050314885 0.29547715 0.24758261 0.547399
000350 e9 cf fe 3d ed a7 4d 3e ba 87 db 3e ca 80 2e be
       0.124419995 0.2008359 0.4287699 -0.17041317
000360 04 8c 04 3f 69 1b ca 3d 36 10 d8 3e 3f 19 e1 3e
       0.51776147 0.09868509 0.42199868 0.43964574
000370 b8 5b b6 3e bd b1 2d 3e 8d 5b 2f 3e 76 89 c2 3d
       0.3561685 0.16962333 0.17124768 0.09498875
000380 28 97 9b 3d a2 35 95 be 3e bf b6 bd ad 26 2e be
       0.0759719 -0.2914248 -0.08923195 -0.17006941
000390 2b d0 02 3e cb 45 09 bf d5 bc d4 3e ae 02 70 be
       0.12774722 -0.5362212 0.41550317 -0.23438522
0003a0 94 0e 77 be 92 d6 f7 3d 4d b2 0e 3e 07 bb c7 3e
       -0.24126655 0.12101473 0.13935204 0.39009878
0003b0 b1 ea eb 3e ae 40 7d 3e f0 56 cb 3e b8 5f 40 be
       0.46077493 0.24731705 0.39714766 -0.18786514
0003c0 6d d7 a2 3e a9 c8 96 be 8b 59 5c be 56 de e7 be
       0.31804982 -0.29449967 -0.21518533 -0.45286816
0003d0 ea 1c 2c be 1a 02 ea be 29 84 a0 be 8d c3 05 bf
       -0.16807905 -0.45704728 -0.3135083 -0.5225151
0003e0 52 c4 b2 3e 80 e3 b1 bd cf 50 7e 3d 20 39 8a be
       0.34915406 -0.0868597 0.062088784 -0.26996708
0003f0 cb df d0 3e 1f 90 83 be 86 3d ab be 26 f7 59 be
       0.4079574 -0.25695893 -0.33445376 -0.21285686

actor.fc1.bias f4 [256]
000000 63 db 8b 3e 0d d4 00 3e 8b b8 70 3e 85 c6 55 3e
       0.27315816 0.12580891 0.23507898 0.2087651
000010 ac 73 54 3e af f0 4f 3e a5 e6 a5 3e b5 25 d4 3e
       0.2074725 0.20306657 0.3240253 0.41435018
000020 8f 4d ea 3e cd 81 02 3f c2 0e 07 be 42 e7 1d bd
       0.45762298 0.5097931 -0.13189223 -0.038550623
000030 1f 02 1c 3e 69 05 28 be 77 c2 b4 3d 11 21 6c bd
       0.15235184 -0.16408314 0.08826154 -0.057648722
000040 3f 8b c5 bd 66 4e 9d 3d 07 22 47 3d 64 86 1d 3e
       -0.096457 0.07680969 0.048616435 0.15383297
000050 1c ec 7d 3d 01 ea 0b 3e 8d c6 87 3e 8d 6e 21 3e
       0.06199275 0.13663484 0.2651867 0.15764828
000060 bd fb c8 3e 40 59 85 3c 65 c2 9f 3b 96 68 ec 3e
       0.3925456 0.01627791 0.0048754686 0.46173543
000070 14 32 d9 3d 02 4c 8c 3e c4 c4 db bd 7a 8f fc 3e
       0.10605255 0.2740174 -0.107308894 0.49328214
000080 0e 75 13 3e db 9e e0 3e 88 01 cd bc b4 cb 0a be
       0.14400122 0.43871197 -0.025025144 -0.13554269
000090 81 97 88 bd cc 55 8f 3e 56 dc 89 3e ef 73 ea 3e
       -0.06669522 0.27995145 0.26925915 0.45791575
0000a0 09 fd b9 39 91 f6 de 3e 82 3c 97 3d f3 27 7a 3e
       0.00035474476 0.4354749 0.07384588 0.24429302
0000b0 44 d2 e1 39 d2 06 d2 3e f5 86 bf 3e 43 ee ef 3d
       0.00043072004 0.41020828 0.37407652 0.11715367
0000c0 ed 79 e5 3e 04 7e 09 3d 6d 3f e7 3e a2 f8 47 3e
       0.44819584 0.033567443 0.45165578 0.1952844
0000d0 fc 59 70 3d 95 dc 4e 3d 0b cf 3f bc a8 dd 98 3e
       0.058679566 0.050503332 -0.011707078 0.2985661
0000e0 2e 98 83 3e d8 84 c6 3e 29 03 ad 3e 98 a2 a5 3d
       0.2570204 0.38773227 0.33791474 0.08087653
0000f0 e4 b5 f1 3e b3 fd e2 3e 69 4c 49 3e 77 a0 b0 bd
       0.47209084 0.44334182 0.19658054 -0.08624356
000100 78 8c 55 3e 87 79 24 3e 34 8e 41 bd 03 66 16 be
       0.20854366 0.16061984 -0.047254756 -0.14687352
000110 a0 84 7a bd cc 96 08 3f 7b 91 8e 3e 97 59 fa 3e
       -0.061161637 0.533551 0.27845368 0.48896477
000120 bd 37 8f 3e 6e 7e 01 3f 40 c4 02 3f 80 8c d8 3e
       0.27972212 0.5058354 0.51080704 0.42294693
000130 54 f4 a5 3e 0a 3d 52 3e 74 ba d6 3e 67 2f 82 3e
       0.3241297 0.20531097 0.41939127 0.2542679
000140 d8 6c fb bc 11 f9 64 3e 8b 4f 98 bd 22 e5 f6 3e
       -0.03069155 0.22360636 -0.074370466 0.4822169
000150 b7 5c 72 3d f6 64 1f 3c 3a a5 04 3f 17 ba a3 3d
       0.05917045 0.009728661 0.51814616 0.07994478
000160 4b 2e 65 3e 5d b2 8f bc e9 c1 9d 3d 48 16 03 bd
       0.2238094 -0.017541105 0.07703001 -0.03200367
000170 fd fa 00 3f d2 c3 c7 3d 01 26 73 3e da 8b 29 3e
       0.5038298 0.09754147 0.23744966 0.16557255
000180 72 b4 12 be 6a 01 51 3e d7 48 63 3e f1 0b fb 3d
       -0.14326647 0.20410696 0.22195755 0.12258137
000190 47 30 70 3e 95 83 df bb bb 8b 77 bd 61 aa 21 3e
       0.23455916 -0.0068211057 -0.06043599 0.1578765
0001a0 08 58 3a 3e 5d 05 93 bd 0a 88 1c be 77 a5 45 3e
       0.18197644 -0.07178757 -0.1528627 0.19301401
0001b0 b6 05 d1 3e 01 5d b5 3e 6f 3f a7 3e aa 9c 16 be
       0.4082467 0.3542252 0.32665583 -0.147082
0001c0 21 93 b6 bd 9f e5 89 3d 6f 3b 99 3e 74 39 0c 3c
       -0.08914781 0.0673325 0.29928157 0.00855862
0001d0 53 14 1f be 54 70 05 3e 1b ed 5c 3d 61 20 5d 3e
       -0.15535097 0.13031131 0.05393706 0.21594383
0001e0 27 8e eb 3e 01 ae f8 3d 8c 2d fb 3e 6f f1 03 be
       0.4600689 0.121425636 0.49058187 -0.12885068
0001f0 bf b3 21 3e f7 15 5d bd b2 db 03 3f 48 16 f2 3e
       0.15791224 -0.053976025 0.51507103 0.47282624
000200 df 3d 0e 3c 6f d7 d3 3e 6d bf 00 3f 68 00 07 3f
       0.008681743 0.413753 0.5029209 0.52734995
000210 9f 23 13 3e e8 b2 0c 3f 35 20 9f bd 18 4d 0c 3f
       0.14369057 0.5496049 -0.07769815 0.54805136
000220 bc 6e 98 3e ec 38 97 3d c4 2b eb 3e 08 c4 c8 3d
       0.29771984 0.07383904 0.45931828 0.09803015
000230 d0 21 19 bd d3 f6 e9 bc 9f 2c 94 3e 5d af 59 3e
       -0.03738576 -0.028560078 0.28940293 0.21258302
000240 fa b6 30 3e 68 e7 05 3f 6b ba 05 3f f1 1d ba bd
       0.172573 0.5230622 0.52237576 -0.09087742
000250 e7 42 ae 3e 6e 28 88 3d ad a7 8e bd 15 de 05 3f
       0.34035417 0.06648336 -0.06965575 0.52291995
000260 57 52 80 3e 10 cc 59 3e d8 b9 b1 3d d2 dc 04 3f
       0.2506282 0.2126925 0.08678025 0.51899445
000270 48 52 b3 3d c2 af e9 3e a4 c3 d6 bd 74 f8 15 3e
       0.08755928 0.45641905 -0.10486534 0.14645559
000280 e7 47 16 be b9 04 cf 3e d1 d8 9e 3d 5c b8 18 3e
       -0.14675866 0.4043329 0.07756198 0.14914078
000290 20 83 8f 3e f3 cb 0d be 6c 49 1d 3d a8 14 34 3e
       0.28029728 -0.13847332 0.0384001 0.17586005
0002a0 e5 bc 86 3e b9 2b 0c 3f 28 d8 d0 3e 45 60 7c 3e
       0.2631599 0.54754215 0.40789914 0.24646099
0002b0 7d c9 c0 3e 34 1b 91 bd 4d b8 0f be aa 10 bc 3b
       0.37653723 -0.07085267 -0.14035149 0.005739291
0002c0 9c e3 f7 3e d5 8d fc 3e ae e0 41 bd 61 e4 47 3e
       0.4841584 0.4932696 -0.047333412 0.19520713
0002d0 78 44 b7 3e a4 b9 de 3e db 0c d1 3e ee fa f6 3e
       0.35794425 0.43501008 0.4083012 0.4823832
0002e0 3a 31 0c 3f 84 e5 ff 3e a9 33 74 3e 50 45 ed 3e
       0.54762614 0.49979794 0.23847832 0.46341944
0002f0 48 7a c1 3c 9b 8b 96 3e a6 01 b9 bd eb 97 8e 3e
       0.023617879 0.29403386 -0.090335175 0.2785028
000300 7a c5 34 3e 59 7a 1b bc df b1 af 3c 1b 01 8d 3e
       0.17653456 -0.009489619 0.02144712 0.27539906
000310 7e 69 2a be 98 cc 87 bc f6 5f 07 be 35 35 53 3d
       -0.16641805 -0.01657705 -0.132202 0.051564414
000320 ec 5b 0a 3f a3 3d f6 bd a7 d0 73 3e 70 88 c1 bd
       0.5404651 -0.12023475 0.23810063 -0.094498515
000330 26 74 8e 3d 10 94 21 3c b8 38 26 3d 64 c2 b6 3e
       0.06955747 0.009861961 0.040581435 0.35695183
000340 61 6b d4 3d 50 fa 96 3e d8 8a 97 bd 02 89 a9 3e
       0.103720434 0.29487848 -0.07399529 0.3311234
000350 cc 9c 95 3e ca b5 c0 3e 01 dd ef bd 09 7e 06 3f
       0.2922119 0.37638694 -0.11712075 0.52536064
000360 fa be 99 3e 19 37 c4 bd 62 88 9b 3e a9 73 ab 3e
       0.30028516 -0.095808215 0.3037749 0.3348668
000370 cb ea 0d 3f db f9 1b bd c4 68 98 3e 8f 51 84 3e
       0.5543639 -0.038080078 0.2976743 0.25843474
000380 d3 c0 1b be ab 5b ba bd 5b 9d 71 3e 98 f4 d5 bd
       -0.15210275 -0.090995155 0.23595183 -0.10447043
000390 30 b5 25 3e 3a 72 eb 3d e3 9f f3 3c 3a e7 b2 3e
       0.16182399 0.11496396 0.029739326 0.34942037
0003a0 28 ac 86 bd cc 47 0e bd 91 36 dc 3e 5f 53 66 3d
       -0.06575805 -0.03473644 0.4301038 0.056231853
0003b0 01 48 1e 3e 3d 85 ee 3e a9 e8 e6 3e 99 5e 43 3e
       0.15457155 0.46586028 0.4509938 0.19079055
0003c0 0f f0 c1 3c e1 7b f3 bd 1a a9 06 3f d7 a5 09 3f
       0.02367404 -0.118888624 0.5260178 0.53768677
0003d0 71 0b 52 3d 9e 49 0b 3f db d8 4c 3e c5 b4 87 3e
       0.051280443 0.54409206 0.20004599 0.26505104
0003e0 45 f1 b4 3d fc 1e 09 3f 01 3d f1 3e ed 06 c3 3e
       0.08835081 0.53562903 0.47116855 0.3809122
0003f0 f1 bd 0f 3f eb 36 d7 3e 4c 63 fc bd 40 0a cc 3c
       0.561492 0.42034087 -0.12323627 0.024907231

actor.fc2.weight f4 [128, 256]
000000 fc 3c 19 3e c4 6b 20 3e ae 92 09 3e af f3 59 3e
       0.1496467 0.1566611 0.1343486 0.21284364
000010 b0 4f d7 3d 5e 19 de 3d b0 44 f6 3d 44 a1 43 3e
       0.10513246 0.10844682 0.1202482 0.19104487
000020 d2 db 17 3e 3a 27 f6 3d 2c 8e 0a 3e 48 e1 00 3e
       0.14829949 0.120192006 0.13530797 0.12585938
000030 ea 06 0c 3e fe c7 3c 3e 92 c4 65 3e 47 18 5e 3e
       0.13674513 0.18435666 0.22438267 0.21688949
000040 75 dc 11 3e 56 39 44 3e 49 2c 39 3e 5e fe 57 3e
       0.14244254 0.19162497 0.180833 0.21093127
000050 08 21 50 3e 57 fd 66 3e 5a 81 6a 3e c9 04 2d 3e
       0.203251 0.22557579 0.22900906 0.16896357
000060 69 9a 03 3e 71 da 5e 3e 1b 4f 3e 3e ac 47 4e 3e
       0.12851872 0.21763016 0.18584864 0.20144528
000070 48 bb 47 3e cc 36 e7 3d 5b c6 09 3e d7 35 4f 3e
       0.19505036 0.112897485 0.13454573 0.20235382
000080 69 c1 65 3e 63 79 66 3e ed 32 2c 3e 32 e0 f7 3d
       0.22437061 0.22507243 0.16816302 0.12103309
000090 1e 22 4d 3e 73 00 f5 3d 0f 45 25 3e 16 4c 5f 3e
       0.20032546 0.11962976 0.16139625 0.21806368
0000a0 f1 cf 1e 3e a9 3f 2f 3e 0b be 5d 3e 3b 4a 2b 3e
       0.15509011 0.17114128 0.21654527 0.16727535
0000b0 97 dd 2a 3e 03 2e e7 3d 2a b3 5c 3e e3 58 16 3e
       0.16686092 0.11288073 0.2155272 0.14682345
0000c0 de 93 10 3e db e5 33 3e 6d ca 01 3e 54 33 54 3e
       0.14118907 0.17568152 0.12674876 0.20722705
0000d0 ad 1c f3 3d b3 23 df 3d 14 89 4e 3e 96 7a 32 3e
       0.11870704 0.10895481 0.20169479 0.17429575
0000e0 06 b1 59 3e ba 3e 6a 3e f1 24 63 3e 3b b3 4b 3e
       0.21258935 0.22875491 0.22182061 0.1989259
0000f0 14 34 07 3e ef 65 f6 3d cb 15 0a 3e 0f 8e 39 3e
       0.1320346 0.12031161 0.13484876 0.18120597
000100 d4 e6 5d 3e d9 8c 1c 3e a2 d0 3d 3e 25 23 2f 3e
       0.21670085 0.15288104 0.18536618 0.1710325
000110 39 f0 06 3e 36 82 41 3e c6 4a e5 3d 4b 8e 19 3e
       0.13177575 0.18897328 0.111959025 0.14995687
000120 6f e2 74 3e 9c 8c 5a 3e 38 12 02 3e 40 8c 53 3e
       0.23914503 0.213427 0.12702262 0.2065897
000130 f5 88 04 3e 7f 53 60 3e 88 8c 1c 3e 6b 70 ec 3d
       0.1294287 0.21906851 0.15287983 0.115448795
000140 62 60 5f 3e 1c d0 e3 3d c5 23 3f 3e 36 49 1b 3e
       0.21814111 0.11123678 0.18665989 0.15164647
000150 7e 79 40 3e df c0 f6 3d 17 9c 1b 3e b1 b0 46 3e
       0.18796346 0.12048506 0.15196262 0.1940334
000160 fb c8 5c 3e d5 75 02 3e 4c d5 29 3e 27 78 1a 3e
       0.21561043 0.12740262 0.16585273 0.15084897
000170 8a 58 4a 3e f7 c0 42 3e 1b 40 39 3e 09 2e 44 3e
       0.19760337 0.19018923 0.1809086 0.19158186
000180 08 91 16 3e 3f 9f 4f 3e cf 5b 39 3e b4 88 fe 3d
       0.14703763 0.20275591 0.18101428 0.12428418
000190 24 82 21 3e 75 a9 60 3e f7 50 30 3e eb 6f 2e 3e
       0.15772301 0.21939643 0.17218386 0.17034881
0001a0 93 44 13 3e 3e 92 21 3e 66 e8 06 3e d9 ca 5c 3e
       0.14381628 0.15778443 0.1317459 0.21561755
0001b0 e1 14 08 3e db 80 f3 3d b1 33 e6 3d c0 e8 07 3e
       0.13289215 0.118898116 0.11240328 0.13272381
0001c0 15 84 41 3e 6e f1 f7 3d 79 98 67 3e 17 07 0b 3e
       0.18898042 0.12106596 0.22616757 0.13576923
0001d0 33 2f 0f 3e c8 a8 3c 3e 21 02 40 3e 24 de 0e 3e
       0.13982849 0.1842376 0.18750812 0.13951927
0001e0 7a 16 71 3e 3e 42 25 3e 36 12 02 3e 66 31 d9 3d
       0.2354373 0.1613855 0.1270226 0.10605125
0001f0 55 78 60 3e 0a 9d 05 3e ac e7 55 3e e2 18 2e 3e
       0.21920903 0.13048187 0.20889157 0.1700168
000200 bb 73 f5 3d b4 d5 4a 3e e3 3c 15 3e a6 c3 1d 3e
       0.119849645 0.19808084 0.14574008 0.15406665
000210 f7 3d 05 3e 0e ca 3d 3e b1 e9 0a 3e e8 e6 59 3e
       0.13011919 0.18534109 0.13565709 0.2127949
000220 ce 35 25 3e 3a fc 5b 3e 07 e7 15 3e d4 6c e2 3d
       0.16133806 0.21482936 0.14638911 0.110559136
000230 2b bb 4b 3e 47 11 0f 3e 31 1d 30 3e 4f 0f 6c 3e
       0.19895618 0.13971435 0.17198636 0.23052715
000240 ec 65 0a 3e d1 dc 62 3e c6 52 57 3e b6 43 29 3e
       0.13515443 0.22154547 0.2102767 0.16529736
000250 62 72 41 3e 92 b6 16 3e 9b c0 55 3e 44 1e f0 3d
       0.1889129 0.14718083 0.20874254 0.11724523
000260 34 c6 62 3e f6 ba 68 3e 82 2f 11 3e aa e7 3c 3e
       0.22145921 0.2272757 0.14178279 0.18447748
000270 f6 18 19 3e 42 e1 1e 3e a2 63 1d 3e 68 0a f5 3d
       0.14950928 0.15515617 0.15370038 0.119648755
000280 d4 10 b6 3d 66 08 10 3e 60 83 e6 3d 8b 43 08 3e
       0.088899285 0.14065704 0.112555265 0.13307016
000290 65 37 73 3e 99 63 50 3e 7c de 48 3e a4 7c 3f 3e
       0.237516 0.20350493 0.19616121 0.1869989
0002a0 b2 4b 17 3e ad 77 3c 3e 6e 2f 48 3e 98 30 22 3e
       0.14774969 0.18405028 0.19549343 0.1583885
0002b0 50 2c 25 3e 82 c7 28 3e 59 58 e5 3d 24 62 10 3e
       0.16130185 0.16482356 0.111984916 0.14099938
0002c0 fa 3f 13 3e 0b d7 fc 3d 3e 26 55 3e b2 68 1b 3e
       0.14379874 0.12345704 0.2081537 0.15176657
0002d0 95 30 62 3e 47 9d 5f 3e 2b 02 1f 3e ab 00 ee 3d
       0.22088845 0.2183734 0.15528171 0.11621221
0002e0 d2 dc f0 3d 56 37 18 3e e3 32 63 3e 99 72 10 3e
       0.11760868 0.14864859 0.2218738 0.14106216
0002f0 13 58 d8 3d 8c 77 21 3e f1 ec 24 3e 4d cb 3d 3e
       0.10563674 0.1576826 0.16106011 0.18534584
000300 e4 f0 3e 3e 71 20 38 3e 34 b0 f3 3d 21 65 3c 3e
       0.1864658 0.17981125 0.118988425 0.18397953
000310 77 29 c1 3d b1 c1 04 3e cc 7a d7 3d 9b 07 52 3e
       0.09431737 0.12964512 0.105214685 0.20510714
000320 29 01 79 3e ac 35 06 3e 2e a9 01 3e a6 a2 f8 3d
       0.24316849 0.13106412 0.12662193 0.12140398
000330 09 a1 31 3e e2 30 3d 3e ec 8d e8 3d b9 24 07 3e
       0.17346586 0.18475679 0.113551944 0.13197602
000340 e8 05 3e 3e 96 9c 64 3e f4 ed 4a 3e 5c 32 58 3e
       0.1855694 0.22325358 0.19817334 0.2111296
000350 fe fb 63 3e 19 ab 44 3e 30 2e 64 3e 52 23 5b 3e
       0.22264096 0.19205894 0.22283244 0.21400192
000360 6e 03 18 3e a7 fb 0f 3e a4 52 24 3e ed 26 00 3e
       0.14845058 0.14060842 0.1604715 0.12514849
000370 4e 0f 70 3e fd aa 2c 3e e3 76 2e 3e bd 75 5c 3e
       0.23443338 0.16862102 0.17037539 0.21529289
000380 47 7d 36 3e 16 51 1f 3e 1b 09 29 3e 1d 8c 28 3e
       0.17821227 0.15558276 0.1650738 0.16459699
000390 11 be e5 3d 9f a7 28 3e dd c3 3e 3e b0 70 31 3e
       0.11217893 0.16470192 0.18629403 0.17328143
0003a0 e8 69 3e 3e 7d f3 f9 3d 21 4d 63 3e 64 39 42 3e
       0.18595088 0.12204645 0.22197391 0.18967205
0003b0 cc 93 29 3e 90 34 73 3e 68 00 f0 3d 49 62 57 3e
       0.16560286 0.2375052 0.117188275 0.21033587
0003c0 e8 db fc 3d f8 2a 12 3e ca dd e8 3d 5e 3b 2b 3e
       0.12346631 0.14274204 0.11370428 0.16721866
0003d0 a1 0c 0f 3e 1c d1 54 3e f3 f0 14 3e ec 30 fb 3d
       0.13969661 0.20782894 0.1454504 0.122651905
0003e0 b5 25 e4 3d 8c d3 65 3e 93 d2 64 3e 57 17 6f 3e
       0.111400045 0.2244398 0.22345953 0.23348747
0003f0 b7 11 42 3e 58 1e 21 3e 0e 3e 37 3e b1 a3 4c 3e
       0.1895207 0.15734231 0.17894766 0.19984318

actor.fc2.bias f4 [128]
000000 23 96 41 3e 2e 0e 64 bd 38 f1 f4 3d ae 1b 54 3e
       0.18904929 -0.055677585 0.11960071 0.20713684
000010 74 3a 52 3e 88 7e 08 3e 8a 74 37 3e 21 12 95 ba
       0.2053011 0.13329518 0.1791555 -0.0011373201
000020 9b 47 81 3e c7 f8 d4 3c 21 18 91 bd 7d b5 d3 bc
       0.25249943 0.025997533 -0.0708468 -0.025843376
000030 3c fd 1a 3e 87 66 50 bd 64 e8 19 bb bc b0 81 3d
       0.15135664 -0.050879028 -0.0023484463 0.063325375
000040 fc 6a 16 3e 04 b0 47 3e dc 35 46 3c d9 63 e8 3c
       0.14689249 0.19500738 0.012097802 0.028367924
000050 12 ff 23 3e 8d 7c aa 3b 3c 23 43 3d 72 f1 3c bd
       0.1601527 0.005202836 0.047641024 -0.046128698
000060 0c fc 66 3a b8 8e 4a 3e f5 32 f1 3c ea aa 51 3e
       0.00088113616 0.19781005 0.029443244 0.20475355
000070 61 84 13 3d 79 27 ec 3d 3c a3 67 3e 72 80 64 3e
       0.03601492 0.11530966 0.22620863 0.22314623
000080 2c b0 82 bb 34 6f 61 3d d2 96 74 3e 87 62 d6 3d
       -0.0039882865 0.055037692 0.23885658 0.10468011
000090 a5 f8 51 3e bf 72 f2 3c e2 de 50 3e da 12 d5 3d
       0.20505007 0.02959573 0.20397523 0.10403986
0000a0 6b 21 29 3e 90 f2 fb 3c 93 1d 14 bd 26 93 2b 3e
       0.16516654 0.030755311 -0.036161017 0.16755351
0000b0 33 4e f8 3c 0c 48 cb 3d dd fc 7b 3e ef fd 47 3e
       0.030310726 0.09925851 0.24608178 0.19530462
0000c0 ee 32 1b bc fe 86 3d 3e d8 03 15 3e e0 f2 e2 3d
       -0.009472592 0.18508527 0.14552248 0.11081481
0000d0 a3 d2 80 bd 3e e3 49 3d b4 50 5e bd 09 20 63 bd
       -0.06290176 0.04928898 -0.054276183 -0.055450473
0000e0 b0 9c 3c 3e d3 b9 72 3e 81 eb 72 3e 37 0e 3d 3e
       0.18419147 0.23703699 0.2372265 0.18462454
0000f0 38 fe 0e bd 96 f5 3c 3e 30 2e 0d 3e fe ee d8 bb
       -0.03491041 0.18453059 0.1378715 -0.006620287
000100 b6 ce 4f bd 31 b1 86 bd f8 68 59 bd aa 25 11 3e
       -0.050734244 -0.06576765 -0.05307862 0.14174524
000110 af 93 64 3e ff b1 34 3e 14 01 0b bd bd 63 20 3d
       0.22321962 0.17646025 -0.033936575 0.039157618
000120 96 be 57 3e d5 b3 05 3e c8 73 a7 3d 94 a4 88 bd
       0.21068797 0.13056882 0.081763804 -0.06672016
000130 58 b9 14 3d 49 0d 21 3e c0 2f 79 3e c2 4b 9e bd
       0.03630957 0.15727724 0.24334621 -0.077292934
000140 8b 7d 1f 3d b1 98 47 3e b5 bc fe 3d 68 47 24 3e
       0.038938086 0.19491841 0.12438337 0.16042864
000150 45 66 3c bc 9b 59 51 3e 50 a3 27 bd f4 28 18 3e
       -0.011498992 0.20444338 -0.04092723 0.14859372
000160 5f a0 88 bc b5 7d 75 bc 05 e3 5e bc 7d 0d 05 3e
       -0.016678033 -0.014983584 -0.01360393 0.12993427
000170 cb 37 7a bd 80 df 4f 3e cb 7f 51 3e 83 f5 d5 3d
       -0.061088365 0.20300102 0.20458905 0.10447218
000180 43 82 0f 3e ff a6 09 3e 4b aa 20 3e 19 18 28 3e
       0.14014535 0.1344261 0.15689962 0.16415443
000190 d9 4d 17 3e 27 a7 99 3c 48 39 39 3e 88 19 1f 3d
       0.1477579 0.018756462 0.18088257 0.038842708
0001a0 8f df 09 bc 0a d0 6f 3e eb 59 f6 bc 8a 40 b6 3c
       -0.008415117 0.23419204 -0.030072173 0.022247571
0001b0 e6 c8 7f 3e c9 07 2b 3e 50 60 0f 3e 45 03 23 3e
       0.2497898 0.16702189 0.14001584 0.15919216
0001c0 fe a2 12 3e 53 48 87 bd ab d4 3e 3e 5f 0d 06 3e
       0.14319989 -0.066055916 0.18635814 0.13091038
0001d0 3e 5a ca 3d 7b 74 3c 3d 9a d6 df 3d 76 94 37 3e
       0.098804936 0.046009522 0.10929604 0.17927727
0001e0 a1 1f 6c bd 2a 79 63 3e ec c1 71 3e b3 9a 33 3e
       -0.05764735 0.22214189 0.23609132 0.17539482
0001f0 b5 21 81 3e 76 24 64 3c 9a 84 14 3d 39 22 4c 3e
       0.2522103 0.013924709 0.03625927 0.1993493

actor.policy_head.weight f4 [5, 128]
000000 76 40 7c be b7 f1 8b 3d fd bc 5a be 39 0f 7b be
       -0.24633965 0.06833213 -0.21361156 -0.24517526
000010 fa af 05 be 58 41 02 be 9b b2 7b be 5a bc dc 3c
       -0.13055411 -0.12720239 -0.24579851 0.026945282
000020 15 7c 8e be ba b0 64 3d 58 76 cf 39 1a 6d 89 bc
       -0.27829042 0.055832602 0.0003957029 -0.016775656
000030 ff 39 56 be 09 54 a9 3d 36 1a e4 bb cb 19 77 be
       -0.20920561 0.082679816 -0.0069611324 -0.24130933
000040 0d f1 67 be 98 6e 40 be f5 63 b3 3c 63 df 07 3d
       -0.22650547 -0.18792188 0.02189825 0.033172023
000050 f4 51 82 be f4 e0 83 bb 15 26 f2 bc 9b 69 ed 3a
       -0.2545315 -0.0040246192 -0.029559175 0.0018113138
000060 8c 78 10 3c 34 f3 5a be 4a 32 88 3c eb 05 81 be
       0.008817803 -0.21381837 0.016625542 -0.25199828
000070 88 08 a1 ba 70 5b c5 bd cb 7f 23 be 9e 33 5e be
       -0.0012285868 -0.09636581 -0.15966718 -0.21699378
000080 56 60 83 3d 53 9d 96 bd ac ae 90 be 8a 16 70 be
       0.06414859 -0.07354226 -0.28258264 -0.23446098
000090 9b f2 6c be d8 7a e5 bc a9 00 7e be c3 c7 2c be
       -0.23139422 -0.028012678 -0.2480494 -0.16873078
0000a0 fa ae 6b be 57 f7 0a bd 8b 1a 12 3d 5e c4 85 be
       -0.23015967 -0.033927288 0.035669845 -0.2612638
0000b0 95 bb bd bc e0 55 fa bd 2e e7 5c be 6d c8 02 be
       -0.023160735 -0.122234106 -0.21572563 -0.12771769
0000c0 87 4a 94 3d 19 a1 89 be ef 01 80 be 6f 3f e2 bd
       0.072407775 -0.2688072 -0.25001475 -0.11047255
0000d0 87 d2 75 bd 1f 68 74 bd c3 01 9d 3d fe ea 73 3d
       -0.060015228 -0.05966961 0.07666352 0.059550278
0000e0 0c 7c 90 be f7 e3 84 be fb 7b 62 be 03 b9 86 be
       -0.2821964 -0.25955173 -0.22117607 -0.26313028
0000f0 36 7a 87 3c 5f 9e 81 be 56 2a e3 bd e3 6b 6a 3d
       0.016537767 -0.2531614 -0.11092059 0.057231795
000100 cd da f0 bc 05 2a 42 3d 25 04 56 3d 03 13 3d be
       -0.029401207 0.047403354 0.052250046 -0.18464284
000110 dd 6e 2b be a0 7a 62 be 85 c4 5b 3d 36 5e 37 3c
       -0.1674151 -0.2211709 0.053654213 0.011191895
000120 c7 2c 82 be d9 1c 4e be ac 92 31 be 55 19 b1 bc
       -0.25424787 -0.20128192 -0.17341107 -0.021618525
000130 ee 87 17 3c 56 55 2c be e7 23 79 be 82 b6 8f 3d
       0.009248717 -0.16829428 -0.24330102 0.070172325
000140 87 a1 3a 3d 29 e9 30 be 11 32 ba bd ab 0b 7f be
       0.0455642 -0.17276444 -0.09091581 -0.24906795
000150 02 b1 91 3c f5 b1 90 be 5f cb 9b 3d cf 80 05 be
       0.0177846 -0.2826077 0.07607149 -0.13037418
000160 c0 fa a2 3c fb be b8 bd d5 57 06 3d ea a5 c4 bd
       0.019894958 -0.09020802 0.032798607 -0.09601958
000170 ab 2b 43 3d c2 52 87 be 8c 23 38 be b5 bc 5a be
       0.047649067 -0.26430327 -0.1798231 -0.21361049
000180 d2 cc 7f be 3a 38 2b be 6e 91 69 be 13 03 82 be
       -0.24980476 -0.16720667 -0.22809383 -0.2539297
000190 7f 0c 72 be 0e 09 5c 3d 0b 83 1a be 71 f8 3a bc
       -0.2363758 0.053719573 -0.15089051 -0.011411772
0001a0 00 61 3f 3c 19 3e 60 be 81 7c e3 3c de 36 c6 3c
       0.011680841 -0.21898688 0.027769329 0.024196085
0001b0 e2 f4 8b be 73 9b 02 be f4 8e 8c be 4a 1b 15 be
       -0.27335268 -0.12754612 -0.27452815 -0.14561191
0001c0 a6 8d 32 be 03 f0 91 3d d1 dd 71 be 5b 4c db bd
       -0.17436847 0.07125857 -0.23619772 -0.10707923
0001d0 14 15 df bd 4c ab e6 bc c5 09 49 be fd fd 16 be
       -0.10892692 -0.028157853 -0.19632633 -0.14745326
0001e0 4c 49 3b 3c fd 31 75 be f1 97 48 be a3 08 8c be
       0.01143105 -0.2394485 -0.19589211 -0.2735034
0001f0 3f 8e 86 be ba 69 95 3d 36 2e d2 bd e5 1f 1b be
       -0.262804 0.07295556 -0.1026272 -0.15148886
000200 af a4 b1 bd 28 e1 af 3b d7 34 4d be d6 48 22 be
       -0.08673989 0.005367417 -0.20039688 -0.15848097
000210 98 6d a6 bd 0b b9 c0 bd 55 ab 39 be 31 d8 c6 3c
       -0.08126372 -0.09410294 -0.18131764 0.02427301
000220 5e a1 a3 bd b2 5d 74 3c 96 17 33 3d 23 b8 8e 3d
       -0.07989763 0.014914917 0.043723665 0.06968715
000230 f9 53 c6 bd 5a c5 0d bd d3 6e 5f bd 07 6d 95 bd
       -0.09683985 -0.034612037 -0.05454905 -0.07296186
000240 79 06 5b be a3 2a 6d be a7 4b b9 3c ce 53 aa bd
       -0.21389188 -0.23160796 0.022619082 -0.08316766
000250 ab 47 46 be 82 1f 7b 3d 14 a3 5b 3d ec 09 a5 bc
       -0.19363277 0.061309345 0.05362232 -0.020146333
000260 c6 7e b4 bc ca e8 f3 bd 18 37 3d 3b b9 e5 bb bd
       -0.022033107 -0.11909635 0.002887195 -0.091746755
000270 f2 13 c0 bc 90 11 2b be f5 2d 2b be c6 0e 0d be
       -0.02344701 -0.16705918 -0.1671675 -0.13775167
000280 45 b7 48 3c 94 8a 9a bc 9b 7c fb bd 14 92 5e be
       0.012250726 -0.018864907 -0.12279626 -0.21735412
000290 69 aa 56 be b7 cd 60 bd ab 16 33 be d7 39 74 be
       -0.20963444 -0.054883685 -0.17489116 -0.23850189
0002a0 d5 aa 13 be 8b 8e 62 3c dd b9 a0 bc b4 88 0d be
       -0.14420636 0.01382793 -0.019619877 -0.1382168
0002b0 88 51 99 bd 72 3e d0 bd 26 3a 30 be c1 b0 62 be
       -0.07486254 -0.101681605 -0.17209682 -0.22137739
0002c0 aa 08 ab 3d 01 f1 5b be 70 46 4b be ed 34 fa bd
       0.08351262 -0.21478654 -0.19851089 -0.12217126
0002d0 e0 cf a9 bc 28 fd 84 bd 3b d5 1c bd b0 08 44 bd
       -0.020729005 -0.06493598 -0.03828929 -0.047859848
0002e0 1b 9c 67 bd 57 97 2b be f8 2f 53 be 1c 4b 1a be
       -0.05654536 -0.1675695 -0.20623767 -0.15067714
0002f0 ea 0c 9c 3d 47 c9 ae bd d8 b0 7d bd 6f 28 4a bc
       0.07619651 -0.08534484 -0.06193623 -0.012338742
000300 f1 79 3e bd 4c 1d 72 3d fc 09 af 3d cb 95 f9 bd
       -0.04650301 0.05910997 0.08546826 -0.12186774
000310 d2 7e a7 bd 90 19 0e be df 2b a5 3d fd 5f ae bd
       -0.08178486 -0.13876939 0.08065008 -0.08514402
000320 d0 cf f8 bd a8 bc ac bd df 13 c3 bb c7 5a b0 bc
       -0.12149012 -0.08434421 -0.0059532966 -0.021527661
000330 4e 26 a0 bc 38 98 2b be 18 4d 65 bd 38 9e e1 bc
       -0.019549515 -0.16757286 -0.055981725 -0.027541265
000340 f6 d1 c3 3c e1 fb bd bd e7 f3 83 bd 2c 77 08 be
       0.023903828 -0.09276558 -0.06443005 -0.1332671
000350 51 67 9c 3c 5a 3b 1d be 94 7d 69 bd d7 25 c1 bd
       0.019092234 -0.15354672 -0.057004526 -0.094310455
000360 81 6a 59 bc d9 63 9c 3d 4f 36 a3 bb 79 e3 d3 bd
       -0.013270021 0.07636232 -0.0049808393 -0.10346121
000370 7f 4d 1a bd a2 43 23 be b5 d6 f0 bd f0 e0 08 bd
       -0.037671562 -0.15943769 -0.11759702 -0.033417642
000380 0a 86 ca bd 8e f0 15 be c1 e3 05 be 4b 6b 18 be
       -0.09888847 -0.14642546 -0.13075162 -0.14884679
000390 e6 54 45 bd d4 8c f3 3c 4b 22 70 be f5 3d 77 bd
       -0.04817667 0.029730238 -0.23450582 -0.06036182
0003a0 cf cc 98 bd 84 6a 19 be c0 fc 32 bd fb b5 a4 bb
       -0.07460939 -0.14982039 -0.043698072 -0.0050265766
0003b0 b6 b2 59 be cc 8d 8a bd 70 6e 33 be 3a d6 f0 bd
       -0.21259579 -0.06765327 -0.17522597 -0.117596105
0003c0 72 31 92 bd 2b 9a 8e 3d 11 22 55 be 69 7f 50 be
       -0.07138337 0.06962999 -0.20813777 -0.20361103
0003d0 7d 05 75 be d7 e5 80 3d 5e 5e 65 be 09 e9 2c be
       -0.23927875 0.062938385 -0.2239928 -0.16885771
0003e0 e0 c2 4d 3d 16 ec 9c bd b1 a5 07 be ed bc a8 bd
       0.050234675 -0.07662217 -0.132468 -0.0823916
0003f0 81 61 01 be 48 8c 49 3d 68 24 70 bb 6e 49 bd bd
       -0.12634851 0.04920605 -0.0036642794 -0.09242521

actor.policy_head.bias f4 [5]
000000 e2 0f 28 be 6f 61 af bc 02 8b 2f be 21 6b 20 be
       -0.16412309 -0.021408765 -0.17142871 -0.15665866
000010 3f 3d 65 3e
       0.22386645

critic.fc1.weight f4 [256, 8]
000000 da 26 e3 3e 64 af 29 3d 3f d0 c5 bd 96 6c aa be
       0.4436558 0.04142703 -0.096588604 -0.3328597
000010 aa 82 79 be 0f 12 61 3e d3 6a 8d be 9d eb bd 3d
       -0.2436625 0.21979545 -0.27620563 0.09273455
000020 3c 8a 88 be d5 e0 36 3e 16 4c 86 bd 46 78 a4 3d
       -0.26667964 0.17859204 -0.06557481 0.08030753
000030 2e 74 ea 3d 24 5b ab be a6 77 f0 bb 9f 14 01 3e
       0.11447941 -0.33467972 -0.007338482 0.12605523
000040 67 2f 85 bd ac a8 72 bd 6b db a5 be 05 c9 b5 3d
       -0.06503182 -0.05924289 -0.32393965 0.08876232
000050 df 93 d7 be 55 27 07 be 80 40 e6 bd 2d f7 5f 3b
       -0.42105004 -0.13198598 -0.11242771 0.0034174428
000060 1b d1 a3 bd 96 d7 2d 3d bb 41 c7 3e ff ea 87 bd
       -0.07998868 0.042441927 0.38917336 -0.06636619
000070 7e 63 30 bd 1f 1a 9a bd ba c5 2e bd ab be f9 bd
       -0.043063633 -0.075245135 -0.042669035 -0.1219457
000080 1b 65 c1 be cb ba 06 be 3e 10 d8 be 21 dd 8a 3e
       -0.3777245 -0.13157193 -0.42199892 0.27121833
000090 8f 8f 7f 3d 95 9f 3a 3d d7 5f d4 be 36 3b 54 3d
       0.062392768 0.045562346 -0.4147937 0.05181428
0000a0 87 19 18 3e 44 0e 13 3d f3 a3 4f bd fd 16 5e be
       0.14853488 0.035902277 -0.050693464 -0.21688457
0000b0 94 27 32 be a7 eb 85 bb bb 9a 82 be 8b 70 2b be
       -0.1739791 -0.00408693 -0.25508675 -0.1674215
0000c0 96 41 0f 3e 1f 7c 30 3e 04 b3 fe 3e 6c b0 a5 bd
       0.13989863 0.17234848 0.49745953 -0.080902904
0000d0 b5 af 8c 3e ca 6d 25 3e 9d 4f c1 be f5 fe 76 be
       0.27477804 0.16155162 -0.37756053 -0.24120696
0000e0 83 89 a6 3e 8b f2 76 3e 59 fd 85 bd d0 d2 93 3e
       0.32526788 0.2411596 -0.06542463 0.28871775
0000f0 98 60 8a be b7 d8 53 be b3 46 36 3e bd 99 60 be
       -0.2702682 -0.20688139 0.17800407 -0.21933647
000100 3f 5b ae 3e 98 5b c5 be fd 8b 37 be b7 09 28 bb
       0.3405399 -0.38546443 -0.17924495 -0.0025640556
000110 79 2b 87 3e 35 26 92 bd 55 93 8e 3e b9 a3 ad be
       0.26400355 -0.07136194 0.2784678 -0.33913973
000120 20 71 3d 3e d9 7d 73 3e 08 94 96 be 73 63 d6 3e
       0.18500185 0.23778476 -0.29409814 0.4187275
000130 98 55 b2 be f2 25 7e be 47 07 a0 3d 24 54 8c be
       -0.34830928 -0.24819162 0.07813888 -0.27407944
000140 68 f2 2a bc 66 ca a6 bd 74 5c 08 be ad c0 a9 3e
       -0.010433771 -0.08144073 -0.13316518 0.33154812
000150 e5 40 2e 3e e0 85 e2 be 04 17 c1 3e 15 dc 56 3e
       0.17016943 -0.44242764 0.37712872 0.20982392
000160 5b dd a4 be 6f 91 00 be 13 8f 4c 3e f9 3a 74 be
       -0.3220013 -0.12555479 0.19976453 -0.23850621
000170 07 b6 da be 79 05 7e 3e c2 f9 06 3f 28 1c 3d 3e
       -0.42717 0.24806775 0.5272485 0.18467772
000180 ff a2 fe 3e df 11 63 be eb a1 47 be b9 52 06 3e
       0.4973373 -0.22174786 -0.1949536 0.13117494
000190 08 4e 9c 3e 43 4c c1 3d b5 d7 57 be 76 7c 93 3c
       0.30528283 0.09438374 -0.2107838 0.018003684
0001a0 38 17 40 be 21 ca a5 3e 3e 63 f9 bc cc 2d b0 be
       -0.18758857 0.32380775 -0.03044283 -0.3440994
0001b0 cf 9e 83 be fc 9c 89 bc c4 35 72 be 5b ae 61 3e
       -0.257071 -0.016798489 -0.23653322 0.22039168
0001c0 2d 8e 48 bd 95 0c d7 3d ca 9d f6 3e b4 b0 2a 3d
       -0.048963714 0.10500447 0.48167259 0.041672423
0001d0 21 ea 6a 3e 66 a2 29 be 93 28 c5 be 1d cf aa be
       0.22940876 -0.16565856 -0.38507518 -0.3336114
0001e0 27 07 62 be 24 5b 0a 3e b4 86 d1 ba 0f 8e 69 bd
       -0.22073041 0.1351133 -0.0015985579 -0.057020243
0001f0 e0 c8 c6 3e 3a 9b 48 be 17 05 11 be 0a 03 e5 3d
       0.3882513 -0.19590464 -0.14162098 0.1118222
000200 3d c2 7c 3d cb da e5 3d 83 b2 6c 3e 77 0e 74 3e
       0.061708678 0.11223372 0.23114972 0.23833643
000210 4f cc bd bc 0b 58 4d be ec f3 50 3e 18 7f 02 be
       -0.023168711 -0.20053117 0.20405549 -0.12743795
000220 b1 f1 ba be 9b e5 9f be 05 b3 70 be dc e9 90 3e
       -0.3651252 -0.31229863 -0.2350579 0.2830342
000230 11 f5 ae bd 29 a6 43 bd b3 60 2d be 31 c6 b3 3d
       -0.085428365 -0.047765885 -0.16931419 0.087780364
000240 9e 53 b4 3c b3 22 bb be 0c d5 ec be 67 6f 89 3e
       0.022012528 -0.3654991 -0.46256292 0.26842806
000250 c9 56 57 bd 72 2c 8a be ab 41 d9 3e 47 54 84 be
       -0.052573 -0.26987034 0.42432913 -0.2584555
000260 e6 44 8a be 5d 48 6e be fd 12 6e 3e 95 df c8 3e
       -0.2700569 -0.23269792 0.23249431 0.3923308
000270 13 fa 13 3d 4d e6 71 be ca 83 fa 3d d6 bb b3 3d
       0.03612716 -0.23623009 0.12232168 0.08776061
000280 83 56 16 3e e0 eb 2d be ae b1 5a 3e 85 2a 74 3d
       0.14681439 -0.1698451 0.21356842 0.059610862
000290 d1 fc bb bd d6 de 1d be bf b0 7a 3e 6c 9d 73 be
       -0.0917908 -0.15417036 0.24481486 -0.2379052
0002a0 a6 93 7e be b7 0a 81 be ed 7f 2c be 5f fe 96 be
       -0.24861011 -0.25203487 -0.16845675 -0.29490945
0002b0 55 f4 94 3e 0b 3c 93 be 89 31 20 3e 9e 4d 10 3e
       0.2909266 -0.28756747 0.15643896 0.14092109
0002c0 f7 d7 0d 3e 03 01 71 bd 94 e3 8f 3e 6b a8 51 be
       0.13851915 -0.058838855 0.28103316 -0.20474403
0002d0 9c 9b 9c be 14 c1 41 3e d5 e7 2e 3d d9 f5 a2 3d
       -0.3058747 0.1892131 0.04270156 0.07957048
0002e0 73 e7 f9 be 12 78 3b 3e fb de e8 be 04 87 93 be
       -0.48809394 0.18307522 -0.4548262 -0.28813946
0002f0 2c fe 45 3d bb 0a 76 3e 21 60 a6 3e 94 1a 8c bd
       0.0483381 0.24027531 0.32495216 -0.06841007
000300 b9 ae a1 bd 3c b4 9e 3e 60 c2 f2 be 3f 0b 6b 3e
       -0.07894654 0.30996883 -0.4741392 0.22953509
000310 d2 44 54 3e 51 86 d4 be 79 78 a2 3e 24 a5 08 bd
       0.20729378 -0.41508725 0.31732538 -0.033360615
000320 e8 13 4e 3e 4e a6 c2 3d 6c 85 ac 3e 62 a4 12 3e
       0.20124781 0.09504376 0.33695543 0.1432052
000330 22 a4 65 3e d5 a6 ee bd b8 2c b5 3e de bf 0a be
       0.22425893 -0.116529144 0.3538568 -0.13549754
000340 c4 70 99 be de 22 bc be b9 d7 ed bd 59 70 42 3e
       -0.29968846 -0.36745352 -0.116134115 0.1898817
000350 83 70 32 3d 10 31 9e 3e 29 27 c9 3e 55 d1 07 be
       0.04356433 0.30896807 0.3928769 -0.13263448
000360 ac 99 07 3e 57 d9 66 bd 67 55 eb 3e e9 28 86 3e
       0.13242215 -0.056359615 0.45963594 0.26203087
000370 aa 6d e6 3d aa 84 53 bd 95 e3 02 3d 7d 2b aa be
       0.112513855 -0.05164019 0.03195532 -0.33236304
000380 13 ba a6 be 2e 1b c6 be 91 e0 49 3e 85 42 17 be
       -0.32563838 -0.3869261 0.19714572 -0.14771469
000390 e5 af f8 3d 8a b0 57 3e 2b 94 bd bd 28 ad c8 bd
       0.12142924 0.21063438 -0.092567764 -0.09798652
0003a0 fb 63 32 3e 84 5e 1d 3e 72 72 a3 be a2 59 e5 3e
       0.17420952 0.15368086 -0.31923252 0.44794947
0003b0 95 43 fa 3d d7 19 b1 3e 08 1f bd 3e cc c7 55 3e
       0.122199215 0.34590027 0.36937737 0.20876998
0003c0 db 1e 7b be 48 f2 7f be 7a 9d d3 3e 72 c5 de 3e
       -0.24523489 -0.24994767 0.41331083 0.43510014
0003d0 dc 97 10 be c6 9e a8 be 8b 6c 81 be d8 5e 72 3e
       -0.1412043 -0.32933635 -0.25278124 0.23668993
0003e0 8c 1c 85 be f5 00 b7 be 81 62 f4 bd 4c ea b5 be
       -0.25998342 -0.35742918 -0.11932851 -0.35530317
0003f0 d2 85 35 3e 30 27 88 3e 8c 2f 84 3e 3e fd be 3e
       0.1772683 0.26592398 0.25817525 0.37302583

critic.fc1.bias f4 [256]
000000 00 d1 de 3e ea cd 38 3f 5f a0 2d 3e 3f b5 d0 3e
       0.4351883 0.721892 0.16955708 0.4076328
000010 a8 30 df bc 28 19 0c 3f e5 99 b7 3e 70 2a 2d 3d
       -0.02724488 0.54725885 0.358596 0.0422768
000020 5d c5 fc 3e c9 dd 14 bd 75 af 2c 3f 6c 8c 85 3e
       0.49369326 -0.036344323 0.67455226 0.26083696
000030 50 a1 ab bc 3b d4 0f be 7a 67 5c 3e 0b 89 2e 3f
       -0.020950943 -0.14045803 0.21523848 0.6817786
000040 cb 08 40 3f 5c 63 c8 3e 52 c4 64 bd 5c f3 52 bd
       0.75013417 0.39138305 -0.05585129 -0.051501617
000050 b2 bb 6c 3d a0 10 b8 3e 3b 85 25 3f f1 fd 6b 3e
       0.057796188 0.35950184 0.6465642 0.2304609
000060 7e cc 1c 3f bb c7 24 3f 27 c7 66 3d a8 38 6b 3e
       0.6124953 0.64367265 0.05634227 0.22970831
000070 19 e2 0f 3f 39 43 de bd ad 77 34 bd 49 d7 a6 3d
       0.5620437 -0.108526655 -0.044059444 0.08146531
000080 5d 1c 9a 3c 29 c4 29 3f 68 d3 43 3c 3c bf 2f 3f
       0.018812353 0.6631494 0.011952259 0.68651175
000090 fc b8 08 3f e9 e6 4a bc 47 bf 16 3f 69 c2 c0 3d
       0.53407264 -0.012384155 0.58885616 0.09412081
0000a0 83 dd 15 bd 3c 01 a4 3e c1 cf 7a 3e 46 aa 1f 3f
       -0.036588203 0.32032192 0.24493314 0.6236919
0000b0 72 3e 2e be c3 99 38 3f af 96 07 3f ed 25 5c bd
       -0.17016008 0.7210962 0.529643 -0.053747106
0000c0 de d9 d8 3e 20 9a 3d 3d 5a e3 09 3f 62 35 d7 3e
       0.4235372 0.046289563 0.53862536 0.42032915
0000d0 36 29 28 3e 14 eb 7a 3e 32 3d c0 3e 55 42 16 3f
       0.1642197 0.24503738 0.37546688 0.58694965
0000e0 74 21 04 3f 87 fa d5 3e 1c 1e 03 3f a3 e7 f2 3e
       0.51613545 0.417927 0.5121782 0.4744235
0000f0 6a 4b c9 3e 77 31 0c 3f c3 92 12 3f 5e a3 f7 3e
       0.3931535 0.5476298 0.5725519 0.48366827
000100 c4 15 ce 3b 30 26 1e 3f 5b 07 0d 3f eb 1e 63 3e
       0.0062892158 0.6177702 0.5508935 0.22179763
000110 38 da 2b be 75 38 21 3c c2 3b 3d 3e 3d c9 93 3e
       -0.16782463 0.009840121 0.18479827 0.2886447
000120 9a 97 50 be 1c 58 92 3e 12 e4 73 3e c8 6a 06 bc
       -0.20370331 0.28582847 0.2381747 -0.00820417
000130 64 da 31 3f 27 0c 13 3f ab c2 0b 3f b1 a8 b5 3e
       0.6947386 0.5744042 0.54593915 0.35480264
000140 4c 04 f5 3e 61 a4 3e be 56 61 0e 3f 43 b8 f1 3e
       0.4785484 -0.18617393 0.5561727 0.47210893
000150 7b 0c 23 3e 6d ee 34 be 46 7b 19 3f 50 32 de 3e
       0.1592273 -0.17669077 0.59953725 0.4339776
000160 85 54 0d 3f 1a ee 06 be d4 3c 6d 3e a3 ac 1f 3f
       0.5520709 -0.13176766 0.23167735 0.623728
000170 cd 11 eb 3e f1 44 59 3e 50 c9 e7 3c f1 1d fc 3c
       0.45912018 0.21217705 0.028294235 0.030775996
000180 13 28 c9 3e f2 51 09 3e 4f 91 13 bd d0 a0 2d 3f
       0.39288387 0.13410166 -0.03602725 0.67823505
000190 47 6a ad 3e 9c f4 2a 3f 69 e5 46 3c 77 09 5f 3e
       0.33870146 0.66779494 0.012139657 0.21780954
0001a0 40 bd 10 3f 1e 24 22 be b6 89 5f bd e2 eb 14 3f
       0.5653877 -0.1583409 -0.05457469 0.5817243
0001b0 b9 7f 11 3f e7 0c eb 3d c8 49 96 3e 7e 81 62 3c
       0.56835514 0.1147707 0.29353166 0.013824819
0001c0 14 9f a8 3e 70 31 1a 3f d4 ea fb 3e 3c 67 04 3f
       0.32933867 0.60231686 0.49202597 0.51720023
0001d0 7d dd a9 3d ac 97 a2 3d c2 aa 97 3e 51 b5 2a be
       0.08294199 0.07939085 0.29622465 -0.16670729
0001e0 ef 03 52 3d fe 0c 89 be 93 69 f5 3e 5b 32 09 3f
       0.051273283 -0.26767725 0.4793211 0.5359246
0001f0 72 dc 1c 3f c6 0b 91 be b4 7c 2c 3f c9 3b 18 be
       0.6127387 -0.28329295 0.6737778 -0.14866556
000200 2a df 81 bc 5a 83 ec 3e 39 0b 75 3e 92 c5 4b 3e
       -0.015853483 0.46193963 0.23930062 0.19899586
000210 95 95 99 3e 52 f0 3c 3e d9 09 14 3f 65 2c 24 be
       0.29996935 0.1845105 0.57827526 -0.1603256
000220 34 40 65 3e 80 b3 0b be 9e bd a6 3e d8 34 24 3f
       0.22387773 -0.13642693 0.3256654 0.64143133
000230 04 d0 77 3e 04 98 85 3e bd cb 8e 3e d5 8e 89 bd
       0.24200445 0.2609254 0.27889815 -0.06716696
000240 ef ce d7 3e 63 10 73 3e e1 bb 51 3e f4 33 20 3f
       0.42150065 0.2373672 0.20481826 0.62579274
000250 74 79 83 3e b2 fa 18 3f 5b e3 b4 3e 25 ba f2 3e
       0.256786 0.5975753 0.35329708 0.47407642
000260 3f 95 f9 3e 27 c4 27 3f 7a 13 0b 3f 4e 47 ad 3e
       0.48746678 0.6553368 0.54326594 0.33843464
000270 cd 29 1c be 4e 9d ff 3e 15 aa ae 3e ce 54 d7 3e
       -0.1525032 0.499247 0.34114137 0.42056888
000280 40 34 0d 3f 5e db a5 bd 20 db 24 3e af 67 1b 3f
       0.5515785 -0.080984816 0.16099215 0.60705084
000290 af af 09 3e 20 52 0e 3f 68 a5 2d 3f c0 67 13 3f
       0.13445924 0.5559406 0.67830515 0.57580185
0002a0 20 59 0c be ec 1f 6c 3e b5 ea 27 be f0 76 20 3f
       -0.13705873 0.23059052 -0.16398127 0.62681484
0002b0 0f 43 4d 3e 84 d3 11 be e1 4a 85 3e 88 7f 05 3e
       0.20045112 -0.14240843 0.2603369 0.1303693
0002c0 ea 6b fa 3e 0e e6 a4 3e 87 b5 a7 3e 2d 65 86 3d
       0.48910457 0.32206768 0.32755682 0.065622665
0002d0 32 1c ae bd 28 81 08 be ec 0f 0a 3f 8a 1f 44 3e
       -0.085014716 -0.13330519 0.53930545 0.19152656
0002e0 88 08 27 3f 7c 80 60 bd 00 f8 f7 3e 55 dc a6 3e
       0.6524739 -0.054810032 0.48431396 0.32589975
0002f0 67 c4 d0 3e 94 5e b6 3e e4 41 93 3e b7 8a e4 3c
       0.40774843 0.35619032 0.28761208 0.027898176
000300 62 21 25 bd 30 65 d3 3e 43 54 e0 3e 93 c7 f5 3d
       -0.04031504 0.41288137 0.43814287 0.120009564
000310 6c 78 ac 3d df e8 48 3e fa 15 f2 3e 46 c5 d4 3e
       0.08421406 0.19620083 0.47282392 0.41556758
000320 48 4c a5 3e bb fc eb bd 1b b5 37 3f 11 06 44 3e
       0.3228476 -0.11522814 0.7176072 0.19142939
000330 81 16 1c 3e 77 0f 20 3f 5e f4 f2 3d 35 78 11 3f
       0.1524296 0.625236 0.118630156 0.56824046
000340 f5 93 fd 3e 1c 91 aa 3e da be e1 3e 0b 8a 11 3f
       0.49526945 0.33313835 0.4409092 0.5685126
000350 0e b9 e0 3e 93 0b 4c 3e 39 2c 12 3f 3f be f0 3e
       0.43891186 0.1992629 0.5709873 0.47020146
000360 51 39 52 3e 50 b1 a9 3d a3 ff 18 be 98 4e 38 3f
       0.20529677 0.08285773 -0.14941268 0.71994925
000370 5b 7d e4 3e e2 7c dc 3e bb 5c 29 3f c9 04 14 3d
       0.4462689 0.43064028 0.6615712 0.036137376
000380 77 13 44 3c 3d 80 0d 3f 11 7d 1a 3f 50 19 29 3f
       0.011967531 0.552738 0.60347086 0.6605425
000390 89 43 9c bd 55 49 12 be b2 d4 46 3f 96 7d 89 bd
       -0.07630069 -0.14285786 0.776683 -0.06713407
0003a0 22 41 2d 3e 9e 65 33 3f 52 98 18 3e a4 72 24 3f
       0.16919377 0.7007693 0.14901856 0.6423743
0003b0 38 24 16 bd 25 47 0a be f5 08 00 3f 3d 72 03 3f
       -0.036655635 -0.13503702 0.5001367 0.5134619
0003c0 a7 b6 97 3e d4 4d ea bd 90 f6 d2 3e 90 eb 3b be
       0.2963154 -0.11440626 0.41203737 -0.18351579
0003d0 7b 6a 13 3e f0 b9 2d 3f 0e 6b f3 3d 80 43 34 3e
       0.14396088 0.67861843 0.118856534 0.17603874
0003e0 b4 59 65 3e b5 17 da 3d b0 00 34 3f fb a0 0c 3e
       0.223975 0.10649053 0.7031355 0.13733284
0003f0 44 f0 1c 3e 75 f0 e2 3e e0 28 a0 3e e1 93 c8 3d
       0.15326029 0.4432408 0.31281185 0.09793831
