server/policies/checkpoints/policy_2_110/model.pt (torch, 338258 bytes, 11 tensors)

actor.fc1.weight f4 [256, 21]
00000000: 38e5 4abe 3db1 163e 9bee e6bd f02b 203e
00000010: 75d5 e93d df52 c1bc 6701 3e3b 4618 9ebd
00000020: e45f 23be ea5b 093e 3c62 fb3c a21c d2bb
00000030: cd40 223e 7112 513e c480 b03c b056 ca3d
00000040: 3434 ddbd a917 593d 7e86 763d cde2 38bd
00000050: 3f34 17be 62fd d9bc a31f af3d bd55 c0bc
00000060: 8c5f 3ebe 7d84 04be fa06 e3bd e435 3a3e
00000070: d3af 5fbc 35f3 6ebc f55a 783d 820a febd
00000080: 4328 99bc 289a f03c aaa5 53be ad3e 4abe
00000090: ceae 13be d169 023d 4d55 f93d e159 ee3d
000000a0: df42 70bd 9202 df3d 1bb6 b4bd 0fba 5dbe
000000b0: 1902 35be 1296 50bd b439 9bba 6e63 3cbd
000000c0: cf1a e4bc 113c 26be d82e 0cbe f0e4 953d
000000d0: a2eb 47bd 6b3d d3bd e22f 12bd 796f 2bbe
000000e0: 62f4 e3bc 474e dc3c 7fb3 123e a88a 53be
000000f0: ce97 92bd 51ca 28be 3db4 c0bd a0ce 363e
00000100: 64eb 19be 5953 27be 3c91 e43c 5dd5 adbd
00000110: 6d9f f83d 00a3 5abe 3cd7 363e 077c 48bd
00000120: 8934 2cbe 8fd0 ff3d 4b82 4fbd c5d8 383e
00000130: d18f 173e 86de f73c 6aef 12be 9fb2 febd
00000140: 0ebf 7d3d c6a0 3dbd 6618 9a3c 6dcd 28be
00000150: f272 5fbe de43 09be b609 43be b17d df3d
00000160: 9baa 49bd f319 dcbd fa0d 26bd d47c 9ebd
00000170: 927d 933d 299d debd 3114 1cbe f8ae 243e
00000180: b9bc f7bd 5ff5 1a3d 4c27 ebbd 0222 e4bd
00000190: 62bb d0bd b47e 583e 6d8c 22be 5b6a 14bd
000001a0: 20e1 3dbd 99d0 f6bc 2534 e1bd 3a52 90bc
000001b0: 060a 563e 5344 983d f479 2ebb 5d25 c0bd
000001c0: ded4 a7bd d4ad 48be 09d1 0b3e 4cdf 1e3e
000001d0: 97d8 9fbc 65d4 28bc 8111 4b3e 6eb5 24bd
000001e0: 5a9e 48be 0a50 433e 15c3 5dbe d399 5f3e
000001f0: 58d3 0b3e d113 b83d a2f5 123e 8a02 543e
00000200: b44b ec3d 8d84 313e 8865 36be e29e 0bbe
00000210: d5fa 8bbd ab2b 383d a41b a6bc 9f70 2d3e
00000220: 8ce6 2dbe 373f 02be 6439 5b3d 8dac 5a3e
00000230: e7a9 103e 0c82 7abd 11f2 c4bd 797a 813d
00000240: f3b2 4dbe c851 3f3e 3e88 493e 7c22 003e
00000250: 7d8e 1e3e d722 543e 7e8f f7bc bb6e 0abe
00000260: 6cbe c8bd 9460 d93c 60dc 273e 431d 9d3d
00000270: 437f 583e c364 1cbe 9453 d5bd 4bad 003e
00000280: 7488 4ebe 049a 123e b3d4 f1bc 433a 3c3e
00000290: 70dd 03be 1150 1f3e 3a9a 063e b2c1 333e
000002a0: d933 123e 3ff5 ae3d 80b3 1e3d 9221 4f3d
000002b0: e703 443e 476a e7bd 419d 503e d2ba 943d
000002c0: d5ac 453e e192 fb3d 3f5b e6bd a590 ecbd
000002d0: 7b3b b43d 37b6 42be 9227 2abd 66c7 98bd
000002e0: ae16 573e e958 12be 2af4 25be 7312 bb3d
000002f0: 72b4 ef3c e508 83bc cb07 e5bd 5d93 f53d
00000300: 01d1 98bd 923f 42be e3cd 013e daef 083e
00000310: 5adb 38bd f001 4b3e bc26 2bbe 5bf7 c33d
00000320: b06a ee3c fd06 56be 9082 c5bc 78bc 3d3e
00000330: 18b3 c73d eaec bcbc 74b5 413e 829f 173e
00000340: 586e 423e f89e f9bd b2e1 5dbe 037f 01bc
00000350: 030c 47be 3b28 d23d ca54 d9bd dec8 183c
00000360: 10a7 573e 620f 34be e6bd 2f3e 7cd2 c43d
00000370: 29c5 873d 4d0c fbbc 66a6 01be 5739 5bbe
00000380: 0b7e 96bd 5034 12be be8a c23d b351 26bd
00000390: c4bf 25be c8db 3ebe 5ddc 1c3d b616 47be
000003a0: 48f0 f53d c275 a1bd 0eef d7bd 37fb 4a3e
000003b0: 838a 47be 0038 cf3c 4282 2a3e 555e 193e
000003c0: b455 34be c36e 093e 0623 5abd a4ed 3bbe
000003d0: 9f0e 7dbb d48e 123e ca82 853d fd5f ca3c
000003e0: fe71 11bd ddf1 90bc a2de 5dbe 68c0 e6bd
000003f0: cd42 7dbd 4938 423e 9a83 19be b7bb e23b
-0.19814003 0.14716049 -0.11275979 0.15641761 0.11417667 -0.023599086 0.0028992535 -0.077194735
-0.15954548 0.13413969 0.03068649 -0.0064121047 0.15845032 0.20417191 0.021545775 0.098798156
-0.108009726 0.05300108 0.060186855 -0.04513817 -0.14766024 -0.02661008 0.08550956 -0.023478383
-0.18591136 -0.12941165 -0.11085315 0.1818462 -0.01365276 -0.014584352 0.06063362 -0.12404348
-0.018695956 0.029370382 -0.20668665 -0.19750471 -0.14422151 0.031839196 0.12174473 0.11638237
-0.058657523 0.10889162 -0.08823796 -0.21653007 -0.17676581 -0.05092437 -0.0011842758 -0.04599326
-0.027844815 -0.16233851 -0.13689744 0.07319057 -0.0488087 -0.10314449 -0.035690196 -0.16741742
-0.027826492 0.026892794 0.14326285 -0.20658362 -0.07157861 -0.16483428 -0.09409378 0.17852259
-0.150312 -0.16340388 0.027901284 -0.084879614 0.12139783 -0.21351242 0.17855543 -0.048946407
-0.16816916 0.12490951 -0.050661366 0.18051441 0.14800955 0.030257475 -0.14349142 -0.12436413
0.061949782 -0.046295904 0.018810462 -0.16484614 -0.21821192 -0.13404796 -0.19046673 0.109126456
-0.049234968 -0.10747137 -0.040540673 -0.07738653 0.07201685 -0.1086982 -0.15242077 0.1608237
-0.12096543 0.03783166 -0.11482105 -0.11139299 -0.101919904 0.21142083 -0.1587388 -0.03623424
-0.046357274 -0.030128764 -0.10996274 -0.017617334 0.20902261 0.07434907 -0.0026622983 -0.093821265
-0.08194898 -0.1959756 0.1365396 0.15514868 -0.019512458 -0.010304545 0.19830896 -0.040212087
-0.19591656 0.19073501 -0.21656449 0.21836023 0.1365484 0.08988155 0.14351514 0.20704094
0.11537877 0.1733572 -0.17812169 -0.13634828 -0.06834952 0.04496352 -0.020276852 0.16937493
-0.16982478 -0.12719427 0.05352153 0.21354885 0.14127313 -0.06115918 -0.09616483 0.06322188
-0.20087795 0.18683541 0.19680879 0.12513155 0.15484042 0.20716415 -0.03021979 -0.13518803
-0.09801945 0.02653531 0.1639266 0.07671597 0.21142296 -0.15272813 -0.10416332 0.12566106
-0.2016924 0.14316565 -0.029520368 0.183816 -0.1287744 0.15557887 0.1314477 0.17554358
0.14277591 0.08542871 0.038745403 0.050569125 0.19142114 -0.11299568 0.20372488 0.07262196
0.19304211 0.12283874 -0.112478726 -0.11551026 0.088004075 -0.19014822 -0.041541643 -0.07459907
0.21004745 -0.14291729 -0.16206422 0.09134378 0.029260848 -0.015995452 -0.11183127 0.11990998
-0.07461739 -0.18969563 0.12676196 0.13372746 -0.045131065 0.19824958 -0.16713995 0.09568664
0.029103607 -0.20901103 -0.024110109 0.18528926 0.09750956 -0.023062188 0.18916875 0.14806941
0.18987405 -0.12188524 -0.21668127 -0.007903817 -0.19438176 0.102615796 -0.10611875 0.009325234
0.21059823 -0.17583993 0.17162284 0.09610459 0.06629402 -0.030645514 -0.12661132 -0.21408592
-0.073482595 -0.14277768 0.09499119 -0.04060526 -0.16186434 -0.18638527 0.038296092 -0.19442257
0.12008721 -0.07883789 -0.10543643 0.19822393 -0.19486432 0.025295258 0.16651252 0.14977391
-0.17610818 0.13421158 -0.053256057 -0.18352371 -0.0038613451 0.14312297 0.06519087 0.024703974
-0.035509102 -0.017693454 -0.21666959 -0.11267167 -0.061831284 0.18966784 -0.14991608 0.00691935

actor.fc1.bias f4 [256]
00000000: 6c87 1b3d 2581 2dbe f248 733d 3e04 4a3e
00000010: 065c 22be 8feb 0a3e d289 c33a b9cf 48bd
00000020: 1b0f 273e c62d ddbd 6763 603d fa8e 9f3c
00000030: 915d 1b3e 1dff fcbd 6d0f 56be 8555 b5bc
00000040: 7d52 1d3e f1d1 ddbd 108d 09be 29ef b5bd
00000050: 04ab 033e 1b02 0cbd a7e8 fe3d cc06 7a3c
00000060: f00b cebd 0810 e93d a61f b2bd 9668 68bd
00000070: db4c ab3d 5295 6e3d 357b 63bd 18ac 56be
00000080: 356f 61bc a884 033e fd6d 5dbe c63c e63d
00000090: 8b3a 50be dcd8 35be 7271 013e a0c6 12be
000000a0: 09ce c0bd b6ce f0bd d510 08be e7c5 613d
000000b0: 5520 57bc 2db0 15be 5e57 cf3d 62f3 67bd
000000c0: 9c6b 4b3e 4096 63bc 8b44 0bbe 2929 23be
000000d0: a771 50be 7d2e 87bd a76d 4e3e 33cf 1f3d
000000e0: 79a9 ddbd 86db 273d a066 b83d 0a65 3ebd
000000f0: 4be5 94bd 7c0b ba3d f3f3 063e 38dd d0bd
00000100: 7cdf 963d e8ba ac3b 203c e5bc d2f7 00be
00000110: 3405 113e 5f40 ecbd 5c99 43bb 5665 5abe
00000120: 460d 26be cfc9 913c 4343 713d 00d3 013e
00000130: 674d 3b3e 7b32 083e ef6d 853c c5e1 2bbe
00000140: 2a17 d2bd af2b 343e d45e a93d 2f20 4c3e
00000150: 4ce6 da3b 038d 1b3e a6e8 313e f350 6c3d
00000160: 5c6c 49be 057f cdbd 276e 2b3e 33be 12be
00000170: 5d74 be3d 141a 4fbe 0ad7 54bd d737 03be
00000180: a315 4cbe fbfe 723d 06ef 043e 446f 4dbe
00000190: 2a79 853d 6e69 a83c 76f7 5dbc b250 14be
000001a0: 5e3d fdbd 454e 40be f935 5ebd 0279 8cbd
000001b0: 53e5 4f3e 7fce d8bd 9421 463d 1871 d23d
000001c0: 2150 433d dcf8 9a3d cbab 3bbe dd58 93bc
000001d0: d9af 513e b836 733d 0920 213c 5d58 07be
000001e0: 217b 243e fc09 233e a8ae debc 1342 54be
000001f0: 3f0b 183e 1487 14bc 76bb 11bc 2a64 4d3e
00000200: 0452 54bc 3eeb 283d ac9d 02be 78e7 9a3d
00000210: 5326 27be 9c6a 5d3e c61d abba a6be 363e
00000220: f925 ccbd af85 433e d53b 06be 5e4e cf3b
00000230: 4beb 09be f9e8 a63c 13f0 cfbd e98e 5cbe
00000240: db6e d73d 1a48 d0bc a2b3 e83d 82c1 26ba
00000250: e9f0 4dbe 232e f3bd 0bab 53be 9b56 013e
00000260: 8c28 a8bd 46b7 df3d f0d2 d03d 1201 babc
00000270: 1fa1 ecbd e169 cabd 5554 103d ade4 45bd
00000280: 3f9c 1bbe 03a1 e2bd b1ec 1cbe 675e 8a3d
00000290: 24a2 a33d 792f e7bd d85e 31b9 1454 a5bd
000002a0: 082c 38be 2bd0 533e 3933 a4bc d5e7 f6bd
000002b0: 1223 38be 6593 533e 78c6 9ebd 31fb 543e
000002c0: 8c40 153d d057 173e a7cc c7bc 2ca8 5bbe
000002d0: 6615 1e3e 6280 0c3e ce32 043d 9703 fb3d
000002e0: 18ea 223e 3b09 f8bc 0f71 563e ca19 9e3d
000002f0: 4515 07be ca3d c4bd 328d 8a3c fbf3 8dbd
00000300: 7958 40be 6981 1c3e 495a 66ba f2dd 713d
00000310: 95ec d73d 9c54 323d 0ddf 92bd f5e2 323e
00000320: 93fa 40be 4c8c 393d 9717 3fbe 9483 c43d
00000330: 6b1b 12be 1aff 493c 2279 413d e233 583e
00000340: e28b 1e3e 37b1 57be 820a f7bd ea9f ceba
00000350: 8616 8dbd c161 153e 445d 25bd c5de 38be
00000360: 1982 f73d 5c06 d3bd a27f 3e3d 4e34 bd3b
00000370: 2440 53be 6634 00bd 6546 bd3d 43b2 013d
00000380: f93d aa3c 341a 1bbe fc25 233e 4adc 90bd
00000390: ac29 febd 9cc3 47be 1e5d 173e 114c 3f3e
000003a0: 2738 f2bc 61d9 23be 802b 4e3d 13b2 0fbe
000003b0: 1103 56be f5ba 583e 9f58 fc3d 139b 193e
000003c0: 8931 293e 5d42 50bd 5d08 c43d ed84 403e
000003d0: 7750 2bbd ec91 a5bd a631 5e3e fb14 4abe
000003e0: 9bcf b63d 3476 fabd dce6 bc3c a6f6 23be
000003f0: bba4 583e 11d0 4dbd 6750 0abd 8513 34be
0.037970945 -0.16943796 0.059395738 0.19728181 -0.15855417 0.13566421 0.0014918393 -0.049026225
0.16314356 -0.10799746 0.054782297 0.019477356 0.15172412 -0.123533465 -0.20904322 -0.022135505
0.15363498 -0.10831059 -0.13432717 -0.08883507 0.12858206 -0.034181695 0.12446719 0.01526041
-0.10060871 0.11380011 -0.08697443 -0.056740366 0.083642684 0.05824787 -0.05553742 -0.20964086
-0.013759424 0.12843573 -0.21623988 0.1124206 -0.20334832 -0.17758507 0.12640932 -0.14333582
-0.09414298 -0.11758177 -0.13287671 0.055120375 -0.013130267 -0.14617987 0.10124086 -0.056628592
0.19865268 -0.013890803 -0.13600366 -0.1593367 -0.20355855 -0.06600664 0.20159017 0.03901596
-0.1082334 0.04098084 0.09003949 -0.046483077 -0.07270297 0.09084222 0.13178997 -0.10198444
0.07366845 0.0052713044 -0.027982771 -0.12594536 0.14162141 -0.11535715 -0.0029846048 -0.21327719
-0.16216001 0.017796425 0.058902036 0.12678146 0.18291245 0.13300507 0.016287772 -0.16785343
-0.102583244 0.17594789 0.0827004 0.19934152 0.0066802856 0.1519051 0.17373905 0.057694387
-0.19670242 -0.10033993 0.16741239 -0.14330368 0.09299538 -0.20224792 -0.05196289 -0.1281427
-0.19930129 0.0593252 0.12981805 -0.20061976 0.06517251 0.020558085 -0.013547769 -0.14483908
-0.123652205 -0.18779857 -0.05425069 -0.06859018 0.20302324 -0.10586261 0.048371866 0.10275477
0.04768384 0.075669974 -0.18327253 -0.01798671 0.20477237 0.059378356 0.009834298 -0.13217302
0.16062595 0.15921777 -0.027182892 -0.2072833 0.1484804 -0.009065408 -0.008894792 0.20057741
-0.012959007 0.04123997 -0.1275546 0.075636804 -0.16323213 0.216227 -0.0013055138 0.17846164
-0.0996818 0.19093965 -0.13108762 0.006326481 -0.13468663 0.020374762 -0.101532124 -0.21538891
0.10519191 -0.025425006 0.11362387 -0.00063612324 -0.20111431 -0.11874034 -0.20670716 0.12630694
-0.08210859 0.109236285 0.10196483 -0.022705588 -0.11554169 -0.09883476 0.035236675 -0.048313785
-0.15196322 -0.11065867 -0.15324666 0.06756287 0.0798991 -0.112883516 -0.00016915367 -0.08072677
-0.17985547 0.20684879 -0.020043956 -0.12055937 -0.17982128 0.20661695 -0.07752699 0.20798947
0.03643851 0.14779592 -0.024389578 -0.21450871 0.1543785 0.13720849 0.032275014 0.12256544
0.15909612 -0.030277839 0.20941566 0.077197626 -0.13191707 -0.09582098 0.01691303 -0.06931301
-0.1878375 0.15283741 -0.0008787257 0.059049554 0.10543171 0.04353772 -0.0717145 0.1746939
-0.18845586 0.045299813 -0.18661343 0.09595409 -0.14268272 0.012328887 0.047234662 0.21113542
0.15483049 -0.21063696 -0.12062551 -0.0015764211 -0.06889062 0.14588071 -0.04037215 -0.1805373
0.12085361 -0.10303947 0.04650844 0.0057740575 -0.20629936 -0.03129997 0.09241942 0.031664144
0.020781504 -0.15146714 0.15932459 -0.07073267 -0.12410292 -0.19508213 0.14781615 0.18681361
-0.029567791 -0.16000892 0.050334454 -0.14032774 -0.20899607 0.21165068 0.12321591 0.15000562
0.16522802 -0.05084454 0.09571908 0.18800707 -0.041824784 -0.08084473 0.21698627 -0.19734566
0.08926316 -0.12229577 0.023059301 -0.16012058 0.2115659 -0.050247256 -0.033768084 -0.17585571

actor.fc2.weight f4 [128, 256]
00000000: 2c5d ccbc 6088 ebbc 11b1 6bbd 8109 533d
00000010: 63a3 4fbd 463b cc3c e6c3 7cbd 427d 29bd
00000020: a903 9fbc 8673 623d 57e8 ddbc 936d afbb
00000030: 3042 803d d730 423d 30ca 38bd f1b6 573c
00000040: c658 35bd 673d 86bc 42cc b03c bc2f c0bc
00000050: 2ed3 4b3d a72c d4bc ab52 943c ffe8 56bd
00000060: cc00 5c3d 3eb7 183b 16db 073d 8c87 aeba
00000070: d8c8 67ba c6d7 2c3b f8c1 2b3d b5f7 b43c
00000080: 0233 dbbc e883 78bd bd4e e93c 906c 233b
00000090: 83ac b23c d564 efbb 8b5a 953c fa7c 533d
000000a0: 1fed 78bd 553d e63c 7573 1c3d ad91 003d
000000b0: 3fca 32bd bb9e 1a3d c7a1 60bc 57b6 b8bc
000000c0: 6b27 463d a253 19bd 5f83 f4bb a5ae 3b3d
000000d0: efb3 a93c 3fd0 1b3d bc82 9fbc 1631 3c3c
000000e0: 68a3 c23b 650b 713d 109d b1bb a4b9 02bd
000000f0: 589c 6e3d 8031 c3bc af6a 343d 1c0f 193d
00000100: 43e7 6a3d c2f3 e8bc 963f 9dbb 1e6d 28bd
00000110: f2fe 71bd b30f 11bd f7ef 3a3d 521e d9bc
00000120: 6e11 363d 462f b13c 293b 3f3d 298f 683d
00000130: 8769 0e3c d7b3 7abd 86f8 69bd 4039 3f3d
00000140: 9666 8abc 4c10 6bbd 5c23 473d 4137 3d3d
00000150: c70b 243d 44fa 573d 4d1e 5cbc a2a8 803b
00000160: 1299 30bd fdba c93c b49b 6d3d af6f 7d3d
00000170: 8f0b 3fbd f695 f0bc de75 1e3d 3896 0abd
00000180: 0809 58bd c507 38bd cc8a 1fbd 30cf 663d
00000190: 9b09 4bbd f3bc 07bd c356 59bd 94a4 53bd
000001a0: be97 2c3c 4ec0 243c dc04 613d 0d5f 653d
000001b0: f578 55bd 864b 0abd 9876 6cbd be5f 743d
000001c0: b76c 59bd 49d3 7c3c 6414 e8bc 7f23 89bc
000001d0: 936f 113d 3360 7a3d 7788 b13c 56e5 1abc
000001e0: 2728 abbc 53bd 0d3d 4e3d 6dbb 96a1 5cbd
000001f0: 20e5 483d a06d 713b a1bc 073d 06a4 3fbd
00000200: 2d5f 0d3d 39cc 633c 0231 41bd fdbe e3ba
00000210: 693b 84bc 3a91 b9bc 629d 3c3d 6fd3 6cbd
00000220: 59d2 b5bc f8a1 53bd 58ed 11bd d1d3 6e3d
00000230: 5929 b43c 61c0 483d 71de 15bd f6f9 3b3b
00000240: 72c2 623d ea48 0e3d 0844 573d 9aff 073d
00000250: a261 ff3c c81b 12bc edfe 7c3d 0d1b 5a3d
00000260: ab1d 6a3c 3296 24bd 7690 c93c 246b 4e3d
00000270: da75 26bc b0db a83c 4733 27bd 9ca0 9e3c
00000280: 576e 383d 162d 3c3a 1879 57bd 385e 67bd
00000290: fbf9 44bd 9c09 703d 26bb 663d 9509 ecbc
000002a0: 56c5 173d 000b 433d 5cf3 6dbd dc66 e13c
000002b0: adf3 07bc 4eea 633d 58be 34bd b7af d4bb
000002c0: 2948 463d a22e 483d bbb5 3ebc d7de f6bc
000002d0: 0a80 e4bc d4e5 803d 65a3 1f3d 55d2 afbc
000002e0: babc 2e3b 7aff 0dbc 5868 d8bc 788b d1bc
000002f0: eef3 1d3d b95d 1a3d d1f5 273d 6fd7 1abd
00000300: 526a c63a 23b4 fa3c 8ca7 e63c ff13 7c3c
00000310: dd26 34bd 33f5 11bd fe9d 3ebd c161 023d
00000320: d92c aebc 6a64 60bd d512 2bbd 4668 25bc
00000330: 4581 4f3c d46d 4ebd e827 203b 0254 c4bb
00000340: 1152 38bd 061a 0c3d 64ba fe3b 4cf8 2ebd
00000350: 0a1b 263d b00a e43c d31a 143d ad35 97bc
00000360: 17ff d03b 687c 2bbd 1793 38bd 2324 dcbc
00000370: f735 7dbd 1acd 01bd cfb0 543d e2ed cabc
00000380: 6498 72bd e7e4 78bc 46ec 783c 5304 4cbd
00000390: 8e76 13bd ac88 b0bc 40ad 05bd e05b 253d
000003a0: ee8c ed3b 50ed 2bbd e7cf 25bd 75da 2dbd
000003b0: 6afc f63c 4af5 bfbb 894c f8bc be0b e13c
000003c0: 9c7d 13bb 908b f93a cc6b febc 0f38 49bd
000003d0: f389 573c e404 4cbd d4fe 333d 47b1 d33c
000003e0: aeb0 383d dd2b 263d 126a 3fbc 9b49 5abd
000003f0: cc09 703d 6264 3c3d 0dbe 093d 8de4 ca3c
-0.024946772 -0.028751552 -0.05754191 0.051522736 -0.050692927 0.024930608 -0.06171026 -0.04137922
-0.019410925 0.055285953 -0.027088327 -0.0053536384 0.06262624 0.04740986 -0.045114696 0.013166175
-0.044274114 -0.0163867 0.021581773 -0.023460262 0.049761944 -0.025900198 0.018105825 -0.052468296
0.053711697 0.002330258 0.03316792 -0.0013315543 -0.0008841879 0.0026373728 0.04193303 0.022090772
-0.02675772 -0.06067267 0.028479928 0.0024936534 0.021810776 -0.0073057213 0.01823165 0.05163286
-0.06077301 0.028105417 0.038196046 0.031388927 -0.04364991 0.037749033 -0.013710446 -0.022547884
0.048377436 -0.037433274 -0.0074619497 0.04582085 0.020715682 0.038040396 -0.019471519 0.011486312
0.0059398897 0.058848757 -0.0054203346 -0.031915322 0.05825457 -0.023827314 0.044047054 0.037367925
0.057349455 -0.028436545 -0.00479884 -0.041119687 -0.059081025 -0.035415363 0.045639005 -0.026503716
0.044450216 0.021628987 0.04668728 0.056777153 0.008692152 -0.061206665 -0.057121776 0.046685457
-0.01689462 -0.05738859 0.048617706 0.046195272 0.040050294 0.052728906 -0.013434959 0.0039263526
-0.04311473 0.024625296 0.05800982 0.061874088 -0.046641883 -0.029368382 0.038686626 -0.033834666
-0.052742988 -0.044929285 -0.038950726 0.056349933 -0.049569707 -0.03313918 -0.053061258 -0.051670626
0.010534225 0.010055615 0.054936275 0.05599885 -0.052117307 -0.03376343 -0.057730287 0.05966162
-0.053082194 0.015431234 -0.028330036 -0.016740559 0.035506796 0.0611269 0.021671517 -0.009454092
-0.02089317 0.03460438 -0.003619987 -0.053865038 0.049046636 0.0036839023 0.033138875 -0.046787284
0.034514595 0.013903671 -0.047165878 -0.0017375645 -0.01614161 -0.022652257 0.04604853 -0.057818826
-0.022195028 -0.051668137 -0.03562674 0.058307473 0.021992372 0.04901159 -0.03658909 0.0028682924
0.05536122 0.034737505 0.052555114 0.033202745 0.031174485 -0.008917756 0.061766554 0.053248454
0.0142893 -0.0401823 0.024605017 0.050395146 -0.010159934 0.020612568 -0.040820386 0.019363694
0.045027103 0.0007178349 -0.05260572 -0.05648634 -0.048089962 0.058602914 0.056330822 -0.028813163
0.03705343 0.047617912 -0.058093414 0.027514867 -0.008297843 0.055643372 -0.04412684 -0.0064906734
0.04840866 0.048872598 -0.011640008 -0.030135555 -0.027893085 0.06293836 0.038974185 -0.021462599
0.0026662783 -0.008666867 -0.026416942 -0.0255792 0.038562708 0.037687037 0.041005913 -0.03780311
0.0015137887 0.030603474 0.028156064 0.015385627 -0.043982375 -0.03563423 -0.04653739 0.031831507
-0.02126162 -0.054783262 -0.041766006 -0.0100956615 0.012665098 -0.05039771 0.0024437848 -0.00599146
-0.04500014 0.034204505 0.0077736843 -0.042717263 0.04055313 0.027837127 0.036158394 -0.018458212
0.0063780653 -0.04186669 -0.04506215 -0.0268727 -0.061819043 -0.03168974 0.05192643 -0.024771634
-0.059227362 -0.015191293 0.015193051 -0.04980881 -0.036001734 -0.021549545 -0.032635927 0.040370822
0.007249466 -0.041974366 -0.040481474 -0.042444665 0.030149657 -0.005858098 -0.030309932 0.02747142
-0.002250529 0.0019038785 -0.03105726 -0.049125727 0.013155448 -0.04980935 0.043944195 0.025841368
0.04509037 0.040569175 -0.011683004 -0.053292852 0.058603093 0.04599417 0.033628512 0.024767185

actor.fc2.bias f4 [128]
00000000: fbbc c93c 12c5 c83c 1cab 343c 0260 5bbd
00000010: 838b 803b 2254 13bd 2bc3 263c 93f6 493c
00000020: 5811 6e3d c2f5 21bd 4e48 6dbd 904d febb
00000030: 56c8 d23c 58cb 38bd 93a0 50bc 160e 37bd
00000040: 8710 293d 707f 51bd 2da1 253d 79ba 083d
00000050: e015 0dbd da4c f23c 4d78 073d 3425 4fbd
00000060: 97d9 193d ac60 76bc bd31 23bc bd0a 59bc
00000070: 58ae 5ebd acac 143c b646 3b3d f2c9 24ba
00000080: 4b8d 623d ffff 213c f907 7e3c e655 c33c
00000090: eb10 e6bb eb2b 953c 7b64 7b3d 3ca2 fb3c
000000a0: 28d9 673c 53a1 4bbd 8167 223d e9e2 653c
000000b0: 7adf dd3c 6ff9 76bd 4061 44bd f9b6 03bd
000000c0: 4aa4 4bbc c30a 32bd d743 c73c 55f6 d4bb
000000d0: fbe8 323d 384e 333d ba3a fc3b 160b 773d
000000e0: 5abe bebc 840d 463d ba55 4cbc 8b61 813c
000000f0: 3d64 573c 10e5 0d3b 90f9 743d 1f86 673d
00000100: 8832 833c 78bf a83c da08 523d 1f0e b9bc
00000110: 91e9 6ebd 40cc 40bd c9a7 573d 670c 013d
00000120: c802 4d3d 0389 09bd b48d c93c ce00 f1bc
00000130: 3909 f3bc 3b2a 62bd fa88 3bbc 7437 41bc
00000140: 893e 57bd b40b 75bd 5485 67bd 7853 583d
00000150: 28cf 663c 1554 d93c 6bd7 9f3c 887b 2abd
00000160: 91f9 02bd 44a8 253b e40c 6cbd f7a2 dd3b
00000170: 193f 6e3d 2788 0a3d 3f92 f43c fc4f ffbb
00000180: bb78 7c3d a5dd 823c c706 ee3b 21ed 12bd
00000190: ff7b 313d 7a12 73bd 03b7 04bd c7fc 65bd
000001a0: c509 37bd 7d69 cabc c89e 6fbc 91b7 2b3d
000001b0: 2293 44bb 1bf5 13bc dd9b 33bd 364c 78bd
000001c0: 5324 19bd 3b57 f53c 24d9 86bb 5693 713d
000001d0: 3bc2 5a3d 5633 483d 95a6 233d 8253 4ebd
000001e0: 7d8d 5a3b 4a72 5fbd 0528 7cbc 2959 2bbd
000001f0: c2ae 443c ac85 553d eb25 453d dc6d 8ebc
0.024626246 0.024508033 0.011027124 -0.053558357 0.003922881 -0.035968907 0.010178368 0.012326854
0.05812201 -0.039541014 -0.057930283 -0.007760711 0.025730293 -0.0451158 -0.012733596 -0.044691168
0.041275527 -0.051146924 0.040436912 0.03338096 -0.03444469 0.029577661 0.033073712 -0.05057259
0.037561025 -0.015037697 -0.009960589 -0.013247189 -0.054365486 0.009074371 0.045721732 -0.0006286196
0.05531053 0.009887694 0.0155048305 0.02384467 -0.0070210597 0.018209418 0.061375123 0.030717008
0.014150895 -0.049714398 0.03964949 0.01403115 0.027084101 -0.060296472 -0.047944307 -0.03215692
-0.012429306 -0.043467294 0.02432434 -0.0064990916 0.04367922 0.043775767 0.0076974304 0.060313307
-0.023284126 0.048352733 -0.012471611 0.015793582 0.013146457 0.0021651424 0.059808314 0.056524392
0.016015306 0.020599112 0.051277973 -0.022589741 -0.058328215 -0.047069788 0.052650247 0.03150597
0.05005148 -0.03357793 0.024603702 -0.029419329 -0.029667484 -0.055216055 -0.011446232 -0.011793006
-0.052549873 -0.059825614 -0.056523636 0.052813977 0.014087476 0.026529351 0.019511899 -0.041621715
-0.031976286 0.0025277296 -0.05762948 0.0067638117 0.058165643 0.03382125 0.029854892 -0.0077915173
0.061638575 0.015974829 0.0072639915 -0.035870675 0.043331143 -0.059343792 -0.032401096 -0.05614927
-0.04468705 -0.024708504 -0.014625259 0.04192311 -0.0029994925 -0.009030606 -0.043849815 -0.060619555
-0.037388157 0.029948821 -0.0041152406 0.0589784 0.05340789 0.048877083 0.039953787 -0.050372608
0.0033348494 -0.054552354 -0.015390401 -0.041833077 0.012004556 0.052129433 0.048131865 -0.01738637

actor.policy_head.weight f4 [50, 128]
00000000: 572a ac3d 0238 873d bd6c 00bc 9418 46bd
00000010: 2a4c dd3b 8dab 943c ca38 b4bd 3392 b43d
00000020: e07b a23d fe7c 2439 6247 ad3c 84e3 853c
00000030: c00d 023d 26f7 9f3d cf6d 223d 3757 43bd
00000040: a9f8 21bd 11dd 533d 7e01 ef3c d593 d9bc
00000050: 7974 aebd c46a 0b3d f4f0 a13d 3860 debb
00000060: 4225 973c 0a47 52bd f999 8e3d d66f b13d
00000070: 7e9b 8d3d 45d9 af3d 93f5 feba 69a2 6a3d
00000080: 2636 d73c f19b 21bd 84e0 8ebc a1af 57bd
00000090: 490d 8cbd 63d4 acbd aee3 903c b5d4 71bd
000000a0: a00d cebc 9b6c f43c 1403 3c3d b95f 5f3b
000000b0: 795e 883d a9d7 5bbd 1f1f 2b3d 924b a2bd
000000c0: 8d79 863d d97c b4bd d103 98bd 88ff 473d
000000d0: 376c 09bd 835a 753d dd8f 973c d204 8bbd
000000e0: 24f3 88bd a71e 65bd 22d5 d1bc a671 8e3d
000000f0: 9ff4 d4bc 22b8 313d 3f94 9e3d d5a8 5d3d
00000100: 53fc 113d f275 a6bd 8f01 0fbc e46e 6fbc
00000110: a6dd a4bd e71c 74bd 57d7 cd39 700f 46bd
00000120: 70f7 843c 6252 8cbd c2e6 9d3d 4d77 38bd
00000130: 731a 163d 9536 073d 68cf 903d 73c1 6d3d
00000140: 0897 88bd 4886 15bd 8b14 e63c d6a7 363d
00000150: 219f 70bd 36f5 75bd 9e4f d33c e256 893a
00000160: efc2 c83c 6bce a03d e963 853d c3e3 1a3d
00000170: fee7 8abd beb7 b33d 55a8 773c 60ef 923d
00000180: 4fcf ae3d c6b8 5e3c 5007 2fbd 1b24 98bd
00000190: 0e6d 2b3d bdde 803c df39 883d a899 6fbd
000001a0: 76ad a7bd afb6 aebd 0327 90bc c030 79bd
000001b0: a1f2 c63c f59d 953d 836d 213d 154b 713d
000001c0: 0f57 353d 39ba 563d 0ce3 a43d 0d79 6abd
000001d0: a980 8abd a38f c8bb 6c4e 18bd cb7c a9bd
000001e0: b845 aa3c 7ce0 193d d1a8 f73b d5cb b4bd
000001f0: 591a 8fbc 9122 f3bc 6261 953d df11 96bd
00000200: 6444 973c 52ab bb3b 7b42 9e3d b57f b43c
00000210: 9071 19bd ffe3 983c aa60 773a e77f 5ebd
00000220: ac85 af3d 3c4e a13c dbcb 96bd c2dc 4b3c
00000230: 87bd 35bb c67a be3c 415b 0e3d c0a0 1c3d
00000240: 4662 96bc e290 63bd ec65 08bc d3b5 63bc
00000250: f44a 41bd ec79 8db9 9be7 573d 7c30 6c3d
00000260: d783 9cbb 1ef0 063d 562e 49bd d023 7abd
00000270: 5f57 863c b747 a3bd a091 95bc b7d6 a1bc
00000280: c4cf 823d af76 b03d 7a32 44bd 9e71 9c3d
00000290: 22e3 773d b540 61bd 3710 973d 52f7 b3bd
000002a0: 9f64 89bd 4052 5fbd 4c37 81bc bc44 07bd
000002b0: c02c 62bc 14cb 8c3d f39c 2c3c f8bb 28bc
000002c0: c991 ae3c e7a6 b3bd 8d35 233c b109 acbd
000002d0: b8b0 23bd 6184 623b dec8 92bc 08b2 863d
000002e0: 0ef7 f93c 24a7 a4bc f2d7 a2bd 2ba0 2f3d
000002f0: 0e36 32bd 6059 53bd 1371 0a3d bfce 313d
00000300: d288 8f3d 0884 3e3d cca5 4dbc a42b 96bb
00000310: 204a 303d eb2f 853d d870 b4bd 3643 bbbc
00000320: 3437 853d f4ea 293c 5575 58bc cdf5 40bd
00000330: be34 65bd fb1b 50bd 40c6 a93d 3809 723d
00000340: 520d 713d ef2b e7bc 4e5d 983c beed 88bd
00000350: 3566 443d 9627 b03c d1a7 a1bc f293 b43d
00000360: fdc3 fcbc 4509 a43c d5ab 953d 6844 b7bc
00000370: f3f5 7f3d 3483 ac3d 5b97 ae3d 79ce af3c
00000380: b6ea 6a3c b107 873c b343 90bc c217 a73d
00000390: 9cde 0d3d 2662 e3bb 5bbc 6bbd 3b3a 673b
000003a0: a5d6 a6bd 1dbf debb e335 a03d 3e2a a6bc
000003b0: d023 8a3d 10c2 abbb f812 a8bd 51dd 513d
000003c0: 6cd5 a8bc f4bc 893c 6463 b13c 1f31 a43d
000003d0: 441b a0bd 3a33 7ebd 53da 82bd 8c55 a5bd
000003e0: 161a d2bc ea32 0a3d 289c a13d 0b57 68bd
000003f0: 2c77 53bd 4727 223d 9a08 403d 7e14 7eba
0.08406513 0.066024795 -0.007838425 -0.048363283 0.006753464 0.018148208 -0.08799894 0.08816948
0.079337835 0.00015686822 0.021152202 0.01634384 0.031751394 0.07810812 0.039655503 -0.047690596
-0.03954378 0.051724497 0.029175516 -0.02655975 -0.08518309 0.034037367 0.07907286 -0.0067863725
0.018450383 -0.05133728 0.06962962 0.08663909 0.069144234 0.08586363 -0.0019451849 0.057283793
0.026270937 -0.039455358 -0.017441042 -0.052657727 -0.068384714 -0.08438947 0.017686691 -0.059040744
-0.025152981 0.029836943 0.045901373 0.0034084155 0.06658644 -0.053672466 0.041777726 -0.0792457
0.06566153 -0.08812875 -0.07422603 0.048827678 -0.033550467 0.05990077 0.018501217 -0.06788029
-0.066870004 -0.055937435 -0.025614325 0.069552705 -0.02599555 0.043388493 0.077431194 0.05411609
0.035641026 -0.08127965 -0.008728399 -0.014613841 -0.080500886 -0.059597876 0.00039261088 -0.048354566
0.016231269 -0.06851651 0.07710029 -0.04503565 0.036646318 0.033011038 0.070708096 0.058045816
-0.06669432 -0.036505014 0.028085968 0.044593655 -0.058745507 -0.060048304 0.0257948 0.0010478164
0.024507014 0.07851871 0.06513197 0.037814867 -0.0678253 0.087752804 0.015115817 0.071745634
0.08535635 0.013593858 -0.042731583 -0.074287616 0.04185205 0.01573121 0.06651663 -0.058496147
-0.08187382 -0.08530938 -0.017596727 -0.060837507 0.024285616 0.073055185 0.03941108 0.058909494
0.04427248 0.05242369 0.08051118 -0.05724435 -0.06762821 -0.0061206385 -0.037184164 -0.082757555
0.020785198 0.0375676 0.0075579663 -0.088279404 -0.017468618 -0.029679568 0.07293965 -0.073276274
0.018465228 0.00572721 0.07727524 0.022033552 -0.037461817 0.018663405 0.00094367063 -0.054321196
0.08570418 0.019690625 -0.07363101 0.0124427695 -0.0027731375 0.023251902 0.034754995 0.03823924
-0.018357407 -0.055558093 -0.008325081 -0.013898331 -0.04719062 -0.00026984455 0.05271111 0.057663426
-0.0047764587 0.032943837 -0.049116455 -0.06106931 0.016399084 -0.07972663 -0.018257916 -0.019755704
0.063872844 0.08616387 -0.0478997 0.07638858 0.060519345 -0.05499335 0.073761396 -0.08787407
-0.06708645 -0.0545218 -0.015773438 -0.033024535 -0.013804615 0.068746716 0.0105354665 -0.0102987215
0.02130975 -0.087720685 0.009961498 -0.08400286 -0.039963454 0.0034563767 -0.017918047 0.065769255
0.030513313 -0.02009923 -0.079513445 0.042877357 -0.04350858 -0.051598907 0.033799242 0.04341006
0.07008518 0.046512634 -0.012551736 -0.004582839 0.04303944 0.0650328 -0.08810586 -0.022859197
0.0650467 0.010370959 -0.013211568 -0.047109414 -0.055958502 -0.050807934 0.08289766 0.059090823
0.058850594 -0.028219191 0.018599179 -0.06685971 0.047949035 0.021503251 -0.019733341 0.08817281
-0.030855173 0.020023951 0.07308165 -0.022371486 0.062490415 0.084234625 0.085249625 0.021460759
0.014338186 0.01648316 -0.017610407 0.08158828 0.034636125 -0.0069391904 -0.057552677 0.003528251
-0.08146409 -0.006797685 0.07822778 -0.020283815 0.06745112 -0.00524164 -0.08206743 0.051236454
-0.02060958 0.016813733 0.021653838 0.080171816 -0.078177005 -0.062060572 -0.06389298 -0.080729574
-0.025647204 0.03373996 0.078911126 -0.056723636 -0.051627323 0.03958824 0.046883203 -0.00096923846

actor.policy_head.bias f4 [50]
00000000: 689c 713d 9991 b23d 64e2 883c 9f69 22bd
00000010: 8f89 ee3c 85f7 09bd a8ff 57bc da1f aebd
00000020: 2f17 2e3c 7e55 093d 33c9 afbd ea12 a33d
00000030: 3ec6 013d ad4f 18bc 8782 003c c5ad 2c3d
00000040: 0bc9 723c 9616 93bd c8c8 f5bc 13da 903d
00000050: 8def 933d 74ee 0f3d 5177 17bd 6e4c 66bd
00000060: 8347 d7bc f542 9c3b 2375 053d 001d a03d
00000070: 1b88 a73c efc2 6f3d 40ab 45bc 5417 47bd
00000080: 7d62 61bc cae5 d8bc c187 a23d 5831 b4bd
00000090: 55a3 913d 6779 f9bc 0d0a ed3b 581f e5bb
000000a0: a90d 403d a216 983c ddea 18bd 3f9f 39bb
000000b0: 97c9 b1bd 8cfe a93d 6d8e 293c 431c 783d
000000c0: 072e eb3c d6a4 71bd
0.05898705 0.08719177 0.016709514 -0.03965151 0.029118327 -0.03368332 -0.013183512 -0.08502169
0.010625645 0.033528797 -0.085832976 0.07962592 0.0316832 -0.00929634 0.00784362 0.042157907
0.01481844 -0.07182042 -0.030002967 0.07072844 0.07223425 0.035139516 -0.036979023 -0.056225233
-0.026279217 0.004768724 0.032582413 0.07818031 0.020450642 0.058535513 -0.012064755 -0.04860623
-0.013756392 -0.02647676 0.07936049 -0.08798474 0.07111231 -0.030453397 0.007233864 -0.006992262
0.046888027 0.01856548 -0.037333358 -0.0028323678 -0.08681028 0.08300504 0.010348898 0.060573827
0.028708471 -0.05899509

critic.fc1.weight f4 [256, 21]
00000000: b414 81bd 8ac9 04be 63b2 083d 71d7 983d
00000010: ca77 45be 95a9 8b3d 6f90 5abe 6c64 633d
00000020: e40d a43d 7482 0a3c d6de b5bd 51cc 37be
00000030: 27d7 afbd b2fa 20be df10 95bd 02a2 1e3e
00000040: a65c 483e 2c9a 353e 89f6 6b3c 4666 46be
00000050: f63d 12be 9c07 21be 6874 1dbd c1b9 6e3c
00000060: 8d00 d6bd a96a 303e 9e8b 77bd 0886 45bd
00000070: 5a3f 4abe 9d9b 333e af9a 14be 56c7 2fbd
00000080: c43a 283e 432d 4bbe d65f d23b 35ce 2fbd
00000090: 99b3 14be 0e93 05be 8a2e 57be 68ec 5dbe
000000a0: bbff 1a3e 3ab8 9cbd 14f5 263d ac1e febd
000000b0: a0d2 eb3d 5cf3 563e e390 113d e77c 39bd
000000c0: 0ef6 42bc 44de 413d 867a 5b3e f9b7 d1bd
000000d0: e7a4 0cbe be2a 58be 1a21 a23d cbd8 dcbb
000000e0: b517 a9bd 8f30 e53d f7a4 f7bc 5847 f6bd
000000f0: 4c88 c83d 396d 48be 07dd 62bd c0ae 453e
00000100: ca24 1b3e dc6e 01be 032c 04be 1b88 59bd
00000110: fb7d debd e954 ea3d 6114 bcbd 5478 4fbd
00000120: 0840 79bd 52e1 0cbd 8f3f 58be 1480 d63d
00000130: 382a cbbc 6ca3 083e b090 1f3d 93be 22be
00000140: 8cc4 4d3e 8eac 913d 775c 41bc 3d9f e93d
00000150: 36b4 353e 100a 8d3d fac8 4d3d 21d6 a9bc
00000160: e6d3 0b3e 915c e5bd 84d7 6c3d de0c ee3d
00000170: 5206 48be 8438 5bbe ce69 32be 46f9 f33c
00000180: 088d b7bd cb50 f23c aa2d 28be 177b 793d
00000190: f0a4 5d3d 40f1 3dbe 3092 023e 2056 edbc
000001a0: 4736 0d3e df4a 25be 7a87 e63d 6a6a 043d
000001b0: b9ac 3b3e 6923 ac3d 5b18 ebbd 296d c23d
000001c0: 22dd 1bbe 4827 fa3d 229f 553d 0939 a5bd
000001d0: fa26 1abe 17b9 d33d 8686 dabd 1ea9 02be
000001e0: 7c6e 20bc d0af bbbd 794c 48be f546 1c3e
000001f0: 1880 2e3e 7ca9 90bd c1a7 babd 7407 44be
00000200: b9ef 7ebd 3454 40be 0ba3 a63d ea3b 173e
00000210: 7fea 58be 416c a8bd 54ca 01be 2914 d4bd
00000220: 4a25 e53d abd8 7d3d 0c03 1fbe 31b7 253e
00000230: 49ba b63c 28f8 ecbd c51f 333d ab9b d73d
00000240: 5e8a a13c 25f4 2fbe 6ebc 053d 9c20 d53d
00000250: a853 91bd 2c30 903d 3175 10be d241 0e3e
00000260: b16a d23d 549a 6fbc f81f 253e 14ed ed3d
00000270: da49 0cbe a453 6d3d a134 e53d 90a4 cc3d
00000280: 82d7 b2bd 8127 b03d 5296 67ba a6a4 e8ba
00000290: 5efe 493e cccf de3d 7ccb 3bbe e290 06be
000002a0: 3188 57bd 8499 293e d23f c6bd 6b73 b23d
000002b0: d95f ee3c 9a07 a83d 9bd9 0f3e 7511 a63d
000002c0: 9244 083e d5fe a3bd 8466 1f3e 886f 4e3e
000002d0: fe7d 34bd 3417 4cbe 4c78 d33d a710 f13d
000002e0: 3f48 5c3e fcd9 423b 6a9d 3e3e ecf7 7c3d
000002f0: bfa7 e73d 6804 1abe 53f3 233e 603a d2bc
00000300: 373c 343d daa1 5c3e dc31 b73d f544 c4bd
00000310: 28d1 e13d 8a21 e53d 678e 6cbd 3b35 823d
00000320: 80d3 59be 41e6 a5bc 35db e6bd 85c3 d93c
00000330: a632 1d3e 0c27 5a3e 1436 933d 42bc 45be
00000340: b7e4 04bc b40d d13d 4996 1f3e 6890 013d
00000350: 2097 793c 58a2 29be af3d c0bc 2a98 523e
00000360: b73e 37bd 72d8 47bc 428f 40bd dfcb a0bd
00000370: 7eec c3bd df0b a93d 2faa a7bd 3858 163d
00000380: abb4 ac3d d2f0 343e d36d 3b3d ea30 39be
00000390: 3ed3 4e3e f7f0 253e 15b6 38be 371b cf3d
000003a0: f66d 19bd 8087 b5bd 3408 433d f296 0fbd
000003b0: fd91 023e 5d4c 06be ef38 49be df74 a73d
000003c0: 2e17 56be 8514 2d3e 0818 233d a4ce 91bd
000003d0: e73c 153d 949d 5cbe d8cf 0ebe 447d 4dbe
000003e0: 50b0 c73d 2b9e 603d 933a 82bb 5e72 483d
000003f0: 5c3c 43be 35a5 783d 87da 163e 40d8 e7bd
-0.06302777 -0.12967506 0.033373248 0.07462967 -0.19283977 0.068194546 -0.2134416 0.05551569
0.08010462 0.008453954 -0.08880393 -0.17949034 -0.08585959 -0.15720633 -0.072786085 0.15491489
0.19566593 0.17734593 0.01440204 -0.19374952 -0.14281449 -0.15725559 -0.03844109 0.014570654
-0.10449324 0.17228188 -0.060435884 -0.048223525 -0.19750729 0.1753983 -0.14512132 -0.04291471
0.16428667 -0.19841485 0.006420116 -0.042921264 -0.14521636 -0.13044378 -0.21013847 -0.21672213
0.15136616 -0.07652326 0.04076107 -0.12408194 0.11514783 0.20991272 0.035538565 -0.04528513
-0.011899484 0.04733111 0.21433458 -0.10240168 -0.1373478 -0.21110055 0.0791647 -0.006739711
-0.08256475 0.111909024 -0.030230029 -0.120253265 0.097916216 -0.19572915 -0.05538657 0.19304943
0.15150753 -0.12639946 -0.12907414 -0.053108316 -0.108638726 0.114419766 -0.091835745 -0.050651863
-0.06085208 -0.03439457 -0.21117996 0.10473648 -0.024800405 0.1334359 0.038956344 -0.15893011
0.20094508 0.0711299 -0.0118018305 0.114073254 0.17744526 0.06886685 0.050240494 -0.020731987
0.13655052 -0.11199296 0.05782272 0.11623548 -0.19533661 -0.21408278 -0.17423174 0.029781949
-0.089624465 0.02957954 -0.1642367 0.060908403 0.054112375 -0.18549061 0.12751079 -0.028971732
0.13790236 -0.16141842 0.11256309 0.032328047 0.18327607 0.084051915 -0.11479255 0.09493477
-0.15221074 0.122145236 0.052153714 -0.08067519 -0.15053931 0.103380375 -0.106701896 -0.12759826
-0.0097919665 -0.09164393 -0.19560422 0.15261443 0.17041051 -0.070635766 -0.09114028 -0.19143468
-0.062240336 -0.18782121 0.08136567 0.14768949 -0.21183203 -0.08223773 -0.12674838 -0.10355408
0.11188753 0.06197421 -0.15528506 0.16183163 0.022305625 -0.115707695 0.04373147 0.10527738
0.019719299 -0.17182977 0.032650404 0.1040661 -0.07096034 0.07040438 -0.14107205 0.13892296
0.10274256 -0.014624197 0.16125476 0.11617485 -0.13700047 0.057941094 0.11191679 0.09992325
-0.08732511 0.08601285 -0.000883435 -0.0017749264 0.1972594 0.10879478 -0.18339342 -0.13141206
-0.052620117 0.16562468 -0.096801415 0.087134205 0.029098438 0.08204575 0.14047854 0.081087984
0.13307407 -0.0800759 0.1556645 0.20159733 -0.044065468 -0.19930726 0.10325679 0.11770754
0.21511935 0.002973198 0.18614736 0.061759874 0.11311292 -0.15040743 0.1601079 -0.025662601
0.044002738 0.21546116 0.08945057 -0.09583465 0.110262215 0.11188038 -0.057752993 0.06357809
-0.21272087 -0.020251395 -0.11272279 0.026582489 0.15351352 0.21303958 0.07188049 -0.19310096
-0.0081111705 0.10207692 0.15584673 0.031631857 0.015233785 -0.16565835 -0.023466913 0.20565858
-0.044737544 -0.012197601 -0.04701162 -0.07851385 -0.09566592 0.08254217 -0.08186757 0.036705226
0.08432897 0.1766999 0.045759033 -0.18085065 0.2019777 0.16205202 -0.18038209 0.10112613
-0.037458383 -0.08863735 0.047615245 -0.035056062 0.12751003 -0.13115068 -0.19650625 0.08176588
-0.2090728 0.16902359 0.03981784 -0.07119492 0.036435034 -0.21544486 -0.13946474 -0.20067316
0.09750426 0.05483834 -0.0039742677 0.048937194 -0.19065994 0.06070443 0.14731799 -0.11320543

critic.fc1.bias f4 [256]
00000000: f9cd 57bc 57ac 2ebe e714 673d b7ac 1b3e
00000010: 9f96 933d 7d8e 17be 4691 97bc 9fd5 05be
00000020: 3663 29bd 9885 f63c 28be 5bbe e1cd 0d3e
00000030: ea04 4f3e 9b97 ffbd 83c6 46be 99ff 5a3b
00000040: 0df7 b9bd 29d3 c4bd 4418 25be 760c 193e
00000050: 8822 22bb 5a19 4e3e 0613 21be c61c 4dbe
00000060: e934 87b9 8fb4 1e3e 56ae 0a3e b311 cfbd
00000070: a14c 94bd 8ecd 2cbe 6932 ac3d 56f8 563e
00000080: 9062 3ebe fbf9 bcbd 4f7c 99bd e8d0 f53c
00000090: ad92 a93d 22b2 48be 9989 453e 2bb1 dd3d
000000a0: 9cfa a73d 1cf0 3b3b c949 3fbe 1a50 53be
000000b0: 7b3f eabc 85fa 793c ecf1 8d3d 5175 a8bd
000000c0: 2c79 88bc b933 333e af25 00be ab79 4d3e
000000d0: 96d9 ca3d 64c5 78bd 2e1a e23d 1848 b03d
000000e0: 0e5f 123e 7381 1a3e 9dc1 38be 60e0 2fbe
000000f0: d416 153e 77e6 b4bc 78d3 e6bd 7e1c ff3c
00000100: e7c6 323e 8a1f d73d f8e0 3e3e fb39 cebd
00000110: eb42 033e 59ca edbd 6eed 293e 7177 b3bd
00000120: b38a 263e 1fcc 3e3e 95d9 003e 4a9b d33d
00000130: 29c6 b33b 39cc 053c 598e 10bd 2164 2abd
00000140: 4977 25be 2ed6 bf3d 0d04 523e 5372 2cbe
00000150: 53d2 393e e921 ab3c 45f8 05be 213d 5f3e
00000160: b367 c4bd 87a9 ceba 27d3 303e e8d5 d8bb
00000170: 00f6 89bd 266b 10be d691 4ebe dea6 35be
00000180: 25a8 333e 4278 f43d 5f27 fcbd 2389 b33d
00000190: ef12 453e 378d 6b3d 3d90 10bd dfe4 903d
000001a0: 175f 7fbd 1785 63bd 69d3 523d 3971 41be
000001b0: 83f6 30be e182 45be f7cb d83d 02c2 d33d
000001c0: 8e31 4f3d 923e 433e 58b7 c7bd 6684 4bbe
000001d0: b30f 87bd e176 b3bd 8b58 073e 480c 2abe
000001e0: 1dde 073e 2760 febd 5302 5dbe ec3d 36be
000001f0: 171c 323e 8431 ac3d eeae 1a3e 79ef abbd
00000200: a86e b3bc 4cff 47be e1b6 a63d 754d 27be
00000210: 385f 853d cb6d e33d f613 533e 7d5a 82bd
00000220: c23c 8f3c b2e4 3ebe e258 b43c 5fea 26be
00000230: 703b b03a 1cf0 8fbc cfaf 00be e734 e1bd
00000240: ab07 be3c 4a70 54be b56e 07be 7d2d 3d3e
00000250: 9e02 65bd f288 923c 23db 0c3e c202 32be
00000260: 5fad 513e 0c06 553e 5fee 243e 5494 88bc
00000270: 318e aa3d a2f4 5b3e 046f 57be f5b2 2b3e
00000280: 3432 c8bd 6495 f3bc 7b8a 823c e6c0 2e3e
00000290: 5cca f3bc 6e61 c33d e48e 9f3d ea45 413e
000002a0: 7502 b6bd 81e1 833d d5a7 1bbd dbe5 603d
000002b0: 206b a73d 3a71 283d f8a8 303e af6f 6e3d
000002c0: 5ba0 523c c281 97bd 4ce9 d13d f4fd 223d
000002d0: 7481 5a3e b6f6 84bc fd2c 343e 7af6 553e
000002e0: d9b8 093e 9c4a db3d cd05 6a3d 6c0e 523d
000002f0: 7186 e3bd 61f7 523d ec4e 563d 63e7 2b3e
00000300: 9926 aabd 31f2 31be 2445 5f3e 21b2 413e
00000310: 1c78 36be 4b69 263e d240 4b3e d2c8 2b3d
00000320: 2de8 e03d c547 2a3e 2e5c 21be 7979 40be
00000330: 0e90 9d3d 55ee 883d b953 a8bd 01b3 1d3e
00000340: 56c1 dbbd 5ffa 443e dbf5 4fbe dccb d1bb
00000350: 22e3 183e 3e9d b33c 7796 6b3d 4612 4c3e
00000360: 89be 2fbe 8f86 9f3c ea95 34be 732b 23be
00000370: 736d 2b3e d19c f3bc 03be 343e fb60 383d
00000380: b979 3a3e 8e59 063e 0a70 b7ba 94d3 45be
00000390: 7639 fd3d 211e 173e aa62 58be 5388 24be
000003a0: 6330 ab3d 089f 57bd 536e 3cbe 419d 09be
000003b0: 54c3 87bd 0a2f 55be 78f2 5ebe 48ed 303d
000003c0: 8335 8bbd 1ab0 22be 6bb7 42be 933d 263e
000003d0: 1264 613d e292 cd3d e33b 73bd afe0 4e3d
000003e0: 28b7 a8bd 2b07 1fbe e597 14bd 0f08 863d
000003f0: 7524 423d 8cc7 4fbd ff99 8c3d ecfb 31be
-0.013171666 -0.1705793 0.05641642 0.15202604 0.07206463 -0.14800449 -0.018501889 -0.13069771
-0.04135438 0.030093 -0.21459258 0.13848068 0.20216718 -0.12480088 -0.19411664 0.0033416508
-0.09080324 -0.09610588 -0.16122538 0.1494616 -0.002473982 0.20126858 -0.15729913 -0.20030507
-0.00025788628 0.15498565 0.13543066 -0.10110798 -0.07241178 -0.16875288 0.084080525 0.2099317
-0.18592286 -0.092273675 -0.07494413 0.03000684 0.08279929 -0.19599202 0.1929077 0.10824808
0.08202097 0.0028677052 -0.1868049 -0.20636025 -0.028594723 0.015257482 0.069309086 -0.08225501
-0.016659342 0.175002 -0.12514375 0.20065944 0.099047825 -0.06073512 0.1104015 0.08607501
0.14294073 0.15088443 -0.18042608 -0.17175436 0.1455949 -0.02208255 -0.11270803 0.031141516
0.17458688 0.105040625 0.18640506 -0.10069653 0.12818496 -0.116108604 0.16594478 -0.08763016
0.16263847 0.18632554 0.12583001 0.103323534 0.005486269 0.008166366 -0.035292003 -0.041599397
-0.16158785 0.093670234 0.20509358 -0.16840486 0.18146639 0.020890193 -0.13082989 0.21800663
-0.095900916 -0.0015767076 0.17268048 -0.0066172965 -0.06736374 -0.14103374 -0.2017282 -0.17739436
0.17544611 0.11937 -0.12312197 0.08766391 0.19245504 0.05750772 -0.035293806 0.07074904
-0.062346544 -0.055546846 0.051471148 -0.18890847 -0.17281537 -0.19288208 0.10585778 0.103397384
0.05058437 0.19066837 -0.09751767 -0.19874725 -0.06594791 -0.08762909 0.1321737 -0.16606247
0.13268323 -0.12420683 -0.21582918 -0.17797059 0.17393528 0.08407882 0.15105793 -0.08395285
-0.021903351 -0.19530982 0.0814035 -0.16338141 0.06512302 0.11104926 0.20613083 -0.063649155
0.017485026 -0.18641928 0.022015039 -0.16300343 0.0013445448 -0.017570548 -0.12567066 -0.109964184
0.023197016 -0.2074596 -0.13225825 0.18474384 -0.0559107 0.017887566 0.13755469 -0.17383865
0.20476292 0.20803088 0.16106556 -0.01667229 0.08327902 0.21480039 -0.21038443 0.16767485
-0.097752005 -0.029734321 0.015935173 0.17065772 -0.029759578 0.095400676 0.07790926 0.18874326
-0.088871874 0.06439496 -0.038001854 0.054906707 0.08174729 0.041123606 0.17251956 0.05821198
0.012855615 -0.07397796 0.10249576 0.03979297 0.21338445 -0.016230922 0.17595287 0.20894805
0.1344942 0.1070759 0.05713444 0.051283285 -0.11109627 0.05150545 0.05232136 0.16787486
-0.08308143 -0.17377545 0.21803719 0.18915607 -0.17819256 0.16251104 0.19848946 0.041939564
0.10981784 0.1662894 -0.1575782 -0.18796338 0.07693492 0.06686083 -0.08219094 0.15400316
-0.10730235 0.19236134 -0.2030863 -0.0064024758 0.14930394 0.021925565 0.05751654 0.19928846
-0.17162527 0.019473342 -0.17635313 -0.15934543 0.1674097 -0.029737862 0.17650609 0.045014363
0.18210496 0.131201 -0.0013995182 -0.19318992 0.123644754 0.14757587 -0.21131387 -0.16067629
0.083588384 -0.0526419 -0.1840146 -0.13438894 -0.06629053 -0.20818725 -0.21772182 0.04319504
-0.06797316 -0.1588749 -0.19015281 0.16234426 0.055027075 0.10037781 -0.059383284 0.050507244
-0.08238059 -0.15530078 -0.03627767 0.06544506 0.04739805 -0.050727412 0.0686531 -0.17381257

critic.fc2.weight f4 [128, 256]
00000000: b5d7 e5bc e000 25bd 8906 5dbd 74ac 18bd
00000010: 3333 103d 450b 5abd e01f e93c 9253 7bb9
00000020: d3d7 28bd f87a 353d d737 253d 28b0 7f3d
00000030: df88 53bd 6ddc 61bd f2c3 cf3c e2bd 6bbd
00000040: dc80 9b3c 082b 76bc ade9 be3c cc87 c93c
00000050: 7c18 6eb8 696d 5d3d 2488 c5bc 7fe2 fabc
00000060: 3786 ddbc 6641 c03b 2fc2 85bc d74e 8f3c
00000070: 3c6e 393d 156c 35bc 318a 0bbd eb3f c2bc
00000080: 7652 8fbc 0324 fbbc 39d6 f73c 4f56 0dbd
00000090: 92c4 deba ae7c f3bb 1531 ef3b 1a99 633d
000000a0: 04ba 21bd e113 663d 9034 77bd b7cd 2dbd
000000b0: 224e d0bb 0385 523d 5e77 31bd 771e 7cbd
000000c0: e86e 7e3d 7c5c 06bc 2eb1 543d 8d15 ea3c
000000d0: e002 f63c 098a 01bd 2cee 6fbc 25f6 863c
000000e0: 063b bbbc 9fdf 18bd 9c44 1fbd 9420 5a3c
000000f0: daec 6f3c 64a4 cfbc 7772 c4bb bb55 5f3d
00000100: 2562 493c d54c 13bd a493 e6bc b8e2 1ebc
00000110: e2ad 29bd 41b3 803c 03d7 613d adb0 78bd
00000120: c7f9 febb 9e8d 453d e1b9 02bc 13e2 f23c
00000130: 7357 4fbd f010 4938 ab76 7fbd ff8e c13b
00000140: 1fc7 113d 5b92 3bbd c0dd 81bb 2a85 da3c
00000150: 0d79 563d f386 91bc cf84 37bd 509a 283d
00000160: ada7 b23c cc31 273d 8aee d33c ac26 4bbd
00000170: e61b f53b 74fc 65bd 4e37 133d a53e 853c
00000180: 2b78 50bc 05a2 9d3c 9e0b b4bc 262d a2bb
00000190: e5cf 613c 9dca 4cbd 81ef 60bb 9b1a 1b3d
000001a0: df68 be3c 162c d53c f3c9 dc3c 5a20 303d
000001b0: 5105 103c 3236 dcbc 36b2 66bc 3464 083d
000001c0: 6362 c1bc 44c0 59bd 7114 7c3c 3ffb b73b
000001d0: 6360 753b 237f 37bd e858 5d3d 2dd5 95bc
000001e0: 7bb8 f83c 16a8 ffbc 56c9 c1bc 9b9e 3d3c
000001f0: 1a3e 84bc 05c8 05bd cc86 18bd 3536 b23b
00000200: 1f5e 66bc 641b 793d a685 04bd ff04 25bd
00000210: 9403 51bd f497 033d 3efb 7d3d 44b6 7d3d
00000220: ef4f 91bc 9170 13bd dbeb 40bd d115 5d3d
00000230: 481a 2c3d d065 1fbb 518e 8ebb ed15 733c
00000240: a49d 04bd 9920 693d b0bb 22bd 5051 29bc
00000250: b181 3d3d 7c4c 5bbd f254 483c d788 12bd
00000260: 8f73 d63b 6e35 69bd 05ce 4ebd 06a4 47bd
00000270: bcdc ff3c c6d4 64bd 1689 4ebd 96ce 4dbd
00000280: 24ba 35bd 0f08 063d 0b5c 6d3d 834a 743d
00000290: 15f8 a0bc 15f9 f2bb d6e2 b0ba 91e2 173d
000002a0: aa3a ce3b 68cb a23c 7f6a 683c 859e acbb
000002b0: 650f 493d abae 06bd cb12 31bc 0064 463d
000002c0: 8e5f b63b 7ae4 9b3c 7710 6fbd 6d97 713d
000002d0: 40b8 7abc aa73 e5bc 94ad 7bbc c4a7 4c3d
000002e0: 90f6 42bc 311f 073d 4ae0 133b af65 d43c
000002f0: 5750 39ba 8408 01bd 64eb 203d 1c5b 433d
00000300: f6be 80bc a8a9 433c 9831 05bd c590 6d3d
00000310: e1a3 013d afdc 47bd f56e 5fbd cc46 5f3b
00000320: 20da 8e3c 8461 51bd 90c3 b2bc fa62 403c
00000330: 29d7 5b3c 7d64 143d faae 39bd 8bac 223d
00000340: 6a0f 783d 06d4 3ebc 58b7 583d ab42 753d
00000350: 08db 613d e29c febc c677 a0bc 1232 7fbd
00000360: e4e0 743c 7783 8d3c 946a 69bd 88d3 733d
00000370: 683c 5fbd 753e 093d d543 fc3c a6dd 2abd
00000380: 89f2 133b d4e4 4c3d 87da 2cbc 1695 e6bc
00000390: ea65 783d d266 69bd 3f21 13bd 0d13 16bd
000003a0: 0c14 c33c 4b3d 08bc 6216 953c 7a20 76bd
000003b0: e4e7 50bd 55d9 5bbd fe8f f43c 8d51 b73a
000003c0: efeb 5d3d 074b c13b 1a00 a6bc 0798 e1bb
000003d0: 8aa6 113d 93dc 0bbd 5355 06bd 4915 7e3c
000003e0: 5db9 b7bb 4be3 48bd c27e c13c 9760 dabc
000003f0: c0ec 4b3d 6a44 73bc 6600 2e3d 92db 213b
-0.028056959 -0.040284038 -0.05396131 -0.03727384 0.035205077 -0.053233404 0.028457582 -0.00023968358
-0.04122145 0.044306725 0.040336456 0.062423855 -0.051644202 -0.055141855 0.025361989 -0.057554133
0.018982343 -0.015024908 0.023304785 0.024600886 -5.6766425e-05 0.05405942 -0.024112768 -0.03062558
-0.027041538 0.005867171 -0.016327946 0.017493648 0.045271143 -0.011073132 -0.034067336 -0.02371212
-0.017495375 -0.03065682 0.030253517 -0.03450614 -0.0016995838 -0.0074306345 0.007299552 0.05556593
-0.03948404 0.0561713 -0.060352862 -0.042432513 -0.0063569704 0.05139638 -0.043326728 -0.06155249
0.062117487 -0.008200761 0.051926784 0.02857473 0.030030668 -0.03162578 -0.014644187 0.016474793
-0.022855293 -0.037322637 -0.03888379 0.013313431 0.014643872 -0.025346942 -0.0059950906 0.05452512
0.012291466 -0.035961945 -0.028146572 -0.009697609 -0.041425593 0.015710475 0.05513669 -0.060715366
-0.0077812406 0.04823076 -0.007978887 0.029648816 -0.050620507 4.793791e-05 -0.06236903 0.005906939
0.035590287 -0.045793872 -0.0039632022 0.026674826 0.052361537 -0.017764544 -0.04480439 0.04116279
0.02180847 0.040818974 0.02587058 -0.049597427 0.0074801324 -0.05614896 0.035941415 0.016265223
-0.012723963 0.019242296 -0.021978196 -0.00494923 0.013782476 -0.049997915 -0.0034322443 0.03786717
0.023243366 0.026021998 0.026951766 0.042999603 0.00879033 -0.026881311 -0.014080575 0.033298686
-0.023606485 -0.053161874 0.015385733 0.0056146677 0.0037441484 -0.04479898 0.054039866 -0.018290127
0.030361405 -0.03120808 -0.023655575 0.011573459 -0.016142894 -0.032661457 -0.037237927 0.005438591
-0.014060526 0.060817137 -0.03235402 -0.040287968 -0.051028803 0.032127336 0.06200718 0.0619414
-0.01773831 -0.035996024 -0.04709993 0.053975884 0.04201725 -0.002432216 -0.0043504615 0.0148367705
-0.0323769 0.056915853 -0.039729774 -0.010334328 0.04626626 -0.053539738 0.012227284 -0.035775032
0.0065445374 -0.05693572 -0.050489444 -0.04874041 0.031233184 -0.05586698 -0.050423704 -0.050245844
-0.04436697 0.03272253 0.057949107 0.059641372 -0.019649545 -0.007414947 -0.0013495337 0.037081305
0.0062936144 0.019872382 0.014185547 -0.0052679204 0.049086947 -0.03288142 -0.010807703 0.04843521
0.00556559 0.019029845 -0.05836531 0.0589823 -0.015302718 -0.028009254 -0.0153612085 0.04996468
-0.011899605 0.03298873 0.0022564107 0.025927393 -0.00070691615 -0.03150226 0.039286986 0.04769431
-0.015716057 0.011942305 -0.032518 0.05799939 0.031650428 -0.048794445 -0.054549176 0.0034069298
0.017437994 -0.05111839 -0.021821767 0.011742348 0.013417997 0.036228646 -0.045332886 0.03971533
0.060561575 -0.01164723 0.052909225 0.059878033 0.055140525 -0.031080667 -0.019588362 -0.06230361
0.014946196 0.017274601 -0.056986406 0.059527904 -0.054500967 0.03350683 0.030794064 -0.041715287
0.0022574982 0.050022915 -0.010550148 -0.028147262 0.060644068 -0.056982823 -0.035920378 -0.036639262
0.02381327 -0.008315395 0.01819915 -0.060089566 -0.051002398 -0.05367406 0.029853817 0.0013986096
0.054180082 0.0058988365 -0.02026372 -0.006884578 0.035559215 -0.034145903 -0.032796215 0.015508004
-0.005606814 -0.04904489 0.023620013 -0.026657386 0.04978633 -0.014847854 0.04248085 0.0024697524
