server/policies/checkpoints/policy_2_1000/model.pt (torch, 338651 bytes, 11 tensors)

actor.fc1.weight f4 [256, 21]
00000000: a6ac a8ba d26a bcbd d797 bb3d bf8d d43d
00000010: cc39 ccbd f78a 4ebd ece5 7bbd ffb0 03be
00000020: 3d47 c13d ee30 17be 7756 563e dc7e 223e
00000030: 9f4c 483d 6d4b 3bbe 05da 133e 4760 00be
00000040: ac04 0a3e 3d31 333e 036c 423e 5ec2 cfbd
00000050: 8b5b 55bd 67ef cabb 87fc 443e a602 24be
00000060: ec68 a4bd 1d05 62bd 9b12 0cbe 2c38 5c3e
00000070: aa40 35bd 2d4b 593e 1e95 c83b 36a0 09be
00000080: b741 3ebe 8112 4d3d 830f b0bd 036e 263e
00000090: 8d49 9fbc c542 123d 5d39 123d 660c 1a3d
000000a0: 46b0 4ebe a511 513e c4b6 443e db20 f03a
000000b0: f10f 113e d776 463d 5104 f43c 7503 4a3e
000000c0: c583 e2bd bae8 903d 780d 323e 5620 0c3d
000000d0: dc56 883c 4dda 3c3e ea16 173e 02c7 003e
000000e0: 24a4 6ebc 107e 0c3e 192f da3d 6650 28bc
000000f0: ca9e e8bd 292e ef3c 556f 5a3e 72e2 ee3d
00000100: e3e7 a1bd 407b 49bd cc4c 06be 7024 e23d
00000110: f12d d23d 1e6e 823c 6da0 47be 8320 f4bc
00000120: e58e 2b3e 333b c2bd 3d1a 44bd d0b2 9d3a
00000130: 5aa4 8b3c e353 d03d 0e97 a53d 3352 1c3e
00000140: 3751 ff3d bfb3 4d3c a789 1f3e 5099 aabd
00000150: a554 513e 3157 483e 1d05 89bd 4da9 153e
00000160: 2fd8 3d3e dd90 44be 3118 203d 484d 8ebd
00000170: 3d50 d9bd c4af 42be c809 d0bb 118a cfbc
00000180: 670e 393d a0d3 34be 700f f53d 8b59 163c
00000190: c818 323e 05d9 09be d040 113e 3614 d8bb
000001a0: ea26 5c3e 9b39 583e 3e57 443d 9b8d 053e
000001b0: 1d41 9cbd f1e6 0f3d e488 4dbe 96e2 6e3a
000001c0: 782c 21be 2cd3 42be 0fd3 46be 43ed 1d3e
000001d0: 6778 2dbe 0651 863c 51d4 39be bc56 e83d
000001e0: a326 92bb 1502 da3d 0cee a4bd efd6 b5bd
000001f0: b405 e13d 100e fbbd af03 9dbc aca0 e1bc
00000200: 2395 263e d26e a1bc adbc f3bd 76f6 16bd
00000210: 6e5a f23d 4c4f 823d 92d2 3bbe aa9a 47be
00000220: 9ec2 4fbe 9810 5bbe 0b14 2ebe 9c59 273e
00000230: c2db d23d 5237 a3bc c0d5 403d f738 153e
00000240: 47df 1fbd 6c8b d8bc 0e43 1cbe eac2 553e
00000250: a724 173e 3a19 b5bd 8620 98bc ca90 2b3e
00000260: b2e4 14bd 939e 1f3e 508e 123e 2fc4 803d
00000270: f7f1 37be 8d7f 0f3e 1ebb e4bd 38a7 01be
00000280: 6f06 4cbe 78f6 193d b098 213d b368 f33d
00000290: bc79 a53d 341b 54be e483 fdbd dd84 25be
000002a0: 5d77 a23d 620c 243d 1744 d9bd de13 fa3c
000002b0: 3dac 73bd cc81 0bbd c0d9 e83d 0a4a d739
000002c0: 737a 28be 728a 82bd a8b1 02bd 4ebe dbbd
000002d0: b574 4a3c 81d6 bd3d f076 b1bd 7217 923d
000002e0: 2cb2 8b3b 3c71 1d3e dfa6 eebd 784c 1f3e
000002f0: 7b05 56bc 8e0e 0bbe bdd0 d8bd a168 19be
00000300: 7e9d 5ebd 8d74 3f3e b6cd 41be 8c10 21be
00000310: 31d6 d8bd a068 8b3c a6b1 55bd da6b ab3c
00000320: 68d9 67bd 5aab da3d a1e3 423e c4a1 233e
00000330: e6ff 4e3e 83c6 0f3e ca19 f5bc a6d7 a5bb
00000340: d624 1cbe 19bf 453e 2aa9 19be d141 d43d
00000350: 353c 4abe 6b89 e73d a95e 893d 1542 b6bb
00000360: 998d cabd 98a0 9ebd b329 4c3e c85b 383e
00000370: 0d4b ae3c 97ba 893d d31b 2bbd f089 12be
00000380: 3063 7e3c 7a0b fd3d caeb 00be 9eac 423e
00000390: 6a2a 7bbd fefd 39be 6c09 7dbd 509b baba
000003a0: 3752 57be 1bcf 59be 43aa 58be 95ca 38bd
000003b0: 27b8 9dbd 8522 23bd dc0b 5abe e0a6 bf3d
000003c0: cfc6 423e 4fc9 34be f1a5 c03c 5263 02bd
000003d0: a3e3 10be f0c8 4a3e 301c 41be 6a72 bb3d
000003e0: 87e1 4ebe 30f8 6abc 2b28 3abe e162 3c3d
000003f0: 4b58 213e 3c62 9d3c 1162 10be 57de 29be
-0.0012868836 -0.09200062 0.091598205 0.103785984 -0.099719614 -0.050425496 -0.061498567 -0.12860487
0.09437416 -0.14764759 0.20931421 0.15868706 0.048901197 -0.18290491 0.14438637 -0.12536727
0.13478345 0.17499252 0.18986516 -0.101444945 -0.052089255 -0.0061930898 0.19236957 -0.16016635
-0.08027825 -0.055180658 -0.13678972 0.21505803 -0.04425112 0.21220084 0.006121292 -0.13440022
-0.18579756 0.050066475 -0.085967086 0.16252904 -0.019444251 0.035708208 0.035699237 0.03760948
-0.2018443 0.20416887 0.19210345 0.0018320339 0.14166237 0.04845318 0.029787214 0.19727881
-0.11060289 0.07075639 0.1738795 0.034210525 0.01664298 0.1844265 0.14754835 0.12575915
-0.014565501 0.13719964 0.106535144 -0.010273075 -0.113584116 0.029196816 0.21331532 0.11664285
-0.07905557 -0.049189806 -0.13115233 0.11042106 0.10262669 0.015921649 -0.19494791 -0.029800659
0.16753729 -0.094839476 -0.047876585 0.001203144 0.017046142 0.1017225 0.08085452 0.15265732
0.124666624 0.012555062 0.15579854 -0.08330023 0.20442446 0.19564511 -0.066904284 0.14615364
0.18539499 -0.19195886 0.03908557 -0.06948334 -0.10611007 -0.19012362 -0.0063488223 -0.02533439
0.04517975 -0.17658854 0.11965835 0.009176622 0.17392266 -0.13461693 0.1418488 -0.006594206
0.2149922 0.21115725 0.047934763 0.130423 -0.07629607 0.035132352 -0.20071751 0.00091127434
-0.1573962 -0.19025868 -0.1941645 0.1542254 -0.16940461 0.016396057 -0.18147399 0.11344668
-0.0044601723 0.10644928 -0.08053216 -0.08878886 0.10987416 -0.122585416 -0.019166796 -0.027542435
0.16267829 -0.019706164 -0.119012214 -0.036856137 0.11833654 0.06362781 -0.18342045 -0.19492593
-0.20289084 -0.21393049 -0.16999833 0.16342777 0.10295822 -0.01992384 0.047078848 0.14572512
-0.039031293 -0.026433669 -0.15259954 0.20875135 0.14760076 -0.08842702 -0.018570196 0.16754451
-0.036350913 0.15587835 0.143121 0.06287419 -0.17963396 0.140135 -0.11168502 -0.12661445
-0.19924329 0.037588567 0.039452255 0.11885204 0.080798596 -0.20713502 -0.12378672 -0.16163965
0.07932923 0.04005087 -0.1060869 0.030527052 -0.05949043 -0.03405933 0.113696575 0.0004106316
-0.1645296 -0.063740626 -0.031907707 -0.10729657 0.012356927 0.09269429 -0.08665264 0.07133378
0.004263183 0.15375227 -0.11652922 0.15556514 -0.01306283 -0.13579771 -0.10586689 -0.14981319
-0.054349415 0.18696804 -0.18926129 -0.15728968 -0.10587729 0.017017663 -0.052171372 0.020925451
-0.05660382 0.10677214 0.19032146 0.15979677 0.20214805 0.1404057 -0.029919524 -0.0050611077
-0.15248427 0.19311179 -0.15005937 0.10364116 -0.1974953 0.11305507 0.06707508 -0.005562077
-0.09890289 -0.077454746 0.19937782 0.18003762 0.021276021 0.06725042 -0.041774582 -0.14310431
0.015526578 0.123557046 -0.12589946 0.1901116 -0.061319746 -0.18163297 -0.061776564 -0.001423696
-0.21027456 -0.2127041 -0.211587 -0.045115072 -0.0770114 -0.039827842 -0.21293586 0.09358001
0.19021152 -0.17654918 0.023516627 -0.031833 -0.14149337 0.19803214 -0.18858409 0.09152682
-0.2020322 -0.014341399 -0.18179385 0.045992736 0.15756337 0.01921188 -0.1409991 -0.16588722

actor.fc1.bias f4 [256]
00000000: f600 5dbd 0165 56be 1541 d03d 8e91 f3bd
00000010: 07a3 363e 25c5 56be 7553 533e ff9e 3b3e
00000020: 5a68 d83d 94b7 2ebe 639a dbbb 5e62 463e
00000030: 766e 3cbe baa6 15be 8b41 9dbd 1c4a d7bd
00000040: 98c5 84bd 8405 c9bd bbff 0e3d 3c9a 4cbd
00000050: d37a aa3c 64d7 28be 11dc 49be 597f c8bc
00000060: 96c7 4ebc adfb da3d 7148 4b3e f57f 0c3e
00000070: 864b 5e3d b453 36be 06cf 643c b40b 293e
00000080: 9517 eabd dc0e b0bd 934b 4f3e 6b8f cfbd
00000090: 5a45 ffbd 22d3 9c3d 5ffe 4d3d 8f14 aa3d
000000a0: 4477 1a3d e369 473e 100a 0fbe bf6f 41be
000000b0: 8c8f 66bd e8c5 66bd 4466 2cbe cf1d dfbc
000000c0: 8976 043d 801b 4c3e f78f 5d3e 52c7 1d3d
000000d0: 686e 5cbe 922c 3fbe 8d2b 31be 4740 7c3b
000000e0: db86 553e 3320 5cbe 7ee5 623d 2f89 6d3d
000000f0: b7d7 d23d 8e24 c93d fed7 fd3b 9fbf 22be
00000100: 80c1 a2bd 035b 9d3c 5319 26be d961 be3d
00000110: d2d4 f63d 1cea 3d3e 09ee 59be 1b0a 333e
00000120: adc4 5f3e 31b3 443e f0f7 353e 40d0 f03d
00000130: 69ec 94bd 376a 163d 54dc bdbd 4b2c 2c3e
00000140: c901 38be 44c5 003e 580e f53b d0db 5f3d
00000150: b20e 543e f7cc 533e 975f e2bd b38e 033e
00000160: 1316 ffbd 1721 9e3c c956 58be da48 47be
00000170: 42a2 47be 7969 17be 9568 85bd 9f68 513e
00000180: 40e7 843c 85b3 233e 1dd7 f83d 12e9 733d
00000190: 40e4 d5bb cc70 173e 0d8a 5cbe 3c65 ecbd
000001a0: 1af9 c6bd 331d 86bd 40ef dabd a109 5ebe
000001b0: 100a cb3d 6f8b 41bd e534 493e 7621 60bd
000001c0: c7f4 083e 5af2 6b3d 8a16 a1bd 179a eabd
000001d0: 98fb 36be 4121 dd3d c02b 17be 6108 21be
000001e0: 50a6 423d 9dad 16be af50 0dbe 4371 363b
000001f0: 15ce 59be e2ce d93c 196e 38be 961d 83bd
00000200: 10f3 b6bd 1277 23be 7d1e 533e c5f4 a7bd
00000210: 1463 42be f973 4bbd dbfb 52be 17c6 aabd
00000220: 79c6 b0bc aaa0 2ebe e9fc 483e 3dde 21be
00000230: eec0 eb3d fc9e 503e 5ac2 10bc 3177 013e
00000240: e349 3e3e 1c93 f13d 3884 153e a3e1 073d
00000250: aef6 c43d 6c0a 453b 3186 9c3c 94ce 073d
00000260: e98a 283d 0c22 a4bd 5f1a 303e 85fa ae3d
00000270: 22c1 1d3d 3262 09bd fc09 22be 48c3 41be
00000280: 0272 c9bc 599f 543e 5249 093d 21b4 833d
00000290: 7506 51be 563a 1fbe d650 3ebe a3a3 13be
000002a0: 86c6 3a3d 598d b13c d1ee 263e 6798 24be
000002b0: 04fb 983c 7d2f f8bc 4126 2bbe 171c ff3d
000002c0: 948e 613d 431d 39be 870b 043d adfa 903b
000002d0: 8de8 0a3e 1c6e 88bd d3c1 fcbd 92ae e73d
000002e0: f12c 44be bef4 7ebd 9417 1e3d c474 d63d
000002f0: f800 d1bd c0be 91bd b026 bebd 44f8 a83c
00000300: 4883 9fbd 4ad5 8d3c 9496 303e 4dd0 99bd
00000310: 249b 263e 1d7b dfbd 9705 393e 67b0 4f3e
00000320: 168c 3dbe 4f86 6f3d c193 f53d 2839 51ba
00000330: 0329 4a3e e321 d23d 662b d1bd b3f8 46be
00000340: 5e8e ce3c 831c 9cbc 7120 22be a8f2 433e
00000350: 923e 09be 74f3 bb3c d547 2d3e 6fc1 1f3e
00000360: 5437 8ebd e1fe 3e3e 61aa f3bd 1257 563e
00000370: 4d76 513e 4d0e 0bbe 3fe0 54bd 431b 08be
00000380: f660 d73c 6706 72bd 7a9c 223e 9dcb 43be
00000390: 8ca6 62bd fc9f b2bc 0628 3a3e df13 21bb
000003a0: de6b 573e 11c5 c23d be74 0abe 6ba2 8b3d
000003b0: e98d c2bc 158e 143e 2abb 9b3d 8032 7abc
000003c0: e298 073e 91e0 dabd d092 0bbe 1fe8 20be
000003d0: 3e9c 5a3e 27db 89bd 4ff2 1a3e bb97 1fbe
000003e0: 2187 523d 5566 5ebe b82b 35be b3aa 31be
000003f0: c7da 90bd e898 e03d 8170 473d e4f1 eebd
-0.053955995 -0.20936967 0.101686634 -0.11892997 0.17835627 -0.20973642 0.20637305 0.18322371
0.105667785 -0.17062217 -0.006701754 0.19373462 -0.18401513 -0.14614382 -0.07678517 -0.10512182
-0.064830005 -0.09815505 0.034911852 -0.049951777 0.02081052 -0.16488415 -0.19712855 -0.024474787
-0.012620827 0.106925346 0.19851853 0.13720687 0.054271244 -0.17805368 0.013965374 0.1650837
-0.11430279 -0.08596584 0.20243673 -0.10134777 -0.124644 0.07657458 0.050291415 0.083047025
0.037711397 0.19473986 -0.13968682 -0.18890284 -0.05628924 -0.05634108 -0.16835886 -0.027235894
0.032339606 0.19932365 0.2163695 0.038520165 -0.21526492 -0.18669346 -0.1730177 0.003849046
0.20852225 -0.21496658 0.055394642 0.057992157 0.102950506 0.098214254 0.0077466955 -0.1589341
-0.079470634 0.019208437 -0.16220598 0.09296007 0.12052311 0.18546337 -0.2128221 0.17484324
0.2185237 0.19208981 0.17770362 0.117584705 -0.07271654 0.036722388 -0.0927054 0.16813771
-0.17969431 0.12575251 0.0074785165 0.05465299 0.20708731 0.20683657 -0.110533886 0.12847404
-0.12455382 0.019302888 -0.21126856 -0.19461384 -0.1949549 -0.14786328 -0.06514088 0.20450066
0.01622355 0.1598645 0.121504046 0.059548445 -0.0065274537 0.14789122 -0.21537037 -0.115427464
-0.09715481 -0.06548538 -0.106901646 -0.2168336 0.09914029 -0.047252115 0.19649084 -0.05471941
0.13374625 0.05760417 -0.07865627 -0.114551716 -0.17869413 0.10797358 -0.14762783 -0.15725853
0.04752189 -0.14714666 -0.1380031 0.0027838505 -0.2127002 0.026587907 -0.18010749 -0.064021274
-0.08933079 -0.1596339 0.20617099 -0.08200983 -0.18983108 -0.049671147 -0.20603888 -0.08338564
-0.021579014 -0.17053476 0.19627728 -0.15807433 0.11511408 0.20373148 -0.0088353995 0.12643124
0.18582873 0.11795637 0.14601219 0.03317417 0.09617363 0.0030066026 0.019106956 0.033155993
0.0411481 -0.080143064 0.1719756 0.085438766 0.038514264 -0.033540912 -0.15824121 -0.1892215
-0.024590496 0.20763911 0.03351719 0.06430841 -0.2041262 -0.15549597 -0.18585524 -0.14417891
0.045599483 0.021673845 0.16302039 -0.16073762 0.018674381 -0.030296082 -0.16713811 0.124565296
0.055067614 -0.18077569 0.032237556 0.004424414 0.13565274 -0.06661627 -0.123416565 0.113125935
-0.19157769 -0.062245123 0.038596705 0.1047149 -0.10205263 -0.07116461 -0.09284723 0.020626195
-0.07788712 0.017313618 0.17244941 -0.07510433 0.16270119 -0.10912154 0.18068539 0.20282136
-0.1851047 0.058477696 0.119910724 -0.0007981234 0.19742207 0.1026037 -0.10213356 -0.19430809
0.02521437 -0.019056564 -0.15832688 0.19135535 -0.13402775 0.022943236 0.16921933 0.15601133
-0.06944147 0.18651916 -0.118977316 0.20931652 0.20455284 -0.13579674 -0.05197167 -0.1329165
0.026291352 -0.059088137 0.15880004 -0.19120641 -0.055334613 -0.021804802 0.1817933 -0.0024578494
0.21037242 0.09510244 -0.13521096 0.06818088 -0.023749309 0.14507325 0.07604058 -0.015270829
0.13241914 -0.10687364 -0.13630223 -0.15713547 0.21348664 -0.06731253 0.15131496 -0.15585224
0.0513984 -0.21718724 -0.17692459 -0.17350273 -0.070729785 0.109666646 0.048691276 -0.11667231

actor.fc2.weight f4 [128, 256]
00000000: 9ee6 fd3a 2001 d7bb 392a a8bb 44f3 363c
00000010: b8ee 4f39 aaeb 7d3d ae26 77bd 1578 7d3d
00000020: 942f 79bd 389b c4bb 607c 2dbd ba40 db3c
00000030: e8ce d33c cfd7 08bc c9d1 7b3d d6d4 2e3d
00000040: 257a 16bc 26be 15bb 7e59 05bb d530 cabc
00000050: 38d9 b63c 1594 773c c45f 783d e094 25bc
00000060: c17a 03bd bbb8 cebc 5aa0 103c 5bf4 4b3c
00000070: 02e0 19bd 4bdb 37bd 38a6 6eba a930 3a3d
00000080: aa50 ef3a 10e0 9a3c 48ce 42bd fd92 37bd
00000090: 0800 05bd 5e24 6fbd 4e02 113d 5246 673d
000000a0: c6c1 243b 90fb 67bd 7759 3f3d 91c4 13bd
000000b0: 002c 4cbd 7d0c 833c d014 50bd 10ca d4bc
000000c0: 4c4c 6ebd b00e 493c fc76 673d bc54 f83c
000000d0: 7bc9 a93c d4ac f1bc 0336 87bc 2319 ad3c
000000e0: 000e 003c 86c3 173d 3ef5 493c 96f5 913c
000000f0: f7ff 9b3c 20a9 533d 681c 0ebd 952a 37bd
00000100: dd4b 6f3d f64d a2ba d141 353d e89f 64bd
00000110: cadb 3abd f6d6 133d 9d25 383d 058f 423c
00000120: 6fe4 593b cf82 67bd c89c 203d 5b00 9abc
00000130: 83b8 2ebd be70 babc 77d5 3f3d 7a14 133d
00000140: f5a7 3bbd 4da1 bebc fd82 793c 2235 40bd
00000150: 1f8b 083c 60de 763b 805c 77bd 662d 3d3c
00000160: e9f1 dbbc d2c4 713d 30f8 223d 637b b1bc
00000170: 7e32 9b3a 116f 02bd 3d4d a73b d286 a2bc
00000180: ccbc 9a3c 5312 7cbd 94e6 3e3d cd8c dc3c
00000190: 5583 66bd d885 fabc 13b2 92bc 0201 dcbc
000001a0: 40d3 d43b 4276 45bd 334e 243c 4437 1fbd
000001b0: c835 513c e41c cd39 3608 193d ad30 19bd
000001c0: 0767 09bd 5381 d7bc 6cf2 a4bc e81d 0fbd
000001d0: 5f2f 26bb af01 3d3d 62ff bf3c 32ec 32bd
000001e0: ff99 333d 6b91 09bd 6432 68bd e205 01bd
000001f0: b199 71bd 16d2 e5bb df04 3e3c 4d57 463d
00000200: d5d1 63bd d127 963b 1cd2 ac3c 5e7e b4bc
00000210: 9783 c33c 08f4 e3bc 7517 4e3d c34b 9b3c
00000220: b2d0 65bd 42eb 2cbd ac0e e7bc 1894 653d
00000230: b833 263d 32bc 55bc 2939 8e3c 5495 d83c
00000240: b7d7 2abd a638 e2bc fa06 18bc 1f0b debc
00000250: 1272 203d 5a4d 1bbc afaf 63bd b482 72bd
00000260: aa91 03bd bb98 cbbc 8e85 4b3c f642 a83c
00000270: c475 2b3d 9ae6 273d ced8 2b3d e3f2 59bd
00000280: ad56 2a3d e5d0 8c3c f9f8 4ebd 98d3 a4bc
00000290: f2be 503d fadc 99bc 56de 09bd 9f52 71bd
000002a0: d1c2 2e3c 7603 8a3c daa9 053d 812c 6bbd
000002b0: ca9d 17bd 42dd 163d d4bf 923a f6bb a63c
000002c0: e329 003d 03de 1d3d 1417 f83c e925 7cbd
000002d0: b6be 123d 1454 b2bc 4cdc d0bc 656f 2ebc
000002e0: f861 5bbd 4508 f5bc 7a7d ae3b 4699 2ebd
000002f0: bfe7 b4bc f622 353d 3868 433d 3bb8 f53c
00000300: 2369 623b a8ec 9b3c 37fb 47bd c31b be3c
00000310: 5664 38bd bdac 1abd c5dc 07bc b471 2f3d
00000320: 2d0a 39bd 1b76 07bd 1cdf 54bd e79a 513b
00000330: 1f16 36bc 9697 1dbd 1f78 44bd 8128 0ebc
00000340: 12fe 843c 3a70 5cbd 480e 0f3d 6ac5 493d
00000350: c635 c53b 9d6a 5ebd 992e f5bc 9cd6 52bd
00000360: db1c 26bd f392 a43c 549a 463c e5bc 263d
00000370: 9f79 e53c a80e 9b3b 555b 25bd 9925 f53c
00000380: b563 f03c dc95 4dbd bbf4 623d 7e76 09bd
00000390: ef75 4b3d 0ce1 3d3d 55d3 2ebd 1876 47bd
000003a0: 0c21 6e3d c48a 1dbb d61f 2ebd 0af8 17bd
000003b0: 4598 fcbc cfab 52bd 530c dc3c 1084 2b3c
000003c0: 63a5 b0bb 445e 353c f13d 36bd 2325 623d
000003d0: b0fe 773c 6a64 08bd 7916 83bc fb76 9fbc
000003e0: e288 6dbd 9c6a 5e3d 5bf8 abbb c3e5 9e3c
000003f0: 4c48 e5ba a0e2 69bb 64ed cfbc 9d51 12bd
0.0019371097 -0.0065614134 -0.0051319865 0.0111663975 0.00019829988 0.061992325 -0.060339622 0.061882097
-0.06083639 -0.005999949 -0.04235494 0.026764262 0.025855497 -0.008352234 0.061479364 0.042683445
-0.009184395 -0.0022848933 -0.002034753 -0.024681488 0.022320375 0.015110989 0.060638204 -0.010106295
-0.03209949 -0.02523457 0.008827293 0.012448396 -0.037567146 -0.04488687 -0.0009103748 0.045456562
0.0018258293 0.01890567 -0.047560006 -0.044817913 -0.032470733 -0.05838429 0.03540259 0.056463547
0.0025139912 -0.056636393 0.04671618 -0.036076132 -0.04984665 0.015997166 -0.0508011 -0.025975257
-0.05817823 0.012271568 0.056509957 0.030313842 0.020725956 -0.029501356 -0.016505247 0.02113015
0.007815838 0.0370517 0.012326537 0.0178173 0.019042952 0.051674962 -0.03469506 -0.044718344
0.05842196 -0.0012382853 0.04425222 -0.05581656 -0.045619763 0.036093675 0.044957746 0.011874919
0.003324773 -0.056521233 0.03921202 -0.018798998 -0.042656433 -0.022758838 0.046834435 0.0359082
-0.045814473 -0.023270274 0.015228984 -0.04692567 0.00833395 0.0037669167 -0.06039095 0.011546468
-0.02684875 0.059025593 0.03978747 -0.02166528 0.0011840609 -0.031844202 0.005105643 -0.019839678
0.018888853 -0.061540913 0.046606615 0.026922608 -0.05627759 -0.0305814 -0.017907178 -0.02685595
0.0064949095 -0.048208483 0.01002841 -0.038871065 0.01276917 0.00039122172 0.037361346 -0.037399936
-0.03354552 -0.026306784 -0.020135127 -0.03494063 -0.0025357825 0.046144184 0.023437206 -0.043682285
0.043848034 -0.033585947 -0.05668868 -0.03149975 -0.058984462 -0.0070135696 0.011597841 0.0484231
-0.055620033 0.004582383 0.021096282 -0.022032913 0.023866458 -0.027826324 0.05031534 0.018957024
-0.05610723 -0.042216547 -0.028205238 0.056049436 0.040576667 -0.013045358 0.01736124 0.026438393
-0.041709628 -0.027614903 -0.009279007 -0.027104912 0.039171286 -0.009478891 -0.055587467 -0.05920668
-0.032121338 -0.024853101 0.012421979 0.020539742 0.041860357 0.040991403 0.041954808 -0.05321015
0.041586567 0.017189452 -0.050530408 -0.020120427 0.05096335 -0.018782128 -0.0336593 -0.058916684
0.010666565 0.016847353 0.032632686 -0.05741549 -0.037015714 0.0368321 0.0011196085 0.020353299
0.031289946 0.038541805 0.030284442 -0.06155959 0.035826407 -0.021768607 -0.02549567 -0.010646676
-0.053560227 -0.02991117 0.0053250166 -0.04262664 -0.022083161 0.044222794 0.047706813 0.029995074
0.003454753 0.019033745 -0.04882356 0.023206597 -0.045017563 -0.037762392 -0.008292382 0.042833045
-0.04517572 -0.03307162 -0.051970586 0.0031983198 -0.0111136725 -0.03847464 -0.04796612 -0.008676649
0.016234431 -0.053817965 0.03492573 0.049260534 0.006018373 -0.054300893 -0.029929446 -0.0514742
-0.040554862 0.020089602 0.012121756 0.040707488 0.028012095 0.004731972 -0.040370304 0.029925155
0.029344419 -0.050191745 0.055409174 -0.03356027 0.049673017 0.0463572 -0.04268201 -0.048696607
0.058136985 -0.002403901 -0.04251083 -0.037101783 -0.030834327 -0.05143338 0.026861345 0.010468498
-0.0053908094 0.011069838 -0.044492666 0.055211198 0.015136406 -0.033298887 -0.016001927 -0.019465914
-0.05799187 0.05430089 -0.005248112 0.019396668 -0.001749286 -0.0035688058 -0.025381751 -0.035722364

actor.fc2.bias f4 [128]
00000000: 2585 b73c f755 0c3c db96 21bc e223 37bd
00000010: 4e90 fa3c 1c3c bebc f5fc 78bd 29cc 7c3d
00000020: a0ed c4bc 03a7 a5bc b248 da3c 0117 26bd
00000030: f740 c3bb 4756 6a3c 7658 113d 8e3e 9dbb
00000040: 9072 693d a20a ac3c 881b 553d 5e39 67bd
00000050: bd0b 363d 7fcd 93bc fef2 963c ed59 4a3d
00000060: 8735 04bc 22c6 3e3d 1ef0 37bd 5e6e e83c
00000070: 04c9 a0bc 4af0 31bd cb3e 0b3d fc79 203b
00000080: c3d1 f4bc 24de a5bc c175 21bd 5f42 123c
00000090: 4a76 a1bc 63e3 babc 9abf 91bc 4d0d 053d
000000a0: 7896 e5bc 148f 88bc e825 193d 5c49 e23c
000000b0: 1443 fc3c 5642 55bc f4d3 3dbd 09b0 593d
000000c0: 4c2f 0b3d ff70 9e3c e3c3 20bc f977 21bc
000000d0: cd9f 70bd 94b1 c83a 6c77 75bd 36d0 dbbc
000000e0: 2868 6bbd ff76 753c 408f cd3a 7abd f2bc
000000f0: 8905 153d 5a0b 23bc 313d 383d 91ae 5d3c
00000100: bfba 32bd 92df 0d3c 54f4 43bd 3eeb f9bc
00000110: b23e 30bd 5528 05bd bb2b 1bbc bd69 153d
00000120: 1220 ef3c adae 10bd c831 583d a00b 37bd
00000130: f66a 67bd 0117 db3c 4b10 7bbd cefa 21bc
00000140: 7b57 0abd 5cd5 9c3c 8616 363d ee24 00bd
00000150: 1e08 183c bab4 68bd 6cba 66bd 982f e43b
00000160: f3e0 91bb 3bbc 98bc 8898 5ebd 04af ccbc
00000170: 0aac 1abd 7b93 3ebc 8728 643d f10b f63c
00000180: fc8d 493c 8608 bebc f6ff ca3c cc03 44bd
00000190: e6d4 1a3d 4f7a 1fbd ba86 0f3c d699 1e3d
000001a0: 64cc 3fbd 946c 603d 47ec b1bb 7c99 42bd
000001b0: ce52 2e3d a3db 69bd 6d14 28bd b22f ebbb
000001c0: f578 e03c c03b 5b3d dc3d 14bd b772 7d3c
000001d0: 931c f8bc 4dff 63bd 21e0 a13b d059 b73b
000001e0: 9744 f13c 9b4a 563c fc16 d1bc 1813 78bd
000001f0: b5f1 1c3d 96d5 ff3c 6a09 c43b d255 3c3d
0.022402355 0.0085654175 -0.009862627 -0.044711955 0.030586388 -0.023222022 -0.060788114 0.06171814
-0.02403909 -0.020221239 0.026645992 -0.040549282 -0.005958672 0.014302797 0.035484754 -0.004798717
0.05699402 0.021001164 0.05202821 -0.056451194 0.04444479 -0.018042324 0.018426415 0.049402166
-0.008069403 0.046575673 -0.044906728 0.02837294 -0.019627102 -0.043442048 0.03399543 0.002448677
-0.029885178 -0.020247526 -0.03941894 0.008926957 -0.019709725 -0.022813505 -0.017791558 0.032483388
-0.02802585 -0.016669787 0.037389666 0.027622871 0.030793704 -0.013016304 -0.046344712 0.053146396
0.033980653 0.01934099 -0.009812328 -0.009855264 -0.058746148 0.0015311711 -0.059928343 -0.026832681
-0.057472378 0.014981984 0.0015682951 -0.029631365 0.03638223 -0.009951437 0.04498023 0.013530389
-0.043635126 0.00865926 -0.04784043 -0.03050768 -0.04302854 -0.032509167 -0.009470875 0.036477793
0.029190097 -0.035322834 0.05278185 -0.04468882 -0.05649849 0.026744368 -0.061294835 -0.009886457
-0.033774834 0.019144706 0.044455074 -0.03128522 0.009279279 -0.05681298 -0.05633013 0.0069636814
-0.004451865 -0.018644443 -0.054344684 -0.024985798 -0.037761725 -0.011631842 0.055702712 0.030034991
0.012301918 -0.023197424 0.024780255 -0.047855183 0.037800692 -0.038935002 0.008760149 0.038720928
-0.04682578 0.05479105 -0.005429778 -0.047509655 0.042559437 -0.057094228 -0.041035105 -0.0071773166
0.027401427 0.05352378 -0.036191806 0.015469245 -0.030287063 -0.055663396 0.0049400483 0.0055954233
0.029451651 0.013079311 -0.025523655 -0.060565084 0.038316447 0.031229775 0.0059825676 0.045980282

actor.policy_head.weight f4 [50, 128]
00000000: 68fa 2abd 5d3f 303d 442b 77bd 517d 793d
00000010: 4cc9 dcbc 9dd1 20bd 0036 06ba 42a5 20bc
00000020: ca78 ae3d 53e7 d4bc 3bda 7c3d 40b2 6e3d
00000030: 5bef 59bd 6435 d6bc aab5 b13c 7247 993c
00000040: 9011 9dbd f49b 2e3d 9a2d e73b 6f17 453d
00000050: 4ac0 debc 9c79 85bc d976 883d 45bc 423d
00000060: 75b0 f43c 1ce7 123d c83b 97ba d685 d0bc
00000070: bbc3 28bd bdd9 ad3c b2d0 9a3d 6cbf 97bd
00000080: fd38 dfbc 1a40 643d f155 5a3d c657 4fbd
00000090: 7eb1 563c e425 0abd bafe 413d b322 863c
000000a0: 7dc3 983d 5dab 92bd f29f 45bd 2c43 dcbc
000000b0: c0e1 073d d347 34bb 38ac b13d ea7e b43d
000000c0: 7964 0abc 170b a9bd 1770 a2bd 7845 16bd
000000d0: 7226 463d 7830 a3bc f86b 36bd 685a 0c3c
000000e0: 71bb b6bc 8ba1 eb3c eb8f 8abd 46b7 85bd
000000f0: ba20 5d3d ecd5 3dbb e4fb 75bc d4f6 d33c
00000100: bb80 e5bc c2c2 50bc f50c 9fbd d7f2 8bbc
00000110: 7957 153d 28ae 223d b2e5 84bd 3e36 36bb
00000120: 997b 57bd c7b0 fe3c ee00 493c 6dae 85bd
00000130: feeb e3bb d0f7 6c3c 425f a7bb 99af b13a
00000140: 3166 9e3c 2aca 8a3c 057e 3e3d 5466 4cbd
00000150: 9e36 69bd 570f 023d 7a7b b53d 985a 453c
00000160: 3897 5bbd 0ef2 acbc abfb 7d3d a765 d43c
00000170: 714a 3bbd 2208 86bd 22b9 a4bd 6ffe 2bbc
00000180: d0e2 573d 5399 1d3d db7b 733d dcdc 713a
00000190: 2094 0d3d ecce 57bc 00d1 3dbd 29a4 363d
000001a0: e8d2 81bc 7973 40bd cba7 a9bd 88f0 87bd
000001b0: 79fc 473d 8ca1 aabd 37a5 aa3d 9330 58bd
000001c0: 4443 dc3b c61f ac3c fe9e 883d 26e3 603b
000001d0: d1a8 72bd 6bb1 87bd 1a0e 61bd a563 a23d
000001e0: 22a0 97bd 6c96 90bd f263 0f3c d628 823d
000001f0: aca3 87bd cd95 193d f807 a53d 57be b03b
00000200: bba4 a8bd c633 5ebd 59ec 9a3c 061d 90bc
00000210: 4c74 28bd 703d 873d 05f9 2cbd cc73 8d3d
00000220: 8280 e6bc a4d4 7dbd a2a1 45bd e61f fe3c
00000230: ce5b a1bd 6026 a53c 1baf 3abd 2151 2a3d
00000240: 8fd4 a5bd c44e 8c3d b92d 81bd 7255 163d
00000250: f55e cb3c e581 4fbd 36a8 523d 0ca1 763c
00000260: da2f 473d c719 a3bd 5829 a6bd 12a6 5b3d
00000270: 9aeb 713d a6ef d3ba 0e76 96bd f7e2 01bd
00000280: 189a d83b 459f 893c 257e 983d 297e ac3d
00000290: e47f bbbc 3771 ac3d 2810 063d 65f0 abbd
000002a0: e50f a63c 1339 893c 778c 9fbc f8f8 a23d
000002b0: 9d02 12bd c736 5abd eb59 13bd 6fb3 693d
000002c0: f694 8a3d 46f2 21bd 23c2 02bd de92 803d
000002d0: 62b1 863d 10ec 89bd ad42 353d cc45 aa3d
000002e0: eb52 a33c 5597 31bd f184 a33d 03bc 0f3d
000002f0: 0197 2c3c bab6 ef3c 6118 483d 52c4 033d
00000300: 4166 6bbd cd39 1a3d e6ff 91bd 261f 843d
00000310: 32cd 98bc 516f 8a3d 3ab4 513d e5ab 9ebb
00000320: 950a acbd d965 28bd 29c9 93bd 488a a83d
00000330: 3ff6 e4bc a537 633d 4d77 103c 4abd 18bc
00000340: 1d64 75bd 1813 29bd dcd1 623c 242e d8bc
00000350: 0491 903d f02e b23b c5fe 01bb 415c 7ebc
00000360: d257 a5bd c751 963d caa3 013c a590 93bd
00000370: a284 59bd 8776 d23c 1b47 8f3c d0c4 39bd
00000380: 6470 4b3d d270 98bd 4a41 abbd 2aa1 36bc
00000390: dfb1 e3bb edab 81b9 2d3d 843d 2914 e33c
000003a0: a415 153b 8999 db3c aaf1 693d e785 9dbd
000003b0: 3591 89bb 3dd4 583d b37f 95bc a3d4 233d
000003c0: 7651 26bb 422d 253d 2e18 3f3d 55d8 923d
000003d0: 3973 453d 62ce e63c 2729 1abd de55 72bd
000003e0: b5cd bfbc 16da 10bd 300d 7cbc f64c c73c
000003f0: dd3b 193d 0c77 f1bc 8936 923d ddf2 65bd
-0.041742712 0.043029178 -0.060343996 0.060910527 -0.026951455 -0.039262403 -0.0005119741 -0.0098050255
0.085191324 -0.02598921 0.06173156 0.05827546 -0.053206783 -0.026148506 0.02169307 0.018710826
-0.076693654 0.042629197 0.0070549967 0.04811805 -0.0271913 -0.01629334 0.066632934 0.04754283
0.029869298 0.035864934 -0.0011538202 -0.025454443 -0.041202288 0.02122199 0.07559337 -0.07409558
-0.027248854 0.055725195 0.053304616 -0.050620817 0.013103841 -0.03372754 0.047362067 0.016373968
0.074591614 -0.07161591 -0.04824824 -0.026887499 0.033174276 -0.002750863 0.08675426 0.088132694
-0.008446806 -0.08254068 -0.07931536 -0.036687344 0.048376508 -0.019920573 -0.04453656 0.008566476
-0.022306176 0.028763553 -0.067657314 -0.06529097 0.05398629 -0.0028966619 -0.015013669 0.025874533
-0.028015485 -0.012741746 -0.07766143 -0.017083568 0.036460374 0.03971687 -0.064891234 -0.0027803327
-0.052608106 0.031090153 0.012268288 -0.0652741 -0.0069556227 0.01446338 -0.005107791 0.001355636
0.019335838 0.016942102 0.0465069 -0.049902275 -0.056936853 0.03175291 0.08861442 0.012045525
-0.05361101 -0.021111514 0.062007587 0.025927378 -0.04572529 -0.0654452 -0.08043124 -0.010497673
0.05270654 0.0384763 0.05944429 0.0009226331 0.03456509 -0.013171893 -0.046341896 0.04459015
-0.015847638 -0.046985123 -0.08283957 -0.066376746 0.04882476 -0.08331594 0.083322935 -0.0527807
0.006721886 0.021011245 0.0667095 0.0034315079 -0.059243027 -0.06625637 -0.05494509 0.07929162
-0.0740359 -0.07059941 0.008751856 0.06355445 -0.06623015 0.037496377 0.080581605 0.005393784
-0.08234545 -0.054248594 0.018911527 -0.017591964 -0.041126534 0.06603515 -0.04222967 0.06906852
-0.02813745 -0.061970368 -0.04824985 0.03102107 -0.078788385 0.0201599 -0.04557715 0.041581277
-0.08097183 0.06850961 -0.06307549 0.03670258 0.024825552 -0.050660986 0.05142995 0.015053045
0.04862962 -0.07963901 -0.081133544 0.053625174 0.059062578 -0.0016169443 -0.07346736 -0.03171059
0.0066101663 0.016799578 0.07445935 0.08422501 -0.022888131 0.084200315 0.03273025 -0.08395461
0.020271251 0.016750848 -0.019476159 0.07957643 -0.035647023 -0.053274896 -0.035974424 0.057055887
0.06766693 -0.03953769 -0.031923424 0.06278013 0.06576802 -0.067344785 0.04425304 0.08314094
0.019937 -0.043357212 0.07984341 0.03509141 0.010534049 0.029261936 0.048851375 0.032169648
-0.057470564 0.03765278 -0.07128887 0.064512536 -0.018652532 0.06759513 0.051197268 -0.004842269
-0.08400456 -0.041112754 -0.07216103 0.082295 -0.02794945 0.05547299 0.008817506 -0.009322474
-0.05990993 -0.041277975 0.01384398 -0.026389189 0.070589095 0.0054377243 -0.0019835692 -0.015524925
-0.08073391 0.073398165 0.0079125855 -0.07205323 -0.053105004 0.025691284 0.01748996 -0.04535371
0.04966773 -0.07443394 -0.08362062 -0.011146823 -0.006948694 -0.00024732892 0.06456981 0.027719574
0.0022748495 0.02680661 0.057115234 -0.076915555 -0.004198218 0.05293678 -0.018249368 0.039997708
-0.0025378144 0.040326364 0.04665392 0.07170168 0.048205588 0.028174583 -0.037636902 -0.05916392
-0.023413518 -0.035364233 -0.0153840035 0.02432869 0.037410606 -0.029475711 0.07139308 -0.056139816

actor.policy_head.bias f4 [50]
00000000: 565c aebc 63fd 713d 05a1 aebd bec0 91bd
00000010: 4d45 883c 6d93 a5bd ad2c b1bd b0fb 41bc
00000020: ae67 26bd caae a5bd 506d 04bd 2255 abbd
00000030: 2a00 7e3d 99f8 f53c 7486 a83a b1bc 073c
00000040: cd04 4dbd 5071 afbd f360 03bd 723d 1fbc
00000050: fe62 58bd 1a55 fabb 9537 aabd 26fa ab3d
00000060: 012b 2f3d 9fa7 63bc cf77 413d e2eb 48bd
00000070: 9465 29bc 4c38 b4bc 55f1 973d d9a4 513d
00000080: a396 a6bc e49e 743d 45df 94bd 92c0 afbb
00000090: 92c6 053c b95b 3b3d b4c4 a4bd 3b37 9f3d
000000a0: 7d4e 983d d0a6 223d e6ec a33d 3792 4d3d
000000b0: 3ba0 59bd d366 33bd f32a 4bbd 1e7b 1b3d
000000c0: d910 68bd 600c 043d
-0.021284264 0.05907954 -0.08526806 -0.07116841 0.016634608 -0.0808476 -0.08651099 -0.011839792
-0.04062622 -0.08089979 -0.03233081 -0.08365847 0.062011875 0.030025767 0.0012857453 0.008284734
-0.050053407 -0.085665345 -0.03207488 -0.00971924 -0.05282878 -0.0076395394 -0.08311383 0.083973214
0.04276562 -0.013894944 0.0472334 -0.04905308 -0.0103391595 -0.0219995 0.07419077 0.0511826
-0.020335501 0.059721842 -0.07269148 -0.0053635323 0.008165019 0.04574177 -0.08045331 0.07774206
0.074368455 0.039709866 0.08004169 0.05018827 -0.053131323 -0.043799233 -0.049601506 0.03795921
-0.056656692 0.032238364

critic.fc1.weight f4 [256, 21]
00000000: 3095 153e f836 083c b53a 303e a3e7 643c
00000010: 2d98 00bc befe a7bc 17eb b33d 2ca9 e93c
00000020: f0a8 8a3d c236 c73d b4a9 5e3d 8a64 28be
00000030: ffa0 eabd 08dd 20be 3dc9 c7bd f761 0a3e
00000040: d975 283e 4d87 0ebc 5fd8 f23d 73ff bc3c
00000050: 3de4 9cbd 4737 67bd 780b 3c3d e387 ddbc
00000060: 5167 0cbd 79c8 2c3e 6313 2c3d d80a c6bd
00000070: fb00 ef3c 1c0c 2bbd a7a8 00be f45c dbbd
00000080: 322c dcbb 9569 533e 20a7 14bd 3124 35be
00000090: d151 fd3d 06ee 0d3e d772 debd d4d9 18bc
000000a0: e6af 803d 214b 213d f412 29be b77a 87bc
000000b0: 57cb 543e 0374 a13b 94df 19be 32c3 5cbe
000000c0: eb8e e3bd 7369 903c b010 563e eba1 f73d
000000d0: e4ba ef3d 3e46 63bd 8451 163e d707 35bc
000000e0: 5d5d 38be 5579 c1bc 3b9e 3c3e 7ee5 4fbd
000000f0: f3f9 42be de5e 04be 9b13 1c3e 96b2 2abe
00000100: 3a58 bcbd 0ad3 5abd 4aab 90bd cfed 1c3e
00000110: c08b 4dbe 5f01 07bd d7e7 163e b390 94bd
00000120: 204b fcbd 7b42 27be 3804 36be 251c 153e
00000130: 8622 23bc 6fae 153d b337 34bd effb 023e
00000140: 63b0 a3bd 97d8 5d3e 3bce 52be 4c89 193e
00000150: 4418 bcbd 8949 34be ea04 10be eaad 2b3e
00000160: 7954 6e3a 8b25 e53d 950f 24be b9fb 3b3e
00000170: 2ea1 d53c e249 863d 44bf e6bd 65a8 333e
00000180: fada 94bd 1ccb 17be b945 90bc 6b79 0d3e
00000190: 5443 4e3e 4a06 b3bd e92d 56be 42f0 c43d
000001a0: 28fa ad3c 3cdb 43be cc0d 473e fe97 a73d
000001b0: c41c 18bd 9057 373d 1abd a13d c3fd ab3d
000001c0: a003 b83d db67 1b3e 9757 ac3c 872b 16be
000001d0: b578 063e b1bb 333e ebfb 3c3e 4e66 a4bd
000001e0: 811a c6bd 21d3 4cbe 9014 a63d 8e82 1dbe
000001f0: c734 c2bc 8fd0 19be 9c91 333c 12b1 083d
00000200: 8f8e 4b3e b5cf 4fbe e5be 2c3e 057d 6f3d
00000210: 01b7 193e 399b d7bd 84c4 0abd cab2 a6bd
00000220: 9888 5a3e 828b f13d ebb2 fcbd 4c01 dbbd
00000230: 0907 4c3e da99 3fbe 50ac b9bd 95e2 fabd
00000240: 340c 01bd 3395 323e ff25 5d3e 6568 a13c
00000250: 20c8 bd3d fa6d eb3c 6246 373e e82d 38be
00000260: dac1 243d e3c3 c9bc f261 0fbe d8f4 54be
00000270: 1197 5bbd 1455 c73d b9b7 56be 1e34 943d
00000280: 57a5 4b3e eed2 413e 4fae fd3d cebe 26be
00000290: e88b 48bd 802f 90bc 3073 2a3e 7d86 78bb
000002a0: 541b 7fbd 2846 e93d 2bfe 173e ad34 d23d
000002b0: b1c7 003e 5c20 13bd c819 9b3c ae5b 133e
000002c0: fc46 30bd 5e57 233e f859 453e ec38 a9bc
000002d0: 3a51 ffbd 013d 1f3e 1cb2 163e f627 093e
000002e0: 0b74 393e 5f45 183e c1fc 873d 3464 a1bc
000002f0: cc03 513e 590c ec3b a4b8 41be d010 3bbe
00000300: e12b 3e3e 5813 f03d df60 823d 0a21 003d
00000310: 1a07 323e 02a8 23bd 68da a7bc 3a36 ec3c
00000320: 623f 5c3d 3170 68bb 141b c7bd f5d4 35be
00000330: 60d7 e93d fccd f9bd ca0f 553e a8e3 243e
00000340: a122 57be 1775 f2bd 897c 89bb d9d2 99bb
00000350: d0a6 5dbd eca4 103e 8f58 c1bd 63bd 47bd
00000360: ef85 663d b4b6 2a3e 7782 663d 1eb7 9f3d
00000370: 5d8a 173e 251e e43d d98a e83d 8b83 583e
00000380: 6c71 c43c a762 463e 8f9c afbc 1a10 a73d
00000390: 0481 303e 55d4 14be 024e 533e cae5 ffbd
000003a0: 3cd1 e3bc d68a 573e 1654 c63d 00bb f0bd
000003b0: 9d56 0e3e 0a54 39be 1f02 20be 5fc2 083e
000003c0: c7a3 36be 18f0 1a3e 8570 443e 29ff 133e
000003d0: c837 8c3d 5cb5 b83d bc86 dd3d 043b 69bc
000003e0: 21b2 58be 686d 11be 9383 223d 9d3c d73c
000003f0: bc02 53bd cacd e63d 7b7b 9bbd 8ba3 8d3c
0.14607692 0.008313887 0.17209895 0.013971242 -0.0078487815 -0.020507213 0.08785074 0.02852305
0.067705035 0.09727241 0.05436106 -0.16444603 -0.11456489 -0.15709317 -0.0975518 0.13513933
0.16451205 -0.00869925 0.11857676 0.023071026 -0.076607205 -0.0564492 0.045909375 -0.027042335
-0.034278218 0.16873349 0.042010676 -0.09670037 0.029175272 -0.041759595 -0.12564336 -0.10711089
-0.0067191357 0.20645745 -0.036292195 -0.17689587 0.12369121 0.1386033 -0.10861748 -0.009329278
0.0628355 0.03937829 -0.16511136 -0.016538007 0.20780693 0.0049271598 -0.15026695 -0.21558836
-0.11111244 0.017628407 0.20904803 0.1209143 0.117055684 -0.05548691 0.14679533 -0.011049232
-0.18004365 -0.023617426 0.18419735 -0.05075597 -0.1904066 -0.12926814 0.15241854 -0.16669688
-0.091965154 -0.05342392 -0.07063921 0.15325092 -0.20072842 -0.032960292 0.14736877 -0.07254162
-0.123190165 -0.16333954 -0.17775047 0.14561518 -0.0099569615 0.036543306 -0.04399843 0.12791418
-0.079926275 0.21664654 -0.20586483 0.14993781 -0.09184316 -0.17606176 -0.14064375 0.16765562
0.0009091567 0.111888014 -0.16021569 0.18357743 0.026077833 0.06557061 -0.1126695 0.17544706
-0.07268329 -0.14823574 -0.017611371 0.13815849 0.20142871 -0.08741434 -0.20915951 0.09616138
0.021237448 -0.191266 0.19438857 0.08183287 -0.037136808 0.04476124 0.078973964 0.083980106
0.089850664 0.15176336 0.02103786 -0.14665042 0.13131984 0.17552067 0.18455474 -0.080273256
-0.09673024 -0.20002414 0.08109391 -0.15381834 -0.023706807 -0.15020965 0.010960009 0.033371992
0.198786 -0.20294078 0.16869695 0.058468837 0.15011217 -0.10527653 -0.03387882 -0.0813957
0.21341169 0.11794187 -0.123388134 -0.10693607 0.19924559 -0.18711033 -0.09066069 -0.12250248
-0.03150578 0.17439727 0.21596526 0.0197031 0.092666864 0.028738964 0.17897943 -0.17986262
0.040223934 -0.024629539 -0.14002207 -0.20796525 -0.053610865 0.09733024 -0.20968522 0.07236503
0.19887291 0.1892812 0.12386762 -0.16283724 -0.04896155 -0.017600775 0.16645503 -0.0037921958
-0.06228192 0.11390334 0.14843051 0.10263953 0.12576176 -0.035919532 0.018933192 0.14390442
-0.043036446 0.15951297 0.19272602 -0.020657025 -0.124666646 0.15550615 0.14716381 0.1339415
0.18110673 0.14870213 0.06640006 -0.0197011 0.20411605 0.0072036204 -0.18918091 -0.18268132
0.18571426 0.117224395 0.06366133 0.03128151 0.17385522 -0.039955147 -0.020489886 0.028834451
0.053771384 -0.0035467262 -0.097219616 -0.17757018 0.11418033 -0.121974915 0.20806804 0.16102469
-0.21009304 -0.11838739 -0.004195754 -0.0046943245 -0.054114163 0.14125413 -0.09440719 -0.048764598
0.056280073 0.16671258 0.056276765 0.07798599 0.14798875 0.11138562 0.11354608 0.2114393
0.023979865 0.1937357 -0.021436958 0.08157368 0.17236716 -0.14534123 0.20635226 -0.12495001
-0.027809732 0.21049055 0.09684007 -0.117544174 0.13900228 -0.18098465 -0.15625809 0.13355397
-0.17835914 0.15130651 0.19183548 0.14452805 0.06846577 0.090189666 0.10816714 -0.014235262
-0.21161701 -0.14201891 0.03967626 0.02627402 -0.05151628 0.1126972 -0.075919114 0.017289897

critic.fc1.bias f4 [256]
00000000: d555 69bd e29a ec3d 3e95 3fbe b9e6 20be
00000010: fd16 063e 94f9 99bc 5b29 343e cc31 9f3d
00000020: 1405 b33d 481f 2cbd 30d5 313d dff2 bc3a
00000030: a669 bbbc 8655 f93d 00d5 c63d c194 d2bd
00000040: ab43 063e 386f a4bd 5a7d 0f3e fc82 6fbc
00000050: cd2c 0a3d 1466 2fbe 5b61 cf3d 1cc2 2c3c
00000060: 8546 4e3e 2c00 50bd 9338 11be 428b 4bbd
00000070: 4ed9 31bd 08aa bf3c 7d96 bf3d 93b4 d3bd
00000080: de2f c3bc 13e4 73bd 553f 16bd bba8 553e
00000090: c4f6 33be bca5 b6bd d6b1 28be 6a72 36be
000000a0: aacc 553e 2f73 703d ad20 093e 13d5 44bc
000000b0: f224 5a3e 53e3 68bd fbd8 c03c 721f d13c
000000c0: e501 253e ca31 8c3c 29da 4fbe 607d 593e
000000d0: 014c a03d 1b4f d6bd e1a4 14bb b287 0bbe
000000e0: b801 583e 88ab 9c3d 843b 883d 8203 573e
000000f0: 5ef7 1c3e 0462 8e3b 3040 573e d9be b13d
00000100: f702 9b3d c500 593e e956 f73b 1a65 873d
00000110: e932 3d3a ab43 3bbd 7379 26be eb63 40be
00000120: 4952 febd f49c 5d3e 397d 5abe 6a68 113e
00000130: 0652 9bbd e3ec 143e 7e6f 553e a456 053e
00000140: 4b3a b7bd 979f 403e 8c8d 233c 7fc5 863c
00000150: d967 8b3d 62f0 2cbe 28c8 413e fd54 313d
00000160: c3d9 5cbe 6d4f a2bd c9f6 31bd e119 df3b
00000170: 4bd4 253e 6f0f 23be 2a72 803c c34f fdbd
00000180: c7e6 06be d888 b83d 9f47 16be c4ca 5a3e
00000190: c5d8 523e f686 583e a09e 053e 142d 013e
000001a0: 4c16 9ebc 9df7 01be 1d53 3fbd 6a66 4c3e
000001b0: 991e 81bd 3595 54be 8f8d 90bd 8a07 50bd
000001c0: 5609 16be 0b2a 4f3e 6f68 20be 2f4a a03c
000001d0: 880a cbbd 3c3f 233e 5efb 443e bedf 40be
000001e0: 36e7 123e 2386 fd3d 313e 4bbe a5b3 1dbe
000001f0: c5a9 b9bd e131 98bc 965d ea3d df99 d93d
00000200: dc5a 45be 7401 ff3d 1eb1 143d e142 c9bd
00000210: 28c1 e5bd ee5b 8ebd 9d01 dcbd e765 f1bd
00000220: 29d9 233e a85e 45be c423 183e 8a25 e7bd
00000230: bb8f 473e feea 233b e735 df3d 4b81 1f3b
00000240: d9fb 43be b0ed 37bd a132 3d3c 0a00 a4bc
00000250: 3607 b6bd 7caf 0c3e 62b9 12be 5adf b3bc
00000260: aad8 84bd 57ab 1ebe 1956 88bd f79e 9f3d
00000270: 7d54 583e 08bd 3cbe 3a1e 1ebe 9dc9 dfba
00000280: a064 353e 9fba 42be 633e 533d 05a7 133e
00000290: f1fa 453e 6b54 853a 9579 d9bd 695f 9e3d
000002a0: aadf 063e 984c af3d b4e4 833c 7f43 3b3e
000002b0: caa0 c8bd fb90 b7bd da0a 33bd 16d2 51be
000002c0: 0404 733b 7f63 b2bd 230f 6dbc ac6e 8d3d
000002d0: bc21 53be e6a0 18be e1b0 69bd f573 4a3e
000002e0: bb9a a2bd e0a5 6ebd 4b33 27be 97da 343e
000002f0: 3d95 5e3e d450 ccbd 49b6 ca3d e8c5 f2bd
00000300: 64fd 1cbe 72d6 5bbe b217 403e c512 03be
00000310: eddd 93bd 8158 b73c c41a 713b 9c16 bc3d
00000320: 2096 55be a13f 23bd 7934 d73b 5b81 0bbd
00000330: a069 c53c 0178 d0bd c09c 6b3d ac1a e13d
00000340: a650 4fbe da36 453d 65b2 12bc eea6 63bd
00000350: 2516 5d3e 7908 0dbc 40a3 c0bd 438d 233e
00000360: 48e2 8ebd ba66 da3d 5b6a 66bd e1f7 713d
00000370: bc23 503e 19cb 153e b229 8a3d 646f c4bd
00000380: c299 373e 4f94 193e 591e c1bd 2456 8cbd
00000390: 9623 c3bd 2107 583e 3ce4 b83d 8aaa ea3d
000003a0: 552b 033d a80c dfbd d462 193c 9dc5 3a3e
000003b0: 8491 4dbe 9614 37be 9946 34be b9fb 3bbe
000003c0: 367a 193c 9c90 323d 0aaa 2ebe 0c01 c4bb
000003d0: 6cbc 7e3c 4604 b43d 2209 afbd a47b d63d
000003e0: 9ddd 88bd 7f73 1a3e 0a61 83bd 5736 10be
000003f0: feca 3fbe d71f 053d bbee e03d 26e3 233e
-0.05696662 0.11552979 -0.18709275 -0.15713014 0.13094707 -0.018795766 0.17593901 0.0777317
0.08741203 -0.04202202 0.043416202 0.0014415643 -0.022877526 0.121745154 0.09708595 -0.10282279
0.13111751 -0.08029026 0.14012662 -0.014618631 0.03373413 -0.17128783 0.10125991 0.010544326
0.20144089 -0.050781414 -0.14181738 -0.049693353 -0.04342013 0.023396507 0.09354875 -0.10337176
-0.023826536 -0.05954368 -0.036681492 0.20865147 -0.17574602 -0.0891833 -0.16474089 -0.17817083
0.20878854 0.058703598 0.13391371 -0.0120136915 0.21303156 -0.05685742 0.023540964 0.02552769
0.16114004 0.017113585 -0.20298065 0.21239233 0.078269966 -0.10464307 -0.0022681283 -0.13625982
0.21094406 0.076499045 0.06651977 0.20997432 0.15328738 0.0043451805 0.2102058 0.086789794
0.07568925 0.211917 0.0075482023 0.066110805 0.0007217364 -0.04571883 -0.16257267 -0.18788116
-0.124180384 0.21641904 -0.21336831 0.14199987 -0.07584004 0.1454349 0.20843312 0.13021332
-0.089466654 0.18810879 0.009982478 0.016451595 0.06806917 -0.16888574 0.1892401 0.04329394
-0.21567445 -0.079253055 -0.043448243 0.006808505 0.16194265 -0.15923856 0.015679438 -0.12368729
-0.13173972 0.09010476 -0.14675759 0.21366411 0.20590504 0.21145234 0.13048792 0.12614852
-0.019297741 -0.12692113 -0.046710122 0.19960943 -0.06304664 -0.20760043 -0.0705825 -0.05078844
-0.14651999 0.20230882 -0.15664838 0.019566623 -0.09914118 0.15942091 0.19236514 -0.18835351
0.14346012 0.123791 -0.19847943 -0.1540056 -0.09065584 -0.018578472 0.11443631 0.10625052
-0.19272941 0.12451449 0.036301725 -0.09827209 -0.11218482 -0.06951128 -0.10742495 -0.117870145
0.16000809 -0.1927439 0.14857394 -0.11286457 0.19488423 0.0025011892 0.10898953 0.002433854
-0.19139041 -0.04490441 0.011547715 -0.02001955 -0.08888094 0.13738817 -0.1432853 -0.021957088
-0.06486638 -0.15495048 -0.06657047 0.07793992 0.2112598 -0.18431485 -0.15441218 -0.0017073635
0.17714167 -0.19016503 0.05157317 0.14419182 0.19334008 0.0010172253 -0.10618893 0.07733042
0.13171259 0.08559531 0.016100265 0.18287466 -0.09796293 -0.089632 -0.04371152 -0.20490298
0.003708125 -0.087103836 -0.014468941 0.069058746 -0.20618337 -0.14905128 -0.05705345 0.19770797
-0.07939669 -0.05826366 -0.1632816 0.1766151 0.21736617 -0.09976354 0.098980494 -0.11854154
-0.15331036 -0.21468523 0.18759039 -0.12800129 -0.07220063 0.02238107 0.0036789635 0.09184
-0.2085805 -0.039855603 0.0065675345 -0.03405891 0.024098217 -0.10179139 0.057522535 0.109914154
-0.20245609 0.048148014 -0.008953665 -0.05557912 0.21590479 -0.008607977 -0.094061375 0.15971856
-0.069767535 0.10664125 -0.056253772 0.059074286 0.20326132 0.14628257 0.06746234 -0.095915586
0.17929748 0.14997981 -0.094296165 -0.068523675 -0.09528272 0.2109647 0.09027907 0.11458309
0.032023747 -0.10891086 0.009361941 0.18239446 -0.20075041 -0.17878947 -0.17605056 -0.18357743
0.009367516 0.04359494 -0.17057052 -0.00598157 0.015547853 0.087898776 -0.08546664 0.10472801
-0.066828944 0.15083121 -0.06414993 -0.14083229 -0.18729779 0.032501068 0.10983034 0.16004619

critic.fc2.weight f4 [128, 256]
00000000: ab71 54bd a985 5d3c 8e56 36bd 625c 0f3c
00000010: 7ff4 613d 5704 c5ba e441 783d f74c 08bc
00000020: 8659 d53c 1bc8 eebc 5d07 46bd bf4f 41bc
00000030: e701 933b f6c2 c03c a71d 283d 225e c0bc
00000040: 56b2 5a3d 22ec f13c dc1b 753d cfb8 d0bc
00000050: 0699 6c3c f78c 783d 48f8 83bc e58d c33c
00000060: 958f 353d ffe8 fcbb 5825 35bd 3a4b 2e3c
00000070: ef52 293c dab3 9e3b bf6a 7c3d e917 993c
00000080: 9107 3b3d 6168 443d 8d72 19bd 4199 093c
00000090: ca2f 30b9 b295 0bbd 2414 243d 95e7 06bc
000000a0: 9045 f33c 2d3c fdbc 9349 9338 e1ed 56bd
000000b0: 5bcc 20bd 9587 2a3c 941d 6bbb 4717 3fbd
000000c0: 5417 1ebc 63e5 2f3c d9a2 c1bb ab39 72bd
000000d0: 46b6 25bd e77b 7cbd a404 2dbd 65e4 02bd
000000e0: 1817 c93c 82ae be3b f3be 0c3c 9597 5abb
000000f0: dd3d 433c 58d1 373d 1332 6c3d fb8d 613d
00000100: 95f7 25bd 1683 e53c 92dc 9abb d628 a5bc
00000110: ac29 6bbd 16b4 00bd 7e9d 62bd aa06 12bd
00000120: d39c b63c 8735 5fbb e5e3 9abc 5442 5abd
00000130: 8895 b13c bc5e 283d 127e 853a 1438 25bd
00000140: 7296 3fbc 370d 3f3d aa62 2abc cc4c 30bb
00000150: c063 17bc 3293 76bd d089 b3bc fece 173c
00000160: 8c9f 723d 7f8c 7b3d f060 85bc f839 53bd
00000170: 3b9b 78bd 60cd 61bd 1d46 733d 0f2d 263d
00000180: 7368 253c df8d f2bc a67f 003d f18b 123d
00000190: 2922 c03b 4a71 cc3c ceab 623d 947d 283d
000001a0: 9f1b 7abb 377b e83c 4f16 29bc 2a8f d13c
000001b0: d4a9 2dbb aa08 603d 2c4b 193d 5fd1 8a3c
000001c0: f9c8 6ebd d0e7 6fbd 4933 51bd a20a 473d
000001d0: 745b 21bd 6766 8b3c 233e 45bd f0d1 16bd
000001e0: 08eb e4bb cc50 e0bc 959c ef3c 7718 c1ba
000001f0: 5262 053d 0e05 d5b9 d179 15bd 27f0 74bd
00000200: c188 2c3c ad75 67bc 992a 173a bef3 23bd
00000210: 1232 043d e6e3 bebc 2427 39bd 5b6e cc3c
00000220: 924d fbbc f089 1fbd 9840 313b ac74 dcbb
00000230: 774e 1d3d 7396 13bd 83c1 f9bc cae7 f93c
00000240: 1038 163d 3575 64bd 7995 b23c a8a8 3b3d
00000250: c8d4 2b3d 977f c13b 89fc 323d d28c 7abd
00000260: 8350 483c fde5 023d ed1d 263d 90ad 07b9
00000270: d7ff 2abc 3602 1c3c eb54 393d d376 403d
00000280: 8094 bebc a5e2 4e3d 4690 493d 3b82 1abd
00000290: 3f2e 783d 9a12 7dbd 8083 9ebc 12b8 2c3d
000002a0: 1db3 77bc d666 033d cfbc 7dbc 4e84 3e3d
000002b0: e2dd f63b 12e2 ca3c 8bc7 593d e020 083d
000002c0: f8f6 3bbc db47 bc3c d582 343d a759 7b3d
000002d0: beea 463d e170 a63c 4dc1 b93c 47c2 72bc
000002e0: 091d 95bc a608 6d3d 81be 5fbd c963 3a3c
000002f0: e8d0 3f3c 0e0e 3b3d 090d bfbc 0f85 20bd
00000300: 6319 363d fcde 7f3d ba3c 753d c43d 4abd
00000310: 1431 753d 41d1 de3c 3b2c efbb c9d9 5b3c
00000320: c5e6 72bd e4e4 3e3d 73b4 483d 68e1 923c
00000330: a7eb b43a 6467 de3c e5f5 3bbd b967 483d
00000340: 5f55 623d 14fa c9bb e8af 12bd ba79 4f3d
00000350: 9d83 543d 57a9 233b b06a 88bc 29e8 d43c
00000360: 8e19 1ebd 4525 37bd c88f e5bc 9956 02bd
00000370: 6147 88bc aa2f 5939 38f0 eabc 4887 78bc
00000380: 1099 ea3c 545a 643d fb0f e7bc 623c 203d
00000390: 45eb 233d f9f2 9cbc 9418 52bd 9921 7a3c
000003a0: b131 143d ea94 f93c 41e9 213a 68cf f13c
000003b0: 6083 84b9 7c98 0abd 84b4 503d 2144 223d
000003c0: 6a12 60bc 57b9 f23c ac98 27bd 8de0 3cbd
000003d0: b43e d53c 67e6 49bd 62a0 303c 2d0b 49bd
000003e0: 02a0 7b3d 499d 6c3d 36ac 183d a2f4 c53c
000003f0: 2302 1cbc 918f 293d 1bcd 903c 1a94 31bd
-0.051866215 0.013520637 -0.04451614 0.008750053 0.05516481 -0.0015031201 0.060609713 -0.008319131
0.026043665 -0.029148152 -0.048346866 -0.011798798 0.0044863108 0.023530465 0.041043904 -0.023482386
0.05339273 0.029531542 0.059841022 -0.025478749 0.0144407805 0.06068131 -0.0161096 0.023871372
0.044326384 -0.007718205 -0.044225067 0.010638053 0.010334714 0.0048432173 0.06162524 0.018688159
0.045661513 0.047951106 -0.03746276 0.008398355 -0.00016802471 -0.034078307 0.04005827 -0.008233924
0.029696256 -0.030912483 7.0232105e-05 -0.052472953 -0.03925739 0.010408302 -0.0035875784 -0.04665306
-0.009649117 0.010735842 -0.0059093055 -0.059137028 -0.040457033 -0.0616416 -0.042240754 -0.031956095
0.024547145 0.005819143 0.008590448 -0.003335451 0.011916605 0.04487738 0.057664942 0.055067044
-0.040519316 0.028016608 -0.004726001 -0.020161074 -0.05741279 -0.031421743 -0.055325978 -0.035650887
0.022291576 -0.0034059004 -0.018907497 -0.05328591 0.021677747 0.04110597 0.0010184667 -0.040336683
-0.011693584 0.046643462 -0.0103995 -0.0026901243 -0.009240091 -0.06019897 -0.0219163 0.009265659
0.059234187 0.061413284 -0.016281575 -0.051568955 -0.060694914 -0.0551275 0.059393037 0.040570315
0.010095703 -0.029608665 0.031371735 0.03577799 0.005863447 0.024956364 0.055339627 0.041135386
-0.0038163436 0.028379066 -0.01032026 0.025580961 -0.002649893 0.054695763 0.037425205 0.016945539
-0.05829713 -0.058570683 -0.0510743 0.048594125 -0.039393857 0.017016603 -0.04815496 -0.036821306
-0.0069860257 -0.027382277 0.029249469 -0.0014732023 0.03256447 -0.00040630292 -0.036493126 -0.05979934
0.010530652 -0.014127177 0.00057665404 -0.040027373 0.032274313 -0.02330203 -0.045203343 0.024954965
-0.030676637 -0.038949907 0.0027046558 -0.0067277756 0.038404908 -0.03603215 -0.030487781 0.030506033
0.03667456 -0.05577584 0.02179979 0.04581514 0.04195097 0.0059051025 0.043697868 -0.061169453
0.012226227 0.031957615 0.040555883 -0.0001293926 -0.010436974 0.0095220115 0.045247 0.04698832
-0.02326417 0.050509114 0.049209855 -0.037721854 0.06059098 -0.061785318 -0.019349813 0.04216773
-0.0151183875 0.032080494 -0.01548691 0.046512894 0.0075337747 0.024766002 0.053168815 0.033234477
-0.011472456 0.022983482 0.044070084 0.061364796 0.04856371 0.020317497 0.02267518 -0.014816827
-0.018202322 0.057869576 -0.054625038 0.01137633 0.011707522 0.0456677 -0.023321645 -0.039189395
0.044457804 0.062468514 0.059872366 -0.04937531 0.059861258 0.02719939 -0.007298974 0.013418623
-0.05930211 0.046605006 0.049000215 0.017929748 0.001380314 0.02714891 -0.0458888 0.048927043
0.055257197 -0.006163845 -0.03581229 0.050653197 0.05188333 0.002497276 -0.016652435 0.025989609
-0.03859859 -0.044713277 -0.028022662 -0.031820867 -0.016635599 0.00020712489 -0.028678998 -0.015168972
0.028637439 0.055750206 -0.028205862 0.039120086 0.040019292 -0.019158827 -0.05129297 0.015266799
0.036180202 0.030466516 0.000617642 0.029517844 -0.00025274884 -0.033836827 0.050953403 0.039615754
-0.013676265 0.029629393 -0.040917084 -0.046112586 0.026030876 -0.049291994 0.010780426 -0.049082924
0.061431892 0.057767186 0.03727361 0.024164502 -0.009521994 0.04139668 0.017675927 -0.04335413
