server/policies/checkpoints/policy_2_80/model.pt (torch, 338258 bytes, 11 tensors)

actor.fc1.weight f4 [256, 21]
-0.09607596 -0.08430977 -0.024887452 0.11395098 0.18840095 -0.16739154 0.16779487 -0.03365341
0.16909899 0.12400679 -0.0014210101 0.0801008 -0.2059197 -0.18406756 -0.16378924 0.109942116
0.08612794 0.016265862 -0.1555873 -0.1807247 0.073158756 -0.021522842 -0.11293028 -0.09003223
0.1478282 0.0729509 0.078750566 -0.12696834 0.08125776 -0.07225724 0.01607962 0.101037234
-0.21574305 -0.20809008 0.018467162 -0.11726446 0.059279896 -0.10046475 0.15424071 0.17613292
0.1578465 -0.1784471 0.20609236 -0.20240743 -0.04271337 -0.14271057 0.12857959 -0.102896385
-0.1448696 -0.041581325 0.017235693 -0.0067580524 0.07588264 0.042625643 -0.08573534 0.0012538001
0.21579431 -0.05367815 -0.05524981 0.17376357 0.18432926 0.18157685 0.04773464 0.025860144
-0.21186742 0.046229217 0.115271226 0.011315402 -0.1239708 -0.06713247 -0.062395874 0.10101156
0.21589236 0.07362867 -0.023847727 -0.056729306 0.021691218 -0.21338603 0.12013716 -0.1844687
0.14517057 0.08963966 0.13515182 -0.02002372 0.09076725 -0.00930286 -0.05878568 0.1009495
-0.16261436 -0.16507679 -0.117953084 -0.15823926 0.08499414 -0.06059646 -0.055484083 -0.1843039
0.037862007 -0.14255455 -0.039163962 -0.096870326 0.1600015 0.0022845848 0.1681752 0.09732763
0.047677036 -0.18018168 0.02959174 0.063650906 -0.1264952 -0.10641071 0.15199563 -0.10264088
-0.045044675 0.15683421 -0.103172384 -0.06644223 -0.023463933 -0.15684828 -0.025757398 -0.109909825
0.21088323 -0.14881906 -0.15307862 0.08968154 0.18581387 0.16774191 -0.18720897 -0.107166104
0.034986228 -0.10944345 0.08445791 -0.012879628 0.003985248 0.098935425 -0.027273564 0.13389476
-0.18136325 -0.13684398 -0.21162206 0.013592865 0.11348951 -0.1685815 0.17335892 -0.19247688
0.15027453 0.09647577 -0.14199603 -0.073768675 -0.19621572 0.024740573 -0.112807006 0.20087795
0.08327722 0.036554053 -0.08182788 -0.11344955 -0.018357374 -0.12690729 -0.16762167 0.056681763
-0.10124427 0.118778944 0.18013147 -0.19759159 -0.13302295 0.055859882 -0.14395657 -0.07705552
-0.040406678 -0.06500371 -0.06588681 0.0383701 -0.047770333 -0.08593357 0.13108188 -0.18053636
-0.007804809 -0.105601445 -0.12953967 -0.0029716394 -0.08903555 -0.028564926 -0.0062865643 -0.014454921
0.10489701 0.058348324 -0.10028646 -0.014873201 -0.05002651 -0.0039697327 0.03522939 0.10251165
-0.14916354 -0.020996444 -0.022497294 -0.17586352 -0.035212133 -0.18021953 0.042663757 0.20019218
0.12104882 0.16718793 -0.17107518 -0.007710086 -0.1396499 0.038730495 -0.027347999 -0.013552066
-0.047916025 -0.12927514 -0.0038089377 0.13163903 -0.20638548 -0.10139151 -0.19645874 -0.15209067
-0.14807889 0.11854851 -0.07739822 -0.09513502 0.12498837 -0.009143122 -0.17930363 0.04668488
0.21162695 -0.10290031 0.08006689 -0.13342422 0.12365703 0.18853626 -0.073074095 0.08122089
0.033124045 0.0728641 -0.12974982 -0.17623517 -0.15542741 0.115148865 0.09071255 -0.042445052
0.13177471 0.1352995 -0.104762115 -0.06970609 0.002641634 0.18322271 -0.16295668 0.18952365
-0.026669826 -0.06548008 0.13788806 0.17923108 -0.18706706 -0.07712617 -0.10283082 0.0067205476
00000000: 79c3 c4bd 9aaa acbd c5e0 cbbc 225f e93d
00000010: 2eec 403e b068 2bbe 6bd2 2b3e 28d8 09bd
00000020: 4928 2d3e 46f7 fd3d 3041 baba e30b a43d
00000030: 9ddc 52be 357c 3cbe 5eb8 27be 5529 e13d
00000040: d863 b03d fc3f 853c 4752 1fbe e50f 39be
00000050: 42d4 953d ac50 b0bc fe47 e7bd d162 b8bd
00000060: 4760 173e 4867 953d fa47 a13d fd03 02be
00000070: 786a a63d 9bfb 93bd 68b9 833c 9cec ce3d
00000080: bfeb 5cbe 9115 55be 7248 973c 5928 f0bd
00000090: 7acf 723d 76c0 cdbd 47f1 1d3e 305c 343e
000000a0: 83a2 213e d6ba 36be e009 533e e543 4fbe
000000b0: 37f4 2ebd b822 12be 5eaa 033e 57bb d2bd
000000c0: b258 14be 2e51 2abd de31 8d3c a772 ddbb
000000d0: 5c68 9b3d 3a98 2e3d 0396 afbd 8d56 a43a
000000e0: 2ff9 5c3e 9fdd 5bbd a04d 62bd 14ef 313e
000000f0: cfc0 3c3e 48ef 393e 6685 433d a7d8 d33c
00000100: c6f3 58be d95a 3d3d 5213 ec3d 3c64 393c
00000110: 67e4 fdbd c07c 89bd d192 7fbd 26df ce3d
00000120: e312 5d3e a1ca 963d 4f5c c3bc fd5c 68bd
00000130: c8b1 b13c de81 5abe 790a f63d 5de5 3cbe
00000140: 98a7 143e 0095 b73d 3d65 0a3e c908 a4bc
00000150: 2ee4 b93d 066b 18bc 41c9 70bd 9dbe ce3d
00000160: 6184 26be e409 29be 6391 f1bd 7909 22be
00000170: 6811 ae3d fe33 78bd 4743 63bd 29ba 3cbe
00000180: 3115 1b3d d2f9 11be 646a 20bd f363 c6bd
00000190: 6fd7 233e f9b8 153b 1f36 2c3e b553 c73d
000001a0: ff48 433d 8c81 38be 606a f23c 685b 823d
000001b0: f587 01be dced d9bd bea4 1b3e 6235 d2bd
000001c0: c480 38bd 2699 203e 0b4c d3bd dd12 88bd
000001d0: 6f37 c0bc d69c 20be 2e01 d3bc 6718 e1bd
000001e0: c6f1 573e 0664 18be a4c0 1cbe f5aa b73d
000001f0: fe45 3e3e 89c4 2b3e b5b3 3fbe e779 dbbd
00000200: b84d 0f3d e323 e0bd 45f8 ac3d 1305 53bc
00000210: af96 823b a89e ca3d cf6c dfbc b51b 093e
00000220: 4ab7 39be d420 0cbe 74b3 58be 9cb4 5e3c
00000230: 306d e83d a1a0 2cbe 0085 313e a918 45be
00000240: 91e1 193e 1795 c53d 6867 11be 0814 97bd
00000250: c6ec 48be beac ca3c 5c07 e7bd f3b2 4d3e
00000260: 3f8d aa3d b4b9 153d 6095 a7bd 3d58 e8bd
00000270: 3462 96bc fcf3 01be 04a5 2bbe 232b 683d
00000280: 2859 cfbd 6042 f33d 6274 383e 7355 4abe
00000290: 2b37 08be 55cd 643d 5a69 13be 49cf 9dbd
000002a0: 7981 25bd aa20 85bd aaef 86bd f729 1d3d
000002b0: d3aa 43bd f1fd afbd 543a 063e 86de 38be
000002c0: 7cbf ffbb 9245 d8bd 0ca6 04be d6bf 42bb
000002d0: 4558 b6bd fe00 eabc 86ff cdbb 55d4 6cbc
000002e0: 3ed4 d63d a7fe 6e3d fd62 cdbd baae 73bc
000002f0: 99e8 4cbd 8814 82bb b14c 103d a1f1 d13d
00000300: 54be 18be bc00 acbc 3f4c b8bc 9115 34be
00000310: 993a 10bd 788b 38be 31c0 2e3d 2eff 4c3e
00000320: 72e8 f73d 5033 2b3e 552e 2fbe e4a4 fcbb
00000330: 6200 0fbe dea3 1e3d e908 e0bc 7c09 5ebc
00000340: 9843 44bd b460 04be 5f9f 79bb 62cc 063e
00000350: b756 53be 5aa6 cfbd 7b2c 49be a8bd 1bbe
00000360: fea1 17be 90c9 f23d f582 9ebd 26d6 c2bd
00000370: e7f9 ff3d 08cd 15bc 5f9b 37be a538 3f3d
00000380: bcb4 583e 66bd d2bd 1cfa a33d 5ca0 08be
00000390: e63f fd3d a60f 413e dfa7 95bd 2357 a63d
000003a0: 14ad 073d c639 953d 23dd 04be fe76 34be
000003b0: 5d28 1fbe 2bd3 eb3d 80c7 b93d ddda 2dbd
000003c0: f3ef 063e f48b 0a3e 858d d6bd 11c2 8ebd
000003d0: 441f 2d3b bc9e 3b3e 1ede 26be 7d12 423e
000003e0: ae7a dabc 6c1a 86bd 8732 0d3e 5a88 373e
000003f0: 828e 3fbe 53f4 9dbd f798 d2bd 0a38 dc3b

actor.fc1.bias f4 [256]
-0.029490389 -0.09488855 0.1300307 -0.06875758 0.15006146 -0.029156024 -0.052241392 -0.11434829
0.18382357 0.19469686 0.004361081 -0.1633166 -0.05769801 0.11733471 -0.15901943 -0.07875958
0.07961523 0.17845322 -0.18411535 -0.13450612 -0.18185334 -0.10626253 0.17701803 -0.2089243
-0.0051525254 0.059786767 0.020097652 -0.19669674 0.21496157 0.038014904 -0.18086176 0.07614529
0.099587925 0.0130294515 0.050984796 0.08642059 0.20501634 -0.07401635 0.2096946 -0.14988178
-0.0695908 -0.04750951 0.19145612 0.087136604 0.063562736 0.05955602 -0.060444757 0.043388706
-0.09009799 -0.1547141 0.003632771 -0.08756371 0.025355183 -0.11134367 0.20947538 0.08170774
-0.02164917 0.09609342 0.21230315 0.088904366 0.05706656 0.015747193 0.17549588 0.023188585
-0.15507229 0.10031057 0.15310973 -0.17412351 -0.18325439 -0.052990843 0.21177094 -0.04250456
-0.13891558 -0.17036131 0.20050138 0.06532679 -0.1225913 -0.1472215 0.068331495 0.15765902
-0.00195373 -0.048219614 0.1970451 -0.15540081 -0.1951185 0.021513116 -0.117723495 0.06387307
-0.18488398 -0.10051971 -0.0035976486 0.12456517 0.036217865 -0.083730556 -0.08863213 -0.10636242
0.17624642 0.16230054 -0.055454064 0.104200386 0.18667483 0.107067324 -0.13614295 0.15700585
-0.07825335 -0.16044882 0.14520782 -0.04949006 -0.15797669 -0.037894554 0.06445211 -0.034567267
-0.08333023 0.10162194 -0.0824257 0.15742417 0.0032369883 -0.0474338 0.059059806 -0.053556386
-0.16269048 0.20620002 0.041526213 -0.03908379 -0.09014518 -0.051057816 -0.15725996 -0.036400065
0.14503707 0.16646741 0.071697734 -0.15795207 -0.09771411 -0.1647703 -0.17600504 0.15598913
-0.016073417 0.16162896 0.18115614 0.015366665 0.13893314 0.056768946 0.11252365 0.13213845
-0.13301834 0.20419542 -0.20534328 -0.17367381 -0.12882122 -0.03820977 0.112884626 -0.06669489
-0.008508987 0.027447894 -0.09511077 0.12363759 -0.12934661 -0.13519879 0.027079916 0.18122792
0.19151734 -0.13783096 0.09677476 -0.12898354 0.045456547 0.20565225 -0.11718365 -0.16801545
-0.09868972 0.036401406 0.04009386 0.14987922 0.03263489 0.19459984 -0.0974317 0.060769156
0.14322846 0.17378959 0.05549072 -0.034994196 -0.005334348 -0.16062418 0.21666302 -0.087695606
-0.17467442 0.07633237 -0.120363474 -0.06915502 -0.06614412 0.12561919 -0.12434224 -0.101183884
-0.07623765 -0.21135671 -0.15590006 -0.19110146 0.07726494 -0.061574675 -0.08274999 -0.06126136
0.13675328 0.13483693 0.15695047 0.013406681 0.07085482 0.15507886 0.0020525143 0.15324448
0.07279446 0.14006348 0.12999615 0.10683358 0.12677799 -0.12071767 -0.15413567 0.16154326
-0.16403154 -0.14728457 -0.06017524 -0.14691618 0.19602013 0.1382102 0.12729892 0.055561166
0.21909592 -0.17905752 0.041679304 -0.064120986 -0.09388549 -0.08220829 -0.069003105 -0.09269907
-0.13631675 -0.1351757 -0.10505406 -0.11866423 0.10558396 0.08484052 -0.012542788 -0.08398151
0.20951985 0.16463582 0.042356253 0.13769421 -0.018927757 -0.14587013 0.12830156 0.00843774
-0.08520544 0.004010753 0.13904904 0.023938416 0.070743784 0.075664744 -0.17714074 0.01022886
00000000: d495 f1bc ee54 c2bd c526 053e c6d0 8cbd
00000010: b6a9 193e 9dd8 eebc 12fb 55bd 702f eabd
00000020: 3f3c 3c3e 9d5e 473e 66e7 8e3b 773c 27be
00000030: c054 6cbd 2e4d f03d fdd5 22be b44c a1bd
00000040: 4f0d a33d 71bc 363e bc88 3cbe f9bb 09be
00000050: c337 3abe 2ba0 d9bd 3744 353e 40f0 55be
00000060: 84d6 a8bb f8e2 743d d5a3 a43c df6a 49be
00000070: e31e 5c3e 84b5 1b3d d333 39be 10f2 9b3d
00000080: c1f4 cb3d 7b79 553c 6fd5 503d 47fd b03d
00000090: ceef 513e e295 97bd 2eba 563e 9c7a 19be
000000a0: 9f85 8ebd 5599 42bd 130d 443e ad74 b23d
000000b0: 2e2d 823d 03f1 733d ec94 77bd 5bb8 313d
000000c0: 4c85 b8bd 5f6d 1ebe c913 6e3b 9a54 b3bd
000000d0: acb5 cf3c 2608 e4bd b780 563e 6356 a73d
000000e0: 9a59 b1bc a1cc c43d ff65 593e 7e13 b63d
000000f0: a0be 693d 4200 813c 31b5 333e fdf5 bd3c
00000100: 45cb 1ebe a16f cd3d ccc8 1c3e 6f4d 32be
00000110: 0aa7 3bbe ed0c 59bd 7bda 583e 4319 2ebd
00000120: e33f 0ebe 3273 2ebe 3c50 4d3e 0dca 853d
00000130: 2611 fbbd 3cc1 16be 62f1 8b3d 5e71 213e
00000140: 260a 00bb ee81 45bd 31c6 493e 6421 1fbe
00000150: 25cd 47be 463c b03c 0419 f1bd e2cf 823d
00000160: 3a52 3dbe 47dd cdbd 87c6 6bbb 061c ff3d
00000170: 2f59 143d ed7a abbd c384 b5bd 8ad4 d9bd
00000180: f179 343e 1d32 263e cd23 63bd 0367 d53d
00000190: b027 3f3e 1d46 db3d 0f69 0bbe 24c6 203e
000001a0: 4b43 a0bd b24c 24be 5cb1 143e 17b6 4abd
000001b0: a4c4 21be 5237 1bbd 78ff 833d 6896 0dbd
000001c0: 0aa9 aabd 2a1f d03d cece a8bd cd33 213e
000001d0: a723 543b f249 42bd b2e8 713d f15d 5bbd
000001e0: 5598 26be 1926 533e 6417 2a3d 5316 20bd
000001f0: 099e b8bd 0022 51bd c108 21be 3c18 15bd
00000200: 9984 143e 6f76 2a3e 43d6 923d 30be 21be
00000210: 561e c8bd 8cb9 28be aa3a 34be 9dbb 1f3e
00000220: 66ac 83bc 1082 253e ff80 393e 77c4 7b3c
00000230: 7d44 0e3e 8e86 683d cd72 e63d 4d4f 073e
00000240: f635 08be 9b18 513e 8245 52be 8cd7 31be
00000250: b6e9 03be d981 1cbd 0e30 e73d 5597 88bd
00000260: 4769 0bbc 68da e03c 6fc9 c2bd b435 fd3d
00000270: 7073 04be 8d71 0abe b3d6 dd3c d093 393e
00000280: 1f1d 443e 8f23 0dbe d831 c63d 4314 04be
00000290: a530 3a3d 8196 523e fbfd efbd 3e0c 2cbe
000002a0: d61d cabd a419 153d 7639 243d f079 193e
000002b0: 2aac 053d 2e45 473e 458a c7bd 14e9 783d
000002c0: 7baa 123e e6f5 313e 3d4a 633d 1356 0fbd
000002d0: c1cb aebb aa7a 24be e9dc 5d3e c199 b3bd
000002e0: dadd 32be 2554 9c3d 2081 f6bd 26a1 8dbd
000002f0: 9276 87bd 51a2 003e 25a7 febd 7f39 cfbd
00000300: 7c22 9cbd e56d 58be 44a4 1fbe 1ab0 43be
00000310: 153d 9e3d ba35 7cbd d478 a9bd 31ed 7abd
00000320: 0d09 0c3e b112 0a3e a0b7 203e b2a7 5b3c
00000330: 551c 913d fecc 1e3e 7a83 063b 1fec 1c3e
00000340: 4315 953d cd6c 0f3e b61d 053e 90cb da3d
00000350: 17d2 013e d33a f7bd bed5 1dbe 996b 253e
00000360: e2f7 27be c4d1 16be 507a 76bd 3271 16be
00000370: 80b9 483e fa86 0d3e a65a 023e 1b94 633d
00000380: ae5a 603e db5a 37be ebb7 2a3d dd51 83bd
00000390: 0947 c0bd d25c a8bd 8051 8dbd 03d9 bdbd
000003a0: 9e96 0bbe 806b 0abe 9526 d7bd 3b06 f3bd
000003b0: 673c d83d dec0 ad3d 4480 4dbc 7ffe abbd
000003c0: 5f8c 563e 4b96 283e c07d 2d3d b6ff 0c3e
000003d0: 620e 9bbc fb5e 15be 7c61 033e 723e 0a3c
000003e0: 3180 aebd a26c 833b df62 0e3e 7f1a c43c
000003f0: 1ee2 903d 1ef6 9a3d 6264 35be f396 273c

actor.fc2.weight f4 [128, 256]
-0.01713302 0.013653644 0.029678639 0.018175365 0.05505171 0.032914925 0.05811321 -0.023291033
-0.011847234 0.036330335 0.031229535 -0.0022773687 -0.03502398 -0.04511429 0.017104995 -0.007524274
0.01442859 0.015740678 -0.00774617 0.05029054 -0.002739258 -0.0051553138 0.049469624 0.041095957
-0.046616934 0.028392928 0.020190744 -0.03916963 -0.01419051 -0.029187286 -0.04373299 0.06300678
0.031447943 -0.039540384 -0.027416244 0.062364448 -0.031383004 -0.022071278 0.039576422 -0.02011075
0.05552549 -0.03563953 0.023338553 0.029807532 0.04043908 0.03030603 -0.024888415 0.056769278
-0.05759988 -0.027553137 -0.009492688 0.049679548 -0.029015694 -0.029731378 -0.02476809 2.337835e-05
-0.04719057 0.032495327 0.0073301545 0.032096125 -0.056227736 -0.03634144 0.043847688 -0.051877998
-0.05346121 -0.029838694 0.023392806 0.010097121 0.03456342 0.005263619 0.060979217 0.012522653
-0.027441133 0.006819208 -0.027247753 0.04250431 0.029867405 -0.005978401 -0.029954948 0.053905927
-0.056990497 -0.019864706 -0.012540632 -0.048924454 -0.060973093 -0.005265997 -0.008424562 -0.05815667
-0.011342033 0.01015611 0.0075914143 0.059104815 0.01801402 0.040772296 -0.02371118 -0.00528342
0.0026250246 0.019380402 0.046474267 0.019056108 -0.049546063 0.04942692 -0.029657958 -0.031639896
-0.049098864 -0.014768167 -0.05644497 -0.00097457145 -0.04224707 -0.03077318 -0.049278 -0.05735546
0.0068363952 -0.006154586 -0.04887545 -0.05555046 -0.055230815 -0.015452026 0.035855006 -0.054445993
-0.015168067 -0.015173457 0.0014787153 -0.06024579 -0.009440135 -0.057702713 0.02345761 -0.020555492
0.0406921 -0.051892377 -0.048509534 0.003910943 -0.048326503 -0.03569425 -0.00013555534 0.053340014
0.013485121 -0.056335233 -0.02530915 -0.009270436 -0.05981348 0.036102533 -0.006104688 0.036527365
-0.057392485 -0.059832957 0.035372585 -0.05091503 -0.04908874 0.009042269 0.012776885 0.040678527
0.047010567 -0.027298674 -0.047145702 -0.012240689 0.04563895 0.035252586 -0.04615066 0.007214668
0.0019741058 -0.058542233 0.0030407272 -0.005838452 -0.014521627 -0.0274744 -0.043443758 -0.01498478
-0.057729837 0.0164704 0.038949255 0.021251176 -0.058812786 -0.015523749 0.033836786 -0.025209272
0.0059101237 -0.036526363 -0.02450687 0.024003591 0.0071217413 -0.029853774 -0.027781798 0.032034494
0.03393652 0.043458562 -0.00093728624 0.010804875 -0.030070502 -0.045596823 -0.038412016 -0.05524332
-0.007781938 0.004296627 -0.036361743 -0.01806746 0.04433593 0.06034912 0.04254726 0.05225882
0.004567747 -0.012905348 0.039733652 0.06085246 0.021293657 0.010051977 -0.024292186 0.036461435
-0.025285434 -0.02927589 -0.029357968 0.03845387 -0.019193387 0.0256718 0.041106407 -0.044724174
-0.053296063 -0.026934281 0.050723113 -0.011101516 -0.060606595 -0.022319973 -0.01975978 -0.03686838
0.027598523 0.016150441 0.034318868 0.022128692 -0.052048575 0.035472043 0.0470088 -0.047231793
0.059448503 -0.033819214 -0.02510426 0.04595264 0.031702433 0.004739652 -0.0027972758 0.038321305
0.01149918 0.026331946 -0.02062256 -0.048083108 0.02535832 0.025663206 0.060552094 0.045106366
0.0044227964 0.0049851486 0.053809024 -0.026899036 0.0594956 0.053736083 0.0385909 -0.059875116
00000000: 8c5a 8cbc 89b3 5f3c 9e20 f33c 81e4 943c
00000010: e77d 613d cdd1 063d 1e08 6e3d d6cc bebc
00000020: e71a 42bc 1ecf 143d 15d5 ff3c e83f 15bb
00000030: 4e75 0fbd c3c9 38bd c61f 8c3c 2f8e f6bb
00000040: e565 6c3c 98f2 803c 95d3 fdbb 74fd 4d3d
00000050: 2085 33bb e8ed a8bb a9a0 4a3d 3c54 283d
00000060: 66f1 3ebd 4998 e83c 0f67 a53c 5570 20bd
00000070: 507f 68bc 2d1a efbc 5d21 33bd b309 813d
00000080: 8fcf 003d 19f5 21bd 0898 e0bc dd71 7f3d
00000090: 778b 00bd d3ce b4bc e31a 223d 4dbf a4bc
000000a0: b26e 633d c1fa 11bd 7e30 bf3c ed2e f43c
000000b0: 73a3 253d 5a44 f83c cae2 cbbc e786 683d
000000c0: daed 6bbd 1eb7 e1bc 3887 1bbc c87c 4b3d
000000d0: 52b2 edbc 388f f3bc 73e6 cabc a01c c437
000000e0: e64a 41bd d219 053d cb31 f03b 3a77 033d
000000f0: 0e4f 66bd c3da 14bd a299 333d 067e 54bd
00000100: 24fa 5abd 4770 f4bc 45a2 bf3c 656e 253c
00000110: 5f92 0d3d 707a ac3b 58c5 793d d02b 4d3c
00000120: 3acc e0bc aa73 df3b ae36 dfbc 0019 2e3d
00000130: 7dac f43c 76e6 c3bb 1464 f5bc 76cc 5c3d
00000140: de6e 69bd 4fbb a2bc 3977 4dbc 0265 48bd
00000150: ecbe 79bd 628e acbb 2d07 0abc b035 6ebd
00000160: efd3 39bc d065 263c 66c1 f83b e417 723d
00000170: 2392 933c da00 273d f33d c2bc 8a20 adbb
00000180: 9b08 2c3b a6c3 9e3c cd5b 3e3d 8e1b 9c3c
00000190: d0f0 4abd e273 4a3d 3ff5 f2bc d698 01bd
000001a0: e41b 49bd 2ff6 71bc d732 67bd 627a 7fba
000001b0: 440b 2dbd 0918 fcbc bad7 49bd 8fed 6abd
000001c0: d703 e03b 69ac c9bb a031 48bd e188 63bd
000001d0: b539 62bd 7f2a 7dbc b3dc 123d c302 5fbd
000001e0: 7c83 78bc 179a 78bc 74d1 c13a 4ac4 76bd
000001f0: ccaa 1abc ae59 6cbd 2c2a c03c fe63 a8bc
00000200: c2ac 263d 1a8d 54bd efb1 46bd 5e27 803b
00000210: 03f2 45bd 2234 12bd dc23 0eb9 0f7b 5a3d
00000220: b2f0 5c3c c6bf 66bd 2255 cfbc 07e3 17bc
00000230: fbfe 74bd 40e0 133d d609 c8bb b89d 153d
00000240: 6214 6bbd 6713 75bd d8e2 103d 478c 50bd
00000250: 4611 49bd 0626 143c 2456 513c 879e 263d
00000260: 278e 403d 78a1 dfbc da1b 41bd 2c8d 48bc
00000270: e8ef 3a3d 0465 103d 7908 3dbd 0669 ec3b
00000280: 0060 013b fbc9 6fbd f046 473b 7c50 bfbb
00000290: 1eec 6dbc fe11 e1bc 15f2 31bd b982 75bc
000002a0: 1f76 6cbd efec 863c 4189 1f3d f216 ae3c
000002b0: ade5 70bd 5357 7ebc 7198 0a3d ad83 cebc
000002c0: b6a9 c13b ab9c 15bd a2c2 c8bc 2ea3 c43c
000002d0: 7f5d e93b e78f f4bc a796 e3bc 9a36 033d
000002e0: 0501 0b3d 9b01 323d 37b4 75ba ee06 313c
000002f0: 6a56 f6bc bcc3 3abd eb55 1dbd d246 62bd
00000300: a1ff febb b8ca 8c3b 0df0 14bd 3602 94bc
00000310: 9899 353d a430 773d 0946 2e3d 580d 563d
00000320: 0aad 953b f470 53bc c1bf 223d 6e40 793d
00000330: 0970 ae3c 0cb1 243c 6800 c7bc 9658 153d
00000340: 6623 cfbc fed3 efbc 1f80 f0bc ce81 1d3d
00000350: 733b 9dbc ab4d d23c 315f 283d b230 37bd
00000360: f94c 5abd 48a5 dcbc 0ac3 4f3d 22e3 35bc
00000370: 9f3e 78bd 60d8 b6bc 43df a1bc 4c03 17bd
00000380: 4c16 e23c ee4d 843c f191 0c3d 3b47 b53c
00000390: e330 55bd 224b 113d 4d8c 403d 2076 41bd
000003a0: 4680 733d 0486 0abd 73a7 cdbc d638 3c3d
000003b0: 69da 013d 154f 9b3b 8052 37bb cdf6 1c3d
000003c0: 0f67 3c3c 18b6 d73c a5f0 a8bc cbf2 44bd
000003d0: 40bc cf3c a53b d23c 7905 783d 74c1 383d
000003e0: 1bed 903b 755a a33b da66 5c3d 5e5b dcbc
000003f0: a9b1 733d 5e1a 5c3d 7e11 1e3d 9c3f 75bd

actor.fc2.bias f4 [128]
0.00019029638 0.011670754 -0.03633347 0.028988594 -0.02611568 -0.0468407 0.008348249 -0.055332184
0.021536693 0.039195545 0.026695259 -0.052301656 -0.040521793 -0.0028359895 -0.061560344 -0.060278494
0.035627034 0.040814713 -0.058885194 0.010547436 0.03522626 0.06246264 0.044781514 0.009892644
0.038445782 0.01733343 0.033470456 0.055456612 0.028911706 -0.044907298 -0.03302728 -0.037754156
0.052149728 0.023987204 0.001027877 0.031469207 -0.060533747 -0.057400156 0.04316184 0.0067098625
-0.026012683 0.025531577 -0.020378293 -0.02279308 -0.02406722 -0.05332876 -0.046131954 -0.03729682
0.008501782 -0.057232495 0.0004334572 -0.042826395 -0.024343163 0.0038062397 -0.060424976 0.04569679
0.024814954 0.011458247 -0.0076274574 -0.0019738874 -0.02988519 0.0044077695 -0.0036632677 -0.02219594
0.010951113 0.061612435 0.032052647 0.020851932 -0.050966587 0.025748743 -0.058540307 0.049405526
0.0076589826 0.030773664 0.015100011 -0.044536207 0.045478962 -0.0056913584 0.018839652 -0.04458818
-0.049257323 -0.061241884 -0.016732529 0.022241684 0.056983326 0.021808231 0.03323985 0.02829113
0.050464917 0.05826087 0.027353391 0.023003701 -0.032036286 -0.03253772 0.0015020865 -0.020758733
-0.041649632 0.063306555 0.05057496 0.0059576356 0.056103107 -0.04762833 0.014896869 0.041012317
-0.019569553 -0.022119312 0.014938074 0.044160705 0.06324116 -0.041230027 -0.032701842 0.038763687
0.029151997 -0.05494954 -0.056780953 0.04005142 -0.0010998861 -0.030431222 -0.039893936 0.006809409
-0.0054670684 0.003735403 -0.026648393 -0.037526242 0.05156763 0.014384233 -0.06029585 -0.007993786
00000000: 4c8a 4739 b136 3f3c 68d2 14bd 7d79 ed3c
00000010: 8df0 d5bc 09dc 3fbd 18c7 083c 00a4 62bd
00000020: b86d b03c 828b 203d 04b0 da3c 433a 56bd
00000030: 2efa 25bd 02dc 39bb b326 7cbd 95e6 76bd
00000040: a7ed 113d 542d 273d 9a31 71bd 27cf 2c3c
00000050: 6949 103d d3d8 7f3d d26c 373d c214 223c
00000060: 5379 1d3d d6fe 8d3c 5118 093d 7926 633d
00000070: 3ed8 ec3c b7f0 37bd 9d47 07bd 1aa4 1abd
00000080: f49a 553d d080 c43c d4b9 863a dbe5 003d
00000090: 3cf2 77bd 6d1c 6bbd 78ca 303d 68de db3b
000000a0: 8d18 d5bc 9927 d13c 61f0 a6bc 8eb8 babc
000000b0: 9e28 c5bc 426f 5abd dcf4 3cbd 8dc4 18bd
000000c0: 0f4b 0b3c 9f6c 6abd a441 e339 bb6a 2fbd
000000d0: 506b c7bc 1b72 793b 2e80 77bd 8f2c 3b3d
000000e0: bb48 cb3c 5fbb 3b3c c0ef f9bb 565c 01bb
000000f0: c9d1 f4bc 0d6f 903b 6f13 70bb 43d4 b5bc
00000100: 4c6c 333c 525d 7c3d a349 033d acd1 aa3c
00000110: 57c2 50bd 07ef d23c f6c7 6fbd 735d 4a3d
00000120: 34f8 fa3b 0d19 fc3c 0966 773c 996b 36bd
00000130: 2648 3a3d 937e babb 9d55 9a3c 18a2 36bd
00000140: 0cc2 49bd c5d8 7abd a812 89bc 3134 b63c
00000150: 5967 693d 2da7 b23c 8226 083d cdc2 e73c
00000160: 4db4 4e3d f3a2 6e3d 3814 e03c 4272 bc3c
00000170: 7b38 03bd 4646 05bd a9e1 c43a 380e aabc
00000180: ce98 2abd dea6 813d b027 4f3d 4538 c33b
00000190: 5fcc 653d ec15 43bd ff11 743c 88fc 273d
000001a0: 5450 a0bc 8f33 b5bc d3be 743c dbe1 343d
000001b0: 9584 813d d1e0 28bd 5ef2 05bd acc6 1e3d
000001c0: 2bd0 ee3c c512 61bd 2593 68bd f50c 243d
000001d0: 0e2a 90ba e64a f9bc d367 23bd 7621 df3b
000001e0: 1825 b3bb aacd 743b bb4d dabc 1eb5 19bd
000001f0: 9438 533d d9ab 6b3c c8f8 76bd 5ef8 02bc

actor.policy_head.weight f4 [50, 128]
-0.04011098 0.036414932 0.007251259 0.07436936 -0.020256571 -0.05822119 0.028325606 0.049664043
0.054594476 -0.07288883 -0.0627838 0.030278163 -0.050834056 0.009207736 -0.012429819 -0.014729259
-0.009756486 -0.032841712 -0.06957143 -0.011427879 -0.006190819 0.0852929 0.05347261 -0.022515314
-0.022052735 0.0697759 -0.013955122 -0.03933621 0.04116608 0.017517006 -0.032538418 -0.027575592
-0.07279962 0.035491418 0.08588567 0.06736859 -0.046250027 0.07253025 -0.038519494 0.06526193
-0.06347091 0.06891628 0.029882759 -0.04476037 0.014405937 0.00083385943 -0.011429444 -0.003200828
0.011885083 -0.00018621756 -0.023460293 0.007065403 -0.0665716 -0.06859443 -0.0013284475 -0.060340066
0.013971139 -0.042240176 0.048365705 0.05687576 -0.08361766 0.08650381 0.074383005 -0.002899449
-0.019194651 0.062090546 0.087472945 0.012507374 -0.018652625 0.058241088 0.05728875 -0.0348281
-0.043546315 0.071579725 0.08708807 -0.007348632 0.080234535 -0.043860443 0.039165873 -0.0008677931
-0.06507122 -0.047241036 0.036388036 0.013261209 -0.0044244905 0.032873593 0.03855311 -0.028648932
0.03962334 0.057054613 -0.060730908 0.05839624 -0.014872423 -0.07256031 0.017846076 -0.0373436
0.03225819 0.029253546 0.082159236 0.003347881 -0.059684798 -0.01634457 0.011083623 0.0062614363
-0.004446468 0.07444694 0.07874409 0.05042237 0.08223708 0.004251008 0.048120372 0.035641376
-0.05629656 -0.018352343 0.005313373 0.053701505 0.008451115 0.038072936 -0.025799798 0.07512752
-0.029379603 -0.022248616 0.08323749 -0.0045675747 0.08122112 -0.005418823 0.017975278 -0.04781049
-0.0075474777 -0.0030467545 0.025553048 -0.06065131 -0.029650781 -0.0026488448 0.008032914 0.06794608
0.08253788 -0.019453159 -0.03233494 0.04394397 -0.0538072 0.08598442 -0.07462003 0.0030677577
0.048379004 -0.0325493 -0.07472885 -0.029928738 0.060487963 -0.067063674 0.053767394 -0.0050279126
0.0879581 -0.05027397 -0.017836524 -0.023279505 -0.051911928 -0.0010246562 0.012041252 -0.039998215
0.076028585 0.03883346 -0.06488622 -0.011523618 0.059168592 0.0561469 -0.08388653 0.06542079
-0.07153797 -0.049153887 -0.053925563 -0.019853737 -0.03656614 -0.055464737 -0.022824677 0.0077834977
-0.0852256 -0.06706772 -0.045518685 -0.022956353 0.0077792522 0.0043586777 0.077967964 0.08279547
-0.04744354 0.039103087 -0.07469169 0.02565781 -0.076852426 0.034545306 -0.034374975 0.024651725
0.071449175 -0.016339475 0.07040329 -0.08266149 -0.007561427 -0.08558876 0.08290455 0.04445363
-0.03711941 -0.012237578 -0.06050348 0.07091137 -0.06153202 0.042220823 -0.018093713 -0.051632296
0.05465061 0.06577746 0.057403963 -0.014725518 -0.024807498 0.037275415 -0.06275786 -0.019290043
0.03958388 -0.01279831 -0.05413483 -0.06355976 0.03150755 0.05665584 -0.035012014 -0.08397024
0.061403487 -0.07621103 0.007462127 -0.04674447 -0.009218558 0.08122219 -0.021141272 0.028391812
0.07265687 -0.010535066 -0.071920805 0.06673727 0.06962574 0.060826164 0.05225821 -0.08295086
-0.07322403 0.058543377 0.08685248 -0.030185048 0.0142777 0.071312286 0.063508384 0.058622897
0.00026175613 0.014659589 -0.018948536 0.038148686 -0.055536762 -0.06836926 0.047103275 0.054284867
00000000: 694b 24bd d327 153d f89b ed3b f74e 983d
00000010: 1cf1 a5bc 5879 6ebd 1a0b e83c 866c 4b3d
00000020: 759e 5f3d bd46 95bd cb94 80bd e909 f83c
00000030: 5f37 50bd 0bdc 163c 71a6 4bbc fd52 71bc
00000040: abd9 1fbc 0885 06bd 777b 8ebd 003c 3bbc
00000050: 5bdc cabb 0bae ae3d 1806 5b3d 0972 b8bc
00000060: f0a7 b4bc abe6 8e3d 06a4 64bc 011f 21bd
00000070: c39d 283d d37f 8f3c 0147 05bd 35e6 e1bc
00000080: f817 95bd 735f 113d d3e4 af3d 8bf8 893d
00000090: ab70 3dbd bd8a 943d 9ec6 1dbd 0ca8 853d
000000a0: 09fd 81bd fb23 8d3d b0cc f43c a656 37bd
000000b0: e106 6c3c 5c97 5a3a 9042 3bbc fcc4 51bb
000000c0: a7b9 423c 6543 43b9 cd2f c0bc e584 e73b
000000d0: b156 88bd 3d7b 8cbd 4d1f aeba 2527 77bd
000000e0: 34e7 643c 0904 2dbd 1e1b 463d 8ff6 683d
000000f0: bc3f abbd e928 b13d 1e56 983d af04 3ebb
00000100: 1a3e 9dbc a852 7e3d 0425 b33d bbeb 4c3c
00000110: 64cd 98bc 358e 6e3d 9ca7 6a3d e9a7 0ebd
00000120: 9f5d 32bd 6498 923d 3b5b b23d cbcc f0bb
00000130: 0152 a43d 02a7 33bd 656c 203d 9c7c 63ba
00000140: 0f44 85bd d17f 41bd 9f0b 153d 8b45 593c
00000150: 51fb 90bb 76a6 063d dee9 1d3d 2ab1 eabc
00000160: 154c 223d 19b2 693d f9c0 78bd e530 6f3d
00000170: 77ab 73bc 809a 94bd ef31 923c 9af5 18bd
00000180: 2a21 043d 22a5 ef3c 1a43 a83d 1f68 5b3b
00000190: 0c78 74bd 0ce5 85bc 1698 353c bc2c cd3b
000001a0: adb3 91bb a377 983d 9544 a13d b087 4e3d
000001b0: ea6b a83d 0a4c 8b3b de19 453d b1fc 113d
000001c0: 3997 66bd a757 96bc ce1b ae3b 1cf6 5b3d
000001d0: 8c76 0a3c 5ef2 1b3d 195a d3bc 75dc 993d
000001e0: 7ead f0bc bb42 b6bc 6b78 aa3d 98ab 95bb
000001f0: 4257 a63d 6290 b1bb e440 933c efd4 43bd
00000200: d550 f7bb 0fac 47bb a054 d13c 826d 78bd
00000210: 32e6 f2bc 3e98 2dbb 7c9c 033c 5027 8b3d
00000220: 9f09 a93d 3b5c 9fbc a471 04bd 98fe 333d
00000230: f064 5cbd 9918 b03d 63d2 98bd 6f0c 493b
00000240: 1029 463d 6a52 05bd 700b 99bd 1d2d f5bc
00000250: 3ac2 773d ae58 89bd 333b 5c3d 30c1 a4bb
00000260: 6023 b43d 14ec 4dbd e71d 92bc a9b4 bebc
00000270: 9aa1 54bd c24d 86ba ac48 453c 2bd5 23bd
00000280: e0b4 9b3d d60f 1f3d 11e3 84bd 8fcd 3cbc
00000290: c45a 723d 4bfa 653d b3cc abbd 56fb 853d
000002a0: 8082 92bd 9655 49bd 0de1 5cbd 4ea4 a2bc
000002b0: 60c6 15bd fe2e 63bd d1fa babc b60c ff3b
000002c0: c28a aebd cd5a 89bd cd71 3abd f60e bcbc
000002d0: 19e9 fe3b 3dd3 8e3b abad 9f3d ac90 a93d
000002e0: 2854 42bd 8f2a 203d f5f7 98bd 5430 d23c
000002f0: ce64 9dbd 617f 0d3d c6cc 0cbd 6af2 c93c
00000300: f253 923d 5dda 85bc 9a2f 903d 6d4a a9bd
00000310: d9c5 f7bb 2949 afbd dcc9 a93d 0215 363d
00000320: 860a 18bd 1f80 48bc 7fd2 77bd fb39 913d
00000330: 0009 7cbd beef 2c3d 4439 94bc 637c 53bd
00000340: 51d9 5f3d 55b6 863d 6b20 6b3d 4d43 71bc
00000350: 1839 cbbc 1bae 183d 3187 80bd 2706 9ebc
00000360: b522 223d 01b0 51bc 7cbc 5dbd 9f2b 82bd
00000370: 100e 013d f40f 683d c268 0fbd 97f8 abbd
00000380: 3982 7b3d 8714 9cbd dc84 f43b 2177 3fbd
00000390: 6f09 17bc d257 a63d 7630 adbc f295 e83c
000003a0: 20cd 943d 459b 2cbc 374b 93bd 8dad 883d
000003b0: f197 8e3d db24 793d b40c 563d 24e2 a9bd
000003c0: 7bf6 95bd 2ecb 6f3d b7df b13d a246 f7bc
000003d0: 04ed 693c 2d0c 923d af10 823d 901e 703d
000003e0: 503c 8939 c62e 703c f639 9bbc cc41 1c3d
000003f0: 847a 63bd 2f05 8cbd 5def 403d cf59 5e3d

actor.policy_head.bias f4 [50]
0.08155797 0.027273608 0.045021925 0.08604513 -0.023908136 0.0648089 -0.04272123 0.005325018
0.073636755 0.042310227 -0.02357469 0.015415406 -0.018078543 -0.04919853 0.030340852 0.087856136
0.08748013 -0.017281795 0.084224164 0.045112565 -0.07333496 0.014005459 -0.028721085 0.022997975
0.03065111 -0.05886148 -0.053874947 0.07115466 0.064359665 0.053296525 -0.021117324 0.06980617
-0.009861832 -0.036776204 -0.009089215 -0.06723485 -0.07181894 -0.07929392 -0.07662045 0.017026681
-0.08016067 0.068635106 0.040797632 0.030930962 -0.04823786 -0.04967626 -0.022126181 0.052035414
0.029180031 0.009493251
00000000: dd07 a73d e76c df3c e968 383d 6e38 b03d
00000010: ffda c3bc 87ba 843d 75fc 2ebd 7d7d ae3b
00000020: dece 963d 7d4d 2d3d b51f c1bc e690 7c3c
00000030: 7419 94bc 6684 49bd 618d f83c ebed b33d
00000040: c828 b33d 8d92 8dbc b87d ac3d f4c7 383d
00000050: a430 96bd 2777 653c 7b48 ebbc 4066 bc3c
00000060: 0918 fb3c bc18 71bd faab 5cbd 89b9 913d
00000070: 00cf 833d 754d 5a3d 3dfe acbc 8af6 8e3d
00000080: 8593 21bc a5a2 16bd eeea 14bc 6db2 89bd
00000090: cf15 93bd da64 a2bd 2feb 9cbd 8a7b 8b3c
000000a0: 472b a4bd 9090 8c3d 6b1b 273d ee62 fd3c
000000b0: 1095 45bd 5679 4bbd f741 b5bc 1623 553d
000000c0: f60a ef3c 9589 1b3c

critic.fc1.weight f4 [256, 21]
-0.107868575 -0.08774028 0.19994959 0.19958451 0.050573062 -0.039947018 0.11387175 -0.12318569
-0.12413676 -0.20763639 -0.12998885 -0.00569719 -0.21132135 0.10156064 -0.10817226 -0.025631944
-0.038699348 -0.21626194 -0.01258583 -0.038569394 0.15807 -0.20978156 0.20609748 0.09643502
0.1875071 -0.10243647 0.1253626 0.03984089 -0.11902699 -0.008657962 -0.0041258656 0.12417655
0.12156713 0.14903164 -0.06868225 0.18833594 -0.07127898 0.073929824 0.15580477 0.07796135
-0.20255698 -0.17963539 0.13874376 -0.15609823 0.013447416 0.11618554 -0.2060605 -0.18761013
-0.107648514 -0.037643872 0.11926938 -0.11318083 0.17414638 -0.20019595 -0.20746765 0.0864418
-0.08544491 -0.034678403 0.026514309 0.07032539 0.1977129 0.022023626 0.02090467 0.13760123
0.15310559 0.0017643932 -0.07432434 0.09753928 0.030177332 -0.19103317 0.0619437 0.10042259
0.17657477 -0.18560539 0.10930195 0.120824486 -0.026292723 -0.07597666 0.06400844 -0.1271885
0.14396682 -0.11583297 0.1708629 0.011283795 0.2065125 -0.122796685 0.10029742 -0.12848543
0.099754356 0.14716926 -0.097030394 -0.089993306 0.006585377 0.1066109 0.19982609 0.11374381
0.14852712 0.14229691 0.09843258 0.20591392 -0.1350742 -0.10928102 -0.17876755 0.058834065
-0.044809327 0.18634307 -0.17960489 0.119223155 -0.07687096 -0.115568444 0.0070567313 0.19533528
-0.19863981 -0.16587456 -0.055916335 -0.13311069 0.12802827 -0.14189532 -0.109946124 0.11324276
0.15434545 0.042451456 0.17412306 0.061800648 0.079934485 0.058460236 -0.010940521 0.20965715
0.037942875 -0.10687586 0.05315239 -0.041634444 -0.15045609 0.20773856 -0.16401075 -0.10252096
-0.11658689 -0.20121872 -0.047706537 0.02852572 0.086813234 0.1968078 0.038350053 0.06646914
0.024248375 0.10227896 0.20364965 -0.17922845 0.05782349 0.034192733 0.08172094 -0.12638979
0.04800623 0.10797082 0.045623757 0.18694378 0.15431322 -0.005740473 -0.16595328 -0.115304515
0.087074704 -0.06832642 -0.04521415 0.09696761 0.0753924 0.0568929 -0.18435284 -0.14091656
0.19659494 -0.20335506 0.15850818 0.014965895 -0.11247079 0.15364951 -0.07281527 -0.07295466
0.07165497 -0.18049043 0.085197926 -0.03910515 -0.009797191 -0.08334618 -0.15877414 -0.12049465
-0.14841121 -0.14302386 0.12297357 -0.034873556 0.09432318 -0.10726637 0.09247365 -0.120330736
0.14038832 0.08691544 0.1838735 0.15055332 0.05651907 -0.11699482 0.06803545 -0.018166125
0.123891816 0.06706779 -0.060689494 0.11049719 -0.21690196 -0.12299542 -0.02996112 0.17933892
-0.1472809 0.02292214 -0.08236417 0.1391458 0.13231573 0.0739309 0.0029965772 0.21605673
-0.14272262 -0.0005840073 0.06402745 -0.14837074 -0.19918306 0.082350075 -0.1345295 -0.12453952
-0.16090803 0.13491757 -0.14892705 -0.17753682 0.20313326 0.058296308 -0.0927306 -0.12504466
-0.09929369 -0.09387738 0.01685741 -0.17445166 0.18676881 0.18652357 0.14195555 -0.052776273
-0.02162565 0.068171136 0.19520347 -0.11276786 -0.02444832 0.15621738 0.20243047 -0.06448468
-0.14343166 0.0039320257 -0.20874014 -0.06714233 -0.15900761 -0.06480315 -0.11302219 -0.09282588
00000000: 33ea dcbd 2db1 b3bd 96bf 4c3e e25f 4c3e
00000010: b325 4f3d 7c9f 23bd 9835 e93d c748 fcbd
00000020: 6a3b febd a29e 54be cc1b 05be 7eaf babb
00000030: a064 58be 06ff cf3d 6b89 ddbd 15fa d1bc
00000040: 3583 1ebd c573 5dbe cc34 4ebc f1fa 1dbd
00000050: 1add 213e fad0 56be 380b 533e b97f c53d
00000060: dc01 403e 36ca d1bd 0e5f 003e 3330 233d
00000070: 6cc4 f3bd 20da 0dbc 4532 87bb 4650 fe3d
00000080: 30f8 f83d c09b 183e 48a9 8cbd 23db 403e
00000090: b7fa 91bd 8568 973d 498b 1f3e 33aa 9f3d
000000a0: 196b 4fbe 57f2 37be d812 0e3e 37d8 1fbe
000000b0: 8d52 5c3c aff2 ed3d 8601 53be df1c 40be
000000c0: d376 dcbd 7630 1abd 8143 f43d 5acb e7bd
000000d0: 6e53 323e 2b00 4dbe 6672 54be 6608 b13d
000000e0: befd aebd f10a 0ebd 8934 d93c c206 903d
000000f0: 4075 4a3e e46a b43c 4540 ab3c 56e7 0c3e
00000100: b6c7 1c3e 3643 e73a 5c37 98bd adc2 c73d
00000110: 7436 f73c 339e 43be adb8 7d3d 5caa cd3d
00000120: 04d0 343e 570f 3ebe b3d9 df3d d472 f73d
00000130: d663 d7bc a799 9bbd db16 833d b43d 02be
00000140: 0a6c 133e d639 edbd aff6 2e3e abdf 383c
00000150: 0378 533e d47c fbbd bc68 cd3d af91 03be
00000160: 034c cc3d 8ab3 163e dfb7 c6bd 694e b8bd
00000170: 25ca d73b d156 da3d 369f 4c3e 84f2 e83d
00000180: 7e17 183e 48b6 113e 0597 c93d 19db 523e
00000190: e450 0abe bace dfbd d70e 37be fdfb 703d
000001a0: fc89 37bd b8d0 3e3e 58ea 37be 452b f43d
000001b0: 866e 9dbd 26af ecbd 273c e73b f905 483e
000001c0: 3c68 4bbe 05db 29be 8708 65bd 2b4e 08be
000001d0: d819 033e 024d 11be 6f2b e1bd d2eb e73d
000001e0: bc0c 1e3e 94e1 2d3d 514d 323e ad22 7d3d
000001f0: b1b4 a33d 0074 6f3d df3f 33bc 5db0 563e
00000200: fd69 1b3d bbe1 dabd 52b6 593d e188 2abd
00000210: 2911 1abe 6bb9 543e 6ff2 27be 82f6 d1bd
00000220: 1bc5 eebd 480c 4ebe ee67 43bd c5ae e93c
00000230: 23cb b13d fc87 493e f214 1d3d f920 883d
00000240: 87a4 c63c a277 d13d 8989 503e aa87 37be
00000250: 53d8 6c3d ae0d 0c3d 4f5d a73d 536c 01be
00000260: 2ea2 443d ce1f dd3d fadf 3a3d 316e 3f3e
00000270: 4904 1e3e 941a bcbb a8ef 29be c624 ecbd
00000280: 3954 b23d b9ee 8bbd 7932 39bd f496 c63d
00000290: 5567 9a3d 8808 693d fec6 3cbe 6e4c 10be
000002a0: 2f50 493e 4f3c 50be f84f 223e 8333 753c
000002b0: 1657 e6bd 4c56 1d3e 2c20 95bd 4169 95bd
000002c0: d7bf 923d 7cd2 38be 407c ae3d b92c 20bd
000002d0: 6684 20bc 67b1 aabd b095 22be e6c5 f6bd
000002e0: 1cf9 17be d974 12be 91d9 fb3d 93d7 0ebd
000002f0: 832c c13d 78ae dbbd d362 bd3d f66f f6bd
00000300: f5c1 0f3e b900 b23d 5649 3c3e a62a 1a3e
00000310: 8a80 673d fb9a efbd 2c56 8b3d 20d1 94bc
00000320: feba fd3d d65a 893d 8c95 78bd 5a4c e23d
00000330: 8c1b 5ebe 06e5 fbbd 0671 f5bc 9fa4 373e
00000340: ced0 16be 36c7 bb3c 8cae a8bd 3d7c 0e3e
00000350: c67d 073e 1569 973d 3962 443b fa3d 5d3e
00000360: e125 12be 1118 19ba d320 833d 80ee 17be
00000370: a5f6 4bbe 28a7 a83d 1ac2 09be 930e ffbd
00000380: 13c5 24be d527 0a3e 5580 18be 36cc 35be
00000390: 2a02 503e 1cc8 6e3d 8ae9 bdbd b50b 00be
000003a0: 7d5a cbbd c942 c0bd 8d18 8a3c 75a3 32be
000003b0: 5340 3f3e 0900 3f3e cc5c 113e ef2b 58bd
000003c0: 4628 b1bc 4f9d 8b3d 6be3 473e d6f2 e6bd
000003d0: d847 c8bc 73f7 1f3e ef49 4f3e 8b10 84bd
000003e0: c0df 12be 39d8 803b fabf 55be eb81 89bd
000003f0: e4d2 22be 84b7 84bd 2e78 e7bd 7f1b bebd

critic.fc1.bias f4 [256]
-0.18965411 -0.16506435 -0.19049369 -0.10259917 0.10089622 0.082020976 -0.0959238 0.1542692
-0.107239366 -0.10084221 -0.09555802 0.12615341 -0.08444154 -0.14418648 0.12505394 0.20838872
0.12737091 0.08680518 -0.20546044 0.14188425 0.17546599 -0.079834186 -0.0008262224 -0.01674477
-0.1787763 -0.21332347 -0.067604154 -0.08681649 0.014147275 -0.17260678 0.086247355 -0.07413052
0.008851794 0.0346919 -0.09647235 -0.09150354 -0.03314602 0.1948322 -0.15018111 -0.16445811
0.12630762 -0.11621547 -0.06154302 -0.2129596 0.216066 -0.20237906 0.1332731 -0.06175412
-0.12977543 0.19145767 -0.038741797 -0.17956972 0.19072893 -0.1508152 -0.1411164 0.056736797
0.17459606 -0.19201104 -0.1168749 0.1607196 -0.17317992 0.040760893 -0.09352904 -0.19444703
-0.16415265 -0.12417627 -0.10183424 -0.1991203 -0.050376598 -0.11294522 0.16528864 0.02647128
-0.070805654 -0.060253922 -0.054025296 0.1964176 -0.08712153 0.11164054 -0.045122527 -0.19418547
-0.16171151 -0.06672696 -0.023732051 -0.13327703 0.21553546 -0.1308844 -0.06645918 -0.068659574
0.14040738 0.12563606 0.13832845 0.0071581113 0.015821932 -0.20270169 -0.062249865 -0.1888232
0.04782003 -0.13215654 0.1261443 -0.038725957 0.1589354 -0.036829326 0.08599276 -0.014479163
0.18572551 -0.10200115 -0.010622691 -0.21025817 0.0661957 0.0032182594 0.03470334 -0.1248941
-0.14936984 -0.1724193 0.11976746 -0.20750225 0.09848248 -0.0937112 0.17353311 0.0005004937
-0.124624245 -0.18262005 0.04982805 -0.12685707 -0.060973912 0.0019363746 0.13272822 -0.008610927
0.15703551 -0.10561556 -0.14196523 -0.094195634 0.058452785 0.19252835 0.11955633 0.13203861
-0.008307476 -0.085368134 -0.064664066 -0.03336345 0.20954409 0.1624314 0.13970295 -0.0077213207
-0.019741906 -0.153321 -0.10867316 0.17430638 -0.01446748 -0.08961621 0.13250244 -0.124149546
0.0029367758 -0.21279956 0.08429577 0.1571266 -0.02393149 0.048927367 0.18408692 0.16917682
-0.018117148 -0.04067499 0.06519143 0.08269974 -0.056679197 0.10673209 -0.107674174 -0.030149166
0.20219137 0.19981474 -0.21340974 -0.013300349 -0.1857345 -0.12080742 0.15167472 -0.18233776
0.022886572 0.1960904 -0.029278852 0.10365969 0.15409653 0.14042352 0.03176924 0.10690361
-0.08336805 0.20127618 -0.16187333 0.19151056 0.039190367 0.16980845 -0.14950949 -0.016694723
-0.02931675 0.062126845 -0.1921788 -0.17656255 0.15843664 -0.13726695 0.110773765 -0.11575638
-0.10175394 0.17251089 0.21158026 -0.20551668 -0.10799011 -0.059199877 0.08818731 -0.040040903
-0.18017176 0.1661756 -0.032872945 0.1612611 0.03314111 0.042201966 0.19385803 0.058808487
-0.038258545 0.20791616 0.21012591 0.16929924 0.082041234 -0.02767798 -0.13395213 -0.12437193
-0.16269785 0.1131315 0.01013483 0.20170155 0.08949775 0.1511367 0.21606614 0.13896845
-0.017191866 -0.19358581 -0.12093221 -0.12833796 0.15499195 0.065315485 -0.06634643 -0.0069089276
0.0140391365 -0.074333176 -0.080339596 -0.03852666 -0.13906059 0.097082086 0.18401793 0.21061678
-0.1895542 0.043249846 -0.16508026 0.07969869 0.11104711 0.20105588 0.10753606 -0.10224685
00000000: b034 42be a106 29be c710 43be 831f d2bd
00000010: ada2 ce3d 9dfa a73d b273 c4bd bff8 1d3e
00000020: 50a0 dbbd 5c86 cebd ecb3 c3bd 5c2e 013e
00000030: b0ef acbd 9fa5 13be 240e 003e da63 553e
00000040: 856d 023e eac6 b13d 3964 52be 1b4a 113e
00000050: 5bad 333e 1b80 a3bd d996 58ba 542c 89bc
00000060: 2211 37be 7871 5abe 0c74 8abd d8cc b1bd
00000070: f9c9 673c d5bf 30be 74a2 b03d bed1 97bd
00000080: 1d07 113c 1819 0e3d 4c93 c5bd 3566 bbbd
00000090: 1fc4 07bd 1882 473e 14c9 19be b567 28be
000000a0: c956 013e 6002 eebd 8914 7cbd 1512 5abe
000000b0: 6840 5d3e 753c 4fbe be78 083e e3f1 7cbd
000000c0: dae3 04be 7b0d 443e b8af 1ebd 20e1 37be
000000d0: 724e 433e 4d6f 1abe d180 10be d864 683d
000000e0: 4fc9 323e 8b9e 44be 1c5c efbd ae93 243e
000000f0: 1456 31be e5f4 263d 278c bfbd 1f1d 47be
00000100: a217 28be 2150 febd 788e d0bd 31e6 4bbe
00000110: b157 4ebd d34f e7bd 6d41 293e 4cda d83c
00000120: 8e02 91bd d1cc 76bd a149 5dbd b221 493e
00000130: c66c b2bd cca3 e43d 66d2 38bd 8ed8 46be
00000140: b497 25be 25a8 88bd b869 c2bc c679 08be
00000150: 54b5 5c3e 8f06 06be c01b 88bd 649d 8cbd
00000160: f4c6 0f3e bda6 003e f9a5 0d3e 978e ea3b
00000170: ff9c 813c 0891 4fbe b7f9 7ebd de5a 41be
00000180: f0de 433d 0b54 07be f92b 013e 1c9f 1ebd
00000190: f6bf 223e 59da 16bd f91c b03d 033a 6dbc
000001a0: d42e 3e3e fbe5 d0bd cc0a 2ebc eb4d 57be
000001b0: 9c91 873d 6fe9 523b 1725 0e3d 7ac8 ffbd
000001c0: 68f4 18be af8e 30be a448 f53d 787b 54be
000001d0: 2fb1 c93d a8eb bfbd aab2 313e 9033 033a
000001e0: ff3a ffbd c000 3bbe 7f18 4c3d d2e6 01be
000001f0: c8bf 79bd f3cd fd3a e8e9 073e d814 0dbc
00000200: ebcd 203e f94c d8bd 555f 11be a4e9 c0bd
00000210: 306c 6f3d 2726 453e f3d9 f43d 2135 073e
00000220: 141c 08bc 7dd5 aebd 986e 84bd 1da8 08bd
00000230: ba92 563e 6b54 263e 4a0e 0f3e 2203 fdbb
00000240: c7b9 a1bc 2e00 1dbe 0990 debd 5f7d 323e
00000250: 0209 6dbc b488 b7bd b8ae 073e 1e42 febd
00000260: ec76 403b 21e8 59be 43a3 ac3d cce5 203e
00000270: f90b c4bc 1068 483d 4881 3c3e b03c 2d3e
00000280: 6a6a 94bc d19a 26bd 1683 853d 7b5e a93d
00000290: 7228 68bd 5b96 da3d 4784 dcbd 62fb f6bc
000002a0: 410b 4f3e 3c9c 4c3e 1588 5abe b5e9 59bc
000002b0: 2f31 3ebe e169 f7bd 9e50 1b3e c0b6 3abe
000002c0: 9f7c bb3c eccb 483e 34da efbc 884b d43d
000002d0: 7bcb 1d3e 2fcb 0f3e 7620 023d 48f0 da3d
000002e0: debc aabd 581b 4e3e 1fc2 25be 581b 443e
000002f0: 1486 203d 44e2 2d3e 0419 19be 5fc3 88bc
00000300: ae29 f0bc b878 7e3d 85ca 44be d0cc 34be
00000310: 373d 223e b58f 0cbe 5bdd e23d ae11 edbd
00000320: 5f64 d0bd b2a6 303e 7fa8 583e f772 52be
00000330: eb29 ddbd 927b 72bd 8c9b b43d ee01 24bd
00000340: f27e 38be f029 2a3e c8a5 06bd a121 253e
00000350: f9be 073d f8db 2c3d b882 463e 2be1 703d
00000360: feb4 1cbd f9e7 543e 3f2b 573e c85c 2d3e
00000370: 3c05 a83d eebc e2bc bf2a 09be b6b6 febd
00000380: 449a 26be 7db1 e73d 8f0c 263c da8a 4e3e
00000390: 994a b73d 94c3 1a3e 7140 5d3e bf4d 0e3e
000003a0: f5d5 8cbc 5c3b 46be 4eab f7bd 076b 03be
000003b0: 36b6 1e3e 20c4 853d a3e0 87bd 4964 e2bb
000003c0: 6804 663c fe3b 98bd 1689 a4bd 22ce 1dbd
000003d0: e665 0ebe f9d2 c63d 326f 3c3e edab 573e
000003e0: 7f1a 42be c026 313d cd0a 29be 1139 a33d
000003f0: ab6c e33d 98e1 4d3e de3b dc3d cc66 d1bd

critic.fc2.weight f4 [128, 256]
0.011708742 0.007056478 -0.052401174 0.007472762 -0.02388479 -0.059008118 -0.0419335 -0.03359879
-0.04513967 0.023679357 0.03483189 -0.011960032 0.017995384 0.00025567852 0.057246674 0.013622324
-0.025545496 -0.05893645 0.03240636 0.008221604 0.0433808 0.02864129 0.0096907355 0.0077004926
-0.033126656 -0.024357442 -0.0209102 0.025701605 -0.03097664 -0.049260188 0.044247843 0.03431789
-0.06032658 -0.007113201 -0.026997773 0.02960742 0.006329044 -0.0011858634 0.041910972 0.025074538
0.050890956 0.015042211 -0.039669733 -0.012006817 0.03285154 -0.055190656 0.0047255857 -0.06021664
0.03302489 0.05010548 -0.051292527 -0.0013070076 -0.014895389 0.024583371 0.05173537 0.043059196
0.0029787747 0.03178138 -0.035856213 0.011032383 -0.05576446 -0.05875616 0.0323531 0.005956336
0.05668203 -0.017844079 0.004874836 -0.04230641 -0.034634102 -0.04279735 0.000311197 -0.027610272
-0.05617956 -0.009391915 0.05769129 0.01492673 -0.04475704 0.0019194708 -0.021458657 -0.059220668
-0.030855225 -0.02472095 0.051497653 0.011095102 0.0016840132 0.038485624 -0.03053211 0.008521687
-0.034085665 0.03045958 0.034762066 -0.05556277 -0.01674314 -0.046491362 0.031355955 -0.034138527
-0.02533085 -0.06180044 -0.011163437 0.030380247 0.009042973 -0.005951901 -0.032951605 -0.011070306
-0.061698474 -0.032474216 0.009258849 0.03109287 0.037972715 -0.015299627 0.018502874 0.053957105
0.04003723 -0.050058465 -0.043156847 0.042164594 0.059616443 0.042520728 -0.018329496 0.00032656625
-0.049061622 0.012590554 -0.053740405 0.04574346 -0.05318281 -0.044970524 0.038678396 -0.028992718
-0.038177624 0.05149931 0.012177328 0.0072945086 -0.009850621 0.037214153 0.004067118 -0.006686641
0.024562588 -0.019969651 -0.048888966 0.040701386 -0.039998338 0.02728555 -0.023584248 -0.054099206
-0.055123616 -0.015724182 0.012917924 -0.037324395 -0.05016977 0.024940073 0.025567828 -0.018405404
-0.04203542 0.06129749 0.03351299 -0.039420657 -0.04741132 0.053172868 -0.010389065 -0.01843989
-0.04496909 -0.029073456 0.02522468 0.04554606 -0.021646604 -0.02363927 0.01820644 0.051268503
-0.010138891 -0.010240896 -0.020838846 0.039673183 0.06101783 0.046790585 0.00018679193 -0.049817625
0.02027633 -0.019806953 -0.051014546 -0.053506568 -0.021287492 0.057087302 0.017637739 0.023909062
-0.05068634 -0.05231289 0.016793327 -0.002757181 -0.014803768 -0.060688876 -0.059504885 -0.035629638
-0.001571383 -0.009062569 -0.03290479 -0.05312955 0.06066455 0.05145779 0.006283618 0.017478282
-0.0015814235 -0.017192727 -0.017501365 0.04340869 0.021894697 0.03892466 0.053044524 -0.039282724
0.031569812 -0.043224573 -0.03606527 -0.044038102 0.040726516 -0.04722778 0.015521534 0.011745967
-0.060805146 -0.045318134 -0.050947115 0.052815165 0.020094242 -0.062311217 -0.028725956 -0.058072798
0.014924821 -0.032665573 -0.05407598 -0.049837943 0.06074444 0.033824403 0.028321767 0.033412468
0.006988318 -0.05579771 0.004354184 0.0060930843 0.056276422 0.019712055 0.04397959 0.055667553
-0.018325973 -0.0044775815 0.02537997 0.0112023745 0.056857847 -0.022446716 0.04252201 -0.061199043
-0.031134691 -0.01572005 0.004724414 0.062464435 -0.025127368 0.032815795 -0.013289048 -0.050215483
00000000: 06d6 3f3c 073a e73b 9da2 56bd 12de f43b
00000010: 09aa c3bc 7fb2 71bd 76c2 2bbd e39e 09bd
00000020: 60e4 38bd 36fb c13c e2ab 0e3d 03f4 43bc
00000030: 0e6b 933c 970c 8639 7d7b 6a3d 2b30 5f3c
00000040: ca44 d1bc 5967 71bd 88bc 043d e8b3 063c
00000050: 11b0 313d 23a1 ea3c e4c5 1e3c 6a54 fc3b
00000060: d1af 07bd 4289 c7bc de4b abbc 2c8c d23c
00000070: b9c2 fdbc 0dc5 49bd 3a3d 353d ea90 0c3d
00000080: 0119 77bd db15 e9bb 6f2a ddbc 438b f23c
00000090: de63 cf3b f96e 9bba d7aa 2b3d 1e69 cd3c
000000a0: 0973 503d 9b73 763c bb7c 22bd 3eb8 44bc
000000b0: 568f 063d 990f 62bd 16d9 9a3b b9a5 76bd
000000c0: 1b45 073d 673b 4d3d 1d18 52bd e64f abba
000000d0: ca0b 74bc 1163 c93c 78e8 533d d75e 303d
000000e0: 8c37 433b 312d 023d f7dd 12bd 2bc1 343c
000000f0: 4669 64bd 4daa 70bd af84 043d 5e2d c33b
00000100: 6b2b 683d bf2d 92bc 17bd 9f3b 7c49 2dbd
00000110: 7ddc 0dbd 464c 2fbd 2828 a339 f02e e2bc
00000120: 8a1c 66bd 8ce0 19bc b44d 6c3d 3e8f 743c
00000130: 2853 37bd c196 fb3a 11ca afbc 5f91 72bd
00000140: 19c4 fcbc 9783 cabc 34ef 523d 3bc8 353c
00000150: 1bba dc3a 1aa3 1d3d 7a1e fabc 8c9e 0b3c
00000160: 699d 0bbd 5e86 f93c ab62 0e3d ca95 63bd
00000170: e928 89bc ba6d 3ebd 1a6f 003d d7d4 0bbd
00000180: a582 cfbc 7522 7dbd d9e6 36bc ffdf f83c
00000190: fa28 143c 2a08 c3bb 43f8 06bd 3b60 35bc
000001a0: 8ab7 7cbd af03 05bd 6db2 173c 79b6 fe3c
000001b0: 4789 1b3d 49ab 7abc 5793 973c 2002 5d3d
000001c0: 14fe 233d 1b0a 4dbd 3cc5 30bd c8b4 2c3d
000001d0: 5f30 743d 372a 2e3d bd27 96bc fb36 ab39
000001e0: d7f4 48bd 9c48 4e3c e61e 5cbd 7f5d 3b3d
000001f0: 38d6 59bd 0333 38bd 3d6d 1e3d 2382 edbc
00000200: 2460 1cbd f1f0 523d 6a83 473c c606 ef3b
00000210: 8064 21bc de6d 183d 7545 853b 9c1b dbbb
00000220: 7b37 c93c 6597 a3bc cc3f 48bd 7fb6 263d
00000230: 4cd5 23bd f285 df3c c133 c1bc 2197 5dbd
00000240: 4dc9 61bd 00d0 80bc b3a5 533c 77e1 18bd
00000250: d17e 4dbd 204f cc3c 9f73 d13c eec6 96bc
00000260: 552d 2cbd 1413 7b3d eb44 093d 8e77 21bd
00000270: 5f32 42bd cbcb 593d e636 2abc 410f 97bc
00000280: 8231 38bd 752b eebc fda3 ce3c 818e 3a3d
00000290: 3854 b1bc 24a7 c1bc ac25 953c ecfe 513d
000002a0: 971d 26bc 6ec9 27bc 3ab6 aabc 5980 223d
000002b0: d5ed 793d 7ca7 3f3d 94dd 4339 910d 4cbd
000002c0: 8c1a a63c 3142 a2bc a1f4 50bd b429 5bbd
000002d0: 1b63 aebc 60d4 693d 057d 903c f0dc c33c
000002e0: 7b9c 4fbd 0a46 56bd 2992 893c d2b1 34bb
000002f0: 818b 72bc e694 78bd 65bb 73bd 62f0 11bd
00000300: ddf6 cdba 2b7b 14bc 2cc7 06bd 5f9e 59bd
00000310: 647b 783d 67c5 523d cfe6 cd3b 9d2e 8f3c
00000320: c447 cfba c3d7 8cbc 065f 8fbc 4fcd 313d
00000330: 825c b33c 776f 1f3d 3745 593d ece6 20bd
00000340: 594f 013d 400c 31bd 2db9 13bd 4c61 34bd
00000350: d9d0 263d eb71 41bd 084e 7e3c 2872 403c
00000360: d10e 79bd 829f 39bd ecad 50bd b754 583d
00000370: ae9c a43c 0c3a 7fbd b252 ebbc bedd 6dbd
00000380: 3d87 743c 56cc 05bd c67e 5dbd df22 4cbd
00000390: 29cf 783d 758b 0a3d 0d03 e83c 83db 083d
000003a0: 43fe e43b 248c 64bd 8bad 8e3b 7fa8 c73b
000003b0: 1b82 663d 2d7b a13c f123 343d a903 643d
000003c0: 5a20 96bc adb8 92bb a8e9 cf3c 2a8a 373c
000003d0: c6e3 683d 2de2 b7bc 8f2b 2e3d d9ab 7abd
000003e0: 2e0e ffbc 56c7 80bc 42cf 9a3b b5da 7f3d
000003f0: e9d7 cdbc db69 063d 4fba 59bc c0ae 4dbd
