server/policies/checkpoints/policy_2_20/model.pt (torch, 338258 bytes, 11 tensors)

actor.fc1.weight f4 [256, 21]
000000 cd ab 8e 3c e3 22 89 3c a0 ad 36 3e ef b0 17 be
       0.017415905 0.016740268 0.1783967 -0.14813589
000010 6a 25 0b 3e 0c 80 2d be 39 cf e5 bb f5 ae ca bd
       0.13588491 -0.16943377 -0.0070132283 -0.09896652
000020 ae 39 7b 3c a0 48 99 3d 8f 54 13 be a8 2b 32 be
       0.015333576 0.07484555 -0.14387725 -0.17399466
000030 27 bd d5 bc 5b 60 1f 3d ba 54 ee 3d 96 4f 1b be
       -0.026091171 0.03891025 0.11637254 -0.15167078
000040 d9 36 fb 3d de 89 82 3d ff 42 03 be 50 01 2b 3e
       0.12266321 0.06373952 -0.12818526 0.1669972
000050 4a 0a 26 3e c3 5f d2 bd 07 df 0c bd e5 da 3b 3e
       0.16214862 -0.10272171 -0.034392383 0.1834522
000060 6a ff 51 3d e2 b2 3f be db c7 ff 3d 79 cd 16 3e
       0.051268972 -0.18720582 0.12489291 0.14726819
000070 c6 c8 fc 3d b6 0a c9 3c 21 3f 4b 3e ce 97 03 3e
       0.12342982 0.02454124 0.198483 0.12850878
000080 e2 91 92 3c 56 3c 2f be e9 54 17 be c8 7c d4 3d
       0.017891828 -0.1711286 -0.14778484 0.10375363
000090 3f cb d7 3d 75 cb 28 3d 5d c7 62 3d 99 9d 26 be
       0.10536813 0.041209657 0.05536591 -0.16271056
0000a0 a0 2d 34 be 4d b3 b9 3c a5 74 44 3e 15 fc 0e 3e
       -0.1759553 0.022668505 0.19185121 0.13963349
0000b0 4d df 8f bd 9d e3 18 bd d2 e2 23 3d 88 54 fa 3d
       -0.07025013 -0.037326444 0.040011235 0.12223154
0000c0 b6 a6 f1 bc d3 4f 39 bc 0b 92 85 3d 30 67 42 be
       -0.02949844 -0.0113105355 0.06521996 -0.18984675
0000d0 9a 65 19 3e 5f e8 48 be 0b 9f 91 3c f3 a7 76 3d
       0.14980164 -0.19619893 0.017776033 0.060218763
0000e0 21 5d 06 bd cb 83 1d be 4c 16 a9 3d f8 9d 01 be
       -0.03280366 -0.15382306 0.08256206 -0.12657917
0000f0 52 4c e9 bc 3d 21 cd 3d 5b be c2 3c bc 8c bc 3c
       -0.028478775 0.10016105 0.02377241 0.023016326
000100 12 54 23 be 77 3d 41 3e 2f 58 8f bd 78 ef 7b bc
       -0.15950039 0.18871103 -0.069992416 -0.015376918
000110 14 8b f7 bd 3a 5a 00 bd eb c0 fa 3d 6e bf d4 3d
       -0.12087074 -0.031336047 0.122438274 0.10388075
000120 e2 ea 47 3e 26 7d 30 3e 3b b8 35 be c0 e0 5b be
       0.19523194 0.1723524 -0.1774606 -0.21472454
000130 96 d4 2d be e5 e2 e1 bd fc 2f 35 3d 90 a1 d4 bd
       -0.16975626 -0.11029605 0.044235215 -0.10382378
000140 41 8b 3a bd 49 eb 40 bd a5 0d 5c be af 90 9e 3d
       -0.04554296 -0.047099385 -0.2148958 0.0774244
000150 44 b5 56 be e5 2b e6 3d 2d 8f 66 bd 2f 94 a4 3c
       -0.20967585 0.11238841 -0.056288887 0.02009019
000160 3c c8 5e 3c b2 31 9d bd 68 67 08 be c0 27 8f bc
       0.013597544 -0.07675494 -0.13320696 -0.017475009
000170 ac e4 09 be 95 b1 57 3d fb 34 cf bc ae 43 03 3e
       -0.13466138 0.05265959 -0.025293818 0.12818787
000180 3c 04 45 be 36 41 2f 3e e8 60 34 be 6c 3c fe bd
       -0.19239897 0.1711472 -0.17615092 -0.12413868
000190 68 d6 00 be a1 8d 12 be 2a d0 54 be a3 d6 00 3e
       -0.1258179 -0.1431184 -0.20782533 0.12581877
0001a0 cd 2c d9 3d 0e 51 53 3d 42 5c a4 bd 27 ac 30 be
       0.10604248 0.05159097 -0.08025409 -0.17253171
0001b0 58 38 3d 3e 5e 75 50 be af 87 c8 3c a5 58 d8 bd
       0.18478525 -0.20357272 0.024478761 -0.105637826
0001c0 ca 70 74 3d 52 75 e3 bd 9a 2b 41 3e de fb 4f be
       0.059677877 -0.111063614 0.18864289 -0.20310923
0001d0 92 ee 39 3d 8c 98 ea bd 15 ec ec bd 02 f6 80 bd
       0.045393534 -0.11454877 -0.115684666 -0.06296922
0001e0 62 ce 10 3e 6b 4a 5c bd 02 06 a5 3c b6 ba 0d 3e
       0.14141229 -0.053781908 0.020144466 0.13840756
0001f0 7d a2 98 3d 3b a8 59 3e 12 7e 2f be 1a e9 24 3e
       0.07452867 0.21255581 -0.17137936 0.16104546
000200 c6 06 e7 3d 42 d8 2b be 09 4c b7 3d e0 21 54 be
       0.11280589 -0.16781715 0.089500494 -0.20716047
000210 0e 69 fa 3d 94 ed 5b be 85 8c 71 bd 41 97 1e be
       0.12227069 -0.21477348 -0.0589719 -0.15487386
000220 f2 2e e6 bd e2 58 a1 3c f7 7d 3a be 4d 14 18 3d
       -0.11239423 0.019695703 -0.18212114 0.037128735
000230 d8 5a 30 bd fc d3 91 3d ec 3a ab 3d 84 4e 28 be
       -0.043055385 0.07120511 0.08360848 -0.16436201
000240 ce 07 f2 3d bc ce 50 3e 23 f3 f2 3d 84 d7 96 bd
       0.11817895 0.20391363 0.11862781 -0.07365325
000250 94 92 cf 3d d6 e8 4c 3d c9 4b 39 3e ab b5 0c 3e
       0.101353794 0.050026737 0.18095316 0.13741176
000260 ee 5d 4c 3d a2 e9 a2 3d 97 45 39 be 9c 61 28 3e
       0.049894266 0.07954718 -0.18092953 0.16443485
000270 cc db 52 3e 8d cd b8 3c 59 93 d2 bd f1 cb 75 3d
       0.20591658 0.022558952 -0.102820106 0.060008947
000280 6c ad 8f 3d 7f 81 ec 3d c7 f4 57 3e 9b fa 34 bd
       0.070154995 0.11548137 0.21089469 -0.04418431
000290 f1 7a 4f be b5 60 db bd 8a 56 d6 3c e8 1b 16 be
       -0.20261742 -0.10711805 0.026164312 -0.14659083
0002a0 4b 3a 07 3e 61 0a 27 be e5 bc 59 3e ec f5 51 3e
       0.13205831 -0.16312553 0.21263464 0.20503968
0002b0 68 da 0c be 45 85 44 3e 1c 31 0b be 43 78 89 3d
       -0.1375519 0.19191463 -0.13592952 0.06712391
0002c0 bd 5b 53 be f3 41 1f 3e c4 d0 b6 bd 16 f0 2a 3e
       -0.20640464 0.15552501 -0.08926538 0.16693148
0002d0 f7 0b f0 3d e1 cc 4d be 83 01 0a be bc e2 18 3d
       0.11721032 -0.20097686 -0.13477139 0.037325606
0002e0 1f a5 28 bd 19 03 67 3d 59 e8 df 3a a1 fe f8 3d
       -0.041173097 0.05639944 0.0017082795 0.121579416
0002f0 dd a1 bb bd c3 c0 46 bd 78 ee 1b be b1 fd 47 3e
       -0.09161732 -0.048523676 -0.15227687 0.1953037
000300 ff 82 f9 bd 9d 70 96 bd 6d 0a 71 3d 99 89 7f bd
       -0.12183189 -0.07345698 0.058847833 -0.062387083
000310 7e 64 35 3e 60 8c c8 3d b3 e6 11 be bb 65 48 be
       0.17714116 0.097923994 -0.14248161 -0.19570057
000320 10 0f 50 3e 85 08 8a bd a2 04 02 3d 94 a0 e6 3d
       0.20318246 -0.06739906 0.0317427 0.112610966
000330 84 ce 60 bd 13 d9 c9 3c d5 de 10 3e 80 7b 0f 3e
       -0.05488445 0.024639642 0.14147504 0.14011955
000340 92 31 d1 bd fe 78 4f 3e fb 03 f2 bc 9c 36 89 3d
       -0.10214533 0.20260999 -0.029542914 0.06699869
000350 ce 4b e8 3d 99 35 1a 3d 37 47 21 be e9 79 05 3e
       0.113425836 0.03764877 -0.15749823 0.13034786
000360 1b 52 29 be 32 e1 06 3e dc 86 e5 3d 5c 79 03 3e
       -0.16535227 0.13171843 0.11207363 0.12839264
000370 ed a3 3c be 35 15 41 be 23 9b 03 bd 04 b3 4a be
       -0.18421908 -0.18855746 -0.03213037 -0.19794852
000380 fe b8 72 3d 18 dd 6b 3d 08 43 9f 3c 87 7f e3 bd
       0.059258454 0.0575839 0.019441143 -0.11108308
000390 1c db 49 3e 94 d2 b9 3d e3 71 21 be da f8 24 bd
       0.1971249 0.09073368 -0.157661 -0.040276386
0003a0 33 a4 a6 3d 45 bc 4a be e1 c8 2b 3e 96 a7 dd bd
       0.08136787 -0.19798382 0.16775848 -0.1082298
0003b0 8c 4d a4 bd 94 d7 89 bd 6d 46 03 3e 23 41 bc 3d
       -0.080226034 -0.067305714 0.12819834 0.09192111
0003c0 15 cc b7 3d 96 a0 1d be 23 d6 cf bd 2d 59 86 bd
       0.089744724 -0.1539329 -0.10148265 -0.06559978
0003d0 36 e9 8b 3d 56 b0 0e be c5 1d 29 be f5 37 a8 bd
       0.06831591 -0.13934454 -0.16515262 -0.08213798
0003e0 4f f7 0f 3e 28 ea 14 be 37 a8 32 3e 8f be 00 3e
       0.14059184 -0.14542449 0.17446981 0.12572692
0003f0 e9 7a 4b bc 07 0c 11 be 80 d1 47 3e 5f 71 f0 bd
       -0.012419441 -0.14164744 0.19513512 -0.11740374

actor.fc1.bias f4 [256]
000000 40 89 2f 3e 0a 72 2e 3d 03 f3 53 3e 4e 0d 7b bd
       0.171422 0.042589225 0.2069817 -0.061291985
000010 dd db 5c 3e 18 40 0b 3d 54 aa b2 bc f7 66 e3 3d
       0.21568246 0.03399667 -0.021809734 0.11103623
000020 98 e2 05 3e 75 8c c4 3d d2 58 58 be 18 b1 63 3d
       0.1307472 0.095971026 -0.21127632 0.05558881
000030 f6 4a c5 3c b3 47 0b be 86 8a 56 3c 04 f3 07 bd
       0.024083596 -0.1360157 0.01309455 -0.033190742
000040 e8 33 05 be d9 35 b2 3d c7 4b ea bc 7a 67 32 3e
       -0.13008082 0.08701677 -0.028600587 0.17422286
000050 82 88 4e bb e9 eb 42 be 72 22 d7 bd 66 a4 90 3d
       -0.003151447 -0.19035305 -0.10504617 0.070626065
000060 53 1a 48 3e 6a 1c 08 be 27 6a 04 be 96 58 e4 bc
       0.19541292 -0.13292089 -0.12931119 -0.027874272
000070 bf 07 10 3e da aa 50 be 14 84 5d 3e 5c 52 f4 3d
       0.14065455 -0.20377675 0.21632415 0.11929771
000080 91 7b 4d 3e 8c eb 2e 3e 39 de c3 3d 8a aa c3 ba
       0.20066668 0.17082042 0.0956387 -0.0014928144
000090 5c 2e a4 3d 17 8e 07 3e 69 8e 24 bd 0a 38 44 bd
       0.08016655 0.13237797 -0.040174875 -0.047905006
0000a0 83 62 ba 3d e2 f6 7f bd 23 f2 fd 3d 77 47 e2 bc
       0.09100821 -0.062491305 0.123996995 -0.027621968
0000b0 0c 09 3a 3e bc ca 92 bc 0a 05 02 3e c8 48 bf bd
       0.18167514 -0.017918937 0.12697235 -0.09340054
0000c0 5f a2 5b 3e 04 eb 8f bc 79 f5 2a 3e a5 02 28 3e
       0.21448658 -0.017568119 0.16695203 0.16407259
0000d0 64 ef 19 be 62 da 3d 3c 70 e9 2a 3e 81 6c 89 bd
       -0.15032727 0.011587711 0.16690612 -0.067101486
0000e0 94 65 37 3e ed 45 06 3e 47 b0 33 3e b7 88 09 be
       0.17909843 0.13112612 0.17547713 -0.13431059
0000f0 42 02 47 bb 8d 4f 33 be af d9 a4 bd ab b3 2f bd
       -0.0030366336 -0.17510815 -0.08049332 -0.042895954
000100 97 df 28 3e e8 cf 33 be 5f ee 21 3e e3 99 d5 bc
       0.16491543 -0.17559779 0.15813588 -0.026074355
000110 8d 39 19 be 79 cc a6 3d 1a 0b 20 3e e8 5e 0a be
       -0.1496336 0.08144469 0.15629235 -0.13512766
000120 71 10 d4 3d 3b 99 0b be 15 01 43 be 0f 9f c1 bd
       0.103546984 -0.13632672 -0.19043382 -0.09454166
000130 31 f1 04 3e 81 f9 95 3d 7d b5 1c 3e 83 b0 34 be
       0.12982632 0.0732298 0.15303607 -0.17645459
000140 5d 3e 16 3e a7 56 89 3d aa 84 96 bd f0 25 2b bd
       0.14672227 0.06705981 -0.073495224 -0.041784227
000150 b3 db b8 bd c3 1e a3 bd 94 d8 b4 3c 2d d1 5b be
       -0.09026279 -0.07964852 0.022075929 -0.21466513
000160 50 46 81 3d fa 0e 82 bd 4d 4d 4d 3e 76 a4 03 bc
       0.06312239 -0.06350513 0.20049019 -0.008034816
000170 5e b3 f7 3d bf 3e 55 bc 09 7f 06 3d 81 71 0a 3e
       0.120947585 -0.013015448 0.032835994 0.13519861
000180 cf 23 eb bc d3 af 51 bd 26 a1 20 be 55 a4 c6 bd
       -0.028703598 -0.05119307 -0.15686473 -0.096993126
000190 60 d5 07 3d b8 04 bc bd d7 21 29 be 74 2a 0f 3e
       0.033162475 -0.091805875 -0.16516815 0.13981038
0001a0 77 61 e7 3c d9 69 4b be b9 00 cf bd 72 e8 6c bd
       0.028244717 -0.19864596 -0.1010756 -0.057838865
0001b0 c6 af 51 be b4 1c 14 3e d5 35 1a be 69 6b 1b be
       -0.20477208 0.14464074 -0.15059598 -0.15177692
0001c0 02 d6 76 3d dd f6 f2 bc ed 21 dd 3d ad 10 0d 3d
       0.060262688 -0.02965873 0.107974865 0.03443973
0001d0 30 41 8b bd c7 8a ea bd 77 67 98 3d d6 f9 18 be
       -0.06799543 -0.11452251 0.07441609 -0.14939055
0001e0 3c 6c 9f 3c 75 a3 5d be 62 e2 bd 3c f1 54 3d be
       0.01946079 -0.21644385 0.023179237 -0.18489434
0001f0 bc 45 86 3d 33 e1 cf bd 99 e3 d6 3d 34 76 df 3d
       0.065562695 -0.10150375 0.104926296 0.10911217
000200 b2 6e 49 3e c8 d8 1d 3e 36 2e 52 3c 51 61 5c be
       0.19671133 0.15414727 0.0128284 -0.21521498
000210 57 77 c3 3d 51 3c e4 3d be d5 9d 3d e8 8b 4c 3e
       0.09544247 0.11144317 0.07706784 0.19975245
000220 30 81 48 be 8f 0f 8f 3c a0 72 63 bd b1 78 12 3e
       -0.19580531 0.017463474 -0.055529237 0.14303853
000230 bb 08 53 be e4 0e b6 bd fc d1 08 bd 13 85 83 3d
       -0.20608799 -0.08889559 -0.03340338 0.06421866
000240 e8 47 0b 3d 33 c3 fc bd e2 b0 ae 3d 37 3b b5 3d
       0.034004122 -0.12341919 0.085298315 0.08849185
000250 dc 0c 5c be 18 dd 9a 3c 82 c3 58 bc 35 86 35 3c
       -0.2148928 0.018904254 -0.013230206 0.011079361
000260 cc 52 4b 3e 6f d4 50 be dc c9 12 3e 35 eb 24 3d
       0.19855803 -0.20393537 0.14334816 0.040263373
000270 14 4f ad bd a9 70 54 be 05 97 c8 3d 48 20 57 3e
       -0.084623486 -0.20746101 0.0979443 0.21008408
000280 17 2e 50 3e c1 ac 06 be fb 6f 15 3e c3 b4 25 3c
       0.20330082 -0.13151838 0.14593498 0.010113898
000290 13 f9 fd 3c 92 e9 cd bb fd ef cc 3c a0 0f 41 3e
       0.031002557 -0.0062839473 0.02501678 0.18853617
0002a0 70 94 5b bc 72 b8 29 3e d7 00 05 be 45 1c 1b 3e
       -0.0134020895 0.16574267 -0.12988602 0.15147503
0002b0 ef 44 4e be b3 9f 18 3e b5 88 5b 3e cb b8 27 3c
       -0.20143484 0.1490467 0.21438868 0.010236929
0002c0 1b 5e fe bd 0c f7 24 be 3d e6 2a bd 00 5e 03 be
       -0.12420293 -0.16109866 -0.04172348 -0.12828827
0002d0 bb 32 d2 3d 76 9d 77 bd 07 95 b6 3d 2c 0c 06 be
       0.10263582 -0.0604529 0.089151435 -0.1309058
0002e0 a7 e4 26 3e 86 13 06 be 03 ba 6e 3d d9 d4 16 3e
       0.16298161 -0.13093385 0.058282863 0.14729632
0002f0 af 49 0e 3e 79 1b 42 be 01 4d 4e be 82 e5 e3 bd
       0.13895296 -0.18955792 -0.20146562 -0.111277595
000300 7f c4 57 3e f9 5c 5c 3e 92 36 81 bd 4a 94 4e be
       0.21071051 0.21519841 -0.063092366 -0.20173755
000310 ec 2a de bd e1 e5 29 3e fc 8b 34 be bd 98 86 bd
       -0.108480304 0.16591598 -0.17631525 -0.06572101
000320 95 62 bb bc 85 fe 6f bd 8b 63 cd 3d 84 66 2d be
       -0.022874156 -0.058592338 0.10028752 -0.16933638
000330 25 15 00 3e 9d fe 41 3e 50 e0 48 bc aa 4a b6 bd
       0.12508066 0.18944784 -0.0122605115 -0.0890096
000340 f3 c3 f1 3c 39 c5 b8 bd 42 a8 a8 bc f1 c1 1c 3e
       0.029512381 -0.09021992 -0.020588044 0.15308358
000350 c2 0c 0f 3e 39 73 b5 bd 62 bf 9c bd a1 dd 33 be
       0.1396971 -0.088598676 -0.07653691 -0.17565013
000360 f4 b3 54 3e 5d e4 23 be 22 4f 4a be 13 e0 33 3e
       0.20771772 -0.16005082 -0.1975675 0.17565946
000370 de 97 5f 3e 3f 84 0c 3e 32 4e 07 be 29 3f 3f 3e
       0.21835276 0.13722323 -0.13213423 0.18676437
000380 a8 0d ef 3d 95 78 f0 bd 78 47 6f bd 29 1d 46 be
       0.116725266 -0.11741749 -0.058417767 -0.19347061
000390 08 d8 8d bd b0 2a 32 bd 4d 8d 58 3e 74 82 49 bd
       -0.0692597 -0.04349774 0.21147652 -0.049196675
0003a0 2f f6 47 3e 0c 90 3c 3d b3 0a e0 bd d2 f2 7d bd
       0.19527505 0.04603581 -0.10939541 -0.06199915
0003b0 52 2b 48 bd 01 ab 3f be a3 74 43 3d b7 72 1b 3c
       -0.04886944 -0.18717577 0.047718655 0.009487799
0003c0 1f 6b 47 3c 93 40 f1 3d 87 4b 57 be a8 6a 94 bd
       0.012171536 0.11779895 -0.21024905 -0.072469056
0003d0 76 a9 e4 3d 23 76 0c be df e3 0e be 98 38 e3 bd
       0.111651346 -0.1371694 -0.13954113 -0.11094779
0003e0 f4 ef 5e 3e fe 4b 4c be 6c 5d 32 be 93 cd 95 bd
       0.21771222 -0.19950864 -0.1741845 -0.07314601
0003f0 b3 40 40 be 30 13 2a bd 85 2e a5 3c 6f 71 8d bd
       -0.18774681 -0.041522205 0.020163784 -0.06906401

actor.fc2.weight f4 [128, 256]
000000 0d 71 75 bd b9 0d c9 bc 3a 80 49 3d 25 4a 2f bd
       -0.059922267 -0.024542676 0.049194552 -0.04279532
000010 d0 ec 7b bd 85 b5 04 bd 41 6c e6 3c 92 15 85 bb
       -0.06150514 -0.032399673 0.028127791 -0.0040614093
000020 3a e6 60 3d e2 e6 dd 3c db ec 81 bc fc 38 c8 bc
       0.05490706 0.027087633 -0.015860012 -0.024441235
000030 22 a6 86 3a 80 1d 75 bd 26 91 8a bc da 99 b8 bb
       0.00102729 -0.059842587 -0.016914915 -0.005633575
000040 33 5b 0f bd 69 6e 3c 3c ff 46 61 3d 1a 6c 77 3b
       -0.034999084 0.011500933 0.054999348 0.0037753643
000050 91 97 97 bb 84 96 dc 3c 86 60 2d 3d 2a 58 5a 3a
       -0.0046262224 0.02692724 0.04232838 0.00083291775
000060 cd 9c 1d 3d e0 a7 13 bd 5e 53 13 bd 0f aa 39 3d
       0.038479615 -0.03604877 -0.035968177 0.045328196
000070 22 28 34 3d 35 9e 8c bc 08 34 5e bd 8f 8d 4d bd
       0.043983586 -0.017165283 -0.05424884 -0.05018383
000080 f5 af 18 3d 28 12 69 3b 03 b2 28 bd aa cb 24 bd
       0.03727718 0.00355638 -0.04118539 -0.04023329
000090 3f bb 41 bd f0 e0 29 bd 26 6b 05 bd b4 44 89 3c
       -0.047297712 -0.041474283 -0.032572888 0.016756393
0000a0 8a dd 4f 3d fa ab 55 bd 3c 50 38 bd ef 66 4f 3d
       0.050748385 -0.052165963 -0.044998392 0.050635274
0000b0 44 25 60 3d d5 57 46 3c 57 30 4b 3a 4f b4 b0 3c
       0.05472304 0.012105902 0.00077510386 0.021570353
0000c0 d3 b3 27 bd 25 8c ed 3c 7e c9 3c bd 6b ba 12 3b
       -0.040942978 0.02899749 -0.046090595 0.0022388946
0000d0 35 74 42 3c 44 dc 73 3d f4 eb dd bc 82 6c ae 3c
       0.011868526 0.059536234 -0.02709005 0.021291975
0000e0 c6 49 e5 3c fd 0b 5c 3d 49 b7 68 3d 62 06 fd 3b
       0.02798928 0.05372237 0.05681542 0.007721708
0000f0 4f 7b 93 3c e5 95 23 bd 62 08 10 bd 7e 51 d8 3c
       0.018003134 -0.039937872 -0.035164244 0.026406046
000100 fc 84 96 39 99 43 e1 3c b8 4c 34 bd 4d 5f 55 3d
       0.0002870931 0.027498053 -0.044018477 0.05209284
000110 35 a6 4d bc 5b 28 02 3d c9 98 57 bc a0 4c 59 3c
       -0.012551834 0.031776767 -0.013158985 0.013262898
000120 76 e3 62 3d bd 0e 08 3d ea 52 b7 b9 0d fb 2a 3c
       0.055392705 0.03321718 -0.00034966256 0.010435832
000130 a7 13 ed bc 1f 50 36 3d 39 07 1b bd 12 d2 d3 3c
       -0.028940035 0.044510003 -0.037848685 0.025857005
000140 21 fd 58 3d 7f bd 26 3c d1 aa 50 3d 89 48 5b bd
       0.052975778 0.010177015 0.050944153 -0.05353597
000150 39 b5 09 bd 73 aa be bc ba 50 28 bd 8a c5 7c 3d
       -0.033620093 -0.023274636 -0.04109261 0.061711825
000160 d1 8b fe bc d8 28 87 3b d9 b5 66 bc f2 6a cb bb
       -0.031072529 0.004124742 -0.014081442 -0.0062078172
000170 d1 91 88 3b 07 84 6d 3c 18 4c 81 3d 7e 4d b7 3c
       0.0041677733 0.01449681 0.06313342 0.022375818
000180 4e cd 0c 3d d2 97 9b 3c 90 9f 2d 38 2e 5b 1c 3c
       0.03437548 0.018993292 4.139502e-05 0.009543223
000190 cd 5d 00 bd 22 d0 b5 3c 01 e6 1c 3c c9 e6 ac bb
       -0.031339455 0.022193972 0.009576322 -0.005276535
0001a0 79 fd 8b 3c 60 21 b5 3c f5 6f 5e bd 03 5b a5 3b
       0.017088639 0.022110641 -0.05430599 0.00504625
0001b0 33 96 00 bd ff 7a 13 bd 6b 25 2e 3d 77 2e 9d 3c
       -0.03139324 -0.03600597 0.042516153 0.019187195
0001c0 61 49 2f 3d 0c 25 4a 3d 6a 58 32 bc 10 2e 23 bd
       0.04279459 0.049351737 -0.010885337 -0.03983885
0001d0 7e 51 9d 3b 79 f0 72 bd 96 db 33 bd da aa 95 ba
       0.0048009744 -0.059311364 -0.043910585 -0.0011418716
0001e0 47 36 46 bc 73 e8 26 bd 5c 91 a9 3c b6 1b 43 bd
       -0.012097902 -0.040749025 0.020699196 -0.04763385
0001f0 7a 6a 46 bc 3c ab 1e bd 4e 8e 74 3b 78 4f 14 3d
       -0.012110347 -0.03873752 0.0037316266 0.0362086
000200 94 dd 18 3d 54 76 e7 3b 54 d7 aa bc eb 6a 4d 3d
       0.03732069 0.0070636664 -0.02085463 0.050150793
000210 72 bd 81 3d f6 b4 23 3d 41 b4 52 3c e5 f8 31 3d
       0.06334962 0.0399675 0.012860359 0.043450255
000220 29 7b 6d bc c5 56 79 bd d2 77 80 3d 2c 0e 0a 3d
       -0.014494696 -0.060873765 0.06272854 0.03370492
000230 08 e3 7f bc 57 59 f9 3c 3f f3 5c 3a f7 21 aa 3c
       -0.015618093 0.030438108 0.00084285805 0.020768149
000240 80 c0 df 3c a6 d7 48 bc a8 94 4a 3d d5 0f 1d bd
       0.02731347 -0.012258446 0.049458176 -0.038345177
000250 f6 29 62 3d ad 97 34 bd 03 c6 92 bc 3a 6e 3a 3d
       0.0552158 -0.04408996 -0.017916685 0.045515276
000260 34 10 e3 3c 93 21 36 bd 2f 18 11 3d dc bd 55 3d
       0.027717687 -0.044465613 0.035423454 0.052183017
000270 c5 2f dc bc 15 ef 43 ba f8 1e 46 3d c7 a6 09 3d
       -0.026878247 -0.00074742857 0.048369378 0.033606317
000280 25 fd 1a 3c 44 8e ac 3c 83 b0 2e bd 26 a4 7f 3d
       0.009459768 0.021063931 -0.042648803 0.062412404
000290 d9 90 04 bd 3a c5 72 3d da 2c 09 bd 82 99 c7 bc
       -0.0323647 0.05927012 -0.03349004 -0.02436519
0002a0 9b fd 7d 3c b9 a6 fb 3c b7 ae 30 bd 2a c0 4b 3d
       0.015502359 0.030719148 -0.04313537 0.04974381
0002b0 65 6e 78 3d 97 d8 b0 3c 56 c9 a0 3b f8 9c 54 bd
       0.060652155 0.021587653 0.0049068136 -0.05190751
0002c0 6e af 35 3d cf d4 e2 3c 4a f9 a5 bc 2c 61 7c 3d
       0.044356756 0.027689366 -0.020260472 0.061616108
0002d0 a3 65 55 3d f3 63 97 3c 4d a3 dc bc 0b f3 5a bc
       0.05209888 0.018480277 -0.026933337 -0.01336361
0002e0 36 46 08 3d 29 5d 60 3b 8e b3 80 bc d8 b2 43 bd
       0.033270083 0.0034235215 -0.015710618 -0.04777798
0002f0 7e 0d 80 bc 05 ac 1d bc e4 d3 0a 3d 02 fa fa 3c
       -0.015631434 -0.009623532 0.03389348 0.030636791
000300 4c ae 0f 3d 4b 0f 72 3d 7b b8 e2 3c dc df a7 3c
       0.03507833 0.059096616 0.027675858 0.020492487
000310 51 c2 93 bc 7e 2d 8d 3b a0 d7 51 3c 09 b3 92 bc
       -0.018036993 0.0043084016 0.012807757 -0.017907636
000320 e8 c3 63 3c 35 70 7d 3d a0 fe 09 3d c2 a8 56 3b
       0.013901688 0.061874587 0.033690095 0.0032754396
000330 4c b8 a8 3b d4 d2 08 bd 94 cf 97 bc e4 25 be bc
       0.005148923 -0.033404186 -0.018531598 -0.023211427
000340 27 e2 80 3d 59 b9 61 bd 2d fa 00 3d 4b 9d a3 ba
       0.06293135 -0.055108402 0.031488586 -0.001248279
000350 19 d1 4f 3b 96 a1 32 3b 35 c3 18 3c 7c df 2d bd
       0.0031710325 0.0027256957 0.009323885 -0.04244946
000360 b8 75 23 bd fb 8e 18 bd 8c 1d 82 bc 65 45 3f 3d
       -0.039907187 -0.03724573 -0.01588323 0.04669704
000370 f4 85 fa 3c 35 77 02 3d 26 e0 06 bd d4 e0 04 3c
       0.030581452 0.031851966 -0.03292861 0.008110244
000380 b4 6f 47 bb ed b0 07 3d 96 9d 80 3b fe 42 7a 3c
       -0.003043157 0.033127714 0.0039250357 0.015274761
000390 00 1a c8 bc 7b f1 4e 3d 1e bb b8 bc d2 c4 22 3c
       -0.02442646 0.050523262 -0.022550162 0.009934621
0003a0 17 93 5a 3d 57 8b aa bb 21 51 58 3d f4 86 46 bd
       0.053362932 -0.005204599 0.052811746 -0.048468545
0003b0 3a ce 3b 3d a7 2f 59 bb b4 6c 4a bd 11 a2 90 3c
       0.04585097 -0.0033139975 -0.049420074 0.017655404
0003c0 5f d8 83 3c 1f e1 73 3c db e7 09 bd c4 56 9a bc
       0.016094385 0.014885216 -0.03366838 -0.018840201
0003d0 62 1e 5c 3d 6f 75 97 3c 0b ab 3e 3c cb 50 b4 3c
       0.053739913 0.018488614 0.0116374595 0.022011181
0003e0 2a 9e 60 bd 1f d0 51 bd 4e c7 58 bd 37 7f a5 3c
       -0.054838337 -0.05122387 -0.052924447 0.020202262
0003f0 ca 65 98 3b 11 0d 31 3d 8b 09 22 3d 80 5f ad 3a
       0.004650806 0.04322535 0.039559882 0.0013227314

actor.fc2.bias f4 [128]
000000 62 5c 1e bd 46 46 30 bd c7 fe 57 bc 8d 18 26 3c
       -0.038662322 -0.043035768 -0.013183302 0.010137689
000010 b3 51 14 3d 02 04 31 bd a2 4c 30 bd 07 92 91 bc
       0.036210727 -0.043216713 -0.043041833 -0.017769827
000020 76 f0 ba 3c 90 c9 39 3d b2 78 10 3d 51 37 6a 3d
       0.022819739 0.04535824 0.035271354 0.05718166
000030 5e ad b2 bc 84 f7 78 3c e0 23 f8 bc ac e3 71 3d
       -0.021811184 0.015195731 -0.030290544 0.059055015
000040 c3 60 1b bc 5c db 76 bc 50 c9 ec 3c 4a d5 57 bd
       -0.009483519 -0.015066948 0.028904587 -0.052693643
000050 0e 01 88 3a c7 30 50 3d 89 ed af 3c a4 2b 13 3d
       0.0010376291 0.050827768 0.02147557 0.03593029
000060 d6 24 3f 3d 35 ce ae 3c d3 e7 90 bb 24 8c 04 3d
       0.04666599 0.021338562 -0.004422167 0.03236021
000070 6f 64 10 3d a9 80 ac bc da c8 35 3d 01 e5 af 3c
       0.03525203 -0.021057444 0.044381 0.021471502
000080 23 96 f6 bc 34 2b 5b 3d 96 7e ad 3c a6 c4 47 3d
       -0.030100888 0.053508 0.021178525 0.048771523
000090 96 58 26 3d a5 b1 b7 3c 49 25 a3 3c 73 14 5c bd
       0.040611826 0.022423575 0.01991524 -0.05373044
0000a0 16 c6 f4 bc 25 07 04 3d 04 d8 fc 3c e9 79 07 3a
       -0.029879611 0.032233376 0.030864723 0.00051680073
0000b0 b8 3f 7f 3d 88 43 2b 3d e3 ee 29 bd 01 ca 38 3c
       0.062316626 0.04181245 -0.041487586 0.01127863
0000c0 82 a2 da 3c d8 c6 a7 bb 14 49 67 bd 77 d9 3a bc
       0.026688818 -0.0051201396 -0.056466177 -0.011404387
0000d0 2a 24 29 bd 8c d3 04 3d cd 1d bc bc bf c8 80 3d
       -0.041294254 0.03242831 -0.022963429 0.06288289
0000e0 81 33 c7 3c 31 fc 3d bd 02 52 6c bd fc 06 e6 3b
       0.024316551 -0.046383087 -0.057695396 0.0070198756
0000f0 bf 61 08 bd 7e e7 6c bd b9 85 56 bd 77 c3 db 3c
       -0.033296343 -0.057837956 -0.05237362 0.026826603
000100 33 82 d6 3c db f3 27 3d b0 e2 0c 3d fa a7 ea bb
       0.02618513 0.041004043 0.034395874 -0.0071611376
000110 57 c6 9a bb df b6 0f 3d cc ad 3a 3b 5c 0f f9 3c
       -0.004723351 0.03508651 0.0028484939 0.030402832
000120 18 96 57 bd 91 61 64 3d 49 16 69 bd 53 08 81 bb
       -0.052633375 0.05575711 -0.05690602 -0.00393776
000130 09 75 ad bc 7c 89 dd 3b 70 ab 74 bc 38 87 6a bd
       -0.02117397 0.006760774 -0.014933452 -0.05725786
000140 79 26 ce 3c f1 8c b0 3b e6 98 5e bc 47 5d 9c bc
       0.02516483 0.0053878953 -0.0135862585 -0.019087447
000150 d4 fd b7 3c a4 d3 99 3a 21 91 2a bd 31 ab 51 bd
       0.022459902 0.0011736047 -0.041642312 -0.05118865
000160 0b 56 23 3d 56 d3 11 3d 56 8e b9 bb a2 ca e4 bc
       0.03987698 0.035601936 -0.0056627197 -0.027928654
000170 ba c2 3c 3d a8 a1 23 bd 69 00 5f 3d a2 e3 5a bd
       0.046084143 -0.03994909 0.05444375 -0.053439744
000180 ea 97 53 bd 7a a5 af bc 8e 19 c7 3c af 62 9c 3c
       -0.05165855 -0.02144121 0.024304178 0.019090025
000190 dc 1e c3 39 c2 fc 17 bc 9e 5d 05 bd 83 6b 13 bd
       0.0003721629 -0.009276571 -0.032559983 -0.035991203
0001a0 b3 2d 5e bb 1f 26 81 3d 56 61 5b bc 17 6c a8 3c
       -0.003390175 0.06306099 -0.013389906 0.020559354
0001b0 47 a1 3d bd 87 78 1e bd d2 52 d3 bc 0d d0 8c bc
       -0.046296384 -0.038689163 -0.025796328 -0.01718905
0001c0 dc 5d 46 3d ad 8c 78 3c 9f 06 0d bd 5c 32 6b bd
       0.048429355 0.0151702585 -0.034430142 -0.057421073
0001d0 27 ef 69 bd c1 d7 0c bd bf 63 78 3d f3 60 5d 3d
       -0.05711284 -0.034385446 0.060642 0.054047536
0001e0 9d d5 90 bc 47 da 4a bd bc 48 29 3c bd 7a 5b 3d
       -0.017679984 -0.04952457 0.010332283 0.05358385
0001f0 98 e4 37 bd 6e 07 14 bd 67 cc d8 bb fc a8 14 bd
       -0.04489574 -0.036139898 -0.0066161635 -0.03629397

actor.policy_head.weight f4 [50, 128]
000000 75 6f 2a bd 03 8d b3 3d 9b d7 8a bb a9 aa 07 3d
       -0.0416102 0.0876713 -0.004237128 0.03312174
000010 7c 51 9c 3d 83 e1 14 bd 44 84 5f bd 78 cb 8f bd
       0.076327294 -0.036347877 -0.054569498 -0.070212305
000020 62 83 cc bb ab 7b f3 3b aa 4c 50 bc 58 81 aa 3d
       -0.006241248 0.007430514 -0.012713591 0.083254516
000030 a5 cc 0c 3d c1 e9 92 3d 99 d2 76 bd 3d 58 d9 3c
       0.03437485 0.07173491 -0.060259435 0.026531333
000040 84 6a 3e 3b 59 8a 22 3d ea 59 8c 3d 21 a9 96 3d
       0.0029055187 0.03968272 0.06853087 0.073564775
000050 26 71 c2 3b 8a 54 60 3d ac 3c 2f 3c ea c9 55 bd
       0.0059338985 0.054768123 0.010695618 -0.052194513
000060 0e f5 b0 bd 1b 06 65 bd 73 2f 43 3d 9a e7 d0 3c
       -0.086404905 -0.055914026 0.047652673 0.025501061
000070 70 6c b8 bc 41 3c b1 bd e8 94 41 3c d8 41 f4 bb
       -0.022512645 -0.08654071 0.011815287 -0.0074541382
000080 7a 93 59 3d 17 23 d5 3c dd 00 a0 3d 66 ac 7c 3d
       0.05311916 0.026017709 0.07812665 0.06168785
000090 84 1e ae 3d cf 3d 4a 3d 06 00 98 bd 67 a5 d3 bb
       0.08501914 0.04937535 -0.074218795 -0.0064589265
0000a0 f5 b7 9b bd 67 fb 86 bd 2b 55 72 3d e2 30 94 3d
       -0.076034464 -0.0659092 0.059163254 0.07235886
0000b0 12 7a 15 bc a5 f6 b6 b9 68 4d 8f bd d8 26 84 3c
       -0.009123342 -0.0003489751 -0.06997186 0.016131803
0000c0 75 77 f4 bc dc be f1 3b a1 fc 1c 3d b9 7e 9e bd
       -0.029842118 0.0073774885 0.038326863 -0.07739014
0000d0 3c be 8a bd 87 6a b8 3c 06 00 a5 3c 44 7d d3 3c
       -0.067745656 0.022511734 0.020141613 0.025816567
0000e0 6d bc bc bc 2e ab d6 3b e7 79 e6 bc 07 f9 80 bd
       -0.023039067 0.006551168 -0.0281343 -0.06297498
0000f0 75 be 62 3c c8 5c 98 bd 1b 70 0d bd 88 1b 68 bc
       0.013839354 -0.074395716 -0.03453074 -0.01416672
000100 c0 23 41 bd 73 f3 61 bd 46 25 95 bd 09 e6 a1 3c
       -0.047153234 -0.055163812 -0.072825 0.01976301
000110 48 8a 21 3d 5c 70 17 3d 1a 59 03 3d 99 d8 2e bc
       0.039438516 0.03697239 0.032067396 -0.010671758
000120 e7 92 25 3c cd 92 96 3d 28 92 85 3d 87 44 fe 3c
       0.010105825 0.07352219 0.06522018 0.031038536
000130 15 f0 42 3d fd 51 57 bd c8 55 4b bd 0e 41 35 3d
       0.04759224 -0.052568424 -0.049642354 0.044251494
000140 8f 71 5a 3c ed 27 b1 3d 67 ae ca bc 05 d9 20 3d
       0.013332739 0.08650193 -0.024741365 0.039269466
000150 c7 91 44 3d ed f8 9a bd 9c 84 9f bd 21 78 2c bd
       0.047990587 -0.0756701 -0.07788965 -0.04210675
000160 76 ad af bd 0c c1 4e 3d be 46 f4 bc ad 40 ba bc
       -0.08578007 0.050477073 -0.029818889 -0.022735918
000170 53 a5 8d 3d 4d 65 43 3d 01 e2 9b bc de ff ab bd
       0.06916299 0.04770403 -0.019028665 -0.08398412
000180 37 43 d1 3c 4c c7 ae 3d 5d 45 06 3d 0e 26 07 3c
       0.025544746 0.085341066 0.032780994 0.008248819
000190 2a 11 80 bd f4 ae 06 3d 17 d3 9c 3d e7 ec 5d bc
       -0.06253274 0.032881692 0.0765745 -0.013545251
0001a0 18 8f 68 3d 9f c1 5f 3d 70 b5 a2 bc 24 4a 2c 3a
       0.05677709 0.05462801 -0.019861907 0.0006572327
0001b0 07 13 a5 bd b8 1e 49 bd 16 49 8e bd ea 1c 7a 3c
       -0.0806027 -0.04910156 -0.06947534 0.015265683
0001c0 53 72 7a bd 03 a4 9c 3d 7b 16 82 3c 8e a1 f1 bc
       -0.061144184 0.0764847 0.01587986 -0.02949598
0001d0 18 52 65 3d a6 f1 d1 bc d5 bf 49 3d 3f 64 6b 3d
       0.055986494 -0.025627922 0.04925521 0.05746865
0001e0 6e 6d 8c 3d ae 34 9c 3c 52 40 c3 3c f6 25 eb bc
       0.068568096 0.019068088 0.023834381 -0.028704625
0001f0 6e c8 da 3c 1b e1 1b 3d 25 01 b7 bc e4 f6 5e 3c
       0.0267069 0.038056474 -0.022339413 0.013608668
000200 5e 9f a3 3d ed 04 8b 3d c8 9f ef 3c 01 3c 55 bc
       0.07989381 0.06788049 0.029250994 -0.013014794
000210 ce 29 25 3d 66 bc 06 bc ed 7f b3 3d ae 48 e4 3b
       0.04032307 -0.008223629 0.08764634 0.006966672
000220 27 54 35 3d 02 57 0f 3d bb eb 3d bd df 5e b1 3d
       0.044269707 0.034995086 -0.04636739 0.08660673
000230 a7 81 18 3d 33 9c 98 bd 3d 06 dc 3c 75 76 0e 3d
       0.03723302 -0.07451668 0.026858443 0.03478094
000240 af 99 11 bd fc c4 97 bd d3 7a a6 3d 2e b0 6f bd
       -0.035546955 -0.07410619 0.081288956 -0.058517627
000250 77 6e 24 3d b8 e8 b2 3a 6d e2 46 3d 4e 35 e4 bb
       0.04014441 0.0013649678 0.04855578 -0.006964362
000260 74 e0 8f bd ce 4c ac bd 3f 61 3a 3c a1 f4 01 3d
       -0.07025233 -0.08413087 0.011375724 0.031727437
000270 81 73 e6 bc d3 25 c3 bc 83 fb ad 3c f6 c9 a7 3d
       -0.028131248 -0.023821747 0.021238094 0.08192818
000280 5c b2 84 3c 22 ae f9 3b 85 36 9c 3d b6 56 94 bd
       0.01619833 0.007619635 0.07627586 -0.07243101
000290 7c 95 7a bd f0 6a 26 3d a0 0f 78 3c 10 fa 17 3d
       -0.061177716 0.040629327 0.015140444 0.037103713
0002a0 b6 7a 67 bb f5 14 0e bd 5a 1d ae 3d be bd d8 bc
       -0.0035320944 -0.034687955 0.08501692 -0.026457664
0002b0 6f 7a 95 3d 3a a4 66 3d a8 ba 9d 3d 91 7b 98 bd
       0.07298743 0.056308962 0.077016175 -0.074454434
0002c0 68 94 85 3c e4 4d 20 3d 07 69 26 3c af 44 00 3d
       0.016306117 0.039136782 0.010156876 0.0313155
0002d0 b1 97 9a bd ee b6 11 3d 98 83 dd bc 24 d6 8a bd
       -0.07548464 0.035574846 -0.027040288 -0.06779125
0002e0 49 55 10 3b cc 97 3c 3d 01 72 05 3d 06 46 a8 bb
       0.002202349 0.046043202 0.032579426 -0.0051353006
0002f0 8e 51 ad bd 3f e8 a2 3d 77 0e aa bb 22 c5 7c bd
       -0.08462821 0.07954454 -0.0051897126 -0.061711438
000300 0f 70 af bc 7b e7 a5 bd ca 15 01 3d 04 39 03 bd
       -0.021415738 -0.08100792 0.03151492 -0.032036796
000310 78 f2 9e bd 9a cc 31 bd 6b 5d 12 3d 03 06 5e bd
       -0.07761091 -0.043408014 0.03573362 -0.054204952
000320 d1 ea 85 3d ff 35 91 3d 42 4e bc bb 6d 07 81 bc
       0.06538928 0.07090377 -0.0057466337 -0.015750611
000330 03 04 52 bc 4a 5c 2a 3c 00 df 12 3d 0c 46 9f bd
       -0.012818339 0.01039798 0.0358572 -0.07777032
000340 85 4c 7f bd b6 c3 96 3c 4e 05 a4 3c 07 63 37 3d
       -0.062328834 0.01840387 0.02002206 0.044772174
000350 07 cb af bc 9a a4 1d bd 33 83 5c bd 79 eb ac 3d
       -0.021459116 -0.038487054 -0.05383606 0.0844335
000360 91 d5 6a bc cd 96 ad bd 45 0f a8 ba 3e 6f 11 bb
       -0.014333145 -0.084760286 -0.0012821933 -0.002219155
000370 83 33 60 bd 18 37 eb bc e2 c3 ff bc 91 95 b2 3d
       -0.054736625 -0.028712794 -0.031221334 0.08719934
000380 32 a1 9f 3d 24 10 a7 3d a6 69 89 3d 05 32 7b 3d
       0.077944174 0.081573755 0.06709604 0.061327
000390 eb d3 85 bd cc a9 d3 bb 05 09 4d bc 96 7f 62 3d
       -0.06534561 -0.0064594503 -0.012514357 0.055297457
0003a0 fe 8d 38 bd c6 1e 31 bd 56 5c 96 bb 0f e1 dd bc
       -0.04505729 -0.04324224 -0.004588644 -0.027084855
0003b0 bd 19 36 bc f8 31 d1 3c cc 46 c8 3c 54 98 32 3d
       -0.011114535 0.025536522 0.024447821 0.043602303
0003c0 76 68 cd 3c 8e 89 8d 3d 3a ae 8a 3d 88 55 2f bd
       0.025074225 0.06911002 0.06771512 -0.04280618
0003d0 4d 6a d8 3c aa ad 7c bd 55 92 18 bd 95 e7 e7 3c
       0.026417876 -0.061689056 -0.037248928 0.02830867
0003e0 75 56 3b bd d3 aa b4 bc 9e 4b 33 ba 02 00 14 3d
       -0.04573675 -0.022054112 -0.0006839576 0.03613282
0003f0 de 64 b5 bd 94 51 c6 3c 42 45 3d 3d b4 19 9a bd
       -0.088571295 0.024208821 0.046208628 -0.07524434

actor.policy_head.bias f4 [50]
000000 19 fa 0f bd 14 a8 98 3d bb f0 87 3d b4 18 a9 bc
       -0.03515062 0.07453933 0.066377126 -0.020641662
000010 2d 35 88 3d de 02 40 3d 06 25 bb bc f9 1d 77 3d
       0.066507675 0.046877734 -0.022844803 0.06033132
000020 d8 a0 a5 bd 31 b7 ab bd 5d 6b 8e bd b1 0c 83 3d
       -0.08087319 -0.0838455 -0.06954072 0.06398905
000030 0f 1e 9b 3d 18 8a 90 3d 69 d9 50 bd f2 11 94 3d
       0.075740926 0.07057589 -0.05098859 0.07229985
000040 2c d4 44 3c f5 bb a1 3d a7 3e b5 bd f1 10 96 3d
       0.012013476 0.07897178 -0.088498406 0.0732745
000050 93 31 8a 3d 44 13 bd 3c ac 44 f3 3c 27 29 42 bd
       0.06747737 0.023080476 0.029695831 -0.047402527
000060 21 88 8b bd d9 45 8d 3d 28 e1 0a bd 6f 66 58 3c
       -0.06813074 0.06898088 -0.033906132 0.013208016
000070 6e de 76 bd 8d aa a4 bd d9 87 28 3d 12 9b b0 bd
       -0.06027072 -0.080403425 0.04114518 -0.08623327
000080 b4 d4 a5 3d b5 ed 3f bd 0c 07 22 3d fe f8 22 3d
       0.080972105 -0.046857554 0.0395575 0.03978824
000090 ba 01 16 3d 8c 9a 2f bd bf 11 09 3c 03 0c 51 3d
       0.03662274 -0.042871997 0.008366047 0.051036846
0000a0 7c 9c 6e 3d 71 ae 7a 3d e2 35 a8 3b 06 98 a7 3d
       0.058254704 0.061201517 0.0051333765 0.08183293
0000b0 7a e3 2c bd 34 fe da bc 4f 22 a0 3d c0 36 76 bd
       -0.042209126 -0.026732542 0.07819044 -0.060110807
0000c0 82 28 ad 3d 44 f8 62 3d
       0.08454992 0.055412546

critic.fc1.weight f4 [256, 21]
000000 97 2f 47 bd 6d d7 ab bd 50 6d 4e be 17 9b f6 bd
       -0.04862937 -0.083906986 -0.20158887 -0.120413
000010 f2 a6 30 bd d7 56 c3 bc ca c4 52 be 88 aa 92 3c
       -0.04312796 -0.02384512 -0.20582882 0.017903581
000020 8e be 08 bc e3 92 8b bd 8d ac 5c 3e db 42 03 be
       -0.008346213 -0.06815126 0.21550198 -0.12818472
000030 27 b0 7a bd d4 75 3f 3d 94 57 0b be 82 16 2c 3e
       -0.06120315 0.04674323 -0.13607627 0.16805461
000040 1e a4 36 be 29 dd 29 3e c7 fc d6 3d e2 a5 47 be
       -0.17836043 0.16588272 0.10497432 -0.19496873
000050 ae 88 a4 bd 07 6d 03 be 83 74 8c bd 40 9a 8c bd
       -0.08033882 -0.1283456 -0.0685816 -0.06865358
000060 4c bd 47 3e 19 3b 53 bd a3 c4 40 be 74 09 5c bd
       0.19505805 -0.05157003 -0.18825011 -0.053719953
000070 7d e8 05 3e 0e b6 0e 3e 1b 3b 71 3d 11 d6 84 3d
       0.13076968 0.13936636 0.058894258 0.064861424
000080 6c 64 4d 3e 01 1f 1c be 8c aa d0 bd f3 fe 07 bc
       0.20057839 -0.15246202 -0.10188779 -0.008300531
000090 ef 91 40 be f4 cf 33 be ae 93 29 be 15 4a 31 be
       -0.18805669 -0.17559797 -0.16560242 -0.17313416
0000a0 d4 4d 86 bd 38 0c 3a 3e dc ec d2 3d 80 b5 de 3c
       -0.06557813 0.18168724 0.102990836 0.027186155
0000b0 cf e7 22 be cd b8 24 bd b5 78 7e bd c0 80 e8 3d
       -0.1590874 -0.040215302 -0.062126834 0.11352682
0000c0 eb c9 4e 3e bf 97 44 3e 4f d8 a7 bd b9 b6 29 3e
       0.20194213 0.19198512 -0.081955545 0.1657361
0000d0 3c 9b 0c 3e 5b 04 4e be bd 40 ae bd 23 17 1b bb
       0.13731092 -0.20118849 -0.085084416 -0.0023664914
0000e0 8a 7f 88 3c 86 8d bc bb 22 47 a9 bd 94 ea 20 3e
       0.016662378 -0.0057541756 -0.08265521 0.15714484
0000f0 cc 80 5e be da 8b e0 bd e7 52 81 bd 86 37 74 bd
       -0.2172882 -0.109641746 -0.063146405 -0.059623264
000100 0d af e0 bd 3d c0 04 be 5c 02 27 be 6f ee 6d 3d
       -0.10970888 -0.12963958 -0.16309494 0.058088716
000110 f3 9a d6 bd cd 13 1d bd 13 2d f6 3c 08 c3 47 be
       -0.10478773 -0.03834896 0.03005079 -0.19507992
000120 04 cc d1 bc 54 3f 54 3d 5f 50 2a 3e d9 e2 0a bd
       -0.025609978 0.051818207 0.16632222 -0.033907745
000130 c3 67 69 3c 4c df 17 bd cb b7 f7 bd 9a e3 38 bb
       0.01424593 -0.037078187 -0.120956026 -0.0028211833
000140 7d 03 20 be 84 d5 39 be e6 09 be 3c b2 e3 a3 bd
       -0.1562633 -0.18147856 0.02319808 -0.08002414
000150 00 52 26 be 74 3f 47 be 52 21 60 3d 4c d8 8c 3a
       -0.16242218 -0.19457799 0.054719277 0.0010745614
000160 26 b4 1b 3e 7d cb 54 3e 89 14 0f be a6 5e a6 bd
       0.1520544 0.2078075 -0.13972677 -0.081235215
000170 b7 5f 2c 3d 30 b2 49 3e 03 6e 57 3e 77 e9 c9 3d
       0.04208347 0.1969688 0.2103806 0.09858983
000180 29 e3 4f 3c c5 35 e5 3d 0c 1c 66 bb 82 39 5c 3d
       0.012688437 0.11191896 -0.0035111932 0.05376578
000190 89 03 4b be 16 06 10 3e 76 fd 57 3d a9 6a 3e be
       -0.19825567 0.14064822 0.052731954 -0.18595375
0001a0 2c d1 c6 bd 4e 0b b7 bd 7d 79 a4 bc a9 1c 04 3e
       -0.09707865 -0.08937703 -0.020077461 0.12901558
0001b0 99 6a cf bd 83 71 78 bd 75 9f 38 3e 14 07 94 bd
       -0.10127754 -0.06065513 0.18029578 -0.072279125
0001c0 8a 14 8e bd bc 02 e8 bd 2d 14 1b 3e 71 7e 2d be
       -0.06937511 -0.113286465 0.15144415 -0.16942765
0001d0 cb 69 0e be 76 d1 ab 3d a4 ef 2e be 35 91 8d 3d
       -0.13907544 0.08389561 -0.17083603 0.06912462
0001e0 df 32 44 3e dd 04 21 3e c8 30 48 3d 7a 36 5b 3e
       0.19160031 0.15724511 0.048874646 0.214075
0001f0 e9 be cf 3d b2 00 77 3c 7e 52 14 be 93 8b 84 3d
       0.10143835 0.015075849 -0.14484593 0.06471934
000200 11 52 37 bc 10 ea 18 be d1 3a f0 3d 55 6a 92 3d
       -0.011189 -0.14933038 0.11729968 0.071491875
000210 a8 f9 c7 3d 4c 8d 9b 39 59 3a 33 be a1 8f ac 3d
       0.09764415 0.00029669178 -0.17502727 0.084258325
000220 fd ff e5 3d 3f 82 11 3e 1c 22 26 3e 95 3f 93 bd
       0.112304665 0.14209841 0.16223949 -0.07189862
000230 2e b6 5a be 0f d6 5a 3e 95 f3 9a bd 91 55 33 be
       -0.21358559 0.2137072 -0.07565991 -0.1751311
000240 7b da 16 be a7 59 ab bd 47 02 14 3d 47 e2 5a 3d
       -0.14731781 -0.08366709 0.036134984 0.05343845
000250 e0 08 a5 3c 48 0e b3 bd f7 b9 e4 bd 3e 0b a7 3d
       0.020145833 -0.08742958 -0.111682825 0.08156441
000260 98 29 33 be 33 ae 0f bd 5d 71 b0 bd 67 f8 9c bc
       -0.17496336 -0.03507824 -0.08615372 -0.019161416
000270 31 de 5b bd 68 81 9a bd 6c 09 0e 3e a3 d6 4c 3e
       -0.053678695 -0.075442135 0.13870782 0.20003752
000280 43 64 9f bc c2 52 ad bd 4e 7e 6c bd 74 d6 ed 3d
       -0.019456988 -0.084630504 -0.05773764 0.11613169
000290 44 25 8b 3d aa fc 6f 3b ae 3d 54 be 46 86 6b 3d
       0.06794217 0.0036619105 -0.20726654 0.0575011
0002a0 5f db 16 3e e7 ec 37 3d 68 f6 99 3d 73 e1 ad bd
       0.14732121 0.044903662 0.075177014 -0.08490267
0002b0 a2 07 e5 bb 0d 59 87 bd 2f 24 5b 3d 9d 0c 0f be
       -0.0069894353 -0.06608782 0.053501304 -0.13969655
0002c0 5a af 35 3e 78 2f ea bc e1 c0 05 3d e7 80 5b 3d
       0.17742673 -0.028587088 0.032654647 0.053589728
0002d0 f2 36 9b bd 40 cb 7e 3d 4b 97 3d 3e f3 4d bd bd
       -0.07578839 0.062205553 0.18514745 -0.09243383
0002e0 80 7e 8b bd 58 da 1a 3e 21 4a d0 bd aa f1 7e ba
       -0.06811237 0.15122354 -0.10170389 -0.0009725342
0002f0 eb 99 6b 3d 28 51 14 be c5 33 37 be b7 6b 20 3e
       0.057519834 -0.14484084 -0.17890842 0.1566609
000300 d3 5d 16 3d 89 19 54 3c 52 dc 13 3e a7 25 58 3e
       0.03671057 0.012945541 0.14439514 0.21108113
000310 e4 57 36 be 85 4f 08 3e 0a 3c 41 be e1 cd d1 3d
       -0.17806965 0.13311584 -0.1887056 0.102443464
000320 04 5a e6 bd 96 6c e3 bd 2e b9 d1 3d c8 9a a4 3d
       -0.11247638 -0.111046955 0.10240398 0.08037335
000330 a4 63 26 3e 3a 92 f4 bc ce bf a7 3d 22 07 24 3e
       0.16248947 -0.029854883 0.08190881 0.16018346
000340 e1 c6 08 3e 7f 65 b6 bd 32 fa cc 3d 37 ee 73 bd
       0.13357116 -0.089060776 0.100086585 -0.05955335
000350 aa 34 31 3d 47 1f 4b 3d bf d1 cd 3c 42 c4 fa bd
       0.043263115 0.049590375 0.025124429 -0.122444645
000360 58 f9 e8 3d d0 94 b1 bd ac ab 59 3e 71 e8 11 3e
       0.113756835 -0.08670962 0.21256894 0.14248826
000370 40 36 7e 3b f2 c8 af 3d db 4d a2 bc 21 bd 2a 3e
       0.003878966 0.08583249 -0.019812515 0.1667371
000380 74 34 a8 3d 87 a5 e7 3d 69 dc ed bd 9f 07 ee bb
       0.0821313 0.11310869 -0.116143055 -0.007264092
000390 46 32 bc bd d9 1d 0b 3c c7 10 06 3e 97 02 47 3c
       -0.091892764 0.008491003 0.13092338 0.012146614
0003a0 1e 07 d8 bd 57 b6 96 3d 8e dc e8 bc b4 7b ae 3d
       -0.105482325 0.07358997 -0.028425481 0.08519688
0003b0 e7 96 05 be 7d b2 56 3e bb 1f 22 3d bd ae 43 be
       -0.13045846 0.20966525 0.03958104 -0.19109626
0003c0 14 77 f8 3d 18 1e d2 3c 65 c7 b1 3b 09 cd cd bb
       0.12132087 0.025649115 0.005425381 -0.0062805456
0003d0 de dc 46 3e fd 6a d5 3d 1b 6a 8d 3d b0 39 42 be
       0.19420192 0.10420797 0.06905004 -0.18967319
0003e0 e1 2a f4 3d b4 63 90 bd cf c6 da 3d 9d 44 2b 3d
       0.11922241 -0.07050267 0.10682451 0.04181348
0003f0 6b d7 90 3d 2a e4 06 3e ec ce 7d 3d b7 3a 7c 3d
       0.07072338 0.13172975 0.061964914 0.061579432

critic.fc1.bias f4 [256]
000000 61 87 43 3e ac 76 8d 3d e0 0e 4b 3d e2 3c 51 3e
       0.19094612 0.069074005 0.049574733 0.20433381
000010 91 6d 07 3e 56 5c d0 3d e3 04 02 be 69 84 4f be
       0.1322539 0.10173862 -0.12697177 -0.20265354
000020 1f 90 c4 3d ad 61 c9 3d fd b2 0c be a7 7e 43 bd
       0.095978014 0.09833083 -0.13740154 -0.047728207
000030 82 ca a6 bc 63 fb 21 be 64 13 ff 3d 3d 9a 17 3d
       -0.020360235 -0.15818553 0.1245487 0.037012327
000040 99 2a 66 bd 76 92 08 3e b3 cd 3a be 7e 14 a6 bd
       -0.056192968 0.1333712 -0.1824253 -0.08109377
000050 f0 06 43 be b2 ce eb 3d ef a9 bc bd ae 9e 03 3c
       -0.19045615 0.115140334 -0.092121 0.008033438
000060 86 75 ec 3d 63 86 1d be 55 8e 50 3e eb fe 48 3e
       0.11545853 -0.15383296 0.20366795 0.19628493
000070 88 56 fb bd 47 28 b6 bc b1 24 43 3e a8 a3 39 bd
       -0.12272364 -0.022236003 0.19056965 -0.04532209
000080 d7 05 15 be e0 2b 14 bc 8b 06 36 3d 41 18 0c 3c
       -0.14553009 -0.009043664 0.044439834 0.008550704
000090 b0 ec 5e 3e 22 b5 55 be 7f a1 89 3d 9d bf 30 3e
       0.21769977 -0.20869878 0.06720256 0.17260595
0000a0 56 5c d4 3c 6a b9 61 ba dc 14 77 bd 2c e4 b0 bd
       0.025922935 -0.00086106977 -0.060322627 -0.0863727
0000b0 ca c3 ba bd b9 62 93 bd f5 35 42 be 6f 9f 05 3e
       -0.09119375 -0.07196564 -0.18965895 0.130491
0000c0 95 a5 d9 3c cd 6c 59 3d 79 90 30 3e 47 d4 01 be
       0.026568213 0.053082276 0.17242612 -0.12678634
0000d0 10 fa 3f be 1c 5d 8a 3d 40 b5 ab bd ed c0 4e 3e
       -0.18747735 0.067560405 -0.0838418 0.20190783
0000e0 09 e7 0c be 68 a5 f9 bd 90 f7 5b 3e be 79 66 bd
       -0.13760008 -0.12189752 0.21481156 -0.056268446
0000f0 95 78 08 3e 4d 4b 2e be c9 07 98 bd a9 bd 4d 3d
       0.13327248 -0.17020912 -0.0742336 0.050229702
000100 9a 57 07 be 1b c9 2c be 17 80 19 3e d0 2a 99 bd
       -0.13217011 -0.1687359 0.14990269 -0.07478869
000110 ec ef 3c 3e 7e ba 11 bd d6 e0 c0 3d d0 8a ff 39
       0.18450898 -0.035578243 0.09417884 0.00048740814
000120 ed bb 63 3c 69 3c b1 3d 3d 46 b3 3c a7 59 69 3d
       0.0138997855 0.086541004 0.021884078 0.056970265
000130 21 be dd bd f9 32 47 be 31 53 ea 3c 68 7b 40 3d
       -0.1082728 -0.19453038 0.028604122 0.04699269
000140 f8 cc 8b 3d ea 1f 9e 3d af 2a 4f be 0d b2 5a 3d
       0.06826204 0.07720931 -0.20231126 0.05339246
000150 23 6e 80 3d c4 ab f0 3d 92 cb 6c 3d cf b9 13 be
       0.06271007 0.11751512 0.057811327 -0.14426349
000160 93 0e 12 be 45 43 35 be 48 45 97 bd 01 69 48 3e
       -0.14263372 -0.17701443 -0.07386261 0.19571306
000170 14 be d2 bd 70 c9 09 bd a5 67 e3 bd 7f 4c 1d 3e
       -0.10290161 -0.03363937 -0.11103753 0.15361212
000180 ff 29 4d 3e 10 28 06 be 10 7c 5e 3e 71 bd da bd
       0.20035551 -0.1310122 0.21727014 -0.10680664
000190 19 36 2a 3e ba f8 a3 bb a9 e8 97 3c 06 9b 48 3e
       0.16622199 -0.0050040158 0.018543558 0.19590387
0001a0 21 6a 94 3d 4b 30 a4 3d 59 43 f6 3d 9f a3 2f 3d
       0.07246805 0.08017024 0.12024564 0.04288065
0001b0 9c 35 05 be b4 31 d6 3d 8f 16 2e 3e 21 db 0a 3e
       -0.13008732 0.10458699 0.17000793 0.13560154
0001c0 6c 2c e1 bd f5 78 5d be a7 d8 76 bd 7e 40 dd bd
       -0.10994801 -0.21628173 -0.06026521 -0.108033165
0001d0 fd 6e 14 be c8 f5 51 be b4 2f 10 be 7d 9a 7e bd
       -0.14495464 -0.20503914 -0.14080697 -0.06215905
0001e0 c3 71 4a bd 1d 6c 29 be 9c 5a d4 bc 8f c0 19 3e
       -0.049424898 -0.16545148 -0.025922112 0.15014862
0001f0 95 32 23 3e c8 7f b4 3d 9c cd 31 bd cb 7f 61 3d
       0.15937264 0.08813435 -0.043408975 0.055053513
000200 0d 22 5f 3e 24 3a 59 be 45 50 5d be c1 f7 52 bd
       0.21790333 -0.21213585 -0.21612652 -0.051505808
000210 03 b0 dd 3d 7d 2b c8 3d 09 46 3c be f2 ad 1b 3e
       0.10824587 0.0977392 -0.18386091 0.15203074
000220 78 05 0b 3e 54 a5 36 3e 9f 8a 1b 3e 14 0f 09 be
       0.13576305 0.17836505 0.15189599 -0.13384658
000230 84 50 3e 3e fa 1a 32 3d c5 76 07 be ab 9c 0b be
       0.18585402 0.043482758 -0.132289 -0.13633983
000240 c5 cb a3 bc 78 b8 73 bd d2 eb 1d 3d 17 b3 b3 3c
       -0.019994626 -0.059502095 0.038554974 0.021935983
000250 b9 39 51 be de e8 c6 bd 90 7b 2a 3e 86 2a 12 be
       -0.20432176 -0.09712385 0.16648698 -0.14274034
000260 2b 0c ea 3d ab 2f d8 bd a4 58 a8 bd 9c 15 c0 bd
       0.11428102 -0.10555967 -0.08220032 -0.09379122
000270 c4 6e 46 be 0a d9 1a be 1e 8c a9 bd c8 79 17 bd
       -0.19378191 -0.15121856 -0.08278678 -0.036981374
000280 b9 9f 40 be f0 91 a8 3d 94 6c 58 be 2d a2 b7 bd
       -0.1881093 0.0823096 -0.2113517 -0.089664795
000290 f4 88 f4 3d c0 d8 2e be 06 7d 1c 3e 43 d4 07 3e
       0.11940184 -0.17074871 0.15282068 0.13264565
0002a0 36 46 6a 3c 12 88 c7 bd 6f b1 57 bd ab ef 37 3e
       0.014298966 -0.0974275 -0.05265945 0.1796252
0002b0 61 52 ac bd 0b cc 3a bd 27 c2 e2 bd ea 5b ee 3b
       -0.0841415 -0.045604747 -0.11072188 0.0072741406
0002c0 9b db e9 bd a9 a9 4d be 94 00 ad bd 97 e4 f3 bd
       -0.114188395 -0.20084251 -0.08447376 -0.119088344
0002d0 18 4e d8 3d 2d 0d f8 bd 75 4a 12 3d 8f 9c 3f 3e
       0.1056177 -0.12111888 0.03571554 0.18712066
0002e0 40 b7 14 be 7f 72 02 be 46 1e af bd e9 c6 9a 3d
       -0.1452303 -0.1273899 -0.08550696 0.0755747
0002f0 63 d0 c1 3d f8 ba 45 bd 9d 67 d9 bd a5 2a f4 b9
       0.09463575 -0.04827401 -0.10615466 -0.0004657108
000300 2a 12 0d 3e 05 65 48 be 99 e7 dd 3d c0 7c 57 be
       0.1377646 -0.19569786 0.10835189 -0.21043682
000310 95 fe 50 be 0c 56 51 be f9 16 22 be 85 70 ef 3d
       -0.20409615 -0.2044298 -0.15829076 0.11691383
000320 26 aa af bb b6 e6 b8 bd 39 da 8c bd 5e 2e 21 be
       -0.0053608594 -0.090283796 -0.0687756 -0.15740344
000330 f1 f8 30 3e 8f 84 96 bc a4 8f 39 3c 09 d2 55 be
       0.17282464 -0.018373756 0.0113257505 -0.20880903
000340 31 89 31 3d 61 37 9b 3d 9a 67 de bd 4c 46 58 3e
       0.043343727 0.07578922 -0.10859604 0.21120566
000350 61 c0 42 be cf 46 bd 3b 59 88 5f 3e 1d 3b 82 bd
       -0.19018699 0.0057762633 0.21829356 -0.06358931
000360 58 19 6d 3b 2f fa 41 3e cd df 41 bc 1e 4d 86 bc
       0.0036178436 0.18943094 -0.011833143 -0.016394194
000370 ac 04 c5 3c 7f ab 8e 3d 68 12 f3 bd 38 0c dd bd
       0.02405008 0.06966304 -0.11868745 -0.10793346
000380 36 45 20 be a2 37 35 3e 7c a6 30 3e 3e 3c 40 3e
       -0.15651402 0.17697003 0.17251009 0.1877298
000390 c9 9a 17 be f7 5c 30 be b6 54 4a 3d 33 74 c9 bd
       -0.1480514 -0.17222963 0.049397193 -0.09836616
0003a0 49 b3 f3 bd 30 9b 4e 3e ea 15 41 3d ec 67 0c 3e
       -0.1189943 0.20176387 0.04714004 0.13711518
0003b0 5a b5 4e 3e cd 61 49 bd a7 bb c9 3c d8 9a e0 bc
       0.20186368 -0.049165536 0.024625612 -0.027417585
0003c0 41 d1 fc 3d 81 43 a2 bd 1b a8 d2 bd 4a dd 4b 3e
       0.123445995 -0.079230316 -0.1028597 0.19908634
0003d0 85 d6 cc 3d 35 5c 70 3d f8 e1 bf 3d 25 23 e4 bd
       0.10001854 0.058681685 0.09369272 -0.11139516
0003e0 e3 bd 4d 3e 48 90 5b 3e 30 62 04 3e 6b cd 87 bd
       0.20091967 0.21441758 0.1292808 -0.06630977
0003f0 a9 f8 a2 bd f5 76 2f 3b ae 92 54 bb 43 3a 2a 3e
       -0.079575844 0.0026773785 -0.003243606 0.16623788
