server/policies/checkpoints/policy_2_470/model.pt (torch, 338258 bytes, 11 tensors)

actor.fc1.weight f4 [256, 21]
00000000: cde9 05be c6dd 983c 492c 1dbe 1634 443e
00000010: 9885 51be faa4 023e 8f6e 0b3e 659c e3bd
00000020: 408e 35bd 8288 bbbd 2d55 983d 5c5e e1bc
00000030: 5b41 a1bd b44f 473e 5528 4c3e a4df 10be
00000040: 8684 58be d4c8 e53d c46d b73b 40e6 48bd
00000050: 1d08 a83d 1722 5d3d fccb 463e a406 edbd
00000060: 39a8 1a3e 638b 193e d9fd 4abe b1b3 8fbd
00000070: 90fe 493e a58c bfbd a942 43be adf7 e2bd
00000080: ca7d 8a3c 4134 4ebe 0073 3abe 49bd 41be
00000090: c5d9 1f3e 5141 313e 731f 33bc 21d7 6fbd
000000a0: 5fdd db3d e150 833c 9343 4cbe 823e 0a3e
000000b0: 0e04 f43d c934 183d f6e8 3abe ce71 7d3c
000000c0: fae9 05be bb44 023d 7274 0e3e a926 9cbd
000000d0: da0a 6bbd 0030 17be 83f2 093e 65ef 4d3e
000000e0: 9c88 17be cdd6 b63d a11b a9bd 5208 1cbe
000000f0: 9a24 08be 2458 1c3e 5004 a63d 1607 0b3e
00000100: fda5 5d3e 5860 0f3e 3c3b 883d 4b80 493d
00000110: 5139 813d 6b20 4b3e 7b79 c33c 90a6 3bbe
00000120: b4c4 e43c 44c8 223e 00cc aeb9 9905 ea3d
00000130: 163a c4bd 0b26 93bd d8f8 223e d12f 43be
00000140: 522e 47bd 9019 1fbe e818 1cbe 003a 80bd
00000150: ec51 a6bc 7c2a fcbd 5c86 063e 4ba6 16be
00000160: d414 e9bd 5707 0c3e ab97 bdbd e3ee 0a3e
00000170: c14c 493d 3415 2f3e 00ae 06be 48d6 533e
00000180: ec04 4f3e b999 5ebe 8075 4c3e 7737 153e
00000190: 90f9 633b 4147 223e 49ca 10bd fe35 063e
000001a0: ece6 123e 23a1 ec3d 246e b73a 44c9 6d3b
000001b0: b5d8 b73d 61c0 1fbd 9fa2 ad3d a3f3 613d
000001c0: f170 bc3d 38e5 0f3e abd7 b9bd 47ae 5abc
000001d0: 7464 ba3d 538e 223c 7a8b 91bb 7435 d23c
000001e0: f5e1 8cbd c18f 093d a2c6 0a3c 66a0 5e3d
000001f0: 35ed ee3d 9739 a43d 313f d63d 9105 04bd
00000200: a445 5dbd 823c d73d cf01 b4bd 205f d73d
00000210: c69d 3ebd 741f 503e a8ab bc39 d13a 4cbd
00000220: 678c 333d 46f6 1ebe 235b 54bd 6fef 20bc
00000230: 318d 56be 0e88 d83c fe22 d03b 96d7 3dbe
00000240: 8ac9 203d dffa 343d 9f9f 383d 3994 0abe
00000250: 0119 25be bacd e2bd ff70 a1bd 90f6 97bd
00000260: 84c5 67bc 58b7 5138 2153 0fbe 6ebc 333e
00000270: 8119 4cbe 58c4 1fbd 506a 3cbd 9439 d1bd
00000280: ca5d 263e 9f2f 233d ad7f 393e f1a9 4e3e
00000290: f809 a3bd 9bf1 433e a8cc 233e 2bd9 483e
000002a0: 5f5b aabd 89ab b7bd 133d ea3d f236 0dbe
000002b0: 0dd6 a33d 3750 dabd 4aa6 3abe 0245 17bd
000002c0: d552 fbbd 3e80 58be 234c d23c 695f 5ebe
000002d0: e859 333d a036 0e3e cd50 093e e5f8 5d3e
000002e0: d33f 1dbe bb24 173d aba7 51bd e8f2 31bd
000002f0: e149 123e eed6 3bbe 0f55 5b3e e469 c2bd
00000300: b2c9 6c3d f959 433d 80d4 19be 9114 483e
00000310: 6dbd 07be 79c5 933d d07c 1dbe e156 ee3d
00000320: 392c 1cbe b826 1bb9 6eda 2cbe d064 323c
00000330: 8c94 c2bc 1d7c be3d ae0a 293e 1058 3d3e
00000340: 57c4 f7bb 64fc ca3d 4495 f0bd 0d78 3b3e
00000350: be7d e0bd 7a1c d43c 9150 903c 9d25 a43d
00000360: af51 26be 7368 0b3e 9dbd 433e 8529 5d3e
00000370: 11c0 12bc fcf1 d63d 8915 793d dc44 0139
00000380: b80d 3dbc 4fed 9abd 5024 3a3e 409c 06be
00000390: 3b1b e43d 3faa 223e 1f23 24be 66b1 41be
000003a0: 8c35 3d3e 0307 00bd 3f6f 233e 9598 763c
000003b0: d80f 033e 6e74 eb3c f3cc e5bc a90b 5ebe
000003c0: 252f c23d e275 3e3d adb9 0f3d 3149 d43c
000003d0: 7046 543e bed6 e23d 5359 40be 6116 8f3b
000003e0: 8714 3f3e 6140 08be 341d 4bbe 9fb7 6a3d
000003f0: 9269 843d 41b7 45be b097 2dbe ae69 21bb
-0.13077469 0.018660437 -0.15348925 0.19160494 -0.20461118 0.12758246 0.13616394 -0.11113814
-0.044325113 -0.09156896 0.07438121 -0.027510814 -0.07873794 0.19463998 0.1993726 -0.14147812
-0.21144304 0.112199455 0.005597802 -0.04904771 0.082046725 0.05398759 0.19413751 -0.11573532
0.15103234 0.14994578 -0.19823398 -0.07016695 0.19726014 -0.09352998 -0.19068398 -0.11082397
0.016905684 -0.20137121 -0.18207932 -0.18919863 0.15610416 0.17310072 -0.010932791 -0.058554772
0.107355826 0.016029777 -0.19947653 0.13500407 0.11914836 0.037159715 -0.1825293 0.015469028
-0.13077536 0.031803828 0.13911608 -0.07624561 -0.057383396 -0.14764404 0.13471417 0.20110853
-0.14798206 0.08927689 -0.08257223 -0.15237549 -0.13295212 0.15267998 0.08106291 0.13576922
0.21645351 0.14001596 0.06651923 0.049194615 0.0630976 0.19836585 0.023861637 -0.18325257
0.027925827 0.15896708 -0.00033339858 0.11426849 -0.095813915 -0.071849905 0.15915239 -0.1906121
-0.04862816 -0.15537095 -0.15243876 -0.062610626 -0.020302735 -0.12312791 0.13137192 -0.14711873
-0.11380926 0.13674675 -0.09257444 0.1356769 0.049145464 0.17097932 -0.13152313 0.2068721
0.20216721 -0.21738328 0.19966698 0.1457194 0.0034786202 0.15847494 -0.035349164 0.13106534
0.14345902 0.11554172 0.0013994616 0.0036283294 0.089768805 -0.039001826 0.08478283 0.05516399
0.09201229 0.14052284 -0.090743385 -0.013347215 0.09101191 0.009921628 -0.0044416757 0.025660254
-0.068790354 0.03358436 0.008470209 0.054352187 0.116663374 0.08018797 0.104612716 -0.03223187
-0.054021493 0.10509588 -0.087894075 0.105161905 -0.046537183 0.20324498 0.00035986048 -0.04986078
0.04383507 -0.15523633 -0.051844727 -0.00982271 -0.20952298 0.026432063 0.0063518276 -0.18539271
0.039254703 0.04418456 0.0450741 -0.13533105 -0.1612282 -0.110743955 -0.078828804 -0.07420075
-0.0141462125 5.0000235e-05 -0.13996555 0.17552349 -0.19931604 -0.039005607 -0.045999825 -0.1021606
0.16246715 0.039840337 0.1811511 0.20182015 -0.07960886 0.19135134 0.15996039 0.19614093
-0.08318209 -0.089682646 0.1143743 -0.13790491 0.07999811 -0.10659831 -0.18227497 -0.036931045
-0.12271658 -0.2114267 0.02567107 -0.21716084 0.043786913 0.13888025 0.1340973 0.21676977
-0.15356378 0.036900263 -0.05118529 -0.043444544 0.14285995 -0.18343708 0.21419166 -0.09492853
0.05780954 0.047693226 -0.15022469 0.19539095 -0.13255854 0.07215399 -0.15379643 0.116376646
-0.15251245 -0.00014796376 -0.168802 0.010888293 -0.023752473 0.093010165 0.1650798 0.18490624
-0.0075612473 0.09911421 -0.1174722 0.18307514 -0.109614834 0.025892485 0.017616542 0.08014987
-0.16242097 0.13614063 0.191153 0.2159787 -0.008956925 0.104953736 0.060811553 0.00012328051
-0.011538915 -0.07564794 0.18177915 -0.13145542 0.11138006 0.15885256 -0.16029023 -0.18915328
0.18477458 -0.031256687 0.15960406 0.015051027 0.12799013 0.028742041 -0.028051829 -0.21684135
0.09481648 0.04649914 0.035089184 0.025913807 0.20729995 0.11076115 -0.18784074 0.0043666814
0.18660174 -0.13305809 -0.19835359 0.05730402 0.064654484 -0.19308187 -0.16952395 -0.002462964

actor.fc1.bias f4 [256]
00000000: 221e e63d 17d0 18be c985 11be e856 d43d
00000010: 6fc6 ccbd 975e 853d 5789 583e 5ed4 9f3d
00000020: dddc 08be e4fd 9b3d 77d9 3cbe f978 18be
00000030: c9fa 1a3e 12de 39be b6dd 0f3d ec3d c73d
00000040: 0c2a 1f3d b049 ac3d 789f 2cbe 82ca 30be
00000050: 226f 9ebd d9e2 8b3d afd1 2b3d 1318 2dbd
00000060: 07fe c3bd 2b62 bfbc bd35 91bd 55ff 953d
00000070: 1f4f e73d 0295 2fbe 9f79 0c3e c4ae 1abd
00000080: cb29 233e 34af 273e 8ed1 603d 7b4b 3d3e
00000090: 1a0a 533d e113 d03c a637 85bd 8736 243d
000000a0: fa09 363d 7b0d fa3d dd4c a9bd 437f 5dbe
000000b0: 39ce 31bd 3c87 14be d1a7 5a3e 1e84 0ebe
000000c0: a4b9 023e 5f11 bf3d 5ec4 6dbc a234 d0bd
000000d0: fe67 10bd 9f6a 923b d3aa 3d3e f996 513c
000000e0: c3ba 9ebd db34 a7bd 7376 75bd 0e3b 333d
000000f0: b157 48bd fe27 42bd 84ca 353d ceec c0bd
00000100: 5730 5c3e d97b 49be 7a9a 893c f18a 233e
00000110: 4ce5 f3bd 5345 55bd 9093 58be 1cc9 9fbd
00000120: 5434 3abe e6f3 6dbd 18aa 323e 9c4e 293e
00000130: de5a 1d3e 76a9 2cbe 309b 1ebe a38b 1e3e
00000140: cb21 e53d 6e4e fa3c 39e8 e43d 42f8 923d
00000150: a118 17bd 62f1 cfbd 5660 55be 5f24 983c
00000160: cec7 e0bd 8abf 123e e41c 883d be38 2fbd
00000170: b957 bfbd 3e5b 14be fc8e 03be 8d49 5abe
00000180: 8a74 38be eb8a 213e dfd2 2d3d b9c0 1f3e
00000190: 9359 ea3d 25cf f2bc 515a adbd 4f16 5abd
000001a0: 7d11 013e cf2a 863d 32ce 5a3e 29cb edbd
000001b0: 6f63 2f3d c40d 47be 7384 48be 10a9 513e
000001c0: cb51 00be 34d6 2f3e 3b49 373d cae3 b13c
000001d0: 9c4a 2bbe b945 50be 84f8 c9bd 491b 0f3e
000001e0: 2482 adbd 5bcd 9cbd 23ef 4f3e 4ce3 6b3d
000001f0: 843a 98bd b203 31bd 3e10 5e3e f1e6 2dbc
00000200: 98a4 cd3d c6b3 153e 48bc 33be 59b6 3dbe
00000210: 7167 a1bd 8991 ecbc edba b3bd b74f 503e
00000220: 7107 4cbe e2a1 f7bd 6b43 e8bd 0638 cdbd
00000230: 1c7a eeba ed51 83bd 54b0 57be 86c4 9dbd
00000240: edd7 233e 732e 3ebe 570d d0bd 2584 4cbd
00000250: 5939 ebbd b03b 353e acc8 afbb 39f6 12be
00000260: daa5 f3bc 3674 81bd e6d9 173e 7234 eb3d
00000270: f635 053e 6de2 1a3e c7c3 0bbe 64c8 b9bb
00000280: ac0a 83bd d65b be3d 164f 3ebe d316 36bd
00000290: bdfc c6bd 721c 53bd 686b 193e 3131 58be
000002a0: d645 fa3d 1ea7 3cbe bbc2 523e 2a14 413c
000002b0: 79e9 f1bd 7fdf 59be db6c 4fbe 0f9c 51bc
000002c0: 1325 1ebd f416 e2bd 13c8 0abd e655 4dbe
000002d0: 7bbe e1bb 3767 9e3d 4cd4 483c bb46 1e3e
000002e0: e0b2 80bd 8ffc e3bd 84c8 053e 730e 2ebc
000002f0: 5401 9e3b 5995 30be 5afb 00be d84d 5cbc
00000300: fd83 45be 735e 653d 0968 25bd 6588 aebd
00000310: 609f 5e3e f99a 47bd 989f ca3d 9782 f7bd
00000320: 1ee9 9ebd 5bf9 1b3d a06d 77bd ea60 303c
00000330: 8230 be3d 4f93 8b3d 53b6 d3bd 8ce1 81bd
00000340: 93f6 a9bd e441 a6bd 3f83 c63d fc25 c03d
00000350: e680 5d3e 68af 3cbe c84b d03d 1980 4b3e
00000360: 7c81 153e 74d5 2f3e e7ba c3bd f369 b33d
00000370: cacb f5bd 0822 40be 63f4 cbbc 0168 4c3d
00000380: 65b3 3fbe e7d1 84bc e6aa 52be 7bf2 f5bd
00000390: 28d8 27be 27a8 d8bd ddf8 e73d 5642 42be
000003a0: 3a3c 3cbd f3c7 4f3c 86aa 25be c7af f8bc
000003b0: a40b e03d d8ac f2bd 77fe be3d b692 adbd
000003c0: 12a6 e3bc 0b69 ff3d fd14 4bbe b14b 38bd
000003d0: f779 d2bd 6d2c 853d 1127 56be 8960 be3d
000003e0: db9e 3a3e 889d e538 9ce5 423e 044d 46be
000003f0: 167e 4ebe 1669 9bbd ec97 a53d 0841 df3c
0.11236216 -0.1492313 -0.14211191 0.103681386 -0.09998786 0.06512182 0.21146141 0.07804178
-0.13365503 0.07616785 -0.18442331 -0.14889897 0.1513473 -0.1815112 0.03512355 0.097286075
0.03885846 0.08412492 -0.16857708 -0.1726475 -0.07736041 0.06830377 0.041948017 -0.042259287
-0.09569936 -0.02336224 -0.07090328 0.07324091 0.11294388 -0.17146686 0.1371827 -0.037764326
0.15933912 0.16375428 0.054887347 0.18485825 0.051523305 0.025400104 -0.06504755 0.040091064
0.04444311 0.122096024 -0.08266614 -0.21630578 -0.04340956 -0.14504713 0.2135308 -0.13917586
0.12766129 0.09329485 -0.01451215 -0.10166289 -0.035255425 0.0044682766 0.18522196 0.012792342
-0.07750466 -0.08164378 -0.059927415 0.04375749 -0.048911754 -0.04740142 0.044382587 -0.09420167
0.21502815 -0.1967615 0.016797293 0.1597097 -0.11908969 -0.052068066 -0.2115004 -0.078020304
-0.18184024 -0.058093928 0.17447698 0.16533893 0.15366694 -0.16861519 -0.15488887 0.15482955
0.11188086 0.030554976 0.111771055 0.07176258 -0.036888722 -0.10153462 -0.2083753 0.01857203
-0.1097561 0.14330879 0.066461354 -0.042778723 -0.09342904 -0.14487931 -0.12847513 -0.2131712
-0.18013206 0.15775649 0.04243743 0.15600862 0.11442866 -0.02963979 -0.08464492 -0.05324393
0.12604327 0.06551134 0.2136772 -0.11611015 0.042819437 -0.19438845 -0.19581775 0.20474648
-0.12531202 0.17171556 0.044747572 0.021715064 -0.1672768 -0.20339097 -0.09861854 0.13975252
-0.08472088 -0.07656356 0.20306067 0.057589814 -0.07433036 -0.043216415 0.21685883 -0.010614143
0.100411594 0.1461936 -0.17552292 -0.18526591 -0.07881058 -0.02887799 -0.08775888 0.20342909
-0.19924714 -0.120914236 -0.11340984 -0.10020451 -0.001819435 -0.064121105 -0.21063358 -0.077034995
0.16000338 -0.18572406 -0.101587944 -0.04993071 -0.114855476 0.1769855 -0.005364498 -0.14351739
-0.02974217 -0.063209936 0.14829215 0.114846125 0.13008866 0.15125437 -0.13648902 -0.0056696404
-0.0639852 0.0929486 -0.18584856 -0.04445536 -0.09716175 -0.0515408 0.14982378 -0.21112515
0.122203514 -0.18423125 0.20582096 0.011784593 -0.118121095 -0.21276663 -0.20256369 -0.012793555
-0.038609575 -0.11039534 -0.033882212 -0.20052299 -0.006889162 0.077345304 0.012257647 0.15456669
-0.06284118 -0.11132156 0.13064772 -0.010623562 0.0048219357 -0.17244472 -0.12595883 -0.013446294
-0.19288631 0.055998277 -0.04038242 -0.08522109 0.21740484 -0.048731778 0.09893721 -0.12085455
-0.07759307 0.0380796 -0.06040728 0.010765294 0.09286596 0.06815206 -0.1033751 -0.06341848
-0.082989834 -0.081180364 0.09693002 0.09382245 0.21631202 -0.18426287 0.10170704 0.19873084
0.14600176 0.1717127 -0.09557133 0.087604426 -0.1200176 -0.18762982 -0.024896806 0.049903873
-0.18720777 -0.01621337 -0.20573005 -0.1200914 -0.16391051 -0.105789475 0.11326764 -0.18970618
-0.045955874 0.012681949 -0.16178331 -0.030357255 0.1093972 -0.118493736 0.09325879 -0.084752485
-0.02778915 0.12471207 -0.19832225 -0.04499406 -0.10277169 0.06502614 -0.2091334 0.09295756
0.18224661 0.000109489134 0.19032902 -0.19365317 -0.20165285 -0.07588403 0.080856174 0.027252689

actor.fc2.weight f4 [128, 256]
00000000: f16b 1a3d 5e1f 623d 9430 ae3c 5bdb b6bc
00000010: 0460 35b9 e802 613d 9c6a 02bd a9ce 28bd
00000020: 80bf 64bc 7478 513d 4567 353d fdc9 e93c
00000030: 5295 a0bc 1d9b 123d 40f0 74ba ec8e e93b
00000040: 7a54 1b3d b468 553c 8065 7abd 1c8e 893b
00000050: a382 f4bc 4f93 02bd 3767 723d ea96 803d
00000060: 0788 1f3a a033 5dbd c732 633c bddf aabc
00000070: de78 383d bf20 55bd 3e98 36bd 3a69 f43c
00000080: 7808 c03c 2871 0b3c 32dc d7bc 2939 edbb
00000090: 321e 593d abb8 03bd 1db1 273d 110c 243d
000000a0: 7f6a 52bd 016a d83c 6b22 1e3d 3cf8 d3bc
000000b0: 65fd 633c 1a9e b53c 5f63 a0bc 66a8 7e3d
000000c0: 74ce 21bd dfd3 083d 9824 b13b 3f7a f9bc
000000d0: 6b19 163c 8875 6d3d f7a3 5a3c 78a9 d5bc
000000e0: 8662 533d ffde 74bc 1bd9 d83c 22d1 f4bc
000000f0: ee77 1cbd bc75 9ebc 80eb 3cbd 735c 5a3c
00000100: e49c ea3b e1d3 51bd e79c d43b b3f6 f0bb
00000110: 2f00 2c3d 23be a3bc 115b 1abd ca12 0bbd
00000120: da8b 64bd bc15 f4bc 20c9 5fbc 535d 143d
00000130: ca90 7d3d 27a9 6dbd 35da 6b3d 64aa 203d
00000140: ff5c 44bd 08cc adbb f3ce 6d3d 48cc aabc
00000150: 46d0 1b3d 8ab2 d3bb 12cf 9d3c 0bfd bb3c
00000160: 87f3 e8bc 8cdd 153d 8f05 c03b 1f96 513c
00000170: 8828 28bd f21d 59bd 6352 7f3d 0ed5 083d
00000180: a01e 3d3c e9ff 123c 51cf 7abd b639 e93c
00000190: 53db 06bd 04ed 323b 80ef 27bd 2002 edbc
000001a0: 0e3d f0bc 9fc1 553c ab45 7a3d 9728 603d
000001b0: 4817 2f3d 40bb 2f3c cad5 063d 0c6d 03bd
000001c0: cbc0 2b3d 5a5e 713d e576 d03c 5b9d 513d
000001d0: a778 6bbd 98d8 2ebc 0c26 48bd 9aa3 313d
000001e0: e450 633d 50b8 d13c 1ff3 413d ea35 4bbd
000001f0: 15e7 fe3c df52 55bd 1b06 193d b045 7f3d
00000200: f341 723c 5248 0c3b 3a8d 87bc 59c2 60bc
00000210: 6067 7e3d f679 a13c d821 dd3c 26c6 703d
00000220: a982 b43c 4689 ac3c 41ce f13c fb5a 123c
00000230: 43a9 a33b 933c 2fbd 8641 48bd f74b d9bb
00000240: ae1c 563d a7e1 013d e4d8 17bd 224c 3fbc
00000250: ae8c e4bc 2ef5 9a3c ecc2 d0bc 7fb9 37bd
00000260: d2da 5f3d a759 d4bc dca2 fe3c a330 463d
00000270: 2aa5 0bbd 5a1f 5c3c bbf9 16bd dda4 4c3d
00000280: 132d 58bd 30e5 a8b8 6cd6 5d3d 613f 533d
00000290: 4cd7 4b39 8923 963c e41b 623d 5ffa 16bd
000002a0: 2b2d de3c aaf2 f83c 0a54 dfba 94ba 0fbd
000002b0: 4ece babb c882 2a3d 6061 c13a c9e2 403c
000002c0: d0e4 f8bc e48f 553c c447 80bc e6dd 843c
000002d0: e95b d6bc e2fe 6d3d 3a20 78bd 508d 2bbd
000002e0: 2147 383d 3331 0ebd f5e4 69bd ba58 3f3b
000002f0: 353f 143d a760 123d 377d 56bc 00e2 a53b
00000300: 0370 26bd 7ecc 813d 829a bbbb 39a1 563d
00000310: 155c 53bd 2ee1 28bd e9ce 04bd caab 773c
00000320: 16a3 1ebd 5f3e 0abd f91a 5ebd 24f9 363d
00000330: 8e90 0fba 14f3 14bd ca3e 5cbb 74d0 7e3c
00000340: b0b5 d9bc b0f0 553b bd88 f6bc 20b5 8bb7
00000350: 0f0c 22bd 8407 b9bb 9ffa 133c bbc8 d33b
00000360: ccc8 593d 063a 55bd 11b4 afbc 3675 35bd
00000370: 7191 713d 3ad8 0a3c 276c 6e3d bb98 9e3b
00000380: 9ee5 acbc 631b 4cbd 2b80 ca3c 225e 213d
00000390: dbc0 f23b 8f34 263d 91ab b4bc 8c05 eabc
000003a0: 10a9 23bb 9a7b 73bd e052 65bd 7214 803d
000003b0: 2b1c bdbc 4c3c dcbc e55a 803d cdf5 31bd
000003c0: f08a 613d d0a7 17bd f743 393d 07a1 3a3c
000003d0: 7ef0 c4bc db0e 17bd 9271 033d f5d3 3c3d
000003e0: 5020 26bd ac84 2e3d faa4 973c dba5 28bd
000003f0: e58b 6abd 1281 3dbd e978 89bc a280 193d
0.037700597 0.055205695 0.021263398 -0.022321394 -0.00017297274 0.054934412 -0.031839952 -0.04121271
-0.013961673 0.051140264 0.04428794 0.028538698 -0.019602451 0.03579246 -0.00093436614 0.0071276333
0.03792236 0.013025451 -0.061131954 0.004197849 -0.029847449 -0.031878766 0.059180465 0.062787846
0.00060856383 -0.05400431 0.013867087 -0.02085864 0.045037143 -0.052033182 -0.044578783 0.029835332
0.023441538 0.008510865 -0.026350114 -0.00723948 0.053007312 -0.032158535 0.040940393 0.04005057
-0.051371094 0.026417734 0.038607042 -0.025875203 0.013915394 0.022170115 -0.019578634 0.062172316
-0.03950353 0.03340518 0.0054059736 -0.0304538 0.009161334 0.057973415 0.013344756 -0.026081786
0.05160763 -0.014945745 0.026470711 -0.029884879 -0.03820031 -0.01934325 -0.046123028 0.013327706
0.007159816 -0.051227454 0.006488431 -0.0073536276 0.041992363 -0.019988125 -0.037684504 -0.033953466
-0.055797435 -0.02979552 -0.013658792 0.036221813 0.06190566 -0.058022644 0.057581145 0.039224997
-0.04794025 -0.0053038634 0.05805869 -0.020849362 0.038040422 -0.0064604925 0.019263778 0.022947809
-0.028436435 0.036588237 0.0058600376 0.012792139 -0.04105428 -0.053007074 0.06233443 0.03340631
0.011542946 0.008972147 -0.06123287 0.028469902 -0.032924008 0.0027301917 -0.04099989 -0.028931677
-0.029325988 0.013046651 0.061101597 0.05472621 0.042746812 0.010725796 0.03291873 -0.032086417
0.04193191 0.05892787 0.025447318 0.051175456 -0.05748811 -0.010671757 -0.04886441 0.043368913
0.055497065 0.025600582 0.047351 -0.049611963 0.031116048 -0.052080985 0.03735934 0.06232232
0.014786231 0.002140541 -0.016546834 -0.013718211 0.062110305 0.019711476 0.026993677 0.05878272
0.02203496 0.02106155 0.029517295 0.008932824 0.004994543 -0.042782377 -0.048890613 -0.00663137
0.052273445 0.03170934 -0.037072077 -0.011675866 -0.027899113 0.018915739 -0.025483571 -0.044854637
0.054652043 -0.025921656 0.031083517 0.048386227 -0.03409306 0.013435209 -0.036859255 0.049961913
-0.05277736 -8.053554e-05 0.054159567 0.051574115 0.00019439793 0.018327491 0.05520238 -0.036859866
0.027121147 0.030389149 -0.0017038595 -0.035090044 -0.005700863 0.04162863 0.0014753751 0.01177282
-0.030382544 0.0130347945 -0.01565922 0.01621909 -0.026166873 0.058104403 -0.06057761 -0.041882813
0.04498971 -0.03471489 -0.057103116 0.0029197172 0.03619309 0.035736706 -0.013091377 0.0050623417
-0.040634166 0.06337832 -0.005725206 0.052399848 -0.05160149 -0.041230373 -0.032423887 0.015116641
-0.03872975 -0.033750888 -0.054224942 0.044671193 -0.00054765574 -0.03636463 -0.003360676 0.015552629
-0.026575893 0.0032644682 -0.030094499 -1.6654434e-05 -0.03956228 -0.005646648 0.009031921 0.006463138
0.05317001 -0.05205729 -0.021448167 -0.044301234 0.058976594 0.008474404 0.05820861 0.0048399842
-0.021105584 -0.049830806 0.024719318 0.039396413 0.007408244 0.040577468 -0.022054465 -0.028567098
-0.0024972595 -0.059444048 -0.05598724 0.062539 -0.02308472 -0.02688422 0.06267337 -0.043447305
0.05506414 -0.037025273 0.045230832 0.011390931 -0.024040457 -0.0368794 0.03209073 0.046100575
-0.04055816 0.042606995 0.018511284 -0.041173797 -0.05726232 -0.04626567 -0.016781287 0.03747619

actor.fc2.bias f4 [128]
00000000: 6651 b03c 6de1 073d e8aa 0fbd 65b2 de3b
00000010: 377c 203d a631 903c 902b b6bc 629b 50bd
00000020: 3dfa be3b 489a 6abd 7cd2 11bd 1b7c 3d3c
00000030: 9af2 1dbd aaf8 613d 62bf 95bc b5c0 353d
00000040: 3883 4bbd 2ff7 1ebd f314 143d a994 f5bb
00000050: b58d 58bd 24f3 2ebd a5da 5abd d63b cdbb
00000060: 9aa2 f4bc 7d3c f8bc caa0 68bd ec8b 433d
00000070: 1709 0f3d 4323 623d 2afc 36bc f2d1 bc3b
00000080: 196b c1bc 5b6d 73bd 33a4 773d 7b84 743d
00000090: d343 e3ba 21c5 513d 1dc4 1fba 498e 39bd
000000a0: ee82 693d c4c7 01bd add8 283c 3c21 9dbb
000000b0: bff9 7f3c e42a 143d c813 0abd 2322 c63c
000000c0: dd3d da3c db65 75bd f4e5 a7bc 9049 0bbd
000000d0: 1a8e 28bd 7eb7 50bc d728 163d c8aa 773c
000000e0: fc1f 633b c65f b7bb 692e efbb 75c3 47bd
000000f0: 4390 45bd d9e7 14bd 6233 653b 3605 1b3c
00000100: e116 b73c 733c 13bd df09 193d adf4 63bd
00000110: 6963 a93b 19b3 3c3c 82b4 50bd 3242 a8bc
00000120: 61fa 73bd be39 d9bb 190b dabc 8bb0 753c
00000130: d94e 703d f634 63bd 0a38 f73c b6d1 443d
00000140: c39d 0d3d 005c 563b 7d25 70bc 0835 6bbd
00000150: 96cd 54bd 5190 aabc 91b6 79bd 8677 0f3d
00000160: dc3e 563d 5449 693d 86c5 5f3d c2a1 31bd
00000170: f173 7cbc 50ab 09bd 9737 403d 3079 a73c
00000180: af87 55bd 4075 dd38 25d9 77bd ceb4 9c3c
00000190: 30da 71bd 5a6a 423d c5b2 43bd ed44 723c
000001a0: f6d1 40bd c4ba 36bd 3a5a 323d 61f4 e0bc
000001b0: 6be9 55bd e804 3fbd 2dd4 d1bb 29e9 fbbc
000001c0: e8d0 143d ae84 32bd b252 893c c8e1 193d
000001d0: 0968 34bc d48f ec3c 390a c5bc 1589 723d
000001e0: 1afc 2e3d 2406 65bd f8ab dabb 2206 36bd
000001f0: 2e31 7abc bb47 a2bc 0569 16bd a73e 623d
0.021523189 0.033173967 -0.0350751 0.0067961686 0.03918096 0.0176018 -0.02223757 -0.050929435
0.0058281706 -0.05727604 -0.035601124 0.011565234 -0.03856144 0.055168785 -0.018279735 0.044373233
-0.049685687 -0.03880995 0.03615279 -0.0074945283 -0.052869517 -0.042712346 -0.053431172 -0.0062632365
-0.02986269 -0.03030228 -0.056793965 0.04774086 0.034920778 0.05520941 -0.011168519 0.005762332
-0.023610638 -0.05943046 0.060459327 0.059696656 -0.0017338939 0.051213387 -0.0006094592 -0.04530171
0.05700963 -0.031684652 0.010305566 -0.0047952216 0.015623509 0.036173716 -0.03371027 0.0241862
0.026640827 -0.05991159 -0.020495392 -0.0340057 -0.041151144 -0.01273906 0.03666004 0.015116401
0.0034656515 -0.005596134 -0.0072992337 -0.048770387 -0.04823328 -0.03635392 0.0034973253 0.009461692
0.022349777 -0.03594632 0.03736293 -0.055653263 0.0051693213 0.01151731 -0.050953396 -0.020539377
-0.05956495 -0.006629198 -0.02661662 0.014995704 0.058668945 -0.05547043 0.030178089 0.04805156
0.03457428 0.0032708645 -0.014657375 -0.05742362 -0.051953875 -0.020820769 -0.060965125 0.035026096
0.05230604 0.056954697 0.054631732 -0.043367155 -0.015408502 -0.033610642 0.046928015 0.020443529
-0.05213135 0.00010559941 -0.06050982 0.019129183 -0.05904597 0.047464706 -0.04777791 0.014786941
-0.047075234 -0.044611707 0.043543078 -0.027460279 -0.052224558 -0.04663554 -0.006403467 -0.030750828
0.03633204 -0.043583564 0.016763065 0.037568837 -0.011011132 0.028877176 -0.024052726 0.059212763
0.04272089 -0.05591406 -0.0066733323 -0.044439442 -0.015270514 -0.019809594 -0.03672125 0.05523553

actor.policy_head.weight f4 [50, 128]
00000000: 8859 0bbd 2e97 59bd 022c afbd 344e 8bbd
00000010: c9be 94bd e048 08bd f489 143d 20c5 6abd
00000020: d5ce 2dbc c512 9fbd 77d5 213c 617b 36bc
00000030: 6f59 28bd a946 a03c 14d6 803d 3e8e 22bd
00000040: 7b39 f33b 6f7e 763b 661a 4e3d ccff a03d
00000050: 29c8 a2bd dc98 a33d bcd3 9e3d f548 1dbc
00000060: 405a 4b3d 16b7 8ebd 4439 dfbc 0696 8a3d
00000070: 1896 793d 63c7 273c a249 e9bc d03f b43b
00000080: fbb5 8c3d 1b58 a3bd 00c5 7cbd 605f 84bc
00000090: 3d54 a53d edd7 7dbc f41b 3d3b 0859 76bd
000000a0: 2c0c 15bd 6221 703d 54a3 a93c b308 29bd
000000b0: 10b6 823c ea8f 4d3d abff fabc e7cd 063c
000000c0: bded 25bd c146 a73d dc4f 893c 62a2 c13c
000000d0: 1c14 293d a024 313d 9520 a03d d083 73bc
000000e0: 489e e1bb 566d 3d3d aaad 4cbd 1fec 853d
000000f0: 85ea c1bc 7a29 b2bd a6ca 99bd 335c 203c
00000100: 3d39 9dbd b909 633c 9309 81bd 0332 6dbc
00000110: c2d3 f9bc b314 44bd bbad 0cbd 33ba adbd
00000120: f95d 4c3d 370a f2bc e0b7 a0bd 1f2a ae3c
00000130: 5f12 eb3c 9df6 923d 6f0d b33b cad6 5fbc
00000140: 3d3f 973d 7368 833d 869c 963c 7da7 9e3d
00000150: 4fcb 1dbd 41c2 ea3c c12c b2bd 752c 523d
00000160: ffca 9c3c ce8b 813a efe8 1fbb a55e cebb
00000170: 9709 bc3c 8eb0 fbbc 86a7 6e3d 1ff2 693d
00000180: dd46 fb3c 107a a13d 3e1d afbb c120 273c
00000190: c4d3 1c3c e7d5 0dbd bdbb 033d e468 a2bd
000001a0: 57fb 963d 5e0b c7ba fb73 87bd 77da 8d3d
000001b0: ffa7 71bd 5482 3d3d 496f 2c3d a4a5 81bc
000001c0: 943d 5fbd a0e1 bd3c db5e 9dbd 0439 55ba
000001d0: af35 a63d 59ba 2abb 329f 303d b4da 893d
000001e0: 9cc6 de3c d468 03bd 74ee 5a3d 6969 08bd
000001f0: 98b2 29bd 20fc af3c 662b 8f3d 2204 e8ba
00000200: d64c c83c 2471 933c 2cfe a23c b37a 893c
00000210: d3ed a3bb ca53 74bd 0fd7 363d f7ff c9bc
00000220: edf8 a33d ea31 9cbc d75c 9bbd 91d8 9cbd
00000230: f8ef 0a3d e8ee 363d 7b12 39bc 5e28 97bc
00000240: 7eb3 ab3c a4e7 983d 90b0 9fbd 0fd9 a33d
00000250: 3636 513d c053 943d 7bfe 913d f16e 683c
00000260: 8258 a43c e321 9cbd 2ff3 8b3d 4e2a 5f3d
00000270: 2cb6 c4bc cd2d 59bb 2093 843d 63ee a0bd
00000280: 33d3 90ba c16e 813d 2095 43bd 0b12 09bd
00000290: 483e b93c e013 74bc a13a 733d c74e 64bd
000002a0: 128a ae3d 7464 e7bc e369 843c 214e be3c
000002b0: 2a0e 70bd 21a0 34bd 6bb2 d33b 3af3 1c3d
000002c0: 5091 673d 5871 563d 8d86 4c3d 4e54 12bd
000002d0: 45ec b43d 83b9 9ebd acf6 6d3c e2f5 153c
000002e0: 7846 17bc 4ff3 fd3c 1036 8a3b 0b26 9b3d
000002f0: e895 08bd 5d8c 983d 5d04 2abc 6aae b93c
00000300: a2d6 8f3d 838b 843a c47c 0c3d f1dc 593d
00000310: 3b5a e6bc d81c 85bd 94b2 d3bc d946 1f3c
00000320: 8bfd 993c d7cd a8bd a6e8 58bd ed9c 8c3d
00000330: 41f5 1c3c 3197 8ebd 4b93 11bd fc16 a43d
00000340: f619 173d 817c b93c ba4b 32bd 5a70 1bbc
00000350: abd9 aabc db4a 0dbd 8562 9cbc 8b71 13bd
00000360: a632 8ebd 7bdf 993d a506 813d a0a4 023d
00000370: f172 9e3d d4c0 90bd 8e81 09bd f72e 27bd
00000380: 3dd2 fabc 6931 883d 4d06 9e3d 4684 48bd
00000390: 4ebf 1abd 6c05 80bc df56 5b3d e71c acbd
000003a0: 1300 793d 439c 24bc 1a33 9fbd c4c0 38bc
000003b0: 1c3b 2337 f1db 623d 21d3 3ebd 9253 a9bc
000003c0: 646e 813d 4401 64bd 8587 393d 9276 25bd
000003d0: dcda 653d bad1 9cbc 0911 8abc 0740 0c3d
000003e0: 2105 4d3d ea2c ef3c 1e84 773d 043e b03d
000003f0: d1ca 443c d8fc 383d 326c 80bd c9b3 8e3c
-0.03402093 -0.05312269 -0.08553316 -0.068020254 -0.07262952 -0.033272624 0.036264375 -0.0573169
-0.010608395 -0.07767252 0.009877554 -0.011137814 -0.041100916 0.019564943 0.06290832 -0.039686434
0.0074226237 0.0037611981 0.050318144 0.078612894 -0.07948334 0.0798814 0.07755229 -0.009599914
0.049646616 -0.069685146 -0.027248986 0.06766896 0.060934156 0.010240409 -0.028477494 0.005500771
0.068706475 -0.07975789 -0.06171131 -0.01615876 0.08072708 -0.015493375 0.0028855773 -0.0601435
-0.03638856 0.058625586 0.020707764 -0.04126806 0.015955955 0.050186075 -0.03063949 0.008227802
-0.040509928 0.08167792 0.016761713 0.023637 0.041278943 0.04324782 0.078187145 -0.0148629695
-0.0068853237 0.04624685 -0.049970306 0.06539177 -0.023671398 -0.08699317 -0.07509355 0.009787607
-0.07676933 0.0138572985 -0.06300654 -0.014477256 -0.030496482 -0.047871303 -0.03434537 -0.0848278
0.049894307 -0.029545886 -0.078475714 0.02126032 0.028695283 0.07175944 0.005464248 -0.01366205
0.073851086 0.064164065 0.018385183 0.077467896 -0.03852397 0.02865708 -0.086999424 0.05131193
0.019139765 0.0009883584 -0.0024400314 -0.0062979036 0.022953792 -0.030723836 0.05826523 0.05711567
0.030673439 0.0788461 -0.005344062 0.01020068 0.009571973 -0.03462782 0.032161463 -0.079301625
0.07372158 -0.0015185883 -0.066139184 0.069264345 -0.058998104 0.04626687 0.042098317 -0.015826054
-0.054502085 0.023178875 -0.07684108 -0.0008133801 0.08115708 -0.0026051013 0.04312057 0.067311674
0.027194314 -0.032082394 0.053450063 -0.033303652 -0.041430086 0.021482527 0.069906995 -0.0017701427
0.0244507 0.017998286 0.01989659 0.01678214 -0.005002716 -0.05965022 0.04463869 -0.024658186
0.08006463 -0.01906677 -0.07586067 -0.07658494 0.03392026 0.044661433 -0.01129591 -0.018451866
0.020959612 0.07466057 -0.077973485 0.08000385 0.05107709 0.072425365 0.071286164 0.014186607
0.020061735 -0.07623651 0.06833493 0.054483704 -0.024012648 -0.0033138872 0.06473374 -0.07857969
-0.001104927 0.06319953 -0.04774964 -0.033464473 0.022612706 -0.014897317 0.059382085 -0.05573919
0.085224286 -0.028246142 0.016163772 0.023230614 -0.058607258 -0.044098023 0.006460478 0.038317896
0.056535065 0.052354187 0.049933005 -0.03572493 0.08834127 -0.07750227 0.014524143 0.009152861
-0.00923311 0.030999808 0.0042178705 0.075756155 -0.033346087 0.07448647 -0.010377017 0.022666175
0.0702336 0.0010112379 0.034298673 0.05318922 -0.028119197 -0.06499642 -0.025841989 0.009721481
0.018797657 -0.08242386 -0.052956246 0.06865869 0.009579957 -0.06962431 -0.03554086 0.080121964
0.036889993 0.022642376 -0.04352925 -0.009487236 -0.020855745 -0.034495216 -0.019089947 -0.035996955
-0.06943254 0.07513329 0.063000955 0.03189528 0.07736767 -0.07068029 -0.03357082 -0.040816274
-0.030617828 0.06650049 0.077160455 -0.04895427 -0.0377801 -0.015627585 0.053549644 -0.0840395
0.060791086 -0.010047021 -0.07773419 -0.011276428 9.72932e-06 0.055385534 -0.046588067 -0.020669732
0.063198835 -0.05566527 0.045295257 -0.04039628 0.056116924 -0.019142974 -0.016853826 0.03424075
0.05005372 0.029196221 0.06042873 0.086055785 0.012011246 0.045163006 -0.062706366 0.017419713

actor.policy_head.bias f4 [50]
00000000: 67ec 52bd 45f0 673d 0c15 873d 28ce 7e3d
00000010: 15db aebd 2361 2f3d 1b37 dabb e3ce e63c
00000020: da40 a8bc 299b 4a3c f316 dc3c d84d 8a3d
00000030: 121a 143d 6b9f 843c 5f0e 13bc a793 5fbd
00000040: 2e08 49bc 9fec b23d d349 2abc 83d4 343d
00000050: 5098 543d dd1f 903a 43f5 88bc 3354 863d
00000060: 11d0 343d 181d 85bb 7e20 0fbd 8233 dd3c
00000070: 875e 11bd d797 973d 7d48 dbbc 8620 f43c
00000080: c4fc 6a3d 77de 7f3d ef01 b5bd 6097 3fbd
00000090: a3fe 62bd fb2a bb3b f6ca 0bbd e011 5fbb
000000a0: 2511 ac3d 86d4 96bd 4f4c 9a3b e95d ac3d
000000b0: 8500 b1bd 1f09 6bbd 8a0c 20bd e8d6 8fbd
000000c0: 3cef 4bbd a2d1 19bd
-0.051494982 0.056625623 0.06595811 0.062208325 -0.0853788 0.042817246 -0.006659401 0.028174823
-0.020538736 0.012366095 0.026866412 0.06753129 0.036157675 0.016189298 -0.008975594 -0.05458417
-0.012270017 0.08736538 -0.010393578 0.04414798 0.05190307 0.0010995824 -0.016718512 0.065590285
0.04414374 -0.004062306 -0.034943096 0.0270021 -0.03549054 0.07402008 -0.026767964 0.029800665
0.057369962 0.06246802 -0.088382594 -0.04677522 -0.05541862 0.005711911 -0.034129106 -0.0034037754
0.084017076 -0.073647544 0.0047088037 0.084163494 -0.08642677 -0.057381745 -0.03907446 -0.07023412
-0.0497887 -0.037553437

critic.fc1.weight f4 [256, 21]
00000000: a2d8 b3bc 33e7 4cbe 2aad 073d 86e9 063d
00000010: 43e2 bb3d 5ece 11bc 2b0f dc3c 59d0 f7bd
00000020: 18bc 373e ae61 94bd 8045 4abc 5d4c 483e
00000030: cd6a 4f3e 34fa 2fbe fdc8 58be da23 713d
00000040: 4e87 babc b2e0 4abe 7127 e53d 0ade 08be
00000050: 8ccb d6bd 2af8 51be cb24 edbd 3a53 e1bd
00000060: db85 4cbe 2cf9 0b3e 7855 353d 55e6 49be
00000070: 2dd6 d1bc b256 5dbd b316 153e 2819 14be
00000080: 5e35 63bd f368 a43d efad 5fbc 0a81 16be
00000090: 3422 a3bd 0e35 ed3c 21b9 05bd 782b 09be
000000a0: 74dc 80bd bf60 553e 4d60 93bd 9ee3 10bc
000000b0: e69a 23be 939b 413e f7c5 a7bd 425f a53d
000000c0: 81d3 92bd c7b1 0d3e 1aa7 d33d 4e85 993d
000000d0: c9eb 143e 06bd 68bd b199 043e 1d46 1d3e
000000e0: 68ff 423e abda e73b f318 2d3c 7fc6 5a3e
000000f0: fb10 5a3e 901f 233e 8201 22bd 5c78 4b3e
00000100: b34e bcbc aa27 abbd d0a8 1fbd d48d 6fbd
00000110: fa1a aabd 51aa f63c 16ba 923d 4830 013e
00000120: 621b cdbd e802 4f3d 4cea c83d de73 6dbd
00000130: 761b aebb f495 2f3d d964 c63d 09df 1ebe
00000140: 4bde 4b3e dbe9 3abe 0420 8ebb 6122 973d
00000150: 8f6a 1c3c 3a3e 5abe 7e66 5fbe 4082 4ebe
00000160: b108 1ebd ada7 a33d 049c 7d3d ee45 413e
00000170: dc4b 21be b075 21be 970f 41bd 1818 30be
00000180: 5bf9 71bd 679f 443e 8085 483e 4277 563e
00000190: 5236 33be 9452 0d3e dcdd 583e 6d38 233e
000001a0: 7b23 48be 2b4d 36be fffb fe3d e019 063e
000001b0: f5e7 3f3c d383 ac3d e7e0 003e 7cbc 5d3e
000001c0: d15b eb3d dd05 0bbd ce7c 30be 08d1 11be
000001d0: 7cc1 a6bd c133 4b3e 97bd 34be 49ec 283e
000001e0: f5f1 73bd 67a2 9dbd 28c1 363e 6c8b b0bd
000001f0: 8302 43bc db20 353e 15a2 96bd 9be8 263e
00000200: 437f 61bc 7164 0cbd 59f1 8d3d 138d 983d
00000210: f613 1a3e 248b 783d 5daf 213c 9266 c13c
00000220: 8cc5 ccbd d873 2e3e f8d7 49bc 7f8c 753d
00000230: 40f9 f03d 7d2c f23d 6347 bf3d bc08 9c3c
00000240: c2e5 5a3d b97c 373e f55f bf3d e1c2 c73c
00000250: 30f4 443e 0ce5 5c3e 8887 84bd 8b9f 1f3d
00000260: 35f3 3ebd 4603 57ba 0a41 713d 811a 09be
00000270: 3591 23be 3fea fe3d 051f 1fbe 48c7 46be
00000280: c632 91bc 9d92 903d 6768 493e a44c 2bbd
00000290: 5641 193e 0f6b 0c3e 9ff8 db3c 9f90 7a3d
000002a0: 0a5a 1cbe ab42 29be d8c6 6dbd 0ef4 4b3e
000002b0: 9794 57be 4f16 12bd ad59 553d 9870 03be
000002c0: 3a1e 3a3d 8987 59bd 0b60 5bbe 1c27 473e
000002d0: 1f4a c53d 42f3 013e 7136 36be 0bb6 ed3d
000002e0: 776e 4b3e 124d 373d ef3d 2c3d 4d74 ccbd
000002f0: 212b 983c 1891 8f3d f746 18bd ddc3 5dbc
00000300: 6e93 593e c13e 053e ad52 5b3e 5f8c 14be
00000310: e89b 133e 4784 3bbd deca 023e 9588 423e
00000320: 91a2 583d 33a4 50be 8e10 48bd 00ea e1bc
00000330: 74f7 b23c dfd0 5ebe 6303 4abe 1761 453c
00000340: c1ce b43d 8874 f3bd b539 ddbd 0109 8c3d
00000350: 3665 c13c 9137 5c3e 7a51 063e 45fa 93bd
00000360: 18ce e03d ad29 64bc d04c c6bd 5c5c cc3d
00000370: 42a6 60bb 01e7 ab3d e074 0d3c d813 c33d
00000380: ff15 28bd e33a d53c 2cc3 843d cc82 48be
00000390: 0b08 8abd 244b 0e3d fd2c 46be 9ae6 f4bb
000003a0: 869a 09bd e299 003e 791a 4dbd bfab 01bd
000003b0: ef6e 40bd 22b4 56bd 58a4 2bbd 6ae1 69bd
000003c0: 18f6 5c3d 5edc 5cbe 36b5 04be ef19 083e
000003d0: 32f1 5e3e 0bf7 443e 44c4 dcbd f3f8 32be
000003e0: 30b5 d83d 7417 083e efb6 713d fa28 2cbe
000003f0: 05f5 6dbd 4163 86bd 18bc a3bd 6d13 fbbd
-0.021953885 -0.2001007 0.033124126 0.03293755 0.091740154 -0.008899299 0.026862701 -0.12100286
0.17942846 -0.072451934 -0.012345672 0.1956038 0.20255585 -0.17185289 -0.21170421 0.05887208
-0.022769596 -0.19812277 0.111891635 -0.13365951 -0.10488042 -0.20504823 -0.11579283 -0.11002202
-0.19972937 0.1366927 0.044270962 -0.19716771 -0.025614822 -0.054037757 0.1455944 -0.14462721
-0.055470817 0.0802783 -0.013652309 -0.14697662 -0.07965508 0.028955963 -0.032647256 -0.13395488
-0.06292048 0.20837687 -0.07196102 -0.008843331 -0.15977058 0.18907003 -0.08192056 0.080748096
-0.071692474 0.13837348 0.103346065 0.07496129 0.1454307 -0.05682089 0.12949254 0.15358777
0.19042742 0.007075628 0.01056503 0.21364783 0.2129554 0.15930009 -0.03955222 0.19870132
-0.022986745 -0.08357175 -0.03897935 -0.058484867 -0.083059266 0.03011051 0.07164399 0.12616074
-0.100149885 0.05053988 0.098103136 -0.057971828 -0.005313332 0.042867616 0.09687204 -0.15514769
0.19909017 -0.18253271 -0.0043373127 0.07379604 0.00954689 -0.213128 -0.21816441 -0.20166874
-0.038582508 0.07990966 0.061916366 0.18874332 -0.15751594 -0.1576755 -0.04713401 -0.17196691
-0.059075695 0.19201432 0.19582176 0.20943931 -0.1750119 0.13801032 0.21178383 0.15939493
-0.19544785 -0.17802875 0.12450408 0.13095808 0.011713018 0.08423581 0.12585793 0.21653932
0.11492122 -0.03394114 -0.17235109 -0.14239895 -0.08142373 0.19843961 -0.17650448 0.16496386
-0.05955692 -0.076969914 0.17847121 -0.086203426 -0.011902454 0.17688315 -0.073551334 0.1629967
-0.013763252 -0.034275476 0.06930799 0.07448783 0.15046677 0.06067957 0.00986847 0.02360848
-0.099986166 0.17036378 -0.012319557 0.05994844 0.11766291 0.11824892 0.09339788 0.019047134
0.05344177 0.17918672 0.09344474 0.024384918 0.19233775 0.2157175 -0.06471163 0.03897051
-0.04661866 -0.0008202087 0.058899917 -0.13389017 -0.15973361 0.12447023 -0.15539177 -0.19411957
-0.017724406 0.07059214 0.19668733 -0.041821137 0.1496633 0.13712715 0.02685195 0.061173078
-0.15268722 -0.16529338 -0.05805096 0.19917318 -0.21052776 -0.035665806 0.052087475 -0.1283592
0.045438983 -0.053107772 -0.21423356 0.19448513 0.09633278 0.12690452 -0.17794205 0.116069876
0.19866358 0.044751234 0.042051252 -0.0998312 0.018575253 0.07010096 -0.037177052 -0.013535467
0.21247646 0.1301222 0.21418257 -0.14506672 0.14414942 -0.045780446 0.127727 0.18997414
0.05288941 -0.20375137 -0.048843913 -0.0275774 0.02184651 -0.21759365 -0.19727854 0.012047074
0.08828498 -0.11887461 -0.10802022 0.06837655 0.023607831 0.21505572 0.13117018 -0.072254695
0.10976809 -0.013925952 -0.096826196 0.09978554 -0.0034278785 0.0839367 0.008633822 0.09525269
-0.041036602 0.026029056 0.064825386 -0.19581145 -0.06739815 0.03473963 -0.19353099 -0.007473779
-0.03359463 0.12558702 -0.050074074 -0.03165793 -0.046980795 -0.05241788 -0.041904777 -0.057099737
0.05394563 -0.21568438 -0.12959751 0.13291143 0.21771696 0.19234864 -0.10779622 -0.17477779
0.10581434 0.13290197 0.05901235 -0.16812506 -0.058094997 -0.065619 -0.079948604 -0.122595645

critic.fc1.bias f4 [256]
00000000: 35eb 693c 3c74 33be 83b2 f63d 7da3 5cbe
00000010: e85a 17bd 558a 873c 78d2 963d eaee fa3d
00000020: 4201 88bd 287b cfbd 4e5c d43d ddba 37be
00000030: becb 27bd 034a 6e3d 775c 0a3e 3141 b53d
00000040: 7944 74bd cbc4 dcbd 1bb0 d93d ca9a 45be
00000050: 81b6 b63d 8ac9 4cbe bbcb 36be b06d 043d
00000060: 4268 c43d 459f 4c3e 48f9 53be 6d95 583d
00000070: 9fd3 45be 00f3 7f3c 182b 293d e987 123d
00000080: 2ad4 1e3e a4c8 63bd ae6e f83c 2007 67bc
00000090: fa18 5dbe 98c5 4b3e a7b4 39be 1a40 283e
000000a0: 859a 103e 19c4 043e 90bf 933d 89dd d5bd
000000b0: 48ff d03c 2620 dbbd 6cea 1f3d ea24 2f3e
000000c0: e831 263e 7859 96bd 8c54 7c3d 2e3b ff3b
000000d0: 74f3 203e f1d6 8abc c8ee b6bd 8d72 29be
000000e0: f3f0 db3d d73e bbbd 9c6f 1b3e 260d e0bd
000000f0: 3c68 ffbc abc6 4e3e 8080 453e 42ed 303e
00000100: e0ce 033d bbc0 e03d 2218 cbbd fa71 d53c
00000110: b2d4 29bd 49b2 1fbe 67de a13b fba6 1dbe
00000120: 84de 34be f4fd 953d 920e 57be 71e2 213e
00000130: 1be6 1dbe e1fd 3cbe 243b e6bd 8ba4 1dbe
00000140: 7996 bc3d 7db2 34bd b88f 283e 9349 a33d
00000150: 4523 a1bd f8d6 dabd 3ec6 373d 4831 023e
00000160: 0ea9 da3d 68bb efbd a1fe 0e3e 7195 6dbb
00000170: f1d9 58be 17e6 393e c966 283d 48d0 8d3d
00000180: d202 27be bea6 5b3e a7a6 debd bb20 31be
00000190: 15fd 7b3d b412 3c3e e606 11be 201d 79bd
000001a0: c627 493e 7e04 503e 2b80 a93c 946c 503d
000001b0: 6a32 993c 0c4c 5fbd 7f22 593e 6c33 463e
000001c0: c01a 3db9 4a30 df3d 3410 b3bd 0bee 553d
000001d0: d4e9 223e 4544 e53d fd2e 00be 8175 0c3d
000001e0: 1dbb d5bd 323b 34be 1e7e 8fbd ce40 3ebe
000001f0: a0f4 413e 4a76 083e e12b 28be 8dca 1c3e
00000200: f00b b73d 8637 063e 042b 8f3d ba69 c43d
00000210: 84d9 1b3b 53b3 0e3d c578 b3bd 27a2 19be
00000220: 6dd9 11be 2069 8e3a 33bc 403e e90f b3bd
00000230: 73e2 28bc 790a 153e 17bd 86bd e8a7 783b
00000240: 52e1 5f3e ca69 49be 7ade 563e bd64 c23c
00000250: 76be f03d b774 a8bd 2b30 33bd 1403 00be
00000260: 7d58 093e 44cc bfbc 91a3 4fbe dff4 92bd
00000270: 26a9 ccbd e0cf ccbd a3af 033d 6cf6 57be
00000280: b869 24be 14f9 c8bc 7968 4b3e 2c46 08be
00000290: ffe0 263e 7b07 603e 0085 153d a9db 383e
000002a0: 5d2f 8d3c 6e7c 973d 13ef 973d 22bc 8f3d
000002b0: e1bb 0d3e a539 1cbe 9179 ca3b 290d 13bb
000002c0: 4326 003e d5bc 303e 9a14 41be 876b 573e
000002d0: 14f0 c83d 9c30 30be aaba 50be ef0e 25be
000002e0: 98fb 193e 9094 10bd 4340 f13d 3d90 11bd
000002f0: 6558 ac3d 3f7f 0ebe 3644 1ebe 45ed 30be
00000300: 9391 df3d 7367 7dbd ac47 02be 86f1 233e
00000310: d708 3a3e aca4 9f3d 70dd 833d b6c3 20be
00000320: 039b de3d daee b8bd c659 5c3e af37 c83d
00000330: c25e e03d 4047 1ebd 8fd8 c0bd 3e9b 18be
00000340: 1a05 dd3d d996 e23d de21 b03d ac18 3b3e
00000350: fc6c 2c3e fcd8 57be eebd b1bb aef4 4e3e
00000360: 062c 963d 7e45 523e 0f57 17bc 4947 19be
00000370: a0bb 3a3e 1150 fdbd 364a c53d 8e8a 163e
00000380: fd4a ad3c f9fb 323d 4106 2d3e 6d7a b93d
00000390: 8bec e23d fa2c 77bd 49fc f83d c64f bf3c
000003a0: 7be8 243e 8462 ca3d fb2a dc3d 9543 963c
000003b0: fba4 c83d e87f eabd f281 b03c a3f0 fe3d
000003c0: cf8c 3ebe 89c0 d33d 1aed ecbd c927 3b3d
000003d0: 7331 0cbe af2d 00be 078f 693d 5295 7d3d
000003e0: 4da0 03bc f26f 463d bffd dd3c 7d03 ce3d
000003f0: 9aab d83c 720f 3bbe 3033 8d3d f6ca 533e
0.014277269 -0.17524809 0.12045767 -0.21546741 -0.03695193 0.016545454 0.073643625 0.122526005
-0.06640865 -0.10130912 0.10369168 -0.17942376 -0.040965788 0.05817605 0.13511835 0.08850325
-0.059635613 -0.10779723 0.106292926 -0.19297329 0.089215286 -0.19998756 -0.17851155 0.03233117
0.09590198 0.19982632 -0.20700562 0.05287688 -0.19319008 0.015621901 0.041300863 0.035774145
0.15510622 -0.055611268 0.030326214 -0.01410082 -0.21591559 0.19899595 -0.1813532 0.16430703
0.14121445 0.1296543 0.07214272 -0.10442645 0.025512353 -0.10699491 0.03904192 0.17103925
0.16229975 -0.073412836 0.061604068 0.007789037 0.1571787 -0.016948195 -0.08932263 -0.16547604
0.10739317 -0.09142845 0.15179294 -0.10940008 -0.031177633 0.20192973 0.192873 0.17278007
0.032179713 0.109742604 -0.09916712 0.026055325 -0.041462608 -0.15595354 0.0049398425 -0.15395729
-0.17663008 0.07323828 -0.21001652 0.15809037 -0.1541981 -0.18456222 -0.11241749 -0.153948
0.09208388 -0.044115532 0.16461074 0.079730175 -0.07868055 -0.10685533 0.044866793 0.12714112
0.10676776 -0.11705667 0.1396432 -0.0036252404 -0.21176888 0.18154179 0.04111365 0.06924492
-0.1630967 0.21450326 -0.1087163 -0.17297642 0.061520655 0.1836651 -0.14162788 -0.06081879
0.19644079 0.20314214 0.020690998 0.0508848 0.018700797 -0.054515883 0.21204565 0.19355553
-0.0001803441 0.10897882 -0.08743325 0.05222897 0.15909511 0.11194662 -0.12517925 0.034291748
-0.1043608 -0.17600706 -0.07006477 -0.18579409 0.18940973 0.13326374 -0.16422988 0.15311642
0.08937824 0.13107118 0.069906265 0.09590478 0.0023780772 0.034838986 -0.08763269 -0.15003262
-0.14243098 0.001086507 0.18821792 -0.08743269 -0.010307896 0.14554776 -0.06579035 0.0037941877
0.21863297 -0.19669262 0.20983306 0.023729676 0.117550775 -0.082253866 -0.04374711 -0.12501174
0.13412662 -0.023412831 -0.2027724 -0.07175612 -0.099932 -0.100005865 0.032149922 -0.21090096
-0.16055954 -0.024532832 0.19864072 -0.13308018 0.16296767 0.21877854 0.03650379 0.18052544
0.017234499 0.0739678 0.07418647 0.07018305 0.13841201 -0.15256365 0.0061790426 -0.0022438264
0.12514596 0.17259534 -0.18855515 0.21037112 0.09811416 -0.17206043 -0.20383707 -0.16118978
0.15037382 -0.03529793 0.11779835 -0.035537947 0.084152974 -0.13915728 -0.15455708 -0.17278011
0.10916438 -0.061866235 -0.12722653 0.16010103 0.18167435 0.077950805 0.0643872 -0.15699658
0.1086941 -0.09029932 0.21518621 0.09776246 0.109555736 -0.038642168 -0.09416305 -0.1490297
0.10791989 0.11063928 0.0860021 0.1827113 0.16838449 -0.21078867 -0.0054242527 0.20210525
0.073326156 0.20534322 -0.009237065 -0.149686 0.18235636 -0.12368787 0.09633295 0.14701292
0.021153921 0.04369733 0.16896917 0.09056554 0.11080273 -0.060345627 0.121574946 0.023353469
0.1610431 0.098820716 0.107503854 0.018342772 0.097970925 -0.114501774 0.021546338 0.124482416
-0.18608402 0.103394575 -0.11568661 0.04569224 -0.13690738 -0.12517427 0.057021167 0.06190998
-0.008033824 0.048446603 0.027098535 0.10059259 0.026449014 -0.1826761 0.06894529 0.20682892

critic.fc2.weight f4 [128, 256]
00000000: 744c 1abd 7bd7 c2bb 74ab 7abd 456a 29bd
00000010: 4386 47bc 2db1 2a3d c992 f93c 680b 233d
00000020: 8bc2 11bd 7aa9 6a3d 97a5 4fbd c562 763d
00000030: 3c16 03bc ce94 9abc 4318 a83c 9b84 393c
00000040: 0613 683d 60d6 303d 9889 c03a e8a2 403d
00000050: d18f adbb 7ad1 a43c b5da ad3c fbea 6dbc
00000060: a088 573b 9ab1 0c3d 4174 3c3d 85f8 43bc
00000070: 0c6e dbbc 4674 27bd e577 d53b ecaf 1bbd
00000080: cda5 773c af5e 27bb 2b5d e1bc d287 80bb
00000090: 49bb 8bbc 3062 4b3d 2e52 0e3d 69c4 0f3c
000000a0: 88ea 6ebc 38c8 6a3c 8a57 68bd cf08 9a3c
000000b0: 42b0 0cbd 7b37 01bd ac0e 533d 3ba9 093d
000000c0: fab8 d23c 5391 a43c f2ab 3e3d cfdd 373c
000000d0: 2429 a7bc 5d62 713d e662 a839 6755 c93c
000000e0: 09ae 723b 434e 5b3d 65df dfbc d94b ae3c
000000f0: 487f 79bd d8e1 7dbc eeff 063c 8441 393d
00000100: ba8b 773d b218 923c c430 2e3d 5aac 6a3d
00000110: b50a 07bd f355 3bbc 0847 673d eee1 dd3b
00000120: 3252 5f3d 2031 5f3d cbdd 7d3c cda5 9dbc
00000130: d89a 653c 9f6c 793c 063a b2bc 2242 16bd
00000140: 85e2 b9bc 980c aabc 4975 463d 2ed9 e8bc
00000150: 6308 3a3c 8aac 66bd 457d b5b9 aa29 583d
00000160: 1ddf e13c 4157 2fbc db9c 223d 7559 8c3b
00000170: d79e 6bba a625 4b3b c02e 19bd 37e7 4abd
00000180: 988c 5d3d 205e a93c 1dca debc 9e37 d23c
00000190: 39f7 fd3b a051 1c3d 2a39 3abd 7bcb 30bd
000001a0: c44e 663d 2618 df3a c524 043b 768e 763d
000001b0: 688d 27bd 5934 ea3c a730 493d bfa5 b73c
000001c0: 6e11 613d 0f96 f3bc b0ee 363a fc15 13bd
000001d0: dcd2 e53c ac12 19bd 03da b7bc b7a0 20bd
000001e0: 4c4c 4abd 4cdc 713b b3ca 373c 5845 edbc
000001f0: 6855 483d 9406 333d 6065 543c d4d3 64bd
00000200: 617c eb3c 7b98 1a3c d142 ecbc 23c3 8f39
00000210: 348e ae3c dcdc ef3c 01e4 26bd baeb 2b3b
00000220: 8f6e c23c 04c4 01bc 36cb 18bc d79f d53c
00000230: bc20 373b 70d8 013d a86f 1abd 7467 563b
00000240: b9ee a83c 1c21 b1bc 3cb2 22bd 2094 e1bc
00000250: 0e2b 57bd 314b 5d3d 5fc6 91bb 323d 4e3d
00000260: c7ec 2c3c 116f 84ba 39b2 ed3b 6068 f7bc
00000270: 2983 67bc b9a9 72bc 8fe4 ca3c 52b6 4fbc
00000280: 59e6 f4bc c06f 2d3c 618f 6abd b8d2 45bd
00000290: ffcd 633d fcee d93c 2901 783d fa8f 753d
000002a0: fc82 dd3b 5acf d23c 5ebb 1c3d cad9 7d3d
000002b0: b9ff 3f3d 76c5 723d 42ee 133d bad9 b7bc
000002c0: 5045 0a3d 42d2 683c 96e5 1e3d 7210 9b3a
000002d0: ee7a 0c3c 1f7f 773d c6f3 cd3c c044 bdbb
000002e0: e0a0 453d 8675 3ebc fb8a 333d 7099 043d
000002f0: d849 ef3c cfc4 3abd 2eda 53bd 6ed9 ecbc
00000300: 69ed 0dbd 1000 993c b839 f13c 0fcf 25bd
00000310: feae 353d b8d9 36bd ba60 2cbb bcf3 54bd
00000320: 5ca7 5b3d 59ed e43b 6020 1b3d 0370 b5bc
00000330: 9979 06bc 324f 92bc 7858 41bd 5e12 1d3d
00000340: a9ac 0b3d 8541 10bd ac7e 3a3d 66b2 dabc
00000350: 2448 823c c09e ac3c bc7c 493c 99c2 9f3b
00000360: c44f 8f3b 4ef0 7abd 87bb 923c 9a92 22bd
00000370: 8d73 523d 75e0 94ba 664e 26bd adb6 8c3c
00000380: 7e02 713d 278e 74bc bc24 4a3d 3f30 78bc
00000390: bbb1 11bd b427 10bd 9cc3 6bbd 0193 54bd
000003a0: 95aa 723d ae48 a53c ff7b ef3c 2497 103d
000003b0: 9840 253c 5598 203c d8a5 4b3d 059b f9bc
000003c0: 877c 023d 0b5f 46bc f041 f43c b5a9 bc3c
000003d0: 5881 71bd daf3 99bc ea7e e03c 25ac 913c
000003e0: 2a35 5dbd 7568 f8bc 1b31 5f3d fb7b 6fbd
000003f0: 38b3 4b3d a03e 8bbc dd5a b83c 931f 69bc
-0.037670568 -0.0059460974 -0.061198667 -0.041361112 -0.012178007 0.041672874 0.0304655 0.0398058
-0.03558592 0.05729053 -0.05069503 0.060152788 -0.008000907 -0.018869784 0.020519381 0.0113231195
0.056658767 0.043173194 0.0014689444 0.04703036 -0.0052966853 0.020119417 0.021222452 -0.014521356
0.0032887831 0.03434906 0.046009306 -0.011961107 -0.026785873 -0.04088237 0.0065145367 -0.03800957
0.015115214 -0.0025538614 -0.027510246 -0.003922441 -0.017057078 0.049654186 0.03474634 0.008774855
-0.014582284 0.014329962 -0.05672411 0.018803028 -0.03434778 -0.03154705 0.051527664 0.033608656
0.02572297 0.020088827 0.0465507 0.011222317 -0.02040536 0.058931697 0.00032117142 0.024576856
0.0037030003 0.053541433 -0.027328203 0.021276401 -0.0609124 -0.01549574 0.008239729 0.045228496
0.060435988 0.017834041 0.042526975 0.057293274 -0.032969195 -0.011434066 0.056464225 0.0067713177
0.054521747 0.05449021 0.015494774 -0.019244099 0.014013968 0.015223651 -0.021756183 -0.036684163
-0.02269102 -0.020757958 0.048451696 -0.028423872 0.011354539 -0.05631689 -0.00034616343 0.05277411
0.027572209 -0.010701955 0.03970037 0.004283125 -0.00089882076 0.0030997782 -0.0373981 -0.04953691
0.05408916 0.020674765 -0.027195984 0.025661286 0.0077504185 0.03816378 -0.045464672 -0.043162804
0.05622746 0.0017020747 0.0020163518 0.060194455 -0.04090634 0.028589414 0.049118664 0.022417901
0.054948263 -0.02973464 0.0006978316 -0.035909638 0.028054647 -0.037371323 -0.022442823 -0.03921577
-0.04938917 0.0036904989 0.011217761 -0.02896373 0.048909575 0.043707445 0.012963623 -0.055866078
0.028745832 0.009435768 -0.028840454 0.00027420474 0.021308042 0.029280119 -0.040744785 0.0026233033
0.02373436 -0.007920269 -0.009325793 0.026077194 0.0027943095 0.03170055 -0.03770414 0.0032715471
0.020621644 -0.021622233 -0.03972076 -0.027536452 -0.052531295 0.054026786 -0.0044486965 0.05035133
0.010554499 -0.0010103901 0.007253912 -0.030201137 -0.014130392 -0.014810973 0.024767188 -0.012677746
-0.029894995 0.010585725 -0.057265643 -0.04829666 0.055616375 0.026603214 0.06054798 0.05995176
0.0067599993 0.025733639 0.038264625 0.061975278 0.046874736 0.059270345 0.036115892 -0.022442687
0.033757508 0.014210286 0.03879317 0.0011830463 0.008574231 0.060423966 0.025140654 -0.005776018
0.048249125 -0.011624699 0.043833714 0.032372892 0.029210016 -0.045597848 -0.051721744 -0.028912272
-0.03465024 0.018676788 0.029446468 -0.04048067 0.04435634 -0.044641227 -0.002630277 -0.051990256
0.053626403 0.006986302 0.037872672 -0.022148138 -0.008207702 -0.017860029 -0.04720351 0.038347594
0.03410021 -0.035218734 0.04553096 -0.026696395 0.01590354 0.021071792 0.012297805 0.004875493
0.0043735225 -0.06126433 0.017911686 -0.03969059 0.05137973 -0.0011358397 -0.04060211 0.01717695
0.058840267 -0.01492647 0.04935144 -0.0151482215 -0.035569888 -0.035194114 -0.057559595 -0.051898006
0.05924471 0.020176258 0.02923393 0.03530039 0.010086201 0.009801944 0.049718708 -0.030469427
0.03185704 -0.012107621 0.029816598 0.023030141 -0.058961242 -0.018793035 0.027404267 0.01778228
-0.05400578 -0.030323246 0.05449019 -0.058467846 0.049731463 -0.016997635 0.022504264 -0.014228719
