server/policies/checkpoints/policy_1_470/model.pt (torch, 338258 bytes, 11 tensors)

actor.fc1.weight f4 [256, 21]
00000000: 18ff fdbc bf56 52bc 8e80 79bb 6630 95bd
00000010: 264d 1d3e 7298 4b3e e18c 1c3e 2ce6 09bd
00000020: 80c5 ee3d efdc 04be 579f 9b3d ef4a 4bbe
00000030: cbf7 3dbe f7bd 36bd 23d9 4f3d d2e0 3f3e
00000040: 0747 f6bd 4157 e0bd 1cd7 b33d 3d70 31be
00000050: 08f8 573e fb5b 20be b5ff f23d 0a61 3fbe
00000060: 4751 fdbc 7639 45be 1213 a03d bcd0 d33c
00000070: 0c92 90bd bf72 f73d 84df 2cbe 7132 1a3c
00000080: 85fe a7bc a32b 2c3b 3bbb 0b3e 3035 f13d
00000090: c49b cdbd 971d f4bc 5924 473e a133 8d3d
000000a0: 9a64 50bd 26be 1abb 3707 47be 240b babd
000000b0: f8be 1ebe 76f8 2d3e 6292 0dbe c28e 1a3e
000000c0: e007 ac3d 0f5a ad3d e812 503e e14b ee3d
000000d0: 144f 50be d872 213d c8a1 5c3e 1975 24be
000000e0: af01 183d 21aa 72bd 8458 0bbe f7cd bfbc
000000f0: a842 283e 2a86 fb3d a497 3d3e a345 443a
00000100: af95 e5bd bb98 923d e925 f7bd 0ea1 21be
00000110: 8433 f5bd 47ff 23be cd5e c53c 0124 fcbd
00000120: 55c0 25be 0a09 163e 83bf 5b3e c190 b13d
00000130: b431 66bd eab9 48ba e7ed 283e cc09 80bd
00000140: 0ca0 3cbe eb08 2a3c 1791 803c 06a8 d8bd
00000150: 55d2 96bd 2880 88bc 7fc6 cabc 9c0b debc
00000160: 6a16 82bd 2d19 ccbd 251b 13be f1c5 1cbe
00000170: c625 49be 3f23 943d a04e 863d b29f fcbd
00000180: 7a6b e8bd 4faf afbd dc81 fd3c b463 0cbe
00000190: 6b44 8d3d 1408 03be 1744 3f3e 47fa 4d3e
000001a0: d231 d03d 0654 3a3e 9410 4a3e 4c86 113e
000001b0: 4991 35be 52df e1bd 2d4e eb3d 4378 29be
000001c0: c06e 5a3e 6bbe dd3c c425 0e3b 1aeb 51be
000001d0: b486 593e fb3f 2b3e 9823 653d a25c 273e
000001e0: 2014 08be 5b67 12bd 5189 89bd f52e 0c3e
000001f0: 1ea3 04be 3736 02be 8be3 0e3e 8eb7 b13d
00000200: fd18 48be 6797 5cbe 5bb3 593e 42bc 893d
00000210: 5d46 10bd 7194 393d e263 e63c 6779 cf3c
00000220: 188d 0b3e cf20 c2bc b654 483e 7a41 45bd
00000230: c0f2 eebd 4750 e13d 0af7 f9bd c0e0 03b7
00000240: c1b7 3c3e ce49 1f3d fbdf 323d 84f7 60bd
00000250: 9d14 873d 2e53 543e cf72 0dbd ff5f 4a3e
00000260: 0903 9ebb 86b7 1c3d f3a8 8a3c 0b1f 9d3c
00000270: 4082 06be 1a90 4c3d 821c 953d 0172 1dbc
00000280: ffc3 eabd 73c7 20be 4b60 08bd c543 223e
00000290: 2a75 103e 5047 34be 0681 9a3d b7ef 4cbe
000002a0: 8a1d 4dbd 9f1d b8bd cb5a e0bd 7a9f fc3c
000002b0: 25f9 493e 335f a53d d018 a8bd 8408 b6bd
000002c0: 5ab4 f4bc bc04 c1bd 4a48 2dbd 6daa 283d
000002d0: fc85 063d 5a49 f4bb 413a a9bd e14d d13d
000002e0: 564e d23d 662b 4bbe 659c fb3d fb64 e63d
000002f0: 0f89 e13d 12b7 e0bd aea0 503e e973 893d
00000300: 84ce 63bb b100 11be cd0e e2bd ea0e 06be
00000310: 9183 983d 705f 663d 516b e93d 144c 7d3d
00000320: 834f 283e c9aa edbd a7ba 083d 1862 eb3d
00000330: 1526 11be c402 2f3d 1527 123c 3e80 b3bd
00000340: 57ee 7bbd 46c5 3abe 3706 bf3d a72b 35be
00000350: 936b 353e fd42 1b3e a431 003c 9354 b0bc
00000360: 1335 9f3c ea3f fa3d 9c3b 61bd ce9c 03be
00000370: 4fdd 0b3e cf42 fb3d 41c4 4cbe 48bb 103e
00000380: 017a d83d 0831 423e 28c0 7dbd be5c d73a
00000390: 14ff b13d d30d ae3d b02a 3fbd 06ec 303e
000003a0: 1ff5 4ebe a7ec 4b3e 830b 0e3d 7df8 cc3d
000003b0: 6fc5 dbbd 5ef9 ca3d 2b8f 3a3e 8891 46be
000003c0: 7ca8 95bd b77b ae3b 1804 413e 2aa8 313e
000003d0: 28f4 3c3e cefa 1a3e e9e1 d43d f691 df3c
000003e0: e942 80bd d460 573c f467 1bbe e592 bcbd
000003f0: e8c7 0abe 5033 5bbd 50b2 9e3c 44dc de3d
-0.031005427 -0.012838065 -0.003807101 -0.07284622 0.15361461 0.19882372 0.15288116 -0.033666775
0.11658764 -0.12974904 0.07598751 -0.19852804 -0.18551557 -0.04461476 0.050744187 0.18738106
-0.12025266 -0.10954142 0.08781263 -0.17327972 0.2109071 -0.15660088 0.118651785 -0.18689361
-0.030922545 -0.19260201 0.078161374 0.025856368 -0.07059106 0.12082433 -0.1688214 0.00941144
-0.020507107 0.0026271127 0.13645642 0.11777723 -0.100394756 -0.029799266 0.1944746 0.06894613
-0.05087719 -0.0023611872 -0.19436346 -0.09084156 -0.15502536 0.16989312 -0.13825372 0.1509352
0.083999395 0.08464443 0.20319712 0.116355665 -0.20342666 0.039416164 0.2154609 -0.16060294
0.03711098 -0.05924428 -0.13607985 -0.023413641 0.16431677 0.12281449 0.18514878 0.00074871833
-0.112101905 0.07158037 -0.12067778 -0.15784094 -0.119727165 -0.1601535 0.024093056 -0.12311555
-0.1618665 0.14651886 0.21459775 0.08670188 -0.056199744 -0.0007657098 0.16497003 -0.062518686
-0.18420428 0.010378103 0.015694184 -0.10578923 -0.073643364 -0.016662672 -0.024752853 -0.027105145
-0.063519314 -0.099657394 -0.14365824 -0.15309884 -0.19643316 0.07233285 0.06557965 -0.12335147
-0.113486245 -0.08578359 0.03094571 -0.13709909 0.06897815 -0.1279605 0.18678318 0.20115004
0.101657525 0.18196115 0.19732887 0.14211386 -0.17731203 -0.11028923 0.1148952 -0.16549782
0.2133131 0.027068337 0.002168999 -0.2049984 0.21242791 0.16723625 0.055942148 0.1634393
-0.13288927 -0.0357431 -0.06715644 0.13689788 -0.1295285 -0.12715994 0.13953988 0.086775884
-0.19540782 -0.2154213 0.21259825 0.067253605 -0.035223354 0.04530758 0.0281238 0.025326444
0.13628042 -0.023697285 0.19563565 -0.048158146 -0.11667395 0.1100164 -0.12205322 -7.860537e-06
0.18429472 0.038888745 0.043670636 -0.05492355 0.065957285 0.20734856 -0.034533318 0.19763182
-0.004822139 0.03826096 0.016926264 0.019179842 -0.13135624 0.049942113 0.07280828 -0.0096097
-0.114631645 -0.15701084 -0.033294957 0.15846165 0.14107195 -0.17605329 0.075441405 -0.20013319
-0.050077 -0.08990025 -0.109548174 0.030837763 0.19723947 0.080747984 -0.082078576 -0.08888343
-0.029871155 -0.09424731 -0.04230527 0.041178156 0.03284262 -0.0074550333 -0.08263064 0.10219932
0.10268848 -0.19840774 0.12285689 0.11249729 0.1101247 -0.10972418 0.20373794 0.06711561
-0.0034760544 -0.1416042 -0.11037979 -0.13091627 0.07446969 0.05624336 0.11397422 0.061840132
0.16436581 -0.1160484 0.03338113 0.11493319 -0.14174683 0.042727247 0.008920451 -0.08764695
-0.061506595 -0.18239316 0.09327357 -0.17692433 0.17716818 0.15162273 0.007824335 -0.021524703
0.019434487 0.12219222 -0.05498849 -0.12852785 0.13658641 0.12268602 -0.1999674 0.14133942
0.105701454 0.18964016 -0.061950833 0.0016430838 0.086912304 0.084987305 -0.04667157 0.17277536
-0.20210694 0.19914494 0.034678947 0.10008333 -0.10731017 0.09910844 0.18218677 -0.19391453
-0.073075265 0.0053248066 0.18849218 0.17349306 0.18452513 0.15134737 0.103946514 0.02729128
-0.06262762 0.013145644 -0.15176374 -0.092077054 -0.1355282 -0.053515732 0.019372135 0.10881856

actor.fc1.bias f4 [256]
00000000: 32a4 4d3d 900b 2e3e 5f82 6c3d ed1e 1bbd
00000010: 17b8 58be 98c3 473e 3b31 1bbe 7dd0 2c3e
00000020: 8765 08be 37ef 4cbe 0ed2 2c3e cf59 5ebd
00000030: 74a7 c93d c2b9 39be 465f a73d 8653 083d
00000040: 1cd4 8c3d 3cac 7ebd 1484 883d 9bc1 56be
00000050: c2fa 21be ecfd 3d3e 88a0 0abe a1f2 803d
00000060: d54b 2ebc 693d 463e 82a1 c03b 1174 08be
00000070: c5ac b2bd db5e 1fbe 51e1 07be 2fb4 54be
00000080: d104 d7bd 90ae 4abb b920 193e 54e3 2ebd
00000090: 0fa0 c23b da38 57be 6f2a 23be 71ca 0fbe
000000a0: e502 45be 654f 3e3e 8a09 3abe f563 d23b
000000b0: f466 e3bd 8584 15be 1596 9dbd 4a2f c73d
000000c0: d4c8 30be b658 4cbd 48a9 6a3c 4b71 df3c
000000d0: 5cdb e73d 4252 383e 9add d33d f9bd 413e
000000e0: 414c d9bd 0295 f93d a092 de3d c170 a13d
000000f0: 17af 2f3e 157c 4c3d c851 7fbd beec 52bd
00000100: f9f8 16be a5e7 be3d dafd d93d cd46 653d
00000110: a257 e63c 980e 4ebd 1c4f d8bd 16fb 063d
00000120: 5bdd 2c3e 524e bdbb a14a 143e 04ef 163e
00000130: 618d 05bd 2e3e 553e 8de9 1c3e 0cbe 0bbe
00000140: 6e33 9fbd 0d4a e1bd bc59 0ebe 5f9b 163e
00000150: 4860 9e3d be85 f73d e233 b13b b89b 2fbd
00000160: 7fcd 09bd 531d cfbc 96b7 87bd d8dc 57be
00000170: 566f 43be 5ab9 193d 13e3 32be 7a6a 5cbd
00000180: 4041 08be 7f20 97bd eed4 b6bd e556 eabd
00000190: 0e63 c63d 0768 d5bd 77bc 863d b626 983d
000001a0: cb7e 60bd 0b25 3a3e 46d3 3ebc 429e 873d
000001b0: 188d 333c 99cd 3cbe db4f 49bd 2164 0c3d
000001c0: ec2e 91bc 9f5d 4f3e c845 2cbe 8aa7 6e3d
000001d0: 01c5 333e ea05 a0bd f956 56be 4a79 083d
000001e0: 4149 1bbe cc6d bf3d 1b25 163e 52e2 333e
000001f0: b7c1 f93d 5512 013d d0b8 a8bc 66ba cc3d
00000200: d4a2 ee3c 1071 0d3c c06e 0a3e d024 ba3c
00000210: 36fa 863c c5da 4e3d ba89 c8bc c872 3c3e
00000220: 8cf3 043e 49bd 2f3c 1a5b 3fbd 37cc 4dbe
00000230: f35f 293d 91ca 28be 3045 fcbd a3e5 07be
00000240: d6f6 a53d b39a a5ba 6cba f4bd 4669 2c3e
00000250: ae12 3cbe f13a 4c3e 3fea 5a3d d029 1c3e
00000260: 8c68 c8bd e9ae 9cbd 45ce 44be 8086 a4bd
00000270: 9a29 90bc 3d60 d8bd 203b 3ebe 5506 e83c
00000280: 7ffb 01be 839b 3a3c c386 d5bd 8446 e03d
00000290: 03f8 10be 5c51 2fbe 8816 893d cdbc 55be
000002a0: e149 283e cb47 4d3e 19b7 4e3e 4abe dabd
000002b0: 98fd 2b3e 10b5 a63d 497e 5b3e 86f6 df3d
000002c0: 00a4 693d 0951 ae3d 729c 673c 239f b23d
000002d0: 1888 c13c 6859 073e 461d 10be a05e e93d
000002e0: a8d9 5d3d 87f6 44be 8bb7 083e 7536 473e
000002f0: f779 1f3c ef82 273d c47f 2b3e f2c5 4e3e
00000300: 7ae8 0b3e e9cd 673c aa84 8d3c 0466 213e
00000310: 69c3 36be 6495 373e 05f0 04be fdfc 2bbe
00000320: 0987 393e 93fb 3cbe c399 0fbe fd5c b8bc
00000330: 80bf 6ebd ad3f 1dbe 6ae6 c53d b486 8d3d
00000340: 2ee1 043e 5668 4d3e 35af 41be e3c9 98bd
00000350: 4e46 aabd 943c 363d 7ceb eb3b fce6 6dbd
00000360: 3f49 ccbc 44b7 4c3d 726c 633a 625b 943c
00000370: 9a81 583e f486 593e 70a6 33bd 45cb 17be
00000380: 9062 073e 6964 693d 4498 c63d 3f62 e6bd
00000390: a1f1 313e 1b11 8b3d 4521 433e 30bc 173e
000003a0: 7753 573e 4dd1 b33d fc79 9f3d 302d 533b
000003b0: e261 f13d bde7 2a3e 6098 bfbc 588a 023e
000003c0: 8f81 b3bd 36d2 a6bd 3270 5ebe 4123 14ba
000003d0: 1c14 19be f324 cf3d 9f0a 0bbe a101 ebbb
000003e0: cf31 6abd 0ffa 3c3e f725 88bd d675 4a3e
000003f0: 2d8e 08bb 8d26 573e 1927 353e b469 a2bd
0.050205417 0.16996598 0.05774152 -0.03787129 -0.21163975 0.19508207 -0.15155499 0.16876407
-0.1331998 -0.20013128 0.16877005 -0.054284867 0.09846392 -0.18137267 0.08172469 0.03328278
0.06876394 -0.062175974 0.06665817 -0.20972292 -0.15818313 0.18553895 -0.135378 0.06296278
-0.010638197 0.19359364 0.005878628 -0.13325526 -0.087243594 -0.15563528 -0.13269545 -0.2077186
-0.104989655 -0.0030926801 0.14953889 -0.042697266 0.0059394906 -0.21017781 -0.15934156 -0.14042069
-0.19239385 0.18584974 -0.18167701 0.006420607 -0.11103621 -0.14601333 -0.076946415 0.097258165
-0.1726411 -0.04988929 0.014322586 0.027275702 0.11321136 0.18000129 0.103450015 0.18920125
-0.106102474 0.12186624 0.1086781 0.07882834 0.17156635 0.04992302 -0.062333852 -0.051495306
-0.14743413 0.093215264 0.106441215 0.055975724 0.028117958 -0.050306886 -0.10561964 0.032954298
0.16881315 -0.005777159 0.14481594 0.14739615 -0.032605533 0.20824501 0.15323468 -0.13646716
-0.07773481 -0.11000452 -0.13901418 0.14707707 0.07733208 0.12086056 0.0054077962 -0.042873114
-0.033643242 -0.025282538 -0.06626813 -0.21080339 -0.1908544 0.03753028 -0.17469434 -0.05381248
-0.13306141 -0.07379245 -0.08927332 -0.11442355 0.09686862 -0.10420232 0.065789156 0.074292585
-0.05480842 0.18178193 -0.011647051 0.06621982 0.010958932 -0.18437804 -0.04914842 0.034275178
-0.01772257 0.20250557 -0.16823494 0.058265246 0.1755562 -0.07813628 -0.20931615 0.033318795
-0.15164663 0.09347114 0.14662592 0.17566803 0.12195151 0.031511623 -0.020595938 0.0999649
0.029130377 0.008632913 0.1351881 0.022722632 0.016476732 0.050501604 -0.024479736 0.1840316
0.12983531 0.010726281 -0.04671774 -0.20097433 0.04135127 -0.16483523 -0.12317884 -0.13271193
0.08103721 -0.0012634605 -0.1194962 0.16837034 -0.183665 0.1994436 0.05344605 0.15250325
-0.09785566 -0.07650549 -0.1921931 -0.08033466 -0.017597962 -0.10565231 -0.18577242 0.028323332
-0.12693594 0.011389616 -0.104260944 0.1095095 -0.14157109 -0.1712088 0.066937506 -0.20872803
0.16434433 0.20046918 0.20187034 -0.10680826 0.16795957 0.08140004 0.21434893 0.109356925
0.05704117 0.0851155 0.014136421 0.08721759 0.023624465 0.132177 -0.14073667 0.113950014
0.05416265 -0.19234668 0.13351266 0.19454367 0.0097336685 0.040896352 0.16747957 0.20192698
0.13662902 0.014148214 0.017275173 0.15761572 -0.1784798 0.17928082 -0.12982185 -0.16795726
0.18117918 -0.18455343 -0.14023499 -0.022505278 -0.058288097 -0.15356322 0.096630886 0.06910458
0.12976524 0.20059332 -0.18914492 -0.07460382 -0.08314191 0.044491366 0.007199703 -0.058081612
-0.02493727 0.049979463 0.00086755224 0.018109981 0.21143189 0.21242887 -0.0438599 -0.14823635
0.13221192 0.056980524 0.09697011 -0.11249208 0.1737733 0.06790372 0.1905566 0.14817882
0.21027933 0.08780155 0.077869385 0.0032222979 0.11786248 0.16689964 -0.023388088 0.12748086
-0.08764946 -0.08145563 -0.21722487 -0.0005651005 -0.14949077 0.101144694 -0.1357827 -0.007171825
-0.057176407 0.18454765 -0.06647866 0.19771513 -0.0020836696 0.210108 0.17690696 -0.079303175

actor.fc2.weight f4 [128, 256]
00000000: 6dae 16bd fdbc 033d 8a82 13bd e0ad 9cbb
00000010: 9e37 dabc 0c84 8ebc 31e4 713d ad12 503d
00000020: 61ef 46bd 5029 00bc d1a9 793d 4846 5c3c
00000030: 4d6e 1e3d af10 9cbb 0783 87bc baac 51bb
00000040: 71b2 adbc bdfe 8e3b fe1b d43c 8fa1 0bbd
00000050: 0331 d5bc f90a 9c3c 4df4 463d 9ae3 a63c
00000060: 9117 95bc f980 0dbd 7d12 83bc 59f7 81bb
00000070: a696 3a3c 5ee0 7c3d 7845 0f3d 8bcd 4bbc
00000080: e44e 37bd 1b86 f8bc 6265 01bd f4a0 f93c
00000090: a6ea 50bd 624b ea3a c9f7 033d 4d21 153d
000000a0: db5d 743d 9164 78bd 980c 723c c6f2 053d
000000b0: 6c35 4cbd adb5 15bd 964d d4bc 1d1b eaba
000000c0: 6cae ba3c 5ad1 0a3d 3ece 75bc 8d88 2c3d
000000d0: c406 08bb f495 593d b5e7 3b3c c9ce fa3c
000000e0: d731 393d 601d f03c 6254 bf3a 0c3b 383d
000000f0: a9c5 e43c dc23 5dbd 4f18 e1bc 4c50 563d
00000100: 038e 993c fa79 06bd 5219 ca3c b49c 4cbd
00000110: ad87 ddbc 903b 2e3c 1e70 b2bc 8daa 753d
00000120: 7e1b 88bc d200 ddbc 838c e83b 8577 fbbc
00000130: dcc0 90bb 0505 633b c25e 73bd 2a50 2e3d
00000140: 0593 163c d374 c3bc 0137 873a 169a 4a3d
00000150: 647c 573d ec87 70bc 3b63 1bbd efc2 75bd
00000160: 6700 13bc 5ad2 76bd d0a8 2a3d a121 f6bc
00000170: 9664 76bd 9368 14bd 11c4 46bd 9cc5 103c
00000180: 4db5 e93c b1f7 bbbc 6b9e 65bd 7843 31bd
00000190: 6b47 7cbc 2429 e6bc f964 9e3b dc9f 72bd
000001a0: f0ba fdbc 3608 6f3c a832 db3c 0a47 13bb
000001b0: 4354 36bd d8a3 f63c c930 b3bb 7c24 183d
000001c0: ed3d 063b 96f3 e3bc f937 b1bc de94 edbc
000001d0: 3863 a038 c931 303d 44a0 5c3d 2b40 43bd
000001e0: c8c6 a8bc 9448 9a3c 65fb 0e3d af3d 6b3d
000001f0: 0cae 11bc 71f0 38bd 200d fdbc bde8 213d
00000200: 6ed0 c5bc d4f7 4f3d ff2d 193c 0b2f 983b
00000210: 71b7 c2bc e95e a43c 785a 01bd 1774 183d
00000220: d92b af3c 4653 70bd d62c 81bc 6f33 243d
00000230: 8f3d 67bd f38c 213d 854a 9f3c e5d9 2b3c
00000240: d24a 5bbd b57d ceba 24ee 03bd 8cd2 fcbc
00000250: 3236 7cbd e913 1d3d 8a8e 5c3d c6ca f2bc
00000260: 1468 4bbd 2698 51bb e6b6 6dbb 1bb5 173c
00000270: bcf6 b7bc b244 3e3d f2a8 43bc 12ee 2abd
00000280: 6eff 713d 70e2 b53b 1b19 533d 4ac8 04bd
00000290: 3b4d 5e3d faa9 6abd d884 433b d728 1abc
000002a0: 401a 4abd 81b5 2e3d 27a3 7c3d 3e73 043d
000002b0: cc68 5a3d 6c9d ab3b 54e3 623d 049d 413d
000002c0: 38aa 74bd 1bc6 c4bc 3736 fa3c 64c6 453d
000002d0: 6437 e03b f1ed 6cbd 0d20 a7bb bec5 1f3c
000002e0: c5eb fcbc 7411 41bd c558 cb3c 2589 fcbc
000002f0: d3a7 27bd 5028 06bc ac86 8a3c f481 343d
00000300: ed7a 1abd a045 093c 2311 913c 5f5e 64bd
00000310: 8e5d 0bbb e98d 8cbb a81a bc3c dae2 0b3d
00000320: a99b e93c 5963 44bd 1c79 f1bc e87c 1ab9
00000330: 0d62 ee3c 74c6 413d 51f7 66bd 5f32 553d
00000340: c708 d5bc e076 57bd a281 7d3d 0097 653a
00000350: bb30 523c af36 233d 6a68 fc3a fdc8 053d
00000360: 48f3 65bc 92c5 2e3d 8fa4 fb3c ff29 383d
00000370: 4e44 543d 07cd f1bc 36e9 be39 5ee5 8dbc
00000380: a661 43bd dbc5 48bd 4a35 5f3c 3d34 abbc
00000390: 9a75 a4bc a974 683d e493 debb 6a3c 793d
000003a0: 81b6 973c f402 623b ce06 083d 97a8 34bd
000003b0: e50b 5c3d 6a47 4bbd 000c 9a3c b5df 633d
000003c0: 2a48 6abc 3434 323d 9621 c33c 149f 2dbc
000003d0: b805 493d efc2 0cbd 4796 7b3d 8a17 79bd
000003e0: 5f4b 743d 4388 04bd 55a6 25bc 9c92 40bc
000003f0: ea48 6ebd 3448 a4ba 52da 8c3c 6671 64bd
-0.03678744 0.032162655 -0.036013164 -0.0047814697 -0.026637848 -0.01739695 0.05905551 0.05079906
-0.048568133 -0.00782235 0.060952965 0.013444491 0.03867941 -0.004762731 -0.01654197 -0.0031993822
-0.021203252 0.0043638633 0.025892254 -0.03408962 -0.026024347 0.0190482 0.048572827 0.0203722
-0.018199714 -0.034546826 -0.016000027 -0.0039662537 0.011388456 0.06173741 0.03497836 -0.012439142
-0.04475297 -0.030337384 -0.031590827 0.030472256 -0.05100503 0.0017875249 0.03221873 0.03640871
0.05965982 -0.060642783 0.01477351 0.03270223 -0.049855635 -0.036550213 -0.025915902 -0.0017860864
0.022788249 0.03389106 -0.015002785 0.042122412 -0.0020755986 0.053121522 0.0114688175 0.030616181
0.045213547 0.029310882 0.0014597292 0.044978186 0.027926283 -0.053989276 -0.027477412 0.05232267
0.018744474 -0.03283117 0.024670277 -0.04995413 -0.027042234 0.010634318 -0.021781977 0.059977103
-0.016614672 -0.02697793 0.0070968284 -0.03069664 -0.004417522 0.0034640443 -0.05941654 0.04255692
0.009190326 -0.023859417 0.0010316075 0.049463354 0.052608863 -0.014680844 -0.03793643 -0.060000356
-0.008972264 -0.0602592 0.0416649 -0.030045332 -0.06015452 -0.036232542 -0.048526827 0.008836176
0.028528834 -0.022945257 -0.056059282 -0.043277234 -0.015397887 -0.02809579 0.004833814 -0.059234485
-0.030972928 0.01458936 0.026757553 -0.0022472763 -0.044513952 0.030107424 -0.005468462 0.03714417
0.0020483688 -0.027826112 -0.021633135 -0.02900165 7.6478755e-05 0.04301623 0.05386378 -0.047668617
-0.020602599 0.018833436 0.034907717 0.057431873 -0.008891594 -0.045151178 -0.030890048 0.039528597
-0.024147239 0.050773457 0.009349345 0.00464428 -0.023769112 0.020064788 -0.03158042 0.037220087
0.021383213 -0.058673166 -0.01576845 0.040088113 -0.05645519 0.03944106 0.019444713 0.010488962
-0.05353815 -0.0015754016 -0.03220953 -0.030862115 -0.061575122 0.038349066 0.053846873 -0.029637706
-0.049659804 -0.0031981557 -0.0036272346 0.0092594875 -0.02245652 0.04645223 -0.011942135 -0.041730948
0.059081487 0.005550675 0.051537614 -0.032417573 0.05427287 -0.05729101 0.002983382 -0.009409151
-0.04934144 0.042653564 0.06167903 0.032336466 0.0533226 0.005237272 0.05539258 0.047268882
-0.059732646 -0.024020245 0.03054343 0.048284903 0.0068425406 -0.057844106 -0.0051002563 0.009751735
-0.030874142 -0.047135785 0.024822602 -0.030827114 -0.040931534 -0.008188322 0.01690992 0.044069245
-0.037714887 0.008378416 0.017708367 -0.05575406 -0.002126548 -0.004289378 0.02296193 0.03415189
0.028516607 -0.047946308 -0.029476695 -0.00014733116 0.029099489 0.0473084 -0.056388203 0.05204999
-0.026005162 -0.052603602 0.061891206 0.00087581575 0.012829001 0.039847072 0.0019257192 0.03266238
-0.014035054 0.042668886 0.030718116 0.044961926 0.051822953 -0.02951671 0.0003641338 -0.017321285
-0.047700547 -0.049016815 0.013623545 -0.020898933 -0.020075608 0.05675188 -0.0067925323 0.06084863
0.018519642 0.0034486623 0.033209614 -0.044106092 0.05372228 -0.049628653 0.01880455 0.055633266
-0.014299432 0.043506816 0.023819726 -0.010597009 0.04907772 -0.03436559 0.061422613 -0.060813464
0.059642192 -0.03235651 -0.010110457 -0.011753704 -0.058175005 -0.0012533725 0.017193947 -0.055772208

actor.fc2.bias f4 [128]
00000000: 376b d93c 6ea1 b0bc 9672 7abc 305f 4dbb
00000010: d7cc 763d 02cf ddbc 7de7 b0bb ffe1 3d3d
00000020: 4637 343d 4971 763c b47e 08bd 806f 0d3d
00000030: 0d19 3abc c2a9 233d 0fac 753d 2c45 debc
00000040: 8984 5e3c 6468 3bbd 5882 22bd 5fa6 7e3c
00000050: da06 7a3d 840d f63c e71c 363d 6d9a 2b3d
00000060: f3ec 06bd 1b81 303d 7b1a 4c3d aa7a 443d
00000070: 7867 1a3d 31b7 21bd c130 593d 8150 08bd
00000080: 4554 9cbc ba03 5a3d b788 253d 76d0 2d3d
00000090: c7bb 533d 54ef 673d a9ba aa3c da11 1ebd
000000a0: fbe5 803c 25d8 dfbc ba59 7bbd 7ceb 543d
000000b0: b106 d53c c340 40bd d26c 7dbb 4d29 0bbc
000000c0: ffbb e6bc a50f cabc c02f 40bc a9cd e3bc
000000d0: 9ecf 33bd 7525 04bd 3f05 d93c 0cf4 2e3d
000000e0: 1698 243d f0e5 5cbd 6846 46bd dcec 9d3c
000000f0: 8dec 18bd 75da 4dbd a7f7 1c3d 324f 34bc
00000100: d62d 003d d0c5 99ba 6aa2 5fbd 710f 653c
00000110: 68c6 fa3c 4a20 cb39 dfaf 8fbc 10d4 d3bb
00000120: 8078 543c d614 b7bc f26c 68bd 9e45 34ba
00000130: ae7c 26bd 1bd0 21bd 1130 55bb 6081 1e3c
00000140: 9a91 633d 064f 6bbc 549f e63b 1e60 a33c
00000150: b8b7 5dbd 0e0c 6b3d 7f49 063d 0289 68bd
00000160: b0a9 4d3d 73de aebc 7e38 7e3d 7708 b03b
00000170: 25ee 11bd eeef e2bc 585b 143b 2951 a2bb
00000180: b1f4 ea3c b524 a33b 94d6 9f3b a2c7 2d3c
00000190: d427 99bc f259 6abd a9b0 afbc 19ae 12bd
000001a0: 39a5 ec3c 703e 82bb b98c 59bd 74f3 903c
000001b0: 2647 503d 2cb9 bcbc d566 afbb b4c2 c03b
000001c0: 2c7a 653d ad8a f1bc 461b 6e3d 97b4 bebc
000001d0: bcf0 793c e047 983c cf58 22bd 6136 b2bb
000001e0: 61f2 5abd e7fd a7bc 1dd7 103d e712 dfbb
000001f0: 9325 26bd 9103 8cbc 6e2d 75bd 3343 4ebd
0.026540382 -0.02156135 -0.0152861085 -0.0031337254 0.060253944 -0.027076248 -0.0053986893 0.046358105
0.043998025 0.015041658 -0.03332396 0.034530163 -0.011358512 0.039956816 0.05997854 -0.027132593
0.0135814035 -0.04575385 -0.039675087 0.015542596 0.06104169 0.030035742 0.044461157 0.04189532
-0.032940816 0.043091875 0.04982994 0.047968544 0.03769633 -0.039481346 0.05302501 -0.0332799
-0.019083152 0.05322621 0.040413585 0.042435132 0.05169275 0.056624725 0.02084096 -0.038591243
0.015734663 -0.027324745 -0.061364867 0.051982388 0.026004167 -0.04693676 -0.0038669598 -0.008493734
-0.028165815 -0.024665663 -0.0117301345 -0.027808027 -0.04389917 -0.032262284 0.02649176 0.04271321
0.040184103 -0.053930223 -0.04840699 0.019277982 -0.037334967 -0.050257165 0.038322117 -0.01100521
0.031293713 -0.0011731926 -0.05459825 0.013980732 0.030612186 0.00038743234 -0.017539917 -0.006464489
0.012968183 -0.022348803 -0.056744523 -0.0006876829 -0.040646248 -0.039505105 -0.003252987 0.0096744
0.05555878 -0.014362102 0.0070380364 0.019943293 -0.054130286 0.057384543 0.032784935 -0.056771286
0.050210655 -0.021346306 0.062065594 0.005372103 -0.035627503 -0.027702298 0.0022637453 -0.0049535227
0.028681131 0.004978741 0.0048778746 0.010606678 -0.01869575 -0.057214685 -0.021446543 -0.035810564
0.028887378 -0.0039747283 -0.05311272 0.017694212 0.050849102 -0.023037516 -0.0053528347 0.0058825854
0.056024715 -0.029485071 0.05813148 -0.023279471 0.015255149 0.01858896 -0.039635476 -0.0054386114
-0.053453807 -0.020506812 0.035361398 -0.0068076733 -0.040563177 -0.017091544 -0.05985778 -0.050357055

actor.policy_head.weight f4 [50, 128]
00000000: b4aa 6039 31bc 7c3d b0d0 22bc 19b3 353c
00000010: 772b b03d d921 023c 433a a7bd 400f 5e3c
00000020: d37d e6bb 03e2 fcbc c65d 22bd d974 8cbc
00000030: 4cd2 993a 1998 9d3c 93c2 a9bd 6567 973d
00000040: f5ea 8e3c 3ffb 0abd c19a 95bd 45df 40bd
00000050: dafd 543d cd1b 863c 5ead 533d dc44 083d
00000060: 5bf7 93bd b974 913d ce1a 94bd a2ff aebd
00000070: 8c7f b73b 93a5 283b c72b 323d d83d 853d
00000080: 9e1a 6bbd f44c 903d f4ac 04bd 85e0 99bd
00000090: e446 02bd 602c 833d a25b 513d c45d 953d
000000a0: 87c2 b2bd 6138 393d 5a60 1b3c a6b9 9ebd
000000b0: 8434 cfbc 626a 8f3d 6258 293d 290d 91bd
000000c0: 568e 1b3d 4777 cf3b 573b d63c 7dda a23c
000000d0: a555 65bc 8f21 ff3c 2f19 143d ae3c aabd
000000e0: d356 90bd 255f 883d 973e 773d 6b2a 7fbd
000000f0: 9b6e 68bc cd0d 5c3d 78ef 803b 0a58 883d
00000100: 3b41 a4bd cd87 81bd 8791 eb3c 1360 3abc
00000110: e4a1 9c3c 0e76 453c 44a3 6c3b 1f11 37bc
00000120: 3695 cf3c 6103 703d 39de 853c b3f7 67bd
00000130: c185 9a3d 8c17 b93c 8d65 9c3d c949 133c
00000140: 79ab 253d 2237 05bc b3d5 5e3d 7206 75bd
00000150: dcb1 0cbd 7278 32bd 3aa0 57bc 143d 85bd
00000160: 6750 a3bd 10ba 473d c1a4 a53b 0a99 d83b
00000170: be58 25bd e193 96bd 89f6 18bb 2149 a93d
00000180: 5091 84bc ad6e 103d 4f88 c73b b1ce b2bc
00000190: 0de1 5fbd 326e eabc 13a0 35bc 4059 4cbc
000001a0: ef70 1a3d 3884 a7bc 3fc5 de3b 7bfe 8ebc
000001b0: 4068 8bbd 1660 b83b e062 da3b 28e2 36bb
000001c0: f441 bebc bf61 9bbd 93a9 92bd cd86 373c
000001d0: d2fb 4bbd 6ef8 b03d 7192 5f3d 13ed 6d3d
000001e0: 6007 b5bc c893 7ebd 569d b03d c3e1 cebc
000001f0: 4d59 2c3d f8c6 b2bc 9a7e 1d3d 3cc5 783a
00000200: 402a a9bd e605 563d 7fe6 67bc 701d 14bd
00000210: e95f 8cbd 4cf3 05bd 0a17 853d 8167 843d
00000220: 3204 a23d 26f4 823d 0eae a43d 4f88 38bc
00000230: 461b ff3c 156c ae3d 10da 853d 394b 723d
00000240: be21 c4bc 2048 66bc 676d f73c e9da 8d3d
00000250: f9c9 b4bd ebc8 363d 051f 54bb 305a 823d
00000260: b72d ac3d 9fdc 4d3d 589f 663d bf83 c23c
00000270: 3dcb 543d 7852 38bc 138f a73d 412b 38bd
00000280: 0908 cdbc 448d 963c 2b8c 913d 85a0 35bb
00000290: e0e2 72bd 9010 24bd 93a3 25bc e288 993d
000002a0: a75e 9a3d 4f49 453d 7d9f 86bb 3377 913d
000002b0: 4520 5bbd 7dfe 913d 4781 903d e10f 8a3c
000002c0: de4e 673d baa8 bb3c 1faf f2bc 4541 58bc
000002d0: a946 77bc 7d4c a83d 1768 403b e033 0ebd
000002e0: ea69 623d 5135 663d b2fc dc3c fe6f acbc
000002f0: 9ff4 8fbd e678 b23d 849a 7d3d f5ca 82bd
00000300: f9d8 b23d 816c 62bd 0fb1 b3bd 93f4 03bc
00000310: eb49 f23b 3119 ab3c 9ac8 0fbd 83cb 80bd
00000320: 37e9 24b9 71f7 25bd 1b8b 2abd 117e 49bd
00000330: de01 163d b881 32bd f3be 9d3d dd60 56bd
00000340: 1580 9cbc 0401 6abd bf66 993d dab9 25bd
00000350: 210e afbd 2dce aabd 306c 58bd 9083 553d
00000360: ab3a a1bd e0e7 adbd 84d6 feba 8001 eabc
00000370: 503c 953d 48f5 2cbd 1083 6ebd edd3 ec3b
00000380: 70d7 26bd cda9 a73d 6d30 093d c367 5abd
00000390: 13f1 4a3d 9998 8f3d bdff 71bd 7a2f 29bd
000003a0: 1d49 97bd e27d e13c be1a a5bd 1544 65bd
000003b0: 1664 0c3d c5aa af3d d5f7 813c 7fb0 fbbc
000003c0: e86e 49bd 87cd 723d 7179 1bbd 7592 f6bc
000003d0: 13f1 9dbd 1f16 4b3d 4d3b 32bd 7bbe 3f3c
000003e0: e526 1f3d fb77 8c3b 0ac5 83bc 1769 8b3d
000003f0: 43f5 0d3d 7e5c a3bd 7373 59bd de57 d83c
0.00021425897 0.06170291 -0.00993745 0.0110900635 0.0860204 0.00794264 -0.081654094 0.013553441
-0.0070340424 -0.03086949 -0.03964021 -0.017145561 0.0011735647 0.019237565 -0.08289065 0.07392768
0.01744602 -0.033931013 -0.073049076 -0.047087926 0.051999904 0.016370678 0.051679008 0.033268794
-0.07224914 0.07102341 -0.07231675 -0.08544852 0.0055999216 0.0025733456 0.04349878 0.065059364
-0.05739843 0.07045928 -0.032391503 -0.07513527 -0.031805888 0.06404948 0.05111278 0.07293275
-0.087285094 0.045219783 0.009483421 -0.077502534 -0.025293596 0.07002713 0.041344054 -0.07082588
0.03797754 0.0063313576 0.026151342 0.019879574 -0.01399747 0.031143932 0.03615683 -0.08312355
-0.070478104 0.066587724 0.060362425 -0.062296312 -0.014186527 0.0537241 0.003934797 0.06657417
-0.08020254 -0.0632473 0.028755916 -0.011375445 0.019120164 0.012052072 0.0036108056 -0.011173516
0.025339704 0.058596972 0.016341316 -0.05663271 0.07545043 0.022594236 0.07636557 0.00898976
0.040446732 -0.0081308205 0.05440302 -0.0598206 -0.034349307 -0.043571897 -0.01316076 -0.0650579
-0.0797432 0.048761427 0.0050550406 0.0066100406 -0.040367834 -0.073524244 -0.0023340306 0.08265901
-0.016182572 0.0352618 0.0060892473 -0.021827074 -0.054657985 -0.028616998 -0.011085528 -0.012472451
0.037705358 -0.020448789 0.006798416 -0.01745533 -0.068069935 0.0056266887 0.006664619 -0.0027905796
-0.023224808 -0.07587003 -0.0716125 0.011201573 -0.0498007 0.08641134 0.054583017 0.05808742
-0.022098243 -0.062152654 0.086237594 -0.025254136 0.04207735 -0.021823391 0.038450815 0.00094898394
-0.08260012 0.05225172 -0.014154076 -0.036160886 -0.06854231 -0.03270273 0.06498535 0.06465054
0.079109564 0.06394224 0.08041011 -0.011262967 0.031140935 0.08516709 0.06535733 0.05915377
-0.02394187 -0.014055282 0.030203534 0.069265194 -0.08827586 0.044625204 -0.0032367122 0.06364858
0.08407157 0.05025923 0.056304306 0.023744462 0.051951636 -0.011250131 0.08181586 -0.044963125
-0.025028246 0.018377908 0.07106813 -0.0027714085 -0.059298396 -0.040054858 -0.0101098 0.074968114
0.07537585 0.048165616 -0.004108368 0.071028136 -0.05349757 0.07128618 0.07055908 0.016853275
0.056471698 0.022907604 -0.02962452 -0.013199155 -0.01509253 0.08217714 0.0029358917 -0.03471744
0.05527679 0.05620319 0.026975963 -0.021049496 -0.0702908 0.08714466 0.061914936 -0.06386367
0.087327905 -0.05527926 -0.087740056 -0.0080539165 0.0073940656 0.020886036 -0.035103418 -0.06288817
-0.00015727138 -0.04051918 -0.041636568 -0.049192492 0.036622874 -0.04358074 0.07702436 -0.05233847
-0.019104043 -0.057129875 0.074903004 -0.040460445 -0.08547617 -0.08340106 -0.05283755 0.05212742
-0.07872518 -0.08491492 -0.0019442593 -0.028565168 0.07286894 -0.042226106 -0.05823046 0.007227412
-0.0407328 0.08186684 0.033493448 -0.05332161 0.049546313 0.070115276 -0.05908178 -0.041305043
-0.07386992 0.027525846 -0.08061741 -0.05597313 0.034275137 0.085774936 0.015865246 -0.030723808
-0.049178034 0.059278037 -0.037957612 -0.030099133 -0.07711997 0.049581643 -0.043513585 0.011703129
0.038855452 0.0042867637 -0.016085166 0.06807154 0.034657728 -0.07976626 -0.053088617 0.026409086

actor.policy_head.bias f4 [50]
00000000: 111b 0dbd 18e8 2bbd 9334 fbbc e5fb 633d
00000010: bbee 523d 0d90 26bd b39f 97bd e911 8cbc
00000020: c587 093d 300b c0bc ebd1 12bd a478 a5bd
00000030: bb95 9ebd de83 3fbd 7b46 b83c a539 a43c
00000040: d72c 9c3d 06eb 863d 585f 953d 0218 2a3d
00000050: 3db2 6cbd 4cb4 42bb 3fd9 0fbd 469b 68bd
00000060: 8b03 b1bd c686 73bc a6d5 75bd 4c5f 5a3d
00000070: 9624 67bd ae7d 8bbd 07c0 1fbc a2e1 c4bc
00000080: d604 68bd e449 7a3d 0e75 343d 8fb0 643b
00000090: 8bf6 a83d 772f abbc f23c 61bd d8ed 8dbd
000000a0: 01c0 a43d 646b 95bd b086 843d 1d0c 0a3d
000000b0: bf9c a9bc baf5 fb3c b884 f3bc 1665 343c
000000c0: 71e9 e5bc 849e 033d
-0.03444964 -0.04196939 -0.030664718 0.055660147 0.051497202 -0.04066472 -0.07403507 -0.017098384
0.033576746 -0.023442835 -0.035844725 -0.08079651 -0.077434026 -0.046756618 0.022494545 0.020047018
0.0762574 0.06587796 0.07293576 0.041526802 -0.05778717 -0.0029709516 -0.03511929 -0.056788705
-0.08643254 -0.014863675 -0.060018204 0.05331354 -0.056431375 -0.06811081 -0.009750373 -0.024033371
-0.056645237 0.061105624 0.044056945 0.0034895276 0.08250149 -0.020896656 -0.054989763 -0.06930131
0.08044434 -0.07295874 0.06471002 0.03370296 -0.020704625 0.03075682 -0.029726371 0.011010429
-0.028065415 0.032133594

critic.fc1.weight f4 [256, 21]
00000000: 527f da3d 701c 8fbd 7a15 1fbe 45db 29be
00000010: 7506 ec3d 104a 573e 5d91 2b3d a571 acbd
00000020: 06e1 393e 1246 f6bd 3cb2 3cbe 9bf0 b23d
00000030: b53c 2fbe da32 a73d a1d8 18be c84a 933c
00000040: d685 b0bd 5942 3e3e 3d47 30bc f099 1c3e
00000050: 60e6 4f3e 3381 2c3e 22d1 d8bd 8473 ac3b
00000060: d626 15be 9d1c f93d a0b4 2abe 1def 48be
00000070: a4ac c2bc 9fa4 4a3d de0b c8bc 9c10 473d
00000080: aaab 483c 4b05 143e fc3d 4b3e 76a8 d0bd
00000090: 4afe 5bbc 2ef3 63bd 3ae0 213e 6bbd 5ebe
000000a0: 354b 983d 8752 ee3d 2e81 563d 6873 e63d
000000b0: 874c 183e 3645 723d 145b 30be 75d7 1f3e
000000c0: e6bc acbc 2e06 07be a974 53be d2da 05bc
000000d0: e1e5 543e e1fa ae3d dc1c 2abe 5a0b 0ebe
000000e0: 5151 5d3e 200c 4c3b 26c8 55bd 6a7d 583e
000000f0: 4838 5abe afa5 27be 5e54 31bd 2c11 333e
00000100: ed14 35be e53d b5bc dabd 0abe 95eb f7bc
00000110: a8c8 fe3d e268 2b3e aab8 35be 0b1a c9bc
00000120: 2c17 d53c c9ca b3bd b0b6 d43d 9f38 0ebe
00000130: 775c 5f3d d552 08bd e1f3 05be 6507 363d
00000140: c536 dc3d 89a2 573e b822 54be a0b0 96bd
00000150: 36f3 c73c 5340 de3d dc56 23be 3ef8 23be
00000160: d943 013e c9a8 c53d da23 30be a277 41be
00000170: c1f6 183d d538 0a3e 1ccb ffbc fd46 d5bd
00000180: 776e 7bbd b55d b63d a0a1 433e 08bc bc3d
00000190: 918b 493e b44c 5dbe 10bd d8bd 135a 3f3e
000001a0: 9ca8 e73d 8a72 42be 0bc0 ad39 e4f3 cd3d
000001b0: da52 a3bc 548f b13d ed9b 1a3e ab95 c23d
000001c0: 1a21 d2bd 1fc2 523d e400 41be 29dd 15be
000001d0: f51b 3cbe db79 a8bd 13d6 87bd fb13 24be
000001e0: e67e d43d d788 50be 57e7 f7bd c436 4fbd
000001f0: 48ac 2fbe e42b 033e d91f b8bd 117d 9bbd
00000200: 2f67 623d 6331 92bd c446 323e e8cb 55be
00000210: 7852 43be 7ce8 403d dbf6 4d3e 374b 0abe
00000220: 710e 8fbd d249 eebd ad1d 21be cab5 143e
00000230: cbf4 2f3e 002b b0bd 7aeb 37bc aa9f 093e
00000240: ac4d 2d3d 300c 573e 2d5e 44be cc58 1b3d
00000250: 4f3e 1a3e 6e3f a6bc 3e88 45be 7b1d ac3c
00000260: 2a1c cbbd e15c 37bd 3bae b93c 6266 40be
00000270: 6094 36be c6ef 853d ff3f fbbd 36d8 cf3c
00000280: 5f0b 543e 789d 963c 77ce 36be 1a37 973d
00000290: a748 223d 0af9 39be 7568 07be f63c 1abe
000002a0: d2c5 beba 34c5 5bbd 40b6 413d 542e eebd
000002b0: 78a1 38be c285 52be ec4e 5e3e 0160 30be
000002c0: 9141 a93d c6f6 543d aad3 193e 15eb 1e3e
000002d0: 3751 233e 7509 d63d 0e1e 0e3d 1e8a 4c3e
000002e0: 143d fe3d c8f9 313e 0123 283e a74c 18be
000002f0: 63ca 8dbc 4c72 47be 8a22 0b3e d404 c53c
00000300: 3268 043d 3c55 e83d b87e 5e3e d683 46be
00000310: 2e07 debd c106 803d a33a b93d 7c02 25be
00000320: 7e7e 1abe 5d0d 4dbe b02b 1dbd ebf7 3fbe
00000330: e044 5c3d ad6c 37be 1ff1 e7bd 66cc b1bd
00000340: a191 8bbd 991a da3d 72fb 3fbe 2d1d 953d
00000350: 2746 12be cba5 1ebe 7e87 243e ccb3 0e3e
00000360: 8a10 2dbd 8da0 0ebe 4df2 31be 6ffa 133c
00000370: d269 ec3d fef1 27bd 700f d13d c1f6 773d
00000380: b7b2 253e 6127 483e 17c2 21be 224b 763d
00000390: 1717 c53d 3e0f 92bd f73e 893d 65f1 f2bd
000003a0: b2eb aa3d 9cdc b33c 4081 5dbc 1370 3c3d
000003b0: 556b e53d 9969 51be 8583 103e 87c5 263e
000003c0: 002d 27be 4867 3f3e 1e30 09bd 09f6 0cbe
000003d0: f8eb 263e 7980 34be e5ec 4e3e b2b5 3e3d
000003e0: c228 fd3d c004 e339 2815 d6bd 3e96 42be
000003f0: 1eff 013d 0467 0b3d 2774 c8bd e741 b6bd
0.10668816 -0.06987846 -0.15535536 -0.16587551 0.11524669 0.21024346 0.041886676 -0.084201135
0.18152246 -0.120250836 -0.18427366 0.08737298 -0.17113002 0.08163996 -0.14926387 0.017979994
-0.08619277 0.18579997 -0.010759172 0.15293097 0.20302725 0.1684616 -0.10586764 0.005262794
-0.14565596 0.12163661 -0.16670465 -0.19622464 -0.023763962 0.0494734 -0.024419721 0.048599824
0.012247959 0.14455144 0.19847864 -0.101883814 -0.013427326 -0.055651836 0.15808192 -0.21751945
0.074362196 0.116368346 0.05236929 0.11252481 0.14872943 0.059148036 -0.17222244 0.15609534
-0.021086168 -0.13185951 -0.20649971 -0.008169847 0.20790817 0.08543945 -0.16612571 -0.13871518
0.21613051 0.0031135157 -0.05219283 0.21141592 -0.21310532 -0.16371797 -0.04329335 0.1748702
-0.17683764 -0.02212424 -0.13548985 -0.030263701 0.12440616 0.16739228 -0.17746225 -0.024548551
0.026012026 -0.087789126 0.103864074 -0.13888787 0.05453154 -0.03328212 -0.13081314 0.044440646
0.10752634 0.21058096 -0.20716369 -0.07357907 0.024407964 0.108521126 -0.15951103 -0.16012666
0.12623538 0.09651334 -0.17201176 -0.18893293 0.037344698 0.13498242 -0.03122478 -0.104139306
-0.061384644 0.08904592 0.19104624 0.092155516 0.19682147 -0.21611291 -0.10582936 0.18686704
0.113114566 -0.18989006 0.00033140215 0.10056284 -0.019936968 0.08669916 0.15098543 0.09501203
-0.1026022 0.05145466 -0.18847996 -0.14635147 -0.1837004 -0.08226367 -0.06632628 -0.16023247
0.103757665 -0.203647 -0.121046714 -0.050589338 -0.17155564 0.12809712 -0.089904495 -0.07592214
0.055274185 -0.07138326 0.17409807 -0.20878565 -0.19074428 0.047096714 0.20113699 -0.13505255
-0.06985176 -0.11635174 -0.15733977 0.14522472 0.17183225 -0.086019516 -0.011225576 0.13439813
0.0423104 0.21000743 -0.1917655 0.03792648 0.15062831 -0.020293918 -0.19290254 0.021010151
-0.09917481 -0.04476631 0.022666087 -0.18789056 -0.17830038 0.06539874 -0.12268066 0.025371652
0.20707463 0.018385634 -0.17852198 0.07383557 0.039620068 -0.18161407 -0.13223441 -0.15062317
-0.0014554805 -0.053654864 0.047292948 -0.1162993 -0.18030345 -0.20558837 0.21709794 -0.17224123
0.08264459 0.051993154 0.1502215 0.15519364 0.1594895 0.104510225 0.03469663 0.19974563
0.124139935 0.1738044 0.16419603 -0.1487299 -0.01730842 -0.19477195 0.13587394 0.024050154
0.03232593 0.11344382 0.21728027 -0.19386229 -0.10841213 0.06251288 0.09044387 -0.16114229
-0.15087315 -0.20024629 -0.03837174 -0.18746917 0.05377662 -0.1791255 -0.11325287 -0.08681564
-0.06814886 0.10649604 -0.18748263 0.072809555 -0.14284573 -0.15492932 0.16067311 0.13935775
-0.0422521 -0.13928433 -0.17377587 0.009031876 0.11543621 -0.041002266 0.102080226 0.060538057
0.16181456 0.19546272 -0.15796696 0.060130246 0.09623545 -0.071318135 0.06701463 -0.118624486
0.083457366 0.02195578 -0.013519585 0.04600532 0.112021126 -0.20450439 0.1411267 0.16286288
-0.1632576 0.18691742 -0.033493154 -0.1376573 0.16300952 -0.17627133 0.20207556 0.046559997
0.123612896 0.00043300353 -0.10453254 -0.19002625 0.03173744 0.03403379 -0.09787779 -0.088992886

critic.fc1.bias f4 [256]
00000000: 4c2d b6bb c9ee f73d 5e85 34be b344 2b3e
00000010: 803b 43be 9227 1dbd e9c1 343e 8b6a ef3d
00000020: fc64 173e 1a1f 3c3e a3d2 313e edf6 93bd
00000030: f7f4 85bd 832e 4abc b494 a2bd d5b1 073e
00000040: d746 c73d f249 fc3d d069 8a3c 5436 e6bc
00000050: 49bc 433e 1be4 40be 5cf5 11be ecfa 043d
00000060: cd9e e8bd 71db 003e 7086 c6bd c498 893d
00000070: 91e5 0cbe 8955 e9bc 43af 2c3e afe7 263e
00000080: 0795 a43d 978e 32be 25c6 ca3c 1bf6 1cbe
00000090: e57a 94bd 8c7e 463e 53ab 403e f95a db3d
000000a0: 6278 3b3e c36d 5a3e e07b 11be bfa9 cd3d
000000b0: d36d 9dbd 2b0e 5abd 9034 52bd 5070 573d
000000c0: c47a a43b a66d 11be 20fc 3abe c5c4 d53d
000000d0: 14a9 2fbe 57fc 823c 6ed0 5bbe 29b5 2f3e
000000e0: 30d5 823d 1770 f9bd e442 45be f9c4 20be
000000f0: ee61 eebc ba07 e6bb 4f59 733d dde1 0c3d
00000100: 8efd ca3c 4da2 3dbe bd87 5e3e 5e5e 18be
00000110: fc03 0a3e 614e a2bd 8776 ecbd afd6 0e3e
00000120: 458f 1abb a65e 913d ae94 103c 6edd 09be
00000130: 9b63 21bd 1792 febd 0b52 49be ff74 00be
00000140: c290 963d d17a 9d3d ff2b e13d f235 b4bd
00000150: faf1 db3d 513c 17bd eaba a5bd b29b 2cbe
00000160: b942 1ebe c649 793d 045b cf3d a0ba c93d
00000170: 6176 a53c 5d4d 1fbe 5355 7d3d 0ffe e3bc
00000180: 3d41 003e 748b 14be 45eb 283d 6216 f6ba
00000190: 0874 13be f086 193e 6a3b a43d 0530 0e3d
000001a0: 595b 08be 70b1 fabd f74d 14be d67b 29bd
000001b0: 50c5 603d e60f 27be d409 933c fcba edb9
000001c0: eb66 5e3e 1df0 19be b641 a43d d999 4cbe
000001d0: ed93 293c 9b6a 403e e8b2 f6bd 26f8 c6bd
000001e0: 691f eabd 2d33 5a3e 6b46 35be a635 ddbd
000001f0: f41a 37be d6a4 11be 2d08 3f3e e952 4c3d
00000200: 911b 143d ba26 8ebc 93e0 013e 7477 393d
00000210: 7407 32bd 9d7d ae3c f1dc 78bd 22a4 3dbe
00000220: b63c 2bbd 77e0 873d 5c04 e33c a87e bb3d
00000230: a912 37bc 5e87 31be 0843 4ebe 9367 523e
00000240: 0546 613d c4f5 c2bc 7de1 a53d 2028 bcbc
00000250: d902 39bd 7a62 03be defb 2ebe 91d0 913d
00000260: c645 06be 3144 5a3e 748c 423e 91c8 43be
00000270: 144b df3d cad3 573e 1aa0 903d ee8c dbbd
00000280: 165b ad3d cee4 58be 4124 153e aede 9cbb
00000290: 5ef6 a9bd 18de 58be f2a1 da3d 72f8 343d
000002a0: 2f9a c4bd 6d52 5dbe 7a74 3e3e 1ea8 2e3e
000002b0: 2f69 fdbd 559f c83c a5f8 3fbe 35a0 0dbe
000002c0: e918 73bd 83a7 563e 61e1 afbc 47c5 83bc
000002d0: 4dc6 2cbe bb71 5f3e 0ef1 4bbd cfd1 0a3e
000002e0: 9be9 333e 41b5 57be bff0 1c3e 2090 cc3d
000002f0: 6792 2f3d 145b bfbd 30ec 33be a91a 1f3e
00000300: 1656 233e 83f0 133e 0371 77bb 6217 323e
00000310: 95f1 1cbe 1618 f5bd dbe4 5d3e 0266 223e
00000320: b79a f9bb bf84 0c3e 3b69 303e 7aa0 0dbd
00000330: 230f babd f75e 103e 3771 25be cb9e 00be
00000340: d566 92bd 9ece 323e ae67 583c 1045 313e
00000350: b699 efbd 7405 d0bd 3295 9e3d 6bee 4c3e
00000360: 7372 8f3d 64fe 36be 7ec6 2f3e a40f 2dbe
00000370: ba5c 99bd b791 6e3d fbab c0bd 264c 4bbe
00000380: 9ff7 1ebd 6269 363e 02b8 f73d 7717 3b3d
00000390: 096b 4ebe e407 6c3d 66f1 053d 4332 0bbe
000003a0: bfa0 86bd 9536 ea3d 20a9 a8bd d9c3 00be
000003b0: c185 3c3e 5955 0e3e 0396 84bd b41b 4f3e
000003c0: 4d81 ba3c 95e8 39bc 839d c6bd 7749 343e
000003d0: 81ff 02bd 78dd 083e 4e87 1f3d 9d6f 38bd
000003e0: f2a5 fcbd 4ff5 d2bd cdbb 0c3d 3145 4dbe
000003f0: be1d 20be 3d42 0d3e e6d3 7ebd ed37 33be
-0.005559599 0.121060915 -0.17629 0.16725425 -0.19065666 -0.038367815 0.17652096 0.11690243
0.14784616 0.1837124 0.17365508 -0.07224832 -0.06540864 -0.012340191 -0.07938519 0.13251431
0.097303085 0.123187914 0.016896158 -0.028102078 0.19114794 -0.18837015 -0.14253753 0.03246586
-0.11358414 0.1258371 -0.09693611 0.06718591 -0.13759448 -0.02848317 0.16863732 0.16299318
0.08036237 -0.17437206 0.024752686 -0.15328257 -0.07250003 0.19384211 0.18815355 0.10710711
0.18307641 0.21330933 -0.14207411 0.10042142 -0.07686963 -0.053236168 -0.05131966 0.052597344
0.0050195176 -0.14201984 -0.1826024 0.104379214 -0.17154342 0.015989466 -0.21466228 0.17158951
0.063883185 -0.121795826 -0.19263798 -0.15700139 -0.02909943 -0.007019964 0.059411343 0.034395088
0.024779107 -0.18518944 0.21731468 -0.14879748 0.13478082 -0.07925106 -0.11546045 0.13949083
-0.002358393 0.07098131 0.0088245105 -0.13463375 -0.03940163 -0.12430208 -0.19660203 -0.1254463
0.07351829 0.07689441 0.1099472 -0.08799352 0.10739513 -0.036922757 -0.08092292 -0.16856268
-0.1545514 0.06086137 0.10124782 0.09850049 0.020198049 -0.15556855 0.06184895 -0.027831106
0.12524886 -0.14506322 0.041239996 -0.0018774981 -0.14399731 0.14992881 0.08019145 0.034713764
-0.13316096 -0.12240875 -0.14482866 -0.041377865 0.054875672 -0.16314659 0.017949022 -0.00045343477
0.21718948 -0.15033002 0.08020346 -0.19980563 0.01035021 0.18790667 -0.120458424 -0.09715299
-0.11431772 0.21308585 -0.17702644 -0.10801248 -0.17881376 -0.14223036 0.18655463 0.049883757
0.036159102 -0.01735245 0.12683325 0.045279935 -0.04346414 0.021300131 -0.06075758 -0.18519643
-0.041805945 0.0663461 0.02771204 0.09155017 -0.0111738825 -0.17336795 -0.20142758 0.20547323
0.054998416 -0.02379883 0.08099649 -0.022968352 -0.04516873 -0.12830535 -0.17088267 0.07119859
-0.13112554 0.21315075 0.18998891 -0.19119479 0.10902992 0.21076885 0.07061787 -0.107202396
0.08464639 -0.21181032 0.14564611 -0.0047872877 -0.08298944 -0.21178472 0.1067542 0.04418225
-0.09599721 -0.21613474 0.1859912 0.17056319 -0.12373578 0.024490038 -0.18747194 -0.13830645
-0.059349928 0.20962338 -0.021469774 -0.01608528 -0.1687252 0.21820728 -0.049790435 0.13556598
0.17569582 -0.21065237 0.15326212 0.09988427 0.04286423 -0.09343544 -0.17570567 0.15537514
0.15950808 0.14447217 -0.003775657 0.17391732 -0.15326531 -0.11967485 0.21669333 0.15859225
-0.0076173204 0.13722514 0.17227642 -0.03457687 -0.09084918 0.14098726 -0.1615647 -0.12560575
-0.0714852 0.1746163 0.013208313 0.17311502 -0.1169924 -0.1015729 0.077433005 0.20012824
0.07004251 -0.1787048 0.17165563 -0.16900498 -0.07488389 0.058244433 -0.09407803 -0.19853267
-0.03881037 0.17813638 0.120956436 0.045676675 -0.20158018 0.057624713 0.03270092 -0.13593392
-0.06573629 0.11436192 -0.08235383 -0.1257471 0.18410398 0.13899745 -0.06473925 0.20225412
0.022766734 -0.011346956 -0.09698012 0.1760615 -0.03198195 0.13365734 0.038947396 -0.045028318
-0.12336339 -0.10300695 0.03435879 -0.20045926 -0.15636346 0.13794799 -0.0622138 -0.17501803

critic.fc2.weight f4 [128, 256]
00000000: 92db 0cbb b08b dcbc 36fa 0c3d 207d 203c
00000010: c25a 15bd e42e 4bbd da68 22bd 1b45 673d
00000020: 764a 81bc 9716 09bc 09a9 67bd b2b1 373d
00000030: bc39 03bd c105 083d 5bc1 523d 6906 693d
00000040: de01 9abc c2ad c5bc c503 e7bc f90b d9bc
00000050: 051e a4bc c1fe 2b3d f3c7 7c3d 8119 493d
00000060: 1fd4 853c 571d f1bb 64a7 3cbd 3520 f73c
00000070: ed4b 96bc 5960 57bd 4850 253c 903c 80bd
00000080: 029e 67bd f1b7 1a3d a4b3 723b d81a 09bd
00000090: aaf2 13bd ed9b 5abd 0c41 d83c eb8d be3c
000000a0: dbbf afbc 5fc6 fcbc 21a2 173d f3ab 67bd
000000b0: 0bf2 b2bb 1711 f53b 546e 33bd eda7 47bd
000000c0: ede1 abbb 44f1 133c b3ec 24bc 6d57 24bd
000000d0: 9b98 563d 2507 30bd 0d34 6d3d 3c0d 98bc
000000e0: ef15 943c 139a 153d 7521 033d ec50 0a3d
000000f0: 258d 1dbd 0299 dc3b 8574 473c 6f46 15bd
00000100: 3091 913c ba98 79bd 0b59 debc 892b 32bc
00000110: c3b0 a93c d6ec 29bd 9b56 053c c2d8 03bd
00000120: bd10 5e3d a9d9 40bd 36ff ed3c 3f50 043c
00000130: d1f7 49bd a215 eabc 92d4 62bd 89d1 36bd
00000140: 8d68 6d3d dbb5 16bd e2b8 cabc 6fab 633d
00000150: b2ca 0dbd bd18 173d f4f2 2f3d 5017 653d
00000160: 76e9 73bc 825f 3abd 3a06 153d a16b 153d
00000170: 2fc5 5d3c f639 4cbd b25e d5bc 25db 66bc
00000180: adc3 e83c f3ff 62bd b8c7 aa3c a08e 323d
00000190: 2921 e63c 34ae 50bd 3dcf 2bbd 8770 afbc
000001a0: 272e 43bd 2341 1c3c 6d7b 8d3c 76c9 323c
000001b0: 855a 77bd 48ba 473d 4088 79bd cd31 0a3c
000001c0: 14b2 33bd 25a0 603d d69c 66bc d5ee 56bc
000001d0: 297c 06bd 271f 303d 0372 28bd 85f0 0d3c
000001e0: 934d 163d d1ae 10bc bcf5 083d 8dd6 29bd
000001f0: 7c01 bf3b 8c4b 08bd 6fd2 033d 6710 5bbd
00000200: 3c28 35bd 84c5 1fbc 88ca 573d d5a9 5abd
00000210: 909c 043d 62c1 a53b a980 5d3d 51ee 7d3d
00000220: 28c1 f13c 2ae8 fb3c 0307 48bd dd4d 04bc
00000230: 83ac 2abd f4e4 ed3c 25af 3ebc 3da7 ecbc
00000240: f4cd debc b654 c03c b420 153d 5e68 1d3a
00000250: eb3a 0cbd cebd 023c 0cf2 803c d0ec 2c3d
00000260: 489c d93c a776 56bd 9999 693d a2f6 39bd
00000270: df03 283c cc05 213b 34c2 f63a ee13 723d
00000280: 113d bdbc d764 513d ae84 813b 9f4c 32bd
00000290: 55b4 4c3d 4a26 5e3d adaa 30bd 1585 7bbd
000002a0: 4d7a 2abd 8c25 5f3d 24b5 8d3b e43b 96bc
000002b0: 0032 5dbc b8e3 5c3d abae 6a3b 96b6 e33c
000002c0: c10b 11bd 389c 7c3d c547 59bd 8564 083c
000002d0: dd97 653d db1f 02bc 4189 ea3c 264a 9d3c
000002e0: 7a35 343d 1709 f8bc d5ae 64bc 0651 31bc
000002f0: 7778 2bbd f749 693d eaa6 263d 3c5b 05bb
00000300: 34fd 1dbd fc9c 0d3c b350 7f3d 5a6a 573d
00000310: b11b f43c 47fd 0bbd bb97 51bd ebdb ff3c
00000320: 6d43 033c 7b0e fc3c bc57 2b3d 4b5c 59bd
00000330: 9864 2c3d 05fa a8bb d363 213d 60aa d23c
00000340: dc91 323d 5e70 c43c d8c9 be3c 8b46 24bc
00000350: 4c06 a43c ffd3 443d f04b 44bd 9847 5abb
00000360: c774 2a3d 8a76 7e3c 1e0a 313d 83fe 4dbd
00000370: 7aa6 eb3b e7f6 343d e1da 083d 800a 0abd
00000380: f5e3 723d 8580 50bd 3829 5ebc 1ae1 f33c
00000390: 18ee 0b3d 1eb9 443d cc3b 9b3c c112 053d
000003a0: 8b6c 0d3d d260 043d 4799 173d 34cb d23b
000003b0: 5638 27bd 118b 413d 4478 ca3c e9fa ccbc
000003c0: 87e3 b83c b20a 033c 0167 ef3b f970 573c
000003d0: 9864 133d 144b 67bc a876 9dbc d89b fc3b
000003e0: d067 b1bb 448a 7f3c 6648 e0bc 541a d1bc
000003f0: b785 63bd 3457 87bc 5ac4 e13c 9b1f 91bc
-0.0021493179 -0.026922077 0.034418307 0.009795457 -0.036463507 -0.049605265 -0.039650775 0.05646239
-0.015782576 -0.008367202 -0.05655769 0.044847198 -0.03203748 0.033208612 0.05145393 0.05689088
-0.018799718 -0.024130706 -0.02820004 -0.026494967 -0.020033846 0.041991 0.061714124 0.049096588
0.016336499 -0.007358234 -0.046058074 0.030166725 -0.018346751 -0.05258212 0.010089941 -0.062615514
-0.056547172 0.037773076 0.0037033344 -0.033472866 -0.036120094 -0.05337136 0.026398204 0.023261031
-0.021453789 -0.03085631 0.037019853 -0.056560468 -0.0054609827 0.007478844 -0.04380639 -0.04874413
-0.0052454383 0.00902969 -0.010066199 -0.04012244 0.05239163 -0.042975564 0.057910968 -0.018560998
0.018076865 0.03652389 0.03201433 0.03376858 -0.038464684 0.006732107 0.0121737765 -0.036444124
0.017769426 -0.060936667 -0.027142068 -0.010874637 0.02071417 -0.04148563 0.008138324 -0.03218914
0.05421518 -0.047082577 0.029052358 0.008075773 -0.0493086 -0.028574768 -0.055378504 -0.044633422
0.057961036 -0.036794525 -0.024746362 0.055583414 -0.034617133 0.036888827 0.042956308 0.055930436
-0.014887204 -0.04550124 0.03638289 0.036479596 0.013535782 -0.049859963 -0.02604613 -0.014090334
0.028413618 -0.055419873 0.020847186 0.04359305 0.028091984 -0.050947383 -0.041945685 -0.021415962
-0.047651436 0.009537014 0.017270768 0.01091229 -0.06038906 0.048761636 -0.060920954 0.008434725
-0.043871 0.054840226 -0.014075479 -0.013118465 -0.032833252 0.04299846 -0.041124355 0.008663301
0.036695074 -0.008830742 0.033437476 -0.041464377 0.0058290344 -0.033275172 0.032183107 -0.05348244
-0.044227824 -0.009751681 0.052683383 -0.05338462 0.032375872 0.0050584534 0.054077778 0.061994854
0.02951105 0.030750353 -0.048834812 -0.008075205 -0.041668426 0.029039837 -0.011638437 -0.02888834
-0.027197815 0.023477893 0.03640814 0.00060046266 -0.034235876 0.007979823 0.015740417 0.04221803
0.026563779 -0.05235925 0.057031248 -0.045401223 0.010254829 0.0024570106 0.0018826188 0.059101038
-0.023100408 0.05112156 0.003952584 -0.043530103 0.049976666 0.054235734 -0.04313152 -0.061406214
-0.04162054 0.054479167 0.004324572 -0.018339105 -0.01350069 0.053928107 0.0035809677 0.027797025
-0.0354116 0.06167242 -0.05304696 0.008324747 0.05605303 -0.007942165 0.0286299 0.019200396
0.04399631 -0.030277772 -0.013957699 -0.01082254 -0.04186293 0.056955304 0.040686525 -0.002034857
-0.03857155 0.008643385 0.06233282 0.05259166 0.02979836 -0.03417709 -0.051170092 0.031232795
0.008011681 0.030768624 0.041831717 -0.053066533 0.04208812 -0.005156758 0.03940184 0.025716007
0.043596134 0.023979362 0.023289606 -0.010026584 0.020022534 0.048053738 -0.047923982 -0.0033306833
0.041615274 0.015531192 0.04322254 -0.05029155 0.0071914764 0.044180777 0.033411864 -0.03370142
0.059299428 -0.050903816 -0.013559632 0.029770423 0.03416261 0.048028104 0.018949412 0.03248859
0.034527343 0.032318898 0.03701141 0.006432915 -0.04082521 0.047251765 0.02471555 -0.025021987
0.022569431 0.007998155 0.00730598 0.013149493 0.035984606 -0.014117021 -0.019221619 0.0077090077
-0.0054139867 0.01559693 -0.027378272 -0.02552525 -0.055547442 -0.016521074 0.027559448 -0.017715266
