debug/policy_1_20/model.pt (torch, 338258 bytes, 11 tensors)

actor.fc1.weight f4 [256, 21]
0.12729776 0.16346584 -0.1127258 -0.10603078 0.10146275 -0.04971026 0.20969136 -0.1608936
-0.124272555 0.2075372 0.029883945 -0.053142652 -0.00577052 0.11558413 -0.12964126 -0.07218024
0.19293179 -0.06962218 0.019313727 0.020413328 0.16174541 -0.20884146 0.17667742 -0.060992073
-0.13365747 -0.20792782 -0.14638378 -0.04819289 0.08256938 -0.18336767 0.087546945 0.21234399
0.048685003 -0.13408054 0.10196886 0.15080123 -0.1698494 -0.047659878 0.08037806 0.04798858
-0.033540405 -0.052256454 -0.093542375 -0.047887214 0.15182321 -0.121321395 0.20982051 -0.014452298
0.17488782 0.088360004 -0.17743164 0.01419553 0.1715696 -0.09794364 -0.16595069 0.020625072
-0.056934692 -0.17904797 -0.10234616 0.16910835 0.19891785 0.14264812 0.15591747 0.20054118
0.04278025 0.13249277 0.016379498 0.12833373 0.12428205 -0.15108672 -0.11795079 -0.14225854
0.061183084 0.15142916 0.20392095 0.05120796 0.08420236 0.03126014 -0.19945246 -0.09753699
0.07110697 0.036787387 -0.034808267 0.21596286 -0.1128807 -0.050380897 -0.19231193 0.21690223
-0.21500722 -0.10783934 -0.06549743 0.1595159 0.03260704 -0.0900109 -0.2096893 0.106659636
-0.038768757 -0.010749711 0.03141807 0.084370576 0.14103752 0.08311259 0.006264966 0.090369195
0.2013754 -0.106022276 -0.172288 0.055876486 -0.15079421 0.17339733 0.023251839 -0.15738353
0.1687802 -0.0035365806 0.045474183 0.14768136 0.0005239948 0.21367419 -0.15638591 0.06121697
0.16627198 0.20924439 -0.124777265 0.21192239 -0.19045055 0.115183435 -0.20418334 -0.15266106
0.11341484 -0.16027173 0.007939287 0.06836589 0.20766377 0.0854076 -0.17679012 -0.034196716
-0.12579474 0.13483192 0.09463455 0.1746517 0.14958161 0.063525036 -0.085705005 0.0040840344
0.0151931625 -0.08788178 0.047934942 -0.023002822 -0.11294759 -0.18599619 0.0058957976 -0.19050841
0.21606123 -0.013548975 -0.08542908 0.19415224 -0.21544741 -0.17381036 0.18901323 0.16098727
0.1285054 0.15288913 0.12195069 0.15316115 0.21776205 -0.0018921602 0.030528037 -0.17961964
0.09809433 0.12711596 -0.078696825 -0.15521842 -0.0830854 0.12335161 0.016955834 -0.12939596
0.013025043 -0.12394911 -0.1294968 -0.020082014 -0.023983 0.212789 0.023275256 -0.13360655
0.1722775 -0.021041347 0.15782127 0.18065758 0.015872912 -0.1255035 0.07303679 -0.065542825
0.19549954 -0.116152614 0.2066449 0.21790236 -0.1347086 0.0500642 -0.14905676 -0.13700731
0.099433824 0.007093876 0.015502402 0.03336 -0.10431567 0.12802632 0.11176711 0.19139022
-0.03894822 -0.123302005 0.158147 0.17707917 0.05257576 -0.1358761 0.1785551 -0.06729547
-0.17493425 0.16652803 -0.15443648 -0.21401803 -0.13203137 0.19226563 -0.028329907 -0.15334338
0.014357554 0.20726421 0.06449962 0.016869316 -0.16689186 0.19199494 0.18733421 0.065345354
0.15679027 -0.11786977 0.14572258 -0.14723177 -0.0053309016 0.18344733 -0.17327122 0.07820965
0.14367895 0.08498722 -0.13438132 0.11301761 -0.2111859 0.032236535 0.0032037282 0.14846405
0.121863686 -0.18144736 -0.11289555 0.17665204 -0.1805986 -0.21649829 -0.16469508 -0.12713303
00000000: 585a 023e 9763 273e c9dc e6bd aa26 d9bd
00000010: b4cb cf3d fc9c 4bbd 55b9 563e 4bc1 24be
00000020: 9c82 febd a284 543e 2dcf f43c 1cac 59bd
00000030: a116 bdbb 5fb7 ec3d aec0 04be 3cd3 93bd
00000040: e98f 453e 1396 8ebd d237 9e3c da39 a73c
00000050: 97a0 253e 89da 55be edea 343e d3d2 79bd
00000060: 81dd 08be 08eb 54be a1e5 15be e865 45bd
00000070: 231a a93d bcc4 3bbe d04b b33d b470 593e
00000080: ed69 473d 694c 09be 0dd5 d03d a36b 1a3e
00000090: 00ed 2dbe 0137 43bd 419d a43d ac8f 443d
000000a0: aa61 09bd dd0a 56bd 2593 bfbd 6225 44bd
000000b0: 8b77 1b3e 5a77 f8bd 30db 563e 55c9 6cbc
000000c0: cb15 333e 17f6 b43d a4b0 35be 5e94 683c
000000d0: f1af 2f3e ad96 c8bd faee 29be e9f5 a83c
000000e0: 5a34 69bd 5a58 37be dd9a d1bd bd2a 2d3e
000000f0: 1fb1 4b3e 5912 123e d4a8 1f3e ab5a 4d3e
00000100: 583a 2f3d 2fac 073e 4c2e 863c eb69 033e
00000110: 9687 fe3d 7ab6 1abe 2f90 f1bd 39ac 11be
00000120: 1d9b 7a3d 3f10 1b3e a7d0 503e 70bf 513d
00000130: 4972 ac3d a20a 003d 443d 4cbe 79c1 c7bd
00000140: 88a0 913d 5fae 163d 1d93 0ebd 5e25 5d3e
00000150: ff2d e7bd 335c 4ebd 6bed 44be 9e1b 5e3e
00000160: da2a 5cbe dfda dcbd 8423 86bd 2358 233e
00000170: f68e 053d a257 b8bd cbb8 56be 5e70 da3d
00000180: fdcb 1ebd 8e1f 30bc 3cb0 003d 7bca ac3d
00000190: 246c 103e ef36 aa3d 584a cd3b 7c13 b93d
000001a0: 5a35 4e3e 3522 d9bd 446c 30be bede 643d
000001b0: cc69 1abe 128f 313e a47a be3c 2629 21be
000001c0: b7d4 2c3e fac5 67bb 2343 3a3d c839 173e
000001d0: b25c 093a 68cd 5a3e a123 20be a5be 7a3d
000001e0: 3443 2a3e 2944 563e 398b ffbd 2f02 593e
000001f0: 7805 43be 4be5 eb3d 7015 51be 2e53 1cbe
00000200: 0a46 e83d 461e 24be c913 023c 6a03 8c3d
00000210: d0a5 543e 2eea ae3d 7808 35be db11 0cbd
00000220: 56d0 00be 6111 0a3e c2cf c13d e5d7 323e
00000230: ec2b 193e 6a19 823d 1b86 afbd 5dd3 853b
00000240: beec 783c 5dfb b3bd 6e57 443d 6a70 bcbc
00000250: 1151 e7bd c975 3ebe 8931 c13b a314 43be
00000260: 283f 5d3e 85fc 5dbc 71f5 aebd d8cf 463e
00000270: 3f9e 5cbe 58fb 31be af8c 413e d9d9 243e
00000280: eb96 033e f88e 1c3e 49c1 f93d 47d6 1c3e
00000290: 04fd 5e3e 5c02 f8ba ef15 fa3c 36ee 37be
000002a0: aee5 c83d b02a 023e cd2b a1bd 94f1 1ebe
000002b0: ae28 aabd c59f fc3d f6e6 8a3c 6080 04be
000002c0: fd66 553c 08d9 fdbd cf9a 04be 0983 a4bc
000002d0: ff77 c4bc 5ce5 593e c0ab be3c 28d0 08be
000002e0: 8369 303e e75e acbc e69b 213e 4dfe 383e
000002f0: e907 823c fd83 00be 5094 953d 513b 86bd
00000300: 0831 483e 6ce1 edbd b89a 533e cc21 5f3e
00000310: 0df1 09be 1e10 4d3d 56a2 18be a54b 0cbe
00000320: f6a3 cb3d bf73 e83b c9fd 7d3c 7fa4 083d
00000330: 74a3 d5bd 5519 033e 28e6 e43d ccfb 433e
00000340: 2b88 1fbd c385 fcbd 4af1 213e 3e54 353e
00000350: ae59 573d 1b23 0bbe 26d7 363e 35d2 89bd
00000360: f721 33be 5386 2a3e 9924 1ebe 8b27 5bbe
00000370: 3b33 07be 48e1 443e 1f14 e8bc 0c06 1dbe
00000380: f23b 6b3c 123d 543e 6018 843d 8531 8a3c
00000390: b3e5 2abe 529a 443e 8ad4 3f3e c9d3 853d
000003a0: a18d 203e b565 f1bd 4d38 153e edc3 16be
000003b0: d8ae aebb 9ed9 3b3e 036e 31be 622c a03d
000003c0: 9320 133e c80d ae3d 429b 09be c775 e73d
000003d0: 1e41 58be 750a 043d a4f5 513b f606 183e
000003e0: ab93 f93d 56cd 39be c835 e7bd 46e4 343e
000003f0: d7ee 38be bab1 5dbe d4a5 28be 292f 02be

actor.fc1.bias f4 [256]
0.13989 0.15829381 0.068430275 -0.082562506 -0.16542546 -0.17514154 -0.049419854 0.107571654
-0.094422475 -0.035770353 0.16135043 0.09264168 -0.038013365 -0.20328407 0.08688827 0.086777516
-0.06547552 -0.18090206 -0.111832514 -0.095397115 0.009274983 0.15450482 0.02131258 -0.07424744
-0.019587694 0.15251091 -0.09696729 -0.111713775 0.15575427 0.01926972 0.14861293 0.12242466
0.1025315 0.05496951 -0.044824764 0.055914674 0.06738046 0.20314741 0.16299084 -0.0442451
0.07125519 0.068599 0.1640935 -0.009735192 0.055852074 0.004383496 0.13079385 -0.01840215
0.0016819467 0.0363995 0.020812556 0.038833994 0.18199451 0.17555197 0.07433424 0.20797269
-0.08599748 0.11754242 -0.17919229 -0.081973925 0.19470994 -0.07749086 -0.17287874 -0.18627264
0.19556035 0.1228917 0.03308732 0.058056124 0.15244007 0.09778982 -0.053493787 0.08731788
0.1019851 0.06925887 0.15488978 -0.18892157 -0.0014706388 0.0048750243 0.024567652 -0.18663406
-0.14595093 -0.0676811 0.045268618 -0.1007245 0.19420986 0.18363602 0.026254758 -0.10544232
0.00967619 -0.05151329 0.07118232 0.21174346 0.13002843 -0.17772493 0.025081651 0.15557347
0.20782958 0.19161165 -0.039878976 -0.021204902 0.02986919 -0.10692519 0.05144846 -0.13728067
-0.17621459 0.0147310905 0.036452428 0.12656043 0.19621213 0.09073381 -0.18427342 -0.14656235
0.2043862 -0.09456092 -0.07164109 -0.13696799 -0.019132158 0.0020398595 0.055466 0.015649594
-0.18677029 0.1150455 0.15272267 0.033906914 -0.04271163 0.17260262 0.0058819903 -0.0138294585
0.047460776 -0.17063278 -0.063015565 -0.08977988 0.04281025 0.19430877 -0.1951285 -0.18790379
0.11374802 -0.057080623 0.07251499 0.09544011 -0.1803427 0.1816233 -0.10155811 0.096375324
0.16346999 -0.024961766 -0.0005444742 -0.17181055 0.15667288 0.20052254 -0.060732324 -0.06533186
0.18093733 0.17409872 0.022260072 -0.04290122 0.005881081 0.17552304 0.07459756 -0.07285487
0.19363493 -0.106165074 -0.08217446 0.18220428 -0.02698571 -0.2002703 0.1658646 0.08200654
-0.19632843 -0.17044266 0.19635862 0.064809114 0.0011623912 0.1184082 -0.11836159 0.053120445
-0.08117532 -0.15691847 0.16877495 -0.19589968 -0.089162454 -0.21483529 -0.21691972 0.14858875
0.000409621 -0.05274234 -0.17286944 -0.20735346 -0.04037811 0.19058956 -0.09040425 -0.14012982
0.11756998 -0.1317923 0.050623268 -0.074317634 -0.17195144 0.09490338 -0.09528106 -0.03791706
-0.14969525 -0.08337814 0.18069547 0.12226252 -0.18741736 0.050808214 0.17121968 0.04463032
0.011125944 0.044299647 -0.11792171 -0.14937441 -0.1808995 0.053146053 0.031630516 -0.14976914
-0.16492358 -0.018836724 0.03606878 -0.19248323 0.15162215 0.18390386 0.18113092 -0.1919638
0.090813644 -0.20010169 -0.11479562 0.019689295 0.06448096 0.17303576 -0.20896843 -0.1688775
0.1319827 -0.14520082 0.096354954 0.066380545 -0.18140382 0.08754111 0.19887726 0.111011304
0.1026895 0.055471584 0.057948 -0.12799224 0.16175622 -0.09238295 -0.05176615 0.061043445
-0.13147943 0.20264462 0.20551671 0.15744558 0.21106365 -0.09663732 0.17410247 0.033148527
00000000: 533f 0f3e c617 223e 2c25 8c3d 8816 a9bd
00000010: 4b65 29be 4e58 33be 796c 4abd 874e dc3d
00000020: 9260 c1bd ef83 12bd 0c39 253e ecba bd3d
00000030: e7b3 1bbd b329 50be 7af2 b13d 69b8 b13d
00000040: 0818 86bd 643e 39be 7208 e5bd 905f c3bd
00000050: 19f6 173c 8336 1e3e b897 ae3c 0b0f 98bd
00000060: 5f76 a0bc d22b 1c3e c996 c6bd 31ca e4bd
00000070: 0c7e 1f3e 88db 9d3c fd2d 183e c8b9 fa3d
00000080: 09fc d13d b527 613d 2c9a 37bd c906 653d
00000090: c4fe 893d e005 503e 12e7 263e 5a3a 35bd
000000a0: 3eee 913d a27d 8c3d 2008 283e 5b80 1fbc
000000b0: 25c5 643d 6ea3 8f3b d3ee 053e 1bc0 96bc
000000c0: c474 dc3a a417 153d 187f aa3c 6510 1f3d
000000d0: c55c 3a3e e5c3 333e 8d3c 983d cbf6 543e
000000e0: 721f b0bd 15ba f03d 2f7e 37be f2e1 a7bd
000000f0: 0b62 473e 87b3 9ebd 2007 31be 41be 3ebe
00000100: f940 483e a5ae fb3d 9286 073d 42cc 6d3d
00000110: 4019 1c3e 0746 c83d 4d1c 5bbd b7d3 b23d
00000120: 90dd d03d 98d7 8d3d 6d9b 1e3e a874 41be
00000130: 73c2 c0ba abbe 9f3b 1a42 c93c 001d 3fbe
00000140: 2974 15be 639c 8abd 966b 393d a648 cebd
00000150: f3de 463e 150b 3c3e 3814 d73c 25f2 d7bd
00000160: e288 1e3c 99ff 52bd 09c8 913d 47d3 583e
00000170: 2c26 053e 86fd 35be 0978 cd3c a74e 1f3e
00000180: 47d1 543e d835 443e 2358 23bd e7b5 adbc
00000190: 3bb0 f43c 98fb dabd 9fbb 523d 4e93 0cbe
000001a0: 9971 34be ac5a 713c 244f 153d 0f99 013e
000001b0: d5eb 483e a6d2 b93d 2cb2 3cbe 7114 16be
000001c0: 9e4a 513e 28a9 c1bd 90b8 92bd 5641 0cbe
000001d0: 0bbb 9cbc 2aaf 053b 5130 633d 9433 803c
000001e0: b640 3fbe fa9c eb3d 5563 1c3e fae1 0a3d
000001f0: 64f2 2ebd bebe 303e b6bd c03b f494 62bc
00000200: 3b66 423d 5cba 2ebe 4e0e 81bd 84de b7bd
00000210: cd59 2f3d e1f8 463e c4cf 47be da69 40be
00000220: b9f4 e83d 5fcd 69bd bd82 943d 1b76 c33d
00000230: c2ab 38be 75fb 393e b3fd cfbd 6d60 c53d
00000240: ad64 273e 9e7c ccbc 0cbb 0eba 1bef 2fbe
00000250: db6e 203e c855 4d3e 75c2 78bd b6cc 85bd
00000260: a347 393e ef46 323e c15a b63c 31b9 2fbd
00000270: 15b6 c03b 50bc 333e 9bc6 983d ef34 95bd
00000280: 3c48 463e 136d d9bd 154b a8bd c293 3a3e
00000290: 2311 ddbc a813 4dbe 69d8 293e 0bf3 a73d
000002a0: 520a 49be 8588 2ebe 3c12 493e a4ba 843d
000002b0: 605b 983a 0080 f23d 9067 f2bd d394 593d
000002c0: 3f3f a6bd 3caf 20be 57d3 2c3e ed99 48be
000002d0: ce9a b6bd c8fd 5bbe 3420 5ebe a627 183e
000002e0: 66c2 d639 5a08 58bd b004 31be 7754 54be
000002f0: 8463 25bd e929 433e dd25 b9bd 317e 0fbe
00000300: 88c8 f03d 90f4 06be 585a 4f3d d833 98bd
00000310: 0a14 30be b45c c23d b722 c3bd eb4e 1bbd
00000320: b649 19be 29c2 aabd 3c08 393e c664 fa3d
00000330: 56ea 3fbe 461c 503d 3654 2f3e 48ce 363d
00000340: 9749 363c 8c73 353d f080 f1bd 9bf5 18be
00000350: b83d 39be adaf 593d 008f 013d 155d 19be
00000360: bae1 28be 794f 9abc dbbc 133d 531a 45be
00000370: d642 1b3e 4b51 3c3e 627a 393e 2992 44be
00000380: 81fc b93d 75e7 4cbe f719 ebbd 724b a13c
00000390: 980e 843d 4930 313e d2fb 55be 39ee 2cbe
000003a0: 7926 073e 86af 14be bf55 c53d 86f2 873d
000003b0: ecc1 39be c148 b33d 7ba6 4b3e e559 e33d
000003c0: df4e d23d 2c36 633d e25a 6d3d 6610 03be
000003d0: 6ca3 253e 4633 bdbd be08 54bd b108 7a3d
000003e0: 8ba2 06be 1282 4f3e f972 523e 6a39 213e
000003f0: 1221 583e cae9 c5bd eb47 323e c0c6 073d

actor.fc2.weight f4 [128, 256]
-0.0017263587 -0.028683128 0.015246589 -0.039403625 0.048920188 -0.041073292 0.029126555 -0.041092914
-0.03428497 -0.010071298 -0.036916565 0.010656482 0.05471795 -0.034135625 -0.033918522 0.013841246
0.007203533 0.0023061628 0.028812552 0.005453358 -0.016251732 -0.024964536 -0.05116752 -0.037861757
0.037019018 0.012321443 0.022320122 0.0039296746 0.04164989 0.03854792 0.005681555 0.034411505
-0.0074361707 -0.02449689 0.007699278 0.05900693 0.0055068564 0.044878718 -0.0068888743 -0.056614295
0.058062498 0.025992176 0.030740306 0.007659805 -0.024633298 0.042843673 -0.05313199 -0.021687105
0.029007679 -0.019850034 0.0068485048 -0.05551657 -0.01131423 -0.04664082 -0.058309596 0.020657552
0.01582519 -0.05103216 -0.05856076 -0.01964888 -0.057818487 0.017941033 -0.030691085 -0.024339497
-0.028354498 0.0060301796 0.050083034 0.014855965 -0.019843947 -0.046279527 -0.032538045 0.021512836
0.025920236 -0.018863715 -0.004052714 -0.018843178 0.021163622 -0.035917547 0.0077417023 -0.03140607
0.029315427 -0.036591586 -0.0026915236 -0.014863443 -0.012368677 -0.008505195 0.027761044 0.030133858
0.00075005146 0.019271761 -0.031925675 -0.011878697 0.031081948 -0.060518883 -0.055534393 -0.031805437
-0.044811707 -0.05939201 -0.0047797635 0.041959755 0.0052168877 0.0012776516 0.026736375 0.029277021
-0.018617306 0.019942708 0.03736522 0.014874774 -0.048188563 0.03511002 0.009293147 0.016172854
-0.05624248 0.041564003 -0.03899547 -0.049522087 0.02836686 0.031718526 0.01457415 0.028478127
0.054208796 -0.010642432 0.004353775 0.04410317 0.032652237 0.002834842 -0.027151579 0.009752037
-0.0020619663 -0.041203596 0.016084453 0.0028576844 0.04352642 -0.035431486 0.048611853 0.04902786
-0.032922044 -0.007277649 -0.002392464 -0.039012782 -0.02318137 -0.053893052 0.051860783 -0.041685093
-0.023952536 -0.020603482 -0.025888355 0.00068313343 -0.041434973 -0.045383845 -0.05460462 -0.05583749
0.04941876 0.010471167 0.021317834 0.011605695 -0.014147766 0.029346917 0.029468391 0.002043297
-0.027359562 -0.026809914 -0.014104065 0.01868209 0.0053443825 0.006893023 0.03084618 0.056288064
-0.05373681 -0.054630954 -0.002763067 0.02698706 0.039265305 0.02248418 -0.05924076 -0.027055643
0.002894348 0.04222035 -0.02704597 0.012093714 0.039010696 -0.036129225 0.044610694 0.030522598
-0.060487323 0.036671657 -0.025200866 -0.014371075 0.024775786 0.013728032 -0.008079826 -0.014275512
0.048114736 0.026741879 0.04604421 -0.032969013 -0.032363996 0.05693149 -0.059473217 0.031553216
0.03260438 0.021902552 0.00038080633 -0.030731956 -0.057193164 -0.0013942335 -0.012292509 0.02096175
-0.001965423 -0.0526158 -0.05381852 0.013098948 0.009695939 -0.05518907 -0.046185773 -0.05071838
0.025297413 -0.019627977 -0.011470661 0.06176565 -0.014040357 -0.017590433 0.013055547 0.01585122
-0.022535399 0.007820649 0.017473977 0.013204613 -0.05289822 0.056277905 -0.0051718256 0.008901427
0.015704425 0.027671572 0.0020422514 -0.05023042 -0.055611182 0.025102759 0.009967882 0.05771337
0.026513116 0.0013765986 0.03257141 0.0066198013 -0.041781705 0.02497785 0.03111907 0.010736402
0.02121435 -0.02350767 -0.032974854 0.007160712 0.054583415 -0.016598737 -0.03932527 0.030570928
00000000: fc46 e2ba e1f8 eabc d4cc 793c b265 21bd
00000010: 8960 483d 783c 28bd d09a ee3c 0b51 28bd
00000020: 666e 0cbd 1602 25bc d335 17bd 8698 2e3c
00000030: ee1f 603d ccd1 0bbd 26ee 0abd 65c6 623c
00000040: 9d0b ec3b fe22 173b 4d08 ec3c 15b2 b23b
00000050: 5a22 85bc 6d82 ccbc 0995 51bd ee14 1bbd
00000060: 41a1 173d e1df 493c b0d8 b63c 80c4 803b
00000070: 1399 2a3d 6ce4 1d3d 562c ba3b 14f3 0c3d
00000080: 1fab f3bb b4ad c8bc 3a4a fc3b 40b1 713d
00000090: dc72 b43b bfd2 373d 11bc e1bb 64e4 67bd
000000a0: f1d2 6d3d 8bed d43c 18d3 fb3c 1aff fa3b
000000b0: c5cb c9bc d97c 2f3d eea0 59bd 28a9 b1bc
000000c0: 83a1 ed3c 8a9c a2bc 6c69 e03b 5865 63bd
000000d0: 525f 39bc 720a 3fbd 0bd6 6ebd 073a a93c
000000e0: d4a3 813c 1907 51bd 68dd 6fbd b0f6 a0bc
000000f0: 14d3 6cbd 13f9 923c df6b fbbc a063 c7bc
00000100: b147 e8bc d098 c53b de23 4d3d 6f66 733c
00000110: c68f a2bc 9a8f 3dbd 9d46 05bd b03b b03c
00000120: ad56 d43c 1488 9abc a1cc 84bb 025d 9abc
00000130: 555f ad3c 471e 13bd 1bae fd3b a7a3 00bd
00000140: e826 f03c 0fe1 15bd 4664 30bb cc85 73bc
00000150: fea5 4abc 6059 0bbc 216b e33c 48db f63c
00000160: 1a9f 443a d0df 9d3c 7fc4 02bd de9e 42bc
00000170: 929f fe3c a6e2 77bd 0878 63bd 6b46 02bd
00000180: 7b8c 37bd 0945 73bd 909f 9cbb fedd 2b3d
00000190: 6df2 aa3b e076 a73a 3e06 db3c 5dd6 ef3c
000001a0: 5283 98bc e45e a33c 460c 193d 53b5 733c
000001b0: 5f61 45bd 86cf 0f3d 4942 183c ef7c 843c
000001c0: 845e 66bd 043f 2a3d b7b9 1fbd acd7 4abd
000001d0: 9e61 e83c 49eb 013d 6ac8 6e3c f64a e93c
000001e0: 0b0a 5e3d 985d 2ebc 1daa 8e3b 87a5 343d
000001f0: 5abe 053d c2c8 393b fd6c debc 02c7 1f3c
00000200: 0e22 07bb 1ac5 28bd 8bc3 833c fd47 3b3b
00000210: c248 323d 9b20 11bd 391d 473d 70d1 483d
00000220: 44d9 06bd 5879 eebb e3ca 1cbb decb 1fbd
00000230: dbe6 bdbc f6be 5cbd f96b 543d fdbd 2abd
00000240: 1c38 c4bc a2c8 a8bc d113 d4bc 4f14 333a
00000250: b8b7 29bd 69e4 39bd 18a9 5fbd dab5 64bd
00000260: 536b 4a3d 428f 2b3c bda2 ae3c d025 3e3c
00000270: 08cc 67bc f268 f03c b267 f13c d6e8 053b
00000280: 2921 e0bc 77a0 dbbc bc14 67bc 2f0b 993c
00000290: ee1f af3b dede e13b 21b1 fc3c 508e 663d
000002a0: 211b 5cbd b5c4 5fbd 9214 35bb f813 dd3c
000002b0: a8d4 203d be30 b83c 70a6 72bd cca3 ddbc
000002c0: 1aaf 3d3b 3fef 2c3d 838f ddbc b724 463c
000002d0: aec9 1f3d 3dfc 13bd b4b9 363d 870a fa3c
000002e0: 8ec1 77bd 0535 163d 0c72 cebc a874 6bbc
000002f0: 97f6 ca3c 8aeb 603c 3f61 04bc d6e3 69bc
00000300: f513 453d c911 db3c db98 3c3d 840a 07bd
00000310: 1c90 04bd fe30 693d 309a 73bd f23d 013d
00000320: 2c8c 053d fb6c b33c f6a6 c739 95c1 fbbc
00000330: 6143 6abd b7be b6ba 8566 49bc fab7 ab3c
00000340: 54ce 00bb aa83 57bd cf70 5cbd f89c 563c
00000350: b7db 1e3c ef0d 62bd 4b2d 3dbd 13be 4fbd
00000360: 853c cf3c daca a0bc 70ef 3bbc fafd 7c3d
00000370: 8709 66bc d019 90bc efe6 553c 6bda 813c
00000380: 289c b8bc 2e22 003c 9625 8f3c 2958 583c
00000390: ceab 58bd a983 663d 6b78 a9bb 4ad7 113c
000003a0: 91a6 803c 7eaf e23c 4bd7 053b 6abe 4dbd
000003b0: 8dc8 63bd 4da4 cd3c 5450 233c db64 6c3d
000003c0: 0932 d93c fc6e b43a 9969 053d ebea d83b
000003d0: 4b23 2bbd 599e cc3c 6bed fe3c bce7 2f3c
000003e0: b7c9 ad3c 2893 c0bc a410 07bd 68a4 ea3b
000003f0: dc92 5f3d 13fa 87bc 8913 21bd e26f fa3c

actor.fc2.bias f4 [128]
0.059321854 -0.0073497863 -0.059234355 0.060535666 0.023718067 0.027044108 -0.044632964 -0.020242056
-0.0063502854 0.05498942 -0.008717279 0.009678957 0.062604696 0.04376928 0.06037573 -0.031486828
-0.039696563 -0.046197865 0.03992714 -0.03315069 0.0072147897 -0.020897226 0.015083233 -0.022585366
0.012883302 0.038458996 0.03685268 -0.007368819 0.058276113 -0.00024948834 -0.0069967555 -0.040176395
0.02670551 0.027250547 -0.04550521 -0.042385478 -0.058746185 -0.061618883 0.05355165 0.02941464
0.05438698 -0.019801773 -0.011861404 0.0044821734 0.008011033 -0.011828775 -0.05750764 0.058286846
-0.053303674 -0.027815135 -0.054609857 0.04343162 0.012316534 0.047750123 0.028300073 -0.006346073
-0.008523895 0.058640502 -0.007002965 -0.034783985 -0.055750266 -0.048651572 -0.04915215 -0.028987072
-0.060919072 0.025030289 -0.020518418 0.0020608073 0.035629775 0.05340376 0.047758553 0.035480328
-0.04604308 -0.037980642 -0.035451427 0.020507887 -0.027816843 -0.009028897 -0.022176433 0.053666133
0.04044953 0.013057768 0.05716299 -0.036004826 -0.02112837 -0.0007786154 0.015954096 -0.026646193
-0.047656238 -0.006712273 0.029010748 -0.048970938 0.01686012 0.057874482 0.014656534 -0.055149425
-0.05527163 0.050207052 0.025789997 0.04987528 -0.014628611 -0.014235498 -0.05623187 -0.02834708
-0.047654964 -0.0063151005 0.04592071 -0.008128181 -0.03160031 -0.06121071 -0.027493523 0.042028807
0.01640795 0.001496142 -0.00822004 0.0062612747 -0.013447297 -0.00919322 0.041412774 -0.0034134714
-0.04246184 -0.054706182 0.0074169566 0.06056124 -0.0121944845 -0.049669262 0.026354883 -0.042070188
00000000: 79fb 723d 7ad6 f0bb b99f 72bd 3ff4 773d
00000010: 644c c23c 9b8b dd3c 0ed1 36bd abd2 a5bc
00000020: 0e16 d0bb 963c 613d ebd2 0ebc 7d94 1e3c
00000030: e436 803d 6b47 333d 8b4c 773d 55f8 00bd
00000040: dd98 22bd f939 3dbd a48a 233d 05c9 07bd
00000050: 0b6a ec3b a930 abbc aa1f 773c f204 b9bc
00000060: 7c14 533c 2e87 1d3d d6f2 163d 2276 f1bb
00000070: efb2 6e3d c2cd 82b9 0a45 e5bb 0190 24bd
00000080: 84c5 da3c 8a3c df3c ac63 3abd 659c 2dbd
00000090: d79f 70bd 1564 7cbd fa58 5b3d f9f6 f03c
000000a0: e2c4 5e3d 5437 a2bc 5656 42bc 32df 923b
000000b0: b540 033c 7acd 41bc 228d 6bbd 30be 6e3d
000000c0: f454 5abd 91dc e3bc 96ae 5fbd 5be5 313d
000000d0: 4acb 493c a295 433d 8ed5 e73c b8f2 cfbb
000000e0: cfa7 0bbc 0631 703d 2179 e5bb a779 0ebd
000000f0: 645a 64bd df46 47bd c453 49bd 4c76 edbc
00000100: 4786 79bd 520c cd3c 3e16 a8bc 9c0e 073b
00000110: 87f0 113d e7bd 5a3d 799e 433d d253 113d
00000120: ab97 3cbd 9791 1bbd 8435 11bd 2800 a83c
00000130: 26e0 e3bc f0ed 13bc 5aab b5bc 05d1 5b3d
00000140: 68ae 253d 40f0 553c bd23 6a3d cc79 13bd
00000150: 6715 adbc ff1b 4cba 2ab2 823c 1e49 dabc
00000160: 3033 43bd a1f2 dbbb f3a7 ed3c c095 48bd
00000170: 3c1e 8a3c cb0d 6d3d f621 703c 5de4 61bd
00000180: 8164 62bd e9a5 4d3d 8b45 d33c 064a 4c3d
00000190: d7ac 6fbc 023c 69bc 6453 66bd 2338 e8bc
000001a0: da31 43bd e7ee cebb 5b17 3c3d 102c 05bc
000001b0: 546f 01bd 15b8 7abd 193a e1bc 6626 2c3d
000001c0: f769 863c 321a c43a 59ad 06bc 612b cd3b
000001d0: 0d52 5cbc 299f 16bc 71a0 293d 8cb4 5fbb
000001e0: 77ec 2dbd 9713 60bd f109 f33b 100f 783d
000001f0: 60cb 47bc ff71 4bbd 32e6 d73c ca51 2cbd

actor.policy_head.weight f4 [50, 128]
-0.02619448 -0.032978933 -0.022315122 -0.06302003 -0.013593822 -0.014034419 -0.061673798 -0.072638
-0.036750723 -0.03731639 0.08657926 -0.0016850292 0.022870291 -0.03652724 0.06508025 0.061401222
-0.07395563 -0.036426548 -0.011815375 0.0715112 -0.055519324 -0.039320145 0.00854233 -0.029026745
-0.06579162 -0.070119 -0.039262693 0.029829387 -0.017848548 0.06804955 -0.007298948 -0.07063621
-0.046781767 0.041323587 -0.024993794 0.07337449 0.081216805 -0.078647465 -0.0061121606 0.026152926
-0.0652259 -0.0071653877 -0.05924559 0.025843276 0.06850903 -0.012580322 -0.044481378 0.054226477
-0.034898233 0.05243181 0.06896046 0.082316115 -0.0657261 0.037057437 -0.06345004 0.08635221
0.025058387 0.038628727 0.06781585 -0.020903789 0.026171941 -0.080263615 0.038552444 0.069429114
-0.008448015 -0.01445287 0.08636348 0.019557951 -0.06548225 -0.0036048293 0.0431331 -0.014273509
0.07798436 -0.029751744 0.07667868 -0.059446808 -0.015084255 0.014920995 -0.059115764 0.002889551
0.072332524 0.008751213 0.044996686 -0.0064927447 -0.08254859 0.05748974 0.0047923466 -0.08714589
-0.04216517 0.045003943 0.0018509191 0.0145816505 -0.047606073 -0.033676825 -0.08805635 -0.0033800553
0.036244996 0.017259128 -0.05984475 -0.0115608 0.054016363 0.029548028 0.04603377 0.02370969
-0.0078955535 -0.008630992 0.08097151 0.058320094 -0.033827174 0.017118175 0.0035845083 -0.0029340535
2.8069364e-05 0.05964662 0.044137657 -0.006049196 -0.011067964 -0.07866971 0.08165225 -0.035089314
0.085620634 0.03700154 0.08250438 0.0235059 -0.085338436 -0.037916478 -0.020431602 0.036311634
-0.010885696 0.042155627 0.019002546 0.06714885 0.013904397 -0.029801473 -0.070556924 0.03767688
-0.069550164 -0.046628978 0.012366705 0.084150694 -0.025602099 0.044608038 0.046087027 0.069996044
-0.023600688 0.055502903 0.060138844 0.042226344 -0.060441155 -0.039422195 -0.030328175 -0.064232334
-0.054017365 -0.04961757 0.035666782 -0.029505465 -0.06972165 -0.036132608 0.04196453 0.042673934
0.076136746 0.08291431 -0.008156959 -0.008109348 -0.046354685 -0.087706275 -0.08020961 -0.013163491
-0.0029254737 -0.07910304 0.08661495 0.011260479 0.016345404 -0.046825703 -0.06507506 -0.07968808
-0.04863264 -0.008420074 -0.07099928 0.0031252324 0.014041114 0.029082133 0.034741037 -0.032859523
-0.07155201 0.087393194 -0.028040176 0.015083482 0.05001721 -0.074804686 -0.040193167 -0.029576963
-0.028226817 -0.08370631 -0.077408835 0.034855593 0.08771183 -0.025612364 0.032908805 -0.061495945
0.027856011 0.002430736 0.0513506 -0.042884834 -0.011276256 -0.027859483 -0.04212175 0.08792046
0.025438195 0.081051275 -0.043725 -0.04488726 -0.0071534077 -0.020120954 -0.027887542 -0.04194194
0.001444721 0.060521666 -0.0052061346 0.029308088 -0.050746832 0.025779916 0.074810304 0.01766564
0.0075181425 0.055193357 0.063265584 -0.028800312 0.059147943 0.025289537 -0.04671231 0.06904327
0.074486256 -0.059510954 -0.055154916 0.0478119 0.06550464 -0.022836683 -0.028876418 -0.038668774
0.06742006 0.034758404 0.075458184 0.03966069 -0.047466666 -0.0066603553 0.018986236 -0.012569306
0.082241476 -0.06979285 -0.025680495 0.05518501 0.043414604 0.06384784 0.044359453 -0.011976145
00000000: ce95 d6bc eb14 07bd 34ce b6bc a510 81bd
00000010: 9fb8 5ebc 9ff0 65bc aa9d 7cbd 3bc3 94bd
00000020: ed87 16bd 12d9 18bd 7850 b13d 33dc dcba
00000030: 7a5a bb3c 969d 15bd cb48 853d d97f 7b3d
00000040: 0d76 97bd 0134 15bd 4695 41bc 7774 923d
00000050: 3b68 63bd 290e 21bd 21f5 0b3c 7fc9 edbc
00000060: c2bd 86bd 8d9a 8fbd ebd1 20bd c25c f43c
00000070: 1e37 92bc 905d 8b3d 032c efbb b8a9 90bd
00000080: 3d9e 3fbd ec42 293d c9bf ccbc 5d45 963d
00000090: ff54 a63d ec11 a1bd 8548 c8bb a93e d63c
000000a0: 2895 85bd a1cb eabb 81ab 72bd 47b5 d33c
000000b0: 764e 8c3d b21d 4ebc 1b32 36bd 951c 5e3d
000000c0: 73f1 0ebd bdc2 563d 243b 8d3d 5a95 a83d
000000d0: 689b 86bd 8ac9 173d 18f2 81bd 6dd9 b03d
000000e0: 3f47 cd3c 2839 1e3d 09e3 8a3d 6c3e abbc
000000f0: 8a66 d63c 4061 a4bd 2be9 1d3d da30 8e3d
00000100: 8b69 0abc bbcb 6cbc 56df b03d ff37 a03c
00000110: 8f1b 86bd 003f 6cbb 55ac 303d 70db 69bc
00000120: 44b6 9f3d eeb9 f3bc b609 9d3d 7f7e 73bd
00000130: f323 77bc 3077 743c 5f23 72bd 9f5e 3d3b
00000140: 1323 943d 3f61 0f3c 724e 383d 17c1 d4bb
00000150: 3c0f a9bd 5d7a 6b3d 1e09 9d3b 8b79 b2bd
00000160: 63b5 2cbd 0e56 383d 8a9a f23a e0e7 6e3c
00000170: 96fe 42bd b6f0 09bd e356 b4bd eb83 5dbb
00000180: a275 143d 0463 8d3c c51f 75bd 8269 3dbc
00000190: 4340 5d3d b50e f23c e88d 3c3d d33a c23c
000001a0: 5a5c 01bc 0169 0dbc 64d4 a53d 0de1 6e3d
000001b0: 5d8e 0abd 6a3b 8c3c 12ea 6a3b 4049 40bb
000001c0: 8076 eb37 0450 743d b0c9 343d 5538 c6bb
000001d0: 6856 35bc 961d a1bd 4b39 a73d d0b9 0fbd
000001e0: df59 af3d ed8e 173d 0ef8 a83d 728f c03c
000001f0: ebc5 aebd 4f4e 1bbd 2d60 a7bc 82bb 143d
00000200: eb59 32bc 61ab 2c3d 3aab 9b3c 5685 893d
00000210: 45cf 633c 3822 f4bc 2680 90bd 1253 1a3d
00000220: 5170 8ebd 07fe 3ebd b89d 4a3c 3357 ac3d
00000230: 7ebb d1bc ebb6 363d c0c5 3c3d 165a 8f3d
00000240: 3b56 c1bc 0357 633d 2654 763d 88f5 2c3d
00000250: 2591 77bd 2b79 21bd cb72 f8bc 3e8c 83bd
00000260: 5041 5dbd cb3b 4bbd 5517 123d 72b5 f1bc
00000270: 39ca 8ebd c9ff 13bd 00e3 2b3d ddca 2e3d
00000280: 95ed 9b3d face a93d c4a4 05bc 12dd 04bc
00000290: 69de 3dbd 599f b3bd f044 a4bd afab 57bc
000002a0: 4eb9 3fbb c600 a2bd 2e63 b13d df7d 383c
000002b0: cce6 853c 4fcc 3fbd 1346 85bd 8133 a3bd
000002c0: 0533 47bd 5af4 09bc 1268 91bd b3d0 4c3b
000002d0: b30c 663c a73d ee3c 9e4c 0e3d b597 06bd
000002e0: dc89 92bd 34fb b23d 83b4 e5bc b520 773c
000002f0: d9de 4c3d 3333 99bd 97a1 24bd 634b f2bc
00000300: ed3b e7bc 376e abbd 8688 9ebd bdc4 0e3d
00000310: 43a2 b33d 05d1 d1bc 62cb 063d 2ce3 7bbd
00000320: 4a32 e43c fc4c 1f3b 0255 523d 02a8 2fbd
00000330: 0cc0 38bc 9239 e4bc db87 2cbd a40f b43d
00000340: c363 d03c 36fe a53d fc18 33bd b4db 37bd
00000350: 2267 eabb b3d4 a4bc 6a74 e4bc 50cb 2bbd
00000360: cb5c bd3a 91e5 773d 3998 aabb 8417 f03c
00000370: e9db 4fbd 6730 d33c 2536 993d 88b7 903c
00000380: c05a f63b 6e12 623d 6391 813d a2ee ebbc
00000390: 1d45 723d 012c cf3c 6855 3fbd 8f66 8d3d
000003a0: 408c 983d c2c1 73bd 1fea 61bd 69d6 433d
000003b0: 4c27 863d ff13 bbbc 3d8e ecbc 2663 1ebd
000003c0: 8713 8a3d d45e 0e3d d289 9a3d 3f73 223d
000003d0: 686c 42bd 1c3f dabb 0689 9b3c 7eef 4dbc
000003e0: 386e a83d 8eef 8ebd e75f d2bc ad09 623d
000003f0: 83d3 313d a8c2 823d 42b2 353d 9837 44bc

actor.policy_head.bias f4 [50]
0.021842899 0.06462957 0.0749159 -0.035725985 0.023175037 0.06126215 -0.07239131 -0.049030002
0.06677296 0.0065266164 0.028889159 0.005839714 0.034129914 -0.04696699 -0.07120667 0.018361367
-0.044664655 -0.0874653 -0.02557438 -0.022166036 -0.054135595 0.03657819 -0.024134725 -0.020589832
0.013608732 -0.07779294 0.030286608 -0.018404083 0.038255736 -0.06709147 -0.012272426 -0.04686121
-0.012436377 0.036591295 0.030971507 -0.07736498 -0.06596344 -0.0005947207 -0.05203109 0.077028275
-0.02037556 -0.086087346 -0.01159572 0.061658613 -0.06329174 -0.029466122 -0.053342212 0.006810927
-0.011843713 -0.0037456858
00000000: e1ef b23c 825c 843d 826d 993d 6955 12bd
00000010: 93d9 bd3c 05ee 7a3d e541 94bd afd3 48bd
00000020: 43c0 883d 3add d53b f5a8 ec3c 125b bf3b
00000030: cfcb 0b3d 7560 40bd cdd4 91bd 946a 963c
00000040: 49f2 36bd 0221 b3bd 5d81 d1bc 8c95 b5bc
00000050: 49bd 5dbd 03d3 153d 30b6 c5bc 02ac a8bc
00000060: 29f7 5e3c e851 9fbd 9f1b f83c 29c4 96bc
00000070: 0cb2 1c3d 4167 89bd 4912 49bc 8af1 3fbd
00000080: f2c1 4bbc c1e0 153d f5b7 fd3c 8871 9ebd
00000090: d717 87bd 08e7 1bba 8d1e 55bd 00c1 9d3d
000000a0: a5ea a6bc 904e b0bd fafb 3dbc be8d 7c3d
000000b0: 1a9f 81bd f062 f1bc 5d7d 5abd 322e df3b
000000c0: 220c 42bc 2e7a 75bb

critic.fc1.weight f4 [256, 21]
0.11377975 0.15477526 0.1265135 0.20664541 -0.006521094 -0.12088511 0.08690467 -0.1611494
-0.12574822 -0.10711702 0.008004072 0.19483748 0.11416109 -0.07926451 0.011666141 -0.08779197
0.08821973 -0.1890067 0.14050505 -0.017260553 0.107671626 -0.13111839 0.13333733 -0.002752627
0.01562521 0.13389409 0.21419518 -0.047844518 -0.14124092 0.099542536 0.1839729 -0.13710016
0.20501098 0.050255865 0.05013245 -0.19527872 -0.17779092 -0.1842093 -0.08543838 0.05417087
-0.1278704 0.04127336 0.18451937 -0.1993337 0.08492486 -0.16097498 -0.10722789 0.04668404
-0.21276215 -0.0284989 0.11851302 -0.003400105 -0.08972699 -0.076842256 -0.13805613 0.15759858
-0.101956874 -0.051863406 -0.019979972 0.1571996 -0.19863303 -0.07298787 0.1174789 0.21125698
-0.022556705 0.021390678 0.18096314 -0.04495376 -0.21139911 -0.013760256 -0.210689 0.17114012
-0.017226888 0.0150941415 -0.01277468 0.17898326 0.20758447 -0.12343389 0.010883268 -0.03247777
-0.18433012 -0.07511153 -0.045046087 -0.023350311 0.16343063 0.0831216 -0.043402094 0.04300363
-0.15658744 -0.081575274 -0.020509316 -0.16980278 0.059101656 0.119864926 0.17919675 0.01920857
-0.16169654 0.10711482 0.0028460454 0.17069565 0.024578417 -0.011044354 0.12779507 0.21502501
-0.18881722 0.08086379 0.022925055 0.18789835 0.18679601 -0.20982179 0.08774588 0.041191485
0.08389546 0.20308788 -0.09365853 -0.18615776 -0.06805343 -0.029365862 -0.04072744 0.0066945497
-0.11430632 0.18131702 -0.16641502 0.024648104 0.10210441 0.116968185 0.08729397 -0.038062107
-0.118118286 -0.11425938 0.11725431 -0.0325207 0.14163561 0.030021084 0.0832139 -0.14704427
-0.08223532 0.13410093 -0.043349266 0.1175054 0.20291789 -0.18864562 0.03181991 0.038594756
0.035070617 0.12901475 -0.21505976 0.1403896 0.06355975 -0.014040489 -0.15151371 0.09344765
-0.1362061 -0.16200389 -0.108596504 -0.14569601 -0.13906653 0.16532177 -0.12532209 -0.016124735
0.0685358 -0.0023232312 0.0062995255 -0.032369874 0.14097549 -0.21785887 -0.10423225 -0.0038554228
0.104537636 0.03813745 -0.018171998 0.112628326 0.12548448 -0.04938943 0.027670538 0.099967815
-0.15367629 -0.13952877 0.19845566 0.06665391 -0.08331303 0.20921469 0.03565614 0.19889864
0.016410137 -0.21530734 -0.0074490877 -0.06476873 -0.19753851 0.09137673 0.053702395 0.19090478
0.043556836 -0.09989806 0.18109071 0.052173357 0.1565446 0.041421134 0.16030414 0.09406145
-0.18998042 -0.068758994 0.17803165 0.15580525 0.0741161 -0.16931084 0.05405066 0.20051764
-0.13935703 -0.16395628 -0.06967657 -0.1630018 0.18572652 -0.08907601 -0.078199096 0.18313988
0.14483236 -0.09094628 -0.07691569 0.09503932 0.20927201 0.21285647 -0.15486965 0.040725846
-0.008670973 0.08595692 0.14235117 0.18226361 0.04619726 -0.061666504 0.0481346 -0.08113284
0.04959313 0.17108746 0.10812561 0.20341907 0.16802569 0.19997872 0.07786418 -0.005137046
0.059086498 0.021104535 0.13050254 0.16610846 -0.07302715 0.012085566 0.12474024 -0.18733916
0.07115701 0.07270902 -0.19253093 0.14459842 -0.097782046 -0.09562703 -0.19820283 -0.029296497
00000000: 5c05 e93d 687d 1e3e c18c 013e db9a 533e
00000010: e7ae d5bb 9d92 f7bd 13fb b13d 5904 25be
00000020: 24c4 00be 2b60 dbbd 8323 033c 7a83 473e
00000030: 4acd e93d 6e55 a2bd 5823 3f3c 47cc b3bd
00000040: 8cac b43d f98a 41be 8ee0 0f3e 0166 8dbc
00000050: f182 dc3d e643 06be 9589 083e 6b65 34bb
00000060: 7100 803c 881b 093e fb55 5b3e 9df8 43bd
00000070: 76a1 10be f5dc cb3d 6463 3c3e fc63 0cbe
00000080: 66ee 513e 18d9 4d3d af57 4d3d 25f7 47be
00000090: d30e 36be 5da1 3cbe 51fa aebd 46e2 5d3d
000000a0: 75f0 02be 410e 293d a5f2 3c3e 221e 4cbe
000000b0: 16ed ad3d a0d6 24be 4c9a dbbd c437 3f3d
000000c0: 52de 59be 8676 e9bc f4b6 f23d 4cd4 5ebb
000000d0: c9c2 b7bd 795f 9dbd 965e 0dbe 8661 213e
000000e0: c4ce d0bd b96e 54bd 0aad a3bc eff8 203e
000000f0: 7566 4bbe aa7a 95bd c798 f03d c053 583e
00000100: d7c8 b8bc 813b af3c 674e 393e 6f21 38bd
00000110: 0279 58be b272 61bc dbbe 57be 5b3f 2f3e
00000120: 671f 8dbc 6b4d 773c e44c 51bc 6347 373e
00000130: 0691 543e e8ca fcbd bc4f 323c 6907 05bd
00000140: 09c1 3cbe 13d4 99bd 3f82 38bd 2749 bfbc
00000150: 5c5a 273e a83b aa3d 65c6 31bd 9324 303d
00000160: 7558 20be f010 a7bd 2703 a8bc c8e0 2dbe
00000170: 9414 723d be7b f53d 5a7f 373e 4a5b 9d3c
00000180: c793 25be 045f db3d b884 3a3b d7ca 2e3e
00000190: ad58 c93c 61f3 34bc b6dc 023e 842f 5c3e
000001a0: 4d59 41be ea9b a53d 53cd bb3c 6d68 403e
000001b0: 7447 3f3e 86db 56be 1db4 b33d 67b8 283d
000001c0: 62d1 ab3d 45f6 4f3e 0bd0 bfbd 24a0 3ebe
000001d0: 995f 8bbd ad90 f0bc d1d1 26bd f45d db3b
000001e0: 6f19 eabd 2bab 393e b368 2abe d2ea c93c
000001f0: 1e1c d13d 048d ef3d 2ec7 b23d 03e7 1bbd
00000200: 00e8 f1bd d200 eabd 0723 f03d 6d34 05bd
00000210: ed08 113e c7ee f53c 0d6c aa3d c692 16be
00000220: fe6a a8bd c151 093e 008f 31bd aca6 f03d
00000230: b5c9 4f3e 512c 41be 9855 023d 8915 1e3d
00000240: 35a6 0f3d 711c 043e a038 5cbe 4bc2 0f3e
00000250: 9d2b 823d 140a 66bc 6926 1bbe 7b61 bf3d
00000260: 9d79 0bbe 59e4 25be d867 debd 5631 15be
00000270: 7567 0ebe 1c4a 293e 6f54 00be 0518 84bc
00000280: 7f5c 8c3d 5a41 18bb 406c ce3b 4696 04bd
00000290: e15b 103e 6516 5fbe b877 d5bd 43ab 7cbb
000002a0: d417 d63d 0436 1c3d 71dd 94bc aea9 e63d
000002b0: 017f 003e 924c 4abd 53ad e23c edbb cc3d
000002c0: 515d 1dbe a1e0 0ebe f637 4b3e d881 883d
000002d0: 06a0 aabd 603c 563e 2c0c 123d 16ac 4b3e
000002e0: 8d6e 863c 8779 5cbe 7a17 f4bb 78a5 84bd
000002f0: 8947 4abe b923 bb3d 0bf7 5b3d 8b7c 433e
00000300: a768 323d 5b97 ccbd d86f 393e bbb3 553d
00000310: 3a4d 203e 35a9 293d c526 243e 4aa3 c03d
00000320: 3a8a 42be 84d1 8cbd ee4d 363e 698b 1f3e
00000330: 2fca 973d d25f 2dbe 3a64 5d3d 7f54 4d3e
00000340: 9cb3 0ebe 28e4 27be 97b2 8ebd f2e9 26be
00000350: 182f 3e3e 7c6d b6bd d926 a0bd 0589 3b3e
00000360: ef4e 143e 0b42 babd f985 9dbd faa3 c23d
00000370: 674b 563e 0cf7 593e 2696 1ebe 25d0 263d
00000380: b210 0ebc 2f0a b03d 81c4 113e 50a3 3a3e
00000390: 5739 3d3d 0496 7cbd c928 453d f928 a6bd
000003a0: 2a22 4b3d 8d31 2f3e f670 dd3d 174d 503e
000003b0: ed0e 2c3e 39c7 4c3e 4177 9f3d aa54 a8bb
000003c0: af04 723d 6be3 ac3c 75a2 053e 5618 2a3e
000003d0: 428f 95bd 8a02 463c d077 ff3d d6d5 3fbe
000003e0: c4ba 913d 77e8 943d d426 45be 9c11 143e
000003f0: f441 c8bd 1bd8 c3bd aff5 4abe 35ff efbc

critic.fc1.bias f4 [256]
-0.11542374 -0.054143175 0.058154568 0.0455046 0.105196126 0.08858582 -0.05806317 0.21527459
0.071008064 0.21531424 0.14576712 0.018081088 -0.07650401 0.008556969 0.11177119 0.18766142
0.007970487 -0.0499091 0.18854219 0.09055182 0.18676175 0.20971154 0.14859092 -0.114512876
0.05318858 -0.16672918 -0.1054386 0.13591132 -0.17120521 -0.11805032 -0.19957365 0.18827991
-0.09162388 -0.034192163 0.08678635 0.1521872 -0.21214752 -0.06138548 0.18921664 -0.10729871
0.19308217 -0.10913702 -0.17657542 0.17859869 -0.1745247 0.07344088 -0.07949301 0.11400492
-0.07533028 -0.14661929 -0.1932898 0.067869574 0.13575909 0.12904638 -0.20241587 0.14210398
-0.12712322 0.112640746 -0.040394235 -0.15229912 0.14280279 0.15011865 -0.1772642 -0.12806192
0.01349228 0.08068005 0.087125234 -0.2084318 0.12352867 -0.17341912 -0.06474726 -0.011031131
-0.10650974 -0.08227084 -0.028476859 -0.092464015 -0.08273853 0.052554637 0.13974518 -0.07090607
0.17178752 -0.21705501 0.19904938 -0.12593147 0.012349748 0.06435018 0.073467426 0.11230991
0.14001805 0.13040218 -0.11563137 0.06317474 -0.060895756 -0.07189208 0.1930771 0.08482085
0.21342975 -0.19427541 0.033726275 -0.16089636 0.14976941 -0.2011347 0.2021112 0.18650815
-0.21133487 0.027112246 -0.10834674 -0.12301485 -0.112278014 0.11575846 0.18577676 -0.062359568
0.13723065 0.15515521 -0.13332033 -0.18142706 -0.024909906 0.14146693 -0.19636758 0.09106383
0.040452614 0.07317893 -0.1320239 -0.21200792 -0.077602446 -0.14398412 -0.18630417 0.0650003
-0.044145733 -0.019685483 0.21032232 0.17632805 -0.106659904 0.21749403 -0.042331576 -0.034912117
-0.160564 0.07985252 0.20501783 0.15940638 -0.0040945807 -0.067357115 -0.20981407 0.086080864
-0.052498367 0.093423545 0.13402975 0.0762301 0.18387417 0.0060945316 0.07955931 0.036853354
-0.19183491 0.1675654 -0.018116733 0.13365075 0.14334138 -0.19418898 0.04169703 -0.15375446
0.01859824 0.11690556 -0.055454135 0.14082447 -0.17985669 0.08768184 0.14290458 0.18887196
0.06699393 -0.09776648 -0.13734639 0.15606831 0.1457011 -0.0070704813 0.13754714 0.032581083
0.061490856 -0.12101818 -0.1696457 0.17564514 0.17897582 -0.18311483 0.077837184 0.21572722
-0.18288662 -0.111533366 0.14370985 -0.08026298 0.15840521 0.107803695 -0.20827395 0.08052224
-0.05848043 -0.044235628 0.051977754 0.11822859 -0.10098986 0.09146286 -0.06420401 0.097816005
0.09356295 -0.19743064 -0.18231043 0.13185096 0.013684823 0.036194902 -0.121198185 -0.036323443
-0.120530576 0.12117116 -0.15038112 -0.027590005 0.03385734 0.13109744 -0.02004629 0.2130121
0.1596882 -0.13852699 0.16153145 -0.16951665 -0.15968063 -0.05162244 0.032184355 -0.10515805
-0.07275528 -0.16133992 -0.03974361 0.04288102 0.11637518 0.08277636 0.19408076 -0.12086079
0.01557602 -0.08023864 0.045620117 -0.16142054 0.0017570453 0.2080288 0.06677165 0.11999607
-0.029736219 -0.1750331 -0.009197525 -0.06777513 0.002772662 -0.10385114 -0.16662224 -0.13694878
-0.16063438 -0.21598113 0.07552171 -0.14426774 0.02817261 0.028108899 -0.05432088 0.19374208
00000000: 4863 ecbd 3cc5 5dbd 7c33 6e3d 0863 3a3d
00000010: 1171 d73d 7b6c b53d a6d3 6dbd f170 5c3e
00000020: ad6c 913d 567b 5c3e fa43 153e ca1e 943c
00000030: 22ae 9cbd 8832 0c3c 4be8 e43d 512a 403e
00000040: a596 023c 7c6d 4cbd 3411 413e 3c73 b93d
00000050: 793e 3f3e 9fbe 563e 3828 183e ba85 eabd
00000060: 45dc 593d 0ebb 2abe 31f0 d7bd 562c 0b3e
00000070: 6b50 2fbe 5ec4 f1bd 095d 4cbe 73cc 403e
00000080: 4da5 bbbd 150d 0cbd 0bbd b13d f6d6 1b3e
00000090: 333d 59be 576f 7bbd 02c2 413e 6dbf dbbd
000000a0: 55b7 453e 3b83 dfbd 30d0 34be 93e2 363e
000000b0: 9ab6 32be 2c68 963d 3bcd a2bd 697b e93d
000000c0: c346 9abd 5e23 16be c3ed 45be 34ff 8a3d
000000d0: 6e04 0b3e bc24 043e 1b46 4fbe b583 113e
000000e0: 972c 02be 31b0 e63d 6d74 25bd 4df4 1bbe
000000f0: e53a 123e b4b8 193e bf84 35be aa22 03be
00000100: b90e 5d3c 953b a53d b76e b23d 256f 55be
00000110: 99fc fc3d c894 31be 369a 84bd ebbb 34bc
00000120: c721 dabd 9d7d a8bd 4d48 e9bc c65d bdbd
00000130: d272 a9bd 8843 573d 5c19 0f3e 3437 91bd
00000140: 11e9 2f3e ab43 5ebe 9ad3 4b3e 2ef4 00be
00000150: 9956 4a3c 07ca 833d 1776 963d bd02 e63d
00000160: e460 0f3e 2688 053e 24d0 ecbd c261 813d
00000170: d46d 79bd 283c 93bd 01b6 453e 8eb6 ad3d
00000180: 548d 5a3e 22f0 46be 9024 0a3d 04c2 24be
00000190: 275d 193e 41f6 4dbe 3df6 4e3e fefb 3e3e
000001a0: 2b68 58be 801a de3c e5e4 ddbd 36ef fbbd
000001b0: 04f2 e5bd c512 ed3d 433c 3e3e bf6c 7fbd
000001c0: 3186 0c3e 02e1 1e3e 2085 08be 04c8 39be
000001d0: dc0f ccbc b5dc 103e 9514 49be ac7f ba3d
000001e0: a4b1 253d d6de 953d 4631 07be 9b18 59be
000001f0: 08ee 9ebd 9370 13be 85c6 3ebe e11e 853d
00000200: 28d2 34bd 7343 a1bc bc5e 573e 578f 343e
00000210: 8270 dabd c1b6 5e3e e063 2dbd 0200 0fbd
00000220: e46a 24be b889 a33d 32f0 513e 6d3b 233e
00000230: d52b 86bb 87f2 89bd 80d9 56be 2a4b b03d
00000240: 8708 57bd d854 bf3d 183f 093e 871e 9c3d
00000250: 8349 3c3e a3b4 c73b feef a23d 8bf3 163d
00000260: 5f70 44be 4496 2b3e 8b69 94bc bedb 083e
00000270: 15c8 123e 7ad9 46be 81ca 2a3d cf71 1dbe
00000280: 565b 983c 2f6c ef3d e023 63bd 4a34 103e
00000290: 5a2c 38be 8992 b33d 9455 123e a767 413e
000002a0: 1d34 893d cb39 c8bd 88a4 0cbe 5fd0 1f3e
000002b0: ab32 153e 7faf e7bb 28d9 0c3e be73 053d
000002c0: d6dd 7b3d 61d8 f7bd 9ab7 2dbe 52dc 333e
000002d0: 7045 373e 7482 3bbe 1a69 9f3d 99e7 5c3e
000002e0: a146 3bbe 9b6b e4bd ad28 133e eb60 a4bd
000002f0: fa34 223e 2fc8 dc3d c445 55be d8e8 a43d
00000300: 2d89 6fbd 6b30 35bd a0e6 543d d521 f23d
00000310: c6d3 cebd e150 bb3d 647d 83bd c253 c83d
00000320: ef9d bf3d 422b 4abe 96af 3abe f003 073e
00000330: 4f36 603c 1b41 143d c136 f8bd e4c7 14bd
00000340: bcd8 f6bd 9628 f83d 82fd 19be 6f04 e2bc
00000350: ffad 0a3d 683e 063e 1e38 a4bc d81f 5a3e
00000360: 4e85 233e 05da 0dbe 8068 253e c695 2dbe
00000370: 5283 23be 0d72 53bd bed3 033d 1b5d d7bd
00000380: b800 95bd 4b36 25be 32ca 22bd 02a4 2f3d
00000390: 1c56 ee3d a786 a93d 1bbd 463e dd85 f7bd
000003a0: 9032 7f3c 2854 a4bd 29dc 3a3d 6d4b 25be
000003b0: a84c e63a 8005 553e 93bf 883d 80c0 f53d
000003c0: 5f99 f3bc e13b 33be 37b1 16bc b0cd 8abd
000003d0: 8db5 353b e8af d4bd 059f 2abe 4d3c 0cbe
000003e0: 577d 24be 282a 5dbe 20ab 9a3d ecba 13be
000003f0: 3fca e63c a244 e63c 927f 5ebd 5364 463e

critic.fc2.weight f4 [128, 256]
0.045946717 0.03524577 -0.029553436 0.026859108 0.012276656 0.03278373 -0.031442862 -0.013655045
-0.031958275 -0.05863911 -0.028721755 -0.051104654 -0.05381791 0.030567868 -0.038820174 -0.040846627
-0.052294977 0.011803215 0.013652264 0.021198815 0.0399864 0.003113939 0.0268571 -0.026480172
-0.05305718 0.017326966 0.05693241 -0.010577896 -0.048030455 0.017075213 0.010960235 -0.036482885
-0.009666699 0.04722135 -0.04234932 -0.015360024 -0.01685073 0.031536497 -0.01253843 0.019795446
-0.03102843 -0.026777038 0.04830234 -0.00931348 0.037215583 0.010712128 -0.031010596 -0.017086433
0.0050873267 -0.016050564 0.0566864 -0.057107847 0.027015755 -0.030292213 -0.05555336 0.043548428
0.04427313 0.059355073 0.038704712 -0.018182503 -0.054861333 0.011577277 0.04990833 -0.026264574
-0.02224496 -0.03076871 -0.031459242 0.0023445524 -0.055677757 -0.035615876 -0.047211614 -0.047602355
-0.007513414 -0.02073002 0.040651146 0.05057922 0.011393291 0.018969724 0.054964326 0.05860692
-0.046601407 -0.0066865887 0.027994353 0.03409906 -0.0021378677 -0.010654536 -0.04353749 -0.05245017
0.049001344 0.043543458 0.013286281 0.027269527 0.02446082 0.041090064 0.019693322 0.053735603
0.02387816 -0.027957883 -0.053955927 -0.01374056 -0.031185782 -0.016951226 -0.019718485 0.023787482
0.026481232 0.03932473 0.04463518 -0.04369973 0.0049576815 0.024263402 -0.047291975 0.06153804
0.022509152 -0.018491136 -0.0123770125 -0.0007246025 0.026924 0.0057346155 0.05203364 -0.009407791
0.04372296 0.038977794 -0.019734114 -0.016227188 0.050954692 -0.040227175 0.01876169 0.0047788853
0.06193741 0.05119552 0.03733922 0.023846399 0.0133430725 0.02140082 0.0024456482 -0.024239175
0.002712329 -0.018553503 0.051296204 -0.028027266 -0.037789024 0.004022833 -0.0444878 0.027141582
0.006604197 0.04218495 -0.017368171 -0.057022363 -0.05673336 -0.028387554 -0.027705431 0.00626056
-0.019928306 -0.056179713 0.05306797 -0.050938204 0.059178315 -0.02004715 0.04357693 0.023470435
0.006076103 0.03594329 0.0036412515 -0.06085553 -0.023940783 0.037763555 0.008539861 0.021383367
-0.04415594 -0.032401733 -0.048525378 -0.053244334 0.029548533 -0.04735645 0.05089451 -0.04814021
-0.04914743 -0.014113147 -0.0005718055 -0.056449622 -0.04248365 0.024322204 0.029942054 -0.011062333
-0.058345765 -0.041964263 -0.014524549 0.027161218 -0.06151083 0.045439262 0.0075529823 -0.024938783
-0.027629582 0.03779434 0.040337704 -0.02452198 0.04861735 0.039614968 0.0500764 -0.04336897
-0.034401525 0.019256221 -0.010590387 0.05616307 -0.044392496 0.054760683 0.0035346423 -0.015851675
0.029060453 -0.05210852 0.021846687 -0.00788393 0.056929912 -0.050371498 -0.01336352 -0.048685517
-0.035089683 -0.01798703 0.022730136 -0.044705942 -0.007140874 -0.045261912 0.005290752 0.04099666
0.05570938 -0.048711058 -0.04976759 -0.02853653 0.051534213 0.014322858 0.019251041 -0.04829714
-0.002740979 -0.04849519 0.0122636035 0.012882629 0.028682863 0.051047858 0.011869697 -0.023485135
0.025299743 -0.02095081 -0.010014367 0.021128742 0.008248693 -0.02639179 0.016775625 -0.01577286
-0.021812502 -0.03256152 -0.06253235 0.007205967 0.008427779 -0.045820612 0.051411644 -0.029314991
00000000: a032 3c3d de5d 103d 0c1a f2bc a207 dc3c
00000010: 0724 493c 3c48 063d 3bca 00bd 69b9 5fbc
00000020: aee6 02bd 902f 70bd e349 ebbc 1d53 51bd
00000030: 2b70 5cbd 7769 fa3c e701 1fbd cb4e 27bd
00000040: 4233 56bd 4662 413c bfad 5f3c 23a9 ad3c
00000050: c8c8 233d 3a13 4c3b 6c03 dc3c f2ec d8bc
00000060: 7c52 59bd 48f1 8d3c f531 693d e94e 2dbc
00000070: 95bb 44bd 51e1 8b3c 8f92 333c 146f 15bd
00000080: 1361 1ebc 2d6b 413d 7b76 2dbd 9ca8 7bbc
00000090: 8b0a 8abc 6a2c 013d fd6d 4dbc 0f2a a23c
000000a0: 562f febc 855b dbbc add8 453d 9197 18bc
000000b0: 5e6f 183d ec81 2f3c ef09 febc d9f8 8bbc
000000c0: 97b3 a63b 797c 83bc 0030 683d ebe9 69bd
000000d0: 2550 dd3c 6027 f8bc ec8b 63bd d65f 323d
000000e0: be57 353d 4e1e 733d d588 1e3d 79f3 94bc
000000f0: 47b6 60bd 9fae 3d3c ad6c 4c3d ce28 d7bc
00000100: 103b b6bc a90e fcbc 68db 00bd 10a7 193b
00000110: 5c0e 64bd f4e1 11bd f760 41bd b0fa 42bd
00000120: 1633 f6bb 01d2 a9bc d181 263d 282c 4f3d
00000130: edaa 3a3c 6566 9b3c 4622 613d cf0d 703d
00000140: 1ee1 3ebd 2c1b dbbb 6a54 e53c 75ab 0b3d
00000150: 781b 0cbb 5d90 2ebc 5e54 32bd fdd5 56bd
00000160: a2b5 483d a05a 323d b4ae 593c 5864 df3c
00000170: 0f62 c83c 0e4e 283d e453 a13c dd19 5c3d
00000180: 229c c33c ee07 e5bc e400 5dbd 1620 61bc
00000190: 5379 ffbc 4cdd 8abc a988 a1bc f7dd c23c
000001a0: 2bef d83c f812 213d 61d3 363d 7dfe 32bd
000001b0: 0c74 a23b 0bc4 c63c 3bb5 41bd 500f 7c3d
000001c0: 1d65 b83c b97a 97bc f4c8 4abc 40f3 3dba
000001d0: b88f dc3c 71e9 bb3b 3a21 553d 2323 1abc
000001e0: d916 333d 2ea7 1f3d 70a9 a1bc e1ee 84bc
000001f0: deb5 503d 40c5 24bd 1eb2 993c 3298 9c3b
00000200: 15b2 7d3d 65b2 513d 03f1 183d 8659 c33c
00000210: e79c 5a3c c650 af3c 2b47 203b 3c91 c6bc
00000220: 54c1 313b 84fd 97bc f81b 523d 7099 e5bc
00000230: aac8 1abd f8d1 833b d738 36bd 0658 de3c
00000240: 0568 d83b 20ca 2c3d b247 8ebc 4890 69bd
00000250: 3d61 68bd 048d e8bc 80f6 e2bc 6225 cd3b
00000260: b040 a3bc b31c 66bd cd5d 593d 94a4 50bd
00000270: f664 723d ec39 a4bc b97d 323d 1245 c03c
00000280: 0c1a c73b 4539 133d 10a2 6e3b a643 79bd
00000290: 761f c4bc f5ad 1a3d c6ea 0b3c 2c2c af3c
000002a0: dcdc 34bd aeb7 04bd 8cc2 46bd bb16 5abd
000002b0: c40f f23c d6f8 41bd c376 503d ab2e 45bd
000002c0: d14e 49bd d43a 67bc 38e5 15ba b837 67bd
000002d0: 5603 2ebd 5c3f c73c 0a49 f53c ca3e 35bc
000002e0: f8fb 6ebd b8e2 2bbd 60f8 6dbc 3481 de3c
000002f0: c8f2 7bbd 851e 3a3d 027f f73b 6b4c ccbc
00000300: 6f57 e2bc 3dce 1a3d 2639 253d 52e2 c8bc
00000310: fd22 473d 4e43 223d e91c 4d3d a9a3 31bd
00000320: 9de8 0cbd 39bf 9d3c 4d83 2dbc 3f0b 663d
00000330: e8d4 35bd bd4c 603d 75a5 673b 5fdb 81bc
00000340: 3010 ee3c be6f 55bd d3f7 b23c 992b 01bc
00000350: 572f 693d 5852 4ebd aaf2 5abc 776a 47bd
00000360: 33ba 0fbd 8959 93bc 8d34 ba3c 941d 37bd
00000370: fefd e9bb 8e64 39bd 0b5e ad3b 1dec 273d
00000380: 852f 643d 3f85 47bd 1ad9 4bbd 71c5 e9bc
00000390: 8a15 533d 6caa 6a3c 5cb4 9d3c 39d3 45bd
000003a0: ffa1 33bb e4a2 46bd 48ed 483c aa11 533c
000003b0: 53f8 ea3c 8f17 513d 1e79 423c e663 c0bc
000003c0: 6841 cf3c 08a1 abbc 4d13 24bc 2f16 ad3c
000003d0: 8725 073c 9833 d8bc 096d 893c 1636 81bc
000003e0: 22b0 b2bc 3a5f 05bd f610 80bd 0820 ec3b
000003f0: ab14 0a3c 65ae 3bbd 0495 523d fe25 f0bc
