server/policies/checkpoints/policy_1_230/model.pt (torch, 338258 bytes, 11 tensors)

actor.fc1.weight f4 [256, 21]
000000 b7 c8 12 3e b9 f3 41 3d 13 bd 0e bd b7 e9 da bd
       0.14334379 0.047351573 -0.034848284 -0.10689109
000010 57 3e 47 bd d7 b8 41 3e 25 3c eb bc c1 20 3a be
       -0.048643436 0.18918167 -0.028715203 -0.18176557
000020 5e 73 3f bb 0c 40 12 3c 43 97 5f 3e 77 25 d3 bd
       -0.0029213051 0.008926403 0.21835046 -0.1030988
000030 63 95 55 be 2f 9c 59 3e 86 b4 95 bc c8 85 cc bd
       -0.20857768 0.21250986 -0.018274557 -0.09986454
000040 f0 7f 12 3d eb 50 d9 bd f4 cc 4d 3e 9e 23 38 3e
       0.035766542 -0.10611137 0.20097715 0.17982337
000050 40 15 bf bc e8 dd 01 bd 17 80 53 3e bc 91 b8 3d
       -0.023325562 -0.031705767 0.20654331 0.090121716
000060 a0 a2 d5 bc 12 9e 24 3e d4 80 95 3d f3 7d 4e 3e
       -0.026078522 0.16075924 0.07299963 0.20165233
000070 34 b6 41 3e ef 80 84 3d fa b6 b3 bc fc f0 17 bb
       0.18917161 0.06469905 -0.021937836 -0.002318441
000080 4b a6 6d 3d ef a6 c2 3d 7a 2e fd bc 45 7c cb bd
       0.058019917 0.09504496 -0.03090595 -0.09935812
000090 d0 fd 45 be d3 09 f6 3c 6c cc 35 3e 42 cf 68 3c
       -0.19335103 0.030033981 0.17753762 0.01420957
0000a0 0e 92 06 be 62 5c 67 3d e4 f5 52 3e d6 78 13 be
       -0.13141653 0.056484587 0.20601612 -0.14401564
0000b0 65 02 bd bd db b4 1f 3e 31 12 4d be ee e0 fe 3c
       -0.09228972 0.15596335 -0.2002647 0.031113114
0000c0 48 f2 b5 bd 42 56 04 3e 22 4b 01 bd f0 db 21 be
       -0.08884102 0.1292353 -0.031565793 -0.15806556
0000d0 5c e2 46 be b4 49 56 3e b3 b4 47 3e 43 e1 0b be
       -0.19422287 0.20926553 0.19502525 -0.1366015
0000e0 84 b9 0b be 9a af d7 3d 28 82 35 be 38 e7 4f ba
       -0.13644987 0.1053154 -0.17725432 -0.00079308776
0000f0 99 12 3b be d6 a4 2e 3e 23 a7 21 3e a9 e5 57 3d
       -0.18268813 0.17055067 0.15786414 0.052709255
000100 ae ad 37 bd dc e6 e5 bd 48 d4 0b bd 70 52 2d be
       -0.04484337 -0.112256736 -0.034137994 -0.16925979
000110 50 79 9e 3d 8f 0d e8 bd 03 92 e3 bd 1f 4e 50 3e
       0.07737982 -0.11330711 -0.11111834 0.20342301
000120 f2 92 d1 bd ed ca 94 3d 3a 00 c7 3d cd f7 27 be
       -0.10233106 0.072652675 0.0971684 -0.16403122
000130 0d b4 eb 3d 87 f2 b8 3d ad 8e c1 3d 1e 07 55 3d
       0.11508951 0.090306334 0.09451041 0.05200874
000140 a2 a8 b2 3d 03 c5 29 be 08 ba 28 3d 4f 68 ce 3d
       0.087235704 -0.1657906 0.04119304 0.10078489
000150 12 31 a7 bc 70 0f 42 be 26 6d 0a 3e f9 bf 14 be
       -0.02040914 -0.18951201 0.135182 -0.14526357
000160 d5 0b 5d 3e c5 32 81 bd 67 62 34 3e 4d 58 2a bd
       0.21586545 -0.06308512 0.17615663 -0.041588116
000170 00 5b 5c be bb 8e 06 3e 89 9d 06 be 25 9b 29 be
       -0.21519089 0.13140385 -0.13146032 -0.16563089
000180 3f 50 5c be 6a 8f c7 3d 7a 91 29 bd 1d 6d 5a 3d
       -0.21514986 0.09744151 -0.041398503 0.053326715
000190 47 33 2c be e1 d3 2f be 10 55 5d 3d ec a4 53 be
       -0.16816436 -0.17170669 0.0540362 -0.20668381
0001a0 21 97 b2 3d 03 f0 68 bc d2 0f cb 3d a4 d6 f5 3d
       0.08720232 -0.0142173795 0.09915127 0.1200383
0001b0 f7 d9 43 3e b3 d4 3c be 28 79 24 3e 19 d4 16 3d
       0.19126116 -0.18440513 0.16061842 0.036823366
0001c0 bf 95 5b bc ef 01 17 be e3 36 22 3e a4 58 a9 bd
       -0.0134024015 -0.14746831 0.1584125 -0.0826886
0001d0 06 c9 4d be 5e b5 26 3e 5c 87 31 3e ca 41 1d 3e
       -0.20096216 0.16280124 0.17336792 0.15357128
0001e0 70 55 3e bd bf 0d d4 bd 0f 8f 51 3e fb 62 a0 3c
       -0.0464682 -0.10354184 0.20464729 0.019578448
0001f0 44 a4 0f be 40 06 9c 3c ca 24 d3 bb a6 f1 3d 3e
       -0.14027506 0.019045949 -0.0064435946 0.18549213
000200 20 ab 4b be 54 42 19 bc e0 3a e4 3d 23 19 f6 bc
       -0.19889498 -0.009354193 0.11144042 -0.030041283
000210 57 f2 b2 3d 53 5e 3b bc 72 e6 ac 3c a2 5d a2 3d
       0.08737629 -0.011436063 0.021105979 0.07928015
000220 e8 86 8b 3b fc d5 62 bd e2 8d bc bc 4a 34 59 be
       0.0042580254 -0.055379853 -0.023016874 -0.21211353
000230 c3 91 d9 3d 33 1a 54 be 6d bd 13 3b 40 36 f6 bd
       0.10623505 -0.20713119 0.0022543326 -0.12022066
000240 5d 1f 14 be d0 61 d4 bd 7a 8e f1 bd f3 a5 21 be
       -0.14465089 -0.10370219 -0.117947534 -0.15785961
000250 3e 8f 4c 3d e2 e4 b2 3c f4 c1 51 be 5a a3 2b be
       0.049941294 0.021837655 -0.20484143 -0.16761532
000260 1f aa 25 3e 36 a0 25 be da 7e 3b 3e b0 17 61 bd
       0.16178177 -0.16174397 0.18310109 -0.05495423
000270 14 9e 35 bd e4 7c f2 bd b4 4c 27 be 8d 16 13 be
       -0.04434021 -0.11840227 -0.16337854 -0.14364071
000280 fb 0e a4 bd 03 50 e9 bc 1f c0 80 bd 41 fe 32 be
       -0.0801067 -0.028480535 -0.06286644 -0.17479803
000290 ce a9 01 3e 1f 8f 40 be cf e1 5e 3c 4b 90 48 be
       0.12662432 -0.18804596 0.013603642 -0.19586293
0002a0 e9 d1 2e 3d a8 4f 38 3d 8f 84 53 bd 90 25 96 3d
       0.042680655 0.04499784 -0.05164009 0.07331383
0002b0 6d 21 fc bd 0a da 48 be 75 2b 17 3e ac 7d 58 3d
       -0.12311063 -0.19614425 0.14762671 0.052854225
0002c0 b6 89 3e be 86 9a 9b 3d 79 89 03 be 70 af 09 be
       -0.1860722 0.075978324 -0.1284541 -0.1344583
0002d0 39 3d 12 be 22 92 52 3e c1 b1 57 3e 71 ea 45 be
       -0.14281167 0.20563558 0.21063901 -0.19327714
0002e0 67 ef 86 bd fa b0 f0 bc d5 f5 df 3c d4 2e e1 3d
       -0.06588631 -0.029381264 0.027338902 0.1099526
0002f0 b8 96 42 be 63 0e 25 3e 5f c1 51 3e fa 0a f9 bd
       -0.19002807 0.1611877 0.20483921 -0.12160297
000300 77 9f cf bd 81 e0 33 3e 2f 03 0e 3e 67 2a 09 be
       -0.101378374 0.1756611 0.13868402 -0.13395081
000310 e5 08 3d bd db 86 8e bc d4 51 50 3e ea 4f bf 3b
       -0.04615106 -0.017398288 0.20343715 0.005838384
000320 9d be c1 bd 16 5a 02 be d6 87 0a be 61 10 ec 3d
       -0.09460185 -0.12729678 -0.1352838 0.115265615
000330 13 f2 33 3e a9 43 84 bd fc 5f 85 3b 0e 75 16 be
       0.17572813 -0.06458218 0.00407028 -0.1469309
000340 3a d6 f5 bb 3f ce 45 3e d7 40 06 bb 1a ba 28 be
       -0.0075023444 0.19316958 -0.0020485425 -0.16477242
000350 c0 ab 50 be c1 80 28 3d 74 78 59 3d 02 1e 3f 3d
       -0.20378017 0.041138414 0.05309339 0.046659477
000360 b0 d6 35 3e 90 f3 5e 3d 21 3c f4 bd fa 98 2c 3e
       0.17757678 0.054431498 -0.11925531 0.16855231
000370 4b 72 57 3d 00 91 38 3d aa ef 0a bd 9d 02 14 bc
       0.052599233 0.045060158 -0.033919968 -0.009033826
000380 40 8f b9 3d 46 1b 20 3e a6 ce 24 3e 8c 27 97 bc
       0.09060526 0.15635404 0.16094455 -0.018451475
000390 9a 30 54 be 41 66 c5 3c 13 33 33 be 99 ba 38 bd
       -0.20721665 0.02409661 -0.17499952 -0.04509983
0003a0 ea 22 c0 3d c5 1d 66 bd 1e a3 14 be 5a fa 36 be
       0.09381659 -0.056180734 -0.1451535 -0.17868939
0003b0 8f 52 ab 3d 26 8a 3b 3d fe 0a b3 3c 25 56 d4 bd
       0.08365356 0.045786045 0.021855827 -0.10367993
0003c0 c8 30 e3 3d 1d d5 7c 3d 8c 17 77 bd 83 bb 11 be
       0.11093289 0.06172668 -0.06032519 -0.14231686
0003d0 09 11 69 3d fd cf 40 3e 26 5b 6b 3a 80 30 b4 3d
       0.05690101 0.18829341 0.0008978121 0.08798313
0003e0 7f 70 15 be d5 6e 58 3d 57 68 dd 3d 7f 33 66 3d
       -0.14593695 0.052840073 0.10810917 0.056201454
0003f0 b5 38 3c be ea eb ac bd fe 90 11 3e 80 2e 41 bd
       -0.18381007 -0.084434345 0.14215466 -0.047163486

actor.fc1.bias f4 [256]
000000 93 3c 43 bd a6 e1 50 bd 0d f3 24 3e b0 bc bc bd
       -0.04766519 -0.050996445 0.16108342 -0.09215677
000010 0e 59 26 3e 00 c8 84 3c aa a4 3d 3c 41 0f 9e bd
       0.16244909 0.016208649 0.0115749035 -0.07717753
000020 2e 12 21 bb 5b 97 73 3d dc 33 30 be ba 84 87 bd
       -0.0024577486 0.059470516 -0.17207283 -0.066171125
000030 93 6d 23 3e d8 03 89 bc 75 c3 e5 3d 46 9d 20 be
       0.15959768 -0.016725466 0.11218921 -0.15684995
000040 97 8a ba bd 78 67 2f 3c 90 71 bd 3d 36 d1 81 bd
       -0.09108465 0.010705821 0.09250176 -0.06338732
000050 28 b2 98 3d 4a bd 5a 3e 94 70 e4 bd 53 81 9c 3d
       0.074558556 0.2136127 -0.11154285 0.07641854
000060 c9 9f 24 3e c6 88 a2 bd 09 cc a5 bd f5 79 5e 3e
       0.16076578 -0.07936244 -0.08095557 0.2172621
000070 87 3c cf 3d 9a 83 36 be 20 7f 01 be ee 18 0a 3d
       0.101189665 -0.1782364 -0.1264615 0.03371518
000080 00 b6 37 3e e4 c0 32 3d ed 63 5a 3e f9 88 af 3d
       0.17940521 0.043640986 0.21327181 0.08571047
000090 fe 1f 34 be 0a c3 30 3e 1d 11 4c 3e 6b e2 81 3d
       -0.17590329 0.17261901 0.19928403 0.06342014
0000a0 2b 79 3f bc 84 4c 99 bd f9 a7 5a be ca ce 53 3e
       -0.011686604 -0.07485297 -0.21353139 0.20684353
0000b0 81 e5 2e be 3f 67 25 3d 5a 61 18 be 5c 72 33 3c
       -0.17079736 0.040381666 -0.14880887 0.010952558
0000c0 5a b4 38 be fb a0 0d 3e c8 59 1f be 4c 66 2d be
       -0.18037549 0.1383094 -0.15561593 -0.16933554
0000d0 7e 19 75 3d 5e fa d3 3d e4 b5 ca bd 69 05 11 bd
       0.059838764 0.10350488 -0.09897974 -0.03540555
0000e0 be 8a 18 3e 3d 99 57 be 38 4d 78 bd b8 7f 92 bc
       0.14896676 -0.2105455 -0.060620517 -0.017883167
0000f0 b8 d7 01 be 8c 37 1b 3e 24 70 26 3d db 50 4e 3e
       -0.12679946 0.15157908 0.04063429 0.20148031
000100 59 d6 c4 bd 63 4f 9a 3d ee bb d2 bd 06 61 68 3c
       -0.09611196 0.07534673 -0.10289751 0.014183288
000110 14 8b a3 bd d6 0a 01 bd 7d 2e 03 be 01 4f 18 be
       -0.079855114 -0.031504475 -0.12810703 -0.14873888
000120 1c f8 22 be 1f 9e 9e 3d 73 72 47 be 38 1a d2 bc
       -0.15914959 0.07745003 -0.19477253 -0.025647268
000130 64 66 2f 3e 81 aa e8 3d 39 08 e1 3d b7 67 af bc
       0.17128903 0.11360646 0.109878965 -0.02141176
000140 94 d0 52 3e 19 81 54 be 78 cc 28 3e 58 3c 44 ba
       0.20587379 -0.20752372 0.16484249 -0.00074857986
000150 a6 1f 06 bd 08 c8 5e 3e b5 a6 20 be 46 c4 7f bd
       -0.032745026 0.21755993 -0.15688594 -0.06244304
000160 66 b6 3f 3e 4f c4 b9 bd bf 90 11 be 04 19 75 3d
       0.18721923 -0.09070646 -0.14215373 0.05983831
000170 54 10 b9 bd 27 ea d5 bd f6 45 d5 bd dd 76 ed 3b
       -0.090363175 -0.10445052 -0.104137346 0.0072468356
000180 60 22 6d bd 34 77 b1 3d b2 ab 54 bd e6 94 16 3c
       -0.05789411 0.08665314 -0.051921554 0.009190774
000190 26 c6 8e bd 43 39 16 3e c9 37 50 be 5a cf 2c be
       -0.069713876 0.14670281 -0.2033378 -0.16875973
0001a0 6c 33 26 3e 90 da fd 3c 94 5e 24 be ce f7 1e 3e
       0.16230553 0.030988008 -0.16051704 0.15524217
0001b0 91 54 0d be 23 27 bc bd 3a 4e 55 bd eb 51 e8 3d
       -0.13801791 -0.09187152 -0.052076556 0.113437496
0001c0 d6 02 5d 3d 2b 61 87 3c 2c 69 22 be 49 2e e3 3d
       0.053957783 0.016525825 -0.15860432 0.110928126
0001d0 4b 07 89 3c 57 88 ce 3c a4 c4 2a 3d 79 4a af bd
       0.01672711 0.025211496 0.041691437 -0.085591264
0001e0 4d 4c ac 3c a2 d9 79 3d f0 09 af 3d a6 60 98 3c
       0.021032477 0.060998566 0.08546817 0.018600773
0001f0 31 e8 45 bc 3a fd 7a 3d 60 ea ae 3d a2 a6 fe 3c
       -0.0120792845 0.061276652 0.08540797 0.031085316
000200 c5 23 60 3e a0 cd 21 be 9c 59 2e 3e 58 0f a3 bd
       0.21888645 -0.15801096 0.17026371 -0.07961911
000210 6e 82 02 be aa f5 32 3e 6f dc e7 3d 29 c0 5a 3d
       -0.12745067 0.17476526 0.11321341 0.053405914
000220 d5 93 bd bc 71 ef f8 3d 2a 6c d9 bd ea 55 e3 bd
       -0.02314178 0.12155045 -0.10616334 -0.11100371
000230 0b 77 8e 3d c3 3d bb 3d 26 b7 52 3e 32 9e 1e 3e
       0.069562994 0.091426395 0.20577678 0.15490034
000240 a1 71 df 3d 21 01 5a be 6e 63 d2 bd a8 c0 30 be
       0.10910345 -0.21289493 -0.10272871 -0.17260993
000250 63 a9 42 3d 86 9f 4c be de eb 3b 3e 89 cd d5 3d
       0.04752482 -0.19982728 0.18351695 0.10439593
000260 f9 06 2e bb a9 8d 31 3e ee 91 2d be 65 e5 98 3d
       -0.002655445 0.17339195 -0.16950199 0.074656285
000270 32 30 63 bd 7a 47 33 bd a5 cf f3 3d cc 4f d3 3c
       -0.055465885 -0.043769337 0.119048394 0.025794886
000280 0c 24 86 bd 58 ae 19 3e 2a 68 a2 bc 21 a3 8b bd
       -0.06549844 0.15007913 -0.01982506 -0.06818224
000290 3d 86 b1 bd 7c 58 19 be 46 e4 31 3e 6c c3 81 3d
       -0.08668182 -0.1497516 0.17372236 0.06336102
0002a0 19 72 69 3d cf 95 54 3e 35 62 39 bc 2f 7c 25 3e
       0.056993578 0.20760272 -0.011314918 0.16160654
0002b0 5b ac a6 bd 9e 8b a0 3d 46 ed c4 3d d4 2b 96 bd
       -0.08138343 0.0783913 0.09615569 -0.07332578
0002c0 9c e0 ad 39 b7 da 09 be fe f4 91 bd 3a 2e 2f 3e
       0.00033164478 -0.1346234 -0.07126807 0.17107478
0002d0 2a 4c 4c 3e 60 c3 c4 3b a6 c1 81 bd 38 eb 5f bd
       0.1995093 0.006004736 -0.06335764 -0.05466768
0002e0 cb c0 1b be b6 66 35 be 1f d4 36 be 81 bf 47 3e
       -0.15210263 -0.17714962 -0.17854355 0.19506647
0002f0 53 6b 02 3e 58 e1 25 be 5c 7f ce 3d 40 a1 5b be
       0.12736253 -0.16199243 0.100828856 -0.2144823
000300 4a 6f 01 3e 69 62 45 3e 48 63 02 3e cf 35 9a bd
       0.1264011 0.19275822 0.12733185 -0.075297944
000310 e3 7e a7 3d 84 62 45 be a4 5e 96 bd 0a 45 ab 3d
       0.081784986 -0.19275862 -0.0734227 0.083627775
000320 d1 0b 28 be 9c 55 38 3e 2d 9f d2 3d b2 76 64 bc
       -0.16410758 0.18001407 0.102842666 -0.013944315
000330 04 d5 12 be 89 59 33 be a8 e6 f6 bd cb 38 d4 bd
       -0.14339072 -0.17514624 -0.12055713 -0.10362395
000340 c5 c2 da 3d 64 64 20 be a0 80 80 bd 0b 42 58 3e
       0.106816806 -0.15663296 -0.06274533 0.21118943
000350 57 ff d1 bd 64 30 31 be c8 3b 44 be 5c fe e2 3d
       -0.1025378 -0.17303616 -0.1916343 0.110836715
000360 98 14 2d be 3b bc 17 3e 64 5c 20 be 53 73 4d 3e
       -0.16902387 0.14817898 -0.15660244 0.20063524
000370 42 e8 36 3e 5a 82 02 3e b7 ce 5a 3d bf 67 08 3e
       0.17862037 0.12745038 0.053419795 0.13320826
000380 5d 88 09 3e a0 40 ee bd b2 5c 5a 3e e5 c5 8e bc
       0.13430925 -0.1163342 0.21324423 -0.017428348
000390 6b 54 41 3e e4 6d 21 be a8 df 75 3d de 6c 0e be
       0.18879859 -0.15764576 0.06002775 -0.13908717
0003a0 63 72 b8 3d e3 f6 ce bd 86 eb 2e 3d c9 f5 bb 3d
       0.090061925 -0.10105684 0.04270508 0.09177739
0003b0 ab 54 b1 3c dd 4b e3 bc 6d 80 62 3d 80 55 27 3e
       0.021646818 -0.027746135 0.055298258 0.1634121
0003c0 b7 88 21 3e 4b 70 ee 3d 3e f8 02 bd db d3 45 3d
       0.15774809 0.11642512 -0.031975023 0.048297744
0003d0 2b bc fa bd c6 a2 8a 3d e6 a7 31 3e c8 49 d6 bd
       -0.122429214 0.06769328 0.17349204 -0.104632914
0003e0 b6 99 a0 bb 51 e2 b4 bd 75 4e 4c bd 66 32 c9 bd
       -0.0049011363 -0.08832229 -0.04987951 -0.09824066
0003f0 62 3d e0 bd 5e 42 56 bd e7 b6 a6 3d 63 ce 2e 3e
       -0.10949208 -0.052309386 0.081403546 0.17070918

actor.fc2.weight f4 [128, 256]
000000 bf a7 3a 3d 81 d8 04 bc d8 f8 75 ba e5 3a 22 3c
       0.04557013 -0.008108259 -0.0009383089 0.009901737
000010 f8 9c 01 bd 61 98 50 3d 77 42 00 bd 82 d9 0c 3c
       -0.031643838 0.05092657 -0.031313386 0.00859678
000020 c7 a4 6a bc c8 70 4b 3c 00 7b 69 bc 32 7b 19 bc
       -0.014321513 0.012417026 -0.014250517 -0.009367751
000030 fd 3d 1d 3c 4c f2 74 bc d6 bd 32 3d 9e d4 6f bd
       0.009597299 -0.014950346 0.043638073 -0.058552377
000040 7e 1a 9f 39 68 90 ed bc c9 6a b9 3c d7 9b 7f 3d
       0.00030346581 -0.028999522 0.022633927 0.06240448
000050 0e 12 58 3d 97 cd 00 bd 1f 7e ab bc 7f f7 c2 bb
       0.052751593 -0.031446066 -0.020934163 -0.005949914
000060 c8 de 61 bd 8e 2a eb bc b4 14 2b bd 3c 69 9a 3c
       -0.0551441 -0.028706815 -0.04176779 0.018849008
000070 2a 4b 3b bd d0 91 d6 3c e5 1b 5c 3d 2c f2 69 bd
       -0.04572598 0.026192576 0.05373754 -0.05711572
000080 a8 d2 39 bd 7d e6 3b 3d d5 39 6b 3b 50 5c 40 bc
       -0.045366913 0.045874108 0.0035892625 -0.011740759
000090 8f 7c 62 bd 1b 8d 4a 3d e9 1d d9 bb b2 d6 24 3d
       -0.05529457 0.049450975 -0.00662588 0.040243812
0000a0 f2 bc 54 3d 55 cc 63 3c b8 5c 0d 3d 8c 2a 93 3b
       0.051938005 0.013903697 0.03451225 0.004491156
0000b0 3a 30 64 3d 47 b4 54 bd be 55 24 bd a0 b7 e1 bc
       0.055710055 -0.05192974 -0.040120833 -0.02755338
0000c0 85 04 c5 bc 54 e6 dd 3b 81 83 e8 3c c1 d8 52 3c
       -0.024050007 0.006771842 0.028383018 0.012869061
0000d0 18 49 e6 3b 7a 6a 89 3c 02 44 1e bd 0a 90 00 bd
       0.0070277564 0.016774405 -0.038639076 -0.031387366
0000e0 4e cf 16 3d fd b0 2a bc 02 fc b8 bc 0d c6 26 3d
       0.036818795 -0.010418174 -0.022581104 0.04071622
0000f0 23 96 f3 bb f1 44 65 bd 5b e2 b8 3c 45 45 0e 3d
       -0.007433669 -0.05597395 0.022568872 0.03473403
000100 66 37 70 bb 7f 8b e6 bc c9 85 8c 3b 98 34 58 3d
       -0.0036654114 -0.028142689 0.0042884094 0.052784532
000110 bf 9c 20 3d 0c 2d 00 3c 85 ff 27 bb b3 f8 bb 3b
       0.039211985 0.00782324 -0.002563448 0.0057364344
000120 f8 0f 64 bd 33 e8 8d bc 36 3e c7 3c a7 34 92 bc
       -0.05567929 -0.017322635 0.024321657 -0.017847372
000130 f1 eb ee 3b 3b 4d 94 3c 2b 80 b8 3b fb 12 68 bd
       0.00729131 0.018103233 0.005630513 -0.056658726
000140 fc 01 02 3d bc 6f f3 3b b2 cb fb 3b 93 99 e2 3c
       0.031740174 0.0074290913 0.0076841945 0.02766112
000150 10 46 71 3d 08 1d 00 3c 40 16 6d 3d 2c 72 54 3d
       0.058904707 0.007819422 0.057882547 0.051866695
000160 30 1e 12 3d 45 f4 6e bc 8a 87 c5 3b 25 67 3e 3d
       0.03567332 -0.014584606 0.0060281204 0.046485085
000170 92 82 0e bd f5 85 5a 3d fd b3 87 bc d0 8e 0e 3d
       -0.03479249 0.053350408 -0.016565317 0.034804165
000180 44 24 c4 3c 75 7a b4 3c e4 f9 a6 bc 33 bd df 3c
       0.023943074 0.022031048 -0.020382829 0.027311897
000190 15 2b 5e bc 38 6d 89 bc fb 29 a6 3c c2 37 7c 3d
       -0.013560076 -0.016775712 0.02028369 0.061576612
0001a0 16 45 d6 3a 46 18 0c bd ae 12 38 bd f2 df db 3c
       0.0016347494 -0.034202836 -0.04493969 0.026840184
0001b0 2a bb 5d bd f5 ac 28 3d be dd 02 bb d5 6b fc 3c
       -0.05413357 0.04118057 -0.0019968594 0.030813137
0001c0 ac 34 89 3c b6 8b 2d bd 3c e7 2f bd fd a3 79 bd
       0.016748749 -0.042369567 -0.04294513 -0.060947407
0001d0 01 26 c9 3b 4e e9 38 3c bf 62 81 3d 72 1b 25 3d
       0.0061385636 0.011286093 0.063176624 0.040309377
0001e0 b4 6a 81 3d f7 9a 5b bd b7 4c 77 bd b8 db 47 3d
       0.0631918 -0.053614583 -0.060375895 0.048793525
0001f0 9c 30 15 bd 4f 30 05 3d 26 fe 3b bd cc 27 62 bd
       -0.03642331 0.032516774 -0.04589667 -0.055213735
000200 cf 1e 6c bb 00 1f 17 3d e0 e2 95 3c 76 f6 07 bc
       -0.0036029106 0.0368948 0.018296659 -0.008298507
000210 bf 4d dc bc 36 25 22 bc b4 9e ec bb 48 3d 47 3d
       -0.026892541 -0.009896567 -0.0072210673 0.048642427
000220 a7 a5 c4 bc 10 27 6b bd eb 2f 31 bd cc e1 67 3d
       -0.02400477 -0.0574103 -0.04325859 0.05661182
000230 20 56 d8 3c 01 ad 70 3d aa 02 e8 3c 4f 67 55 3d
       0.026408255 0.05875874 0.028321583 0.052100476
000240 ab da a5 bb 14 1d 74 3c b8 be cc 3c 61 91 18 3d
       -0.0050614676 0.014899511 0.024993286 0.03724802
000250 cf 1f 8d 3c a0 c9 ea 3c 50 73 29 bd ba 3d 1a 3d
       0.017227082 0.028660595 -0.041369736 0.037656523
000260 1e 00 75 3d dc ce 43 3d d0 d7 06 bd 87 c3 13 bd
       0.059814565 0.0478047 -0.03292066 -0.03607514
000270 df 01 4b bd a2 83 da bb ce 9f 53 3c 4f 69 24 3d
       -0.04956233 -0.006668524 0.012916518 0.040139493
000280 04 cb 0f 3d 81 88 b8 bc ed 57 07 bc e4 2a 28 3d
       0.03510572 -0.022526028 -0.008260709 0.04105653
000290 06 5d 80 3d ab ba 4a bd c7 aa cf bb 2f b7 30 3d
       0.06267743 -0.049494427 -0.006337497 0.043143447
0002a0 7e dc 69 bc 5d f1 7f 3d 11 cc 15 bc 50 b4 27 3d
       -0.014273761 0.06248604 -0.0091428915 0.040943444
0002b0 2d 01 ca 3b d4 b9 ff 3a 33 a1 4c 3d 96 85 71 3d
       0.006164691 0.0019510337 0.04995842 0.058965288
0002c0 74 01 00 3d 7f 0f b6 3c a1 4e 52 3d 84 20 44 3d
       0.031251386 0.022224186 0.051344518 0.04788257
0002d0 a4 cb 38 bd 79 15 27 bc 01 08 1b bd e7 e3 10 bd
       -0.04511608 -0.010197991 -0.03784943 -0.035373595
0002e0 0c d0 72 bd 48 47 ff bb f3 c8 73 bd 25 59 ec bc
       -0.05928044 -0.00779048 -0.059517812 -0.028851101
0002f0 8b 6b 67 bc c0 39 72 bc 72 ec 23 3d 69 46 90 3c
       -0.014124761 -0.0147842765 0.040020414 0.0176117
000300 2a 19 87 3c 3a 92 69 3c 0a 58 16 3d f5 45 d8 3c
       0.016491491 0.014256055 0.036705054 0.026400546
000310 af eb e2 3c 85 da 40 3d b6 5f bd 3b 56 70 02 3d
       0.027700273 0.047083396 0.005779232 0.031845413
000320 d7 4c 14 3d c9 8c f7 3c 05 61 fd 3b 47 19 64 3d
       0.036206093 0.030218499 0.007732513 0.05568817
000330 7b 80 a3 3c 61 02 16 3d a7 2c 00 bc 09 19 46 3d
       0.019958725 0.036623362 -0.007823146 0.04836372
000340 f5 0b 63 bd c4 3a 8b bb 8d d5 a0 3c a2 71 17 bd
       -0.055431325 -0.004248949 0.019633079 -0.036973603
000350 04 0f b2 bb df 7a 42 3d 0d 90 3d bd 30 06 b0 3a
       -0.005433919 0.04748046 -0.046279956 0.0013429578
000360 b0 17 59 3d 3e 34 6b bd c1 5e 79 3d 6a 15 c9 3c
       0.053001106 -0.05742287 0.06088138 0.024546344
000370 c0 3d c6 bc 22 af fb bb 86 71 27 ba 11 58 07 bd
       -0.024199367 -0.0076807896 -0.0006387461 -0.03304297
000380 5c 64 40 bd 78 1f 18 3d a0 26 6f 3d 0e 7a 9f 39
       -0.04697071 0.037139386 0.058386445 0.0003041778
000390 ed b4 02 3d ca 91 5b bd 72 17 80 3d c6 85 f8 bc
       0.031910826 -0.053605832 0.06254472 -0.030337226
0003a0 2a ed 23 3c 96 30 cf 3c 9a 2a 48 bc d0 fa 09 bd
       0.010005275 0.025291722 -0.012217188 -0.03368646
0003b0 00 b7 35 bd f9 25 96 3c d1 1f 55 3d 21 87 5c bc
       -0.044363976 0.018328654 0.052032296 -0.013459952
0003c0 bb c2 5b 3d 60 b7 32 bd ac c3 5f 3d a9 80 e6 bc
       0.053652506 -0.04363191 0.054629967 -0.028137522
0003d0 5c ad 4c 3d 6f c2 bb bb bd 89 71 3d d1 cd 38 bd
       0.049970016 -0.0057299654 0.058969248 -0.045118157
0003e0 5b be 2a bd cc 6f 26 bd 6f 29 41 bd ce e7 65 3d
       -0.041685443 -0.04063396 -0.047158655 0.05612927
0003f0 a5 43 49 bd a0 74 29 bc 61 4e a3 3c d5 6e 4d bd
       -0.049136776 -0.010342747 0.019934835 -0.050154526

actor.fc2.bias f4 [128]
000000 80 17 6f 3c ce c4 26 3a f5 10 e9 3c 4b 62 27 bd
       0.014593005 0.00063617236 0.028450469 -0.040865224
000010 42 f2 b1 bb d2 4d 4f bd 5d 2f 60 bd 3c a9 02 3d
       -0.0054304907 -0.050611325 -0.05473267 0.031899676
000020 80 7f 3f bd 02 9a 5f bd fb 2a 10 bc 7f 08 51 bd
       -0.046752453 -0.054590233 -0.00879931 -0.051033493
000030 63 e9 67 3d ad 3e e5 bc 21 92 2f 3d 9a 7a 4d bd
       0.05661906 -0.027983988 0.04286397 -0.05016575
000040 29 e6 1a 3d ac 7e 45 3c 1d 33 5d bd 73 0f 78 3b
       0.037817154 0.012054127 -0.054003824 0.0037851005
000050 c1 af 50 3c 5f 53 89 3c a5 2e 2c 3d 62 8e 10 3d
       0.0127372155 0.016763387 0.04203667 0.035292037
000060 90 ec 1e 3d 01 ed 85 3c 08 2d 6a bd e1 57 21 3d
       0.038799822 0.016348364 -0.05717185 0.03939045
000070 21 99 7a 3d b2 46 f3 3c ba 58 2b bd 7e 29 42 bd
       0.06118119 0.029696796 -0.041832663 -0.04740285
000080 0f 15 80 3d 9a f5 12 bd cd 8f 12 bd c8 3e d1 bc
       0.062540166 -0.035878755 -0.03578167 -0.025542632
000090 ea 0c 08 3c fd b9 7a bd eb e5 59 bd ea e1 38 bd
       0.00830386 -0.06121253 -0.053197782 -0.045137323
0000a0 e0 ba c4 39 7d 0e 7d bd d0 74 c1 bc 1b b7 53 3d
       0.00037523266 -0.061781395 -0.02361527 0.051688295
0000b0 de 31 21 3d e6 f8 65 bd eb 75 2b 3d 8e 5a f4 3b
       0.039354198 -0.05614557 0.041860502 0.007457084
0000c0 0c 12 cd bc 8c e2 a5 3c 6d ca 50 3c 04 40 58 bb
       -0.02503302 0.020249628 0.012743575 -0.003299714
0000d0 d2 4b c9 bc 9b a9 28 bd d1 2d 1c 3c 6d d4 56 bd
       -0.024572287 -0.041177373 0.009532408 -0.05244868
0000e0 66 78 93 ba aa d5 48 3b bc b2 42 bd 11 d1 f8 3c
       -0.0011251091 0.0030644932 -0.047533736 0.030373128
0000f0 90 7e e6 bc 4f 45 4a 3d 16 9b 08 3d 8c 47 00 bc
       -0.028136522 0.049382504 0.033351026 -0.007829558
000100 90 83 2b bd c4 af 5e 3a 0d 88 0f 3d ac 4b 42 3d
       -0.041873515 0.0008494819 0.035041858 0.047435448
000110 d0 0c 61 bd 14 06 7d bc 08 d6 05 3d 31 d1 79 3d
       -0.05494386 -0.015443344 0.03267482 0.060990516
000120 9a 2b 1b 3c b6 6c 56 bd ac c5 b0 ba c4 4a c8 3b
       0.009470845 -0.05234977 -0.0013486645 0.0061124284
000130 19 1a 45 bd 6b 75 36 3d 43 ca 4a 3d cd 87 b8 3c
       -0.04812059 0.044545572 0.049509298 0.022525692
000140 af b4 a2 bc a0 65 0d bd 5d de 01 3d d1 0a 4b bd
       -0.019861547 -0.034520745 0.031706203 -0.049570862
000150 87 3e ba bc ed 37 d4 3b bd cc 3d 3d fe 69 83 bc
       -0.022734893 0.0064763934 0.04633783 -0.016041752
000160 42 ac ea bb 70 64 f8 3c 86 f2 22 bc 35 cf d9 3c
       -0.007161648 0.03032133 -0.009945517 0.026588062
000170 91 21 38 3d 7e 3b 2b bd 34 74 00 3c 80 c6 f3 3b
       0.044953886 -0.041804783 0.007840205 0.0074394345
000180 26 50 df bc 50 fb b6 3c a2 92 d6 3b da e7 3b 3d
       -0.027259897 0.022336632 0.0065482417 0.045875408
000190 b9 26 69 3d 6e e5 9a bc f7 57 63 3d d7 e1 14 3d
       0.056921694 -0.018908229 0.05550381 0.03634819
0001a0 71 77 01 3d d7 7a 90 bc d5 d2 6e 3d 6d 12 b3 bc
       0.03160805 -0.0176367 0.058306534 -0.021859372
0001b0 95 3a 6c bd e1 f6 a9 bc fd 91 4d 3d ae 97 33 3d
       -0.057673056 -0.020747604 0.050188053 0.043845825
0001c0 1d e3 1e bd c3 a7 54 bd aa dc 41 bd c4 37 ce ba
       -0.03879081 -0.051917803 -0.047329582 -0.0015733172
0001d0 61 56 3d 3d fe 5e 6c bd cd 45 d8 3c d3 0f 4d 3d
       0.046224955 -0.05770778 0.026400471 0.05006392
0001e0 4a 5b 4b 3b d5 83 92 3c fc b6 32 bc 05 01 2d 3d
       0.0031029754 0.017885128 -0.010907885 0.0422373
0001f0 ee 7a 62 bd 33 79 54 3d bd 32 a9 bc 7e 90 ef bc
       -0.055293016 0.051873397 -0.020654077 -0.029243704

actor.policy_head.weight f4 [50, 128]
000000 74 11 a6 bd 89 0b f6 bb e6 6e b3 3d 41 12 dc bb
       -0.08108798 -0.0075086993 0.087613866 -0.006716043
000010 66 7a 3c 3d 23 c3 5e 3d e7 05 74 3d ea 03 86 bc
       0.046015166 0.054385316 0.05957594 -0.016359288
000020 b7 83 79 3d 13 aa 24 bd 72 cb 2a bd 7f f8 47 bd
       0.06091663 -0.040201258 -0.041697927 -0.04882097
000030 10 6d e3 bc c0 40 a4 bd 48 aa 71 bd 76 5d fa 3b
       -0.027761966 -0.080201626 -0.059000283 0.007640536
000040 9c c2 90 3d ac be 10 3d 84 af 68 bd ea b5 9c 3b
       0.07068369 0.03533809 -0.05680801 0.004782428
000050 2a 91 b6 ba c8 16 9d bd e4 53 6c bd b8 14 7a bd
       -0.001392876 -0.07670361 -0.05769719 -0.061054915
000060 52 b1 91 bd 1d 9f aa 3d 32 d6 b1 3d 32 7c 86 3d
       -0.07113899 0.0833113 0.08683433 0.06566657
000070 46 53 b1 bd e2 f9 a7 3d 6d fa 2b bb ca f7 4d bc
       -0.08658461 0.08201958 -0.0026241795 -0.012571285
000080 18 8b b2 3c 5c 4f 64 bd 97 bc 45 3b 74 3e 81 bd
       0.02179484 -0.055739745 0.0030172223 -0.0631074
000090 45 73 ca 3c c5 f7 a9 3d c3 83 96 3d 26 56 79 3d
       0.024713168 0.082992114 0.0734935 0.060873173
0000a0 96 31 ff bb b6 c2 03 bd c5 aa 3f bd d2 0a 51 bd
       -0.0077878935 -0.032168113 -0.046793718 -0.05103571
0000b0 4f 90 cc 3b e2 cd a1 bd 3f 10 27 bd 8a c8 4d bd
       0.006242789 -0.07900597 -0.040786978 -0.050240077
0000c0 97 93 87 3d f9 b3 a1 3d 87 54 53 3d 42 07 0b 3d
       0.066199474 0.07895655 0.051594283 0.03394247
0000d0 8a 4a 87 3d 71 38 bf bc 32 77 8e bc 3b 90 61 3d
       0.06606014 -0.023342343 -0.017390821 0.05506919
0000e0 07 f0 aa bd 0b b9 a8 bc 5f da 16 3d 91 8c 8d bc
       -0.08346563 -0.020596048 0.03682935 -0.017278941
0000f0 63 f6 a0 3d c3 b8 85 bd 09 99 27 bb da 01 21 38
       0.078594945 -0.06529381 -0.0025573394 3.8387116e-05
000100 c1 b2 fb bc 1f 46 45 bd d8 69 29 bd 6a 08 92 3d
       -0.030724885 -0.048162576 -0.041360706 0.07130511
000110 d0 b7 83 3d 94 90 70 3c cc a4 a0 bd 7c 2b b2 bd
       0.06431544 0.014682908 -0.078439325 -0.086997
000120 97 27 45 3d bb 61 7b bd ed 2b 9e 3d 8f 2c 84 3d
       0.04813346 -0.0613725 0.07723222 0.064538114
000130 22 3a 22 3d 4a 6d 96 3d 71 bd 53 bd 4b a6 8f 3d
       0.03960622 0.07345064 -0.051694337 0.0701414
000140 fb 4b 9c bd 20 f9 c9 3c 7e a6 8c 3d 12 36 06 bd
       -0.076316796 0.024654925 0.06867693 -0.03276641
000150 99 93 61 3d 2e 54 82 3d 22 8a 0d 3d e6 e1 43 bd
       0.0550724 0.06363712 0.03455556 -0.047822855
000160 5b 9b 2b 3d 3b 32 1b 3d b0 0c 94 bd 76 a8 17 3b
       0.041896205 0.0378897 -0.072289824 0.0023141182
000170 50 32 82 3c 04 13 08 3d 8e 72 0d 3d fa f0 92 bc
       0.015893131 0.03322126 0.034533076 -0.017937172
000180 5e 75 ec 3c c4 c2 dd 3c 49 84 bf bc 77 46 2e bd
       0.028864559 0.02707041 -0.023378508 -0.04254767
000190 d4 4b b4 3d 33 5e a6 bd 0d 47 4e bd e7 54 94 bd
       0.088035256 -0.08123436 -0.050360728 -0.07242756
0001a0 88 e9 a5 3d 7f a3 8e bc f4 56 8b bd 9e aa 4f 3d
       0.08101183 -0.017411945 -0.06803694 0.050699823
0001b0 c0 5c 29 3d 71 62 3b bd 9d 7c 9e bd cd 4d 52 3d
       0.04134822 -0.045748178 -0.07738612 0.051343728
0001c0 6d 95 2b bb bf 59 df bc a4 a4 20 3d e7 09 84 3c
       -0.0026181594 -0.027264474 0.039219514 0.016118003
0001d0 c0 78 50 3d cb ac ef bc ce aa 96 3c 18 20 b4 3d
       0.050896406 -0.029257199 0.018391993 0.08795184
0001e0 71 23 5f 3b 17 30 a7 3d 71 79 e7 3a aa 28 b1 3b
       0.0034048224 0.08163469 0.0017660094 0.005406459
0001f0 ea 2e 3a bd 00 cf 49 3d 3e bd fb bc ed 52 83 bd
       -0.045454897 0.049269676 -0.030729886 -0.06412301
000200 28 55 81 3d 8b 58 92 3d 69 80 af bd 35 97 1e 3c
       0.063150704 0.071457945 -0.08569414 0.009679605
000210 09 d2 ac 3d ac 6f a4 bd 11 7a 01 3d 88 37 80 3d
       0.084384985 -0.08029112 0.031610552 0.06260592
000220 b7 0b 99 3d 28 69 a2 bd 0f 03 89 bd 15 20 91 bd
       0.074729376 -0.07930213 -0.066900365 -0.07086197
000230 8d bd 4f 3d 7e f0 74 3d a5 34 b9 bc c1 4b 08 3c
       0.05071788 0.059799664 -0.02260811 0.008318842
000240 65 94 92 bd 81 48 87 bd ea e6 a4 3c d2 6f 67 bc
       -0.0715721 -0.06605626 0.02012964 -0.014125781
000250 e7 5c 53 3d c2 b1 72 bd 68 55 8c 3c 7c 73 b2 bb
       0.05160227 -0.059251554 0.017130569 -0.0054458957
000260 4e 75 95 bd bd 93 a7 3d 0e fb 8a 3d 82 f0 b1 3d
       -0.07297765 0.08182476 0.06786166 0.08688451
000270 0f e8 85 bc df 50 7e 3d 1f 6c 47 3b 6f 45 65 3d
       -0.016346006 0.062088843 0.0030429435 0.05597442
000280 c8 ac fa bc 0a 5d 57 bd 2b fd a0 3d a6 37 b0 bd
       -0.030599967 -0.052578963 0.07860788 -0.08604364
000290 e4 ec af bd 66 17 8e 3d 67 9a aa 3c 3c d2 fb bc
       -0.08590105 0.06938057 0.020825578 -0.030739896
0002a0 d8 32 8f 3d 3d 28 69 bc 07 41 61 3d 38 0b 4f 3d
       0.069921196 -0.014230785 0.054993656 0.05054781
0002b0 d2 28 aa b9 4e 2a 56 bd 99 5a 25 bd 62 5e 68 3c
       -0.0003245534 -0.05228644 -0.040369604 0.014182659
0002c0 46 58 17 3d 41 3c ec 3c c0 6d 6f 3d 7a 6c 6e 3d
       0.03694942 0.028837325 0.058454275 0.05820892
0002d0 f5 d6 92 3d 68 7e d5 bc d2 c0 b2 bc 30 ff aa bd
       0.07169906 -0.026061252 -0.02182046 -0.083494544
0002e0 29 d0 8d bc aa ad 2b 3c e1 83 f8 3c 28 e0 29 bd
       -0.017311173 0.010478416 0.030336322 -0.041473538
0002f0 08 8b 67 3c 59 a0 9f 3d 77 f7 55 3c ab 6d 5b 3d
       0.014132269 0.07794256 0.0130594885 0.053571384
000300 fa 2a 97 3d de b9 86 3c e3 8f 6f 3d 1a 84 a7 3b
       0.07381244 0.01644605 0.05848683 0.0051121833
000310 b2 87 ad bd ff bf 0e bd 32 81 39 3c fc c2 20 3d
       -0.084731475 -0.03485107 0.0113223065 0.03924845
000320 3d ff 8d bd 76 17 93 3c a9 66 7e 3c 56 7d 48 bd
       -0.069334485 0.017955523 0.015527406 -0.048947655
000330 0a 96 ab bd 35 97 d9 3c f1 a8 4f bd 91 59 43 3d
       -0.08378227 0.026561359 -0.050698224 0.04769284
000340 7e cd ad bd ab 9b 44 3d 76 5a 81 bc cb b4 70 3d
       -0.0848646 0.04800002 -0.015790205 0.058766168
000350 ef a9 8c bd db 60 a3 3d 5c 84 1f bd 34 00 a4 3d
       -0.0686835 0.07977458 -0.038944587 0.08007851
000360 2b e3 f7 3c 2a 52 82 bd 16 b6 69 3c a2 f1 e2 3c
       0.03025969 -0.06363328 0.014264604 0.02770311
000370 2a 1f b1 3d cb e5 b2 bd 38 dc 7d 3d 8d eb ba bc
       0.08648522 -0.08735236 0.061977595 -0.022817397
000380 c1 cc 7c bd 98 c0 2a bd 54 41 13 bc cd 39 82 bc
       -0.061718706 -0.041687578 -0.008987743 -0.015896702
000390 e2 1f 12 bd 43 f7 45 3d f7 94 04 bc a1 b5 d7 3c
       -0.035674937 0.04833151 -0.008092157 0.026331725
0003a0 d3 d4 3b bd 68 ec 78 bd d0 a5 07 3d 6f e5 b2 bd
       -0.045857262 -0.06077233 0.033117115 -0.08735167
0003b0 40 54 9d bc d5 d6 5d bb 23 a5 2c bd 84 31 3f bd
       -0.019205213 -0.0033849974 -0.042149674 -0.04667808
0003c0 3d 2c 68 bd bf 5e 9d 3d 42 63 a6 3d 29 fb b1 3c
       -0.056682814 0.07684087 0.08124401 0.021726208
0003d0 f0 60 94 3d e5 64 5d bd 8c c4 33 bd e9 2b 13 3d
       0.07245052 -0.0540513 -0.043888614 0.035930548
0003e0 26 92 9e 3d 3e c8 04 bd fd 15 43 bd ad 7a 47 bb
       0.07742719 -0.03241753 -0.04762839 -0.003043811
0003f0 6a 43 ae bd ee 3f eb 3c 5b 44 b1 bd 90 df 3a 3d
       -0.08508952 0.028717007 -0.08655616 0.045623362

actor.policy_head.bias f4 [50]
000000 19 d1 a1 3d 91 68 97 bd ce bd 7d 3c c9 3c 9c bc
       0.0790121 -0.07392991 0.0154871475 -0.019071953
000010 9f 86 1b bc 6b fa 4e bd ec f1 a6 3d f0 f6 64 bd
       -0.009492545 -0.050531786 0.08151612 -0.05589956
000020 7f 39 7c bd b2 d0 15 bd 58 e9 a5 bd b0 19 77 bd
       -0.06157827 -0.03657598 -0.081011474 -0.060327232
000030 5b cf 09 3d b8 7c a9 bb f8 38 84 bd 86 ac a9 3d
       0.033645015 -0.0051723383 -0.064561784 0.08284859
000040 37 b7 1d bc bf 76 ac bd 39 a5 9e bd f8 d7 a0 3c
       -0.009626201 -0.084210865 -0.077463575 0.019634232
000050 d8 a0 ae bd 28 67 98 3d b4 c2 84 3c 1b ac ca 3b
       -0.08526772 0.074415505 0.016206123 0.0061850674
000060 0e 72 2c 3d 18 bc 41 bd 2a c3 c8 bc 2c 28 96 bd
       0.04210096 -0.04729852 -0.024507124 -0.07331881
000070 43 02 f8 3c 18 90 a2 3b 20 86 82 3c e4 fe 6f bd
       0.030274516 0.004961025 0.015933096 -0.058592692
000080 f9 d5 77 3c 4a d5 bb bc 2c e3 9e 3d fb ff 41 bd
       0.015126699 -0.022928853 0.07758173 -0.047363263
000090 63 b9 9a bd 19 92 1d 3d b6 d3 80 bd d1 75 31 bd
       -0.07554891 0.038469408 -0.06290381 -0.04332525
0000a0 3a c1 44 bd 96 1e c4 3c e5 11 1d 3d 09 8f 70 3d
       -0.048035838 0.023940366 0.038347144 0.05873016
0000b0 d3 43 e2 bc cc fe e3 3c db 5d df bb 8c 12 1f bb
       -0.027620232 0.027831458 -0.0068166084 -0.002427253
0000c0 6f 45 96 3d 3a e9 7d bd
       0.07337462 -0.06199

critic.fc1.weight f4 [256, 21]
000000 84 24 18 3c 0b 66 ed bb e0 10 1d be fe 5a f1 bd
       0.00928605 -0.0072448305 -0.15338469 -0.117849335
000010 27 c1 5d bd 02 63 22 be fd 22 11 3d 5f 09 0e 3e
       -0.054139283 -0.15858081 0.035433758 0.13870762
000020 85 89 88 3d 84 57 ad 3d 46 8e 2d be 61 60 37 be
       0.06666855 0.08463958 -0.16948804 -0.1790786
000030 85 d4 b7 bc b7 64 a1 bd de 0b 30 be e6 d2 84 bb
       -0.022440204 -0.07880538 -0.17192027 -0.0040534614
000040 6d 92 8a 3c 2f a8 51 be 7d 9c 39 bd 99 5e cd bd
       0.016915524 -0.20474313 -0.045315254 -0.10027809
000050 54 73 e2 bd bb f3 cb 3b 65 38 a9 3d e0 f8 04 be
       -0.11057153 0.0062241233 0.082627095 -0.12985563
000060 e9 db d8 3d e7 96 ec bb c9 41 49 3e 30 79 42 3e
       0.105888195 -0.0072201374 0.19654001 0.18991542
000070 ea d3 51 3e 9f b4 58 3e 3e 95 c2 bd e0 6b 39 3d
       0.20490995 0.21162651 -0.09501122 0.045268893
000080 c7 24 30 3e 45 e4 89 bd 81 a5 65 bd a6 20 b4 bb
       0.1720153 -0.06732992 -0.05606604 -0.005497056
000090 b2 4e 86 bd 61 d1 16 be 12 f6 39 3e 2b 90 51 be
       -0.06557979 -0.14728309 0.18160275 -0.20465152
0000a0 bb c3 14 be c0 a2 4b 3e ef af 5e 3e d0 bd 34 be
       -0.1452779 0.19886303 0.21746801 -0.17650533
0000b0 f6 7b 2e 3e 14 f5 3a 3e 0f 19 5f 3e a4 66 52 bd
       0.17039475 0.18257552 0.21786903 -0.051367417
0000c0 04 99 43 be d3 79 3d be 20 b2 27 be da bd fa bd
       -0.1910134 -0.18503504 -0.16376543 -0.122432426
0000d0 f3 52 35 3e 10 70 1e be 00 e6 aa bd b4 c1 85 3d
       0.17707424 -0.15472436 -0.0834465 0.065310866
0000e0 8a 72 0a be dc b1 18 3e 1f 1c 0d be f2 84 04 3d
       -0.13520256 0.14911598 -0.13780259 0.03235335
0000f0 8a cf f5 3d a3 37 c2 bc a3 39 58 be 36 a2 2a 3d
       0.120024756 -0.02370817 -0.21115737 0.041658603
000100 34 10 65 bd 78 97 21 bd d7 cd a2 bd 58 9c 41 3e
       -0.055923656 -0.039451092 -0.07949417 0.18907297
000110 c5 3d 15 3d d2 99 49 3e 7c 4a 09 3e 73 66 8b bd
       0.03643586 0.19687584 0.1340732 -0.0680665
000120 28 77 45 3e 18 da d8 bb 3b 20 bc bc 9b eb 55 3e
       0.19283736 -0.0066177957 -0.022964587 0.20890658
000130 14 d7 5d bb fe 34 44 3e 5c 81 48 3e 7c ef da bd
       -0.003385012 0.1916084 0.19580597 -0.10690209
000140 3d 4a 42 be b9 25 44 3c 0c fc 3d 3d 92 1a bf bd
       -0.18973632 0.011971884 0.04638295 -0.0933124
000150 b9 d2 16 be 35 0f 19 3e fb ab 46 3e ad 23 26 3e
       -0.14728822 0.14947207 0.19401543 0.16224547
000160 11 c5 9b 3d 9b 81 15 3d 1b 80 aa bc 0d 5f 49 ba
       0.07605947 0.036500555 -0.020813039 -0.0007681705
000170 1e 3f 8a bd 80 b7 cb bd d5 c9 51 be 26 8e 3e be
       -0.0675032 -0.09947109 -0.20487149 -0.18608913
000180 4e d5 4f 3e ed fa e4 3c 17 9c 8f bc e9 96 22 be
       0.20296213 0.027951682 -0.017530484 -0.1587788
000190 9e 85 30 be dc 0f dc bb 1d 9f 4c bd 78 1e ea 3b
       -0.17238471 -0.006715758 -0.04995643 0.0071447454
0001a0 5b 89 d4 bd df 44 1c be 7f 72 17 3e ca 6e c8 3d
       -0.10377761 -0.15260647 0.1478977 0.09786756
0001b0 35 77 02 3e 95 95 31 be 40 ce d8 3d 0d 26 39 be
       0.12740786 -0.17342217 0.10586214 -0.18080921
0001c0 5f 3a eb 3d f5 d0 d5 3d 81 2a 2c be f4 47 af 3d
       0.11485743 0.10440246 -0.16813089 0.08558646
0001d0 bc 9a 5d bd ab 27 53 be 9a 71 cf bd dc 3e d5 bd
       -0.054102644 -0.20620601 -0.1012909 -0.1041238
0001e0 4c ab 32 bc 9b dd f7 bd 25 04 73 3d 71 85 fa bd
       -0.010905098 -0.12102815 0.059330124 -0.12232483
0001f0 05 47 33 be 87 ce 15 be 3e b9 17 3e 2f af 98 bd
       -0.1750756 -0.14629565 0.14816758 -0.074552886
000200 c2 4f 52 be 61 99 d6 bd 75 9d 37 be 59 1b 8f 3d
       -0.20538238 -0.104784735 -0.17931159 0.06987638
000210 c2 dd b7 bc e3 b1 15 be 26 be 35 be b9 a3 05 be
       -0.02244461 -0.1461864 -0.17748317 -0.13050736
000220 8a 07 0f be e7 f2 e7 bd 9f a1 94 3d a6 16 2c be
       -0.1396772 -0.11325627 0.07257389 -0.16805515
000230 7b 96 21 bd 93 e8 01 be 0f 96 4c 3e 65 3c 59 3e
       -0.03945015 -0.12686376 0.19979118 0.21214445
000240 43 42 75 bd 97 51 0a be a0 ce 59 3e 7c 46 51 be
       -0.059877645 -0.13507687 0.21270227 -0.20437044
000250 a2 43 4d 3e ae cd 85 bc 1b d9 25 3d 5c a7 73 bd
       0.20045331 -0.016333427 0.04049025 -0.05948578
000260 fb 27 47 3e 99 a2 a1 bd 43 d1 bc bd a4 a6 43 3a
       0.19448845 -0.07892341 -0.09219601 0.0007463491
000270 de 91 29 3e 3a 81 10 bd 89 3e 35 be 1c bb 0f be
       0.1655955 -0.03527949 -0.17699637 -0.1403622
000280 98 6d 26 3d 26 f8 67 3c e8 69 11 3e 2f 95 8a bd
       0.04063186 0.014158284 0.14200556 -0.06766736
000290 3c 7d a5 3d 96 61 aa 3d ce dd 2b be 9a af 0a bd
       0.08080527 0.08319394 -0.1678383 -0.033858873
0002a0 f5 5d 79 3d df 1f 84 bb dc 4c 2d 3e 04 81 87 bc
       0.06088062 -0.0040321196 0.16923851 -0.016541012
0002b0 7c c5 4c 3d a9 75 eb bc 85 e0 13 be bd bc e0 3d
       0.049993023 -0.028742628 -0.14441116 0.10973499
0002c0 37 d8 b3 3d c7 4d 7a bd 52 5c c7 3d 7c 44 b1 b7
       0.08781474 -0.06110933 0.097344056 -2.1131935e-05
0002d0 95 f7 c9 3d 97 ff 5a be d8 be 5b be b8 1c 5f 3e
       0.09861676 -0.21386562 -0.2145952 0.21788299
0002e0 2b ec 98 3d 0a 21 a9 3a 14 33 c6 bd 38 c0 a2 ba
       0.074669205 0.0012903523 -0.09677711 -0.0012416905
0002f0 ef 27 c7 bd e9 e3 67 3a 21 62 00 be a1 e5 84 3d
       -0.097244136 0.0008845912 -0.12537433 0.06489111
000300 02 55 04 3e 5c d6 c0 3d 19 d8 08 3e ff 91 7a bd
       0.12923053 0.09415886 0.13363685 -0.06117439
000310 f2 2f ba 3d e4 a5 83 bd 3c 9f f5 bd ca f1 a6 3d
       0.09091176 -0.064281255 -0.11993262 0.08151586
000320 d3 0c 06 be d7 cd 33 be 6b b5 27 3e 08 c9 ac 3d
       -0.1309083 -0.1755899 0.16377799 0.08436781
000330 17 67 0b 3e 6a 32 53 be cf ce 51 3e 1c 2d 58 be
       0.13613544 -0.206247 0.20489047 -0.21110958
000340 d7 95 ab bd 69 92 0d 3e 39 ea 87 3d b2 7d ef 3d
       -0.08378189 0.13825382 0.06636471 0.11693896
000350 ca 17 50 3e 51 c4 b7 3d df b7 56 3e 55 99 49 3e
       0.20321575 0.08972991 0.20968579 0.19687398
000360 91 e8 5c 3e 9a a2 43 3e 21 b4 91 3d 68 e3 32 be
       0.21573092 0.19104996 0.07114435 -0.17469561
000370 3d 82 47 be be 78 24 3e df 68 50 3e 9c 36 14 be
       -0.19483276 0.16061684 0.20352505 -0.14473957
000380 47 27 2d 3e 5c 28 f9 bd b9 7c f6 bd 07 76 5d be
       0.16909514 -0.12165901 -0.12035508 -0.21627055
000390 a1 65 0f 3e 17 64 97 bd 16 3b 39 3e 10 f8 99 bb
       0.14003612 -0.073921375 0.18088946 -0.004698761
0003a0 41 3f 0e 3e 99 3c 44 bd d2 01 47 be 5d 1c 3c 3e
       0.13891317 -0.047909353 -0.19434288 0.18370195
0003b0 16 04 3a be c4 41 16 be e0 04 73 bc 31 00 a2 3d
       -0.18165621 -0.14673525 -0.014832705 0.07910193
0003c0 21 d2 f6 3d 91 72 56 bd 63 5a ac 3d 37 b9 8b 3c
       0.12051798 -0.052355353 0.084156774 0.01705609
0003d0 8b 82 54 3d e0 d9 3d bd e0 98 3b be 8d 8a 01 be
       0.051882308 -0.04635036 -0.18320036 -0.12650509
0003e0 4c 83 25 3e f6 65 28 3e 6f 2a 17 be d0 37 cd bd
       0.16163367 0.16445145 -0.14762281 -0.10020411
0003f0 bb 03 e0 3d 2f 3e 3e be 2b f8 40 be 6b 30 31 3e
       0.109382115 -0.18578409 -0.18844669 0.17303626

critic.fc1.bias f4 [256]
000000 4c 2b 14 be 8a 08 42 be a6 8e 8e bc b0 e8 2b be
       -0.14469641 -0.1894857 -0.017402004 -0.16787982
000010 53 20 4b be 96 a0 38 3e fa 9c 58 be 8a 79 10 3c
       -0.1983655 0.18030009 -0.21153632 0.00881804
000020 b2 b8 83 bc 23 87 a8 bd f6 a7 c5 3d 15 54 04 3e
       -0.01607928 -0.082289 0.09651177 0.129227
000030 e7 47 2f be b2 d1 9d 3d 0f 56 c4 bd 3d 44 a6 3c
       -0.17117272 0.07706012 -0.09586727 0.02029621
000040 3c c7 ba bd 85 f3 e6 bd a9 4a 22 3e 1e e5 37 3e
       -0.09120032 -0.112769164 0.15848793 0.17958495
000050 25 bb 38 3e 69 98 48 bd 83 4a ac 3d 4f 66 19 3e
       0.1804014 -0.048973475 0.084126495 0.14980434
000060 29 5b be 3c 86 4e 17 bc 66 08 5a 3d 34 89 54 be
       0.023236828 -0.00923503 0.053230666 -0.20755464
000070 2b bc 11 bd bb c7 1c 3e e6 82 f4 3d 3e ab ba 3d
       -0.03557984 0.15310566 0.119390294 0.09114693
000080 71 ea cf 3c 78 77 48 3e cc 9d 28 3e ed c3 52 3e
       0.025380345 0.19576824 0.16466445 0.20582552
000090 95 e2 4f 3e be ae 5d 3e 41 5c 09 bd 27 9e d3 bd
       0.20301278 0.2164869 -0.033535246 -0.103328995
0000a0 2a 7c 07 bd 6c 74 31 be 23 c5 0c bd 93 09 47 be
       -0.033077396 -0.17329568 -0.03436769 -0.19437246
0000b0 d5 87 13 be db de f7 3d b3 cb 84 bd bb 60 ac bd
       -0.14407285 0.12103053 -0.06484165 -0.084168874
0000c0 6e 0c a6 bd 78 52 20 3e 7a d4 39 3e 63 c5 03 3e
       -0.081078395 0.1565646 0.1814746 0.12868266
0000d0 ab 0b 92 bd 86 44 c3 bb 4a d6 10 be fb 8b 42 bd
       -0.07131132 -0.0059590964 -0.14144245 -0.047496777
0000e0 8d cc b0 3d f1 83 2d 3e 77 92 99 3c 9b 53 d8 bd
       0.08632765 0.16944863 0.018746598 -0.105628215
0000f0 fe 18 08 3e 6a 19 2e 3e 32 8e 56 be 4e 7f 44 3e
       0.13290784 0.17001882 -0.2095268 0.19189188
000100 96 94 52 3e 57 44 48 be 09 4f 39 3e 04 11 29 be
       0.20564494 -0.1955732 0.18096556 -0.16510397
000110 e5 26 42 3e ce 05 19 3e e1 45 84 bd b2 59 6c bb
       0.1896015 0.1494362 -0.06458641 -0.0036064205
000120 6b ba 2a 3e fb a5 90 3d 9e 6b cb 3c 22 2c 2b be
       0.16672675 0.07062908 0.02483159 -0.16716054
000130 af 52 0a 3e c4 19 bf bd 0f 09 0c 3e 76 e1 76 bd
       0.13508104 -0.09331086 0.1367533 -0.06027361
000140 f6 f7 0e bd 43 ea 30 be e4 35 46 be fe c0 52 3e
       -0.034904443 -0.17276864 -0.19356495 0.20581433
000150 89 2c 53 be a7 ae ab 3d 1f 1b 26 3e ab 0d 08 3e
       -0.20622458 0.08382922 0.16221283 0.13286464
000160 27 ff 23 be 62 2f ef bd d7 39 0e 3e 94 8b b2 bb
       -0.16015302 -0.116789594 0.13889252 -0.005448768
000170 f7 e9 a9 bc f8 f3 eb bc 9f 49 8a bd 3a a7 4c 3e
       -0.020741446 -0.028802857 -0.06752323 0.19985667
000180 97 0d 0b 3e ad 5c 55 be 55 43 2b 3e 3f d3 4a 3e
       0.13579403 -0.20836134 0.16724904 0.19807146
000190 77 62 88 3c 65 a7 54 bd 01 7d 1f bc cc c7 31 be
       0.016648514 -0.051917452 -0.009734393 -0.17361373
0001a0 f1 6d 41 be 29 c2 32 be e0 22 31 3e 40 bd de 3c
       -0.18889596 -0.17456879 0.1729846 0.02718985
0001b0 52 81 9b 3b cb 6e 42 3e 88 ec 9d bc 17 ec 4a be
       0.004745641 0.18987577 -0.019277826 -0.19816624
0001c0 95 8b 54 be 91 72 f4 3d 8b 12 df bd 04 21 58 3e
       -0.20756371 0.11935914 -0.10892209 0.21106344
0001d0 4f 91 4b be 5f 7b 56 3e 77 0c 00 be c0 09 11 3e
       -0.1987965 0.209455 -0.12504755 0.14163876
0001e0 71 c1 4b 3e fc 3f 3a bc eb 80 04 3e 37 9a ce bd
       0.19898011 -0.011367794 0.12939803 -0.10088008
0001f0 0c c6 8f bd d6 05 eb bd 61 7f 20 bd 98 88 b9 3d
       -0.07020196 -0.114757225 -0.039183978 0.09059256
000200 23 35 4d be e6 8c 0f be 17 2d f7 3c 67 36 10 3e
       -0.20039801 -0.14018592 0.030172868 0.14083253
000210 4a fe 55 be 24 01 18 be 13 f5 4e be 28 98 3d 3d
       -0.20897785 -0.14844185 -0.20210676 0.046287686
000220 a6 2e 78 3d 17 c9 2d 3e 87 5c 03 bd 16 0c c1 bd
       0.060591362 0.16971241 -0.032070663 -0.09426133
000230 23 80 59 bc a3 62 92 3d 3d db 3c be 7f d2 13 3e
       -0.013275179 0.0714772 -0.18443008 0.14435767
000240 91 2c 75 3d 79 db 7a bb 4e b4 c1 bd 06 c9 83 3d
       0.059856955 -0.0038277789 -0.094582185 0.064348266
000250 83 dd 10 bc f6 11 97 3d 5d 87 02 3e ba 1e 84 bb
       -0.008841875 0.07376473 0.1274695 -0.004031983
000260 cb 1e ca 3d fb 12 4d be 24 66 49 bd fb e1 88 3d
       0.098691545 -0.20026772 -0.049169675 0.06683727
000270 db f9 1a bc b3 44 42 3e 26 9d c2 3c f6 7b 5c 3e
       -0.009458984 0.18971519 0.023756575 0.21531662
000280 f4 93 44 be 18 86 32 bd 67 21 3e be 66 1f 04 3e
       -0.19197065 -0.043584913 -0.1856743 0.12902603
000290 17 a2 21 be b6 b6 8e bd fd d0 07 3e 46 03 d8 3d
       -0.15784489 -0.06968443 0.13263316 0.10547499
0002a0 fa c7 f4 3d 09 36 f0 3c 88 2d 97 3d b9 07 3e be
       0.11952205 0.029322641 0.07381731 -0.18557633
0002b0 05 54 cf bd f8 3e 07 3e 1a fd 41 be 0b 26 11 3d
       -0.10123447 0.13207614 -0.18944207 0.03543667
0002c0 14 79 35 bd 8f 1e 48 be ac f3 dd bd e6 0f 32 bd
       -0.044304922 -0.19542907 -0.10837492 -0.043472193
0002d0 6a ce 2c be c5 3c 0d be 73 e7 56 be 5b 09 44 3e
       -0.16875616 -0.13792713 -0.20986728 0.19144194
0002e0 ad c3 57 be ad 5d 3a 3e 5c 6c 50 bd bc dc 46 3e
       -0.21070738 0.18199797 -0.05088459 0.19420141
0002f0 30 cb 27 be 59 7e 59 3e 95 6a 8d 3c 1a 15 59 3d
       -0.16386104 0.21239604 0.017262736 0.05299864
000300 06 07 0f be aa ba 7d 3d 53 b6 01 be 9f 32 03 be
       -0.13967523 0.061945595 -0.12667207 -0.12812279
000310 c1 04 26 3e 48 1e 47 be e7 c1 ae 3d f4 92 f7 3d
       0.16212751 -0.19445145 0.08533078 0.12088576
000320 62 49 55 bd 39 02 13 be 7a 02 3f 3e 42 c9 0e 3e
       -0.052071936 -0.14356317 0.18653288 0.13943961
000330 c0 c7 56 3e e7 b1 2b 3e ec 6f 1a 3e b6 72 25 be
       0.20974636 0.16767083 0.15081757 -0.1615704
000340 a2 df 1e be 45 dd 2e 3e c8 f8 02 3e a7 a3 84 3c
       -0.15514997 0.17076595 0.12790215 0.016191317
000350 56 51 33 3e b8 55 12 be dc 29 36 3d 26 f7 2d be
       0.17511496 -0.14290512 0.044473514 -0.16988811
000360 c2 75 1f 3e 0c 81 35 3e 44 a8 08 3e 08 5c 0e be
       0.15572265 0.17725009 0.13345438 -0.13902295
000370 d3 86 55 3e c0 3d 4f bd 93 e5 23 bd 3d d3 16 be
       0.20852213 -0.050596 -0.04001386 -0.14729019
000380 0c fd 89 3b 20 9a e5 bd fd 2a 9a bd 35 1b 53 be
       0.0042110737 -0.11211038 -0.075277306 -0.20615847
000390 46 41 1e 3e 98 72 1d be 88 5c 8e bc 83 e6 12 bd
       0.15454587 -0.15375745 -0.017378107 -0.035864364
0003a0 cc 63 b4 3d 9b 0e 5f 3e 46 50 49 3e d6 d8 13 3e
       0.08808097 0.21782915 0.19659528 0.14438185
0003b0 ee b4 2b be 2e f2 b0 bd 07 7a 92 3d 76 63 0e be
       -0.16768238 -0.08639942 0.07152181 -0.13905129
0003c0 7f d4 e6 3d b2 b6 29 3e 45 61 54 3d 75 d1 e5 bd
       0.11270999 0.16573599 0.051850576 -0.112215914
0003d0 a4 93 d2 3d 2b f2 07 bd a5 80 22 be 76 f8 fc 3d
       0.102820665 -0.033189934 -0.15869386 0.12352078
0003e0 62 12 05 bd 0c 60 3d 3c aa fb 83 bd 70 36 6c bd
       -0.032488234 0.011558544 -0.064444855 -0.057669103
0003f0 b5 96 b4 3d b4 05 0b 3d c3 61 3f be 16 cd 1f 3c
       0.088178076 0.033940986 -0.18689637 0.009753486
