server/policies/checkpoints/policy_2_170/model.pt (torch, 338258 bytes, 11 tensors)

actor.fc1.weight f4 [256, 21]
-0.19576378 -0.14997749 -0.1220884 0.19330636 0.026504938 0.18187568 0.12589192 -0.0768876
0.07211083 -0.13573922 0.119894475 -0.14764552 -0.119131595 0.021509485 -0.05727943 -0.04337802
0.04578735 0.11249705 0.10391957 0.10820725 0.013865131 0.20366706 -0.012839963 -0.06941119
0.13248199 -0.0042248294 -0.12197652 0.023450833 0.14723255 0.0014023932 -0.14685492 0.052138522
0.08203213 -0.1869407 0.02832062 0.14915794 0.122823305 -0.20243087 -0.14084761 -0.11532559
0.09699876 0.023386126 -0.167695 -0.035162967 0.018770417 -0.14926964 0.20739765 0.030909525
-0.058409486 -0.011498617 -0.12751977 0.14303403 0.101914704 -0.100888275 -0.10642156 -0.056250084
0.20851165 -0.21520814 0.08352916 -0.11555943 -0.19370814 -0.1549053 -0.023491593 0.13424955
-0.12295845 -0.13065425 -0.06789418 -0.14481929 -0.09148428 -0.09477981 0.12295715 0.17168698
-0.10208616 -0.01787485 -0.074291505 0.16302985 0.17496195 -0.081852995 0.06906608 -0.09517397
-0.02992816 -0.06641862 -0.17763434 0.13154957 -0.048677996 0.010992134 0.21052417 0.092675775
0.16619493 0.078930356 0.14349972 0.12637086 0.11100359 -0.15531293 0.15987593 -0.055717066
-0.039155968 0.12363293 -0.050707698 -0.21639241 0.096302845 -0.048080985 0.21559075 -0.15362097
-0.0014717925 0.20309876 -0.2130875 0.16202907 0.15465638 0.18530217 -0.095201135 0.028131217
-0.0988638 -0.21716638 -0.12612222 -0.042945374 0.09501731 -0.17762762 0.09684765 -0.059248842
-0.19550496 -0.03092954 0.04684333 -0.12565567 -0.11334713 0.21269077 0.13160574 -0.13962206
-0.040714893 -0.10351481 -0.1068389 0.19631986 -0.1576118 0.14914045 0.1134708 0.081917584
-0.10804948 0.15391994 -0.09021102 0.18856084 -0.14914939 0.039213803 0.10917868 -0.026654534
-0.028949121 -0.19540544 -0.11080139 0.06941279 0.08475569 -0.18083 -0.175176 0.10048959
-0.0277966 -0.15795785 -0.084554866 -0.13501388 -0.1411967 0.13438593 0.042623147 -0.11863591
0.07965557 0.17435478 0.15183845 -0.19753094 0.09843929 0.03689799 -0.112842694 0.00041978603
-0.1466494 -0.17437361 -0.2114735 -0.026315073 0.20326568 0.17754164 0.072648466 -0.08384248
0.2151908 -0.0055994554 -0.11695432 -0.14138235 0.20334336 0.1477779 -0.10032805 0.13674422
0.1863308 0.050713804 0.02892554 0.08503548 0.11007914 -0.05745191 0.21789338 0.093495384
-0.020552587 0.16877127 -0.05736476 -0.17337143 0.12659125 0.09786555 0.13199492 0.19857922
0.13180216 0.11537498 0.20052126 -0.18641657 -0.013078943 0.021225676 0.107487135 -0.06925175
-0.083774306 0.13715835 0.06871405 0.16369478 0.07641653 -0.04942683 0.13620149 -0.17504962
-0.1026639 -0.14723052 -0.15273356 -0.087620586 -0.15404944 -0.07354721 0.004893712 0.03026231
0.06404505 0.032961722 -0.06626293 -0.20060031 0.0239015 -0.13348876 0.08775746 -0.007122892
-0.099400036 0.06713516 -0.21314295 -0.028302606 -0.06358254 -0.09049067 -0.16285731 -0.14816761
0.1493708 0.148627 0.034663867 -0.005297012 -0.09938747 0.15524055 -0.09771892 -0.1570612
0.18284944 0.2042156 0.15993072 -0.056995135 0.0689622 -0.1019235 -0.15713006 -0.13725486
00000000: 4d76 48be b393 19be 7c09 fabd 1af2 453e
00000010: e220 d93c 9e3d 3a3e d0e9 003e 3f77 9dbd
00000020: d8ae 933d 39ff 0abe 3c8b f53d 6330 17be
00000030: 44fb f3bd a934 b03c d69d 6abd 27ad 31bd
00000040: 848b 3b3d da64 e63d c9d3 d43d c39b dd3d
00000050: 932a 633c 198e 503e b55e 52bc 7427 8ebd
00000060: 5ca9 073e 7070 8abb d3ce f9bd f61b c03c
00000070: 21c4 163e 82d0 b73a 2361 16be 348f 553d
00000080: 7600 a83d 626d 3fbe a500 e83c dcbc 183e
00000090: c98a fb3d 0a4a 4fbe 5b3a 10be d32f ecbd
000000a0: 49a7 c63d 4394 bf3c 3db8 2bbe 0b07 10bd
000000b0: 6bc4 993c 24da 18be 0d60 543e f935 fd3c
000000c0: c93e 6fbd b264 3cbc 8b94 02be 8377 123e
000000d0: a8b8 d03d 839e cebd 8cf3 d9bd 7d66 66bd
000000e0: 1484 553e 865f 5cbe 5611 ab3d 6caa ecbd
000000f0: 6d5b 46be 7f9f 1ebe 7171 c0bc b778 093e
00000100: a4d1 fbbd 3aca 05be 1b0c 8bbd 824b 14be
00000110: 1c5c bbbd eb1b c2bd f5d0 fb3d b6ce 2f3e
00000120: 8c12 d1bd 476e 92bc 2526 98bd 4cf1 263e
00000130: 3a29 333e 8ba2 a7bd 8472 8d3d 92ea c2bd
00000140: e72b f5bc 7c06 88bd c7e5 35be eeb4 063e
00000150: 9462 47bd 5a18 343c a693 573e cccc bd3d
00000160: 012f 2a3e 3da6 a13d 97f1 123e 5d67 013e
00000170: da55 e33d 5a0a 1fbe 84b6 233e 9437 64bd
00000180: 0262 20bd 4333 fd3d e0b2 4fbd f995 5dbe
00000190: 6d3a c53d 91f0 44bd d2c3 5c3e d14e 1dbe
000001a0: 29e9 c0ba 1ff9 4f3e 9c33 5abe f3ea 253e
000001b0: 3e5e 1e3e dabf 3d3e d0f8 c2bd 7073 e63c
000001c0: 1b79 cabd dd60 5ebe 2f26 01be 7de7 2fbd
000001d0: 6f98 c23d 04e4 35be 1058 c63d eaae 72bd
000001e0: 7432 48be f25f fdbc cbde 3f3d e1ab 00be
000001f0: 8a22 e8bd 9ccb 593e a8c3 063e 16f9 0ebe
00000200: a9c4 26bd 93ff d3bd 5ace dabd 1308 493e
00000210: fd64 21be 46b8 183e 6163 e83d 68c4 a73d
00000220: 0c49 ddbd 309d 1d3e 8ec0 b8bd 1816 413e
00000230: 9eba 18be a79e 203d 1299 df3d 9c5a dabc
00000240: b526 edbc 5d18 48be d7eb e2bd 4b28 8e3d
00000250: 6494 ad3d 802b 39be 5661 33be 7ccd cd3d
00000260: b2b5 e3bc b4bf 21be 1a2b adbd 1441 0abe
00000270: de95 10be 779c 093e 9c95 2e3d 62f7 f2bd
00000280: 7622 a33d 0f8a 323e 8a7b 1b3e 8d45 4abe
00000290: 8a9a c93d 5922 173d 121a e7bd ba16 dc39
000002a0: 432b 16be ff8e 32be 828c 58be b592 d7bc
000002b0: e124 503e 7acd 353e b8c8 943d 9bb5 abbd
000002c0: fa5a 5c3e a37b b7bb bf85 efbd 89c6 10be
000002d0: 3e39 503e 1753 173e cb78 cdbd ad06 0c3e
000002e0: 80cd 3e3e 47b9 4f3d 41f5 ec3c 1527 ae3d
000002f0: 2c71 e13d b252 6bbd 711f 5f3e 827a bf3d
00000300: e65d a8bc 60d2 2c3e 50f7 6abd 4888 31be
00000310: 23a1 013e bc6d c83d ad29 073e 5a58 4b3e
00000320: 25f7 063e b849 ec3d 7255 4d3e fce3 3ebe
00000330: 1049 56bc 78e1 ad3c 3722 dc3d ddd3 8dbd
00000340: dd91 abbd 3d73 0c3e f4b9 8c3d 9b9f 273e
00000350: 4580 9c3d ca73 4abd 6778 0b3e 3540 33be
00000360: 7341 d2bd 99c3 16be 3066 1cbe 6c72 b3bd
00000370: 23bf 1dbe eb9f 96bd 6e5b a03b aae8 f73c
00000380: 0d2a 833d df02 073d dcb4 87bd 2b6a 4dbe
00000390: 14cd c33c 47b1 08be 2fba b33d 2667 e9bb
000003a0: 3f92 cbbd 297e 893d 2542 5abe deda e7bc
000003b0: 9037 82bd 2c53 b9bd 11c4 26be 40b9 17be
000003c0: a9f4 183e ad31 183e b3fb 0d3d 8f92 adbb
000003d0: a88b cbbd 61f7 1e3e db20 c8bd a7d4 20be
000003e0: e23c 3b3e e51d 513e e1c4 233e bb73 69bd
000003f0: 0e3c 8d3d 45bd d0bd b4e6 20be 8a8c 0cbe

actor.fc1.bias f4 [256]
-0.062642574 -0.1945843 -0.03384921 -0.20461084 0.1276553 -0.16444388 -0.096245125 -0.07401485
-0.039193865 0.21757069 0.10854338 0.14088704 -0.0979542 -0.055693213 0.21306989 0.10938096
-0.06088775 0.17035493 0.16789569 0.030584473 0.08954945 0.14401527 0.15413883 -0.16125375
0.1673875 0.0096553555 0.04176332 -0.08953566 -0.17672774 -0.09039179 -0.090054385 0.07853503
0.16143604 0.12722205 -0.03086813 0.019161329 0.13821715 -0.06387409 -0.119209185 -0.05331401
0.1151097 0.1791111 0.03936636 -0.067836076 -0.13831604 -0.021164691 0.067166336 0.09874846
0.027580757 -0.009204265 0.034503855 -0.09675359 0.1854569 0.094337635 0.15825683 0.18599844
-0.0535002 -0.21456085 -0.112919964 -0.13054739 -0.05257541 0.053859506 0.043924436 0.21517189
-0.19788697 -0.012231255 -0.100299425 -0.08915111 0.06245844 -0.04278061 -0.036799703 -0.09176758
0.21339478 -0.047874566 0.21881162 -0.15537085 0.20648268 0.026591323 -0.0027803024 -0.079449005
-0.12883061 -0.06978757 -0.08873328 0.17509402 -0.020851538 0.08797624 0.057431873 0.16553082
-0.20470738 -0.10651493 -0.0070701786 0.0747426 -0.20189802 0.11517319 -0.18716508 -0.20150764
-0.058047477 0.07416882 -0.11947832 -0.012835643 0.13254717 0.026495805 -0.14857408 -0.18904005
-0.062360454 0.017992804 -0.08651969 0.045778908 -0.044892687 -0.03225901 0.044602875 0.12556459
-0.020357039 0.16850817 0.19098806 0.106414095 -0.14077136 -0.122170776 0.0049702344 -0.12281856
0.17063087 0.16775823 0.07949866 -0.1378738 -0.17142391 -0.14602187 -0.13766915 0.013158371
-0.16955334 0.053849153 -0.04653086 -0.21219581 0.10439882 -0.050580967 -0.1284445 -0.11133998
0.035129324 -0.040786378 -0.1468611 -0.08313173 -0.13979729 -0.1422995 0.17737281 0.19860908
0.15704182 -0.010953229 0.082585596 -0.02943407 -0.16995108 0.12736475 -0.1291573 -0.10290147
-0.15544346 -0.044275004 -0.101480246 0.047012676 -0.075176306 -0.18221588 0.042878132 -0.1905519
-0.12292771 0.18429638 0.11489259 -0.1394296 -0.16797054 -0.07526893 0.12603553 -0.12528436
0.055738125 -0.033902742 -0.09113177 0.13394727 0.057434496 0.005779558 0.18083648 -0.029873712
-0.07497616 0.07175607 0.16040307 0.1823572 0.18676215 0.04337267 -0.111999094 0.112989284
0.030967206 0.12900186 -0.17648248 0.14473967 -0.012499795 0.051672757 0.16598025 -0.11504641
-0.20387445 -0.18386748 0.15412073 -0.12897658 0.14476997 0.0050975643 -0.18462297 -0.19227895
0.08191867 0.09324349 0.07435441 0.14560203 -0.08834386 0.11731242 -0.015818106 0.008790487
0.07038758 0.18760578 -0.1292329 0.07400524 -0.067835644 0.06361377 0.18297657 0.0041324636
0.03718498 -0.17589492 0.18513471 -0.06907778 -0.20709713 0.036207493 -0.056948233 0.14105776
-0.08581487 0.13104793 0.10773207 0.18464968 -0.18428189 -0.15247384 -0.17243859 0.045137096
-0.09464213 0.13774695 0.212308 -0.08862889 0.18893279 -0.002794149 0.10211085 -0.040989842
-0.11338593 -0.21644647 0.038339574 0.11032377 0.1970007 0.06710159 -0.06398628 0.14317499
0.20454009 0.009498691 -0.20379734 0.03471433 -0.07399061 -0.12184526 0.21543415 -0.18653487
00000000: c04a 80bd 1b41 47be 78a5 0abd 8185 51be
00000010: 12b8 023e fa63 28be 2a1c c5bd 1995 97bd
00000020: bf89 20bd daca 5e3e fe4b de3d b144 103e
00000030: 369c c8bd 911e 64bd fe2e 5a3e 2003 e03d
00000040: 6f65 79bd 8671 2e3e d9ec 2b3e 4a8c fa3c
00000050: b465 b73d bd78 133e 92d6 1d3e b41f 25be
00000060: a167 2b3e 7f31 1e3c 0410 2b3d 795e b7bd
00000070: 1ef8 34be 551f b9bd 6f6e b8bd f9d6 a03d
00000080: 7d4f 253e 7f46 023e 29df fcbc 38f8 9c3c
00000090: cc88 0d3e 6bd0 82bd f223 f4bd cb5f 5abd
000000a0: a2be eb3d e668 373e 9f3e 213d a4ed 8abd
000000b0: b8a2 0dbe 9361 adbc 818e 893d a23c ca3d
000000c0: 0af1 e13c 7ccd 16bc ea53 0d3d bf26 c6bd
000000d0: 6ae8 3d3e 1734 c13d 140e 223e 6076 3e3e
000000e0: 0723 5bbd d7b5 5bbe 9542 e7bd 37ae 05be
000000f0: 5059 57bd c99b 5c3d 1cea 333d 0556 5c3e
00000100: e2a2 4abe 9a65 48bc c969 cdbd db94 b6bd
00000110: 6cd4 7f3d b93a 2fbd 49bb 16bd a4f0 bbbd
00000120: 2984 5a3e 1f18 44bd 2710 603e 8919 1fbe
00000130: 3270 533e 0cd6 d93c bc35 36bb 29b6 a2bd
00000140: 2cec 03be c9ec 8ebd cbb9 b5bd d94b 333e
00000150: d8d0 aabc e32c b43d af3d 6b3d e980 293e
00000160: d09e 51be 8024 dabd f5ac e7bb a612 993d
00000170: 5bbe 4ebe ecdf eb3d 34a8 3fbe 0558 4ebe
00000180: 31c3 6dbd d3e5 973d 0db1 f4bd 974c 52bc
00000190: 72ba 073e bb0d d93c ce23 18be b793 41be
000001a0: ad6d 7fbd a565 933c 3c31 b1bd aa82 3b3d
000001b0: 65e1 37bd 0622 04bd 81b1 363d 0194 003e
000001c0: cec3 a6bc 688d 2c3e 6092 433e a2ef d93d
000001d0: 5e26 10be ac34 fabd 59dd a23b 4c88 fbbd
000001e0: dcb9 2e3e d0c8 2b3e 32d0 a23d ca2e 0dbe
000001f0: c089 2fbe c286 15be 24f9 0cbe 3596 573c
00000200: 649f 2dbe ee90 5c3d 2597 3ebd dc49 59be
00000210: 0ccf d53d fd2d 4fbd f486 03be 3706 e4bd
00000220: c4e3 0f3d 9e0f 27bd c262 16be f840 aabd
00000230: 0527 0fbe f6b6 11be 38a1 353e 2e60 4b3e
00000240: 92cf 203e 2c75 33bc a322 a93d b81f f1bc
00000250: a807 2ebe e86b 023e d041 04be 02be d2bd
00000260: 922c 1fbe b559 35bd e0d4 cfbd 5d90 403d
00000270: 09f6 99bd cd96 3abe fba0 2f3d 0a20 43be
00000280: 86c1 fbbd 31b8 3c3e ce4c eb3d a2c6 0ebe
00000290: 7800 2cbe 9926 9abd 750f 013e 8b4a 00be
000002a0: a94d 643d 9add 0abd 4ba3 babd 7929 093e
000002b0: 6f40 6b3d 7262 bd3b 332d 393e b7b9 f4bc
000002c0: 1a8d 99bd d9f4 923d b440 243e d9bb 3a3e
000002d0: 943e 3f3e 8aa7 313d c85f e5bd ed66 e73d
000002e0: f0ae fd3c 1019 043e d3b7 34be a336 143e
000002f0: f1cb 4cbc d0a6 533d baf6 293e 749d ebbd
00000300: 77c4 50be c247 3cbe d3d1 1d3e 7012 04be
00000310: 943e 143e 7809 a73b ce0d 3dbe c6e4 44be
00000320: fac4 a73d 71f6 be3d 2047 983d b318 153e
00000330: a0ed b4bd 7e41 f03d f994 81bc fa05 103c
00000340: 5d27 903d bb1b 403e a155 04be 0f90 973d
00000350: 6aed 8abd f047 823d 365e 3b3e 9e69 873b
00000360: 474f 183d cc1d 34be f493 3d3e a778 8dbd
00000370: 4511 54be 4f4e 143d 8d42 69bd 7271 103e
00000380: b5bf afbd 6e31 063e a2a2 dc3d ce14 3d3e
00000390: 64b4 3cbe 1a22 1cbe be93 30be ade1 383d
000003a0: bcd3 c1bd 890d 0d3e 4567 593e 1083 b5bd
000003b0: 9977 413e 0b1e 37bb 7e1f d13d f7e4 27bd
000003c0: e236 e8bd 25a4 5dbe f509 1d3d 6ef1 e13d
000003d0: 8dba 493e 8f6c 893d 3d0b 83bd 779c 123e
000003e0: f572 513e 66a0 1b3c 40b0 50be 9d30 0e3d
000003f0: 6488 97bd 028a f9bd c59a 5c3e ff02 3fbe

actor.fc2.weight f4 [128, 256]
-0.02241135 -0.056262437 -0.05453487 -0.01873564 -0.0045371773 0.023003863 -0.027721986 -0.012356979
-0.0017660543 0.04339925 0.022200052 -0.042569093 0.05160457 0.03721443 -0.05287943 -0.060293574
0.038356107 0.0067014173 0.03947116 0.041791346 -0.023271024 -0.05132078 -0.025608558 0.028731236
0.0038415475 0.018701097 0.060421832 0.00096880633 -0.04740959 -0.047144357 -0.042856447 0.020117186
-0.042661484 -0.015447297 0.0008479512 -0.048170008 -0.0064700525 0.022341033 -0.012274494 -0.060737226
0.0067428933 -0.026785549 0.05385531 0.0040025697 0.05106257 -0.05656228 -0.0024049045 -0.017407821
0.026910448 0.04184041 0.03920923 0.055559058 -0.008964276 -0.043148186 -0.025386315 -0.02955827
0.015497847 0.04333063 -0.0077958256 0.033865098 -0.02026526 0.027448459 -0.04132256 0.03421746
0.013919866 0.029211383 -0.03633917 0.002427182 -0.029119523 0.009271116 0.02910891 0.030861713
0.03959938 0.023700759 0.023538856 -0.05590014 0.03792259 -0.051124286 0.042676006 0.04325262
0.010833576 -0.022829685 -0.03489436 0.023124274 0.016855987 -0.05221837 0.05909833 0.0188028
-0.0059665954 0.050351765 0.059871603 -0.011252866 -0.057158694 -0.05286146 0.015276379 -0.042164616
0.05387189 0.032592323 0.025641263 0.033405494 -0.03224425 -0.03531978 -0.0068869353 0.018352168
0.0021129518 -0.011460928 0.016939351 0.05148444 -0.019439613 0.061491754 -0.018914577 0.020488657
-0.0061308593 -0.01263818 0.004530308 -0.013158221 -0.031862557 0.0064522703 -0.0040584914 -0.004672237
0.041953396 0.05519373 0.061835952 -0.01192498 0.04509439 0.0132339625 0.013866093 -0.00790003
0.043157104 0.03353774 0.023236465 -0.009634855 -0.041177087 0.038640887 0.024572933 0.057468377
-0.0412481 0.0014075161 0.0063768644 0.00858391 0.029403856 -0.058370654 0.046926606 -0.014355005
-0.0004692577 -0.051387113 -0.03219067 -0.0024726258 -0.01871711 -0.0042928504 -0.018161856 0.05055779
0.012401282 -0.0073200865 0.0283987 0.024252068 -0.0035902364 0.041495755 0.058942683 -0.06145199
0.010270858 -0.0071666413 0.05943412 0.03804133 0.006719327 -0.046205364 0.012765021 -0.050097674
0.0076651946 -0.041641537 0.012819569 -0.033808988 -0.03582489 0.029090157 -0.0123615125 -0.009377783
0.04348713 0.048985317 -0.046249576 -0.05185307 0.061975427 -0.023591578 0.024320163 0.052518953
0.02594641 -0.037789274 -0.018369228 -0.04730929 0.01596204 -0.02146276 -0.017011967 -0.04863531
0.04109281 -0.026642421 -0.048287317 -0.05899564 -0.049262132 0.025261782 0.027476374 0.029172253
0.057226982 0.0063584712 0.022771005 0.0398948 0.01606238 -0.05645992 -0.01898284 0.006980748
-0.056168374 0.042238135 -0.0418707 0.029344164 -0.009767037 0.05262229 -0.051066265 -0.004593851
0.034258842 0.030226542 -0.037282467 -0.026578318 -0.008351056 -0.029908378 -0.049405277 0.011763948
-0.052420273 -0.038293935 0.037404343 -0.0038373773 0.0058748377 -0.05683152 0.036766544 -0.058274105
0.0020633603 -0.0126173 -0.009878059 -0.045979608 -0.017646907 -0.021901382 0.06253673 -0.0031706595
-0.015091292 0.03371381 0.0006600575 -0.03990597 0.016304653 -0.005398896 -0.05627569 0.006122182
-0.055320702 0.04246476 -0.030483827 -0.014045682 -0.042909943 -0.043421566 0.005638632 0.06311049
00000000: 0298 b7bc 7173 66bd f55f 5fbd 7c7b 99bc
00000010: 9aac 94bb 9972 bc3c 3819 e3bc ed74 4abc
00000020: f37a e7ba 69c3 313d e2dc b53c ee5c 2ebd
00000030: 505f 533d 286e 183d 1a98 58bd 65f6 76bd
00000040: 4b1b 1d3d 9097 db3b 83ac 213d 672d 2b3d
00000050: e0a2 bebc bd35 52bd 0ac9 d1bc c55d eb3c
00000060: 79c2 7b3b 0b33 993c e27c 773d 7ef7 7d3a
00000070: 8f30 42bd 711a 41bd 3e8a 2fbd cccc a43c
00000080: cfbd 2ebd a916 7dbc 0b49 5e3a ea4d 45bd
00000090: bc02 d4bb 8b04 b73c f61a 49bc 99c7 78bd
000000a0: 7df3 dc3b 5e6d dbbc 6397 5c3d fd27 833b
000000b0: fc26 513d d9ad 67bd 9a9b 1dbb d99a 8ebc
000000c0: 4d73 dc3c da60 2b3d dc99 203d e591 633d
000000d0: e6de 12bc 27bc 30bd f6f6 cfbc 2f24 f2bc
000000e0: afea 7d3c 757b 313d 2074 ffbb 21b6 0a3d
000000f0: 5503 a6bc 97db e03c d841 29bd 9b27 0c3d
00000100: 2610 643c b64c ef3c 62d8 14bd 5b11 1f3b
00000110: 118c eebc e1e5 173c cf75 ee3c b4d1 fc3c
00000120: f632 223d 1828 c23c 8fd4 c03c 8cf7 64bd
00000130: b854 1b3d b367 51bd 09cd 2e3d a929 313d
00000140: 507f 313c 5205 bbbc 63ed 0ebd 1e6f bd3c
00000150: 9115 8a3c eee2 55bd 1711 723d 5408 9a3c
00000160: 6e83 c3bb a73d 4e3d ed3b 753d f15d 38bc
00000170: 3c1f 6abd 4285 58bd c749 7a3c ceb4 2cbd
00000180: c5a8 5c3d 877f 053d a00d d23c 33d4 083d
00000190: 8c12 04bd 79ab 10bd cdab e1bb 4957 963c
000001a0: 7379 0a3b 9ec6 3bbc 65c4 8a3c 59e1 523d
000001b0: d33f 9fbc c7de 7b3d bef2 9abc d4d7 a73c
000001c0: 60e5 c8bb 5e10 4fbc fa72 943b 9495 57bc
000001d0: 5082 02bd 916d d33b 18fd 84bb 9119 99bb
000001e0: 53d7 2b3d d212 623d b247 7d3d fe60 43bc
000001f0: e5b4 383d 43d3 583c 9c2e 633c 216f 01bc
00000200: 81c5 303d df5e 093d 665a be3c 83db 1dbc
00000210: 4ea9 28bd e845 1e3d 2d4d c93c f663 6b3d
00000220: c5f3 28bd 677c b83a 04f5 d03b 87a3 0c3c
00000230: 5be0 f03c 1116 6fbd 1d36 403d 4131 6bbc
00000240: b406 f6b9 4b7b 52bd 5dda 03bd c70b 22bb
00000250: a054 99bc 0aab 8cbb 2cc8 94bc af15 4f3d
00000260: bf2e 4b3c 56dd efbb 64a4 e83c 46ac c63c
00000270: 2c4a 6bbb 74f7 293d e26d 713d 15b5 7bbd
00000280: 1a47 283c 25d6 eabb 3171 733d 3ad1 1b3d
00000290: cd2d dc3b d641 3dbd 6124 513c 3833 4dbd
000002a0: 502c fb3b 5190 2abd 2b09 523c 4b7b 0abd
000002b0: 1fbd 12bd 7b4e ee3c f187 4abc 46a5 19bc
000002c0: 901f 323d d4a4 483d 3270 3dbd e263 54bd
000002d0: f2d9 7d3d 2043 c1bc 143b c73c 1d1e 573d
000002e0: 918d d43c edc8 1abd 107b 96bc 63c7 41bd
000002f0: d3c2 823c acd2 afbc ae5c 8bbc d235 47bd
00000300: ef50 283d 3541 dabc ecc8 45bd 6aa5 71bd
00000310: 17c7 49bd ccf1 ce3c 2216 e13c a6fa ee3c
00000320: d766 6a3d b95a d03b 428a ba3c bb68 233d
00000330: 4195 833c 8442 67bd e781 9bbc c2be e43b
00000340: cf10 66bd e501 2d3d 9c80 2bbd 2c63 f03c
00000350: ec05 20bc 788a 573d dc2a 51bd 0488 96bb
00000360: 0053 0c3d a79d f73c 80b5 18bd c6ba d9bc
00000370: ded2 08bc 6a02 f5bc 305d 4abd 93bd 403c
00000380: a4b6 56bd 1ada 1cbd 4c35 193d 827c 7bbb
00000390: b681 c03b 2bc8 68bd 8498 163d d4b0 6ebd
000003a0: 7139 073b cbb8 4ebc 95d7 21bc 1d55 3cbd
000003b0: 3f90 90bc 876a b3bc 4213 803d d7ca 4fbb
000003c0: 7741 77bc 7e17 0a3d b607 2d3a 7174 23bd
000003d0: 5691 853c 39e9 b0bb 5781 66bd 969c c83b
000003e0: f697 62bd 87ef 2d3d 38b9 f9bc dc1f 66bc
000003f0: 56c2 2fbd d0da 31bd 46c4 b83b 1340 813d

actor.fc2.bias f4 [128]
-0.040873155 -0.020469036 -0.022380581 0.056202535 0.054863706 -0.043140013 0.055428147 -0.03373488
0.017108187 -0.021844825 -0.040126123 0.028236628 -0.011650445 0.020907037 -0.009936677 -0.0036451505
-0.025804704 -0.034348812 -0.047489103 -0.019772707 0.05205654 0.0435844 -0.012286086 0.029604232
0.014907396 0.010324983 0.014491003 -0.030728444 0.0042541614 0.052518606 -0.04626605 -0.00013565103
0.054900475 -0.043228965 -0.027977137 -0.03715996 -0.044901945 -0.0049589225 -0.058945283 0.026604705
0.022460807 -0.061104827 0.058422763 0.005214828 0.031993978 0.039594322 -0.041824866 0.055638924
0.053691324 -0.04733295 -0.013347058 -0.061654016 0.06168421 0.0044671963 -0.023360342 0.030059494
-0.013486494 -0.04151978 -0.04198105 0.022814007 -0.002698247 -0.019870574 -0.023768745 0.018706987
-0.03604687 -0.044033747 0.032579526 -0.03742921 -0.0050194706 0.04391295 0.03815024 0.04906936
0.057194013 0.0020742049 0.042221103 0.007894918 -0.05312675 -0.00947747 0.062789924 -0.008823447
0.0136343045 -0.045883417 -0.028647525 0.04314571 0.016841957 -0.03333117 -0.0023422197 0.014603962
-0.0012358342 -0.04548545 -0.022665557 -0.051068433 0.059965502 -0.026739074 0.052924998 0.05014774
-0.043867342 0.006570022 -0.033283927 0.058084685 0.01799391 -0.012401229 0.05527766 0.019166961
0.013171394 -0.045537703 -0.05646064 0.062193356 -0.009702453 -0.00935756 0.010827157 -0.006036533
0.029077945 -0.010747977 -0.061006643 0.00038866908 -0.011501668 0.04484674 -0.023333345 -0.036448643
0.0019629854 0.026452191 -0.05826138 -0.040412813 0.061258245 -0.038034927 -0.02993254 0.03944562
00000000: 9c6a 27bd aeae a7bc 7b57 b7bc a134 663d
00000010: c4b8 603d 95b3 30bd a008 633d 962d 0abd
00000020: 7826 8c3c ebf3 b2bc 4a5b 24bd 8050 e73c
00000030: 82e1 3ebc 3c45 ab3c 72cd 22bc 7ae3 6ebb
00000040: 6364 d3bc 57b1 0cbd ef83 42bd 5ffa a1bc
00000050: 3d39 553d 8e85 323d 944b 49bc 9384 f23c
00000060: 273e 743c 1e2a 293c ac6b 6d3c 38ba fbbc
00000070: 7e66 8b3b c01d 573d 7881 3dbd 8c3d 0eb9
00000080: 52df 603d db10 31bd 4f30 e5bc 0b35 18bd
00000090: 1aeb 37bd 757e a2bb 9c70 71bd 1cf2 d93c
000000a0: baff b73c 0e49 7abd b54c 6f3d 26e1 aa3b
000000b0: 1e0c 033d a82d 223d 8d50 2bbd a4e5 633d
000000c0: 6feb 5b3d 32e0 41bd 9ead 5abc ec88 7cbd
000000d0: 95a8 7c3d 8f61 923b 305e bfbc 543f f63c
000000e0: 75f6 5cbc a510 2abd 52f4 2bbd 71e4 ba3c
000000f0: 13d5 30bb 9dc7 a2bc acb6 c2bc 653f 993c
00000100: e2a5 13bd bb5c 34bd 1c72 053d 5f4f 19bd
00000110: 5f7a a4bb 11de 333d 6d43 1c3d f4fc 483d
00000120: 4544 6a3d 62ef 073b 09f0 2c3d b059 013c
00000130: 6f9b 59bd 6447 1bbc 0198 803d 3890 10bc
00000140: 6b62 5f3c 40f0 3bbd 37ae eabc 8eb9 303d
00000150: 25f8 893c 4486 08bd ed7f 19bb 7545 6f3c
00000160: b7fb a1ba f44e 3abd 1ead b9bc 222d 51bd
00000170: 639e 753d e70b dbbc e2c7 583d b767 4d3d
00000180: 3eae 33bd 5749 d73b ba54 08bd 35ea 6d3d
00000190: f767 933c 862e 4bbc d46a 623d 0804 9d3c
000001a0: d5cc 573c be85 3abd 4643 67bd 76be 7e3d
000001b0: 0af7 1ebc 7450 19bc 6364 313c 1cce c5bb
000001c0: df34 ee3c 4818 30bc 1ae2 79bd 48c6 cb39
000001d0: 7e71 3cbc 37b1 373d 9225 bfbc 2c4b 15bd
000001e0: 6ea5 003b 44b2 d83c 7ca3 6ebd e887 25bd
000001f0: ede9 7a3d 83ca 1bbd 1635 f5bc bb91 213d

actor.policy_head.weight f4 [50, 128]
-0.036137696 0.041138493 0.021870192 0.034288384 -0.03357505 0.08164234 0.006909241 -0.05395246
-0.047282144 -0.07504917 -0.055348344 0.07905851 -0.07337857 0.007685992 0.056047533 -0.03411127
-0.041134417 -0.043403547 0.07506186 -0.055665955 -0.05007868 0.06448432 0.0024814494 0.087439135
-0.0040414166 0.056849483 0.0841222 0.019269357 0.062332295 -0.02357653 -0.0049887984 -0.023465237
-0.086466774 0.004109403 0.050125584 -0.0277993 -0.025804007 -0.055550005 -0.013470974 0.0022342054
-0.03625896 -0.033469837 -0.025568798 0.048411224 0.039430458 0.04964932 0.08035859 -0.0630657
-0.020067478 0.07590365 0.075240314 0.0522746 -0.07067004 0.03630242 -0.0032129176 -0.005732015
-0.007143433 0.014732129 -0.068461984 0.05158051 0.054861583 -0.07190761 0.01023244 0.062129322
0.033270523 -0.06431937 -0.020780839 -0.025433695 0.005574475 -0.025156813 -0.0064414106 0.072002046
0.031620175 0.07123043 0.017961876 0.039567363 -0.07398191 -0.027403919 -0.0813891 -0.027263438
-0.07135025 -0.033791494 0.053890627 -0.01312676 0.008414934 0.05509818 -0.024615506 0.02796789
0.08589935 0.08655705 0.0044903625 0.08472758 0.045243055 0.022627348 -0.06071358 -0.061310858
-0.052408334 -0.087791674 0.069373176 -0.067637615 -0.04614433 0.07107526 0.030201852 -0.0446017
0.030140622 0.08656738 -0.06370948 0.017366776 0.06807789 -0.059108574 -0.07664998 0.08578071
0.074038185 -0.020777566 0.034243077 0.07953827 -0.00083506806 -0.0712097 0.048317607 0.0037471643
0.034548175 0.04575892 -0.08553746 0.069614224 -0.006724152 -0.07069321 0.04309486 0.015495201
0.06905716 -0.02258804 -0.033181246 0.017717242 -0.0884222 -0.04214554 -0.07084347 -0.007355888
0.024409289 0.087845854 -0.004208568 -0.025854297 0.07000864 0.0647169 0.022408228 0.0059980396
-0.0367338 -0.055014484 0.028863914 0.027482592 -0.06712933 -0.020576272 0.0131449625 -0.02785094
0.059261017 -0.015708687 -0.010219526 -0.0036378158 -0.06401075 0.043933433 -0.06530205 -0.021965852
0.0741885 -0.08699288 0.07784722 0.053551752 -0.0070324005 -0.04488326 0.05012551 -0.06748755
0.07943163 0.08182253 -0.016006384 0.03348402 0.071858816 -0.0024431157 0.0033330913 -0.0863375
-0.08207987 0.07652161 -0.002579539 -0.08270348 0.0040981565 0.064670846 0.0017716299 0.08324314
-0.048531722 -0.06418874 0.033075117 -0.061728194 0.042702805 -0.031892203 0.01633206 -0.03887402
-0.023571102 -0.028046051 -0.058653787 0.0007140859 -0.068831705 0.013032066 0.068036094 -0.062131066
-0.014969845 0.059524428 0.017191134 -0.08584849 -0.07595625 -0.062922776 0.054099448 -0.037024673
0.04944859 -0.07700431 0.015167515 0.011114612 -0.061521195 0.06657595 0.034687743 0.07734516
0.058766983 0.055754777 0.03761744 -0.01213433 0.040385105 0.06933747 0.010304577 0.05483129
-0.06705253 -0.037877038 0.00077308563 -0.07284691 -0.08247916 0.04573727 -0.07632262 0.07066786
-0.0667089 -0.018076152 -0.024515929 0.047713324 -0.057581726 -0.041430574 -0.032542363 -0.04013522
0.06746379 -0.08249443 0.03474275 0.021216827 -0.085213006 0.054250907 -0.005899727 -0.07975429
0.055093117 0.08333698 0.03514279 -0.073494434 -0.007411508 0.08643422 -0.08336675 -0.036518127
00000000: 1f05 14bd d680 283d 1e29 b33c fa71 0c3d
00000010: fe85 09bd 1934 a73d ea66 e23b 41fd 5cbd
00000020: ecaa 41bd 61b3 99bd f2b4 62bd 6ee9 a13d
00000030: 8147 96bd c6da fb3b 1992 653d 42b8 0bbd
00000040: 907c 28bd ebc7 31bd 08ba 993d fc01 64bd
00000050: 4d1f 4dbd 5b10 843d d09f 223b 4a13 b33d
00000060: dc6d 84bb 01db 683d 4348 ac3d c5da 9d3c
00000070: 2650 7f3d 9123 c1bc 1379 a3bb 2b3a c0bc
00000080: 7e15 b1bd 2ca8 863b 7c50 4d3d 5cbb e3bc
00000090: ed62 d3bc 6788 63bd 5cb5 5cbc bf6b 123b
000000a0: 4684 14bd ab17 09bd a875 d1bc d94a 463d
000000b0: d581 213d 165d 4b3d 0b93 a43d 9728 81bd
000000c0: 8d64 a4bc 5f73 9b3d 9817 9a3d e41d 563d
000000d0: 74bb 90bd d9b1 143d d08f 52bb a0d3 bbbb
000000e0: 7613 eabb 075f 713c cc35 8cbd 1646 533d
000000f0: 8ab6 603d 4c44 93bd f7a5 273c 517b 7e3d
00000100: ac46 083d e0b9 83bd 943c aabc 535a d0bc
00000110: 16aa b63b a915 cebc 7812 d3bb cf75 933d
00000120: 2884 013d 42e1 913d c924 933c 6311 223d
00000130: d483 97bd 2f7e e0bc 54af a6bd 9357 dfbc
00000140: 1420 92bd f368 0abd 6bbc 5c3d 9f11 57bc
00000150: cbde 093c a1ae 613d 75a6 c9bc eb1c e53c
00000160: 00ec af3d d344 b13d e423 933b a785 ad3d
00000170: c850 393d fd5c b93c ceae 78bd 1821 7bbd
00000180: 1faa 56bd 1fcc b3bd 8613 8e3d 9785 8abd
00000190: d601 3dbd e88f 913d e069 f73c 46b0 36bd
000001a0: 77e9 f63c 3d4a b13d 1e7a 82bd c544 8e3c
000001b0: 6c6c 8b3d d51b 72bd aafa 9cbd ccad af3d
000001c0: 55a1 973d b735 aabc 7842 0c3d f6e4 a23d
000001d0: 78e8 5aba 64d6 91bd afe8 453d fc92 753b
000001e0: 6382 0d3d b56d 3b3d 442e afbd e791 8e3d
000001f0: 4656 dcbb 9ac7 90bd 3c84 303d 95df 7d3c
00000200: d76d 8d3d 8e0a b9bc 0fe9 07bd c023 913c
00000210: b316 b5bd cda0 2cbd 6216 91bd a909 f1bb
00000220: fdf5 c73c 87e8 b33d 07e8 89bb 64cc d3bc
00000230: b160 8f3d 4b8a 843d 7691 b73c 348b c43b
00000240: 2e76 16bd de56 61bd 0474 ec3c 2c23 e13c
00000250: 1a7b 89bd 928f a8bc f85d 573c a827 e4bc
00000260: aebb 723d 81af 80bc cc6f 27bc 6c68 6ebb
00000270: 1118 83bd 8bf3 333d 15bd 85bd bbf1 b3bc
00000280: 24f0 973d 5329 b2bd 5d6e 9f3d 1559 5b3d
00000290: 0d70 e6bb 82d7 37bd 6850 4d3d ea36 8abd
000002a0: 0dad a23d 9292 a73d d21f 83bc 8a26 093d
000002b0: b72a 933d ae1c 20bb fe6f 5a3b b7d1 b0bd
000002c0: 7e19 a8bd 5db7 9c3d 7c0d 29bb 7160 a9bd
000002d0: d449 863b 2672 843d 0936 e83a 617b aa3d
000002e0: 33c9 46bd 6375 83bd c679 073d b4d6 7cbd
000002f0: 23e9 2e3d 66a1 02bd d0ca 853c 5d3a 1fbd
00000300: 2f18 c1bc d5c0 e5bc f43e 70bd 7e31 3b3a
00000310: a3f7 8cbd 7284 553c 8256 8b3d 257d 7ebd
00000320: 1544 75bc e3cf 733d 6cd4 8c3c 55d1 afbd
00000330: f38e 9bbd a8dd 80bd 6297 5d3d 2fa7 17bd
00000340: 9b8a 4a3d 70b4 9dbd 2b81 783c 101a 363c
00000350: a6fd 7bbd f958 883d bc14 0e3d 2467 9e3d
00000360: a6b5 703d 1f5f 643d bf14 1a3d 12cf 46bc
00000370: da6a 253d ce00 8e3d 87d4 283c c696 603d
00000380: d652 89bd f424 1bbd e6a8 4a3a c330 95bd
00000390: d5ea a8bd 0157 3b3d 094f 9cbd 50ba 903d
000003a0: ad9e 88bd 7014 94bc a1d5 c8bc 0c6f 433d
000003b0: d1da 6bbd 1bb3 29bd 244b 05bd d464 24bd
000003c0: 752a 8a3d d7f2 a8bd 6a4e 0e3d e9ce ad3c
000003d0: 2884 aebd 3336 5e3d 7f52 c1bb 3856 a3bd
000003e0: 52a9 613d 94ac aa3d e3f1 0f3d 4084 96bd
000003f0: 3cdc f2bb 6d04 b13d 30bc aabd 0894 15bd

actor.policy_head.bias f4 [50]
0.031522825 0.013731912 0.06131954 0.034798656 0.08379934 -0.05418566 0.08261923 -0.011556863
0.059847016 -0.07667496 -0.060321677 0.0037887671 0.06907363 -0.08464105 -0.018985556 0.04087579
0.01314086 0.03440285 0.03413272 0.0011037434 0.05436159 -0.021727249 -0.02793549 -0.08243124
-0.057945255 0.0723117 -0.041807413 0.080476515 0.03538334 0.038139913 0.035582133 -0.016983379
-0.002087734 0.07824452 -0.060373433 0.08809523 -0.017994996 -0.062822886 -0.026000235 -0.033063065
-0.085889265 -0.05034814 0.02657133 -0.05932481 0.009686697 0.06291508 -0.07730732 0.013409118
0.016013213 -0.049776632
00000000: 141e 013d d0fb 603c 332a 7b3d 0989 0e3d
00000010: fd9e ab3d c8f1 5dbd 4534 a93d ff58 3dbc
00000020: 2522 753d c307 9dbd dd13 77bd f74c 783b
00000030: 7a76 8d3d 4958 adbd 9987 9bbc 5f6d 273d
00000040: c34c 573c 01ea 0c3d c0ce 0b3d 7cab 903a
00000050: 42aa 5e3d 58fd b1bc f8d8 e4bc b6d1 a8bd
00000060: 0158 6dbd 2818 943d 403e 2bbd dfd0 a43d
00000070: 1fee 103d 9938 1c3d 92be 113d ba20 8bbc
00000080: 5dd2 08bb aa3e a03d 224a 77bd 466b b43d
00000090: 3e6a 93bc 49a9 80bd 72fe d4bc 236d 07bd
000000a0: b6e6 afbd da39 4ebd 1eac d93c 92fe 72bd
000000b0: f4b4 1e3c 9fd9 803d 4d53 9ebd ebb1 5b3c
000000c0: 242e 833c 95e2 4bbd

critic.fc1.weight f4 [256, 21]
-0.06745373 0.13847789 -0.19968948 0.11342584 -0.21033628 0.020953415 0.19507062 -0.060312804
0.18877092 -0.106750995 -0.1822093 -0.1456603 0.052336413 0.16146988 -0.019957533 -0.07878437
0.12826209 0.20100509 -0.04359266 -0.118163556 -0.0620021 -0.006603055 -0.1592187 0.0591581
0.19037339 -0.060341872 -0.089550294 -0.045423307 -0.21359271 -0.006280821 0.19940035 -0.09905729
0.037081037 0.06404357 -0.12465117 -0.08510642 0.016279977 0.1502558 -0.021147702 0.044961866
0.15956523 0.21309677 -0.056199722 -0.17907578 -0.0953435 -0.12785491 -0.13502696 0.029883962
0.064372614 0.071479596 0.14148353 -0.18727437 0.12222961 -0.17949203 -0.12576959 0.11033926
-0.026826737 0.16327941 -0.07366138 0.006741634 0.17525707 0.14500079 0.115805455 0.10976815
-0.14018936 -0.05443254 -0.017261121 0.024757009 -0.028492281 -0.10247361 0.056490686 -0.03423555
-0.17107375 0.10037473 -0.13102697 0.20517287 -0.2071101 -0.15788975 -0.20703188 -0.025309894
0.188763 0.13792183 -0.18601707 0.1941068 -0.15877283 0.01095299 0.14940034 -0.06546355
-0.15117906 0.10475819 -0.059136875 0.16429469 0.06590468 -0.07417191 0.17528309 -0.17009787
0.17826912 0.21116021 0.0697359 -0.04725109 -0.078405336 0.1138978 0.13585366 0.055392195
-0.13806792 0.094037645 -0.103782766 -0.13151781 0.13482352 -0.041002158 0.18928573 -0.16453426
-0.1179065 0.033629335 0.11381815 0.041971143 0.018696688 -0.15034306 -0.09790118 -0.058128227
-0.20447828 0.13399798 0.20816624 0.122066975 0.022145709 0.14297287 -0.023288656 0.0577847
-0.13155305 -0.11360616 0.011334294 0.070683576 -0.13288517 0.15708095 0.1114312 -0.17560464
-0.13671231 0.12802342 0.11567266 0.12235385 0.18191238 0.012535116 0.03799951 0.1617952
-0.14554164 -0.10447258 0.20782164 0.15992682 -0.10604574 0.19005139 0.17444982 0.103842266
-0.11470011 -0.076144546 -0.16159809 -0.097752444 -0.15627769 -0.061549224 -0.05579123 -0.16653177
0.21094662 0.0069235465 0.06826758 -0.015169219 -0.090785034 -0.2026439 -0.17499955 0.09944491
-0.080636464 -0.1729216 0.053044528 -0.012218269 -0.019367589 0.09336863 0.17334908 -0.021176284
-0.12948902 -0.08830218 -0.19788842 0.0076757837 -0.06622048 -0.089090794 0.032848854 0.08724198
-0.1717971 -0.11483749 -0.12148313 0.12908852 -0.15582883 0.20282356 0.16156803 -0.215623
-0.0091972845 -0.16081013 0.15020971 0.20592834 0.06211132 -0.15009612 -0.06108021 -0.17044441
-0.20642595 0.05159766 0.2131373 0.1560496 -0.11936903 -0.03406424 -0.10842797 -0.03705174
0.10549632 0.0048686415 -0.13778704 0.088074036 -0.19474511 -0.15140569 0.030175671 0.1055991
-0.09168933 -0.16625905 0.15259488 -0.0710603 -0.056533445 -0.08784675 -0.18672238 -0.0060584103
-0.032729246 0.12069375 -0.14645451 -0.06989946 -0.114427164 -0.1558849 -0.08615906 0.116530076
0.19202928 0.17165932 -0.20475715 0.11795881 0.18605497 0.049335405 0.16786355 -0.011101158
-0.07173101 0.108388714 -0.21750298 -0.21115603 -0.018836042 -0.20883672 -0.08215987 -0.20179696
0.14032894 0.08739682 -0.2132251 0.19732754 0.16249494 -0.06374295 -0.18240148 -0.086742006
00000000: 2e25 8abd 26cd 0d3e 667b 4cbe cf4b e83d
00000010: 6562 57be 7fa6 ab3c 98c0 473e 8f0a 77bd
00000020: 2a4d 413e 44a0 dabd 1395 3abe f927 15be
00000030: b55e 563d 5c58 253e fb7d a3bc b359 a1bd
00000040: 2357 033e 47d4 4d3e 388e 32bd bcff f1bd
00000050: eaf5 7dbd 715e d8bb 3a0a 23be c44f 723d
00000060: 3ef1 423e 0a29 77bd 2566 b7bd ca0d 3abd
00000070: 0cb8 5abe 58cf cdbb 9b2f 4c3e 8cde cabd
00000080: 49e2 173d 4629 833d 1d49 ffbd 464c aebd
00000090: 965d 853c a8dc 193e f23d adbc ef29 383d
000000a0: 1165 233e 0a36 5a3e ae31 66bd a45f 37be
000000b0: 7443 c3bd 66ec 02be 8244 0abe 36cf f43c
000000c0: cad5 833d e563 923d 0fe1 103e dac4 3fbe
000000d0: 8553 fa3d c2cc 37be bec9 00be 8df9 e13d
000000e0: bfc3 dbbc b832 273e c7db 96bd ede8 dc3b
000000f0: 9776 333e 167b 143e 692b ed3d 20ce e03d
00000100: cd8d 0fbe a8f4 5ebd 3267 8dbc 36cf ca3c
00000110: a568 e9bc afdd d1bd c762 673d 933a 0cbd
00000120: f52d 2fbe 4491 cd3d ef2b 06be d618 523e
00000130: ac14 54be daad 21be 2a00 54be b256 cfbc
00000140: 164b 413e 613b 0d3e 427b 3ebe efc3 463e
00000150: 5895 22be 2b74 333c 67fc 183e c111 86bd
00000160: afce 1abe 768b d63d 8239 72bd de3c 283e
00000170: 08f9 863d 71e7 97bd 697d 333e 232e 2ebe
00000180: 2e8c 363e 623a 583e b2d1 8e3d 5c8a 41bd
00000190: fa92 a0bd 4043 e93d 391d 0b3e ede2 623d
000001a0: ad61 0dbe cf96 c03d 0f8c d4bd 9bac 06be
000001b0: 2d0f 0a3e e1f1 27bd 1ed4 413e ab7b 28be
000001c0: f778 f1bd eabe 093d 7d19 e93d efe9 2b3d
000001d0: cc29 993c 88f3 19be 6a80 c8bd dd17 6ebd
000001e0: c162 51be c436 093e 8829 553e 40fe f93d
000001f0: eb6a b53c 7b67 123e dac7 bebc a6af 6c3d
00000200: d8b5 06be 59aa e8bd 7ab3 393c 8dc2 903d
00000210: 0d13 08be d4d9 203e 0a36 e43d b4d1 33be
00000220: 50fe 0bbe 9218 033e cae5 ec3d a894 fa3d
00000230: 3d47 3a3e 1660 4d3c 60a5 1b3d a4ad 253e
00000240: de08 15be b8f5 d5bd 32cf 543e dbc3 233e
00000250: 822e d9bd d59c 423e f9a2 323e 41ab d43d
00000260: e4e7 eabd acf1 9bbd f879 25be 6f32 c8bd
00000270: 4207 20be 0a1b 7cbd 5885 64bd 4e87 2abe
00000280: 6402 583e ebde e23b dfcf 8b3d 5188 78bc
00000290: 81ed b9bd e281 4fbe 1533 33be c6a9 cb3d
000002a0: bb24 a5bd 5c12 31be 3845 593d 222f 48bc
000002b0: c7a8 9ebc 0d38 bf3d 6c82 313e e379 adbc
000002c0: c598 04be c6d7 b4bd 43a3 4abe 2485 fb3b
000002d0: 9a9e 87bd 3c75 b6bd 858c 063d ecab b23d
000002e0: 94eb 2fbe eb2f ebbd 26cc f8bd c82f 043e
000002f0: 9891 1fbe fbb0 4f3e 1772 253e 47cc 5cbe
00000300: 35b0 16bc 69ab 24be 93d0 193e e1de 523e
00000310: 7168 7e3d ccb2 19be 3e2f 7abd fb88 2ebe
00000320: 5361 53be 1158 533d aa40 5a3e 77cb 1f3e
00000330: c077 f4bd f286 0bbd 7c0f debd 91c3 17bd
00000340: 740e d83d 2089 9f3b 0c18 0dbe 2960 b43d
00000350: 436b 47be 180a 1bbe f832 f73c 5744 d83d
00000360: 9ec7 bbbd d03f 2abe d541 1c3e 1088 91bd
00000370: 9d8f 67bd ffe8 b3bd 2734 3fbe a185 c6bb
00000380: 1a0f 06bd 492e f73d 2cf8 15be 7327 8fbd
00000390: ca58 eabd 4ba0 1fbe 2974 b0bd 52a7 ee3d
000003a0: 53a3 443e 76c7 2f3e dcab 51be 6394 f13d
000003b0: 3285 3e3e ec13 4a3d 6ce4 2b3e a2e1 35bc
000003c0: b5e7 92bd e7fa dd3d 1ab9 5ebe 4939 58be
000003d0: 0b4e 9abc 4bd9 55be 6f43 a8bd dda3 4ebe
000003e0: 64b2 0f3e 1bfd b23d ae57 5abe 3b10 4a3e
000003f0: 1365 263e aa8b 82bd 74c7 3abe cba5 b1bd

critic.fc1.bias f4 [256]
0.042373 0.21199138 0.09023799 0.17776112 0.12422703 -0.056812912 0.19419646 -0.018119745
0.08298291 -0.17710069 -0.16017182 -0.08839101 0.15173307 -0.12868921 0.036712643 -0.006258185
0.080036014 -0.039613955 -0.16850197 -0.11331894 0.037742216 0.095266536 0.07696424 -0.10771901
0.047615316 -0.106381446 0.20089182 -0.1936647 -0.07746804 -0.20480393 0.10456164 0.0332967
0.2103183 0.14680938 0.056089986 0.16984281 0.19419684 0.028552474 0.16447821 0.17286482
0.08682344 -0.14399214 0.19988975 0.13521743 0.032794103 -0.18107921 0.052049834 -0.058464598
-0.048859745 0.0346196 0.15494743 -0.11386298 0.0711261 -0.021778937 -0.045322206 0.20082487
-0.16195162 0.1878472 0.019201793 0.20876895 -0.00512587 -0.063679695 -0.09333494 -0.014052493
0.082583085 -0.100690916 -0.16200109 -0.11525598 0.06922278 0.16522929 0.06957925 -0.1379987
-0.029834898 -0.06546791 -0.105122715 0.058360126 -0.010800874 -0.07905465 0.12208388 -0.10075728
0.18187554 0.056372456 0.048487622 -0.014614727 -0.04262676 0.14612673 0.1109152 -0.12210499
-0.11133849 0.11882281 -0.14868274 0.16345271 -0.093485534 0.13673584 0.10627433 0.19762862
-0.026695058 -0.0010433092 0.17497528 0.08983855 -0.17675345 -0.049048536 0.15962869 0.10455923
0.1584559 -0.1364425 0.117881946 0.16672692 -0.1856284 0.037568145 0.16815744 0.13517393
0.08044473 -0.07124449 -0.116009526 -0.032401048 -0.07177755 0.19412147 0.19160114 -0.19989404
-0.03978956 -0.051184956 -0.04545372 0.0239091 -0.038848657 -0.046410985 -0.14995584 -0.08800684
-0.12851405 0.0811329 0.08855575 -0.1054049 -0.10246471 -0.068992965 0.08416394 -0.009278426
0.15201321 0.2076207 0.010569862 0.15605268 0.10318982 0.079999916 -0.18910986 0.02776613
0.15075868 -0.14018004 -0.027455637 0.016693618 -0.1852417 -0.08664082 -0.14477932 0.07589533
-0.13797916 0.16439773 -0.038476944 0.02997361 0.0721877 -0.063429296 -0.1481825 0.12375989
-0.031081408 0.16774222 0.17584041 0.0827456 -0.16260445 0.11588668 0.16378723 -0.14711094
-0.03570993 0.07627766 -0.16376154 0.1473752 -0.17533684 -0.13552372 -0.15195617 -0.172555
-0.03428347 0.024598882 0.0013218303 0.20631045 0.11206289 0.08346848 -0.14968964 -0.105208196
0.14242885 -0.12363923 -0.1539104 -0.18700671 0.138308 -0.1980213 -0.2144502 0.01967267
-0.12402425 0.16766785 0.041500263 0.051699888 0.15966372 0.14565228 -0.053337835 0.066296004
-0.15057519 0.12367292 -0.10748119 0.16861698 0.15930714 0.03420673 0.059429068 0.0029794353
0.14776859 0.1561991 0.20853317 0.18627234 -0.09989114 -0.05591582 0.1642347 -0.013278025
-0.059878163 0.11099504 -0.12218348 0.14142308 0.03952168 -0.12463909 -0.10594661 -0.13866833
-0.17140767 0.18110201 0.038226157 0.06003541 0.19086835 0.14928885 -0.12796861 0.041754734
-0.14242294 -0.084896214 -0.047131557 0.06294441 0.036739618 0.08349926 -0.14732613 -0.110096075
0.15403049 -0.12258494 0.16723283 -0.20245501 -0.15218115 0.045395046 0.05602633 0.19804761
-0.08155141 0.08799404 -0.08343614 0.16458069 0.018340295 0.08396024 0.19512327 0.0026192926
00000000: 508f 2d3d 4514 593e b2ce b83d 0307 363e
00000010: be6a fe3d a8b4 68bd 70db 463e dc6f 94bc
00000020: f2f2 a93d e259 35be 1504 24be 5906 b5bd
00000030: ea5f 1b3e 1bc7 03be ff5f 163d 7611 cdbb
00000040: ece9 a33d 3e42 22bd c88b 2cbe c313 e8bd
00000050: 9597 1a3d 1a1b c33d 6d9f 9d3d c99b dcbd
00000060: 4708 433d 84de d9bd 96b6 4d3e 0a50 46be
00000070: 90a7 9ebd 1fb8 51be 6a24 d63d 1f62 083d
00000080: ae5d 573e 3355 163e 9dbe 653d 46eb 2d3e
00000090: 89db 463e e1e6 e93c fa6c 283e 7a03 313e
000000a0: 7dd0 b13d ad72 13be e6af 4c3e 7076 0a3e
000000b0: 1c53 063d d46c 39be 3532 553d 9378 6fbd
000000c0: 2821 48bd 48cd 0d3d 8aaa 1e3e fe30 e9bd
000000d0: 90aa 913d be69 b2bc c7a3 39bd 09a5 4d3e
000000e0: a5d6 25be 045b 403e 144d 9d3c 87c7 553e
000000f0: eaf6 a7bb 806a 82bd 6426 bfbd 6d3c 66bc
00000100: 5221 a93d 0a37 cebd 9de3 25be 540b ecbd
00000110: acc4 8d3d de31 293e 917f 8e3d 884f 0dbe
00000120: 5168 f4bc 0a14 86bd 944a d7bd 070b 6f3d
00000130: 26f6 30bc 68e7 a1bd 1d07 fa3d d559 cebd
00000140: 953d 3a3e cee6 663d f59a 463d 9c72 6fbc
00000150: 6699 2ebd 3fa2 153e 8227 e33d 2e12 fabd
00000160: 6f05 e4bd 6059 f33d 4a40 18be 2660 273e
00000170: 5875 bfbd 7b04 0c3e 5ba6 d93d 285f 4a3e
00000180: 98af dabc a6bf 88ba b82c 333e 46fd b73d
00000190: dbfe 34be 1ee7 48bd b475 233e 2623 d63d
000001a0: 4342 223e 95b7 0bbe 176c f13d 76ba 2a3e
000001b0: 5f15 3ebe 0ee1 193d 7731 2c3e 096b 0a3e
000001c0: 35c0 a43d a2e8 91bd 6796 edbd f6b6 04bd
000001d0: 1c00 93bd c7c7 463e 1733 443e 06b1 4cbe
000001e0: 61fa 22bd 51a7 51bd ae2d 3abd 04dd c33c
000001f0: c51f 1fbd 7219 3ebd 068e 19be ee3c b4bd
00000200: 3099 03be 0229 a63d b85c b53d 86de d7bd
00000210: 05d9 d1bd 2f4c 8dbd 255e ac3d 8a04 18bc
00000220: 5aa9 1b3e 859a 543e 372d 2d3c 46cc 1f3e
00000230: 2f55 d33d ffd6 a33d 04a6 41be cc75 e33c
00000240: 7c60 1a3e 5b8b 0fbe a5ea e0bc 0ec1 883c
00000250: 00b0 3dbe be70 b1bd 0841 14be 036f 9b3d
00000260: 694a 0dbe e157 283e 009a 1dbd 378b f53c
00000270: 25d7 933d 38e7 81bd 27bd 17be d375 fd3d
00000280: 709e febc 9ec4 2b3e 820f 343e 8676 a93d
00000290: c881 26be ff55 ed3d d7b7 273e 40a4 16be
000002a0: 9344 12bd 7637 9c3d 1bb1 27be 86e9 163e
000002b0: 808b 33be bbc6 0abe 669a 1bbe 42b2 30be
000002c0: d36c 0cbd 9883 c93c 4441 ad3a 0c43 533e
000002d0: 3a81 e53d 86f1 aa3d 3e48 19be 6577 d7bd
000002e0: ded8 113e 9136 fdbd b09a 1dbe b07e 3fbe
000002f0: 9da0 0d3e 18c6 4abe d598 5bbe 9428 a13c
00000300: 6d00 febd 1fb1 2b3e 2efc 293d 43c3 533d
00000310: e37e 233e df25 153e c678 5abd 33c6 873d
00000320: 6230 1abe 3a48 fd3d 191f dcbd eea9 2c3e
00000330: 6921 233e 5b1c 0c3d e56b 733d a142 433b
00000340: a650 173e a8f2 1f3e b889 553e 2dbe 3e3e
00000350: ba93 ccbd fd07 65bd 242d 283e 138c 59bc
00000360: ce42 75bd 5e51 e33d 553b fabd 36d1 103e
00000370: 7ce1 213d c742 ffbd 89fa d8bd 12ff 0dbe
00000380: 7e85 2fbe ce72 393e 0893 1c3d b1e7 753d
00000390: fe72 433e 2ddf 183e 340a 03be 0307 2b3d
000003a0: 52d7 11be 11de adbd 050d 41bd 00e9 803d
000003b0: 487c 163d a901 ab3d a9dc 16be 0d7a e1bd
000003c0: 2bba 1d3e d00d fbbd 153f 2b3e 5e50 4fbe
000003d0: 60d5 1bbe 28f0 393d dd7b 653d fecc 4a3e
000003e0: 6d04 a7bd 3836 b43d 91e0 aabd d787 283e
000003f0: 633e 963c 59f3 ab3d 65ce 473e 70a8 2b3b

critic.fc2.weight f4 [128, 256]
0.009961817 -0.023060005 -0.0036692754 0.014064701 -0.0126745915 -0.024245037 0.043278534 0.01846482
-0.0071408655 0.05557808 0.02801527 0.010333725 -0.0059080133 -0.0035163835 -0.034609377 0.01760366
0.030471822 -0.01877522 0.00689788 -0.02765865 0.009893282 0.030596625 0.057978205 0.009862386
0.01805197 -0.016220352 -0.048635013 0.049932655 0.03692458 -0.054062136 -0.05343971 -0.054773837
-0.026614636 -0.0051284046 0.058469158 -0.034141887 0.043765385 0.038211416 -0.0067086467 0.03259806
0.008605989 -0.04198773 -0.010367959 -0.045490872 0.01097667 0.045086592 0.053320687 0.031276114
0.030303847 -0.029876865 0.052103117 -0.035464164 -0.014719104 0.037443437 -0.052602902 -0.006549123
-0.05078747 -0.0074444804 0.00018588021 0.017857492 0.05964541 0.047078192 0.019276038 -0.030820064
0.033782467 -0.05398335 0.018858656 0.003367638 -0.004503104 0.051706225 -0.025999352 -0.05951321
-0.0298658 -0.053370975 0.055780202 -0.027254635 -0.0067330827 -0.025412994 -0.041501977 -0.04267503
0.059180308 0.007810772 0.027552515 0.036022156 -0.04740985 0.033679187 -0.01780111 0.033646908
-0.01390639 0.005822867 -0.018125787 -0.0022780062 -0.020139884 0.058185175 -0.060360916 -0.053103883
0.018536394 -0.05554822 -0.024398416 0.044069536 0.022467913 0.0094406195 -0.05556375 -0.054659624
0.04200235 -0.017650554 0.0057622865 -0.034399807 0.019839283 -0.043204587 0.039529063 0.027170077
-0.010205582 0.012128723 0.055217214 0.009413843 -0.027492108 -0.03118866 0.039310116 -0.013772065
0.054907363 0.00400371 -0.057094175 0.046688206 0.05799183 -0.02670563 -0.047709033 -0.053045277
-0.05485615 -0.009022906 -0.024510654 -0.002210723 -0.0041525057 -0.016843153 -0.011546496 0.016505625
-0.024426863 0.025152719 0.054261286 0.060343586 0.022066733 -0.01868314 -0.028261967 -0.038329523
-0.030289523 0.011807895 0.04766908 -0.03410742 -0.062454198 0.007927894 -0.024544705 0.059776668
0.020022467 -0.019529864 -0.023586825 0.03237432 -0.03851887 0.050183274 0.017627724 0.04107634
0.046147533 0.03645607 0.053220168 0.05713099 -0.058906533 -0.03912246 -0.011598023 0.05634744
0.058559846 -0.053831145 0.016557327 -0.030358642 0.0021713637 0.052791245 -0.037488423 -0.061829057
0.0074589294 -0.050516136 0.0538977 0.050074253 -0.005735342 -0.05211598 -0.04784365 -0.060276028
0.051578842 -0.0097076 0.038086485 0.02592396 0.0015063 0.04194409 0.014276512 0.03359923
-0.024754284 -0.02054818 -0.019375125 -0.04643506 0.019835696 -0.040909868 0.05109798 0.0018575934
-0.023907006 0.0122829545 0.0015747612 -0.049367994 -0.010982805 -0.009214324 0.0288936 0.035137307
0.039506204 0.043004878 -0.05968635 0.030499356 0.051368807 -0.053721294 0.028748205 0.046491448
-0.04058705 0.0086837085 -0.01685239 0.021454172 0.017665122 -0.04526374 -0.0009034058 0.04780504
0.05763963 -0.030249648 -0.035643123 -0.0118712615 -0.006639555 0.02602378 -0.037820015 0.05343045
-0.039519317 0.03442013 0.055027068 0.011523722 0.06184226 0.0030076462 0.016670909 0.016692614
-0.012577366 0.014890379 0.039721854 -0.032073323 -0.023170961 0.01405923 0.03552508 0.031762835
-0.056619186 0.030595029 -0.04564473 0.04225231 0.028556312 0.008564122 0.009323684 0.011273861
00000000: e436 233c 56e8 bcbc 3a78 70bb a26f 663c
00000010: 17a9 4fbc 879d c6bc d544 313d 8943 973c
00000020: ecfd e9bb d7a5 633d 4880 e53c c94e 293c
00000030: 0298 c1bb 2073 66bb 90c2 0dbd 8d35 903c
00000040: 0ba0 f93c 7dce 99bc 9d07 e23b 6594 e2bc
00000050: 6f17 223c c6a5 fa3c 8e7a 6d3d d895 213c
00000060: bae1 933c 8be0 84bc 8235 47bd 2f86 4c3d
00000070: 3a3e 173d 4270 5dbd 99e3 5abd 885a 60bd
00000080: f006 dabc 2d0c a8bb 5b7d 6f3d 5dd8 0bbd
00000090: 5543 333d 9383 1c3d 35d4 dbbb 8b85 053d
000000a0: 2200 0d3c 53fb 2bbd 5fde 29bc a354 3abd
000000b0: 7ed7 333c b8ac 383d cb66 5a3d 621b 003d
000000c0: c63f f83c 54c0 f4bc 146a 553d df42 11bd
000000d0: 6628 71bc 4a5e 193d 2476 57bd 079a d6bb
000000e0: 8606 50bd d4f0 f3bb d7e8 4239 e049 923c
000000f0: bf4e 743d 10d5 403d c8e8 9d3c 5c7a fcbc
00000100: 7c5f 0a3d a51d 5dbd 787d 9a3c 97b3 5c3b
00000110: c68e 93bb e8c9 533d 98fc d4bc 20c4 73bd
00000120: 1fa9 f4bc 869b 5abd c879 643d 1d45 dfbc
00000130: 31a1 dcbb e92e d0bc fafd 29bd 03cc 2ebd
00000140: 0d67 723d 81f1 ff3b d0b5 e13c f88b 133d
00000150: d530 42bd 30f3 093d a2d3 91bc 57d1 093d
00000160: a1d7 63bc c0cd be3b 887c 94bc 9a4a 15bb
00000170: 66fc a4bc 9453 6e3d 023d 77bd 7583 59bd
00000180: a3d9 973c 8886 63bd 30df c7bc 4282 343d
00000190: a10e b83c d4ac 1a3c d196 63bd c5e2 5fbd
000001a0: a80a 2c3d e597 90bc 90d1 bc3b d0e6 0cbd
000001b0: fe85 a23c 4bf7 30bd 3ae9 213d c893 de3c
000001c0: 5035 27bc 8db7 463c 722b 623d 853c 1a3c
000001d0: 2137 e1bc 5c7f ffbc a503 213d 3aa4 61bc
000001e0: 8be6 603d 8e31 833b 95db 69bd 223c 3f3d
000001f0: d788 6d3d c4c5 dabc 8c6a 43bd 0146 59bd
00000200: d8b0 60bd d0d4 13bc 91ca c8bc c7e1 10bb
00000210: be11 88bb a7fa 89bc 842d 3dbc ce36 873c
00000220: d81a c8bc 130d ce3c 1541 5e3d d62a 773d
00000230: 4bc5 b43c 620d 99bc a485 e7bc 6bff 1cbd
00000240: bc21 f8bc e775 413c a740 433d 39b4 0bbd
00000250: f9cf 7fbd ffe3 013c fa11 c9bc 61d8 743d
00000260: 2806 a43c 18fd 9fbc 2839 c1bc ef9a 043d
00000270: f6c5 1dbd fa8c 4d3d 0468 903c aa3f 283d
00000280: 3205 3d3d f652 153d 64fd 593d 2f02 6a3d
00000290: fa47 71bd df3e 20bd a205 3ebc 93cc 663d
000002a0: 73dc 6f3d 0c7e 5cbd 3ba3 873c b0b2 f8bc
000002b0: 704d 0e3b a23b 583d 768d 19bd 7740 7dbd
000002c0: 096a f43b 02ea 4ebd d6c3 5c3d a91a 4d3d
000002d0: 89ef bbbb 9177 55bd b4f7 43bd ffe3 76bd
000002e0: 5644 533d a00c 1fbc 9300 1c3d 7c5e d43c
000002f0: 0a6f c53a 91cd 2b3d 08e8 693c 599f 093d
00000300: 7fc9 cabc a854 a8bc 95b8 9ebc b132 3ebd
00000310: 787e a23c 1b91 27bd 1e4c 513d 7e7a f33a
00000320: a0d8 c3bc 723e 493c 3868 ce3a 1836 4abd
00000330: 39f1 33bc adf7 16bc 45b2 ec3c 23ec 0f3d
00000340: 42d1 213d e225 303d ad79 74bd c9d9 f93c
00000350: 1968 523d dc0a 5cbd 5b81 eb3c d16d 3e3d
00000360: 9b3e 26bd 1d46 0e3c 060e 8abc a9c0 af3c
00000370: 72b6 903c 7966 39bd 89d2 6cba 38cf 433d
00000380: 8817 6c3d 1cce f7bc 86fe 11bd ae7f 42bc
00000390: a090 d9bb d32f d53c 29e9 1abd e3d9 5a3d
000003a0: 02df 21bd 1ffc 0c3d 1064 613d fecd 3c3c
000003b0: 4f4e 7d3d ee1b 453b 6e91 883c f3be 883c
000003c0: 4c11 4ebc c7f6 733c 62b3 223d 515f 03bd
000003d0: 07d1 bdbc af58 663c bf82 113d bf19 023d
000003e0: 85e9 67bd 6da2 fa3c f8f5 3abd c210 2d3d
000003f0: edee e93c 8850 0c3c 5dc2 183c 00b6 383c
