client/temp_files/thread_1/tmp/gradient_policy_2.pt (torch, 293074 bytes, 11 tensors)

actor.fc1.weight f4 [256, 10]
0	0xbc62ca3d	-0.013842163
1	0xbc52d440	-0.012867987
2	0xbc4bb3e6	-0.012433028
3	0xbc6e5a0a	-0.014547834
4	0xbc24729a	-0.010037089
5	0x3c310b2b	0.010805885
6	0xbb8a1127	-0.0042134705
7	0xbc174dc9	-0.009234854
8	0xbc332021	-0.010932953
9	0x3a8db036	0.0010809961
10	0x3e2f761b	0.17134897
11	0x3d400bf8	0.046886414
12	0x3e28cf27	0.16485272
13	0x3e0d849c	0.13820118
14	0x3d36fd3c	0.044675097
15	0x3d6d9008	0.057998687
16	0x3d235e74	0.039885
17	0x3e8b846b	0.27249464
18	0x3e264d64	0.1624046
19	0x3e249e39	0.16075982
20	0xbdc65698	-0.09684485
21	0x3d0299a2	0.031884797
22	0xbdd1cbcc	-0.10243949
23	0xbd573a8b	-0.052546065
24	0xbceb5a86	-0.028729688
25	0x3e0eee8f	0.1395819
26	0xbd759c8a	-0.05996374
27	0x3db1e08c	0.08685407
28	0xbdc2f85a	-0.095200256
29	0x3d6d5699	0.057943914
30	0x3cb3053d	0.021853084
31	0x3cbd1a80	0.023083925
32	0xbcb59dec	-0.02217003
33	0xbb7d82e0	-0.0038682744
34	0x3d4a2c81	0.04935885
35	0x3d944822	0.07240321
36	0xbb70be60	-0.0036734566
37	0xbe6a5917	-0.22885548
38	0x3d95f5d3	0.07322278
39	0x3dd928d2	0.10603489
40	0x3d921276	0.071324274
41	0xbd238af4	-0.039927438
42	0x3dc77516	0.09739129
43	0x3d17e5b4	0.037084296
44	0x3b9fe2b8	0.004879322
45	0xbd81a452	-0.0633017
46	0x3d8c2c71	0.06844414
47	0xbe0c4c89	-0.13701071
48	0x3d6ad8ce	0.057335667
49	0xbdc829fb	-0.09773632
50	0x3d22bf44	0.039733186
51	0x3dd63f10	0.10461247
52	0x3d854438	0.06507152
53	0x3d18110e	0.03712564
54	0x3cb90e3f	0.0225898
55	0x3e162229	0.14661469
56	0xbc502f94	-0.012706656
57	0x3e87acb5	0.26498953
58	0xbcbc6cf8	-0.02300118
59	0x3d6b0afe	0.05738353
60	0x3d64bb2e	0.05584257
61	0x3d1b4260	0.037905097
62	0x3d8e04be	0.06934498
63	0x3cc6257c	0.024187796
64	0x3cc6f8e0	0.024288595
65	0x3d8750e4	0.066072255
66	0x3aba3bc0	0.0014208481
67	0x3ea4994d	0.3214821
68	0x3cab9ace	0.02094784
69	0x3e0c57e1	0.13705398
70	0xbdcb7716	-0.09934823
71	0x3ce0db52	0.02744833
72	0xbdc13982	-0.09434797
73	0xbd1dab34	-0.03849335
74	0xbdf1076d	-0.117689945
75	0x3e3b784e	0.18307611
76	0xbd5a1b3a	-0.05324862
77	0xbe7212e9	-0.23640026
78	0xbe1172fd	-0.14204021
79	0x3da41934	0.080126196
80	0xbc4f0b97	-0.012637041
81	0xbd99e8d7	-0.07515114
82	0xbccd626a	-0.025071342
83	0xbdbe8a6e	-0.09303747
84	0xbc309742	-0.01077825
85	0xbd781c1b	-0.06057368
86	0x3c0fcf2e	0.008777423
87	0x3bc443ad	0.005989513
88	0xbcbbc018	-0.022918746
89	0xbd634b99	-0.055492017
90	0xbc3ed829	-0.011648216
91	0xbc136d3f	-0.008998214
92	0xbb9381d0	-0.004501559
93	0x3ce46358	0.027879402
94	0x39ec4f30	0.00045072427
95	0x3a449250	0.0007498609
96	0xbaa9c3c2	-0.0012952017
97	0x3be70fd8	0.0070514493
98	0xbc87256d	-0.016497338
99	0xbc630883	-0.01385701
100	0x3c9a7dbe	0.018858787
101	0xbd0de40d	-0.034641314
102	0x3ccec6dc	0.025241308
103	0xbcae4b0f	-0.021276025
104	0x3bb25f25	0.005443471
105	0xbcef0d12	-0.029181037
106	0x3c98e0e8	0.018661931
107	0x3b134314	0.0022470402
108	0x3cdff248	0.027337208
109	0xbc28e146	-0.010307616
110	0xbd867a5a	-0.065663055
111	0x3b1c1370	0.0023815297
112	0xbd343ef1	-0.044005338
113	0xbcadffce	-0.021240141
114	0xbdabcd6c	-0.083887905
115	0x3d2138cf	0.039360818
116	0xbb250080	-0.00251773
117	0x3dd539a0	0.10411382
118	0xbdcada8b	-0.09904965
119	0xbdc2770c	-0.09495363
120	0xbde49f4b	-0.11163195
121	0x3da27ae7	0.07933598
122	0xbda0d1a2	-0.07852484
123	0x3dfbd6d6	0.12296836
124	0xbdae0b59	-0.08498258
125	0x3da6fcbb	0.08153673
126	0xbe10dcda	-0.14146748
127	0xbea17f8f	-0.31542632
128	0xbda7f320	-0.08200669
129	0x3e0391dc	0.1284861
130	0xbd34c045	-0.044128675
131	0x3d3c1f8a	0.045928515
132	0xbd5bb42b	-0.05363862
133	0x3da86124	0.08221653
134	0xbd8d5d8a	-0.06902607
135	0x3d939480	0.072060585
136	0xbd4a3288	-0.049364597
137	0xbc8684d2	-0.016420756
138	0xbdbdb18e	-0.092623815
139	0x3d56b06e	0.05241435
140	0x3d21e2be	0.03952288
141	0xbd57bc4d	-0.052669812
142	0x3d821e1c	0.06353399
143	0xbc141953	-0.009039241
144	0x3d09094a	0.033456124
145	0xbca73f4e	-0.020415928
146	0x3d7c9cee	0.061673097
147	0xbdc8655c	-0.09784958
148	0x3d02968e	0.03188186
149	0xbc0f7822	-0.008756669
150	0x3c041390	0.008061305
151	0x3db07ce8	0.08617574
152	0x3d4d2ca7	0.050091412
153	0x3d8a4528	0.06751472
154	0x3c1ffb21	0.009764464
155	0x3d8b96f0	0.068158984
156	0xbcf00c04	-0.029302604
157	0x3e01129a	0.12604752
158	0x3d0da3a6	0.034579895
159	0x3e04f0db	0.12982504
160	0x3c67bdee	0.014144404
161	0xbd6eca16	-0.058298193
162	0x3ce1fc82	0.027586225
163	0xbd8fc576	-0.070200846
164	0xbc22d095	-0.009937425
165	0x3bfe12ed	0.007753721
166	0xba461690	-0.00075564627
167	0x3a890cb8	0.0010456061
168	0xbc5e7534	-0.013577748
169	0xbc9bc44e	-0.019014504
170	0x3d0ceab4	0.034403518
171	0xbd5766bc	-0.05258821
172	0x3ce9cc2e	0.028539743
173	0xbdb4ed4a	-0.08834322
174	0xb9a57504	-0.00031558436
175	0x3abba48c	0.0014316007
176	0xbd39d2fd	-0.04536723
177	0xbcd61946	-0.026135098
178	0xbcbec742	-0.023288373
179	0xbd81aecf	-0.0633217
180	0x3dc59350	0.09647238
181	0x3a8ad3f8	0.0010591736
182	0x3dc093ac	0.09403166
183	0x3d053b4a	0.032527246
184	0x3b298782	0.0025868122
185	0xbb2866dc	-0.0025696075
186	0x3d8e14a8	0.069375336
187	0x3d6079f6	0.05480381
188	0x3e00d9a4	0.12583023
189	0xbc000224	-0.00781301
190	0xbd78ad40	-0.0607121
191	0x3e00ae7c	0.1256656
192	0xbe0f2a0f	-0.13980888
193	0x3dc735d7	0.09727066
194	0xbd279259	-0.040911052
195	0x3e817e86	0.25291842
196	0xbd0cc9e9	-0.034372244
197	0x3e48b165	0.1959892
198	0xbdf250c6	-0.118318126
199	0x3e6497a0	0.22323465
200	0x3cd96d46	0.026541363
201	0x3cf497ad	0.02985748
202	0x3d80546c	0.06266102
203	0x3c80c262	0.015717689
204	0xbbb07e71	-0.0053861667
205	0x3bfb1408	0.0076623
206	0xbc532cca	-0.0128890965
207	0x3dfa1e08	0.12212759
208	0x3cde39e3	0.027127212
209	0xbcaccb48	-0.021093026
210	0x3c75ea0e	0.015009416
211	0x3ca0319f	0.019554911
212	0x3c4b1992	0.012396233
213	0x3c94bc04	0.01815606
214	0x3d116148	0.035493165
215	0x3c407dae	0.011748714
216	0x3bbf6116	0.005840431
217	0x3d42bc78	0.04754302
218	0x3bfa7484	0.0076432843
219	0x3c52dcb2	0.012870001
220	0x3d7afd5e	0.061276786
221	0x3b81c43a	0.0039601596
222	0x3d51c3c5	0.05121209
223	0xbbba6774	-0.005688602
224	0x3c30faf0	0.010802016
225	0x3dc3b4d5	0.09555975
226	0x3c627ed4	0.0138241835
227	0xbdcbd9ac	-0.09953627
228	0x3d157986	0.036492847
229	0x3d89036a	0.06690104
230	0xbccf1d25	-0.025282452
231	0x396f23e4	0.00022806186
232	0xbaeec2ee	-0.0018216053
233	0xbb952547	-0.004551563
234	0xbd691bb3	-0.05691118
235	0xbbc03b0e	-0.005866415
236	0xbca66e66	-0.020316314
237	0xbe2cd312	-0.16877392
238	0xbd1b5217	-0.037920084
239	0xbdb11dda	-0.08648272
240	0xbc3665ea	-0.011132697
241	0x3c1e7957	0.009672484
242	0xbc9a675c	-0.018848114
243	0xbc3302dc	-0.010925975
244	0x3d033a44	0.03203799
245	0x3d5330b7	0.05156013
246	0xbc9d94fc	-0.01923608
247	0x3d4bf728	0.049796253
248	0x3d0f5532	0.034993358
249	0x3d6ee2fa	0.05832193
250	0xbc14bb1a	-0.009077812
251	0xbd86ffed	-0.06591783
252	0xbcb70cd1	-0.022344979
253	0xbd0d2708	-0.03446105
254	0x3d823bce	0.06359063
255	0xbe152ab9	-0.14567079

actor.fc1.bias f4 [256]
0	0x3c30a650	0.0107818395
1	0xbd7aa230	-0.06118983
2	0xbbee42c0	-0.007271141
3	0x3e101fd2	0.14074638
4	0x3bba7684	0.0056903977
5	0xbdd79ea3	-0.105283044
6	0xbe0d7b59	-0.13816585
7	0x3d36c610	0.04462248
8	0xbd82b8b2	-0.06382884
9	0x3b81e570	0.0039641187
10	0xbcb71c7c	-0.02235245
11	0xbc93136c	-0.017953597
12	0x3dfc42e2	0.123174444
13	0xbcd8c348	-0.026460305
14	0xba707cc0	-0.00091738626
15	0xbd2bf19a	-0.041978456
16	0xbd65628a	-0.056002177
17	0xbd6f8afc	-0.058482155
18	0x3b835d90	0.0040089563
19	0xbdc55b49	-0.09636552
20	0xbbae64e8	-0.0053220876
21	0xbc6e684e	-0.014551235
22	0x3db4c18a	0.08825977
23	0x3d16cf1f	0.03681862
24	0xbceeb50e	-0.029139068
25	0x3d6e0fce	0.05812054
26	0xb7dd8f00	-2.6411843e-05
27	0xbd570fce	-0.052505307
28	0xbd1f6035	-0.03891011
29	0xbc07cf24	-0.008289132
30	0xbd320c79	-0.043468926
31	0xbc6b0bea	-0.014346102
32	0x3d9a73f3	0.07541647
33	0x3da59de2	0.080867544
34	0x3d5e44e3	0.054264914
35	0x3e0e2a3a	0.13883296
36	0x3c284b8b	0.010271917
37	0x3d154758	0.03644499
38	0x3d8df3c2	0.06931259
39	0xbd83e0bc	-0.06439349
40	0x3cb85e69	0.022505956
41	0xbdaa8416	-0.08325975
42	0x3c4b4ab6	0.012407949
43	0xbbfdfe6c	-0.0077512767
44	0xbdbe19e0	-0.09282279
45	0x3d4de963	0.050271403
46	0x3d513f5d	0.05108582
47	0xbc8bfcf5	-0.017088393
48	0x3cee5cbc	0.029096954
49	0x3d1074ba	0.03526757
50	0x3ccf711a	0.025322486
51	0x3cba4f1e	0.022742804
52	0x3b410510	0.002945248
53	0xbe33f6b9	-0.17574586
54	0x3d826d96	0.06368558
55	0xbd65353b	-0.055958968
56	0x3a62b060	0.0008647498
57	0xbda48f2c	-0.0803512
58	0xbdd4baf6	-0.103872225
59	0xbc8a465e	-0.016879257
60	0xbda1e957	-0.07905834
61	0xbe2153bb	-0.15754597
62	0x3cdab79a	0.026698876
63	0x3d7b3866	0.061333083
64	0xbdac54c7	-0.084146075
65	0xbd0cf027	-0.034408715
66	0x3c477818	0.012174629
67	0xbd5bf3d3	-0.053699326
68	0xbd719d1b	-0.058987718
69	0x3a9c74d8	0.0011936678
70	0x3d603e76	0.054747067
71	0xbd4a3594	-0.049367502
72	0xbb0ae540	-0.0021193773
73	0xbc1a9fbb	-0.009437497
74	0xbc63b83c	-0.013898905
75	0xbd8ac538	-0.06775898
76	0xbd0efc22	-0.03490842
77	0xbdfbfd72	-0.123042
78	0x3d6ec221	0.058290605
79	0xbc570883	-0.013124588
80	0x3cb81d9f	0.022475062
81	0x3dacbdf4	0.08434668
82	0x3d97f17f	0.074191086
83	0xbc805678	-0.015666232
84	0x3c30113f	0.010746299
85	0x3e21ab56	0.15788016
86	0xbe04c560	-0.12965918
87	0x3d643024	0.055709973
88	0x3e239cca	0.15977779
89	0xbcb5843e	-0.022157785
90	0xbbc55871	-0.006022506
91	0xbd1e4e23	-0.038648736
92	0x3d4d47cb	0.050117295
93	0x3c3a2b44	0.011362854
94	0x3e3da7eb	0.18521087
95	0xbdbbc976	-0.09169285
96	0x3b3c9d2c	0.0028780205
97	0xbdb527c1	-0.08845473
98	0xbca8fd10	-0.020628482
99	0x3d939516	0.0720617
100	0xbd1f4631	-0.0388853
101	0xbd7bb652	-0.06145317
102	0xbb529d94	-0.003213738
103	0x3b942678	0.0045211874
104	0xbda61296	-0.08109014
105	0xbbeacce8	-0.00716554
106	0xbd99dbb2	-0.07512607
107	0x3a29eac0	0.0006481819
108	0xbd240b70	-0.04004997
109	0xbc337146	-0.010952299
110	0x3a98f70c	0.0011670305
111	0xbdbe982e	-0.0930637
112	0x3cc0616b	0.023483953
113	0xbcb4608c	-0.022018693
114	0xbd20e21b	-0.03927813
115	0x3bbf01ec	0.0058290865
116	0xbb6576e0	-0.0035013482
117	0x3b7f0e7f	0.0038918552
118	0x3d5dbeb0	0.054136932
119	0xbccbccce	-0.024877932
120	0x3d140cda	0.03614507
121	0xbca9e562	-0.020739261
122	0xbd3d5d50	-0.046231568
123	0xbcbe4b11	-0.023229154
124	0xbc4f03ce	-0.012635184
125	0xbc801a2d	-0.015637482
126	0x3c75a542	0.014993014
127	0xbc952ff0	-0.018211335
128	0x3d621c1a	0.05520258
129	0x3d9e9c3e	0.077446446
130	0x3c9a800d	0.018859887
131	0x3d3c296f	0.04593795
132	0x3cc801b6	0.024414878
133	0xbd183416	-0.037159048
134	0x3c52a25c	0.012856092
135	0xbc4f05f0	-0.012635693
136	0xbd564275	-0.052309472
137	0x3d3f41b4	0.04669352
138	0x3cc1aa62	0.023640815
139	0xbb0021a0	-0.0019551292
140	0xbc1fb452	-0.009747582
141	0xbbedcab8	-0.007256832
142	0x3b746bf6	0.0037295795
143	0xbaf86a80	-0.0018952638
144	0xbcecab7b	-0.028890362
145	0x3e38006f	0.17968915
146	0xbd39cd94	-0.04536207
147	0xbc972c48	-0.018453732
148	0xbc4c152a	-0.012456218
149	0xbcd85085	-0.026405582
150	0x3cdf6fb0	0.027274936
151	0x3e2db53c	0.16963667
152	0x3d9a73ea	0.0754164
153	0x3ca21474	0.019785143
154	0x3e30f7ca	0.17282024
155	0x3d0a4cc0	0.0337646
156	0x3d486188	0.048921138
157	0xbc9fbf44	-0.019500382
158	0x3df9adc4	0.12191346
159	0x3c989bd4	0.018628992
160	0xbd8681bd	-0.06567714
161	0x3d08bcaf	0.033383068
162	0x3cb2289f	0.021747885
163	0x3b97ff1c	0.0046385657
164	0xbc993c8c	-0.018705629
165	0x3dab6100	0.08368111
166	0xbc71bffb	-0.014755244
167	0xbd2b939e	-0.041888826
168	0xbd053ecf	-0.032530602
169	0x3d87fa5d	0.0663955
170	0x3d85fafc	0.06542012
171	0xbde4ebff	-0.11177825
172	0x3bdb7b47	0.0066980454
173	0xb91bb680	-0.00014849938
174	0xbddb694e	-0.10713445
175	0x3d005483	0.031330597
176	0xbcb75785	-0.0223806
177	0x3d9ba95c	0.07600662
178	0x3d809894	0.06279102
179	0xbc635ad4	-0.013876636
180	0x3c183578	0.009290092
181	0xbbfd6f04	-0.0077341814
182	0x3d0cc03c	0.034363016
183	0xbdcf3223	-0.10116985
184	0x3d97251b	0.07380124
185	0x3d87ac34	0.06624642
186	0xbd8d6ead	-0.06905875
187	0x3d3ec12d	0.046570946
188	0xbbb52440	-0.005528003
189	0xbd511409	-0.051044498
190	0xbd5f2e93	-0.054487776
191	0xbce6f546	-0.028193127
192	0xbc8f41fa	-0.017487515
193	0x3c61682e	0.0137577485
194	0x3dc8b116	0.097994015
195	0x3db12870	0.08650291
196	0x3dcf5be6	0.1012495
197	0x3adfe1f8	0.0017080894
198	0x3e0a9931	0.13535
199	0x3ccf0f2a	0.025275785
200	0x3cc10981	0.023564102
201	0xbd2406fe	-0.04004573
202	0x3ba875ac	0.0051409807
203	0x3c576b5a	0.013148153
204	0xbd393022	-0.04521192
205	0xbd1b89aa	-0.037973084
206	0x3d4d96b7	0.05019256
207	0xbd07a1ac	-0.033113167
208	0xbe158164	-0.1460014
209	0x3d31eaf0	0.043436944
210	0xbd0febd4	-0.035137013
211	0xbc612d4a	-0.013743708
212	0x3c83e078	0.016098246
213	0xbc7f7a51	-0.015593127
214	0xbb7a05e8	-0.0038150493
215	0xbcbb6d8a	-0.02287938
216	0xbd0bc958	-0.034127563
217	0xbcc05824	-0.023479529
218	0xbcf6b73c	-0.03011667
219	0x3de85a2e	0.113453254
220	0xbd4e40ca	-0.050354756
221	0xbc2b6c16	-0.010462781
222	0x3cf28b21	0.029607357
223	0x3d942924	0.072344095
224	0x3d6fff2e	0.058592968
225	0xbc290b1b	-0.010317589
226	0xbc415e34	-0.011802245
227	0x3af0c3ca	0.0018368897
228	0x3dc88a34	0.09791985
229	0x3d253695	0.040335257
230	0x3dd8c58c	0.10584554
231	0xbc02a9e6	-0.007975077
232	0x3c1139d5	0.008863886
233	0x3be77e5f	0.007064625
234	0x3b80833e	0.0039218953
235	0x3d66dc61	0.056362513
236	0x3d525336	0.051348887
237	0xbce8a13f	-0.0283972
238	0x3d620e06	0.055189155
239	0x3db83931	0.089952834
240	0x3d2c8b86	0.042125247
241	0x3ca7e427	0.020494534
242	0x3dcbc466	0.099495694
243	0x3cebf51e	0.028803404
244	0xbca369d2	-0.01994792
245	0xbd779cbb	-0.060452204
246	0xbd56e5bc	-0.052465186
247	0xbd2360cf	-0.039887246
248	0xbd28810f	-0.041138705
249	0x3ba4e69c	0.0050323736
250	0xbd8b10b5	-0.06790296
251	0xbdb63a9e	-0.08897899
252	0xbd941056	-0.07229678
253	0xbcadb9aa	-0.021206696
254	0x3d08fea8	0.033445984
255	0xbc99b026	-0.018760752

actor.fc2.weight f4 [128, 256]
0	0x00000000	0.0
1	0x00000000	0.0
2	0x00000000	0.0
3	0x00000000	0.0
4	0x00000000	0.0
5	0x00000000	0.0
6	0x00000000	0.0
7	0x00000000	0.0
8	0x00000000	0.0
9	0x00000000	0.0
10	0x00000000	0.0
11	0x00000000	0.0
12	0x00000000	0.0
13	0x00000000	0.0
14	0x00000000	0.0
15	0x00000000	0.0
16	0x00000000	0.0
17	0x00000000	0.0
18	0x00000000	0.0
19	0x00000000	0.0
20	0x00000000	0.0
21	0x00000000	0.0
22	0x00000000	0.0
23	0x00000000	0.0
24	0x00000000	0.0
25	0x00000000	0.0
26	0x00000000	0.0
27	0x00000000	0.0
28	0x00000000	0.0
29	0x00000000	0.0
30	0x00000000	0.0
31	0x00000000	0.0
32	0x00000000	0.0
33	0x00000000	0.0
34	0x00000000	0.0
35	0x00000000	0.0
36	0x00000000	0.0
37	0x00000000	0.0
38	0x00000000	0.0
39	0x00000000	0.0
40	0x00000000	0.0
41	0x00000000	0.0
42	0x00000000	0.0
43	0x00000000	0.0
44	0x00000000	0.0
45	0x00000000	0.0
46	0x00000000	0.0
47	0x00000000	0.0
48	0x00000000	0.0
49	0x00000000	0.0
50	0x00000000	0.0
51	0x00000000	0.0
52	0x00000000	0.0
53	0x00000000	0.0
54	0x00000000	0.0
55	0x00000000	0.0
56	0x00000000	0.0
57	0x00000000	0.0
58	0x00000000	0.0
59	0x00000000	0.0
60	0x00000000	0.0
61	0x00000000	0.0
62	0x00000000	0.0
63	0x00000000	0.0
64	0x00000000	0.0
65	0x00000000	0.0
66	0x00000000	0.0
67	0x00000000	0.0
68	0x00000000	0.0
69	0x00000000	0.0
70	0x00000000	0.0
71	0x00000000	0.0
72	0x00000000	0.0
73	0x00000000	0.0
74	0x00000000	0.0
75	0x00000000	0.0
76	0x00000000	0.0
77	0x00000000	0.0
78	0x00000000	0.0
79	0x00000000	0.0
80	0x00000000	0.0
81	0x00000000	0.0
82	0x00000000	0.0
83	0x00000000	0.0
84	0x00000000	0.0
85	0x00000000	0.0
86	0x00000000	0.0
87	0x00000000	0.0
88	0x00000000	0.0
89	0x00000000	0.0
90	0x00000000	0.0
91	0x00000000	0.0
92	0x00000000	0.0
93	0x00000000	0.0
94	0x00000000	0.0
95	0x00000000	0.0
96	0x00000000	0.0
97	0x00000000	0.0
98	0x00000000	0.0
99	0x00000000	0.0
100	0x00000000	0.0
101	0x00000000	0.0
102	0x00000000	0.0
103	0x00000000	0.0
104	0x00000000	0.0
105	0x00000000	0.0
106	0x00000000	0.0
107	0x00000000	0.0
108	0x00000000	0.0
109	0x00000000	0.0
110	0x00000000	0.0
111	0x00000000	0.0
112	0x00000000	0.0
113	0x00000000	0.0
114	0x00000000	0.0
115	0x00000000	0.0
116	0x00000000	0.0
117	0x00000000	0.0
118	0x00000000	0.0
119	0x00000000	0.0
120	0x00000000	0.0
121	0x00000000	0.0
122	0x00000000	0.0
123	0x00000000	0.0
124	0x00000000	0.0
125	0x00000000	0.0
126	0x00000000	0.0
127	0x00000000	0.0
128	0x00000000	0.0
129	0x00000000	0.0
130	0x00000000	0.0
131	0x00000000	0.0
132	0x00000000	0.0
133	0x00000000	0.0
134	0x00000000	0.0
135	0x00000000	0.0
136	0x00000000	0.0
137	0x00000000	0.0
138	0x00000000	0.0
139	0x00000000	0.0
140	0x00000000	0.0
141	0x00000000	0.0
142	0x00000000	0.0
143	0x00000000	0.0
144	0x00000000	0.0
145	0x00000000	0.0
146	0x00000000	0.0
147	0x00000000	0.0
148	0x00000000	0.0
149	0x00000000	0.0
150	0x00000000	0.0
151	0x00000000	0.0
152	0x00000000	0.0
153	0x00000000	0.0
154	0x00000000	0.0
155	0x00000000	0.0
156	0x00000000	0.0
157	0x00000000	0.0
158	0x00000000	0.0
159	0x00000000	0.0
160	0x00000000	0.0
161	0x00000000	0.0
162	0x00000000	0.0
163	0x00000000	0.0
164	0x00000000	0.0
165	0x00000000	0.0
166	0x00000000	0.0
167	0x00000000	0.0
168	0x00000000	0.0
169	0x00000000	0.0
170	0x00000000	0.0
171	0x00000000	0.0
172	0x00000000	0.0
173	0x00000000	0.0
174	0x00000000	0.0
175	0x00000000	0.0
176	0x00000000	0.0
177	0x00000000	0.0
178	0x00000000	0.0
179	0x00000000	0.0
180	0x00000000	0.0
181	0x00000000	0.0
182	0x00000000	0.0
183	0x00000000	0.0
184	0x00000000	0.0
185	0x00000000	0.0
186	0x00000000	0.0
187	0x00000000	0.0
188	0x00000000	0.0
189	0x00000000	0.0
190	0x00000000	0.0
191	0x00000000	0.0
192	0x00000000	0.0
193	0x00000000	0.0
194	0x00000000	0.0
195	0x00000000	0.0
196	0x00000000	0.0
197	0x00000000	0.0
198	0x00000000	0.0
199	0x00000000	0.0
200	0x00000000	0.0
201	0x00000000	0.0
202	0x00000000	0.0
203	0x00000000	0.0
204	0x00000000	0.0
205	0x00000000	0.0
206	0x00000000	0.0
207	0x00000000	0.0
208	0x00000000	0.0
209	0x00000000	0.0
210	0x00000000	0.0
211	0x00000000	0.0
212	0x00000000	0.0
213	0x00000000	0.0
214	0x00000000	0.0
215	0x00000000	0.0
216	0x00000000	0.0
217	0x00000000	0.0
218	0x00000000	0.0
219	0x00000000	0.0
220	0x00000000	0.0
221	0x00000000	0.0
222	0x00000000	0.0
223	0x00000000	0.0
224	0x00000000	0.0
225	0x00000000	0.0
226	0x00000000	0.0
227	0x00000000	0.0
228	0x00000000	0.0
229	0x00000000	0.0
230	0x00000000	0.0
231	0x00000000	0.0
232	0x00000000	0.0
233	0x00000000	0.0
234	0x00000000	0.0
235	0x00000000	0.0
236	0x00000000	0.0
237	0x00000000	0.0
238	0x00000000	0.0
239	0x00000000	0.0
240	0x00000000	0.0
241	0x00000000	0.0
242	0x00000000	0.0
243	0x00000000	0.0
244	0x00000000	0.0
245	0x00000000	0.0
246	0x00000000	0.0
247	0x00000000	0.0
248	0x00000000	0.0
249	0x00000000	0.0
250	0x00000000	0.0
251	0x00000000	0.0
252	0x00000000	0.0
253	0x00000000	0.0
254	0x00000000	0.0
255	0x00000000	0.0

actor.fc2.bias f4 [128]
0	0x00000000	0.0
1	0xbcd6922d	-0.026192749
2	0xbc0415d1	-0.008061842
3	0x3d35f2c8	0.044420987
4	0x3d0797e8	0.033103853
5	0xbd07e901	-0.033181194
6	0x3d00e7ee	0.031471185
7	0x00000000	0.0
8	0x3bc03c71	0.00586658
9	0x3e0e3808	0.13888562
10	0x39c2bf12	0.00037144922
11	0xbe89bda6	-0.26902503
12	0x3e0a017c	0.13477129
13	0xbce9285a	-0.028461624
14	0x3e2dfd54	0.16991168
15	0xbdc5dd1d	-0.09661315
16	0xbda31264	-0.07962492
17	0x3f39f28e	0.72635734
18	0x3ee4cbd5	0.44686761
19	0x00000000	0.0
20	0xbde784be	-0.113046154
21	0xbc7bbb58	-0.01536449
22	0xbdb84e03	-0.089992546
23	0xb9caed4e	-0.00038705248
24	0x00000000	0.0
25	0x3c14330c	0.009045374
26	0xbd95610c	-0.07293901
27	0x00000000	0.0
28	0x3ce58eca	0.028022189
29	0x3df4b484	0.11948493
30	0xbb98f5be	-0.0046679666
31	0xbd08a7dc	-0.03336321
32	0xbf55dc35	-0.83539134
33	0x00000000	0.0
34	0x3a732a00	0.0009275973
35	0x00000000	0.0
36	0x3b5f4b5e	0.0034072022
37	0xbe7e2f5e	-0.24822757
38	0xbe49efdc	-0.19720405
39	0x3d565f5e	0.052337043
40	0x00000000	0.0
41	0x00000000	0.0
42	0x00000000	0.0
43	0x3c208ac0	0.009798706
44	0x3c8959ec	0.01676651
45	0x3a0e04da	0.0005417593
46	0xbe6c2ffc	-0.2306518
47	0xbd0408fd	-0.032235134
48	0xbc80af1e	-0.015708502
49	0x00000000	0.0
50	0x3c76a260	0.015053362
51	0x3d0cc92c	0.03437154
52	0xbd4b3e91	-0.049620215
53	0x3ca4cd5a	0.02011745
54	0xbce4399f	-0.027859507
55	0x00000000	0.0
56	0x3e20d08e	0.15704557
57	0xbc57a1ec	-0.013161164
58	0x00000000	0.0
59	0x3dfa1810	0.12211621
60	0x00000000	0.0
61	0xbda1e2be	-0.07904576
62	0x00000000	0.0
63	0xbdd10b82	-0.10207273
64	0xbc1095f0	-0.00882481
65	0x00000000	0.0
66	0x3e89983e	0.26873964
67	0xbd21e212	-0.039522238
68	0x00000000	0.0
69	0xbd03e0b7	-0.032196727
70	0xbc93f04a	-0.018058915
71	0x00000000	0.0
72	0xbd6de16d	-0.05807631
73	0xbd543776	-0.051810704
74	0x00000000	0.0
75	0x00000000	0.0
76	0x3cc39876	0.02387641
77	0x00000000	0.0
78	0x00000000	0.0
79	0x00000000	0.0
80	0x3dae6069	0.085144825
81	0x3cea3e7e	0.028594252
82	0x3f188d1e	0.5959033
83	0x3c9cab0e	0.019124534
84	0x3d7a8f82	0.061172016
85	0xbcf8452e	-0.030306425
86	0xbb92595c	-0.004466219
87	0x3bba0ef2	0.005678051
88	0x3d02125e	0.031755798
89	0xbd87ed19	-0.0663702
90	0x00000000	0.0
91	0x3e6a95fb	0.22908776
92	0xbe28848e	-0.16456816
93	0x3db5791d	0.08860991
94	0xbf1976b9	-0.5994678
95	0x00000000	0.0
96	0xbc253113	-0.010082501
97	0xbef6b633	-0.48185882
98	0x3cce91b6	0.025215965
99	0x3c9b7c25	0.018980095
100	0xbd9ee64e	-0.07758771
101	0xbf259f42	-0.64696133
102	0xbcdce26e	-0.026963439
103	0x3d292c7b	0.041302186
104	0x3e178c74	0.14799672
105	0xbd70dfc6	-0.058807157
106	0xbd83dbb6	-0.06438391
107	0x3c086367	0.008324481
108	0x3dadea14	0.084919125
109	0x00000000	0.0
110	0x00000000	0.0
111	0xbc00191a	-0.007818485
112	0x3e85f022	0.2615977
113	0x3d9e1108	0.07718092
114	0xbf467b8a	-0.77532256
115	0x3df41483	0.11917975
116	0xbdfa1495	-0.12210957
117	0x00000000	0.0
118	0x3f2cd59b	0.67513436
119	0x3ecda097	0.40161583
120	0x3be54dc4	0.006997796
121	0xbcd832c6	-0.026391398
122	0xbceeaa8c	-0.029134057
123	0x00000000	0.0
124	0xbd480420	-0.04883206
125	0x00000000	0.0
126	0x3d220803	0.03955842
127	0x3d4960b2	0.04916448

actor.policy_head.weight f4 [5, 128]
0	0x00000000	0.0
1	0xbc0c9c9e	-0.008582262
2	0x3a8d285c	0.0010769474
3	0xbea42d90	-0.3206601
4	0xbd2832e4	-0.041064158
5	0x3bc7c45e	0.006096407
6	0xbe946e17	-0.28990242
7	0x00000000	0.0
8	0x3c8b0924	0.016972132
9	0xbfe9da92	-1.8269827
10	0xba4a7a08	-0.00077238725
11	0xbf9c4153	-1.2207435
12	0x3f09a7d7	0.5377173
13	0xbd02d3f6	-0.031940423
14	0xc0403014	-3.0029345
15	0x3ef55390	0.47915316
16	0xbf1631d6	-0.58669794
17	0xc00b3d8a	-2.175631
18	0x4018f4c1	2.3899386
19	0x00000000	0.0
20	0x3c054f44	0.008136574
21	0x3e365368	0.17805254
22	0xbe431bac	-0.19053525
23	0x38c4c8bd	9.383399e-05
24	0x00000000	0.0
25	0xbd967a8e	-0.07347594
26	0xbb31be00	-0.0027121305
27	0x00000000	0.0
28	0x3b65acbd	0.0035045587
29	0xbd220195	-0.03955229
30	0x3b05eb98	0.0020434614
31	0xbbd98b10	-0.006638892
32	0xc0078b2d	-2.1178696
33	0x00000000	0.0
34	0x3d883544	0.066507846
35	0x00000000	0.0
36	0x3a35efe4	0.00069403485
37	0x3e1c7d03	0.15282063
38	0x3e462286	0.19349107
39	0xbd25a80a	-0.040443458
40	0x00000000	0.0
41	0x00000000	0.0
42	0x00000000	0.0
43	0xbcc33e65	-0.023833463
44	0xbe1a64fa	-0.15077582
45	0x3c75bd4a	0.014998743
46	0x3ff4ca8e	1.9124315
47	0x3cea4026	0.028595041
48	0x3a9842d0	0.0011616591
49	0x00000000	0.0
50	0x3ecd6d87	0.40122625
51	0xbbdbe038	-0.0067100786
52	0x3d306194	0.043061808
53	0x3e7d88c0	0.24759197
54	0x3d581ec9	0.052763734
55	0x00000000	0.0
56	0xbf59efb7	-0.851314
57	0x3d6a5c74	0.057217076
58	0x00000000	0.0
59	0xc084a7a3	-4.1454635
60	0x00000000	0.0
61	0xbd8c377c	-0.0684652
62	0x00000000	0.0
63	0xbe173b60	-0.14768744
64	0xbcf4ce0b	-0.029883405
65	0x00000000	0.0
66	0xc10bbbd5	-8.733357
67	0xbdb5216f	-0.088442676
68	0x00000000	0.0
69	0x3c86bbed	0.016447032
70	0xbf3985d5	-0.72469836
71	0x00000000	0.0
72	0x3f21205c	0.6294
73	0x3eac668e	0.33671993
74	0x00000000	0.0
75	0x00000000	0.0
76	0xb89ecd24	-7.5722375e-05
77	0x00000000	0.0
78	0x00000000	0.0
79	0x00000000	0.0
80	0x3e2159ec	0.15756959
81	0x3bd32ddf	0.0064446772
82	0xc0ae7168	-5.4513435
83	0xbcb25136	-0.02176724
84	0xbdc849de	-0.09779714
85	0xbed31bb0	-0.4123206
86	0xbdcf0f95	-0.10110394
87	0x3d9cd60a	0.07658012
88	0x3c957050	0.018242031
89	0x3d383d09	0.044980083
90	0x00000000	0.0
91	0xbe149c32	-0.14512709
92	0xc00d0e9a	-2.2040162
93	0xbe12b9fa	-0.14328757
94	0xc08c56ec	-4.3856106
95	0x00000000	0.0
96	0xbd18255e	-0.03714501
97	0xbf2fb836	-0.6864046
98	0x3a6a2803	0.0008932354
99	0x3d2c4172	0.0420546
100	0x3d30005d	0.042969096
101	0xc035c7fc	-2.840331
102	0x3c0d69a6	0.008631146
103	0xbb0f772c	-0.00218911
104	0x3fb46fe3	1.4096645
105	0x3c73b72e	0.014875216
106	0x3c826b7c	0.015920393
107	0x3af2f575	0.0018536287
108	0x3e983fce	0.2973618
109	0x00000000	0.0
110	0x00000000	0.0
111	0x3d01689b	0.0315939
112	0xbf711f45	-0.9418834
113	0x3e80e69b	0.25175938
114	0xbf991ce7	-1.1961945
115	0x3f9328ee	1.1496866
116	0xbd23189a	-0.039818384
117	0x00000000	0.0
118	0xbf6e06df	-0.92979234
119	0xc0a2fab6	-5.0931044
120	0x3dd0d9db	0.10197803
121	0xbde32d00	-0.110925674
122	0xbf61d3f9	-0.8821407
123	0x00000000	0.0
124	0xbd9db7c6	-0.077010676
125	0x00000000	0.0
126	0xbe242650	-0.1603024
127	0xbd73c470	-0.05951351
128	0x00000000	0.0
129	0x3c025cab	0.007956664
130	0x3ad67f6b	0.0016364878
131	0xbec0f219	-0.37684706
132	0xbe9b3a0e	-0.3031773
133	0xbc6586c3	-0.0140091805
134	0xbe8a4aeb	-0.27010283
135	0x00000000	0.0
136	0x3c60ded5	0.013725002
137	0xbfe43306	-1.7828071
138	0x39362aca	0.00017372813
139	0x3f798619	0.9747024
140	0xbecca1c5	-0.3996717
141	0x3c80d94a	0.015728611
142	0x3fb715eb	1.4303564
143	0xbf5cbf6b	-0.8622958
144	0x3f21fff4	0.6328118
145	0x40c03e48	6.0076027
146	0x3fa6b374	1.3023515
147	0x00000000	0.0
148	0x3dd58edc	0.10427639
149	0xbedb8f81	-0.42882922
150	0xbe394874	-0.18094045
151	0x38d59956	0.000101851925
152	0x00000000	0.0
153	0xbd267fa8	-0.040649086
154	0xbdbfde24	-0.09368542
155	0x00000000	0.0
156	0xbd55168a	-0.052023448
157	0xbe42c277	-0.19019495
158	0xbc937e46	-0.018004548
159	0xbddfa57e	-0.10920237
160	0xbf96aed0	-1.1772099
161	0x00000000	0.0
162	0xbebeb420	-0.372468
163	0x00000000	0.0
164	0xbb44390b	-0.0029941227
165	0xbfbfa6b1	-1.4972745
166	0xbf6b6750	-0.9195452
167	0xbee2e57e	-0.44315714
168	0x00000000	0.0
169	0x00000000	0.0
170	0x00000000	0.0
171	0xbd037857	-0.032097187
172	0x3dfb91a0	0.12283635
173	0x3c8a7c84	0.016905077
174	0x3f55b89e	0.8348483
175	0xbda12575	-0.078684725
176	0xbb8d8fba	-0.004320112
177	0x00000000	0.0
178	0xbf82d6fe	-1.022186
179	0x3e17a1ec	0.14807862
180	0xbd805fef	-0.06268298
181	0xbec76b00	-0.38948822
182	0xbe4e9cf8	-0.20177066
183	0x00000000	0.0
184	0xbf5b1d0c	-0.85591197
185	0xbd9a004e	-0.07519589
186	0x00000000	0.0
187	0x3f8bf40d	1.0933853
188	0x00000000	0.0
189	0xbccd02b1	-0.025025697
190	0x00000000	0.0
191	0xbdcd7952	-0.10032906
192	0xbd83d4f8	-0.06437105
193	0x00000000	0.0
194	0x3f83db69	1.0301334
195	0xbe6e62dc	-0.232799
196	0x00000000	0.0
197	0x3c7fd3ab	0.01561443
198	0x3ea1f087	0.3162882
199	0x00000000	0.0
200	0xbf114a56	-0.5675405
201	0xbeaa8b48	-0.33309388
202	0x00000000	0.0
203	0x00000000	0.0
204	0x3b9870eb	0.0046521327
205	0x00000000	0.0
206	0x00000000	0.0
207	0x00000000	0.0
208	0xbdf05be1	-0.117362745
209	0xbba82818	-0.0051317327
210	0x4006c94a	2.1060357
211	0x3ca0c60a	0.019625682
212	0x3d0aa64b	0.033849996
213	0x3e67d1c2	0.2263861
214	0x3dc7d132	0.09756698
215	0xbe69cb52	-0.22831467
216	0x3fb10fa5	1.3832899
217	0xbdfa8e79	-0.12234206
218	0x00000000	0.0
219	0xbe247969	-0.1606194
220	0x3fb23922	1.3923686
221	0xbf8f154b	-1.1178373
222	0x3f4aab62	0.7916776
223	0x00000000	0.0
224	0xbd48ea9b	-0.049051862
225	0xbedece18	-0.43516612
226	0xbb7f777d	-0.0038981133
227	0xbe3cbfa5	-0.18432482
228	0xbe3590e9	-0.1773106
229	0xbf2c1d90	-0.6723261
230	0xbc49c9cb	-0.012316178
231	0x39be281d	0.0003626951
232	0xbf3a8fb8	-0.7287555
233	0x3cb3c372	0.021943782
234	0x3cbfdb3d	0.02341997
235	0x3af1919c	0.0018430236
236	0xbf341894	-0.70350003
237	0x00000000	0.0
238	0x00000000	0.0
239	0x3cba20e4	0.022720762
240	0xbf81b3ab	-1.0132955
241	0xbef6346d	-0.48086873
242	0xbf9cd86e	-1.2253549
243	0xbf9b41de	-1.2129476
244	0xbd1cd87b	-0.03829239
245	0x00000000	0.0
246	0xbffa0758	-1.9533491
247	0x3eec5728	0.46160245
248	0x3c62bf9c	0.013839629
249	0x3d18b1a0	0.03727877
250	0x3f1475bd	0.57992154
251	0x00000000	0.0
252	0xbe8aa0e3	-0.27075872
253	0x00000000	0.0
254	0x3bec9e42	0.0072210142
255	0x3be74f33	0.007059002

actor.policy_head.bias f4 [5]
0	0xc08ba99f	-4.3644557
1	0x404874f6	3.1321387
2	0xc008e5d4	-2.1390276
3	0xbf9cd173	-1.2251419
4	0x4093166d	4.5964875

critic.fc1.weight f4 [256, 10]
0	0xbc88f580	-0.016718626
1	0x3fd4d93e	1.6628797
2	0xbf91f759	-1.140361
3	0x40a1e3d3	5.0590606
4	0x3ec0e898	0.37677455
5	0x3e8ee07a	0.27905637
6	0x3fecb29a	1.8492005
7	0x4108e1af	8.555099
8	0xbf558bb8	-0.8341632
9	0x40429c97	3.0408075
10	0xbf775448	-0.9661298
11	0xbf552fb5	-0.8327592
12	0xbf903176	-1.1265094
13	0x3d8302da	0.06397028
14	0xbf908ecd	-1.1293579
15	0xbf9a41ec	-1.2051368
16	0x3edaf293	0.42763194
17	0x4066bab9	3.6051466
18	0xbf3a4583	-0.72762316
19	0xbfd27db7	-1.6444615
20	0xc030d44c	-2.7629576
21	0xc0234a72	-2.5514188
22	0xc05d7c48	-3.4607105
23	0x402b36ee	2.6752276
24	0x3ea30499	0.31839445
25	0xc0871b3a	-4.2220736
26	0x4081d0da	4.0567446
27	0x419117ce	18.136623
28	0x3f5a1872	0.8519355
29	0xc053abca	-3.3073602
30	0xbfce6fa3	-1.6127819
31	0xbedfc688	-0.43706155
32	0xbfdfa9ae	-1.7473657
33	0x40055564	2.0833368
34	0xbf3f2222	-0.7466146
35	0xbfd66286	-1.6748817
36	0x3f626343	0.8843271
37	0x40dd12b0	6.908531
38	0x3cdb8ad8	0.026799604
39	0xbf57ba26	-0.84268415
40	0xbe910bd8	-0.2832935
41	0xbf11357a	-0.56722224
42	0xbfc54480	-1.541153
43	0x3fc76760	1.5578423
44	0x3eb49599	0.35270384
45	0xbfb0ba86	-1.3806922
46	0x3fdf31c7	1.7437066
47	0x413151b8	11.082451
48	0xbe1dd829	-0.1541449
49	0xbf5eb309	-0.86991936
50	0xbec9fc08	-0.39450097
51	0xbf34232a	-0.70366156
52	0x3f430d18	0.76191854
53	0x409f6abe	4.98178
54	0x402a3835	2.6596806
55	0xc0650496	-3.578405
56	0x3faf67e3	1.3703579
57	0x4122dce5	10.178929
58	0xbec6a86c	-0.3880037
59	0x3d69ed00	0.057110786
60	0xbe440294	-0.19141608
61	0xbf92d8d0	-1.1472416
62	0xbf4c71ba	-0.7986103
63	0x3ef5c758	0.4800365
64	0x3de70af8	0.11281389
65	0xbfc5aa02	-1.5442507
66	0x3f96435f	1.173931
67	0x4101294c	8.072582
68	0x3ce9ace2	0.02852482
69	0xbf9a0c05	-1.2034918
70	0x401a287d	2.4087212
71	0x3f2267aa	0.6343943
72	0x4068b3fa	3.635985
73	0xbff1ce44	-1.8891072
74	0x3f08ed8a	0.53487456
75	0x4008c0f8	2.1367779
76	0xbedb6bcc	-0.4285568
77	0xc109987d	-8.599729
78	0x3f1d2447	0.6138348
79	0x3fd0c5e7	1.6310395
80	0xbff5327f	-1.9156035
81	0xc01637de	-2.3471599
82	0xc032d460	-2.7942123
83	0x4035cf32	2.8407712
84	0xbeb05858	-0.344424
85	0xc07fab96	-3.9948478
86	0x4031d69f	2.7787244
87	0x41a46046	20.547009
88	0xbf10eafc	-0.5660856
89	0xc04523ce	-3.0803103
90	0xc0778240	-3.8673248
91	0xbf14f72c	-0.58189654
92	0xc0310fb8	-2.7665844
93	0x4013fee6	2.3124328
94	0xc02e3df5	-2.7225316
95	0xbfc7fdaf	-1.5624293
96	0x3e9cbbf2	0.3061214
97	0x413ea100	11.914307
98	0xbf4ad9a2	-0.7923833
99	0xbf99c62e	-1.2013605
100	0xbfc5d8e3	-1.5456814
101	0xbf51044f	-0.816472
102	0xbfb65882	-1.424576
103	0x40227031	2.5380976
104	0xbe64b320	-0.22333956
105	0xc014ff20	-2.3280716
106	0x4014dfe2	2.3261647
107	0x414d93f4	12.848621
108	0x3ef43dfb	0.47703537
109	0xbfaf3667	-1.3688477
110	0xbfcb0e5a	-1.5863755
111	0xbf3458e9	-0.70448166
112	0xbfaf26ab	-1.3683676
113	0x3fbf3d93	1.4940666
114	0x3b998120	0.0046845824
115	0xbfc43474	-1.5328507
116	0x3fb7a478	1.4347067
117	0x411188a6	9.095861
118	0xbeece7db	-0.46270642
119	0xbfae7f7f	-1.3632659
120	0x3f1b732c	0.60722613
121	0xbff3fc4e	-1.9061372
122	0x3ecc0f2c	0.39855325
123	0x3f3c7680	0.73618317
124	0xbf228513	-0.63484305
125	0xc00afbb6	-2.1716132
126	0x405fb89e	3.4956431
127	0x419e130e	19.759304
128	0xc0034ded	-2.0516312
129	0xc07e83e2	-3.9767995
130	0xbf92cc78	-1.1468649
131	0xbfc6cf21	-1.5531961
132	0xc0334ed3	-2.801686
133	0x403422f1	2.8146327
134	0x3f677fe6	0.9042953
135	0xc02977b4	-2.647931
136	0x4084eeaa	4.154134
137	0x41ae066e	21.75314
138	0x3f37bcdc	0.7177255
139	0xc0339136	-2.805738
140	0xc02aec2c	-2.6706648
141	0xc01a6056	-2.4121299
142	0xc0397520	-2.8977737
143	0x401ae9bc	2.420516
144	0x40010caa	2.016398
145	0xc08461ef	-4.136955
146	0x3f94bf7b	1.1620935
147	0x41143728	9.263466
148	0x40064cd8	2.0984402
149	0xbf78dd18	-0.9721236
150	0xbfa9a47d	-1.3253323
151	0xbf5ec8c3	-0.8702509
152	0xbfecd500	-1.8502502
153	0xbf323b52	-0.69621766
154	0xbf0ebc3c	-0.5575597
155	0xbf81b9e9	-1.013486
156	0xc00f644b	-2.2404964
157	0xbff9056b	-1.9454778
158	0xbe76bd68	-0.2409569
159	0x3efa888c	0.48932302
160	0xbe4caba1	-0.19987346
161	0xc047d668	-3.1224613
162	0x3f901dc0	1.1259079
163	0xbfc5ec5b	-1.5462755
164	0x3e5ae678	0.2137698
165	0xc03378f8	-2.8042583
166	0x3f88e8f2	1.0696089
167	0x4114942c	9.286175
168	0xbd058d50	-0.03260547
169	0xc05be398	-3.4357662
170	0x3f8fd8c7	1.123803
171	0xbec1b850	-0.37835932
172	0xbe5be970	-0.21475768
173	0x404aa4aa	3.1663003
174	0x405c2746	3.439897
175	0xbfa63e60	-1.2987785
176	0x3fda9710	1.7077351
177	0x40d2dd0e	6.589484
178	0xbf52c17a	-0.8232647
179	0x3fc043b4	1.5020661
180	0x3f6e505f	0.93091387
181	0xbf027b71	-0.50969607
182	0xc02421b8	-2.564558
183	0x40847a8a	4.1399584
184	0x40434b00	3.0514526
185	0xbfe5a715	-1.7941614
186	0x40e04f73	7.0096984
187	0x41cff4fc	25.994621
188	0x40161caa	2.3454995
189	0x3f69727a	0.911903
190	0x3fa18b65	1.2620665
191	0xbbd692c0	-0.0065482557
192	0x3f5c7c72	0.8612739
193	0xbfdb6096	-1.7138851
194	0x3f221636	0.6331514
195	0x3ef65854	0.48114264
196	0xbea09862	-0.3136626
197	0xbf59ba0a	-0.850495
198	0x3d582e70	0.05277866
199	0xbf889ba4	-1.0672498
200	0xbfc469b1	-1.5344754
201	0x3d84a3b0	0.064765334
202	0xbff5f50b	-1.9215406
203	0x40baf97a	5.8429537
204	0x3f655281	0.89579016
205	0xc04f2dc6	-3.2371688
206	0x3f65e206	0.8979801
207	0x419fe070	19.984589
208	0xbfe915c8	-1.8209772
209	0xbfc957a0	-1.5729866
210	0xbd088b80	-0.033336163
211	0xbd226270	-0.03964466
212	0xbeed6eee	-0.46373695
213	0x3f1153f6	0.5676874
214	0x3da0291e	0.078203425
215	0xbf216894	-0.630502
216	0x3f324e7f	0.69651026
217	0x408a775d	4.3270707
218	0xbe4a183b	-0.19735806
219	0xbe850dc0	-0.25987053
220	0xbf723d6e	-0.94624984
221	0xc0361e46	-2.8455977
222	0xbf60cb56	-0.87810266
223	0x3fc98b07	1.5745553
224	0xbf54a640	-0.8306618
225	0xc0371ed2	-2.8612561
226	0x4054c738	3.3246593
227	0x4148c10e	12.5471325
228	0xbf95901b	-1.1684602
229	0xc079741c	-3.8977118
230	0xc01ae6b6	-2.4203315
231	0xbfb52328	-1.4151354
232	0xbff8ac0e	-1.9427507
233	0x3db21aac	0.086964935
234	0xbfc2c4a2	-1.5216258
235	0xbff38336	-1.9024417
236	0xbd9559f8	-0.07292551
237	0x40989a38	4.7688255
238	0xbfb4773c	-1.4098887
239	0xc02255f3	-2.536496
240	0x3de4f4c0	0.11179495
241	0xbf1dccd1	-0.6164065
242	0xbe89f6ca	-0.26946098
243	0xbe3e9424	-0.18611199
244	0x3d965628	0.07340652
245	0xbf30869e	-0.6895541
246	0x3f446c30	0.7672758
247	0x40b3bc2e	5.616721
248	0xbf18b673	-0.59653395
249	0xbf808d80	-1.0043182
250	0xbf9ec426	-1.240361
251	0xbf429b9e	-0.76018703
252	0xbf9d2eb4	-1.2279878
253	0x3fa68d3b	1.301185
254	0xbf7fef03	-0.9997408
255	0xbfb6739b	-1.425403

critic.fc1.bias f4 [256]
0	0xc014f722	-2.3275838
1	0xbfd58c12	-1.6683371
2	0xc1218d00	-10.096924
3	0xc06b06a9	-3.6722815
4	0xc0b1f794	-5.561472
5	0xc0266c8e	-2.6003757
6	0xc08f2e80	-4.4744263
7	0x409a8178	4.8283043
8	0xc112d2b4	-9.176441
9	0xc0be8704	-5.9539814
10	0xc0bdd05a	-5.9316835
11	0xc08fea3d	-4.4973435
12	0xc101ddd9	-8.116662
13	0xc13d5f46	-11.83576
14	0xc0b45c82	-5.6362925
15	0xbfb53d75	-1.415938
16	0xc08088c4	-4.016695
17	0xc011d630	-2.278698
18	0xc1446b88	-12.276253
19	0x3ee079dd	0.43842974
20	0xc106e9df	-8.432097
21	0xbfdf68c1	-1.7453843
22	0xc0c5995c	-6.1749706
23	0xc05740df	-3.3633344
24	0xc007a2f6	-2.1193213
25	0xc047a991	-3.1197245
26	0xc0ba9eb4	-5.831873
27	0xbfd3bd3e	-1.6542127
28	0xc08b9bcc	-4.362768
29	0xc0f533fe	-7.6625967
30	0xc0e81f26	-7.2538023
31	0xc123b114	-10.230732
32	0x3f4ad090	0.7922449
33	0xbf9f1f2a	-1.2431386
34	0xc0a40403	-5.1254897
35	0xbf6217b6	-0.8831743
36	0xc1042039	-8.257867
37	0xc13463a8	-11.27433
38	0xc14e3fd2	-12.890581
39	0xbf8e7a44	-1.1131063
40	0xbe457295	-0.19281991
41	0xc0d8afc8	-6.7714577
42	0x3d0464bb	0.032322627
43	0xc110ec04	-9.057621
44	0xc0e38ff4	-7.1113224
45	0xc0ae77e8	-5.452137
46	0xc0d9f5a3	-6.811235
47	0xbce92cc8	-0.028463736
48	0xc1051d16	-8.319601
49	0xbff68300	-1.9258728
50	0xc0e3d645	-7.119906
51	0xc0855898	-4.1670647
52	0xbdc35f10	-0.09539616
53	0xc122040a	-10.125986
54	0xc0133aaa	-2.3004556
55	0xbd8a02b0	-0.06738794
56	0xbca381c0	-0.01995933
57	0xc113a238	-9.227104
58	0xbd4081a0	-0.04699862
59	0xbf178d3c	-0.5919988
60	0xc030649a	-2.7561402
61	0x3fac2c8d	1.3451096
62	0x3deaaa4d	0.114582635
63	0xc0ba1740	-5.815338
64	0xc105a745	-8.353337
65	0xc125c253	-10.359942
66	0x3efb9a60	0.49141216
67	0xbf6d7a58	-0.92764807
68	0xc0ba41cb	-5.8205314
69	0xc111aec6	-9.105169
70	0xc0ce848e	-6.453681
71	0x408f61dc	4.4806957
72	0xc0ee4c06	-7.44678
73	0xc11fe9d8	-9.994591
74	0xc12d1410	-10.817398
75	0xc01eec1a	-2.4831605
76	0xc09f5b12	-4.979867
77	0xc0617347	-3.522661
78	0xc0a8f5fd	-5.280028
79	0xbf47975e	-0.77965343
80	0xbe2da788	-0.1695844
81	0x3dd38252	0.10327591
82	0xc10a04a8	-8.626137
83	0xbd21d2c4	-0.039507642
84	0xc1105022	-9.019564
85	0xc013cb8a	-2.309298
86	0xc0de129a	-6.9397707
87	0xc091c1e6	-4.5549192
88	0xc088a012	-4.26954
89	0xbef5a182	-0.47974783
90	0xc0db6982	-6.8566294
91	0xc0572f61	-3.3622668
92	0xc0a628f4	-5.192499
93	0xc0d6618a	-6.6994066
94	0xc0be69bd	-5.9504075
95	0xc0313cde	-2.76934
96	0xc0b8103a	-5.751981
97	0xbf021119	-0.5080734
98	0xc11b6d0c	-9.714123
99	0x3d87a3ea	0.06623061
100	0xc12ce20d	-10.805188
101	0xc07b3cdb	-3.9255893
102	0xbf0b70f6	-0.5446924
103	0xc0babd17	-5.8355823
104	0xc0ebac5a	-7.364789
105	0xc0ae0578	-5.4381676
106	0x3e676d29	0.22600235
107	0xc0736245	-3.802873
108	0xc11dfbea	-9.874002
109	0x407ebb18	3.9801693
110	0xbfe4b0e2	-1.786648
111	0xbfce0c02	-1.6097414
112	0xbfa3fc2a	-1.2811329
113	0xc04b73f5	-3.1789525
114	0xc12b9750	-10.724442
115	0xc088189c	-4.253004
116	0xc11129af	-9.072677
117	0xc0b659c7	-5.698459
118	0xc0ede83e	-7.4346
119	0xc10c8c59	-8.784265
120	0xbe8ef636	-0.2792222
121	0x3da07d0c	0.07836351
122	0xbd5a4eb2	-0.053297706
123	0xc115bef8	-9.359123
124	0xbe452330	-0.19251704
125	0xbf89f782	-1.0778658
126	0xc091ea79	-4.559872
127	0xc125b91b	-10.357692
128	0xc022fd2c	-2.5467024
129	0xc0804ffe	-4.0097647
130	0xc099c3fa	-4.805173
131	0xc0c9bcbd	-6.3042893
132	0xc0c749e8	-6.2277718
133	0xc0b36316	-5.6058455
134	0xc01091ed	-2.2589066
135	0xc1152346	-9.321112
136	0xc11d0cb6	-9.815603
137	0xc092e00b	-4.589849
138	0xc117e1fd	-9.492673
139	0xc00c3772	-2.190884
140	0xc0646f46	-3.5692916
141	0xc03cd051	-2.9502146
142	0xc12f871e	-10.970488
143	0xbe0d3d64	-0.1379295
144	0xc150ef9e	-13.0585
145	0xbfd96c34	-1.6986146
146	0x3ec2dcfc	0.38059223
147	0xc11fbdaf	-9.983809
148	0x3f7f6ed7	0.99778503
149	0xbd3657fc	-0.044517502
150	0x3ffd8fd0	1.9809513
151	0x3f1adcea	0.6049334
152	0xc1093d8d	-8.577527
153	0xc0d6c2ee	-6.711295
154	0x3ec5b5c2	0.38615233
155	0xc09ad520	-4.838516
156	0x3db5cc70	0.08876884
157	0xc14bf1ce	-12.746534
158	0xbf5e1e5b	-0.8676507
159	0xc110412c	-9.015911
160	0xbeedcb37	-0.46444103
161	0xc1135b5c	-9.209805
162	0xc10517e2	-8.318331
163	0x3ed95e98	0.42454982
164	0xc086cd84	-4.2125874
165	0xc1338439	-11.219781
166	0xbf28f80a	-0.6600348
167	0xc1098141	-8.594056
168	0x3f7393ae	0.95147216
169	0xbf3ace6c	-0.72971225
170	0xc0284846	-2.6294112
171	0xbf02d561	-0.5110684
172	0xc09aaace	-4.83335
173	0xbf14946c	-0.58038974
174	0xc00b197d	-2.1734307
175	0xc08b537b	-4.3539405
176	0xc0896aa6	-4.2942686
177	0xc0c6f39c	-6.2172375
178	0xc10e674f	-8.900222
179	0xbf9744a0	-1.1817818
180	0xc10d21c8	-8.820747
181	0xc10ba1a2	-8.726961
182	0xc0bd524c	-5.916296
183	0xbededb66	-0.43526763
184	0xc02a5b58	-2.6618252
185	0xc045fe08	-3.0936298
186	0xc137345d	-11.450284
187	0xc0922f62	-4.568284
188	0xc0c2f9c5	-6.0929894
189	0xc15ec9d8	-13.924278
190	0xc06caf08	-3.698183
191	0x405e18c6	3.470262
192	0xc00aec1e	-2.1706614
193	0x3e1c559c	0.15267032
194	0x3ea46530	0.3210845
195	0xc097d9f8	-4.7453575
196	0x3e57d0a6	0.21075687
197	0xbfe9d94e	-1.8269441
198	0xbfa35c02	-1.2762454
199	0xc0be66f6	-5.9500685
200	0xc13fb0d4	-11.980671
201	0xc10fc07f	-8.984496
202	0xc007e65b	-2.1234348
203	0x3f96ce70	1.178175
204	0xbedc0d99	-0.42979124
205	0xc0d02eec	-6.505728
206	0xbf7472fb	-0.95487946
207	0xc142e338	-12.180473
208	0xc04376ea	-3.054133
209	0xc0994281	-4.789368
210	0xc0053e1a	-2.0819154
211	0xc09f0741	-4.9696355
212	0xc129c242	-10.609926
213	0xc09ca410	-4.895027
214	0xc124db78	-10.303581
215	0xc0ce4185	-6.445498
216	0xc120b76e	-10.044783
217	0xbf3c42c6	-0.7353939
218	0xbc8f4210	-0.017487556
219	0xc0e055e7	-7.010486
220	0xc082f5e8	-4.092518
221	0xc0c21690	-6.065254
222	0xc11a8a3d	-9.65875
223	0xc1042b92	-8.260637
224	0x3d4bbf90	0.049743235
225	0xc0cb1c6f	-6.347221
226	0xc042a9f7	-3.0416238
227	0xc0122778	-2.283659
228	0xc0e75e29	-7.230244
229	0x3f1f00e4	0.62110734
230	0x3eddf704	0.4335252
231	0xc0d3a498	-6.613842
232	0xc10834bf	-8.512877
233	0xc139f65f	-11.622649
234	0xc076a79f	-3.8539808
235	0xc08295ae	-4.0807714
236	0xc0af9b11	-5.487679
237	0xc0cb40d0	-6.3516617
238	0xc00c402a	-2.1914163
239	0xc0a83fc0	-5.257782
240	0xbbd8ad40	-0.00661245
241	0x3fc0ee94	1.5072808
242	0xc065e876	-3.5923133
243	0xc1417564	-12.09116
244	0x3fcd1520	1.6022072
245	0x3de4ed94	0.11178127
246	0xc1064fc7	-8.394477
247	0xc112ab66	-9.166845
248	0xc115a164	-9.351902
249	0xc0b7aba0	-5.7397003
250	0xbe5be5b8	-0.2147435
251	0xc0a0d11f	-5.0255275
252	0xc10db460	-8.856537
253	0xc0c733f0	-6.22509
254	0xc0b4c62f	-5.6491923
255	0xc0911d30	-4.534813

critic.fc2.weight f4 [128, 256]
0	0xbe653906	-0.22385034
1	0xbe43469c	-0.19069904
2	0xbf75d245	-0.9602397
3	0xbf394ddc	-0.7238443
4	0xbee518f3	-0.44745597
5	0xbd80db76	-0.06291859
6	0xbee1e980	-0.4412346
7	0xbebb81ec	-0.3662256
8	0xbece77bf	-0.40325734
9	0xbd9c14b6	-0.07621138
10	0xbeb45060	-0.3521757
11	0xbed173f7	-0.40908787
12	0xbea1044b	-0.31448588
13	0xbf6b77e3	-0.9197981
14	0xbe07cd9e	-0.1326203
15	0x3dc6e888	0.097123206
16	0xbe8d54e1	-0.2760382
17	0xbde8f9f1	-0.113757975
18	0xbeacbf90	-0.337399
19	0xbca305c2	-0.019900206
20	0xbeb7af4e	-0.35875934
21	0xbe8d9636	-0.27653664
22	0xbecd4984	-0.4009515
23	0xbe23e4e0	-0.16005278
24	0xbe74eed7	-0.23919235
25	0xbe9b085c	-0.30279815
26	0xbef87cf6	-0.48532838
27	0xbe19f5c0	-0.15035152
28	0xbe658677	-0.22414576
29	0xbf4dc31e	-0.8037585
30	0xbf882774	-1.063704
31	0xbf6bec13	-0.92157096
32	0xbbf2ab26	-0.0074056564
33	0xbe86fc80	-0.26364517
34	0xbf0a2063	-0.5395567
35	0xbedea47f	-0.43484876
36	0xbe01cc94	-0.12675697
37	0xbf688289	-0.9082418
38	0xbf154e6d	-0.58322793
39	0x3d80c576	0.06287663
40	0xbd6bf2f3	-0.05760474
41	0xbf486131	-0.782733
42	0x3c745295	0.014912267
43	0xbf05477b	-0.52062196
44	0xbea72eef	-0.32652995
45	0xbf84a5eb	-1.0363134
46	0xbe382c01	-0.17985536
47	0xbdb21e3d	-0.08697174
48	0xbf08b0c2	-0.5339471
49	0xbe70974c	-0.23495215
50	0xbf4beb58	-0.7965598
51	0xbeac5ce4	-0.3366462
52	0x39250900	0.00015738979
53	0xbed815bc	-0.42204082
54	0xbf17ba42	-0.5926858
55	0x3d045e06	0.03231623
56	0x3c8afdc4	0.016966708
57	0xbd8ea53c	-0.0696511
58	0xbccce70c	-0.025012515
59	0xbcd5ec55	-0.026113668
60	0xbeaf9cf5	-0.34299436
61	0xbd028134	-0.0318615
62	0x3cd3e18b	0.025864383
63	0xbd29dea0	-0.041472077
64	0xbf9bc364	-1.2169003
65	0xbf098a11	-0.537263
66	0xbcbdc2f1	-0.023164244
67	0xbdd78b76	-0.10524647
68	0xbe7fe161	-0.24988319
69	0xbf126282	-0.5718156
70	0xbedb6c14	-0.42855895
71	0xbb8d3738	-0.004309561
72	0xbe1196f0	-0.14217734
73	0xbf11fdf1	-0.5702811
74	0xbeb9e5e6	-0.3630821
75	0x3d38f4bf	0.045155283
76	0xbe733306	-0.23749933
77	0xbf5bea82	-0.85904706
78	0xbe24e3ee	-0.16102573
79	0xbd0574db	-0.032582145
80	0xbd164310	-0.03668505
81	0x3c2619fc	0.010138031
82	0xbea827e9	-0.3284295
83	0x3e081b60	0.13291693
84	0xbe33a092	-0.17541721
85	0xbe092890	-0.1339438
86	0xbede26af	-0.43388888
87	0xbe0cf11b	-0.1376385
88	0xbe1cb444	-0.15303141
89	0xbe9d2ca0	-0.3069811
90	0xbe9f0e8f	-0.31065795
91	0xbdb57494	-0.08860126
92	0xbe6f909c	-0.23395008
93	0xbebf658d	-0.37382165
94	0xbe9fc768	-0.31206822
95	0xbe298510	-0.16554666
96	0xbf36377e	-0.71178424
97	0x3e07c2ad	0.13257857
98	0xbf723647	-0.9461407
99	0xbca5d7de	-0.020244535
100	0xbf393310	-0.7234354
101	0xbf1f3c04	-0.6220095
102	0x3d80867a	0.06275649
103	0xbef01bcc	-0.46896207
104	0xbf9ea28b	-1.2393354
105	0xbced8830	-0.028995603
106	0xbc630936	-0.0138571765
107	0xbf217a17	-0.6307692
108	0xbecbdb62	-0.39815813
109	0xbc976b9c	-0.01848393
110	0xbe281113	-0.16412763
111	0xbe7fc2dd	-0.24976678
112	0xbd919880	-0.07109165
113	0xbe192b76	-0.14957985
114	0xbed9f492	-0.42569405
115	0xbe98dd77	-0.29856464
116	0xbe00bbdd	-0.12571664
117	0xbeb06d66	-0.34458464
118	0xbef06b02	-0.4695664
119	0xbf0a1a17	-0.5394606
120	0x3d6253bd	0.05525564
121	0xbcb6e6b2	-0.022326801
122	0xbde23717	-0.11045664
123	0xbf657be6	-0.8964218
124	0x3d07f7ef	0.033195432
125	0x3df06bce	0.11739312
126	0xbeb6bf95	-0.3569304
127	0xbf09e246	-0.5386089
128	0xbd8c1c6a	-0.06841357
129	0xbf325a1e	-0.6966876
130	0xbe9a0d88	-0.3008845
131	0xbdcb84d8	-0.09937447
132	0xbf46de75	-0.7768319
133	0xbdb225b9	-0.08698601
134	0xbe0e1ca3	-0.13878112
135	0xbf964e7b	-1.17427
136	0xbef5b887	-0.47992346
137	0xbd5f2abe	-0.05448412
138	0xbf068ad6	-0.52555597
139	0xbf2fcc95	-0.6867154
140	0xbf0030ea	-0.50074637
141	0xbdcd64ea	-0.100290135
142	0xbec463ca	-0.38357383
143	0x3c5b39fc	0.013380524
144	0xbf23991e	-0.63905513
145	0x3d4e6d67	0.050397303
146	0xbdcf9aae	-0.10136925
147	0xbe2ac563	-0.1667686
148	0xbe5ac843	-0.21365456
149	0x3bf6d080	0.0075321794
150	0xbd506094	-0.050873354
151	0x3d6c0f79	0.057631943
152	0xbf28f80a	-0.6600348
153	0xbf21a852	-0.6314746
154	0xbda1f8d0	-0.07908785
155	0xbec7f123	-0.3905116
156	0x3ca5f404	0.020257957
157	0xbeddbfa1	-0.43310264
158	0xbe65752d	-0.2240798
159	0xbfabb502	-1.3414614
160	0xbd9922f6	-0.074773714
161	0xbea99de6	-0.3312828
162	0xbf2616d4	-0.6487858
163	0x3c91c4f7	0.017794115
164	0xbf478a11	-0.7794505
165	0xbec6e023	-0.38842878
166	0x3da90ee0	0.0825479
167	0xbed6d97f	-0.4196281
168	0xbd383e0f	-0.04498106
169	0x3cb55151	0.022133501
170	0xbe32b37d	-0.17451282
171	0xbd8ea173	-0.06964388
172	0xbe771856	-0.24130377
173	0xbce76357	-0.028245611
174	0xbdee21f8	-0.11627573
175	0xbed194e2	-0.409339
176	0xbe4b28e7	-0.19839822
177	0xbe6e0be8	-0.2324673
178	0xbf42f818	-0.7615981
179	0x3d82cac6	0.06386332
180	0xbe7d27b5	-0.24722178
181	0xbf5806ec	-0.8438556
182	0xbf75e248	-0.960484
183	0x3dff89b9	0.124774404
184	0xbdc9b79e	-0.09849475
185	0xbebec4e6	-0.37259597
186	0xbee25ddb	-0.4421223
187	0xbe2ab397	-0.1667007
188	0xbef922da	-0.48659402
189	0xbe8fe459	-0.28103903
190	0xbd28be58	-0.04119715
191	0xbd4fed04	-0.050763145
192	0xbd93457b	-0.07190987
193	0x3b6f1eda	0.0036486895
194	0xbd2b36be	-0.041800253
195	0xbf0a6648	-0.5406232
196	0xbe0b6175	-0.13611396
197	0xbe69b4a0	-0.22822809
198	0x3cb25190	0.021767408
199	0xbf41d39d	-0.7571352
200	0xbed8c654	-0.42338812
201	0xbf1fb823	-0.62390345
202	0xbd904f14	-0.07046333
203	0xbdc357a4	-0.095382005
204	0xbe0e4552	-0.13893631
205	0xbf406d74	-0.7516701
206	0xbd9d5008	-0.076812804
207	0xbf0789e2	-0.5294477
208	0x3d46f189	0.04857019
209	0xbe08a666	-0.13344726
210	0xbf34d69a	-0.70639956
211	0xbe4246ef	-0.18972372
212	0xbe6c03db	-0.23048346
213	0xbf022b2a	-0.50847113
214	0xbed9d58e	-0.42545742
215	0xbefd64da	-0.49491006
216	0xbed688f8	-0.41901374
217	0x3c052ac6	0.008127874
218	0x3c409302	0.011753799
219	0xbf75c8b4	-0.96009374
220	0xbf3b425e	-0.73148143
221	0xbe7f7e9d	-0.24950643
222	0xbf4e5b0d	-0.8060768
223	0xbf1f5480	-0.6223831
224	0x3d552764	0.05203952
225	0xbea96669	-0.33085945
226	0xbe0acddd	-0.13555093
227	0xbdf9621e	-0.121769175
228	0xbf3636d9	-0.7117744
229	0xbdda2827	-0.1065219
230	0x3d2e0af6	0.042490922
231	0xbea19cf6	-0.31565064
232	0xbec102c4	-0.37697423
233	0xbee23a2e	-0.44185013
234	0xbf3cbe95	-0.73728305
235	0xbf04ed7e	-0.51924884
236	0xbf00baa7	-0.5028481
237	0xbf6cd696	-0.9251493
238	0xbd53051a	-0.051518537
239	0xbf1bbfad	-0.6083935
240	0xbcec005c	-0.028808765
241	0xbf05a937	-0.52211326
242	0xbeb9381d	-0.36175624
243	0xbf6552fb	-0.89579743
244	0xbd2369e8	-0.039895922
245	0x3d1c33eb	0.03813545
246	0xbebd9a3a	-0.37031728
247	0xbf556c64	-0.83368516
248	0xbe33c34e	-0.17554972
249	0xbf124211	-0.5713206
250	0xba9cade0	-0.0011953674
251	0xbf0605c4	-0.5235255
252	0xbe350553	-0.17677812
253	0xbf2478f5	-0.64247066
254	0xbe12d660	-0.1433959
255	0xbe32a4f1	-0.17445733
