client/temp_files/thread_1/tmp/gradient_policy_1.pt (torch, 338834 bytes, 11 tensors)

actor.fc1.weight f4 [256, 21]
00000000: ccb6 7b40 1398 f0c0 92ac b0c0 189c b940
00000010: 704b 40c0 0d62 9f3f 6592 42c0 7188 2541
00000020: d22b a5c1 cf0c 95c1 3108 a4c1 4f1a 2bc1
00000030: cd3f a0c0 1fc3 bdc0 6da4 80c0 b7e8 31c0
00000040: 8c4e 4ac0 b239 40c0 7cd5 8abf 206a a7c0
00000050: 75a9 37bf 3d88 8240 9005 d8c0 9463 d7c0
00000060: 6b8a ae41 247a fac0 c0c9 5f41 c747 11c1
00000070: c25d 4b41 b6d5 5bc1 48c2 5bc1 31e4 4cc1
00000080: 2c6a aac0 0cec 92c0 89be abc0 9de1 efbf
00000090: fe2d 70c0 32c9 d1bf 792c d9bf 0000 0000
000000a0: dc07 9ac0 0000 0000 5929 0e40 ceaf 3fbe
000000b0: 9839 1ac1 1bb2 09c1 8238 0bc0 20c2 19c1
000000c0: db11 243e ba7a c5c0 778d 25c1 d2b4 14c1
000000d0: 734c 2cc1 0572 0ec1 9c6b 45bf 8471 07c0
000000e0: 1a00 f3bf 8e0a 22c0 d50d 9fbf 1ca0 d7bf
000000f0: 0000 0000 0020 06c0 9372 28bf e487 f53f
00000100: 519e 43c0 eef4 93c0 757b aabf f016 85c0
00000110: 5419 04c1 27f6 e9bc c12f 7240 6883 85c1
00000120: 1b22 8ec1 8b69 87c1 02e3 45c1 5437 9dc0
00000130: b8a0 6ac0 9416 79c0 0287 2dc0 e5a9 a7bf
00000140: c623 3cc0 b8ae 88bf df05 c0bf 291c 33bf
00000150: 112e 8040 ebcb edc0 9eee e3c0 2c46 b541
00000160: be9e ecc0 8e76 8641 bdcd c5c0 3c0c 8441
00000170: 467b 4bc1 6a6a 48c1 2485 47c1 a828 aec0
00000180: 8d5b 98c0 9415 b3c0 5846 f7bf 3a8b 76c0
00000190: f9e3 d5bf 0000 0000 7d98 85bf cd08 63c0
000001a0: 0000 0000 dcb1 9640 42e1 b5c0 b0c4 e340
000001b0: b77c 6741 a120 c540 2aec e640 9553 1e41
000001c0: 94b3 3e41 52ce 9ec1 c574 65c1 4025 88c1
000001d0: 0d07 2fc1 557a 13c0 4498 c2c0 ac27 83c0
000001e0: 32a7 3dc0 1c26 4cc0 8b1e 9abf 451b 90bf
000001f0: 2264 aec0 0000 0000 f758 0d40 01c6 6bc0
00000200: abe5 bd40 f374 54c0 aba7 a040 0072 7fc0
00000210: dc45 6241 e354 2840 ce6c 8cc1 8c07 67c1
00000220: bd64 82c1 5fc8 25c1 16a8 bbbf 09e7 6bc0
00000230: f0bd 78c0 4a23 80c0 c457 43c0 285f 3bc0
00000240: 6c3d 88bf 1521 78c0 189b 32bf 2fc3 d240
00000250: 0cf4 02c1 168d b0c0 c336 3741 7514 7cc0
00000260: 72c1 3341 5842 083d 0536 6641 c869 8dc1
00000270: 7977 7ec1 6301 85c1 c952 3fc1 80c5 98c0
00000280: 2ad8 b4c0 aa98 f7bf 1cfe 7cc0 87cc dbbf
00000290: 0000 0000 0000 0000 9150 65c0 8f51 32bf
000002a0: 2bdb 8140 cc81 e4c0 0d17 88c0 5456 8641
000002b0: b157 fcc0 ac77 0d41 0eab f0c0 9660 5141
000002c0: 062b a1c1 374b 9bc1 f65e a4c1 66cb 14c1
000002d0: 6663 a7c0 9922 c4c0 8bfc 84c0 2816 89c0
000002e0: 59bc 50c0 4c09 f6bf 5ba1 91bf 4d1e b0c0
000002f0: 6482 3fbf c13c 6740 07b0 87c0 218d 3841
00000300: 23eb 9dbf 5e92 0041 5e64 9440 a232 8d41
00000310: ea11 1f41 2553 70c1 447b 37c1 b3f1 4dc1
00000320: 24fa 0bc1 5505 bcbf 2b93 b8bf 628f 7dc0
00000330: 58a0 3ac0 4a7c e5bf 12b8 91bf d8a9 8abf
00000340: 27bd a7c0 0000 0000 7609 e540 b8e2 a4c0
00000350: 0053 4fc0 8a5a b341 f995 b1c0 9e8e 2341
00000360: 1bd7 07c1 9a4e 7a41 c708 71c1 daf8 67c1
00000370: ea42 78c1 a771 06c1 a43e 98c0 6452 b2c0
00000380: 1e2a 74c0 d27f 7bc0 1bcf 3dc0 0000 0000
00000390: 0000 0000 beb8 56c0 0000 0000 aeb1 6740
000003a0: 2a1c fbc0 7453 9ac0 b633 b341 c08e e8c0
000003b0: 369b 2a41 3f03 00c1 6141 4841 f617 9ec1
000003c0: a955 93c1 28f4 98c1 5201 11c1 84e7 aac0
000003d0: 2876 c8c0 dbf2 88c0 a39e 8bc0 fa32 55c0
000003e0: ffbe fcbf 8f98 93bf 84df b3c0 bebe 40bf
000003f0: c6e1 1240 39b2 aac0 790e 253e b475 6fc0
3.933032 -7.5185637 -5.5210657 5.8003044 -3.0046043 1.2451798 -3.0401852 10.345811
-20.646397 -18.631254 -20.504 -10.693923 -5.007788 -5.9300685 -4.0200715 -2.7798288
-3.1610441 -3.0035214 -1.08464 -5.2317047 -0.71742946 4.0791306 -6.750679 -6.7309055
21.817587 -7.8274097 13.986755 -9.080024 12.71039 -13.7396755 -13.734932 -12.805711
-5.3254604 -4.5913143 -5.3670087 -1.8740727 -3.7528071 -1.6389525 -1.6966697 0.0
-4.8134594 0.0 2.2212737 -0.18719408 -9.639061 -8.605983 -2.175324 -9.609894
0.16022436 -6.1712313 -10.347037 -9.294146 -10.768664 -8.902837 -0.77117324 -2.1163034
-1.8984406 -2.5318942 -1.2426096 -1.6845737 0.0 -2.0957031 -0.65799826 1.9182096
-3.0565379 -4.6236486 -1.3318926 -4.15905 -8.256184 -0.028559757 3.7841647 -16.689163
-17.766653 -16.926535 -12.367922 -4.913004 -3.6660595 -3.892003 -2.7113652 -1.3098723
-2.9396834 -1.067832 -1.5001792 -0.69964844 4.0056233 -7.4311423 -7.122878 22.659264
-7.3943777 16.807888 -6.1813645 16.505974 -12.717596 -12.52598 -12.470005 -5.442463
-4.7611756 -5.596384 -1.9318342 -3.8522477 -1.6710197 0.0 -1.0437161 -3.5474122
0.0 4.7092113 -5.6837473 7.1177597 14.467948 6.160233 7.2163286 9.895406
11.918842 -19.850742 -14.341008 -17.018188 -10.939221 -2.3043416 -6.081087 -4.0985928
-2.9633298 -3.189826 -1.2040571 -1.1258322 -5.4497232 0.0 2.208555 -3.6839602
5.9342856 -3.319638 5.0204673 -3.991333 14.1420555 2.630181 -17.553127 -14.4393425
-16.299189 -10.361419 -1.4660671 -3.6859763 -3.8865929 -4.0043077 -3.0522318 -2.9276829
-1.0643744 -3.8770192 -0.69767904 6.586326 -8.184582 -5.5172224 11.45087 -3.9387486
11.234728 0.033266395 14.388188 -17.676651 -15.904168 -16.625677 -11.957711 -4.774109
-5.651387 -1.9343464 -3.9530096 -1.7171792 0.0 0.0 -3.5830424 -0.696557
4.058004 -7.1408443 -4.252814 16.792152 -7.8857045 8.841717 -7.5208807 13.086081
-20.146008 -19.411726 -20.546368 -9.299658 -5.2308836 -6.1292233 -4.155828 -4.2839546
-3.2614958 -1.9221587 -1.1377367 -5.503699 -0.74808335 3.6130831 -4.2402377 11.534455
-1.2337383 8.035734 4.637252 17.649723 9.941874 -15.020299 -11.467594 -12.871509
-8.7485695 -1.4689127 -1.4419912 -3.9618764 -2.9160366 -1.7928555 -1.1384299 -1.0833082
-5.24184 0.0 7.157405 -5.1526756 -3.239441 22.419209 -5.549557 10.222319
-8.490016 15.64419 -15.064643 -14.498255 -15.516336 -8.402747 -4.7576466 -5.5725574
-3.8150706 -3.9296765 -2.9657657 0.0 0.0 -3.3550258 0.0 3.6202197
-7.847188 -4.822687 22.40025 -7.2674255 10.662893 -8.0007925 12.515962 -19.7617
-18.416826 -19.119217 -9.062822 -5.340761 -6.2644234 -4.2796454 -4.363115 -3.3312364
-1.9745787 -1.1530932 -5.6210346 -0.7529105 2.29503 -5.3342557 0.16118802 -3.741559

actor.fc1.bias f4 [256]
00000000: 214d 3fc2 a2e5 00c2 7e9f c2c1 6c6c 24c2
00000010: ee5d f1c1 30df 23c2 8888 1ac2 2aa9 20c2
00000020: 4a55 40c2 72e6 fbc1 e940 10c2 4e5a 37c2
00000030: 62a3 2ec2 aa17 95c1 262a 25c2 dd41 c3c1
00000040: 06cd d6c1 0328 52c2 c063 2ec2 9e04 48c2
00000050: 6508 43c2 f23b 48c2 f49e 2cc2 139b 16c2
00000060: 409f 07c2 d678 18c2 18ee 0ac2 025f 61c2
00000070: 6cec 14c2 a55c 27c2 40c8 12c2 ba70 1dc2
00000080: 4ac7 fac1 d01a f2c1 d01e 2ac2 f443 f1c1
00000090: 642e 34c2 03b5 16c2 993b 45c2 f5a9 f7c1
000000a0: b27c 0dc2 62a9 3cc2 5a66 39c2 d701 23c2
000000b0: 8fdf 34c2 ffdc edc1 be39 e9c1 42fa cfc1
000000c0: c689 b5c1 5551 0ec2 5274 f1c1 b150 e9c1
000000d0: fa74 4bc2 ccb6 23c2 f078 30c2 697f 25c2
000000e0: c093 e8c1 f46f 3ac2 f648 2ac2 bd45 25c2
000000f0: 35f8 3bc1 0cfd eec1 c2bf 1ec2 4b23 c0c1
00000100: 565a 52c2 2c5b bdc1 5678 02c2 985d cdc1
00000110: 4a79 29c2 792d ffc1 d0e8 07c2 647d 12c2
00000120: d401 12c2 ee27 42c2 6ca9 2fc2 6803 3cc2
00000130: 56ac 4dc2 0a9e 54c2 623b cfc1 c7d0 2ac2
00000140: b5f1 18c2 f0c2 25c2 1eca 0dc2 7aac 1ac2
00000150: 879f 00c2 9e4a 1ac2 3074 5ac2 9ebe 22c2
00000160: 0828 1dc2 222c 33c2 f08a 3bc2 283e f9c1
00000170: fff8 12c2 f021 ecc1 e26f e9c1 c856 45c2
00000180: 3d1c 3cc2 aa8b 20c2 9fdb 03c2 f231 29c2
00000190: 28c9 2fc2 4693 23c2 0fbe f5c1 be78 13c2
000001a0: 5c09 23c2 5511 16c2 2430 07c2 e877 4dc2
000001b0: 78b4 40c2 0f66 30c2 8f3c 16c2 178c ecc1
000001c0: 0625 13c2 4841 20c2 4a3d fec1 16f2 11c2
000001d0: 42a8 0fc2 e9c0 d1c1 37c5 5ec2 68d1 ddc1
000001e0: 12c5 28c2 5cbe 11c2 248e f8c1 a4c8 3ec2
000001f0: 48c6 2bc2 7e60 0bc2 0b2d b4c1 4090 dfc1
00000200: 10aa 29c2 cf8c fec1 dc29 1dc2 7d19 49c2
00000210: 2bd3 e9c1 f0c7 4cc2 ca90 2ac2 c88f 2cc2
00000220: d99f 17c2 99e8 53c2 0c3f 1ec2 bc41 41c2
00000230: 4e3f 0cc2 2c26 c1c1 a8a8 f8c1 0ecf 34c2
00000240: 19f4 21c2 ee5f a7c1 5a1d 44c2 84f5 1ac2
00000250: 9c73 2dc2 6ef4 07c2 621e ddc1 cc4b f8c1
00000260: ea6a fdc1 fd16 03c2 5536 29c2 a484 2cc2
00000270: 1974 5bc2 e81a 19c2 8187 fcc1 00dd 1fc2
00000280: e58e 01c2 3082 4fc2 da95 07c2 4d13 ecc1
00000290: 3445 35c2 5f89 4dc2 aabb 01c2 15fd 4bc1
000002a0: bcd5 50c2 2099 1ac2 f021 02c2 ecfc 0ec2
000002b0: 38fb eec1 95ac 11c2 5188 31c2 20e3 37c2
000002c0: 1ed8 26c2 60cc 38c2 6b20 21c2 229f 15c2
000002d0: c0f3 f2c1 321c 29c2 0b9c f4c1 562b 5ac2
000002e0: f8fa ecc1 1e4c 59c2 7811 22c2 2643 38c2
000002f0: 970a 18c2 4096 13c2 a861 28c2 9286 97c1
00000300: db82 41c2 7f05 d8c1 85d3 15c2 8ace 36c2
00000310: 69c4 eac1 be8a c2c1 3adc 30c2 d6d9 eac1
00000320: 8f2a 54c2 5cbd 05c2 bb0e 13c2 7ecd ffc1
00000330: d100 08c2 daf9 21c2 8540 31c2 841c 36c2
00000340: 2aba f5c1 94f2 33c2 476e 0cc2 bff0 b1c1
00000350: 0257 fcc1 e7d9 0cc2 0846 27c2 1e8f ffc1
00000360: 8c1d 11c2 4acb 0fc2 feb0 2ac2 a9d2 e2c1
00000370: 0c21 19c2 8e80 f3c1 df90 1cc2 8f1f 38c2
00000380: 4ef8 f7c1 2061 4ec2 3496 2dc2 3368 fec1
00000390: f4a8 33c2 0070 25c2 18b7 45c2 99a5 37c2
000003a0: 4e23 c2c1 4631 4ec2 3ee5 40c2 7c81 e5c1
000003b0: 4c62 dfc1 6077 3bc2 d43b 4bc2 4247 47c2
000003c0: debb 4fc2 6d1d e1c1 fbda 04c2 da36 52c2
000003d0: 8497 41c2 c272 19c2 43a9 dfc1 c059 5bc2
000003e0: 1c38 10c2 6b4c 26c2 74d3 1ec2 b419 38c2
000003f0: 81ae 0cc2 7490 21c2 921e 3dc2 beec 21c2
-47.82532 -32.22425 -24.327877 -41.10588 -30.170864 -40.967957 -38.63333 -40.1652
-48.08329 -31.487522 -36.06339 -45.83819 -43.659554 -18.636555 -41.29116 -24.40716
-26.85011 -52.539074 -43.597412 -50.00451 -48.758198 -50.05854 -43.155228 -37.65144
-33.905518 -38.118004 -34.732513 -56.34278 -37.23088 -41.840473 -36.695557 -39.360085
-31.34731 -30.263092 -42.53009 -30.15818 -45.045303 -37.67677 -49.3082 -30.957987
-35.371773 -47.165413 -46.349953 -40.751797 -45.21832 -29.732908 -29.153194 -25.997196
-22.692272 -35.579426 -30.181797 -29.1644 -50.864235 -40.928513 -44.118103 -41.374424
-29.072144 -46.60933 -42.57125 -41.318104 -11.748097 -29.873558 -39.687263 -24.017233
-52.58822 -23.669518 -32.617516 -25.6707 -42.368446 -31.897203 -33.977356 -36.62245
-36.501785 -48.538994 -43.91545 -47.003326 -51.418297 -53.154335 -25.903996 -42.703884
-38.236042 -41.44037 -35.44738 -38.668434 -32.15579 -38.57287 -54.613464 -40.68615
-39.289093 -44.7931 -46.88568 -31.15535 -36.74316 -29.516571 -29.17963 -49.334747
-47.027576 -40.13639 -32.964474 -42.298775 -43.94644 -40.89382 -30.717802 -36.867912
-40.75914 -37.516926 -33.797012 -51.367096 -48.17624 -44.099667 -37.55914 -29.568403
-36.786156 -40.06375 -31.779926 -36.486412 -35.914314 -26.219194 -55.692593 -27.72725
-42.19245 -36.435898 -31.069405 -47.69594 -42.943634 -34.84423 -22.521994 -27.945435
-42.416077 -31.818754 -39.29088 -50.27489 -29.22811 -51.19525 -42.641396 -43.14041
-37.9061 -52.977146 -39.56157 -48.314194 -35.06182 -24.143639 -31.082352 -45.2022
-40.488377 -20.92184 -49.028664 -38.73976 -43.3629 -33.9887 -27.639835 -31.03701
-31.677204 -32.77245 -42.30306 -43.12953 -54.863377 -38.276276 -31.566164 -39.96582
-32.389545 -51.877136 -33.89634 -29.509424 -45.31758 -51.38415 -32.433266 -12.749288
-52.208725 -38.649536 -32.533142 -35.746994 -29.872665 -36.418537 -44.38312 -45.9718
-41.711052 -46.199585 -40.28166 -37.405403 -30.369019 -42.277534 -30.576193 -54.54232
-29.622543 -54.324333 -40.51706 -46.065575 -38.01034 -36.89673 -42.095367 -18.940708
-48.37779 -27.002684 -37.456562 -45.7017 -29.345903 -24.317745 -44.215065 -29.356365
-53.04156 -33.43492 -36.764385 -31.975338 -34.000797 -40.493996 -44.313007 -45.527847
-30.7159 -44.986893 -35.107693 -22.242552 -31.542484 -35.212795 -41.81839 -31.944881
-36.278854 -35.948524 -42.672844 -28.352861 -38.282272 -30.43777 -39.141476 -46.03082
-30.996243 -51.59485 -43.396683 -31.800879 -44.914993 -41.359375 -49.428802 -45.911716
-24.267239 -51.54812 -48.22387 -28.688225 -27.922997 -46.866577 -50.808426 -49.819588
-51.933464 -28.139368 -33.21385 -52.553566 -48.397964 -38.36207 -27.957647 -54.837646
-36.054794 -41.574627 -39.706497 -46.0251 -35.170414 -40.391068 -47.279854 -40.481194

actor.fc2.weight f4 [128, 256]
00000000: e297 debf 2b02 a7bf 4cf8 21bf 4dab bdbf
00000010: 62d0 91bf 9aed abbf bd5d f1bf c49c cebf
00000020: 31a8 ecbf eba5 6dbf f15d b1bf ca04 a2bf
00000030: db16 03c0 7627 d7be 2f0a b5bf 9796 2ebf
00000040: e032 3ebf 0574 edbf caeb e0bf 41ff 03c0
00000050: 91d2 f7bf ddbf f4bf 8813 e6bf 7828 c9bf
00000060: 43f2 22bf c7c4 64bf c885 54bf 3cb6 f0bf
00000070: 0d6c 9abf 6ac2 acbf a7e1 68bf 60a5 febf
00000080: a9d3 c6bf 41eb 9cbf 5022 a1bf d92c 8fbf
00000090: 2b54 7fbf d725 a6bf 27c4 09c0 2064 9fbf
000000a0: 37f3 75bf 32ef a8bf 5581 efbf 3be4 d2bf
000000b0: 438d d5bf fafa 99bf c175 81bf 3921 83bf
000000c0: e09b 5fbf 49ca 7cbf f83e 9cbf 0068 4cbf
000000d0: 6179 00c0 257d 8abf 1a99 0bc0 5d5b 08c0
000000e0: c1fb 89bf de35 f6bf 1900 d8bf dc11 f4bf
000000f0: f94c a2be 7df2 9dbf eb9b a6bf 0c51 0fbf
00000100: 0353 d8bf ef2a 8fbf 882f 9ebf 8b6a d0be
00000110: 0ab0 d1bf d3aa 8cbf 9787 b5bf e4c2 9dbf
00000120: 0c9b c8bf 0e81 00c0 3530 c6bf 1384 c8bf
00000130: 56bd 0ec0 968f 15c0 3667 26bf 573c e1bf
00000140: 64a5 cabf cbae 01c0 354e abbf 1b90 acbf
00000150: 34a1 9fbf bf41 fdbf ff0a fbbf 1347 ecbf
00000160: 8277 b8bf 158b c5bf 496d 9dbf 857f 8ebf
00000170: 31fa d4bf 11e5 acbf 33f9 b8bf 00bb afbf
00000180: 21f4 cfbf f006 eebf 1f7e aebf 956a b4bf
00000190: 5fc5 bbbf a83b e6bf b70c a6bf 5bdb 57bf
000001a0: 1589 d4bf c1be c3bf 6a93 edbf 0754 d6bf
000001b0: 08e0 f6bf 4143 14c0 f0ac 81bf ea4e 5cbf
000001c0: d6ed d7bf 251f a4bf d8b7 9dbf dfbb d8bf
000001d0: d806 a4bf fe91 48bf 11da 03c0 33a5 7bbf
000001e0: 7f8f d8bf 88f8 b2bf 948d 81bf b433 fcbf
000001f0: 5450 e2bf 15dd c3bf 1d86 7cbf fb1f 7fbf
00000200: dcb0 d2bf 3186 8dbf 1fce b9bf a94f 08c0
00000210: 6d0a 53bf 06b0 dfbf 1651 11c0 ad51 99bf
00000220: e965 b4bf 4664 ecbf 0190 69bf 8707 f2bf
00000230: f6d1 b3bf 4dc4 2dbf 6e18 8bbf cf33 cabf
00000240: c267 d2bf a314 3dbf b49c 05c0 1cd3 b7bf
00000250: 8628 fbbf f997 8dbf 7156 91bf d79d 85bf
00000260: 619f 9bbf 058f 43bf c53c e0bf f5fd abbf
00000270: ea93 07c0 815a abbf 9677 aebf a98f f1bf
00000280: 3f1f d6bf 61f9 03c0 e70f 94bf 4af6 6bbf
00000290: e7ff eebf 5699 efbf 81be b2bf 52b6 bfbe
000002a0: dbd7 bbbf d1e6 82bf 8ace 99bf 629f d8bf
000002b0: 0b18 b7bf 1b7e 8dbf fb7f febf 424b f9bf
000002c0: 8a03 9cbf eb29 03c0 da76 fbbf 7617 14c0
000002d0: 661e 7dbf 0f23 b3bf 09e1 87bf bafa ffbf
000002e0: d20b 8dbf 96e3 eabf 9440 c4bf d033 cdbf
000002f0: 045a c7bf cc8c 83bf 2a1f ccbf c329 d2be
00000300: 60dd c7bf 62d2 93bf a6c4 60bf d396 d2bf
00000310: 293d 35bf 26af 71bf d4ae abbf 7118 6bbf
00000320: 1707 05c0 8470 cebf f0f5 d7bf 7087 d7bf
00000330: 3c9d e8bf 457a b1bf 094e cebf 4122 0ec0
00000340: aa66 1ebf bb63 b9bf 179b 82bf 4956 43bf
00000350: c836 7fbf dcc5 bbbf 7810 f2bf 5660 a8bf
00000360: 2d48 cebf 6dc3 7abf 0616 a8bf 6d26 83bf
00000370: 20de e4bf b766 ddbf f52d abbf 82fe d7bf
00000380: a2f7 a2bf 0b23 e2bf d3e2 f1bf 13b2 5cbf
00000390: 278f a8bf 2b3a a8bf a475 dcbf e20e 10c0
000003a0: 4caa 55bf 52b9 a0bf 70de e7bf e456 57bf
000003b0: 8e68 94bf 50aa c7bf 06cc 0ec0 491f dcbf
000003c0: 1ea0 cdbf 6fe2 71bf be73 a5bf a9cd 02c0
000003d0: 61cd ecbf fce2 94bf 3d07 38bf 6c99 05c0
000003e0: 383a b2bf b6a6 f3bf 5c52 a6bf db2d f3bf
000003f0: d1ea d0bf d43e bbbf fa87 bdbf 40fa 10c0
-1.7390101 -1.3047537 -0.63269496 -1.4817902 -1.1391718 -1.3431885 -1.8856732 -1.6141591
-1.8488828 -0.92831296 -1.3856794 -1.2657712 -2.04827 -0.42022294 -1.4143733 -0.6819853
-0.7429638 -1.8551031 -1.7571957 -2.0624545 -1.9361135 -1.9121052 -1.797471 -1.5715475
-0.6365091 -0.8936276 -0.83016634 -1.8805614 -1.2064224 -1.349683 -0.9096932 -1.9894218
-1.5533344 -1.2259294 -1.2588596 -1.1185561 -0.99737805 -1.2980298 -2.1525972 -1.2452431
-0.9607424 -1.3197997 -1.8711344 -1.64759 -1.6683735 -1.2029717 -1.0114061 -1.0244514
-0.8734722 -0.9874616 -1.2206717 -0.7984619 -2.0074084 -1.0819441 -2.1812196 -2.1305764
-1.0779954 -1.9235189 -1.687503 -1.906795 -0.3169935 -1.2339627 -1.3016332 -0.5598304
-1.6900333 -1.1184977 -1.2358255 -0.40706286 -1.6381848 -1.0989631 -1.4182004 -1.2325101
-1.5672317 -2.0078769 -1.5483462 -1.5665306 -2.2303061 -2.3368888 -0.6500124 -1.7596539
-1.5831723 -2.0262935 -1.3383242 -1.3481477 -1.247107 -1.9785689 -1.9612731 -1.845919
-1.4411471 -1.543307 -1.2298976 -1.1132666 -1.6638852 -1.3507406 -1.445105 -1.3728943
-1.6246377 -1.8595867 -1.3632239 -1.4095026 -1.4669608 -1.7986956 -1.297263 -0.84319085
-1.6604334 -1.5292588 -1.8560612 -1.6744393 -1.9287119 -2.3166049 -1.0130901 -0.86057913
-1.6869457 -1.2822005 -1.232173 -1.6932334 -1.2814589 -0.78347766 -2.0601847 -0.9829895
-1.6918792 -1.3982096 -1.0121331 -1.9703279 -1.7680764 -1.5301844 -0.9864214 -0.99658173
-1.6460223 -1.1056577 -1.4516028 -2.129862 -0.82437783 -1.7475593 -2.270574 -1.197805
-1.40936 -1.8468101 -0.9123536 -1.8908547 -1.404845 -0.67877656 -1.086683 -1.5797061
-1.6437914 -0.73859614 -2.0876894 -1.43613 -1.9621742 -1.1062003 -1.1354505 -1.0438794
-1.2158014 -0.76390105 -1.7518545 -1.3436877 -2.118403 -1.3386995 -1.3630245 -1.8871967
-1.6728286 -2.0620959 -1.1567353 -0.9217268 -1.8671845 -1.871867 -1.3964387 -0.37443787
-1.4675249 -1.022669 -1.2016156 -1.692364 -1.4304212 -1.1054109 -1.9882807 -1.9476092
-1.218858 -2.0494335 -1.9645646 -2.313932 -0.9887451 -1.3995074 -1.061555 -1.9998391
-1.1019232 -1.8350704 -1.5332208 -1.6031437 -1.5574346 -1.0277343 -1.594701 -0.41047487
-1.5614433 -1.1548579 -0.8780006 -1.6452278 -0.7079645 -0.9440788 -1.3412728 -0.9183417
-2.0785577 -1.6128087 -1.6871929 -1.6838207 -1.8172984 -1.3865439 -1.6117564 -2.2208407
-0.618754 -1.448356 -1.020358 -0.76303536 -0.99692965 -1.4669757 -1.8911276 -1.3154399
-1.6115776 -0.97954446 -1.3131721 -1.0246102 -1.7880287 -1.7296971 -1.33734 -1.6874545
-1.2731822 -1.7666944 -1.8897346 -0.8620922 -1.3168687 -1.3142751 -1.7223401 -2.2509084
-0.8346298 -1.2556555 -1.8114758 -0.8411696 -1.1594408 -1.559885 -2.2312026 -1.7197047
-1.6064489 -0.94486135 -1.2925947 -2.0438025 -1.8500177 -1.163177 -0.71886045 -2.0874891
-1.3924017 -1.9035251 -1.2993884 -1.8998369 -1.632166 -1.4628549 -1.4807122 -2.265274

actor.fc2.bias f4 [128]
00000000: 351d 38c0 0ad2 95c0 bc4d 91c0 0000 0000
00000010: 1b79 7ec0 34c0 a3c0 2944 6fc0 1c44 61c0
00000020: 0000 0000 0cc6 82c0 06b7 71c0 fece 9fc0
00000030: eea4 69c0 dcc4 5fc0 0000 0000 a9dd 94c0
00000040: 0000 0000 0000 0000 af0d 23c0 4aae 89c0
00000050: 350e 74c0 0000 0000 ca98 c7c0 0000 0000
00000060: 3921 a1c0 0284 60c0 0000 0000 5e58 b8c0
00000070: 0000 0000 0000 0000 0000 0000 0000 0000
00000080: 85bf abc0 7f8b 39c0 0000 0000 64c6 83c0
00000090: 0000 0000 d279 9ac0 0000 0000 def8 85c0
000000a0: ccc0 8ac0 ed38 91c0 d66f 96c0 661f 85c0
000000b0: e3a7 c7c0 def5 91c0 0000 0000 6844 8cc0
000000c0: 101e 8fc0 3509 9dc0 0000 0000 a62c 96c0
000000d0: 061d 3cc0 cea5 9ac0 0000 0000 06e7 6ec0
000000e0: 79d4 95c0 0000 0000 f305 19c0 8818 88c0
000000f0: 3cd0 52c0 0000 0000 0000 0000 2c62 a0c0
00000100: da30 b6c0 a150 b2c0 0000 0000 4213 b1c0
00000110: a29a 87c0 1780 81c0 3c7e 73c0 1276 94c0
00000120: 2279 61c0 a48a acc0 aaa7 adc0 a4b4 85c0
00000130: ac17 a6c0 6e0b 33c0 4e5b 2ec0 aaad b6c0
00000140: ac8d a9c0 7252 02c0 6017 8bc0 cd42 a2c0
00000150: 4250 b4c0 ac60 a7c0 42ab a8c0 0000 0000
00000160: 0000 0000 4e76 a7c0 0000 0000 520e 84c0
00000170: 2ed7 9bc0 d6ad aec0 c04f 93c0 5a12 80c0
00000180: e4d3 b5c0 58cc 1ec0 243b 62c0 e616 bac0
00000190: 5c17 71c0 0000 0000 cb3c 88c0 0000 0000
000001a0: 0000 0000 0404 b4c0 92ac 4bc0 9cdb 2dc0
000001b0: 841a b4c0 44d4 89c0 5fc2 96c0 0e72 1cc0
000001c0: bdba 4cc0 9dd6 a0c0 80ed 76c0 0000 0000
000001d0: 8043 c2c0 82b2 a6c0 0000 0000 84a0 59c0
000001e0: 0000 0000 0000 0000 96c6 2cc0 aa2d 68c0
000001f0: 6652 62c0 2608 4fc0 0000 0000 8090 75c0
-2.8767827 -4.6818895 -4.540739 0.0 -3.9761417 -5.1172123 -3.7385352 -3.519782
0.0 -4.0866756 -3.7767959 -4.9940176 -3.6506915 -3.4963903 0.0 -4.652058
0.0 0.0 -2.5477102 -4.3025255 -3.8133671 0.0 -6.237401 0.0
-5.0353055 -3.508057 0.0 -5.760787 0.0 0.0 0.0 0.0
-5.367129 -2.8991392 0.0 -4.1179676 0.0 -4.8273706 0.0 -4.1866293
-4.336035 -4.538199 -4.701152 -4.160083 -6.239244 -4.561263 0.0 -4.3833504
-4.4724197 -4.907374 0.0 -4.6929502 -2.9392715 -4.83274 0.0 -3.7328506
-4.6821866 0.0 -2.390988 -4.2529945 -3.2939596 0.0 0.0 -5.011984
-5.6934633 -5.5723424 0.0 -5.533601 -4.237626 -4.046886 -3.8045797 -4.639413
-3.5230184 -5.391924 -5.426717 -4.178301 -5.1903896 -2.7975726 -2.7243228 -5.708699
-5.298544 -2.036282 -4.3466034 -5.0706544 -5.634797 -5.230551 -5.2709055 0.0
0.0 -5.2331915 0.0 -4.126748 -4.870017 -5.45872 -4.603485 -4.00224
-5.6821156 -2.4812222 -3.5348597 -5.815295 -3.7670507 0.0 -4.257421 0.0
0.0 -5.62549 -3.1824079 -2.716529 -5.628237 -4.3071613 -4.711227 -2.4444613
-3.1988976 -5.026198 -3.8582458 0.0 -6.0707397 -5.2092905 0.0 -3.400422
0.0 0.0 -2.6996207 -3.627787 -3.5362792 -3.2348723 0.0 -3.8369446

actor.policy_head.weight f4 [50, 128]
00000000: d6fe df40 c374 2d41 be96 1e41 0000 0000
00000010: 30db 2141 92a5 fe40 b9a0 2f41 82fb 1e41
00000020: 0000 0000 dd44 1a41 1af7 1c41 52a7 ec40
00000030: ff48 fc40 5209 dc40 0000 0000 c35c 2e41
00000040: 0000 0000 0000 0000 9c9e 1541 1c07 1c41
00000050: b96c 2b41 0000 0000 552f 4041 0000 0000
00000060: 9833 4341 e9d3 3941 0000 0000 d561 2f41
00000070: 0000 0000 0000 0000 0000 0000 0000 0000
00000080: 2b10 1f41 074b 1441 0000 0000 2f3c 1541
00000090: 0000 0000 2130 3c41 0000 0000 2efb 2041
000000a0: d9d9 3d41 0869 3441 70fc 2b41 baa1 2b41
000000b0: 89f0 4441 bd02 3941 0000 0000 f18a 3241
000000c0: 1e29 2d41 3418 1c41 0000 0000 18b9 f940
000000d0: 9224 0e41 d170 4041 0000 0000 d256 2641
000000e0: 2616 1e41 0000 0000 252c 0e41 284c 0941
000000f0: 12a7 da40 0000 0000 0000 0000 7a32 2541
00000100: cf78 4841 b4f0 0841 0000 0000 2fe5 3541
00000110: d0fa 2a41 5799 2a41 e5b7 2341 91d0 1441
00000120: 9910 2241 db83 3341 a1b0 3741 6c26 3841
00000130: 50d9 2b41 a0ce 0141 b524 1d41 a201 4b41
00000140: 0e33 1041 3fc2 6040 ed63 1241 4942 4141
00000150: 1825 2e41 5376 1841 aa03 4341 0000 0000
00000160: 0000 0000 2580 4241 0000 0000 7af0 1141
00000170: 9b8f 3a41 d912 3841 5d7e 0941 741c 0f41
00000180: 2002 2841 1161 d840 9938 2441 0e15 2b41
00000190: 0a02 2f41 0000 0000 da84 3741 0000 0000
000001a0: 0000 0000 47b3 2641 d3a9 1d41 9cb8 ba40
000001b0: 95e2 3041 7d15 2941 9b01 3341 5f5a d340
000001c0: fd75 d840 1002 3841 f342 2941 0000 0000
000001d0: c57f 4c41 3983 3741 0000 0000 e1f8 1e41
000001e0: 0000 0000 0000 0000 2e15 0b41 bf83 f740
000001f0: aec4 1d41 d0ca 2241 0000 0000 65f6 3941
00000200: 2dcc 5f41 e16e b641 b097 aa41 0000 0000
00000210: 4845 af41 101d 8741 2720 bd41 1802 a641
00000220: 0000 0000 414e a241 14f8 9c41 6952 8041
00000230: 04af 8241 dc13 6a41 0000 0000 e701 b141
00000240: 0000 0000 0000 0000 e986 9841 6238 b341
00000250: 72d1 b941 0000 0000 1c1b d341 0000 0000
00000260: dfff c541 55cc c941 0000 0000 fbbd c241
00000270: 0000 0000 0000 0000 0000 0000 0000 0000
00000280: 97d9 b441 36d1 a241 0000 0000 eab2 9f41
00000290: 0000 0000 4eee cf41 0000 0000 e85b ad41
000002a0: 6b4c c941 2aaf c441 1d41 b541 5c1a b641
000002b0: 0fd8 ce41 8437 c941 0000 0000 faf6 bd41
000002c0: 8a8b b641 027b aa41 0000 0000 bb3a 8541
000002d0: 1b8d 8f41 476c c841 0000 0000 cb52 ac41
000002e0: e286 aa41 0000 0000 f070 9041 e604 9341
000002f0: c5e6 5741 0000 0000 0000 0000 3849 b941
00000300: 9c3f d041 ac10 9441 0000 0000 c7e1 bb41
00000310: 854b b741 5035 b941 2ca0 b141 fc3f 9d41
00000320: 8f5b a841 302a c741 ab20 c541 3c64 cf41
00000330: 54a3 b841 8536 9441 2753 a041 fc99 d741
00000340: 1b4d a041 bef1 e540 67b4 a141 7ad0 cf41
00000350: 1d91 bd41 f718 a441 385a c441 0000 0000
00000360: 0000 0000 17b3 d841 0000 0000 d61c a141
00000370: 2141 c541 bc9a bb41 d09c 9541 6b13 9c41
00000380: e860 b641 9756 5b41 edd7 ad41 7190 b441
00000390: cd25 b141 0000 0000 8949 c041 0000 0000
000003a0: 0000 0000 e1e6 b141 323b a341 deaf 5d41
000003b0: f918 bc41 7dca ac41 eea0 ba41 5a8d 6041
000003c0: 2292 5d41 d60e c341 22c6 af41 0000 0000
000003d0: 8d52 d841 fcd0 bc41 0000 0000 b8df a341
000003e0: 0000 0000 0000 0000 182a 9541 9962 7f41
000003f0: aba7 9d41 b038 a841 0000 0000 e878 c641
6.999858 10.841006 9.911802 0.0 10.116013 7.957711 10.976739 9.936403
0.0 9.641812 9.810328 7.395425 7.8839107 6.8761377 0.0 10.897647
0.0 0.0 9.351223 9.751736 10.714044 0.0 12.011556 0.0
12.200096 11.614236 0.0 10.961385 0.0 0.0 0.0 0.0
9.941447 9.268317 0.0 9.327193 0.0 11.76175 0.0 10.061323
11.865685 11.275642 10.74913 10.726984 12.308724 11.563169 0.0 11.158921
10.822538 9.755909 0.0 7.8038445 8.883928 12.027543 0.0 10.396196
9.880407 0.0 8.885777 8.581093 6.8328943 0.0 0.0 10.324823
12.529494 8.558765 0.0 11.368453 10.6862335 10.6624365 10.232396 9.30092
10.129052 11.219691 11.480622 11.50938 10.740555 8.112946 9.821462 12.687899
9.012465 3.5118558 9.149396 12.078683 10.884056 9.528888 12.188395 0.0
0.0 12.156285 0.0 9.12121 11.66006 11.5046015 8.59335 8.944447
10.500519 6.761849 10.263818 10.69264 10.937998 0.0 11.469934 0.0
0.0 10.418769 9.853961 5.8350353 11.055318 10.567746 11.187892 6.6047816
6.764403 11.500504 10.578845 0.0 12.781194 11.469537 0.0 9.935761
0.0 0.0 8.692671 7.7348323 9.8605175 10.174515 0.0 11.622655
13.987348 22.80414 21.324066 0.0 21.908829 16.88919 23.6407 20.751022
0.0 20.28821 19.621132 16.04024 16.335457 14.6298485 0.0 22.125929
0.0 0.0 19.065874 22.40253 23.227268 0.0 26.388237 0.0
24.749937 25.224771 0.0 24.342764 0.0 0.0 0.0 0.0
22.606245 20.352154 0.0 19.96236 0.0 25.99136 0.0 21.669876
25.162313 24.58553 22.656794 22.76287 25.855497 25.152107 0.0 23.745594
22.818134 21.310062 0.0 16.653677 17.9439 25.05287 0.0 21.540426
21.31586 0.0 18.055145 18.377392 13.49384 0.0 0.0 23.160751
26.03106 18.50814 0.0 23.485243 22.911875 23.151031 22.203209 19.656242
21.044706 24.8956 24.640951 25.923943 23.07975 18.52662 20.040602 26.950188
20.03765 7.1857595 20.213087 25.976795 23.695856 20.51219 24.544052 0.0
0.0 27.087446 0.0 20.13908 24.656801 23.450554 18.701569 19.509481
22.797318 13.70864 21.730433 22.570528 22.143457 0.0 24.035906 0.0
0.0 22.237734 20.403904 13.855436 23.512194 21.598871 23.328579 14.03451
13.848177 24.382244 21.971745 0.0 27.040308 23.602043 0.0 20.484238
0.0 0.0 18.645554 15.961572 19.70687 21.02768 0.0 24.809036

actor.policy_head.bias f4 [50]
00000000: 1988 313f e268 cf3f 0000 0000 0000 0000
00000010: 0000 0000 0000 0000 8f1f cc3f 4020 3e3f
00000020: 0000 0000 0000 0000 0000 0000 9785 0b3f
00000030: 7704 d33e e708 103f 0000 0000 0000 0000
00000040: 4b00 883e 0000 0000 0000 0000 748b 213f
00000050: 0000 0000 0b25 0180 c999 213f 2aab 8e3f
00000060: 0000 0000 0000 0000 0c22 2b3f 0000 0000
00000070: 5fec 903e 2889 303f 0000 0000 0000 0000
00000080: 0000 0000 0000 0000 0000 0000 0000 0000
00000090: 383d 853f 0000 0000 697e e83e 3c10 a83f
000000a0: 2a31 c13f 8b1b 303f 9b88 733f a7ee 97c1
000000b0: 0000 0000 0000 0000 e486 003f 2db8 ca3f
000000c0: 0000 0000 d62b fd3e
0.69348294 1.6203883 0.0 0.0 0.0 0.0 1.5947131 0.7426796
0.0 0.0 0.0 0.54500717 0.41214344 0.56263584 0.0 0.0
0.26562724 0.0 0.0 0.63103414 0.0 -1.05124e-40 0.6312528 1.1145985
0.0 0.0 0.66848826 0.0 0.28305337 0.68959284 0.0 0.0
0.0 0.0 0.0 0.0 1.0409307 0.0 0.45408943 1.3129954
1.5093129 0.6879203 0.9513032 -18.99153 0.0 0.0 0.50205827 1.5837456
0.0 0.49447507

critic.fc1.weight f4 [256, 21]
00000000: b74d 78bd baea 803d 16ae 063d 4772 25bf
00000010: 2473 f6bd 20c3 fcbe a409 783d 6087 34be
00000020: 4b7e 45bd 54ce d33c 726f aabd afb5 21be
00000030: 23ec 3e3e 2db8 9fbd 6392 90bd 8859 783c
00000040: bbcc ce3d dcd4 b03c 328e 013d c2e6 e13d
00000050: 0000 0000 cc36 4abd 2d01 9c3c 60e1 123b
00000060: c966 2ebe 55d2 283b c634 40bc 5246 3e3d
00000070: 1252 843e 827a 913c 325e fb3c ec37 813c
00000080: a896 cbbd 0000 0000 0000 0000 0000 0000
00000090: fe50 b93c 894a 0e3d ffd1 193c 1e0f cf3c
000000a0: b21d 833d 61b5 b93d 4580 68bd c86d fe3c
000000b0: e541 c23c 9528 29be 379d cb3b 01cb 34be
000000c0: a451 a73d cbb8 04be f1c5 e63c f76f 6b3d
000000d0: ce55 033d ec97 12bd 91c8 f43d 0088 b137
000000e0: c262 f7bc 890f f9bc e891 843d 0000 0000
000000f0: 0000 0000 8b8a 613d 0000 0000 6f9e 7ebd
00000100: 300c e0bb bce8 873e cd99 c7bd 7200 283e
00000110: 0067 d73d beb3 063e 1f72 b03e 0801 6cbe
00000120: 44a3 1ebd f868 33be b6dd 28be 16ef 6f3d
00000130: 5d3a c3bd 75b6 b0bd 5d9b 2bbd bea5 593d
00000140: 4c48 6b3c a05b 1e3d 3f94 e33c 7707 0e3e
00000150: 3a52 16be 300f 5cbc fa40 393e 3d86 68be
00000160: b567 f63d 1016 04bd 4beb 133e d2cf 8b3e
00000170: 2095 72bd 9e92 353d 40e5 27bd 2814 c5bd
00000180: 5954 c93c 0000 0000 ae45 88bd 5733 923d
00000190: c8d6 273d 2970 353c 0000 0000 727f af3c
000001a0: 480d db3d bcf9 68bd 2891 cfbc fbbd 15be
000001b0: 017b b0be e9a0 aabe 3739 a0be 6489 2bbe
000001c0: 4fac 85ba d74e f4bd ca42 81bd 98bf f6bd
000001d0: 7394 1abe e119 ab3c f22e a3bd f06f afbd
000001e0: 1438 bc3d 9913 583d 8d95 693c 0837 1d3d
000001f0: d42a c03d 0000 0000 6ee2 803c 517a e636
00000200: 395a 883d 483c bbbe 5f61 58bd 34b5 a1be
00000210: 363f 4a3d a4a0 423c b510 143d f279 1b3d
00000220: b9dd 6abc a2d2 9ebd 1e44 1f3e 9cc0 cfbd
00000230: cb52 a2bd 4230 023d 0000 0000 b31f 583c
00000240: 9576 113d a1a3 fd3d 0000 0000 110a b0bd
00000250: 416c d53d 6058 3b3e 06fc dabe 9dc7 723e
00000260: 1375 f8be d4e7 9c3e 1df9 e4bc b291 0abd
00000270: 0f50 d33d 87ee ccbd e461 3abe 5842 493e
00000280: e75d a8bd 7ccc cabc 3875 f43c 5c4a 783d
00000290: c467 ba3c 0000 0000 b310 bd3d a6f9 f43d
000002a0: de69 2fbe e1fe b63d 878b 233e f754 04bf
000002b0: 8181 ea3d 8a05 00bf 740d 6b3e 1569 073d
000002c0: 066d 2abc ab81 353e faae 3ebd 9ffc 21be
000002d0: f2c8 723e 201b cbbd f6d7 b7bd d272 133d
000002e0: d37c 033e c8dd e03c 86bf 243d 01a2 0f3e
000002f0: adc2 133e c9f5 01be 0e7c 2b3d 2eab 903e
00000300: ac6e d0be 9df9 a03e 3b05 d9be 910c c83e
00000310: 4235 2fbd acc2 ddbd d1da b43d 5a1c 01be
00000320: 096d 60be 0d6f 4b3e 9e2f aabd b70b 9abd
00000330: 4d98 15bd fe59 dc3d 4a1a 4d3c 0000 0000
00000340: 7ab4 f03d 409f f73d 9194 e3bd 6e7b 9a3d
00000350: 9f87 303e c19f 00bf 24c4 923e 057d d3be
00000360: bb93 cf3e 3450 16bd 573f ac3d f451 5c3e
00000370: 02f6 1e3b f6fd 59bd d8f9 5f3e 2dc1 9dbd
00000380: d299 a9bd 54b3 24bd 1e9a f23d 0c72 cf3c
00000390: 19fc 173d d667 d23d 2c50 083e d6c7 80bc
000003a0: cc6c c2bc 34d0 98bb e940 cabe 8b26 31be
000003b0: e2fc 42be 6e01 b2bd d9ee e43c 3017 dabd
000003c0: baef abbd dd4d 1dbe ae3d 26be 91e4 9a3c
000003d0: 6575 afbd 7bd1 9ebd aecd 8c3d 989b 433d
000003e0: f874 533c 7a52 0e3d d817 543d 0000 0000
000003f0: f095 52bd 68d0 a73c 4654 133e d891 a4be
-0.06062099 0.062947705 0.032880865 -0.646275 -0.1203368 -0.4936762 0.06055607 -0.17629766
-0.048216145 0.02585522 -0.08322038 -0.15791963 0.18644767 -0.077988006 -0.07059171 0.015158065
0.10097643 0.021585874 0.03162975 0.11030342 0.0 -0.049368665 0.01904353 0.0022412166
-0.17031397 0.0025760133 -0.011731332 0.04645378 0.25843865 0.017758612 0.030684564 0.015773736
-0.09940845 0.0 0.0 0.0 0.022621628 0.03473905 0.009388446 0.025275763
0.06402148 0.090677984 -0.056762952 0.031058207 0.023713062 -0.16519387 0.00621381 -0.17655565
0.081698686 -0.12961118 0.028170558 0.057479825 0.03206425 -0.035789415 0.119523175 2.1163374e-05
-0.030198459 -0.030402916 0.06473142 0.0 0.0 0.055063765 0.0 -0.062162813
-0.0068373904 0.2654475 -0.09746132 0.1640642 0.105176926 0.13154504 0.34462067 -0.23047268
-0.03872992 -0.17520511 -0.16490826 0.05857762 -0.09532616 -0.08628551 -0.041896213 0.05313658
0.014360499 0.0386616 0.02778065 0.13870035 -0.14679804 -0.013431355 0.18091193 -0.22707458
0.12031499 -0.032247603 0.14445226 0.27306992 -0.059224248 0.04432928 -0.040990114 -0.09622985
0.024576353 0.0 -0.06653915 0.071386985 0.040976316 0.011074104 0.0 0.021423075
0.106958926 -0.05687879 -0.02533777 -0.14623253 -0.34468845 -0.3332589 -0.3129365 -0.16751629
-0.0010198447 -0.119291 -0.06311567 -0.12048262 -0.15095691 0.020886363 -0.079679385 -0.08566272
0.091903836 0.052753065 0.014256847 0.03838256 0.09383169 0.0 0.01573297 6.8687737e-06
0.066578336 -0.36569428 -0.052827235 -0.3158356 0.04937669 0.01187912 0.036148746 0.037958093
-0.014335089 -0.07755019 0.15553328 -0.10144159 -0.07925948 0.031784303 0.0 0.013191151
0.03551348 0.12384725 0.0 -0.0859567 0.104210384 0.18295431 -0.42770404 0.23708959
-0.4852682 0.3064562 -0.027950818 -0.033830352 0.10318004 -0.10006433 -0.18201405 0.19654214
-0.082210355 -0.024755709 0.02984105 0.06061779 0.022754557 0.0 0.09231701 0.11961679
-0.17130229 0.08935333 0.15971194 -0.51692146 0.11450482 -0.5000845 0.2295435 0.0330592
-0.01040197 0.17725246 -0.04655359 -0.15819024 0.23709467 -0.09917283 -0.08976738 0.035998173
0.12840585 0.027449504 0.040221713 0.14026643 0.14429732 -0.12691416 0.041866355 0.282556
-0.40709436 0.3144044 -0.42386803 0.39072087 -0.0427754 -0.10828146 0.088307984 -0.12608472
-0.21916594 0.19866581 -0.083098635 -0.07521766 -0.0365222 0.10759352 0.012518475 0.0
0.11753173 0.120909214 -0.11112321 0.075430736 0.17239235 -0.50243765 0.28665268 -0.4130632
0.40542397 -0.03669758 0.084105186 0.21515638 0.0024255519 -0.05322071 0.21872652 -0.07702861
-0.08281292 -0.040210083 0.11845802 0.025322936 0.037105653 0.102737114 0.13311833 -0.01572029
-0.023733519 -0.0046634916 -0.39502648 -0.17299859 -0.1904178 -0.08691679 0.027945923 -0.10648954
-0.083953336 -0.15361734 -0.16234466 0.018907817 -0.08567313 -0.07754799 0.06875168 0.047755808
0.0129063055 0.034746625 0.05178055 0.0 -0.051412523 0.020485118 0.14387617 -0.3214252

critic.fc1.bias f4 [256]
00000000: 04fc acbd 0e6d 523d 19dd c03d 8807 b6be
00000010: cc1f 37bd 7e20 78be 30dc 433d 934a c9bc
00000020: 2918 c53d 3f4d efbd 5d24 773e 54ed 8cbe
00000030: e042 7cbc 12c1 343e 40c9 163b c6ba 29be
00000040: b7ee b83e a5ba 8abe 7ef9 a3bd ba50 20be
00000050: 5636 3dbe 38f6 4bbe 3211 2c3d a696 0c3e
00000060: b7d0 fd3d 4219 e8bd e880 7c3b bb25 043e
00000070: 5437 64be b0f0 09bc b65c 56be 68d6 02bd
00000080: f34c f4bd 169a 433e 8b3b 6bbd ac65 65bc
00000090: d84d a4be 2011 f83a de93 283e 3a88 6ebe
000000a0: 3606 5c3e 3e5e 063e 906b 35bd bc18 193e
000000b0: d237 b3bd b4d1 8abb 24e6 45bd 0b97 cabd
000000c0: 5e74 b43d 758e 213e 3a53 833d b855 e5bc
000000d0: b7fb 5d3e 262d ad3d 3b2a 3e3d 6f4b 9ebd
000000e0: 787b 503c d8e8 cc3c 5bd7 17be 36e6 bd3e
000000f0: 1a17 c8bd 4e86 f5bc f84a a63d 6825 763e
00000100: 5ad4 563d 47c6 babd 5af2 f1bd f28d 93be
00000110: 25bf 813d 6466 b1bc 7206 f13c 324a 19be
00000120: 3ddf 35bc 8c7c e13c e38b a0bc 948a dcbd
00000130: 22e9 0fbd 90c2 8dbe 0d55 78bd 60eb fd3b
00000140: 92b2 26be 1108 813d 60a3 23bd 8847 d6bb
00000150: c2e5 44bd 017f 8f3d 8a3d dd3d 0a35 283e
00000160: fd77 27bd 4ea7 273d 15be a2bd 0093 f53b
00000170: 782a 5ebc 9169 b1bc c0cd db3d 1e5b df3d
00000180: 7743 013e a228 253d bc9e 10be 65a3 273d
00000190: a86d db3d fe64 a33e 24a1 c63c ba7f 643d
000001a0: ce54 283d e526 ac3d 56c9 43be ea47 a53d
000001b0: 69bf 3bbe ba3b f73d a099 50bd 0a0a abbd
000001c0: 7b8a f13d 9009 44bc 38c2 a43c 8554 6a3d
000001d0: fc70 90bd e286 e6bd 8e7b 433d 6d77 9e3d
000001e0: d0d3 9e3d 85e9 17be 8ebb 263d ed3e 223e
000001f0: 166d 2f3e 1565 2fbc 001b 13bd 74bb 66bd
00000200: de2b 9d3d 0642 893d 760b 37be 3f69 7b3e
00000210: 7ec1 c5bd cf90 40bd dbcd 373e ff9d 173d
00000220: 565d 283e 9045 833e 2a51 003c 4842 38be
00000230: 3ef2 3cbd 2491 86bb 9656 c2bd 1e75 bebd
00000240: 7cf8 333d 5d2f 8ebd 2a01 c53d 9af7 ebbd
00000250: aecc 9bbd 3c35 2b3e 1231 a93d 22f7 a3be
00000260: 8691 f63d 373d 0c3e 831b dd3d 7caf f2bd
00000270: 6674 f5bc 5f9b f2bd f2ae 373e 4668 70bd
00000280: cf63 c5bd 10c3 8cbb 35d4 b8bc 895c 203e
00000290: 0891 483e 2048 853c 2861 b9bc 4c5a 673d
000002a0: 84e2 b8bd dc25 23be 922a ec3d d870 0fbd
000002b0: 06d0 d4bd 4959 4a3d b02f cd3d aa88 c9bc
000002c0: d6b3 c8bc fe24 043d 1806 433c e04d 4a3a
000002d0: d803 03bc 564a 2dbd 669b 40be 31c1 44be
000002e0: b2c0 a33d ef57 393d c852 46bc c2aa 773e
000002f0: 63de fa3d 77f7 96bd b47f 123c 00b4 5f3b
00000300: 9859 53bd 36b7 78bd 4d14 773e 1846 e4bc
00000310: 520a 153e 0094 093b 0e9f 093e a262 9d3d
00000320: f83d 19be ea0e 1dbd 95b7 173e fce9 643d
00000330: 8873 25bd bcd5 6a3d 481d f73d fc8e e2bd
00000340: 8d3f 653d 1fd5 2cbe 75a1 8dbd 3eb2 433d
00000350: f0db fdbd c659 55be 0862 1dbe 85bc f0bd
00000360: 30d7 2cbc 6692 10bd 9877 013c a889 71bc
00000370: 96a6 e4bd e4fa 213d 48ea 953e 0c73 a9bd
00000380: 13ca 55be 24f9 113e 041b 9fbd fc55 05be
00000390: 5092 333d c2e7 543e 86cb 093e 8eb0 bb3d
000003a0: e769 df3d 868d 2c3d aaa6 81bd 8e72 61bd
000003b0: 8c17 56be 3b8f e9bd 307c 003e e91b a4bd
000003c0: 9043 a43c 9cb6 4f3e c85f 4b3c 4596 e23d
000003d0: ba36 133d ee79 073e d912 87be 2005 a4bc
000003e0: 46da a03c 072d acbc 1461 e9bd b823 a43e
000003f0: c253 f0bc 25a8 1cbe ba08 22be 0ce1 063e
-0.08446506 0.051373534 0.09417171 -0.3555262 -0.04470806 -0.24231145 0.04781741 -0.024571693
0.09623749 -0.116846554 0.24134965 -0.27524817 -0.015396804 0.17651775 0.0023008138 -0.16575155
0.36119625 -0.27095523 -0.08006571 -0.15655795 -0.18477759 -0.19918144 0.042008586 0.13729343
0.12393325 -0.113329425 0.0038528983 0.12905018 -0.22286731 -0.008419201 -0.20933804 -0.031942755
-0.119287394 0.19101748 -0.05742983 -0.014001291 -0.3209064 0.0018926002 0.16462657 -0.23294154
0.21486744 0.13121888 -0.044292033 0.14950842 -0.08750881 -0.0042364243 -0.048315182 -0.098920904
0.08811258 0.15777 0.064123586 -0.027994975 0.21678053 0.08455877 0.046426993 -0.077292316
0.01272475 0.025013372 -0.14828245 0.370897 -0.09770031 -0.029971268 0.08119768 0.24037707
0.052448608 -0.0911985 -0.11813803 -0.28819233 0.06335286 -0.021655269 0.029422019 -0.1496971
-0.011100587 0.027525209 -0.019597953 -0.10768619 -0.035134442 -0.27687502 -0.060627986 0.007749006
-0.16279057 0.06300367 -0.03995073 -0.006539289 -0.048070677 0.07006646 0.10802753 0.16426483
-0.040885914 0.04093104 -0.079464115 0.0074943304 -0.01355993 -0.021656783 0.10732603 0.10906051
0.12623392 0.040321954 -0.14123052 0.04092731 0.10714275 0.31912988 0.02424676 0.055785872
0.0410965 0.08405856 -0.19119772 0.08070357 -0.18334736 0.12071939 -0.05092776 -0.08351524
0.11793991 -0.0119651705 0.020112142 0.05720951 -0.070528 -0.112561956 0.047725253 0.077376224
0.07755244 -0.14835174 0.04070621 0.15844317 0.17131457 -0.010705252 -0.03591442 -0.056331113
0.076743826 0.06702046 -0.17875466 0.24551867 -0.09656046 -0.0470131 0.17949621 0.03701591
0.16441855 0.2563901 0.007831851 -0.17994034 -0.046129458 -0.0041066576 -0.09489171 -0.09299682
0.043938145 -0.069426276 0.09619363 -0.115218356 -0.07607399 0.16719526 0.082613125 -0.32024485
0.12039475 0.13695227 0.10796263 -0.11849877 -0.02996273 -0.11846041 0.1793783 -0.058693193
-0.096381776 -0.004295714 -0.022562126 0.156603 0.19586575 0.016269743 -0.022629336 0.0564826
-0.090275794 -0.15932411 0.11531557 -0.035019726 -0.1039124 0.049401555 0.10018861 -0.0246013
-0.024499815 0.03226184 0.011903308 0.0007717293 -0.007996522 -0.04230722 -0.1880928 -0.19214322
0.07995738 0.045249876 -0.0121046975 0.24186233 0.12249448 -0.07371419 0.00894158 0.0034134388
-0.051599115 -0.0607216 0.24128838 -0.027865455 0.14554718 0.0020992756 0.13439581 0.07684828
-0.14965045 -0.0383443 0.14816125 0.055887207 -0.040393382 0.05733274 0.12066132 -0.11062428
0.05596881 -0.16878174 -0.06915561 0.047777407 -0.123954654 -0.20835027 -0.15369427 -0.11754707
-0.010549352 -0.035295866 0.0079020485 -0.014742292 -0.11164586 0.03954591 0.29280305 -0.082738966
-0.20877866 0.14255196 -0.07768825 -0.13021082 0.043840706 0.20791534 0.13456544 0.091645345
0.10908871 0.042127155 -0.06330617 -0.05504089 -0.2090742 -0.11404272 0.12547374 -0.08013136
0.020051748 0.20284504 0.012412973 0.11063818 0.035940863 0.13230106 -0.26381567 -0.020021975
0.01963533 -0.021017564 -0.11395469 0.320585 -0.029336814 -0.15298517 -0.15823641 0.13171786

critic.fc2.weight f4 [128, 256]
00000000: 0000 0000 0000 0000 0000 0000 0000 0000
00000010: 0000 0000 0000 0000 0000 0000 0000 0000
00000020: 0000 0000 0000 0000 0000 0000 0000 0000
00000030: 0000 0000 0000 0000 0000 0000 0000 0000
00000040: 0000 0000 0000 0000 0000 0000 0000 0000
00000050: 0000 0000 0000 0000 0000 0000 0000 0000
00000060: 0000 0000 0000 0000 0000 0000 0000 0000
00000070: 0000 0000 0000 0000 0000 0000 0000 0000
00000080: 0000 0000 0000 0000 0000 0000 0000 0000
00000090: 0000 0000 0000 0000 0000 0000 0000 0000
000000a0: 0000 0000 0000 0000 0000 0000 0000 0000
000000b0: 0000 0000 0000 0000 0000 0000 0000 0000
000000c0: 0000 0000 0000 0000 0000 0000 0000 0000
000000d0: 0000 0000 0000 0000 0000 0000 0000 0000
000000e0: 0000 0000 0000 0000 0000 0000 0000 0000
000000f0: 0000 0000 0000 0000 0000 0000 0000 0000
00000100: 0000 0000 0000 0000 0000 0000 0000 0000
00000110: 0000 0000 0000 0000 0000 0000 0000 0000
00000120: 0000 0000 0000 0000 0000 0000 0000 0000
00000130: 0000 0000 0000 0000 0000 0000 0000 0000
00000140: 0000 0000 0000 0000 0000 0000 0000 0000
00000150: 0000 0000 0000 0000 0000 0000 0000 0000
00000160: 0000 0000 0000 0000 0000 0000 0000 0000
00000170: 0000 0000 0000 0000 0000 0000 0000 0000
00000180: 0000 0000 0000 0000 0000 0000 0000 0000
00000190: 0000 0000 0000 0000 0000 0000 0000 0000
000001a0: 0000 0000 0000 0000 0000 0000 0000 0000
000001b0: 0000 0000 0000 0000 0000 0000 0000 0000
000001c0: 0000 0000 0000 0000 0000 0000 0000 0000
000001d0: 0000 0000 0000 0000 0000 0000 0000 0000
000001e0: 0000 0000 0000 0000 0000 0000 0000 0000
000001f0: 0000 0000 0000 0000 0000 0000 0000 0000
00000200: 0000 0000 0000 0000 0000 0000 0000 0000
00000210: 0000 0000 0000 0000 0000 0000 0000 0000
00000220: 0000 0000 0000 0000 0000 0000 0000 0000
00000230: 0000 0000 0000 0000 0000 0000 0000 0000
00000240: 0000 0000 0000 0000 0000 0000 0000 0000
00000250: 0000 0000 0000 0000 0000 0000 0000 0000
00000260: 0000 0000 0000 0000 0000 0000 0000 0000
00000270: 0000 0000 0000 0000 0000 0000 0000 0000
00000280: 0000 0000 0000 0000 0000 0000 0000 0000
00000290: 0000 0000 0000 0000 0000 0000 0000 0000
000002a0: 0000 0000 0000 0000 0000 0000 0000 0000
000002b0: 0000 0000 0000 0000 0000 0000 0000 0000
000002c0: 0000 0000 0000 0000 0000 0000 0000 0000
000002d0: 0000 0000 0000 0000 0000 0000 0000 0000
000002e0: 0000 0000 0000 0000 0000 0000 0000 0000
000002f0: 0000 0000 0000 0000 0000 0000 0000 0000
00000300: 0000 0000 0000 0000 0000 0000 0000 0000
00000310: 0000 0000 0000 0000 0000 0000 0000 0000
00000320: 0000 0000 0000 0000 0000 0000 0000 0000
00000330: 0000 0000 0000 0000 0000 0000 0000 0000
00000340: 0000 0000 0000 0000 0000 0000 0000 0000
00000350: 0000 0000 0000 0000 0000 0000 0000 0000
00000360: 0000 0000 0000 0000 0000 0000 0000 0000
00000370: 0000 0000 0000 0000 0000 0000 0000 0000
00000380: 0000 0000 0000 0000 0000 0000 0000 0000
00000390: 0000 0000 0000 0000 0000 0000 0000 0000
000003a0: 0000 0000 0000 0000 0000 0000 0000 0000
000003b0: 0000 0000 0000 0000 0000 0000 0000 0000
000003c0: 0000 0000 0000 0000 0000 0000 0000 0000
000003d0: 0000 0000 0000 0000 0000 0000 0000 0000
000003e0: 0000 0000 0000 0000 0000 0000 0000 0000
000003f0: 0000 0000 0000 0000 0000 0000 0000 0000
0.0 0.0 0.0 0.0 0.0 0.0 0.0 0.0
0.0 0.0 0.0 0.0 0.0 0.0 0.0 0.0
0.0 0.0 0.0 0.0 0.0 0.0 0.0 0.0
0.0 0.0 0.0 0.0 0.0 0.0 0.0 0.0
0.0 0.0 0.0 0.0 0.0 0.0 0.0 0.0
0.0 0.0 0.0 0.0 0.0 0.0 0.0 0.0
0.0 0.0 0.0 0.0 0.0 0.0 0.0 0.0
0.0 0.0 0.0 0.0 0.0 0.0 0.0 0.0
0.0 0.0 0.0 0.0 0.0 0.0 0.0 0.0
0.0 0.0 0.0 0.0 0.0 0.0 0.0 0.0
0.0 0.0 0.0 0.0 0.0 0.0 0.0 0.0
0.0 0.0 0.0 0.0 0.0 0.0 0.0 0.0
0.0 0.0 0.0 0.0 0.0 0.0 0.0 0.0
0.0 0.0 0.0 0.0 0.0 0.0 0.0 0.0
0.0 0.0 0.0 0.0 0.0 0.0 0.0 0.0
0.0 0.0 0.0 0.0 0.0 0.0 0.0 0.0
0.0 0.0 0.0 0.0 0.0 0.0 0.0 0.0
0.0 0.0 0.0 0.0 0.0 0.0 0.0 0.0
0.0 0.0 0.0 0.0 0.0 0.0 0.0 0.0
0.0 0.0 0.0 0.0 0.0 0.0 0.0 0.0
0.0 0.0 0.0 0.0 0.0 0.0 0.0 0.0
0.0 0.0 0.0 0.0 0.0 0.0 0.0 0.0
0.0 0.0 0.0 0.0 0.0 0.0 0.0 0.0
0.0 0.0 0.0 0.0 0.0 0.0 0.0 0.0
0.0 0.0 0.0 0.0 0.0 0.0 0.0 0.0
0.0 0.0 0.0 0.0 0.0 0.0 0.0 0.0
0.0 0.0 0.0 0.0 0.0 0.0 0.0 0.0
0.0 0.0 0.0 0.0 0.0 0.0 0.0 0.0
0.0 0.0 0.0 0.0 0.0 0.0 0.0 0.0
0.0 0.0 0.0 0.0 0.0 0.0 0.0 0.0
0.0 0.0 0.0 0.0 0.0 0.0 0.0 0.0
0.0 0.0 0.0 0.0 0.0 0.0 0.0 0.0

critic.fc2.bias f4 [128]
00000000: 0000 0000 3ce4 3c3c 3fde b83b 0000 0000
00000010: f034 103c e924 653c 04fc 7f3c 0000 0000
00000020: 0000 0000 46ae 233c 0000 0000 40e5 093c
00000030: 2eac 5b3c 0000 0000 c1d8 383c 3b47 603c
00000040: 7e1e 053c b846 4d3c d1fb 7a3c 5c06 033c
00000050: 0000 0000 4248 693c 5dc2 e63b 3f9b 7e3c
00000060: 0000 0000 0000 0000 14c1 5c3c d2a6 193c
00000070: 1083 e73b 5882 f43b 179a b93b 0000 0000
00000080: 0000 0000 ce53 303c 806b 153c 0000 0000
00000090: 0000 0000 0000 0000 0000 0000 a112 443c
000000a0: 0000 0000 0000 0000 5617 df3b 8e0e 693c
000000b0: 0000 0000 0000 0000 0ae6 463c 0fd2 613c
000000c0: 93ef c33b 0000 0000 0000 0000 ce4c 073c
000000d0: 116f 6b3c 780d 783c 2c66 e73b 2990 6d3c
000000e0: 0000 0000 0000 0000 0000 0000 0000 0000
000000f0: ec4c 0d3c 0000 0000 928c 0a3c 0af5 fb3b
00000100: fcaf 393c 0000 0000 0000 0000 e17f 753c
00000110: 0000 0000 f691 283c a7a3 363c 277c e23b
00000120: 0000 0000 e573 1c3c 0000 0000 0000 0000
00000130: 09d9 693c 0000 0000 0000 0000 0000 0000
00000140: 0000 0000 0000 0000 5aa8 663c 7e81 0a3c
00000150: 0000 0000 0000 0000 fe1a bd3b 4b5b 003c
00000160: c8f6 0b3c 4f50 5b3c 0000 0000 d072 5e3c
00000170: 0000 0000 0000 0000 0000 0000 afe3 c43b
00000180: ab20 db3b 0000 0000 0000 0000 8910 373c
00000190: 1be4 fd3b 26dd c63b 2631 6e3c 0000 0000
000001a0: 0000 0000 0000 0000 0000 0000 f0b4 353c
000001b0: 0000 0000 0000 0000 0000 0000 0000 0000
000001c0: 0000 0000 0000 0000 1982 cd3b 0000 0000
000001d0: a07b 253c a410 0e3c 081d 7a3c 04ba 803c
000001e0: 0000 0000 0000 0000 0000 0000 0000 0000
000001f0: 09b7 c23b c82c 1c3c 0000 0000 0000 0000
0.0 0.011529025 0.005641728 0.0 0.008801684 0.013985851 0.01562405 0.0
0.0 0.0099902805 0.0 0.008416474 0.01340775 0.0 0.011282147 0.013688858
0.008124946 0.012529068 0.015318827 0.007997122 0.0 0.014238419 0.007042213 0.015539943
0.0 0.0 0.013473768 0.009378152 0.0070651844 0.0074618272 0.005664121 0.0
0.0 0.010762168 0.009119868 0.0 0.0 0.0 0.0 0.011967332
0.0 0.0 0.006808202 0.0142246615 0.0 0.0 0.0121398065 0.013782992
0.005979487 0.0 0.0 0.008258058 0.014369742 0.01513993 0.0070617404 0.0144997025
0.0 0.0 0.0 0.0 0.008624297 0.0 0.008456366 0.007689123
0.011333462 0.0 0.0 0.014984102 0.0 0.010288706 0.011147416 0.006911773
0.0 0.009549116 0.0 0.0 0.014272937 0.0 0.0 0.0
0.0 0.0 0.014078224 0.008453725 0.0 0.0 0.00577104 0.007834266
0.008542724 0.013385846 0.0 0.013577178 0.0 0.0 0.0 0.0060085873
0.006687244 0.0 0.0 0.011173376 0.0077481396 0.0060688434 0.014538085 0.0
0.0 0.0 0.0 0.011090502 0.0 0.0 0.0 0.0
0.0 0.0 0.0062716124 0.0 0.010100275 0.00867096 0.015265711 0.0157137
0.0 0.0 0.0 0.0 0.0059422296 0.009532161 0.0 0.0

critic.value_head.weight f4 [1, 128]
00000000: 0000 0000 5ce0 d1bf d02e bfbf 0000 0000
00000010: 55d5 01c0 9734 0bc0 a267 f4bf 0000 0000
00000020: 0000 0000 44ec c1bf 0000 0000 e421 e0bf
00000030: 70f3 ddbf 0000 0000 d0be b4bf b71b 01c0
00000040: 781a e9bf c60b a0bf 1072 cabf 806a fdbf
00000050: 0000 0000 f64c cabf b6a9 d9bf 20bc c6bf
00000060: 0000 0000 0000 0000 445c d2bf 36be fdbf
00000070: 54db c9bf 580f dcbf a4c9 e8bf 0000 0000
00000080: 0000 0000 5674 d6bf 3cc6 cdbf 0000 0000
00000090: 0000 0000 0000 0000 0000 0000 e248 b9bf
000000a0: 0000 0000 0000 0000 2068 01c0 c4bc debf
000000b0: 0000 0000 0000 0000 3c8e d2bf 70b1 d3bf
000000c0: 40b3 f1bf 0000 0000 0000 0000 4c46 d9bf
000000d0: 02e1 eabf 6891 fdbf 7c15 dbbf 2483 c3bf
000000e0: 0000 0000 0000 0000 0000 0000 0000 0000
000000f0: 500e abbf 0000 0000 0860 c0bf 9c64 d9bf
00000100: e4d6 d5bf 0000 0000 0000 0000 9e31 d2bf
00000110: 0000 0000 f4b6 abbf c882 dabf f83c febf
00000120: 0000 0000 4390 01c0 0000 0000 0000 0000
00000130: 7011 cfbf 0000 0000 0000 0000 0000 0000
00000140: 0000 0000 0000 0000 a057 ccbf d063 bdbf
00000150: 0000 0000 0000 0000 f42a e6bf e6fa d7bf
00000160: 88b8 d5bf 2c1a e3bf 0000 0000 6b29 00c0
00000170: 0000 0000 0000 0000 0000 0000 7e24 09c0
00000180: b8df bdbf 0000 0000 0000 0000 0090 b2bf
00000190: 2c15 b7bf 80f2 e8bf 984e b9bf 0000 0000
000001a0: 0000 0000 0000 0000 0000 0000 c2a4 e4bf
000001b0: 0000 0000 0000 0000 0000 0000 0000 0000
000001c0: 0000 0000 0000 0000 5887 e1bf 0000 0000
000001d0: a08a eabf 4e9b c0bf 2443 ffbf 48a2 cebf
000001e0: 0000 0000 0000 0000 0000 0000 0000 0000
000001f0: e46c ebbf 8037 e6bf 0000 0000 0000 0000
0.0 -1.6396594 -1.4936161 0.0 -2.0286458 -2.1750848 -1.9094126 0.0
0.0 -1.5150228 0.0 -1.7510343 -1.7339916 0.0 -1.4120731 -2.0173166
-1.8211203 -1.2503593 -1.5816059 -1.9798126 0.0 -1.5804737 -1.7004917 -1.5526161
0.0 0.0 -1.6434407 -1.9823673 -1.5770059 -1.7192183 -1.8186536 0.0
0.0 -1.6754253 -1.6076121 0.0 0.0 0.0 0.0 -1.4475367
0.0 0.0 -2.0219803 -1.7401357 0.0 0.0 -1.6449656 -1.6538525
-1.8882828 0.0 0.0 -1.6974578 -1.8349917 -1.981 -1.7115932 -1.5274396
0.0 0.0 0.0 0.0 -1.3363743 0.0 -1.5029306 -1.6983829
-1.6706204 0.0 0.0 -1.6421392 0.0 -1.3415208 -1.7071161 -1.9862356
0.0 -2.02443 0.0 0.0 -1.6177197 0.0 0.0 0.0
0.0 0.0 -1.5964241 -1.4796085 0.0 0.0 -1.7981858 -1.6873443
-1.669694 -1.7742362 0.0 -2.002528 0.0 0.0 0.0 -2.1428523
-1.4833899 0.0 0.0 -1.3950195 -1.4303336 -1.8199005 -1.447711 0.0
0.0 0.0 0.0 -1.786278 0.0 0.0 0.0 0.0
0.0 0.0 -1.7619429 0.0 -1.8323555 -1.5047395 -1.9942365 -1.6143274
0.0 0.0 0.0 0.0 -1.8392606 -1.7985687 0.0 0.0
