client/temp_files/thread_1/tmp/gradient_policy_2.pt (torch, 339251 bytes, 11 tensors)

actor.fc1.weight f4 [256, 21]
00000000: 023a 33c2 5eb3 f3c1 5d2a 9542 92ad a942
00000010: 5b2b 8842 b027 8d42 43a4 2742 5897 d042
00000020: 1c5a 1bc3 b869 15c3 4c6f 07c3 b0ba d5c1
00000030: 0c9b aac1 7ec7 f9c1 6961 31c2 5b1a d5c1
00000040: 8e0b 6fc1 5bc1 0dc2 4cce 4cc2 e5ca 03c2
00000050: 7149 b8c1 af02 49c0 2cfa 2bbf caad 0842
00000060: 7cc1 db41 8315 3c42 653b f940 3384 5e42
00000070: 821b a441 a372 f5c1 2ba3 1ec2 020c c8c1
00000080: bb53 c1bf 1063 a6c0 3eda 2bc1 1535 23c1
00000090: 332f 64c0 40f5 b6bd a878 9cbf f237 2ec0
000000a0: 985f 8cc1 de93 36c1 a88b f0c1 701f f440
000000b0: 0a89 2ac2 ca60 debf 5a58 6bc2 3fc7 f6c1
000000c0: 4a8c 8ec2 ec88 3042 c09e 24c3 ab5f 29c3
000000d0: f27b 17c3 d5f4 b7c1 6323 cac1 bc2c 22c2
000000e0: b06f 43c2 3206 14c2 c0a7 d1c1 f0e9 2ec2
000000f0: e6d1 5ec2 0a9c b6c1 a9c8 68c1 8d61 6cc2
00000100: 62fb 20c2 f2b5 7142 d128 e242 a410 a642
00000110: f50c b442 7b8b 8641 c415 ed42 f4e5 40c3
00000120: 8ced 47c3 01c5 29c3 0d73 0fc2 0247 dac1
00000130: 93c4 03c2 99f0 5dc2 a88e 0fc2 e8bc f6c1
00000140: 0af1 30c2 d488 73c2 02ba 12c2 d9cf fdc1
00000150: cae8 34c2 f179 dec1 c42b ae42 ce7f a042
00000160: 61d7 bf42 48a2 7942 15c8 6642 2463 c342
00000170: 1255 29c3 d1b8 28c3 d031 14c3 cbef f4c1
00000180: 18fa c9c1 50ab 0dc2 23c5 3fc2 8b83 e7c1
00000190: c91a abc1 46d7 12c2 eb33 53c2 8a53 08c2
000001a0: 7bab dac1 2887 04c2 1aa3 b8c0 d606 5741
000001b0: af18 f2c2 7eb4 ff41 fb0b 87c2 14bf 5742
000001c0: fe3d bbc2 687b 0bc3 2664 1ec3 d227 05c3
000001d0: 5884 aec1 fa7d b5c1 5893 f8c1 f01f 3ac2
000001e0: 4a00 d1c1 6d1a ccc1 01d1 16c2 6b9c 26c2
000001f0: 597e a4c1 db86 b7c1 9c4c 3fc2 2a71 ffc0
00000200: 3eee c742 9647 4f41 681a a942 74d2 0142
00000210: 7936 c242 db7c 59c1 5fc9 d1c2 5760 fdc2
00000220: e45b d5c2 eeb2 c3c1 8f2a 9ec1 04be 03c2
00000230: 289c 1bc2 3fb0 a2c0 71c3 a4c1 2dfd 9dc1
00000240: 187b d1c1 6402 bdc1 249d d6c1 8f8e 4bc2
00000250: d664 66c1 a6d7 b942 f6c6 2142 a8da ea42
00000260: 6c26 fc41 cebd bd42 2787 da40 75f7 edc2
00000270: d85f 10c3 a0fd ebc2 cec0 cdc1 805e 99c1
00000280: 46aa abc1 e8b2 2bc2 d29c 52c1 2f8c aec1
00000290: ebd0 d4c1 2c26 22c2 5240 ddc1 3505 ccc1
000002a0: 8838 86c1 d8f1 00c2 dece 1ac2 b5a5 a2c2
000002b0: 8016 9e3e 26a3 44c2 91e9 79c2 4e24 c141
000002c0: cca2 c8c2 5f73 aac2 c72f 94c2 c310 a9c1
000002d0: 9524 e8c0 e49e 86c1 f359 a2c1 a42d b8c1
000002e0: 91a7 c3c1 aff8 e5c1 529a d3c1 d0eb c6c0
000002f0: a3eb 51c1 f1e5 0fc2 e01c f040 c460 9640
00000300: 27bd fcc2 c9d0 0442 daa9 a1c2 6851 0c42
00000310: 73b3 93c2 3687 00c3 d94e 03c3 857d dbc2
00000320: 744c 9cc1 9ad5 a5c1 7663 dbc1 83b8 0bc2
00000330: b75d c7c1 4a2c dcc1 9552 e8c1 5150 10c2
00000340: 4e7e 95c1 8790 9ac1 6cc2 4540 2e67 ac40
00000350: dcc1 b540 f699 67c2 aaaf 0bc2 3282 47c2
00000360: 2901 98c1 56af 45c2 b312 40c2 c44f 2ec2
00000370: 73f1 43c2 1017 17c1 54dc 03c1 1614 6dc1
00000380: 8e97 72c0 23b9 65c1 988f abc0 a3fe b8c1
00000390: caf9 f5c0 f925 bcc0 f076 0cc1 e343 3cc2
000003a0: 5dc5 16c2 34f7 0d40 e0dd 2842 6d5b 9c41
000003b0: 87c4 2942 f253 3340 ec25 9242 41cf 57c3
000003c0: 9cb6 53c3 afb3 35c3 4699 16c2 dfab d7c1
000003d0: 23c9 18c2 687d 64c2 c2f6 1cc2 2542 01c2
000003e0: 95a3 41c2 9329 7fc2 0c25 35c2 cc2b 11c2
000003f0: 8972 d1c0 c883 b6c1 f4d8 2dc2 34ae c542
-44.80665 -30.462582 74.58274 84.839005 68.08468 70.577515 41.91041 104.29559
-155.35199 -149.41296 -135.43475 -26.716156 -21.325706 -31.222408 -44.345127 -26.637869
-14.940321 -35.438824 -51.20146 -32.94814 -23.03586 -3.1407888 -0.67178607 34.169716
27.469475 47.021008 7.7885003 55.6291 20.513432 -30.680975 -39.659344 -25.005863
-1.5103678 -5.1995926 -10.740782 -10.2004595 -3.5653808 -0.089334965 -1.2224321 -2.7221646
-17.546677 -11.4111 -30.068192 7.6288376 -42.633827 -1.7373288 -58.83628 -30.847288
-71.274 44.133713 -164.62012 -169.3737 -151.48416 -22.994547 -25.267279 -40.543686
-48.85907 -37.00605 -26.20691 -43.728455 -55.70498 -22.82619 -14.548989 -59.095264
-40.24549 60.42768 113.07972 83.0325 90.02531 16.818106 118.54251 -192.89825
-199.92792 -169.76955 -35.862354 -27.284672 -32.941967 -55.48496 -35.889313 -30.84224
-44.23539 -60.88362 -36.68165 -31.726488 -45.227333 -27.809542 87.08548 80.24962
95.92066 62.408478 57.695393 97.693634 -169.3323 -168.72194 -148.19458 -30.617086
-25.247116 -35.417297 -47.942516 -28.93923 -21.388079 -36.710228 -52.8007 -34.08158
-27.33373 -33.13199 -5.76991 13.439169 -121.04821 31.96313 -67.5234 53.9366
-93.62108 -139.48206 -158.3912 -133.15555 -21.814621 -22.686512 -31.071945 -46.53119
-26.125141 -25.512903 -37.704105 -41.652752 -20.561693 -22.940847 -47.824814 -7.982564
99.96532 12.954977 84.551575 32.45552 97.10639 -13.592982 -104.8933 -126.68816
-106.679474 -24.462368 -19.77078 -32.935562 -38.902496 -5.0840144 -20.59543 -19.748621
-26.185104 -23.626167 -26.826729 -50.889217 -14.399618 92.92119 40.444298 117.42706
31.51876 94.87071 6.828998 -118.983315 -144.37439 -117.99536 -25.719143 -19.171143
-21.458141 -42.924713 -13.163286 -21.818449 -26.60201 -40.537277 -27.656406 -25.502542
-16.777603 -32.236176 -38.70202 -81.32365 0.3087654 -49.159325 -62.478092 24.142727
-100.31796 -85.225334 -74.093315 -21.133184 -7.2544656 -16.827583 -20.29392 -23.022285
-24.45682 -28.746428 -26.450352 -6.2162857 -13.1200285 -35.974552 7.503525 4.699312
-126.36944 33.20389 -80.83174 35.0795 -73.85049 -128.52817 -131.308 -109.745155
-19.53733 -20.729298 -27.423565 -34.930187 -24.92076 -27.521626 -29.040323 -36.078434
-18.686672 -19.32057 3.0899916 5.387595 5.6799145 -57.900352 -34.921547 -49.877144
-19.000566 -49.421227 -48.01826 -43.577896 -48.98579 -9.4431305 -8.241291 -14.817404
-3.7905002 -14.357699 -5.3612785 -23.124334 -7.686742 -5.8796353 -8.779037 -47.066296
-37.692738 2.218213 42.216675 19.544641 42.44192 2.8019986 73.074066 -215.80959
-211.71332 -181.70189 -37.64968 -26.958921 -38.196423 -57.122467 -39.240974 -32.314594
-48.409748 -63.7906 -45.28618 -36.29277 -6.5452313 -22.814346 -43.46187 98.84024

actor.fc1.bias f4 [256]
00000000: 7314 b0c3 cb8d 98c2 f230 c2c3 cc09 e1c3
00000010: e27f c2c3 5b69 acc3 eb4d 87c3 8f8a 98c3
00000020: 94b5 4fc3 20d5 93c3 5dee e0c2 9eb0 f3c3
00000030: a298 b4c3 52f3 e0c3 e0b5 9fc3 201a 95c3
00000040: caf9 d9c3 3e1a 85c3 af22 6cc3 6b01 e6c3
00000050: 2fbe 94c3 912b 9bc3 e05f 15c3 501f 95c3
00000060: ded5 67c3 1278 bfc3 07c3 d6c3 5e1f c4c3
00000070: 5f26 cac3 7e99 9fc3 929e 3dc2 9804 f1c3
00000080: 7234 3dc3 7041 78c3 97ef e5c3 3c67 c6c3
00000090: 0981 a5c3 abde b0c3 0119 06c4 2e78 aac2
000000a0: efaa bbc3 209b dac3 021a c1c3 1d65 73c3
000000b0: 0ea4 4ec3 5b80 e0c3 f3fc cfc3 6131 b5c3
000000c0: cdc9 ccc3 2311 72c3 98ce c5c3 6e06 a6c3
000000d0: dbe4 f0c3 01e8 90c3 5cbd 52c3 d20f c8c3
000000e0: d568 b6c3 fbb4 91c3 e019 dac3 593f e9c2
000000f0: ddb8 97c3 2140 c1c3 7e71 86c3 783b 05c4
00000100: 8ffe b6c3 8ff8 dec3 655b 87c3 3835 8bc3
00000110: 881d a7c3 0f81 dfc3 eefa ccc3 7c0f b9c3
00000120: 620a 01c4 d685 e6c2 a23f d5c3 cfc5 f2c3
00000130: 00e4 7ac3 ff93 b3c3 1494 f4c3 229f ddc3
00000140: 6444 18c3 403d bbc3 8241 f2c3 b237 9dc3
00000150: 43a4 a7c3 4234 49c3 fec7 bbc3 9e0a dec3
00000160: d0f8 e1c3 9297 d1c3 6116 e5c3 266e 98c3
00000170: 1fcb b2c3 b993 f1c2 6500 c5c3 18b8 b5c3
00000180: 4b0e ccc3 af21 04c4 1bf3 a1c3 af3f bfc3
00000190: 9c0c b3c3 f6f6 cfc3 e322 a0c3 992b 01c4
000001a0: baa1 ecc3 527a 0cc4 48b1 a3c3 fd59 9bc3
000001b0: 1c4d 8cc3 83a0 01c4 2538 8fc3 a6d8 cac3
000001c0: ea08 cbc3 29e7 93c3 ad05 b2c3 d67b 17c2
000001d0: 288d cfc3 5dfc b3c3 236e 93c3 9555 e1c3
000001e0: 1802 bac3 d900 a4c3 e660 8ac3 8a3f 9ec3
000001f0: 4e81 8bc3 b1e6 afc3 28bf f0c3 768d cdc3
00000200: 85f0 34c3 e6cc aec3 19a9 ebc3 7e74 24c3
00000210: 0084 50c3 ffbc 94c3 cd7f c0c3 c3f5 c9c3
00000220: 166f 9fc3 b481 0ec4 ec8e cec3 2350 e5c3
00000230: 1227 f7c3 8048 c4c3 21c9 81c3 645b cbc3
00000240: 6daf 46c3 6ff7 88c3 dfb7 4fc3 2c27 6ec3
00000250: d8ad edc3 8a6d 83c3 b639 a9c3 a2fa 5fc3
00000260: 3414 6dc3 55ec d5c3 3da3 05c4 8e29 b9c3
00000270: ff0e d5c3 93bc 4dc3 50c4 a2c3 9ed5 45c3
00000280: 5e56 bac3 08ec b5c3 e67a f5c3 57da 96c3
00000290: f2df c6c3 1351 c8c3 392a 11c3 a72a f5c2
000002a0: 1f05 a4c3 59f4 a2c3 fbd6 86c3 f674 f2c3
000002b0: 5e35 cac3 a52d 84c3 00ef 1fc3 84bb dac3
000002c0: 88a5 83c3 1830 9bc3 0ad0 48c3 6427 e9c3
000002d0: f8ff e4c3 7a4a ccc3 28d7 48c3 b091 f0c3
000002e0: b27e a3c3 235f 9dc3 0b78 76c3 79d5 c9c3
000002f0: 1eeb b2c3 cb3d f7c3 3c27 43c3 ba6e a4c3
00000300: 4a47 02c3 3341 63c3 da0a abc3 d8f1 d6c3
00000310: 2560 87c3 9ad3 cac3 9faf c7c3 4938 d5c3
00000320: db64 2dc3 6cdc c2c3 6d9f cbc3 4b7e eec3
00000330: 6685 2ec3 7620 94c3 ab8a f2c3 c430 e9c3
00000340: 92be ccc3 afa4 83c3 c20f a3c3 f227 e7c3
00000350: 20aa 79c3 e2bb 77c2 8ba2 a5c3 b7b3 fbc3
00000360: c995 e1c3 c009 bbc3 fa45 91c3 f98e c8c3
00000370: 41f5 adc3 a233 a4c3 d122 86c3 edba bac3
00000380: 0db8 8cc3 9eb6 9fc3 03d4 59c3 4fee f6c3
00000390: 839f 72c3 2705 87c3 77b1 6fc3 8bbe a0c3
000003a0: d4d3 8bc3 6cea 8ec3 040c a5c2 6891 3dc3
000003b0: 7a6f 8fc3 c37b 83c3 6cd4 aac3 4315 bfc3
000003c0: e469 c4c3 ea89 c8c3 0ce8 dfc2 d949 7dc3
000003d0: e665 98c3 2fde 94c3 8c8a f6c2 ee04 c6c3
000003e0: e3a8 04c3 aabc acc3 f6e9 cfc3 70fc e8c3
000003f0: 9f5b a2c3 b274 dec3 d49c 9dc3 e72c 8ac3
-352.15976 -76.27694 -388.3824 -450.07654 -388.99908 -344.8231 -270.60873 -305.0825
-207.70929 -295.66504 -112.46555 -487.37982 -361.19244 -449.90094 -319.4209 -298.2041
-435.95148 -266.20502 -236.13548 -460.01108 -297.4858 -310.34036 -149.37451 -298.24463
-231.83542 -382.93805 -429.52365 -392.24506 -404.29977 -319.19916 -47.404854 -482.0359
-189.20486 -248.25562 -459.8718 -396.80652 -331.0081 -353.7396 -536.3907 -85.234726
-375.33542 -437.2119 -386.2032 -243.39497 -206.64084 -449.00278 -415.97617 -362.38577
-409.57657 -242.06694 -395.614 -332.05023 -481.78793 -289.81253 -210.73969 -400.1236
-364.819 -291.4139 -436.20215 -116.623726 -303.44424 -386.501 -268.88666 -532.9292
-365.98874 -445.94186 -270.71402 -278.41577 -334.2307 -447.00827 -409.9604 -370.12097
-516.16223 -115.2614 -426.49713 -485.54538 -250.89062 -359.15622 -489.15686 -443.24323
-152.26715 -374.47852 -484.51178 -314.43512 -335.2833 -201.20413 -375.56244 -444.08295
-451.94385 -419.18414 -458.17484 -304.86053 -357.58688 -120.78852 -394.00308 -363.43823
-408.11166 -528.5263 -323.89926 -382.49753 -358.0985 -415.92938 -320.27255 -516.6812
-473.2635 -561.91125 -327.385 -310.70303 -280.60242 -518.508 -286.43863 -405.69257
-406.06964 -295.80594 -356.04434 -37.870934 -415.10278 -359.9716 -294.86044 -450.6686
-372.01636 -328.00662 -276.75702 -316.4964 -279.0102 -351.80228 -481.4934 -411.10516
-180.93953 -349.60077 -471.32108 -164.45505 -208.51562 -297.47653 -384.99844 -403.92
-318.86786 -570.0266 -413.11658 -458.62607 -494.30524 -392.5664 -259.57132 -406.714
-198.68526 -273.93307 -207.71825 -238.15302 -475.35815 -262.85577 -338.45087 -223.97903
-237.07892 -427.84634 -534.5506 -370.32465 -426.11716 -205.73662 -325.5337 -197.83444
-372.67474 -363.844 -490.96014 -301.70578 -397.74957 -400.6334 -145.16493 -122.583305
-328.04 -325.90897 -269.67953 -484.91376 -404.41693 -264.3566 -159.9336 -437.46497
-263.2932 -310.37573 -200.81265 -466.30774 -457.99976 -408.58185 -200.84045 -481.13818
-326.9898 -314.74326 -246.46892 -403.66776 -357.83685 -494.48276 -195.15326 -328.86505
-130.27847 -227.25468 -342.08478 -429.8894 -270.75113 -405.65314 -399.37204 -426.43973
-173.39397 -389.72205 -407.2455 -476.98666 -174.52109 -296.2536 -485.08334 -466.38098
-409.48883 -263.2866 -326.1231 -462.31207 -249.66455 -61.93348 -331.26987 -503.40402
-451.1702 -374.07617 -290.5467 -401.11697 -347.91605 -328.40338 -268.272 -373.46036
-281.4379 -319.4267 -217.82817 -493.8618 -242.6231 -270.04025 -239.69322 -321.48862
-279.6549 -285.83142 -82.52347 -189.568 -286.8709 -262.9669 -341.65955 -382.1661
-392.82727 -401.07745 -111.95322 -253.28847 -304.79608 -297.7358 -123.2706 -396.0385
-132.65971 -345.47394 -415.82782 -465.97217 -324.7158 -444.91168 -315.22522 -276.3508

actor.fc2.weight f4 [128, 256]
00000000: caf9 233e aee5 d1bb f649 ab3d 8a85 d63d
00000010: 417e 2a3e aac8 9d3d 24e0 f33c eef3 403d
00000020: bae2 413d 60fb af3d 1002 593c ad68 313e
00000030: 053a 243d daa5 84bc fbad c03d dc01 8e3d
00000040: cfb3 043e 52f5 413e 757b 243d 4895 a83d
00000050: 4737 23bd 5b02 af3d 685d dd3b 0843 753d
00000060: 51e8 7f3c ac19 da3d f090 4e3e 0a26 203e
00000070: 8052 2e3e 4add a43c 7f23 243c 2461 84bc
00000080: 4011 a83d 33eb 823d 5afd 803e 7057 e1b9
00000090: e736 e63b 3823 9a3d d58b 763e 9dae 49bd
000000a0: 6382 c13d bf7b 993d f7ca 633d f378 5a3d
000000b0: fed8 403d 6470 6a3d c756 d33d 7619 22bc
000000c0: 59cd 363e dac3 1c3e b831 0b3d 1366 283e
000000d0: 45e4 d83d 1dfd 843d 1c72 0f3d e262 1dbd
000000e0: ed59 323e 1039 10bc ba77 75bb f5a1 96bc
000000f0: 3045 b13d a781 803d 0aec c03c d6cb 8b3e
00000100: 59c7 643e 52f7 803e f50e 423d 74f1 093e
00000110: 95e0 0c3e 5725 6f3e e26e e83c 82d7 a03d
00000120: 18c8 ca3b a1dd eabb 1d58 1e3e 4778 c43d
00000130: e25b 343d 6983 eb3d 3f29 a33e 1598 983d
00000140: 32aa 3abc 2062 293d ead8 b23c 4ca7 0e3e
00000150: 1716 493d 42ea 7e3d 2e77 903d 9dea 253e
00000160: abfd 313d cdb7 1d3e 0858 233e 8401 bf3d
00000170: b289 fe3c 1aeb 7e3d 7ce8 e23d d71e 183e
00000180: 7fbc 043e f9ba c13d a5b7 8b3d 0406 1a3e
00000190: 55db f33d b833 65bc 0b37 cf3c 7825 4b3e
000001a0: f12f 843e d37b 9e3e e064 073e 3077 ad3d
000001b0: b8b4 ef3d 9b1b 673e 1bb1 8c3d 442c e73b
000001c0: 3af7 1e3e 925c 29bd e5a3 b73d 6a6b dcba
000001d0: a717 043e dd3e b43d 92d1 3b3e 6a3b ec3d
000001e0: 4c69 193e c7b9 f13d 8ba9 913d a981 433c
000001f0: 247c 283d 3c72 993d 05f1 d43d 38cf 1a3d
00000200: fae4 b5bd 8c11 2a3e 5576 873e 83d7 41bb
00000210: 0060 c03b a65d 853d 0126 743e 8555 d83d
00000220: 31e9 1f3d 9340 5e3d 82c4 9a3d 573c cf3d
00000230: cbe2 6b3e 5b38 413e c943 9a3c 5b79 603d
00000240: 4634 cfbc 7ecb a53d 34ee 753d 3009 6d3d
00000250: ba10 983d 6a28 f7bb f7e5 f5bd c5aa a53d
00000260: 01ae f13d 8067 0d3e 0c2a 253e c46b 493c
00000270: ebb9 e13d 546f 573d 0780 9c3d edd0 9b3c
00000280: b5ab f33d 95d6 bc3c 3af1 533e 8ee9 943d
00000290: b6e8 1a3e 8998 f13d d83d 5d3d 1673 813b
000002a0: 2d24 653d 1e6a 283e 1502 0d3d 9c6e 3d3d
000002b0: a418 853e e907 0e3e 483c d03d e726 fa3d
000002c0: 9896 693d bb74 9a3d b06a d9b8 34d4 6c3e
000002d0: b496 e23d c2be 173e 9515 2c3d a28f 31bd
000002e0: f962 9a3e 7308 e13d be91 2b3d d3ac 01bd
000002f0: 6c78 f23d c322 363e 7db3 343c d2b1 f63d
00000300: 2b9e b33c 7cb3 693c e3cd 463d 321d fa3d
00000310: 192c 053e 7b32 853d 808e 2c3e 3722 073e
00000320: 598e 3c3d 3f29 e0bd dd49 b53d b346 3e3e
00000330: 9042 0f3d c5b1 5ebc 08e4 e93d 978b a53a
00000340: 11d9 633e b403 853d cd92 ac3d 826a 453e
00000350: 06eb 573d e41e fb3c 7cb0 cc3d 8193 a43e
00000360: 364a d43d 2156 803d 7c14 8d3d e4b9 d63d
00000370: dfce 403d e8c2 783d 2d1e 193e f0a7 fc3d
00000380: 5e6e cf3d cf8b d53d 982b 023c 9ac4 5e3e
00000390: e89e 453d b02b 93bd 6929 37bc 5aec ae3d
000003a0: c15c 1a3e 2a8c 07bc 8406 423d ec4c e43c
000003b0: 3f79 d13d 4c93 80bd d9e5 bc3d 410e a53e
000003c0: d449 3f3d 004d 733d 4bc9 843c f4af 3abd
000003d0: 5ad6 743c 78ec b4ba 5bed d83b b208 373c
000003e0: f69e fa3c 57dc d73d a25d 4b3e e69c 0d3e
000003f0: 8fe1 3d3d 544b 4e3d 22aa 403d 96f2 67bc
0.16013256 -0.006405554 0.08363716 0.10474689 0.16649725 0.07704289 0.029769965 0.04710763
0.047335364 0.08592868 0.013245121 0.17325087 0.040094394 -0.016192365 0.09408184 0.069339484
0.12959217 0.18941239 0.0401568 0.08231598 -0.03984764 0.08545371 0.0067555197 0.05987838
0.015619353 0.10649428 0.20172477 0.15639511 0.17023659 0.02012505 0.010018229 -0.016159602
0.08206415 0.06392517 0.25193292 -0.0004298049 0.007025588 0.07526249 0.24076779 -0.04923879
0.094486974 0.07494306 0.055613484 0.053338002 0.04708194 0.05723609 0.10319286 -0.009893766
0.17851771 0.15309086 0.033982962 0.16445188 0.10590414 0.0649359 0.035020933 -0.03842438
0.17417116 -0.008802667 -0.0037455396 -0.018387774 0.086557746 0.06274729 0.023550052 0.27303952
0.2234167 0.2518869 0.047377545 0.13471013 0.13757546 0.23354088 0.028373186 0.07853605
0.006188404 -0.0071675335 0.154633 0.095932536 0.04403294 0.11499674 0.31867406 0.07450882
-0.011393117 0.041353345 0.021831948 0.13931006 0.049093332 0.062235124 0.07053982 0.16202779
0.043454807 0.15402146 0.1595155 0.09326461 0.031071518 0.06223593 0.11079499 0.14855514
0.1296253 0.0945949 0.06822137 0.15041357 0.11907069 -0.0139893815 0.025294801 0.19838512
0.25817826 0.30953845 0.13222075 0.08469999 0.11704391 0.22569124 0.06869718 0.0070548374
0.15523997 -0.041348048 0.08966807 -0.001681668 0.12899648 0.08801053 0.18341663 0.1153477
0.14981574 0.11803012 0.07112416 0.011932769 0.041134015 0.074924916 0.10397533 0.037795275
-0.088815644 0.16608256 0.26457468 -0.0029577918 0.005870819 0.06512003 0.23842622 0.105631866
0.039040748 0.0542608 0.07557012 0.10118931 0.23035733 0.18869154 0.01883115 0.054803234
-0.02529348 0.08095454 0.06004162 0.05787009 0.07425065 -0.0075426595 -0.12006753 0.08089212
0.11800767 0.13809013 0.16129321 0.01229376 0.11021789 0.052596405 0.07641607 0.019020522
0.11897985 0.02305154 0.2069749 0.072711095 0.15127835 0.11796672 0.054014057 0.003950487
0.055942703 0.1644673 0.034425814 0.046248063 0.25995362 0.13870205 0.10167748 0.12214451
0.057028383 0.07541796 -0.000103672384 0.23127824 0.110639006 0.14818862 0.04201277 -0.04334987
0.30153635 0.1098794 0.041887037 -0.03165896 0.11839375 0.17786698 0.0110291215 0.12045635
0.021926006 0.014263984 0.048536193 0.122126 0.13005103 0.06503769 0.16851234 0.13196646
0.04603419 -0.10945367 0.08851979 0.18581657 0.03497559 -0.013592188 0.11420447 0.0012630102
0.22250773 0.06494847 0.084264375 0.19278911 0.05271437 0.030654378 0.09994599 0.32143787
0.10365717 0.06266428 0.06888673 0.104846746 0.047072288 0.060732752 0.14952917 0.12336719
0.10128473 0.10427057 0.007944964 0.21754685 0.048247248 -0.07186067 -0.011179307 0.08541174
0.15074445 -0.008273164 0.047369495 0.02786871 0.10228204 -0.06278095 0.092235275 0.32237437
0.046701267 0.059399605 0.016209265 -0.04557796 0.0149436835 -0.0013803383 0.006620092 0.011171507
0.030593377 0.10540073 0.19859937 0.13829383 0.046357688 0.050364807 0.04703725 -0.014156958

actor.fc2.bias f4 [128]
00000000: d31b 293f 0540 02c2 e43e 84c2 6291 9d3e
00000010: 681d 4f3e 7c85 0d3e f5cd 393e 7e57 4a3f
00000020: e0df a8c2 58d6 553f 2097 0cc3 9fb5 393f
00000030: 3b74 bac2 04ca eac2 3de6 c1c2 72f3 99c2
00000040: b299 9bc2 a71e a63e 6c4a 08c3 baf5 04c3
00000050: fe0b b13f 5b80 c0c2 2014 0ac2 1473 2d3e
00000060: eb05 e7c2 65d2 91c2 1412 0ec2 0083 cd3f
00000070: 54b1 ccc1 3648 4c3f be52 d1c2 a80a 883d
00000080: a9da ccc2 0721 53c2 9c68 c83e cb1e 323f
00000090: efff 9bc2 560a 3b3f ce4f b73e 17d5 bbc2
000000a0: c106 1ec3 c644 d8c2 e37f fdc2 07af 50c2
000000b0: b69b 0ac3 0acb 88c2 d570 0bc3 c81f 4f3f
000000c0: f8fc 18c2 089a 553e 19e3 813f a5ef ad3e
000000d0: 1524 8bc2 2425 b2c2 5204 16c2 3c77 fbc1
000000e0: ea3d b5c2 4ebd 623f 9448 363c ac8d b33e
000000f0: c0b4 fdc1 b60e 3a3f 14f7 0bc3 25d7 373f
00000100: ff5f 2ac2 943d 1dc2 a514 3cc2 9a27 9ec2
00000110: 6750 91c2 e3a8 eec2 4632 45c2 a05c cfc2
00000120: 2257 05c2 12b0 0fc2 7602 563e 8e77 483f
00000130: 1e6a f9c2 de17 91c2 fcef bfc2 45a8 7dc2
00000140: 0694 cbc2 7b35 7e3f 4a83 903d f4a1 bf3d
00000150: 645d ee3e 930f d63e 6e50 b43f e219 c9c2
00000160: 4c5b 453f 0b69 f4c2 90ad e3c2 03a9 11c3
00000170: 2169 913e 574c a8c2 24df 763f ade4 8939
00000180: 0018 d9c0 1316 883f 11c2 ce3d a284 54c2
00000190: f007 253e 010d 91c2 5121 96c2 0830 e3c2
000001a0: e6a0 513f b6bf 0cc1 2e09 65c2 4771 ebc2
000001b0: fc99 07c3 1236 b0c2 a2ce f0c2 ce52 64c2
000001c0: d6eb 903d dbde 01c3 3f78 0ac3 b461 c8c2
000001d0: 9462 c4c2 5444 7fc2 738a 0b3f fdf2 07c3
000001e0: baa5 c1c2 7afc f3c2 48e5 f9c2 50d9 afc2
000001f0: 92a3 2d3d 0cc9 f43e dea1 0ac3 5959 fbc2
0.6605808 -32.56252 -66.12283 0.3077498 0.20226061 0.13820451 0.18144973 0.7903975
-84.437256 0.8353019 -140.59033 0.72542757 -93.22701 -117.39456 -96.949684 -76.97548
-77.800186 0.3244526 -136.29071 -132.95987 1.3831785 -96.250694 -34.519653 0.1693843
-115.51156 -72.91093 -35.517654 1.6055603 -25.586586 0.79797685 -104.661606 0.066426575
-102.42707 -52.782253 0.3914231 0.69578236 -77.99987 0.73062646 0.35803074 -93.91619
-158.02638 -108.13432 -126.74978 -52.170925 -138.60825 -68.39656 -139.44075 0.8090787
-38.24704 0.2085954 1.014743 0.33971897 -69.57047 -89.07254 -37.50422 -31.43322
-90.620926 0.88570106 0.011125702 0.35069025 -31.713257 0.726787 -139.96515 0.7181266
-42.593746 -39.310135 -47.02016 -79.07735 -72.657036 -119.32986 -49.299095 -103.68091
-33.33509 -35.921944 0.20899376 0.78307426 -124.70726 -72.546616 -95.96872 -63.414326
-101.78911 0.99300355 0.070562914 0.09357062 0.46555626 0.41808757 1.4087045 -100.55055
0.7709243 -122.20516 -113.83899 -145.6602 0.2840052 -84.1491 0.96434236 0.00026301053
-6.7841797 1.0631737 0.10095609 -53.129524 0.16116309 -72.5254 -75.06507 -113.59381
0.81886137 -8.796804 -57.258965 -117.721245 -135.6015 -88.105606 -120.40358 -57.080864
0.07076232 -129.87053 -138.46971 -100.19083 -98.192535 -63.816727 0.5450813 -135.94917
-96.823685 -121.99312 -124.947815 -87.92444 0.04239232 0.47809637 -138.6323 -125.67451

actor.policy_head.weight f4 [50, 128]
00000000: 6b8b f2bc 0c8f 6842 5951 ad42 f207 97bc
00000010: 818c 18bd 63a0 43bc 600e 6fbd 0205 04be
00000020: c4f2 4842 49fb 7b3e 0dfe bf42 66e7 8fbe
00000030: 098b c742 14a8 a342 880c f242 8f65 bf42
00000040: 8440 d642 1b6b 8bbd dae0 f942 7b5e da42
00000050: 3480 56be 67e1 d742 4a2a 6642 be8d 0fbc
00000060: d773 ca42 6043 e042 b66f 8342 4318 7ebd
00000070: b2ab 5542 cd1d 60bd 8bea ab42 ad73 00bc
00000080: 6479 ce42 19a7 bd42 9305 c3bc 1e7e d7bd
00000090: b234 5642 58de 63be bfb8 77bd a1ec b242
000000a0: f6bd 0843 41f9 be42 16b8 b642 dc66 2b42
000000b0: 6e80 0e43 7167 5a42 2eef ed42 186b 13bd
000000c0: ca8d 2442 1a90 a9bc 7907 fb3d b4e6 c2bc
000000d0: 35bc a042 9d91 c442 dba1 8542 64be 5542
000000e0: afd9 5442 f4e0 14be 1095 ffb9 0a05 c13d
000000f0: d234 9542 8058 65bc df6a c442 b45f e0bd
00000100: 9d60 b742 083f 3942 3e64 bf42 c5dc bd42
00000110: 6d82 ab42 d679 b842 0303 4242 edd9 ab42
00000120: caaa 2442 60cb 8342 caff ccbc e181 be3d
00000130: 1dc8 b342 c11e 9e42 3692 db42 e44c 5a42
00000140: 4800 ca42 5231 c43d ce68 b0bb 3730 d9b9
00000150: ee4f 56be 5da2 0ebd ba9e c63e c619 0543
00000160: 5689 46bd 02fd cf42 42e0 e142 a63a fe42
00000170: ccef 023c 96bf bd42 d7e3 f6bd 9800 83ba
00000180: 67d8 6240 6e62 6ebd afc1 80bb 847d a242
00000190: e29b 5cbc af72 f342 abec c042 826d f842
000001a0: a77b 583b 7cfb bc40 5a89 a142 9bc1 c742
000001b0: e772 cd42 12ce 8842 f722 f042 a706 3342
000001c0: 900c 7abb b283 d042 bde9 f242 bea9 df42
000001d0: e475 6442 b25f be42 e010 8fbd 6b26 ce42
000001e0: ba65 7742 abe2 b542 ce1c 9142 9fb6 9e42
000001f0: e2e6 8ebb 55a9 1b3d e982 e542 4ad0 d742
00000200: f08a 543d ab7f 2341 56f8 9241 5333 6cbc
00000210: 9531 85bb f250 30bc 5975 7ebd c999 9bbd
00000220: 3413 1741 0573 eebd 4ef5 b341 f087 40be
00000230: b6a1 9141 5cb2 9541 3ff7 d741 33f9 9641
00000240: 722c a541 2d23 ddbd 42ce dc41 da18 bd41
00000250: 62f1 33bf bc73 cb41 cf0e 1c41 1c41 1cbc
00000260: ec28 9541 9003 b441 babd 3441 a904 72bf
00000270: e810 e940 c7bf c2bd f0fc 8641 9933 653b
00000280: 86a1 9941 8af1 9c41 b83a b9bc 6d99 1ebe
00000290: dbc4 1641 a68b 6bbe 5f44 ffbc 7763 8941
000002a0: 98aa df41 c013 8341 5bed 9541 696c a040
000002b0: c0e4 e341 c2a6 5341 e49a c141 389a c1bd
000002c0: a720 9240 f3b3 a2bc edd4 a0be 4a81 943c
000002d0: e749 8e41 4883 aa41 41ad 2f41 a8f6 1841
000002e0: 58f8 4141 a157 05bd b30b d2b9 9e8a d2bd
000002f0: f41d 4341 fb09 79bd 2dbb ac41 e67a 3ebe
00000300: 02ca 6241 00e6 0541 d23c 9741 4c6f 8041
00000310: c4d4 9941 a695 8e41 b462 1e41 9792 6041
00000320: a366 bc40 5386 3341 5df8 afbb 967a a03c
00000330: 9fa8 7641 8530 6041 330d a741 106f 2941
00000340: 03d9 b241 1d06 15be 92e5 eaba e8a2 d8b9
00000350: fdeb f8bd 6a2a 8dbc f2f5 3cbf aacb d741
00000360: 236d f1bd 34f2 b141 28a1 9a41 f865 e241
00000370: 03db 90bc 8f6d ab41 388a 9fbd 3428 8aba
00000380: c086 f6bc 0ec7 20bf 26c0 7dbb 66ca 6a41
00000390: 128c 88ba 624b c241 78bb a241 d4ab cd41
000003a0: df24 87be 7775 f33f 8d07 8141 0a46 a041
000003b0: 2516 a941 58af 7541 1d45 cc41 56b7 da40
000003c0: 1d80 66bb 8e6a c241 b0a8 bc41 dc4d ac41
000003d0: e6f6 4241 3cb2 a441 a29e 543d 7a2b a141
000003e0: b28d 1941 abdb 8d41 a0a3 4241 54f5 4641
000003f0: 8215 8bbb f920 debd 4c57 b841 19f9 bd41
-0.029607495 58.139694 86.65888 -0.018436406 -0.03724337 -0.011940095 -0.05836332 -0.12892535
50.237076 0.24607576 95.99619 -0.2810623 99.77155 81.82828 121.024475 95.69836
107.12601 -0.06807538 124.93916 109.18453 -0.20947343 107.94024 57.541298 -0.008761821
101.22625 112.13159 65.718185 -0.062034857 53.41767 -0.05471592 85.95809 -0.007840079
103.23709 94.82636 -0.023806369 -0.10522102 53.55146 -0.22252786 -0.060478922 89.462166
136.74203 95.486824 91.35954 42.85045 142.50168 54.601017 118.96715 -0.035990804
41.138466 -0.020698596 0.12257285 -0.023791648 80.36759 98.2844 66.816124 53.43593
53.21258 -0.14538938 -0.0004874845 0.09424789 74.603165 -0.013998151 98.20873 -0.10955754
91.6887 46.311554 95.695786 94.93119 85.75474 92.23796 48.50294 85.92564
41.166786 65.89722 -0.025024313 0.09302116 89.89085 79.06007 109.78557 54.57509
101.00055 0.095797196 -0.0053835874 -0.00041425388 -0.20928928 -0.03482281 0.38792974 133.10068
-0.048470818 103.994156 112.938 127.11455 0.007991742 94.87419 -0.12055176 -0.0009994684
3.5444582 -0.05819934 -0.003929339 81.24515 -0.0134649 121.72399 96.46224 124.21388
0.0033032687 5.905699 80.768265 99.878136 102.72442 68.40248 120.06829 44.756496
-0.003815446 104.25722 121.45652 111.83153 57.115128 95.186905 -0.069856405 103.075035
61.849342 90.94271 72.55626 79.35668 -0.0043610195 0.038003284 114.755684 107.906815
0.051890314 10.218669 18.371258 -0.0144165335 -0.0040647485 -0.010761486 -0.06212363 -0.075976916
9.442188 -0.11643032 22.494778 -0.18801856 18.20396 18.71209 26.995726 18.87168
20.646702 -0.10797725 27.600712 23.637135 -0.70290196 25.43151 9.753615 -0.009537008
18.644981 22.50174 11.29632 -0.9453836 7.2833138 -0.09509235 16.873505 0.0034973382
19.203869 19.617939 -0.022611007 -0.15488215 9.42306 -0.2300249 -0.031160532 17.173567
27.958298 16.384644 18.740896 5.0132337 28.486694 13.228212 24.20063 -0.09453243
4.566486 -0.019861197 -0.3141245 0.018128056 17.786085 21.314102 10.979798 9.560219
12.123131 -0.032554273 -0.00040063038 -0.102803454 12.194813 -0.060800534 21.591394 -0.1860157
14.174318 8.368652 18.904697 16.054344 19.22889 17.82307 9.899097 14.035789
5.887529 11.220294 -0.0053701834 0.019589704 15.416167 14.011846 20.881445 10.589615
22.355963 -0.14553113 -0.00179212 -0.00041320105 -0.12154386 -0.017232139 -0.7381278 26.974445
-0.11788394 22.243263 19.32869 28.29979 -0.017682558 21.428495 -0.07790035 -0.0010540546
-0.03009355 -0.62803733 -0.0038719266 14.674414 -0.0010417721 24.286808 20.341537 25.7089
-0.26395318 1.9020222 16.128687 20.034199 21.135813 15.355309 25.533747 6.83488
-0.0035171576 24.302029 23.582367 21.538017 12.185278 20.587029 0.051909097 20.146229
9.597094 17.73226 12.1649475 12.434895 -0.0042445073 -0.10846133 23.042625 23.74663

actor.policy_head.bias f4 [50]
00000000: a939 a641 1423 f63e 46de b941 9bf6 4241
00000010: 68c9 1042 14e9 8141 041d 8f41 d49c 8641
00000020: b41b 45c2 b611 9841 e1ea 6641 9717 4d41
00000030: 0b46 a241 6354 9940 5afd 7841 54e9 10c2
00000040: 5ac4 3840 3298 fd41 8495 9a41 9993 be41
00000050: 9168 8441 2cf3 5440 e4a9 a941 587c 3241
00000060: 1775 a241 35ed cdc1 49cc bec0 4fad aa41
00000070: b2cb b841 732b db40 7376 c641 00e0 4141
00000080: 6245 e741 8aa8 6141 34ad 0f42 76ce 0d42
00000090: 7d30 24c0 626a db40 f971 94bf 7eb0 8041
000000a0: 0c4a ac41 4aa8 7741 b507 1ec4 a8c4 6041
000000b0: a479 2141 fec9 6741 8a39 6841 d6f0 da41
000000c0: 4064 1f41 7e39 9841
20.778154 0.48073637 23.233532 12.185206 36.196686 16.238808 17.889168 16.826576
-49.277054 19.008648 14.4323435 12.818259 20.2842 4.791551 15.561853 -36.22786
2.8869843 31.699314 19.323006 23.82207 16.551058 3.327342 21.207954 11.155357
20.307173 -25.740824 -5.962437 21.334623 23.09946 6.849054 24.807837 12.1171875
28.908878 14.103647 35.919144 35.451622 -2.5654595 6.856736 -1.1597282 16.086178
21.536156 15.478586 -632.1204 14.048012 10.092197 14.4868145 14.514048 27.367596
9.961975 19.028072

critic.fc1.weight f4 [256, 21]
00000000: a1a7 c6c2 ed74 3fc2 7acc 8143 8a09 6642
00000010: dc07 8843 4090 4142 970f 6843 b453 1b43
00000020: d3ae ddc3 07d5 edc3 6daf bdc3 413f a0c2
00000030: 7644 6dc2 b1f6 bfc2 f6a0 f5c2 3e61 9bc2
00000040: ff5d a0c2 1d39 cac2 25f5 09c3 e407 b3c2
00000050: e045 a9c2 be9e c1c2 9ccb 49c1 1e82 b542
00000060: ac6f 1dc3 bc2c 8d42 51cd 9fc2 f81f 6442
00000070: 898f 3ac3 c619 00c4 6e69 09c4 9bfa e9c3
00000080: c43b bdc2 c3f7 b4c2 2da3 dfc2 2231 d5c2
00000090: 2961 9cc2 77f6 c8c2 68c3 fec2 eda6 11c3
000000a0: 3ea0 e5c2 83d1 e0c2 9f67 90c2 0ac5 d3c1
000000b0: 1037 7043 29db ff41 5d80 4843 cf76 9fc1
000000c0: 9e36 3d43 8761 2d41 5e4b 02c4 96b1 08c4
000000d0: 34c6 f0c3 b05b b8c2 4444 9bc2 9075 edc2
000000e0: 0de2 09c3 74c9 abc2 038d a9c2 55fe 01c3
000000f0: f75d 0dc3 fb52 ecc2 e08a e2c2 067d e9c2
00000100: 6dac 9cc2 771e 4c43 378c 4f43 1442 6443
00000110: 6d7f 6843 76e3 0c43 d891 6b43 7b7c 00c4
00000120: 9681 08c4 4ec8 ddc3 e68f b4c2 4fb3 c2c2
00000130: 99fa cdc2 ca1a 09c3 6a3a d6c2 bb75 b2c2
00000140: 1487 b3c2 a842 13c3 079e dbc2 e2bf aec2
00000150: 811a 76c2 d241 eec2 b760 36c3 5cc8 c243
00000160: 0831 17c3 a925 3b43 a66b 74c3 d43e 9b43
00000170: 03a4 e3c3 fefc d9c3 2c44 c2c3 8a60 abc2
00000180: 93e6 a3c2 76bb a8c2 f36e cfc2 482d c8c2
00000190: 22b5 3dc2 06b7 b1c2 6c8c 03c3 51f8 cfc2
000001a0: 9148 84c2 7077 f0c2 c245 2ec3 2423 2742
000001b0: 9d10 c643 6df6 5843 3a0a 8243 6644 2cc1
000001c0: c1a8 c143 6dfa fac3 4e79 fbc3 bbc5 d1c3
000001d0: 9703 a6c2 f24c 9ac2 8cc0 d0c2 425c e7c2
000001e0: 79fe b3c2 c7cf abc2 586d dbc2 7ccc 0fc3
000001f0: 3e4d dfc2 c8f9 99c2 8ebc 81c2 b89e 2442
00000200: da76 fbc1 7059 8ac3 02c2 f041 ec62 4cc3
00000210: ce5c 8042 be66 8ac3 5453 dac3 bcec e7c3
00000220: 5e93 bfc3 b68b a7c2 b450 a0c2 96d5 8fc2
00000230: 244c bcc2 6533 9cc2 a31e 9ac2 b6d8 bdc2
00000240: 2c2d 09c3 7fb8 adc2 e27e b6c2 4e72 cec2
00000250: f15d 27c2 1800 9c43 a5fd 8a43 ab93 b343
00000260: e87c 5e43 8d7c 4743 2b7d 4043 c8ed efc3
00000270: 04f7 02c4 83f8 dbc3 53cb b0c2 bdd8 b2c2
00000280: ab20 afc2 8b47 e7c2 a784 c5c2 a583 92c2
00000290: 359f d6c2 b761 06c3 4a46 ecc2 889e b2c2
000002a0: 5ae8 e9c2 5ad3 13c2 2445 d542 a956 a942
000002b0: 8a68 5343 adb7 cb42 3017 8a42 bb75 0f41
000002c0: 989b 15c4 5208 1ec4 2109 03c4 7705 dbc2
000002d0: c6c7 d4c2 32db 04c3 441b 12c3 f441 e4c2
000002e0: b190 c7c2 2e90 ecc2 76d1 31c3 6a25 e9c2
000002f0: e3f7 dfc2 eb3f 8cc2 22c7 0dc2 a165 57c3
00000300: fec1 0342 22b7 55c3 d4e1 1543 dc36 a7c3
00000310: 69c9 1e43 94ce d9c3 6820 d0c3 e188 b0c3
00000320: 5a14 acc2 5beb 45c2 d59d b7c2 e6a4 eec2
00000330: c213 d8c2 45ce 80c2 3c95 b4c2 d820 f6c2
00000340: 653a aac2 8460 35c2 25f2 24c3 0ae0 47c2
00000350: 6efd 4943 ffa8 5d43 ea54 8543 eab3 4743
00000360: 6c20 5443 426d 1543 e168 01c4 eba7 0ac4
00000370: a805 e7c3 96cc a3c2 195b c6c2 7708 b9c2
00000380: 48bf 01c3 0d9c d1c2 d96f a5c2 7568 e2c2
00000390: 78d0 17c3 490e dec2 6edd d4c2 56aa 04c3
000003a0: 38af ab3f 8674 0343 c379 70c3 2656 1d43
000003b0: 2d73 f0c2 cef8 2c43 0e1c 6fc3 cbfb e8c3
000003c0: 0654 02c4 bed3 d4c3 e185 a3c2 9f8d 9fc2
000003d0: 0cd4 d6c2 c4c2 c1c2 86bc bec2 2867 a3c2
000003e0: 3a0c ddc2 4e4b 17c3 eb5d c6c2 08ab c8c2
000003f0: d5e8 b6c2 7d97 d4c2 6441 e0c2 d60f 1143
-99.3274 -47.864185 259.59747 57.509315 272.0614 48.39087 232.0609 155.32697
-443.3658 -475.66428 -379.3705 -80.12354 -59.316856 -95.98182 -122.81438 -77.689926
-80.183586 -101.11155 -137.9576 -89.51541 -84.636475 -96.81004 -12.612209 90.754135
-157.43622 70.58737 -79.90101 57.03122 -186.56068 -512.4027 -549.64734 -467.95786
-94.61673 -90.48391 -111.8187 -106.59596 -78.189766 -100.48138 -127.38165 -145.65205
-114.81297 -112.4092 -72.202385 -26.47121 240.21509 31.982012 200.50142 -19.933012
189.21335 10.83631 -521.1776 -546.7748 -481.54846 -92.17908 -77.63333 -118.729614
-137.88301 -85.89346 -84.77541 -129.99348 -141.36705 -118.16207 -113.27124 -116.74419
-78.33677 204.119 207.54771 228.25812 232.49776 140.88852 235.5697 -513.945
-546.0248 -443.56488 -90.28105 -97.35021 -102.98945 -137.10464 -107.11409 -89.22994
-89.763824 -147.26038 -109.80865 -87.37477 -61.525883 -119.128555 -182.37779 389.5653
-151.19153 187.14711 -244.4205 310.49084 -455.28134 -435.9765 -388.5326 -85.68855
-81.95034 -84.366135 -103.7167 -100.08844 -47.426888 -88.85747 -131.54852 -103.98499
-66.14173 -120.23328 -174.27249 41.784317 396.1298 216.9626 260.0799 -10.766699
387.3184 -501.95645 -502.9477 -419.54477 -83.00701 -77.15028 -104.37607 -115.68019
-89.99702 -85.905815 -109.71356 -143.79877 -111.65086 -76.987854 -64.86827 41.155
-31.433033 -276.69873 30.09473 -204.38641 64.18126 -276.80267 -436.651 -463.8495
-383.1513 -83.77287 -80.15762 -71.91716 -94.14871 -78.10038 -77.05984 -94.92326
-137.17645 -86.860344 -91.24782 -103.22325 -41.84174 312.00073 277.9816 359.15366
222.48792 199.48653 192.48894 -479.85767 -523.8596 -439.9415 -88.39712 -89.42332
-87.563805 -115.63973 -98.75909 -73.25712 -107.31095 -134.3817 -118.13728 -89.30963
-116.95381 -36.956398 106.63504 84.66926 211.40836 101.85874 69.04529 8.966243
-598.43115 -632.13 -524.14264 -109.51067 -106.39018 -132.85623 -146.1065 -114.128815
-99.7826 -118.2816 -177.8182 -116.573074 -111.98415 -70.12484 -35.444466 -215.39699
32.939445 -213.71536 149.88214 -334.4286 158.78676 -435.6139 -416.25317 -353.06937
-86.03975 -49.47984 -91.808266 -119.32207 -108.03859 -64.40287 -90.29147 -123.06415
-85.11405 -45.344254 -164.94588 -49.96879 201.98996 221.66014 266.6634 199.70279
212.12665 149.42679 -517.63873 -554.6237 -462.0442 -81.89958 -99.177925 -92.51653
-129.7472 -104.80479 -82.71845 -113.20402 -151.81433 -111.0279 -106.43248 -132.66537
1.3412848 131.45517 -240.47563 157.33652 -120.22495 172.9719 -239.10959 -465.96713
-521.31287 -425.65424 -81.76148 -79.7766 -107.414154 -96.8804 -95.36821 -81.70148
-110.52388 -151.29416 -99.18343 -100.334045 -91.45475 -106.295876 -112.127716 145.06186

critic.fc1.bias f4 [256]
00000000: 0fd7 81c4 3500 99c4 38f3 9ac4 7b5a 96c4
00000010: 44f5 7fc4 e471 8ec4 7c5d 80c4 ab5d 90c4
00000020: 6a78 afc4 befc 70c4 3e6e 99c4 1f4b 8dc4
00000030: bdd7 96c4 7ab5 aec4 5632 9dc4 723f 8ac4
00000040: 0092 9cc4 c366 99c4 70e8 a1c4 01b2 56c4
00000050: 554c 90c4 7c81 95c4 bf0c 64c4 3e9a bac4
00000060: 03a2 5cc4 e6b9 99c4 0ad0 8ec4 f288 43c4
00000070: d90a 4dc4 e68a 4fc4 360b 82c4 f533 6ac4
00000080: 5050 97c4 9c00 a2c4 4c43 9cc4 a012 46c4
00000090: f317 a5c4 7728 aac4 d933 a7c4 9a5d 81c4
000000a0: 7173 9bc4 bb75 a3c4 c11c 81c4 11a3 9bc4
000000b0: 6e78 98c4 69ee 9dc4 fe69 8cc4 eac3 abc4
000000c0: fac1 88c4 9050 77c4 dcc7 5cc4 b0a2 9cc4
000000d0: a10e a5c4 a39b a6c4 3b9b 8dc4 f5ba a9c4
000000e0: 8413 5ec4 47d7 97c4 8ddf 91c4 3e80 6cc4
000000f0: d68f 84c4 c741 82c4 9a9c 8bc4 82b8 3cc4
00000100: d123 96c4 89a2 8cc4 9c59 45c4 d80b afc4
00000110: 0847 6dc4 65b8 9ec4 130c 94c4 6cc0 72c4
00000120: 6382 2cc4 dac7 99c4 b582 8dc4 a0aa 55c4
00000130: cdcc 9ec4 6d29 8ec4 9cfc a1c4 e9c2 80c4
00000140: bfb4 8cc4 3374 42c4 a446 5fc4 c80d b4c4
00000150: 8410 8fc4 cb8f abc4 3fcc 81c4 faa3 8bc4
00000160: ca88 90c4 c80c a8c4 af9c 37c4 1daf 95c4
00000170: f04f b0c4 e729 b5c4 d8bc 8ac4 4ead 60c4
00000180: 7acd a3c4 5b2c a1c4 83d2 a7c4 2784 93c4
00000190: 457c a6c4 fd81 3fc4 cb1b 8dc4 fdce 92c4
000001a0: 3452 7bc4 ca5c 94c4 2c79 87c4 cd2e 80c4
000001b0: a58f 98c4 e627 b0c4 094b 9ac4 419f aac4
000001c0: a06c 9bc4 3f01 9ac4 5976 b3c4 c803 8ec4
000001d0: 28f7 8ac4 08a3 8dc4 50ea 6bc4 5612 f5c3
000001e0: 3076 7ec4 5b89 8bc4 6307 66c4 4c5f a4c4
000001f0: 07f8 a5c4 1116 82c4 8652 61c4 9de7 72c4
00000200: d163 87c4 5e8d 7ec4 abee 8ac4 b789 70c4
00000210: fec9 8dc4 cc7f a7c4 d279 a3c4 e131 a3c4
00000220: f8f0 74c4 1c80 b7c4 34a9 aac4 fbdd 82c4
00000230: ad57 9ec4 3b76 7ec4 96cf 9cc4 1149 8fc4
00000240: c6fa 5ac4 d241 92c4 c98c 8cc4 9e20 abc4
00000250: 3b11 a4c4 1236 acc4 d38b 84c4 3cf5 92c4
00000260: cbce 65c4 119f b3c4 caa3 69c4 ce0d 93c4
00000270: c0a6 69c4 f067 9dc4 a6c8 a1c4 83d8 84c4
00000280: 6c94 a9c4 f12c 9ac4 dcdb 85c4 9507 87c4
00000290: bf6a afc4 1496 7dc4 d13f 99c4 5931 89c4
000002a0: f3c3 a4c4 e010 83c4 e5fa a7c4 8a95 a0c4
000002b0: 0912 86c4 3f1a a2c4 9419 8ec4 d5b7 90c4
000002c0: adb3 5dc4 0636 a8c4 7212 6fc4 7267 86c4
000002d0: 9156 2ec4 30b0 80c4 133b acc4 bd36 63c4
000002e0: ae0d 2ec4 0e22 66c4 1213 77c4 de23 8fc4
000002f0: c841 8cc4 83d5 8ec4 eb80 8ec4 640a a8c4
00000300: 0100 a6c4 2ba3 2ac4 6ccd 90c4 d304 66c4
00000310: 0f10 47c4 1656 6cc4 e209 8bc4 112d 8bc4
00000320: 9235 7dc4 8270 82c4 37b1 40c4 c8cb acc4
00000330: 42b4 9ac4 7d6b 8fc4 3e97 6ac4 38c5 38c4
00000340: 566f 7fc4 3fa8 b5c4 3b22 41c4 98f3 9ac4
00000350: 4008 6dc4 506e 89c4 49b1 88c4 b51b 5cc4
00000360: 3df5 28c4 c015 a3c4 9122 a0c4 513a 8dc4
00000370: c154 86c4 ed15 afc4 455d 77c4 8bf4 55c4
00000380: 0319 88c4 9e33 95c4 6173 77c4 23e2 84c4
00000390: 5118 a4c4 fe59 51c4 cd17 50c4 5c9f 63c4
000003a0: 05a6 aec4 5f5c a2c4 0fed 90c4 ce07 48c4
000003b0: da40 3fc4 888e 8fc4 6c1f 9cc4 898a bac4
000003c0: 0309 84c4 bebf 79c4 6c4f 9fc4 5847 82c4
000003d0: 11b0 8fc4 5c1d 4cc4 5492 67c4 42df 89c4
000003e0: 4ac7 89c4 62dc 97c4 de69 93c4 b05a 86c4
000003f0: 16e7 35c4 2c69 b5c4 ccc5 b6c4 e958 a6c4
-1038.7206 -1224.0065 -1239.6006 -1202.8275 -1023.8323 -1139.5591 -1026.9214 -1154.9271
-1403.763 -963.9491 -1227.4451 -1130.3475 -1206.7418 -1397.6711 -1257.573 -1105.9827
-1252.5625 -1227.2113 -1295.2637 -858.7813 -1154.3854 -1196.0464 -912.19916 -1492.8201
-882.53143 -1229.8093 -1142.5012 -782.1398 -820.1695 -830.1703 -1040.3503 -936.8118
-1210.5098 -1296.019 -1250.103 -792.291 -1320.7484 -1361.2645 -1337.6202 -1034.925
-1243.6075 -1307.6791 -1032.8986 -1245.0958 -1219.7634 -1263.4503 -1123.3123 -1374.1223
-1094.0618 -989.2588 -883.1228 -1253.084 -1320.4572 -1332.8636 -1132.851 -1357.8424
-888.30493 -1214.7274 -1166.986 -946.0038 -1060.4949 -1042.0555 -1116.8938 -754.88293
-1201.1193 -1125.0792 -789.40015 -1400.3701 -949.10986 -1269.7623 -1184.3773 -971.0066
-690.0373 -1230.2454 -1132.0846 -854.666 -1270.4 -1137.2946 -1295.894 -1030.091
-1125.6483 -777.8156 -893.10376 -1440.4307 -1144.5161 -1372.4935 -1038.3827 -1117.1243
-1156.2747 -1344.3994 -734.4482 -1197.4723 -1410.498 -1449.3094 -1109.9014 -898.7079
-1310.4211 -1289.3861 -1342.5785 -1180.1298 -1331.8834 -766.03107 -1128.8685 -1174.4684
-1005.2844 -1186.8997 -1083.7866 -1025.4625 -1220.4889 -1409.2468 -1234.3448 -1364.9767
-1243.3945 -1232.039 -1435.6984 -1136.1182 -1111.7236 -1133.0947 -943.66113 -490.14325
-1017.8467 -1116.2924 -920.1154 -1314.978 -1327.7509 -1040.6896 -901.2894 -971.61896
-1083.1193 -1018.20886 -1111.4584 -962.1518 -1134.3123 -1339.9937 -1307.8069 -1305.5587
-979.76514 -1468.0034 -1365.2876 -1046.9369 -1266.7399 -1017.84735 -1254.487 -1146.2833
-875.91833 -1170.0569 -1124.3995 -1369.0193 -1312.5385 -1377.6897 -1060.3695 -1175.6636
-919.23114 -1436.9708 -934.5592 -1176.4314 -934.60547 -1259.248 -1294.2703 -1062.766
-1356.6382 -1233.4044 -1070.8706 -1080.2369 -1403.3358 -1014.345 -1225.9943 -1097.5421
-1318.1234 -1048.5273 -1343.8405 -1284.6731 -1072.5636 -1296.8202 -1136.7993 -1157.7448
-886.80743 -1345.6882 -956.2882 -1075.2327 -697.3526 -1029.5059 -1377.8461 -908.8553
-696.21375 -920.5321 -988.298 -1145.1208 -1122.0557 -1142.6722 -1140.0287 -1344.3247
-1328.0001 -682.5495 -1158.4194 -920.0754 -796.2509 -945.3451 -1112.3088 -1113.4083
-1012.83704 -1043.5159 -770.769 -1382.3682 -1237.633 -1147.359 -938.36316 -739.08154
-1021.7396 -1453.2577 -772.53485 -1239.6123 -948.1289 -1099.4473 -1093.5402 -880.4329
-675.83185 -1304.6797 -1281.0802 -1129.8224 -1074.6486 -1400.6852 -989.45734 -855.821
-1088.7816 -1193.613 -989.8028 -1063.0668 -1312.7599 -837.4061 -832.3719 -910.49
-1397.1881 -1298.8866 -1159.4081 -800.12195 -765.0133 -1148.4541 -1248.9819 -1492.3292
-1056.2816 -998.996 -1274.4819 -1042.2295 -1149.5021 -816.45874 -926.2864 -1102.9768
-1102.2278 -1214.887 -1179.3083 -1074.834 -727.6107 -1451.2866 -1462.1812 -1330.7784

critic.fc2.weight f4 [128, 256]
00000000: 38d1 a1c2 6aa9 fbc2 c896 c9c2 8c14 17c3
00000010: 6508 9dc2 1956 b1c2 df60 e6c2 48f2 e5c2
00000020: 581b f5c2 7f88 79c2 ce50 f5c2 2113 b8c2
00000030: 1a80 93c2 87f3 d5c2 ea26 9dc2 bdda c9c2
00000040: be27 f4c2 de76 27c3 550a 19c3 b218 67c2
00000050: 9cfc fbc2 97f9 a9c2 ecfd a8c2 913e 36c3
00000060: 3e61 73c2 879a 01c3 e575 a4c2 1a01 0ec2
00000070: 247f 81c2 d99d 51c2 8f58 b6c2 1949 6ac2
00000080: f44a fac2 90f8 1cc3 db28 1ac3 5c4a 2dc2
00000090: 592b fdc2 47cc e5c2 8c60 cec2 f94e ecc2
000000a0: 4ff9 e8c2 44de 19c3 d8e2 89c2 27c3 0bc3
000000b0: c29c ecc2 a3e3 15c3 ea35 d9c2 ffc9 d2c2
000000c0: 093f c8c2 4ca5 9fc2 913d 8ac2 ef49 dbc2
000000d0: 10db f5c2 e152 13c3 3ccb a9c2 b8f9 0ac3
000000e0: 5384 c4c2 ee28 7cc2 ba74 e1c2 d0e6 edc2
000000f0: 9420 d4c2 da5e bec2 4acd fcc2 1573 04c2
00000100: 45a5 edc2 a723 e8c2 94ef 84c2 ea75 c2c2
00000110: 6aa3 69c2 1362 bdc2 f125 04c3 865d 48c2
00000120: a557 0bc2 2527 ddc2 2427 c3c2 1ef0 8dc2
00000130: 034d d0c2 4f17 0ec3 8706 1cc3 7d1d 89c2
00000140: eedf b6c2 72b0 86c2 131a 56c2 4157 2dc3
00000150: a84c 07c3 2bba edc2 a895 a5c2 e063 ffc2
00000160: 3872 a8c2 5569 16c3 f56e 4bc2 bc76 94c2
00000170: 9f7b e6c2 70fd 25c3 35de e8c2 680e 95c2
00000180: 11b8 04c3 ac4c 09c3 5eaf 0fc3 cfcc e7c2
00000190: 4be5 10c3 34e3 54c2 2723 03c3 30fb 10c3
000001a0: cd32 d8c2 bb35 f2c2 e9ad b3c2 7adb afc2
000001b0: 1ef1 cec2 b917 e0c2 162c b1c2 960b 36c3
000001c0: fc9c 9bc2 74be afc2 d029 f9c2 e0ba aec2
000001d0: 7b56 02c3 eb02 efc2 6010 5dc2 cf27 c2c1
000001e0: 52ed 79c2 74b4 d1c2 37a5 8ac2 79f1 d9c2
000001f0: 136f 0ac3 3337 c1c2 5508 9cc2 38e7 8bc2
00000200: 8379 02c3 8c9c 9bc2 645e c7c2 7c11 a4c2
00000210: 9936 d0c2 d1f1 bbc2 d422 afc2 fd49 c3c2
00000220: 52aa 99c2 c8c7 14c3 2e0b abc2 3ae3 e3c2
00000230: 6a96 bbc2 94f5 e0c2 3877 c1c2 c7cf b6c2
00000240: de6d 84c2 23fb eac2 b585 aec2 8d40 b8c2
00000250: dabb 1fc3 6bdc 15c3 d6b8 bec2 3698 f9c2
00000260: 2538 8dc2 5137 f3c2 0bd2 abc2 7f2a 2fc3
00000270: 0e1d 76c2 f2f6 3ac3 d58f 0ac3 60d5 cac2
00000280: d8d5 ebc2 267f 9dc2 a1e1 c5c2 0b54 e1c2
00000290: 2fda 01c3 e093 ddc2 7c2f e5c2 3b74 a8c2
000002a0: 6714 28c3 8048 9ec2 17c0 04c3 17c9 03c3
000002b0: c1ef a4c2 a1a7 20c3 0e6a 1dc3 ef65 1ac3
000002c0: 6c59 73c2 9414 26c3 8dc7 93c2 3c11 afc2
000002d0: 753e 11c2 27ae acc2 f8b0 02c3 2027 c1c2
000002e0: 8f42 2fc2 c775 96c2 db67 a8c2 1117 fec2
000002f0: 6b0a 01c3 4563 d4c2 4cbe bcc2 1051 e3c2
00000300: 8bec 19c3 6bfc 23c2 1bbd 09c3 cf9b 96c2
00000310: b9d9 77c2 e18f 8bc2 c230 bfc2 6dfa a6c2
00000320: 84ef 8bc2 c6ee d1c2 6aaa 3bc2 bfc7 d6c2
00000330: 903c efc2 d9e0 a3c2 b22f 9cc2 e6b3 5ec2
00000340: f465 8cc2 31b5 0bc3 3952 58c2 6efc d4c2
00000350: d5a1 64c2 a504 7cc2 2db9 afc2 f979 95c2
00000360: b540 15c2 9582 19c3 6d78 18c3 51c8 bec2
00000370: ea65 01c3 c54c 07c3 527e a5c2 c79a 98c2
00000380: c47a c6c2 59cc e7c2 d46c 76c2 a3f8 02c3
00000390: 21c9 14c3 0b2e c5c2 e9ec 94c2 f1f6 47c2
000003a0: 2ff4 0bc3 c79f aac2 0aaa bcc2 3fa0 41c2
000003b0: 9830 86c2 4db2 cec2 bcc2 b2c2 191b 17c3
000003c0: e56a d3c2 dc55 d2c2 dc73 fdc2 9c19 c5c2
000003d0: 1f64 00c3 0d44 7fc2 30f3 a7c2 8b71 17c3
000003e0: 9d93 82c2 4d68 c3c2 9c34 efc2 571f eac2
000003f0: 62bc 67c2 76cf 2ac3 847c 1ec3 f5fa efc2
-80.90863 -125.83089 -100.794495 -151.08026 -78.516396 -88.66816 -115.1892 -114.973206
-122.553406 -62.383297 -122.65782 -92.03736 -73.7502 -106.97564 -78.576004 -100.92722
-122.07762 -167.46432 -153.04036 -57.774117 -125.99338 -84.98748 -84.49594 -182.2444
-60.844963 -129.60362 -82.23026 -35.501076 -64.74832 -52.40415 -91.172966 -58.571384
-125.14639 -156.97095 -154.15959 -43.322617 -126.58466 -114.89898 -103.18857 -118.15424
-116.48693 -153.86823 -68.943054 -139.76231 -118.30617 -149.8892 -108.6053 -105.39452
-100.123116 -79.822845 -69.12025 -109.6444 -122.92786 -147.32375 -84.89694 -138.97546
-98.258446 -63.03997 -112.72798 -118.950806 -106.06363 -95.18526 -126.400955 -33.112385
-118.82279 -116.06963 -66.467926 -97.2303 -58.409584 -94.69155 -132.14821 -50.09133
-34.83559 -110.576454 -97.57645 -70.96898 -104.15041 -142.09105 -156.0255 -68.557594
-91.43736 -67.34462 -53.525463 -173.34084 -135.29944 -118.86361 -82.7923 -127.69507
-84.22308 -150.41145 -50.858356 -74.2319 -115.24145 -165.98999 -116.434 -74.52814
-132.71901 -137.2995 -143.68503 -115.90002 -144.89568 -53.221878 -131.13731 -144.9812
-108.09922 -121.10494 -89.83967 -87.928665 -103.47093 -112.04633 -88.586105 -182.04526
-77.80661 -87.87198 -124.581665 -87.36499 -130.33781 -119.5057 -55.26599 -24.269438
-62.48176 -104.85245 -69.322685 -108.97163 -138.43388 -96.60781 -78.01627 -69.9516
-130.47466 -77.805756 -99.68436 -82.03415 -104.106636 -93.9723 -87.56802 -97.64451
-76.83266 -148.7804 -85.521835 -113.9438 -93.79378 -112.479645 -96.73285 -91.405815
-66.214584 -117.4905 -87.26115 -92.126076 -159.7338 -149.86101 -95.36101 -124.79729
-70.60966 -121.60804 -85.91024 -175.166 -61.528374 -186.96463 -138.56184 -101.41675
-117.91766 -78.74834 -98.94068 -112.66415 -129.85228 -110.78882 -114.59274 -84.22701
-168.0797 -79.1416 -132.75035 -131.7855 -82.46827 -160.6548 -157.41428 -154.39818
-60.837326 -166.08038 -73.88975 -87.53366 -36.310993 -86.34014 -130.69128 -96.576416
-43.815 -75.230034 -84.20284 -127.04505 -129.0407 -106.193886 -94.37167 -113.658325
-153.924 -40.996502 -137.7387 -75.30431 -61.96262 -69.78101 -95.59523 -83.48911
-69.967804 -104.966354 -46.91642 -107.39013 -119.618286 -81.939156 -78.093155 -55.675682
-70.19913 -139.70778 -54.080296 -106.49303 -57.15804 -63.004536 -87.86167 -74.73823
-37.31319 -153.51009 -152.47041 -95.39124 -129.3981 -135.29988 -82.74672 -76.3023
-99.23978 -115.89912 -61.606277 -130.97124 -148.78566 -98.58993 -74.462715 -49.991154
-139.95384 -85.312065 -94.33211 -48.40649 -67.09491 -103.34824 -89.38034 -151.10585
-105.70878 -105.167694 -126.72629 -98.55002 -128.3911 -63.816456 -83.974976 -151.44353
-65.28831 -97.70371 -119.60275 -117.06121 -57.933968 -170.8104 -158.48639 -119.99015

critic.fc2.bias f4 [128]
00000000: 5b16 79c3 bc07 4540 45cc 0d3e 1f5e a63f
00000010: 9d77 55c3 eabe f83d f761 b83e 47e3 1d3f
00000020: 4a53 56c3 1b42 77c3 7a83 49c3 cf2c 6940
00000030: 9b20 47c3 9882 0a40 a70d bc3f aa4e d53c
00000040: b6aa f13e 1990 5740 aa6d 0e3e 9c12 7bc3
00000050: 951a af3d 424f 493e 494b 923e 0000 0000
00000060: fc7b b23f a267 85c3 615b a93d 3cf0 4b3f
00000070: 135b 34c3 fb62 763e 5c9d 2fc3 73d9 813f
00000080: 36ca 24c3 d7d8 77c3 c47d 2a3e 3e5e 89c3
00000090: 931d ca3e 9207 12c3 3ab4 2cc3 2015 59c3
000000a0: dfc2 31c3 6adb 46c3 eeb0 a93e 7e8c 4dc3
000000b0: df8d 22c3 7403 953d aee3 2ac3 4003 0c3e
000000c0: b96c 2fc3 60d1 8c40 bd27 16c3 d3de 3e3e
000000d0: 142e 823f 3d40 cd3c f5bc 4ac3 2d7c 61c3
000000e0: b4f3 54c3 f861 64c3 17b1 efc2 bfb2 9b3c
000000f0: d628 893f d2fc 4fc3 c97c 1bc3 ff0e 67c3
00000100: 27cc 2cc3 bd2d 1bc3 ef6a e33e b6f1 57c3
00000110: 632c 2cc3 1add 46c3 c45f 78c3 6164 613f
00000120: d56d 55c3 e2a5 42c3 d6a5 12c3 bf38 3c3f
00000130: c833 59c3 8998 523e 25e9 14c3 f112 6ec3
00000140: 496a fe3d 8f2b 5bc3 40bb 2bc3 3753 28c3
00000150: 79d0 403e b43a 363f 03ac 41c3 93dd 14c3
00000160: 8569 6cc3 d3b2 933e 557c 843e 9f23 6d3d
00000170: 6084 3e3e 7d3b 43c3 3c88 74c3 866e 7bc3
00000180: 86f4 56c3 c197 2840 311b 32c3 4a00 c83e
00000190: e06d 963c 9e1b 57c3 43b5 4d3d ca4e 84c3
000001a0: 21c7 f43f 4c74 a93f 9e35 5ec3 d800 08c3
000001b0: 6a04 28c3 1399 0740 6983 1a3e aa4d b13e
000001c0: 8d6f 0ac3 4b22 88c3 8ac8 bf3e 284c 843f
000001d0: 885e 70c3 3bd4 2cc3 c5e6 4940 59b0 c33f
000001e0: 01d6 963f 3723 d83f b639 953b 7973 1fc3
000001f0: d4d3 53c3 accc 873c 2f3f 09c3 5853 5ac3
-249.08733 3.078597 0.13847454 1.2997473 -213.46724 0.12145789 0.3601224 0.6167492
-214.32535 -247.25822 -201.51358 3.64336 -199.12737 2.1642208 1.4691666 0.026038487
0.47200555 3.36817 0.13909021 -251.0727 0.08549992 0.1965914 0.28573063 0.0
1.3944087 -266.80963 0.08269382 0.79663444 -180.35576 0.24061196 -175.61469 1.0144485
-164.78989 -247.84703 0.16649538 -274.73627 0.39475688 -146.02957 -172.70401 -217.08252
-177.76122 -198.85709 0.331428 -205.5488 -162.55418 0.07276049 -170.88937 0.13673115
-175.4247 4.4005585 -150.15523 0.18639688 1.0170312 0.025055045 -202.73811 -225.48506
-212.95197 -228.38269 -119.84588 0.019006131 1.0715587 -207.98758 -155.48744 -231.05858
-172.79747 -155.17867 0.4441752 -215.94418 -172.17339 -198.86368 -248.37408 0.8804379
-213.42903 -194.64798 -146.6478 0.7352409 -217.20227 0.20566 -148.91072 -238.07399
0.12422616 -219.17015 -171.73145 -168.32506 0.18829526 0.71183324 -193.67192 -148.86552
-236.41219 0.2884737 0.25876108 0.0578953 0.18605185 -195.23238 -244.53217 -251.43173
-214.95517 2.6342623 -178.10622 0.3906272 0.01836294 -215.10788 0.050221693 -264.61554
1.9123269 1.3238616 -222.20944 -136.0033 -168.01724 2.118718 0.15089191 0.34629565
-138.43575 -272.2679 0.37457687 1.0335741 -240.36926 -172.82903 3.15471 1.5288192
1.1784059 1.6885747 0.004553999 -159.45107 -211.82745 0.016577087 -137.24681 -218.32556
