server/policies/checkpoints/policy_1_460/model.pt (torch, 338258 bytes, 11 tensors)

actor.fc1.weight f4 [256, 21]
0.1094532 -0.03785921 -0.14224187 0.14515105 0.20412353 -0.19130231 -0.049130224 0.1258338
0.020505182 0.1789076 -0.05567301 -0.16830128 -0.07214542 -0.03069659 -0.18908373 -0.20879297
-0.01257402 -0.17695487 0.01630719 -0.003786995 -0.21072386 -0.20003366 0.1602469 -0.17213494
0.10540849 -0.21765943 0.06894437 -0.11259815 0.122011565 -0.16858101 0.19834745 0.03229576
0.20429423 0.13407798 -0.10609977 0.09657969 -0.029424772 -0.027194211 -0.17358927 -0.048049252
-0.03803877 0.17794757 -0.03625037 0.108847246 -0.0025596998 0.04354156 0.10521503 0.17810354
0.021316282 0.0071831364 0.1178771 -0.1778241 -0.18151827 -0.11135139 -0.046379663 0.12662385
0.034602243 0.20026402 0.0038953621 0.08538319 0.10238264 -0.20611387 -0.027784204 0.20308909
-0.0624577 -0.14606172 -0.1720096 -0.04636792 0.08206688 -0.08980957 0.0531537 0.03269075
0.023824647 -0.15375997 0.08633127 -0.11527166 0.17142801 0.033409696 -0.20261982 -0.12389431
0.08898397 0.21849516 -0.1041901 -0.013537533 0.019459948 -0.20606224 -0.03190541 0.086589195
-0.029888138 0.03384906 -0.1009863 -0.076605864 -0.11784849 0.10925137 -0.105575465 -0.03678546
0.20825271 -0.16788526 -0.20712937 0.19367108 -0.044553746 0.07709074 -0.02876386 0.14781742
0.0059304833 0.10252624 0.031143865 0.00046962078 -0.13960154 0.13889849 0.10620874 -0.16393062
0.058635738 -0.050199486 0.037319075 -0.16108991 0.122897334 -0.11988598 -0.17831144 -0.06336426
0.007989833 0.21614692 0.14487211 -0.21514845 0.025011582 0.1663191 -0.027992897 -0.059493504
0.13182108 -0.13010333 -0.12751916 0.17484681 -0.20154577 0.17183733 0.21728954 0.11405787
0.093302645 0.006664407 -0.046794817 0.21203497 -0.18623558 -0.08406652 -0.14342768 0.10150802
0.021649461 0.106840625 -0.14732686 0.08728432 0.210096 0.085697785 0.10040024 0.003980822
0.04419812 -0.028690286 0.14908923 0.035925098 -0.14141075 -0.18052745 -0.10409928 -0.1568921
-0.019048968 -0.13922821 0.026669273 0.11800141 -0.14403726 0.00072841835 0.21104786 -0.11176438
-0.19975014 0.11406587 0.1848489 -0.2161445 -0.078457676 0.017815588 0.11217513 0.17058541
0.11456195 0.20638351 -0.073531836 0.09885488 -0.042901266 0.032575704 -0.0018720785 -0.11382774
0.050537944 -0.17433016 0.05870741 0.06798342 0.041090857 -0.1868349 0.04204679 -0.11637762
0.059062485 0.15599993 -0.0019197458 0.20209542 -0.0052716685 -0.14297229 0.082294576 -0.21254353
-0.05911213 -0.16084519 -0.17820384 0.2186864 -0.20113409 0.15919042 0.14799184 0.18441272
-0.18478045 0.17238463 -0.20841226 -0.17119758 -0.16666591 0.021520521 0.17892946 0.08506456
0.20654291 0.091031715 0.113634184 0.054210186 0.094210856 -0.19207649 0.13573715 0.13451879
-0.06277417 0.029958308 0.13924551 0.21494365 0.15510835 -0.2145521 -0.19008999 -0.11395168
0.16373856 -0.16094118 0.08562698 0.20410706 -0.16263348 0.06126926 0.06591657 0.1770494
-0.15627272 -0.21155755 -0.13980381 0.19327675 -0.2145586 -0.042231046 -0.18707182 0.19487227
0.110476464 -0.0050354134 -0.18870881 0.07120382 0.1973691 0.09218741 -0.10678688 0.12169234
00000000: 0029 e03d 4212 1bbd daa7 11be 7aa2 143e
00000010: c205 513e c1e4 43be c63c 49bd 93da 003e
00000020: 7cfa a73c 8e33 373e 6209 64bd 2c57 2cbe
00000030: fac0 93bd 6a77 fbbc 2a9f 41be d3cd 55be
00000040: 4303 4ebc a833 35be a896 853c 3c2f 78bb
00000050: ffc7 57be a0d5 4cbe c317 243e 2444 30be
00000060: 68e0 d73d 1de2 5ebe b532 8d3d dc99 e6bd
00000070: 33e1 f93d 80a0 2cbe 981b 4b3e 8f48 043d
00000080: 8232 513e bd4b 093e d64a d9bd 93cb c53d
00000090: 380c f1bc 65c6 debc 63c1 31be 4bcf 44bd
000000a0: 8bce 1bbd e337 363e 457b 14bd 4eeb de3d
000000b0: a3c0 27bb a358 323d fa7a d73d c660 363e
000000c0: 7c9f ae3c 8460 eb3b 8d69 f13d 8517 36be
000000d0: eddf 39be 330c e4bd 9af8 3dbd afa9 013e
000000e0: 15bb 0d3d 0312 4d3e 5549 7f3b 62dd ae3d
000000f0: fdad d13d 840f 53be b39b e3bc 96f6 4f3e
00000100: a5d3 7fbd 3491 15be 4923 30be 4aec 3dbd
00000110: ae12 a83d 14ee b7bd b2b7 593d bce6 053d
00000120: e82b c33c 4173 1dbe 73ce b03d 8c13 ecbd
00000130: d38a 2f3e 9bd8 083d 927b 4fbe 4dbc fdbd
00000140: 3a3d b63d 32bd 5f3e 9f61 d5bd 87cc 5dbc
00000150: 786a 9f3c fb01 53be 3faf 02bd ad55 b13d
00000160: f8d7 f4bc 50a5 0a3d e8d1 cebd 89e3 9cbd
00000170: 8d5a f1bd 2fbf df3d f337 d8bd 5aac 16bd
00000180: 3340 553e 1dea 2bbe b919 54be b651 463e
00000190: fd7d 36bd c0e1 9d3d 30a2 ebbc 735d 173e
000001a0: 8054 c23b 47f9 d13d 6b21 ff3c 6f37 f639
000001b0: b5f3 0ebe 683b 0e3e f883 d93d 6edd 27be
000001c0: 072c 703d fa9d 4dbd e3db 183d c1f4 24be
000001d0: 99b1 fb3d c886 f5bd 4697 36be 1fc5 81bd
000001e0: cae7 023c 9e55 5d3e 5b59 143e e04f 5cbe
000001f0: 17e5 cc3c 8e4f 2a3e 5c51 e5bc 76af 73bd
00000200: 1bfc 063e cf39 05be 6294 02be 0b0b 333e
00000210: 0462 4ebe 20f6 2f3e 2681 5e3e 2c97 e93d
00000220: 7515 bf3d 1961 da3b ecab 3fbd b21f 593e
00000230: 8ab4 3ebe 112b acbd b5de 12be 70e3 cf3d
00000240: 365a b13c 42cf da3d dadc 16be 1fc2 b23d
00000250: 6823 573e 5282 af3d a49e cd3d 8e71 823b
00000260: 1609 353d e407 ebbc d9aa 183e 3226 133d
00000270: fbcd 10be 30dc 38be 0132 d5bd 53a8 20be
00000280: 950c 9cbc d791 0ebe 8579 da3c b9aa f13d
00000290: 817e 13be 54f3 3e3a ee1c 583e b9e4 e4bd
000002a0: 4d8b 4cbe 5e9b e93d 0849 3d3e fc54 5dbe
000002b0: 6bae a0bd fff1 913c 13bc e53d f1ad 2e3e
000002c0: 759f ea3d 3356 533e dc97 96bd 6d74 ca3d
000002d0: 3db9 2fbd 1a6e 053d 8860 f5ba 851e e9bd
000002e0: e000 4f3d 9b83 32be 2e77 703d e43a 8b3d
000002f0: e34e 283d a651 3fbe 4139 2c3d 6457 eebd
00000300: 81eb 713d 72be 1f3e fb9f fbba 1af2 4e3e
00000310: f6bd acbb 5467 12be 0f8a a83d 03a5 59be
00000320: 901f 72bd 9ab4 24be 117b 36be 54ef 5f3e
00000330: 18f6 4dbe d002 233e 2c8b 173e b0d6 3c3e
00000340: 1637 3dbe 9985 303e 066a 55be 6b4e 2fbe
00000350: 78aa 2abe ce4b b03c 4939 373e 5436 ae3d
00000360: fc7f 533e d66e ba3d 0ab9 e83d 800b 5e3d
00000370: 9ff1 c03d b3af 44be aefe 0a3e 4bbf 093e
00000380: be8f 80bd 206b f53c 6096 0e3e 301a 5c3e
00000390: b9d4 1e3e 8cb3 5bbe f3a6 42be 805f e9bd
000003a0: 15ab 273e c4cd 24be 335d af3d 7101 513e
000003b0: 6489 26be 7af5 7a3d 44ff 863d 704c 353e
000003c0: f505 20be 8ba2 58be bb28 0fbe 57ea 453e
000003d0: 40b5 5bbe 76fa 2cbd c18f 3fbe 998c 473e
000003e0: 7c41 e23d 1c00 a5bb e23c 41be 4fd3 913d
000003f0: 201b 4a3e c1cc bc3d 14b3 dabd d539 f93d

actor.fc1.bias f4 [256]
0.21526429 0.01423173 -0.026623458 -0.021182854 -0.0057150098 -0.1242484 0.022333378 -0.20328493
0.09271688 0.024877189 0.06384079 0.091565505 -0.045919783 0.07159021 0.16817139 -0.19444622
0.123426795 -0.17829582 0.004873194 -0.16630141 -0.046703596 -0.06726604 0.13764018 0.06260362
-0.121875145 -0.18388684 -0.098398656 0.15983999 -0.002597494 -0.039004125 -0.18013386 0.17943843
0.08708458 -0.116313465 0.023771212 -0.09799317 -0.027789263 -0.15963891 0.21611685 -0.041350152
-0.18128325 0.15590748 -0.04241047 0.11275978 0.13258043 -0.040804353 -0.023744784 -0.0657399
-0.18973249 0.18118091 -0.040971972 -0.056013998 -0.12957366 0.21423797 -0.104805015 0.16823453
0.09172887 -0.1541366 -0.10714484 -0.03163877 0.12278247 0.019261759 0.1965766 0.1894924
0.07650102 0.020718789 -0.02604483 -0.16150752 -0.09032606 -0.17193773 -0.2053425 -0.004780774
0.16454388 -0.20670028 0.122108966 0.21627665 -0.20667523 0.07832001 -0.16883904 0.1245783
-0.03672274 0.1348897 -0.07714714 0.034793787 0.20768748 -0.21610416 0.15219122 0.1448224
0.08984814 0.10136816 0.13732654 0.06924604 0.1808242 -0.16440536 0.12794177 -0.1773416
-0.1887767 -0.14216495 -0.20178838 0.046628643 -0.1137983 0.14366546 0.1769335 -0.099292494
0.0011007005 -0.17072636 0.07938451 -0.0015902324 -0.17713027 0.15695025 -0.14446673 -0.1158614
0.07497286 0.13490823 -0.037108094 0.06680401 -0.12563725 0.12799881 -0.040803164 -0.19180655
0.060532488 -0.20803723 0.2172262 0.037879877 0.047624703 -0.014647788 -0.1337118 0.19424462
-0.12135539 -0.12016668 -0.11054602 0.10532424 0.197421 0.13194358 0.104619846 0.17750148
0.14734142 0.07200378 0.11678268 0.11905949 -0.103478335 -0.20735075 -0.13412292 -0.037483517
0.08789494 -0.08930153 -0.089186884 0.14806333 0.08903665 -0.20595023 0.12886152 -0.034216575
-0.0039213477 0.054151993 0.032520022 0.08183875 -0.014074816 0.032320064 0.1044484 0.087340824
-0.11432456 -0.1907329 0.09720814 -0.11663843 -0.084210254 0.062382564 0.1859949 -0.09170664
-0.12429844 -0.044176627 0.2088902 -0.12658282 -0.1937025 0.13834698 -0.10198466 -0.06723994
0.11100296 0.034993563 0.19069551 0.15212397 -0.08273486 0.18728814 -0.10857725 -0.1721105
-0.12002233 -0.073505454 0.059652463 -0.16531748 0.19071436 0.21004829 -0.016090255 0.030743955
-0.032391746 -0.052630268 -0.04398103 -0.09744282 0.047290575 0.19420534 0.20705412 0.024046129
-0.13921824 0.044936527 -0.09637167 0.06698735 -0.08706102 -0.11017842 0.18401091 0.1187357
0.10493294 -0.043925244 -0.11441909 -0.006341099 -0.009084689 0.013248544 0.09306205 0.1479372
-0.037200924 -0.10170351 -0.14316139 -0.14423841 -0.16052385 0.08603066 -0.13681567 -0.14564764
0.09850743 0.060329825 -0.19912246 0.0064685545 0.15042052 -0.12437912 -0.0132498965 0.15528145
0.026343936 -0.17936815 0.07474572 -0.16866247 -0.19177198 -0.18188319 0.20323917 0.19848277
0.13460258 -0.01631457 0.08355549 0.04401377 0.032860003 -0.04029691 0.13177551 0.05874483
-0.10997664 0.19106986 0.023479687 -0.18434945 0.18270773 -0.20398213 -0.21601376 -0.07247902
00000000: 3e6e 5c3e 342c 693c 7019 dabc aa87 adbc
00000010: fa44 bbbb f275 febd 7df4 b63c ed29 50be
00000020: 59e2 bd3d 3fcb cb3c f6be 823d b286 bb3d
00000030: 6216 3cbd e39d 923d 1f35 2c3e e91c 47be
00000040: 30c7 fc3d 2e93 36be 50af 9f3b eb4a 2abe
00000050: 454c 3fbd c7c2 89bd 8cf1 0c3e 5436 803d
00000060: ad99 f9bd d54c 3cbe 3c85 c9bd 18ad 233e
00000070: b83a 2abb cac2 1fbd 0375 38be b5be 373e
00000080: 6659 b23d c135 eebd d8bb c23c a5b0 c8bd
00000090: 4fa6 e3bc 6278 23be bc4d 5d3e c75e 29bd
000000a0: 51a2 39be 36a6 1f3e 9ab6 2dbd 99ee e63d
000000b0: 2ac3 073e 7722 27bd 6c84 c2bc a4a2 86bd
000000c0: 3c49 42be 7d87 393e 3ad2 27bd ef6e 65bd
000000d0: f5ae 04be 3361 5b3e 03a4 d6bd ac45 2c3e
000000e0: 59dc bb3d fcd5 1dbe c16e dbbd a897 01bd
000000f0: 6075 fb3d d6ca 9d3c 604b 493e 4c0a 423e
00000100: 91ac 9c3d 73ba a93c f85b d5bc 3a62 25be
00000110: dffc b8bd 7210 30be 4e45 52be 0aa8 9cbb
00000120: 317e 283e 3da9 53be 4414 fa3d a077 5d3e
00000130: aca2 53be 3e66 a03d 24e4 2cbe e822 ff3d
00000140: 956a 16bd 8720 0a3e 52ff 9dbd ee83 0e3d
00000150: 07ac 543e 694a 5dbe 04d8 1b3e 534c 143e
00000160: 4d02 b83d 1c9a cf3d 549f 0c3e ded0 8d3d
00000170: fb29 393e e159 28be 2b03 033e 0999 35be
00000180: ae4e 41be b093 11be 9da1 4ebe adfd 3e3d
00000190: 150f e9bd 0a1d 133e 0e2e 353e dd59 cbbd
000001a0: 6145 903a e4d2 2ebe 5994 a23d 586f d0ba
000001b0: a361 35be 91b7 203e 16ef 13be be48 edbd
000001c0: 5f8b 993d 6225 0a3e a8fe 17bd 8ad0 883d
000001d0: 0da7 00be 1f12 033e 3821 27bd f068 44be
000001e0: eaf0 773d b607 55be 8c70 5e3e ee27 1b3d
000001f0: 1f12 433d 47fd 6fbc bfeb 08be 10e8 463e
00000200: 2d89 f8bd f319 f6bd f465 e2bd 3cb4 d73d
00000210: bb28 4a3e 381c 073e ee42 d63d f3c2 353e
00000220: abe0 163e b876 933d c22b ef3d 76d5 f33d
00000230: 73ec d3bd c153 54be 8557 09be 5188 19bd
00000240: 4302 b43d b8e3 b6bd 9da7 b6bd ea9d 173e
00000250: d958 b63d 9ee4 52be 46f4 033e ae26 0cbd
00000260: a67e 80bb 7bce 5d3d b733 053d 139b a73d
00000270: 0f9a 66bc 0b62 043d 0be9 d53d bfdf b23d
00000280: ff22 eabd 7c4f 43be 1015 c73d 21e0 eebd
00000290: 6d76 acbd dc84 7f3d 7275 3e3e b1d0 bbbd
000002a0: 2e90 febd 8df2 34bd 50e7 553e ed9e 01be
000002b0: f359 46be d5aa 0d3e 55dd d0bd 18b5 89bd
000002c0: 8555 e33d 6955 0f3d af45 433e 63c6 1b3e
000002d0: e570 a9bd 76c8 3f3e c05d debd bc3d 30be
000002e0: 44ce f5bd 078a 96bd 2456 743d fc48 29be
000002f0: a04a 433e e616 573e b6cf 83bc bfda fb3c
00000300: 35ad 04bd d692 57bd 7425 34bd 1a90 c7bd
00000310: c3b3 413d c4dd 463e ff05 543e 63fc c43c
00000320: 3a8f 0ebe 5d0f 383d 835e c5bd aa30 893d
00000330: 0c4d b2bd 39a5 e1bd 5b6d 3c3e b42b f33d
00000340: 15e7 d63d f5ea 33bd 8e54 eabd fec8 cfbb
00000350: f3d7 14bc 6c10 593c 5197 be3d d97c 173e
00000360: ff5f 18bd ee49 d0bd e698 12be 3cb3 13be
00000370: 5d60 24be d830 b03d 6819 0cbe a824 15be
00000380: 43be c93d 681c 773d c2e6 4bbe 2bf6 d33b
00000390: d607 1a3e 7bba febd 1816 59bc 1a02 1f3e
000003a0: 3dcf d73c 49ac 37be 4914 993d dbb5 2cbe
000003b0: e05f 44be 963f 3abe ee1d 503e 113f 4b3e
000003c0: 42d5 093e 22a6 85bc 241f ab3d c847 343d
000003d0: 3698 063d 5f0e 25bd 29f0 063e 6b9e 703d
000003e0: 6f3b e1bd d1a7 433e 7958 c03c 1ac6 3cbe
000003f0: bc17 3b3e b1e0 50be b632 5dbe e16f 94bd

actor.fc2.weight f4 [128, 256]
0.034920122 -0.04847723 -0.012274223 0.048402794 0.012784486 0.06246513 0.041287787 -0.013793787
-0.008709025 -0.048002042 0.029211404 -0.0076541314 0.028956428 -0.008384086 0.02987395 -0.0611357
-0.04277487 0.03310084 0.026255723 0.0016471397 0.019326044 0.061070044 -0.017691351 -0.005673928
-0.032745805 0.03965416 -0.013672687 0.035092898 0.04514703 0.051111385 -0.03149439 0.016138759
0.044065498 0.016542774 -0.033506013 -0.030174479 0.062218703 -0.006549268 0.008570166 0.028817048
-0.037476305 -0.01700156 0.060153715 -0.0046352725 -0.0011859124 -0.009326743 -0.057652034 -0.02656116
-0.008316217 -0.04847262 0.052795637 0.03992331 0.007859989 -0.05441314 -0.03243509 -0.043550417
-0.043661583 0.020796567 0.05202216 -0.05045909 0.05269864 0.006877713 0.010451382 0.060274858
-0.025277585 0.035813835 0.0631433 0.03614869 -0.05564005 -0.045296106 0.011713851 0.015505785
-0.056423947 -0.039995145 0.020143706 0.06300949 0.015788404 -0.046084486 0.014190868 0.05880656
0.05045661 -0.05679525 0.04956449 -0.04159505 0.03257211 0.027079388 -0.008986445 0.039348368
0.042365003 -0.06054396 -0.0043610255 -0.039078567 0.037692018 -0.04244225 0.027995812 0.06314769
0.036922086 -0.04783548 -0.047816224 -0.0062085455 0.04346834 -0.006346955 0.0035280248 0.0059118993
-0.0066074356 0.0004372241 0.02718233 0.02120828 0.03947291 -0.05094949 -0.016043063 -0.0004768803
-0.03537354 -0.024616156 -0.008551504 0.04417748 0.056634743 0.021467049 -0.047181677 0.05277769
0.0024789858 -0.011269923 0.05713773 -0.016565505 -0.013038812 0.027247429 0.0066337604 -0.039098233
0.060810756 0.0072247987 0.027863115 -0.031050337 0.04905981 0.0010927934 -0.05356728 0.04041695
0.04521745 0.0147336535 0.0603691 0.050564446 0.043736894 -0.052169405 -0.058368385 -0.057533957
0.0034349705 -0.0025783447 -0.042905305 0.038688254 -0.030016357 -0.05869084 -0.0247973 0.01977708
0.05391268 -0.008763424 0.054795958 0.048947133 -0.0541219 -0.056136455 -0.01209375 0.00022316049
-0.057637155 -0.036803037 -0.0037988373 0.018164448 0.009084495 -0.060613547 -0.0257128 0.049856097
0.059901457 0.05714591 0.019336613 -0.00085512165 0.032229375 0.0037363498 0.0036809873 -0.041767556
-0.0020885295 -0.023614122 -0.03474521 -0.03077407 0.015619748 -0.036213405 0.056090698 -0.02295882
0.053289153 -0.013980277 -0.042212345 0.04366399 0.06167381 -0.05261304 -0.015568036 0.0038496228
-0.019221153 -0.010248043 0.034577426 0.0027554908 -0.03130003 0.012460991 -0.006139415 -0.04208982
-0.026354514 0.05412624 0.0026951896 0.039193504 0.019637194 -0.05400118 0.02547307 0.05082577
0.040363867 0.022866124 0.04678279 -0.015195318 0.02764126 0.030631067 -0.027968477 0.011707788
-0.011423624 0.029922891 -0.025355764 0.03797552 -0.002993179 -0.054448664 0.050472993 -0.03133071
-0.0508333 0.04129195 -0.0499668 0.045289192 0.03800622 0.032264058 -0.002237675 0.039363097
-0.027759539 -0.013732001 0.0043270867 0.0053595896 -0.045905076 -0.04329063 -0.022018827 0.02273427
-0.007874227 0.013245344 0.05417972 -0.023545323 0.048817936 -0.0041712457 -0.017183186 -0.014783387
-0.02403969 -0.013428467 0.030820947 -0.022815358 0.05062776 -0.0060231197 -0.017322963 -0.05025994
00000000: 6708 0f3d 0f90 46bd d319 49bc 0242 463d
00000010: 0576 513c 70db 7f3d 621d 293d 56ff 61bc
00000020: 4cb0 0ebc ca9d 44bd c14c ef3c 82cf fabb
00000030: 0836 ed3c 685d 09bc 37ba f43c 6e69 7abd
00000040: b434 2fbd bf94 073d 3e16 d73c d6e4 d73a
00000050: a751 9e3c 9524 7a3d 74ed 90bc 5cec b9bb
00000060: 7720 06bd 676c 223d 6803 60bc 92bd 0f3d
00000070: 18ec 383d 2c5a 513d 4300 01bd 6e35 843c
00000080: 067e 343d b684 873c 9a3d 09bd 7830 f7bc
00000090: 0ad9 7e3d 3e9b d6bb e269 0c3c bb11 ec3c
000000a0: c180 19bd db46 8bbc be63 763d 7ce3 97bb
000000b0: 9e70 9bba 32cf 18bc 8a24 6cbd ca96 d9bc
000000c0: be40 08bc 3a8b 46bd 3d40 583d a086 233d
000000d0: 2fc7 003c 50e0 5ebd a8da 04bd ec61 32bd
000000e0: 7dd6 32bd 905d aa3c 3015 553d 31ae 4ebd
000000f0: 87da 573d 705e e13b 463c 2b3c c5e2 763d
00000100: f012 cfbc 87b1 123d 4651 813d a610 143d
00000110: d2e6 63bd 6988 39bd 74eb 3f3c fa0b 7e3c
00000120: cc1c 67bd f3d1 23bd 6a04 a53c 1f0b 813d
00000130: af56 813c 16c3 3cbd d080 683c 26df 703d
00000140: 97ab 4e3d 23a2 68bd 2204 4b3d 925f 2abd
00000150: 556a 053d 98d5 dd3c e23b 13bc c12b 213d
00000160: ed86 2d3d f2fc 77bd efe6 8ebb d910 20bd
00000170: f262 1a3d edd7 2dbd 7957 e53c 9353 813d
00000180: 9d3b 173d 23ef 43bd f2da 43bd 0e71 cbbb
00000190: dc0b 323d 1efa cfbb 6f36 673b 9bb8 c13b
000001a0: 3083 d8bb 3a3b e539 7aad de3c fdbc ad3c
000001b0: 59ae 213d 6ab0 50bd be6c 83bc ca05 fab9
000001c0: d8e3 10bd d2a7 c9bc 9c1b 0cbc 72f3 343d
000001d0: d5f9 673d aadb af3c 9341 41bd 6b2d 583d
000001e0: 7b76 223b 7ca5 38bc 4109 6a3d 62b4 87bc
000001f0: bea0 55bc 0036 df3c 0460 d93b 7825 20bd
00000200: b314 793d 01be ec3b 3041 e43c 475d febc
00000210: f0f2 483d 103c 8f3a 5d69 5bbd 3e8c 253d
00000220: ef35 393d 6c65 713c 9745 773d aa1c 4f3d
00000230: 7525 333d 96af 55bd b013 6fbd baa8 6bbd
00000240: 3e1d 613b 72f9 28bb 79bd 2fbd 9377 1e3d
00000250: dde4 f5bc ce65 70bd b523 cbbc 8b03 a23c
00000260: 8bd3 5c3d 7794 0fbc ba71 603d ca7c 483d
00000270: edae 5dbd 57ef 65bd dd24 46bc 3000 6a39
00000280: f014 6cbd c8be 16bd eaf5 78bb 9ccd 943c
00000290: 22d7 143c e945 78bd a6a3 d2bc e835 4c3d
000002a0: 3b5b 753d d411 6a3d d167 9e3c 3e2a 60ba
000002b0: f302 043d 8cdd 743b b83c 713b 7514 2bbd
000002c0: b6df 08bb 6772 c1bc fe50 0ebd e719 fcbc
000002d0: f9e9 7f3c 8254 14bd 5cbf 653d 2314 bcbc
000002e0: ba45 5a3d 880d 65bc dae6 2cbd 03d9 323d
000002f0: ad9d 7c3d c580 57bd 1311 7fbc f449 7c3b
00000300: ae75 9dbc 68e7 27bc 0fa1 0d3d 7795 343b
00000310: 7634 00bd 2f29 4c3c 252d c9bb 6066 2cbd
00000320: 6ce5 d7bc 7ab3 5d3d c7a1 303b 5e89 203d
00000330: 2ede a03c 5730 5dbd e6ac d03c af2e 503d
00000340: 9554 253d bd51 bb3c 509f 3f3d c8f5 78bc
00000350: ec6f e23c 01ee fa3c 261e e5bc 06d2 3f3c
00000360: 272a 3bbc da20 f53c e4b6 cfbc 388c 1b3d
00000370: 3629 44bb 9005 5fbd c5bc 4e3d a154 00bd
00000380: 9436 50bd bf21 293d fda9 4cbd 2981 393d
00000390: 69ac 1b3d 5127 043d f5a5 12bb 333b 213d
000003a0: f967 e3bc 30fc 60bc 3cca 8d3b 7f9f af3b
000003b0: f606 3cbd 8451 31bd d460 b4bc 383d ba3c
000003c0: e702 01bc 0003 593c 8eeb 5d3d 1fe2 c0bc
000003d0: 51f5 473d f2ae 88bb c1c3 8cbc 0536 72bc
000003e0: e2ee c4bc 1303 5cbc 367c fc3c 46e7 babc
000003f0: 0e5f 4f3d 975d c5bb e3e8 8dbc 5edd 4dbd

actor.fc2.bias f4 [128]
0.0376467 0.028019825 -0.010277527 0.017197628 -0.054572407 -0.018095275 0.05222692 0.018130396
0.00085062254 0.0051159505 0.026468847 0.025820052 -0.04775442 -0.013773652 -0.028235277 0.019452913
-0.017778896 -0.05019749 0.037159733 0.0073583825 0.054095306 -0.052614976 0.022261994 -0.018658575
-0.047598563 -0.04079856 -0.021801116 -0.0028848317 -0.03850856 -0.050328974 0.040480692 0.03861023
0.0051438943 -0.059119284 -0.007930804 0.05634428 -0.042617783 0.05244457 0.055910755 -0.0133051975
0.032424353 -0.03168094 -0.053239554 0.051210284 -0.036148533 -0.0012446148 -0.04766018 0.016277783
0.022777628 0.02726423 0.04235995 -0.05360313 0.0131944455 0.021896264 0.0018744767 0.06003665
0.015098358 -0.05355779 0.017820524 -0.037768677 -0.050909515 -0.044426627 0.0017358407 -0.029739644
-0.0021506366 -0.032481767 0.03564659 0.05876497 0.03916607 0.031175725 0.0041754534 0.021878615
-0.032831088 0.056202177 0.050084595 -0.016345888 0.051604662 0.060616385 -0.049813032 -0.0051117274
0.018676862 -0.043135297 -0.058872163 0.043915495 0.055972904 -0.046666604 -0.02233877 -0.0015435121
0.057739615 -0.039945208 0.012037678 -0.0027794368 -0.01689735 0.05591921 0.037433717 -0.024192948
0.017575119 0.03596091 -0.027858911 -0.05139284 0.027830547 0.0024411916 0.027335895 0.05851362
-0.02206697 0.053531736 -0.023702445 -0.0049699596 0.016326245 0.046001315 0.056597993 -0.027234426
-0.02348595 0.048018664 0.029537346 0.012216579 0.042662945 -0.03055774 0.005614862 0.03369709
-0.019857872 0.049580507 0.0044485168 -0.010361085 0.031875342 -0.0379862 0.0067117205 0.021329712
00000000: 6d33 1a3d d589 e53c 1363 28bc 0ae2 8c3c
00000010: 5187 5fbd 8b3c 94bc e5eb 553d 3286 943c
00000020: 50fc 5e3a b4a3 a73b 32d5 d83c 9384 d33c
00000030: 249a 43bd e2aa 61bc ab4d e7bc b75b 9f3c
00000040: 0ca5 91bc e29b 4dbd ce34 183d 961e f13b
00000050: 0a93 5d3d cd82 57bd c95e b63c ded9 98bc
00000060: b6f6 42bd 641c 27bd 4198 b2bc 720f 3dbb
00000070: 27bb 1dbd c125 4ebd 15cf 253d c325 1e3d
00000080: 1d8e a83b 1027 72bd 34f0 01bc 42c9 663d
00000090: fc8f 2ebd 1ed0 563d ad02 653d 0bfe 59bc
000000a0: 66cf 043d e0c3 01bd b811 5abd e0c1 513d
000000b0: 7c10 14bd 5822 a3ba 5237 43bd fc58 853c
000000c0: 2698 ba3c 3c59 df3c a081 2d3d f58e 5bbd
000000d0: 842d 583c cb5f b33c 00b1 f53a fee8 753d
000000e0: 1a5f 773c 6a5f 5bbd 59fc 913c 54b3 1abd
000000f0: 7f86 50bd b2f8 35bd 2685 e33a 8ea0 f3bc
00000100: b2f1 0cbb 9a0b 05bd 2902 123d 8ab3 703d
00000110: 9a6c 203d 3c64 ff3c 3ed2 883b c83a b33c
00000120: e479 06bd 4134 663d 8125 4d3d d0e7 85bc
00000130: 695f 533d e348 783d c008 4cbd 4780 a7bb
00000140: 3800 993c a3ae 30bd f023 71bd bce0 333d
00000150: d843 653d 7b25 3fbd ccff b6bc ac4f caba
00000160: 6080 6c3d 969d 23bd ae39 453c 3627 36bb
00000170: 506c 8abc 8b0b 653d 1954 193d 4a30 c6bc
00000180: b2f9 8f3c bf4b 133d 5f38 e4bc 4c81 52bd
00000190: e3fc e33c 66fc 1f3b 87ef df3c faab 6f3d
000001a0: cac5 b4bc 1844 5b3d a12b c2bc 0bdb a2bb
000001b0: 9ebe 853c e06b 3c3d 4cd3 673d bb1a dfbc
000001c0: 9b65 c0bc 38af 443d 4ef8 f13c 0c28 483c
000001d0: 57bf 2e3d 3a54 fabc e0fc b73b f605 0a3d
000001e0: faac a2bc ee14 4b3d ddc4 913b 8ac1 29bc
000001f0: b88f 023d 6b97 1bbd feed db3b a6bb ae3c

actor.policy_head.weight f4 [50, 128]
0.007604097 -0.053916257 0.06773664 -0.023344357 -0.041447755 0.021463368 -0.07179758 0.030066067
0.05700873 0.08748161 -0.081652895 0.04614332 0.009281772 -0.031929623 -0.07723561 -0.02384657
0.04556991 0.075755686 0.00310671 0.061938446 -0.025970917 -0.0028309703 -0.042702205 -0.04305171
0.01659214 0.087463245 0.0062385127 0.0028143702 -0.049571797 -0.05403758 -0.07416993 -0.027095603
0.012566913 -0.08379093 -0.06614417 0.06806224 0.03973168 0.038741425 -0.055380955 0.03855605
-0.056996725 -0.043260086 0.047527656 0.04645773 -0.048841305 0.066263534 -0.07000958 0.03642091
-0.06971997 0.0049107103 -0.05795295 0.019803839 0.024035282 -0.044831775 -0.01685412 -0.06923603
-0.0350669 -0.040271215 -0.065971226 -0.040933095 0.04348639 -0.07721367 -0.017960621 0.032443088
0.056010716 -0.0016095893 -0.08343508 -0.005969093 -0.026904065 -0.056787793 -0.07267404 -0.007966495
0.03614101 -0.009765903 0.06439564 0.042592105 -0.041838385 0.004416922 -0.031188015 0.034618217
0.07019418 0.050401337 0.05847873 -0.051654182 -0.055757772 -0.0029420312 -0.065815285 0.06613587
0.019639323 -0.07453305 0.0016415922 -0.035393793 0.08728718 0.011662961 -0.07868487 -0.002139566
-0.08247477 -0.018160298 -0.040431824 -0.056173228 -0.027487194 -0.07405912 0.0030224384 -0.06068266
0.015747733 -0.046391763 -0.031538278 -0.075062744 -0.008802279 -0.050106186 0.084745884 0.03353857
-0.02603165 0.038855113 -0.0820728 0.04761673 0.055764046 -0.054202814 0.08048299 0.025786001
0.0037484285 0.041701905 0.044076696 -0.06831185 0.00012926094 0.049530186 -0.058544636 -0.007213408
-0.08727558 -0.07516268 -0.06853686 0.037128333 0.085637055 0.0024331592 0.059357207 -0.050602928
0.0034856438 -0.025893107 -0.051550798 0.027602434 -0.06840083 -0.016103877 0.061656434 0.080717
-0.06952869 0.02555865 0.05979174 0.016471865 -0.024500314 0.06518993 -0.0059187417 -0.0097891865
0.087041825 0.029137377 0.06385612 0.031212065 -0.047116995 -0.07685074 0.04933913 0.074767455
-0.059416655 0.08515344 0.047990486 -0.04650062 -0.072503865 -0.022320919 0.02893028 -0.032251205
0.039188765 0.0069165747 -0.032505825 -0.0851966 0.005970099 -0.033475157 -0.018773952 -0.02248209
0.046200115 -0.0037966624 0.018306006 0.06689969 -0.085278116 0.066909835 0.04167412 0.08283201
0.07402757 0.080602475 -0.030311259 -0.040789843 -0.016422408 0.064617015 -0.022599788 0.03840833
-0.008017319 -0.028941404 0.04764396 0.04186472 -0.07228015 0.070583016 -0.054298654 0.029587504
-0.07741324 0.084867105 0.0145183 0.046548493 -0.08736597 -0.019956779 -0.0453248 -0.060743906
-0.0029950433 0.02135983 -0.06145393 -0.018869128 -0.031541742 0.08303847 -0.025282465 -0.061570883
-0.062353414 0.06342174 0.07728067 0.042790867 0.04760902 -0.06887602 -0.071133815 -0.08061554
-0.07811345 0.07051825 0.07420644 -0.0034843888 0.038968645 -0.031077826 -0.06859195 0.008647192
-0.01442157 -0.083248354 0.073902406 -0.078296535 0.07912183 -0.063705675 0.04576568 0.030038422
-0.0013624135 -0.059403174 0.03199152 0.0049503953 0.03467815 0.02399258 -0.059977278 0.039831396
0.082074106 -0.08600096 -0.0050977725 0.042036794 -0.045313876 0.05731184 0.00041210002 0.0634727
00000000: ca2b f93b 4bd7 5cbd 82b9 8a3d aa3c bfbc
00000010: 1fc5 29bd f2d3 af3c 9c0a 93bd 1d4d f63c
00000020: fc81 693d 8f29 b33d a239 a7bd c700 3d3d
00000030: 9312 183c a3c8 02bd b42d 9ebd e259 c3bc
00000040: 84a7 3a3d cc25 9b3d f299 4b3b 2bb3 7d3d
00000050: f6c0 d4bc cd87 39bb 82e8 2ebd fd56 30bd
00000060: 3dec 873c ee1f b33d 706c cc3b 4c71 383b
00000070: cc0b 4bbd 8256 5dbd 67e6 97bd 99f7 ddbc
00000080: 74e5 4d3c 949a abbd 9876 87bd 3764 8b3d
00000090: b0bd 223d 54af 1e3d 24d7 62bd f3ec 1d3d
000000a0: 6675 69bd 7d31 31bd 5cac 423d 764a 3e3d
000000b0: d20d 48bd 2db5 873d 2f61 8fbd 182e 153d
000000c0: 58c9 8ebd 06ea a03b 1360 6dbd a93b a23c
000000d0: a4e5 c43c 86a1 37bd a711 8abc 9fcb 8dbd
000000e0: 4fa2 0fbd 6ef3 24bd ec1b 87bd 76a9 27bd
000000f0: c91e 323d 3322 9ebd 2722 93bc 0be3 043d
00000100: 7e6b 653d dbf8 d2ba 03e0 aabd 6298 c3bb
00000110: ea65 dcbc 519a 68bd 21d6 94bd e785 02bc
00000120: 9808 143d 2b01 20bc dce1 833d 0f75 2e3d
00000130: ba5e 2bbd d4bb 903b 027e ffbc d5cb 0d3d
00000140: f7c1 8f3d a271 4e3d 6587 6f3d 5693 53bd
00000150: 4362 64bd 18cf 40bb 2aca 86bd 3e72 873d
00000160: a5e2 a03c c9a4 98bd b22a d73a 15f9 10bd
00000170: 9fc3 b23d 0116 3f3c 8825 a1bd f637 0cbb
00000180: 88e8 a8bd e8c4 94bc d79b 25bd e615 66bd
00000190: d32c e1bc 4fac 97bd 1a14 463b 628e 78bd
000001a0: 6401 813c 4a05 3ebd 482e 01bd 7fba 99bd
000001b0: 6f37 10bc 253c 4dbd 408f ad3d bd5f 093d
000001c0: 5440 d5bc 8a26 1f3d c915 a8bd c309 433d
000001d0: d768 643d c503 5ebd 44d4 a43d 2a3d d33c
000001e0: 32a8 753b 9ecf 2a3d c489 343d 15e7 8bbd
000001f0: 388a 0739 2ae0 4a3d 80cc 6fbd 745e ecbb
00000200: 8abd b2bd e4ee 99bd 0e5d 8cbd e113 183d
00000210: 7b62 af3d a375 1f3b 8b20 733d 0445 4fbd
00000220: 666f 643b c81d d4bc ee26 53bd 801e e23c
00000230: bc15 8cbd 47ec 83bc 758b 7c3d f44e a53d
00000240: 0f65 8ebd 6060 d13c 2fe8 743d 01f0 863c
00000250: e2b4 c8bc 4c82 853d 01f2 c1bb d362 20bc
00000260: fc42 b23d 82b1 ee3c ffc6 823d 72b0 ff3c
00000270: c0fd 40bd ec63 9dbd d417 4a3d ae1f 993d
00000280: e15e 73bd ed64 ae3d ac91 443d 6f77 3ebd
00000290: e87c 94bd 5cda b6bc 32ff ec3c d719 04bd
000002a0: 6684 203d 6fa4 e23b d424 05bd 8e7b aebd
000002b0: d2a0 c33b 3f1d 09bd d5cb 99bc 5c2c b8bc
000002c0: 553c 3d3d 6dd1 78bb 7af6 953c b402 893d
000002d0: 4ba6 aebd 0608 893d 7bb2 2a3d d4a3 a93d
000002e0: c49b 973d e912 a53d 514f f8bc 4013 27bd
000002f0: 4988 86bc ed55 843d 3123 b9bc 0e52 1d3d
00000300: 135b 03bc 8616 edbc 5026 433d 577a 2b3d
00000310: 9e07 94bd d48d 903d 4468 5ebd 7e61 f23c
00000320: d58a 9ebd cece ad3d 2ade 6d3c a2a9 3e3d
00000330: eeec b2bd 667c a3bc 7fa6 39bd 9ace 78bd
00000340: 7d48 44bb cffa ae3c 1eb7 7bbd 6e93 9abc
00000350: ea31 01bd 1310 aa3d 2c1d cfbc c031 7cbd
00000360: 4b66 7fbd 42e3 813d 5445 9e3d 7a45 2f3d
00000370: ad01 433d df0e 8dbd 9bae 91bd c319 a5bd
00000380: f2f9 9fbd df6b 903d 8cf9 973d 585a 64bb
00000390: 969d 1f3d ed96 febc f079 8cbd f4ac 0d3c
000003a0: 7348 6cbc 1d7e aabd 255a 973d ef59 a0bd
000003b0: a00a a23d 1f78 82bd cb74 3b3d 2313 f63c
000003c0: 0393 b2ba be50 73bd 8a09 033d ed36 a23b
000003d0: ad0a 0e3d 168c c43c bcaa 75bd 3f26 233d
000003e0: 7816 a83d 4521 b0bd 370b a7bb c62e 2c3d
000003f0: 0b9b 39bd d2bf 6a3d 210f d839 fafd 813d

actor.policy_head.bias f4 [50]
0.004615029 -0.071975954 -0.03689065 0.08210697 0.088488154 -0.03123241 -0.079083025 0.01242993
-0.04568768 0.0047436864 -0.013140337 0.058740865 -0.013653333 -0.058043912 -0.04975985 0.023526719
0.0582472 0.032987364 0.001348173 0.017890926 0.012328735 0.024401955 -0.0003604233 0.006541981
0.0371726 -0.040581673 -0.056593683 -0.031404905 -0.056315888 -0.053018812 -0.05086446 -0.014515089
0.045830186 -0.016042992 0.02253215 -0.01059341 -0.030900713 -0.04760384 0.035128046 -0.038999032
-0.045275148 0.050638314 0.01896156 0.08125252 0.021616029 -0.08512395 -0.069752194 -0.0075148987
0.027993243 -0.020051738
00000000: ab39 973b 2168 93bd a61a 17bd b327 a83d
00000010: 4739 b53d 1cdb ffbc 48f6 a1bd e8a6 4b3c
00000020: 0123 3bbd ed70 9b3b 914a 57bc 439a 703d
00000030: 3bb2 5fbc 74bf 6dbd fcd0 4bbd 1bbb c03c
00000040: 9e94 6e3d c21d 073d 2eb5 b03a fe8f 923c
00000050: 76fe 493c 9ce6 c73c 32f7 bcb9 1d5e d63b
00000060: 4c42 183d f838 26bd c7ce 67bd 6ea2 00bd
00000070: 7dab 66bd 412a 59bd 4157 50bd b2d0 6dbc
00000080: 6fb8 3b3d 986c 83bc 5895 b83c fb8f 2dbc
00000090: 7e23 fdbc 3efc 42bd 6de2 0f3d 73bd 1fbd
000000a0: 6f72 39bd 1f6a 4f3d 4655 9b3c b967 a63d
000000b0: 1914 b13c 7755 aebd 3dda 8ebd 8a3f f6bb
000000c0: 1652 e53c 8b43 a4bc

critic.fc1.weight f4 [256, 21]
-0.18603456 -0.20394808 0.20203222 0.009092714 0.004937079 0.0007215518 -0.1530958 0.14952478
-0.17268063 0.12135626 0.19449565 0.21165128 -0.18624529 0.056881353 -0.19556506 -0.07372556
-0.1029802 -0.03742086 0.06498848 0.028529884 -0.11284101 0.080375835 0.2055207 0.19848663
0.20500982 0.17142561 0.09123594 -0.15958832 -0.20107053 0.17963035 -0.01209208 0.11444948
-0.0648405 0.01314245 0.036813807 0.17778955 -0.080549896 -0.14712833 0.08986214 0.08750679
-0.075503215 -0.20020038 0.21187712 0.13590588 -0.14793366 -0.16955227 -0.0872994 -0.0037940585
0.1397982 0.19261727 -0.0566588 0.06392455 0.001270141 0.08248969 -0.19443329 -0.18010908
0.21357572 0.20984145 0.20127217 -0.05533692 0.021440594 -0.1334951 -0.20707741 0.14766148
-0.09416746 -0.20087999 -0.043739725 0.08138636 -0.055452175 -0.20018251 -0.102362946 -0.08491757
0.062555276 -0.08457445 -0.14805813 0.09283107 -0.13124402 -0.0015047104 0.010213917 -0.08630543
0.115656845 -0.09423525 0.17029397 0.06306402 0.050169047 0.014537976 -0.010885534 0.21761918
0.20591496 -0.10327366 -0.12441629 0.010279066 0.2098922 -0.07260436 -0.11128311 -0.20078626
0.14512494 0.13286164 0.09608354 -0.060016926 0.067410596 0.19062322 -0.056964517 -0.20461182
-0.21410388 0.15535851 -0.11309133 0.17894356 -0.06004901 -0.1500753 -0.06656752 0.09890587
-0.21012458 0.10575157 -0.113068126 0.1899735 -0.12451079 0.15134117 0.0603502 0.15992919
-0.14858727 -0.15734546 -0.09952263 -0.07920969 -0.016379558 0.034302995 0.14535815 0.042073663
-0.03530905 0.08712117 -0.11064701 -0.17858873 -0.19382861 0.02123865 -0.17666754 0.1273446
0.08593782 0.15557665 -0.13746999 -0.12258481 0.13789529 0.15174711 -0.037743308 -0.19521981
-0.17260636 -0.06765786 0.053124446 0.21684459 -0.041017115 -0.21388547 -0.21206738 -0.08005529
0.15315315 -0.0626844 -0.197349 -0.0895762 -0.065114796 -0.10415035 -0.03415343 0.090526365
-0.12974729 -0.011925237 -0.07052856 0.043248072 -0.14514492 -0.10609998 -0.18647522 -0.053421684
-0.1596282 0.12580994 0.08432462 -0.21710153 0.034641348 -0.19547056 0.037622627 -0.099517085
0.008414094 -0.1013441 -0.17847238 0.049825888 0.0063394103 -0.001134133 0.11145951 -0.16609849
-0.19388162 -0.14205463 0.11035625 -0.1287965 0.07009928 0.20234047 -0.10830574 -0.19074258
0.11084763 -0.17732528 0.020786325 0.09513241 0.027766418 0.14127052 0.16075876 -0.014380314
-0.066857114 0.13673986 -0.15837756 -0.116939634 0.03550972 -0.13095735 0.18020016 0.15693644
-0.14991891 -0.1724894 0.0059860465 -0.11737161 -0.15243518 0.12619534 -0.20617719 -0.1760817
0.118338704 0.026299631 0.15073523 0.035099525 0.10425151 -0.062636554 -0.13298896 0.017063761
-0.06824541 0.17948022 -0.17558677 0.12747444 -0.073744595 -0.18680231 -0.08794719 0.21851547
-0.20673981 -0.111527584 -0.055792887 0.14902085 -0.13787872 -0.06891249 -0.017864464 0.19244403
-0.036388323 0.14330466 -0.17403997 0.12359935 0.030133562 -8.332288e-05 0.026959006 -0.11084979
0.20607433 0.0710385 0.02563067 0.05907418 -0.12182644 0.031807993 -0.2118504 -0.12537013
00000000: d87f 3ebe c4d7 50be 89e1 4e3e 9bf9 143c
00000010: 38c7 a13b 8626 3d3a 25c5 1cbe 061d 193e
00000020: 31d3 30be a189 f83d de29 473e 1dbb 583e
00000030: 16b7 3ebe 6cfc 683d 3542 48be 6dfd 96bd
00000040: 48e7 d2bd 9e46 19bd ae18 853d 81b7 e93c
00000050: 3019 e7bd 169c a43d 0574 523e 1440 4b3e
00000060: 18ee 513e 328a 2f3e e9d9 ba3d 1f6b 23be
00000070: 6fe5 4dbe 05f1 373e dc1d 46bc 7d64 ea3d
00000080: 19cb 84bd 6e53 573c 13ca 163d 770e 363e
00000090: 58f7 a4bd cfa8 16be a409 b83d c336 b33d
000000a0: 6ea1 9abd 5401 4dbe 51f6 583e e92a 0b3e
000000b0: ec7b 17be 1c9f 2dbe 07ca b2bd bda5 78bb
000000c0: 4227 0f3e 763d 453e 0f13 68bd e0ea 823d
000000d0: dc7a a63a 5bf0 a83d 8519 47be 846e 38be
000000e0: 98b3 5a3e ade0 563e 4b1a 4e3e f7a8 62bd
000000f0: 2fa4 af3c f1b2 08be 1a0c 54be 9234 173e
00000100: dfda c0bd 7cb3 4dbe 6d28 33bd e4ad a63d
00000110: d221 63bd a5fc 4cbe aaa3 d1bd 43e9 adbd
00000120: fb1c 803d 5f35 adbd 8d9c 17be 371e be3d
00000130: d564 06be b439 c5ba 4658 273c e7c0 b0bd
00000140: 7fdd ec3d 69fe c0bd 8b61 2e3e b527 813d
00000150: 0f7e 4d3d b130 6e3c 3d59 32bc 90d7 5e3e
00000160: 5fdb 523e 2481 d3bd f8cd febd 8769 283c
00000170: fbed 563e 98b1 94bd 66e8 e3bd ea9a 4dbe
00000180: a29b 143e e20c 083e 72c7 c43d 4fd4 75bd
00000190: 910e 8a3d bc32 433e a053 69bd c385 51be
000001a0: 0c3e 5bbe 4d16 1f3e 6d9c e7bd fb3c 373e
000001b0: f3f5 75bd 57ad 19be 8d54 88bd 298f ca3d
000001c0: e62a 57be 4794 d83d 4390 e7bd 6a88 423e
000001d0: 83ff febd 2ef9 1a3e c531 773d 7ac4 233e
000001e0: 4327 18be 2b1f 21be 85d2 cbbd b138 a2bd
000001f0: 6c2e 86bc 4c81 0c3d c4d8 143e 6f55 2c3d
00000200: 39a0 10bd 956c b23d e69a e2bd f7df 36be
00000210: 027b 46be adfc ad3c 56e8 34be 9f66 023e
00000220: 2b00 b03d 7c4f 1f3e efc4 0cbe bf0d fbbd
00000230: 6c34 0d3e 9863 1b3e ba98 1abd b4e7 47be
00000240: b9bf 30be 3490 8abd 0599 593d 820c 5e3e
00000250: 9001 28bd cb04 5bbe 3128 59be 07f4 a3bd
00000260: 2ed4 1c3e ae60 80bd db15 4abe ba73 b7bd
00000270: e85a 85bd c74c d5bd 78e4 0bbd e365 b93d
00000280: 79dc 04be 1262 43bc 4771 90bd e424 313d
00000290: dfa0 14be f24a d9bd 5cf3 3ebe b2d0 5abd
000002a0: 9375 23be 52d4 003e 63b2 ac3d dd4f 5ebe
000002b0: 16e4 0d3d 6f29 48be 2f1a 1a3d 9dcf cbbd
000002c0: 45db 093c 7f8d cfbd 77c1 36be 3b16 4c3d
000002d0: d4ba cf3b 30a7 94ba e244 e43d b915 2abe
000002e0: e788 46be c576 11be 7502 e23d 3be3 03be
000002f0: 3690 8f3d 5732 4f3e 66cf ddbd 0652 43be
00000300: 1504 e33d c294 35be 1548 aa3c c8d4 c23d
00000310: 6676 e33c 38a9 103e f29d 243e 699b 6bbc
00000320: 62ec 88bd 8905 0c3e ba2d 22be 0c7e efbd
00000330: a472 113d af19 06be 6486 383e f2b3 203e
00000340: 5884 19be 10a1 30be 9926 c43b 8760 f0bd
00000350: f817 1cbe 5a39 013e 1d20 53be c34e 34be
00000360: 905b f23d 5372 d73c 565a 1a3e 85c4 0f3d
00000370: d181 d53d 9847 80bd 422e 08be 4dc9 8b3c
00000380: 40c4 8bbd aac9 373e 05cd 33be a988 023e
00000390: 6807 97bd 1b49 3fbe a81d b4bd 85c2 5f3e
000003a0: 9ab3 53be 9368 e4bd 1587 64bd ec98 183e
000003b0: 1430 0dbe fe21 8dbd 7f58 92bc 0c10 453e
000003c0: ec0b 15bd 75be 123e 8937 32be a821 fd3d
000003d0: a9da f63c a1bd aeb8 22d9 dc3c 3705 e3bd
000003e0: 2605 533e a27c 913d 69f7 d13c c4f7 713d
000003f0: 2480 f9bd 1949 023d 50ef 58be 0761 00be

critic.fc1.bias f4 [256]
0.051559214 -0.20708959 -0.2037145 -0.054163177 -0.022229515 0.120779686 -0.10283664 -0.025065577
-0.021784818 0.016269648 -0.036949974 0.0961447 -0.044136293 0.18040374 0.12533277 -0.036679443
-0.053316493 -0.04054132 -0.17939071 0.18962634 -0.1669925 0.051410973 0.030784637 0.043534644
0.031663124 0.10983371 -0.16632697 0.050926022 0.026357338 0.05084084 0.11652992 0.14361218
0.16777672 -0.10378882 0.16412716 -0.014595596 0.09588245 0.017712362 -0.13215967 0.1489416
0.089831606 -0.07390188 -0.1672954 -0.09948492 -0.030610116 0.08295892 0.010291475 -0.2040833
-0.15216962 -0.1376364 -0.14236708 -0.17542066 0.14317241 -0.0747976 0.11172049 0.032155994
-0.20787688 0.16850235 0.17792131 0.015923567 0.08641853 -0.1844396 -0.21087848 0.06307931
0.18625623 0.012892747 0.038001154 -0.06425868 0.17483129 0.19146533 0.04819803 -0.1096714
0.07760599 -0.014330591 0.15657404 0.13248868 0.13152689 -0.18279287 0.14883988 -0.20115526
-0.06361794 0.21629415 0.08120809 -0.011829647 -0.15870722 0.083565764 0.04770639 -0.08654404
-0.15371875 0.13181713 0.13061342 0.18156677 0.057716023 0.12489901 -0.034288026 -0.116760686
-0.16260989 0.04245582 -0.068465136 -0.1722177 0.1008572 0.21732025 0.14969996 -0.20435089
-0.003221298 -0.21009497 0.07299426 0.060775 0.11532852 -0.18676397 -0.023298072 -0.09771743
-0.020886082 -0.023392208 0.05680675 0.10364431 0.06523351 0.018122992 -0.10649505 0.013134024
0.10391715 0.07776575 -0.024881573 -0.07787796 0.19439903 -0.032848217 0.20101845 -0.16918637
-0.19258572 -0.0019173579 0.17829044 0.19094197 -0.040377155 0.06029867 0.027443705 -0.17183045
-0.010655836 -0.04511693 -0.00023861977 0.16970742 0.21511722 -0.046442807 0.1750825 0.16870832
0.14015648 0.20824412 0.12907213 0.09124057 0.09936601 -0.005448194 -0.044679247 0.19304915
-0.20860551 0.022167057 -0.2135189 -0.16850425 0.004347233 -0.1903812 0.02654838 -0.107138686
-0.047439516 -0.10980206 -0.008313433 0.08078938 0.12822998 0.19241817 0.11298595 -0.1358005
0.19190195 0.036742583 -0.14674751 -0.031845927 0.1327574 -0.04433335 0.19658755 0.11236784
0.20732553 -0.060519 0.10514082 -0.21365479 -0.08596416 0.21499988 -0.004774813 0.14257723
-0.120103955 0.092714384 -0.055987168 -0.21556723 -0.02176055 0.06824893 -0.18502037 -0.044100173
0.058974378 -0.10462388 -0.15289915 -0.07007689 0.044373143 -0.21601363 -0.20243694 0.15347661
0.020447496 0.1664571 0.09803875 0.077819064 0.18876956 0.017770147 0.098246 0.065089054
-0.16861355 0.047329243 0.052790146 -0.024352279 0.21405387 0.17862417 0.024525166 0.06690415
-0.18562947 -0.09924759 0.030805063 0.14582072 -0.15556444 0.02810279 -0.07536756 -0.16559176
-0.20682204 -0.019002939 0.20651749 -0.015286523 0.19539993 -0.17363179 -0.11090973 -0.20358509
0.21309575 -0.04497505 0.1889276 0.055499893 -0.16708934 -0.17634259 -0.195336 -0.20477854
0.024553752 -0.117950596 0.18995714 -0.15827921 0.18051961 0.0840218 0.1465794 0.12421263
0.18434754 -0.0038961528 -0.01789159 0.19086066 0.1408474 0.04679257 -0.07276605 -0.12856822
00000000: c12f 533d 4b0f 54be 899a 50be 35da 5dbd
00000010: ac1a b6bc 575b f73d 049c d2bd 5356 cdbc
00000020: 1376 b2bc ed47 853c db58 17bd 83e7 c43d
00000030: 42c8 34bd c2bb 383e 3c57 003e 2f3d 16bd
00000040: 6562 5abd a80e 26bd 33b2 37be 682d 423e
00000050: 1500 2bbe 5094 523d 1030 fc3c 6251 323d
00000060: 31b1 013d 7ff0 e03d 9e51 2abe ce97 503d
00000070: 58eb d73c 7c3e 503d 3da7 ee3d 120f 133e
00000080: a9cd 2b3e 3c8f d4bd f310 283e 5e22 6fbc
00000090: 055e c43d 8419 913c dd54 07be 2684 183e
000000a0: a2f9 b73d de59 97bd 7c4f 2bbe c0be cbbd
000000b0: 11c2 fabc 5ee6 a93d 939d 283c 36fb 50be
000000c0: 5ad2 1bbe 8ef0 0cbe adc8 11be 79a1 33be
000000d0: ca9b 123e 7c2f 99bd b6cd e43d 01b6 033d
000000e0: addd 54be e18b 2c3e 0131 363e 2472 823c
000000f0: 33fc b03d bcdd 3cbe 87f0 57be ba2f 813d
00000100: f4b9 3e3e 1a3c 533c 19a7 1b3d 0e9a 83bd
00000110: f906 333e 7d0f 443e 4c6b 453d 669b e0bd
00000120: e4ef 9e3d dbca 6abc f254 203e 1dab 073e
00000130: fcae 063e 0e2e 3bbe 7b69 183e a5fb 4dbe
00000140: 1f4a 82bd 377c 5d3e 6d50 a63d 23d1 41bc
00000150: 2584 22be 8724 ab3d c767 433d 003e b1bd
00000160: 7368 1dbe 12fb 063e 86bf 053e a4ec 393e
00000170: a367 6c3d 0dcb ff3d 9a71 0cbd 3a20 efbd
00000180: 3583 26be 27e6 2d3d 7337 8cbd d659 30be
00000190: 388e ce3d 3389 5e3e f24a 193e 5c41 51be
000001a0: 6a1c 53bb 2323 57be 047e 953d 35ef 783d
000001b0: 5c31 ec3d 0e3f 3fbe 99db bebc 1320 c8bd
000001c0: 4a19 abbc 04a1 bfbc 32ae 683d 7843 d43d
000001d0: 2699 853d ab76 943c 141a dabd 1730 573c
000001e0: 84d2 d43d a643 9f3d 71d4 cbbc 7b7e 9fbd
000001f0: 8a10 473e da8b 06bd c8d7 4d3e 313f 2dbe
00000200: 3135 45be db4f fbba c591 363e 4b86 433e
00000210: 8462 25bd bdfb 763d 9fd1 e03c 52f4 2fbe
00000220: d195 2ebc 88cc 38bd 0236 7ab9 c8c7 2d3e
00000230: b047 5c3e d03a 3ebd d448 333e e0c1 2c3e
00000240: 2e85 0f3e f23d 553e 7c2b 043e 56dc ba3d
00000250: 6880 cb3d c486 b2bb 9601 37bd adae 453e
00000260: af9c 55be b097 b53c b3a4 5abe 618c 2cbe
00000270: 3c73 8e3b 4af3 42be fd7b d93c 876b dbbd
00000280: f04f 42bd e7df e0bd 1135 08bc e774 a53d
00000290: b84e 033e 4509 453e 2e65 e73d 490f 0bbe
000002a0: f281 443e 647f 163d fb44 16be e070 02bd
000002b0: 8ef1 073e e396 35bd 3f4e 493e 1c21 e63d
000002c0: 254d 543e c5e2 77bd 1254 d73d 52c8 5abe
000002d0: fa0d b0bd ee28 5c3e 0976 9cbb c4ff 113e
000002e0: 10f9 f5bd 0ae1 bd3d cd52 65bd a8bd 5cbe
000002f0: 2e43 b2bc 18c6 8b3d fb75 3dbe 62a2 34bd
00000300: 1e8f 713d 0b45 d6bd 9891 1cbe 7984 8fbd
00000310: 9dc0 353d ad32 5dbe a14b 4fbe f928 1d3e
00000320: 8281 a73c bb73 2a3e 8ac8 c83d 9a5f 9f3d
00000330: cf4c 413e b392 913c 3335 c93d 694d 853d
00000340: 08a9 2cbe 4fdc 413d 7b3a 583d 6e7e c7bc
00000350: f030 5b3e 41e9 363e 00e9 c83c 0b05 893d
00000360: a715 3ebe 5242 cbbd e65a fc3c 0752 153e
00000370: 494c 1fbe d237 e63c 4f5a 9abd e390 29be
00000380: 28c9 53be 0dac 9bbc 5279 533e 5374 7abc
00000390: eb16 483e 88cc 31be a424 e3bd 9c78 50be
000003a0: c635 5a3e c237 38bd 3d76 413e db53 633d
000003b0: 7819 2bbe 2793 34be 2906 48be 77b1 51be
000003c0: f324 c93c 1590 f1bd 2084 423e f213 22be
000003d0: 22da 383e 9f13 ac3d e918 163e 3163 fe3d
000003e0: 9ac5 3c3e 9956 7fbb 6291 92bc fa70 433e
000003f0: 4d3a 103e 91a9 3f3d 5e06 95bd 63a7 03be

critic.fc2.weight f4 [128, 256]
0.053043075 -0.047170162 0.015834235 0.061890103 -0.009588328 -0.05803448 -0.038331304 0.05667069
0.030932788 0.031688746 0.044625655 -0.039392367 -0.005422398 0.004954762 -0.047909666 -0.046724427
0.0031344788 0.0504976 -0.041083258 -0.0069451355 0.04416108 0.02923093 0.008270206 0.03619477
-0.061983336 -0.0048645725 -0.0064265714 -0.028396875 -0.04519661 0.009749346 -0.040714715 0.055149894
0.020635769 -0.053051766 0.0132342875 -0.0029575496 0.00074566517 0.02580223 -0.050312944 -0.051620938
-0.00860592 0.018753143 0.04348464 0.040845618 -0.030361487 -0.055019565 0.0147905005 0.045835238
-0.04326342 0.04570828 -0.045299318 -0.043491058 -0.058085408 0.034393515 -0.035435405 -0.052704252
0.05721024 0.011736012 -0.0106953 -0.055213675 0.050357416 -0.059825864 -0.0010199475 0.023759937
0.04212491 0.05917577 -0.038858302 -0.012369236 0.047890898 0.033719964 -0.022986459 0.048532084
-0.0012427935 0.04958217 0.010731841 -0.025125101 0.036855828 0.016705653 0.013327636 -0.005891998
-0.03864098 -0.060391955 -0.022709064 -0.020216916 0.042215228 -0.01070267 0.05314633 0.013156822
0.052682124 -0.035736047 -0.0019192589 -0.033043478 -0.041939575 0.050676115 0.027553089 -0.038138147
0.022384211 0.0466309 -0.025761332 0.014312997 -0.054349985 0.02673422 -0.018761996 0.04159565
-0.04872847 0.020730495 0.017832119 -0.03837805 0.040751617 0.037121724 -0.042589124 0.0033543194
-0.03725016 0.017872486 0.013309896 0.003993351 0.02862738 -0.033130217 -0.045091927 -0.00848639
0.004830892 -0.024530826 0.05551212 0.025383221 -0.024083506 0.051947042 0.03927755 -0.02591099
0.034897044 0.050801422 0.01515647 -0.0014950698 0.057250246 0.017852522 0.044594176 0.05422231
-0.016510958 0.039050933 -0.03532294 -0.017780447 -0.0465499 0.035774577 0.052635252 -0.014290455
-0.047647666 -0.047436487 0.0015251895 -0.011848621 0.002759627 0.038970582 0.035404388 -0.031600475
-0.02437065 -0.0021734806 -0.01824462 0.018735241 0.032700572 0.026351755 -0.045038573 0.014897534
-0.027250396 0.060126096 -0.056953866 -0.04897287 0.05599656 0.016216764 0.053444415 -0.020538433
0.027008208 0.019675802 -0.059103947 0.020299327 0.01868001 -0.00673275 0.03884008 0.0076123476
-0.038517702 -0.027430756 -0.04410394 0.051686544 -0.01686269 -0.009723155 -0.04784625 -0.022437321
0.037387304 -0.029032538 -0.04836219 -0.056903414 0.024036556 0.015003066 -0.04101809 -0.0002575477
-0.015066317 -0.023082284 0.059515778 -0.05917678 0.056249082 -0.03272208 -0.0016864847 0.042760182
0.024526823 -0.02230939 0.061631937 0.012278588 0.038514055 0.011112701 -0.058953244 -0.02595921
-0.010171496 0.010633364 0.0064077824 0.042836852 0.048054207 0.044934046 -0.01040611 0.010336983
0.046176665 -0.044949524 0.0537639 0.028854731 0.058380447 0.013877349 0.006766828 0.017605629
0.027117284 0.05104811 -0.052060116 0.014736313 -0.059803173 0.041634593 -0.00010008263 0.03270631
-0.018339492 0.03128735 -0.036367856 0.04312839 -0.028111132 -0.010352777 -0.045692157 -0.034332592
0.000963434 0.0060701007 -0.019711744 -0.0044023157 -0.032508574 -0.045305736 0.0141656725 0.00078142167
-0.057858195 -1.911832e-05 0.049616784 0.020196658 0.017752355 0.0050687282 -0.050873626 -0.024111861
00000000: b243 593d 8035 41bd ccb6 813c 7a80 7d3d
00000010: 5d18 1dbc 90b5 6dbd 4901 1dbd 871f 683d
00000020: c266 fd3c 0fcc 013d 64c9 363d e459 21bd
00000030: 5fae b1bb 8e5b a23b ed3c 44bd 1d62 3fbd
00000040: d46b 4d3b 92d6 4e3d eb46 28bd 0594 e3bb
00000050: 40e2 343d b475 ef3c c27f 073c f840 143d
00000060: 3de2 7dbd fe66 9fbb fd95 d2bb 90a0 e8bc
00000070: 1520 39bd b9bb 1f3c 79c4 26bd dbe4 613d
00000080: 580c a93c cf4c 59bd a0d4 583c 73d3 41bb
00000090: be78 433a 335f d33c f214 4ebd 7a70 53bd
000000a0: d8ff 0cbc 31a0 993c f31c 323d bc4d 273d
000000b0: a7b8 f8bc 325c 61bd db53 723c bbbd 3b3d
000000c0: fc34 31bd 9b38 3b3d c78b 39bd ae23 32bd
000000d0: f7ea 6dbd 37e0 0c3d b724 11bd 6ae0 57bd
000000e0: 4955 6a3d 6748 403c 573b 2fbc bc27 62bd
000000f0: 9443 4e3d f70b 75bd c2af 85ba 33a4 c23c
00000100: 2b8b 2c3d 4b62 723d e229 1fbd 56a8 4abc
00000110: 3f29 443d f21d 0a3d 194e bcbc 94c9 463d
00000120: 3be5 a2ba ac16 4b3d 9bd4 2f3c 28d3 cdbc
00000130: 23f6 163d 4bda 883c 285c 5a3c a911 c1bb
00000140: 0146 1ebd 8e5d 77bd 5c08 babc f29d a5bc
00000150: e0e9 2c3d 405a 2fbc f7af 593d b68f 573c
00000160: 36c9 573d f65f 12bd a48f fbba 9958 07bd
00000170: d5c8 2bbd c291 4f3d 04b7 e13c bf36 1cbd
00000180: 185f b73c 0b00 3f3d 6e09 d3bc 1081 6a3c
00000190: 179e 5ebd b901 db3c c2b2 99bc 3360 2a3d
000001a0: 8197 47bd 00d3 a93c aa14 923c 4d32 1dbd
000001b0: 2beb 263d f30c 183d ef71 2ebd 24d4 5b3b
000001c0: a093 18bd 5269 923c c011 5a3c a8da 823b
000001d0: f883 ea3c 8db3 07bd 50b2 38bd 800a 0bbc
000001e0: 764c 9e3b dff4 c8bc ad60 633d 79f0 cf3c
000001f0: c64a c5bc 6cc6 543d 7fe1 203d 4943 d4bc
00000200: 34f0 0e3d 2715 503d d852 783c 38f6 c3ba
00000210: 3c7f 6a3d 743f 923c 62a8 363d 3718 5e3d
00000220: fd41 87bc dff3 1f3d caae 10bd 4da8 91bc
00000230: 1cab 3ebd 5d88 123d 1098 573d 8322 6abc
00000240: 332a 43bd c34c 42bd dee8 c73a b820 42bc
00000250: dcda 343b 9e9f 1f3d 3104 113d 806f 01bd
00000260: f5a4 c7bc f470 0ebb be75 95bc a67a 993c
00000270: 09f1 053d a3df d73c 5e7a 38bd c914 743c
00000280: 393c dfbc c846 763d 7548 69bd c797 48bd
00000290: a65c 653d 05d9 843c 88e8 5a3d 3740 a8bc
000002a0: 5140 dd3c 262f a13c fb16 72bd c64a a63c
000002b0: d206 993c 679e dcbb c716 1f3d 0071 f93b
000002c0: bdc4 1dbd 77b6 e0bc 55a6 34bd 45b5 533d
000002d0: a023 8abc de4d 1fbc 6efa 43bd 79ce b7bc
000002e0: 6e23 193d a5d5 edbc 6f17 46bd 8e13 69bd
000002f0: 50e8 c43c 6bcf 753c 9602 28bd 7807 87b9
00000300: b7d8 76bc 0f17 bdbc d1c6 733d 5a63 72bd
00000310: 7065 663d 9607 06bd 090d ddba 4d25 2f3d
00000320: 7aec c83c 2fc2 b6bc c571 7c3d 212c 493c
00000330: eac0 1d3d 0c12 363c f578 71bd 69a8 d4bc
00000340: 59a6 26bc 9037 2e3c 60f8 d13b b275 2f3d
00000350: 7dd4 443d c30c 383d 647e 2abc 735c 293c
00000360: be23 3d3d fe1c 38bd 8937 5c3d c260 ec3c
00000370: 5620 6f3d d25d 633c 44bc dd3b ae39 903c
00000380: 1125 de3c d317 513d fd3c 55bd 9470 713c
00000390: 2cf4 74bd 0989 2a3d 74e3 d1b8 0df7 053d
000003a0: b43c 96bc 2a27 003d 76f6 14bd 65a7 303d
000003b0: 5149 e6bc b29e 29bc b327 3bbd 55a0 0cbd
000003c0: f68e 7c3a b2e7 c63b 867a a1bc 4d41 90bb
000003d0: b627 05bd 8292 39bd 2317 683c 52d8 4c3a
000003e0: b7fc 6cbd 4860 a0b7 f83a 4b3d 7673 a53c
000003f0: 636d 913c 9317 a63b dd60 50bd 3d86 c5bc
