server/policies/checkpoints/policy_2_270/model.pt (torch, 338258 bytes, 11 tensors)

actor.fc1.weight f4 [256, 21]
0	0xbe3a8d1a	-0.18217888
1	0x3d9517e4	0.072799474
2	0x3c0898d5	0.008337219
3	0xbe32e888	-0.17471516
4	0xbe5b7024	-0.21429497
5	0xbd01ea25	-0.03171744
6	0xbc3247b4	-0.010881353
7	0x3d142b74	0.036174253
8	0xbdafa317	-0.08576029
9	0x3de77fd6	0.1130368
10	0x3e3b58d9	0.18295611
11	0x3cdff29d	0.027337367
12	0x3e2eda37	0.1707543
13	0x3d3b37f2	0.04570765
14	0x3dde0105	0.10840038
15	0xbd1f00be	-0.038819067
16	0x3e19d565	0.1502281
17	0x3e5e25ea	0.2169415
18	0xbdbc95a3	-0.092082284
19	0xbd83b9cd	-0.06431923
20	0xbcefe627	-0.02928455
21	0x3e5745f5	0.2102278
22	0x3d39a6f3	0.04532523
23	0xbe45def6	-0.19323334
24	0xbe57db64	-0.21079785
25	0xbd6f57fe	-0.058433525
26	0x3e421175	0.18951972
27	0x3e45827f	0.19288062
28	0xbdc636a1	-0.096783884
29	0x3da5de7e	0.08099078
30	0xbde559d1	-0.11198772
31	0x3e3065bd	0.1722631
32	0x3d053b1d	0.032527078
33	0x3d941c29	0.072319336
34	0xbd11f23b	-0.0356314
35	0x3d7fc1f3	0.062440824
36	0x3e425a7f	0.18979834
37	0xbdbb7f5c	-0.09155151
38	0x3e36ecdf	0.17863797
39	0xbe014bd0	-0.12626576
40	0x3e21a2eb	0.15784805
41	0x3e07e006	0.13269052
42	0xbd0a19ce	-0.033716016
43	0x3d55304c	0.052048013
44	0xbe31e18c	-0.17371196
45	0xbde92550	-0.1138407
46	0xbe019a60	-0.12656546
47	0xbe55fe10	-0.20897698
48	0xbd99e0f7	-0.07513612
49	0x3da9ecee	0.08297144
50	0xbdb283a7	-0.08716517
51	0x3cf2041a	0.029542971
52	0x3c26dfae	0.010185165
53	0xbe123b35	-0.14280398
54	0xb9897ffc	-0.00026226032
55	0x3e34f41f	0.1767125
56	0xbe4ac729	-0.19802536
57	0x3e22254a	0.15834537
58	0x3da28f20	0.07937455
59	0x3e2f450a	0.1711618
60	0xbdb3e051	-0.08783019
61	0xbd14d9fe	-0.036340706
62	0xbd8169bd	-0.06318996
63	0x3deff557	0.11716717
64	0xbcc10eb6	-0.023566585
65	0xbe5cf076	-0.21576104
66	0x3ca9b940	0.020718217
67	0x3dc03f3b	0.0938706
68	0x3e52fe93	0.20604925
69	0xbe5dee26	-0.21672878
70	0x3db0b324	0.08627918
71	0x3d5d4c1f	0.054027673
72	0x3e464e79	0.19365872
73	0x3da0b17f	0.07846355
74	0xbd4d07a5	-0.05005612
75	0x3e43adaf	0.19109224
76	0xbdd7861c	-0.10523626
77	0x3ae60f80	0.0017552227
78	0xbe0fb992	-0.14035633
79	0xbe57a413	-0.21058683
80	0xbd587a5f	-0.052851077
81	0xbe3420ec	-0.17590684
82	0x3dede181	0.11615277
83	0x3e154a9d	0.14579244
84	0x3d8d4205	0.06897358
85	0xbe2865e9	-0.16445126
86	0xbd359df8	-0.044340104
87	0xbd2b8598	-0.04187545
88	0xbd24181f	-0.040062066
89	0x3d4df785	0.05028488
90	0x3e3a2463	0.18177943
91	0x3de952f5	0.11392776
92	0x3d47d14c	0.048783585
93	0xbccd845a	-0.025087524
94	0x3e3dee24	0.18547875
95	0xbdb08c3e	-0.08620499
96	0xbe32ddda	-0.17467442
97	0x3d316d9f	0.043317433
98	0x3daaeae2	0.083455816
99	0xbe0c0263	-0.13672785
100	0x3e156d54	0.14592487
101	0xbdbcc02d	-0.09216342
102	0x3c8817d6	0.016612928
103	0x3e0e4b2d	0.13895865
104	0xbde9622a	-0.113956764
105	0x3e59f7a3	0.21285872
106	0xbdb0826e	-0.086186275
107	0x3e4f3566	0.20235214
108	0x3e12dc8a	0.14341941
109	0xbe18a279	-0.14905728
110	0x3e0a8295	0.13526376
111	0x3dfca218	0.123356044
112	0x3e05217a	0.13001052
113	0x3e06f181	0.13178064
114	0x3e28217a	0.1641902
115	0x3e452827	0.19253598
116	0x3d5c8830	0.053840816
117	0xbdbcf236	-0.092258856
118	0xbe5bc93e	-0.21463487
119	0xbdceca55	-0.100971855
120	0x3ca2d12f	0.019875137
121	0x3e430bd2	0.19047478
122	0x3dfae012	0.12249769
123	0x3e4050e2	0.18780854
124	0x3dcc2e95	0.09969822
125	0xbe3dba72	-0.18528154
126	0x3e187d2a	0.14891496
127	0x3df539e9	0.11973936
128	0xbc648d13	-0.01394965
129	0x3ca27bd9	0.019834446
130	0x3e3abc2c	0.18235844
131	0x3d0ba235	0.03409024
132	0xbe5c04ef	-0.21486257
133	0xbdefb098	-0.117036045
134	0x3e20c430	0.1569984
135	0x3e546a40	0.20743656
136	0x3e2c2365	0.16810377
137	0x3d5a90d6	0.053360783
138	0x3e137d71	0.14403321
139	0xbdc0eb57	-0.094198875
140	0x3e050370	0.12989593
141	0xbd6efd34	-0.058346942
142	0x3d41f3e0	0.047351718
143	0x3e1d0edb	0.15337698
144	0xbd85a926	-0.06526403
145	0xbd471c47	-0.04861095
146	0xbdfe0940	-0.12404108
147	0xbd783cd1	-0.060604874
148	0x3de36290	0.11102784
149	0x3d85f4d7	0.0654084
150	0x3e06748d	0.13130398
151	0xbbc71777	-0.0060757953
152	0xbd096d56	-0.033551537
153	0x3ce05b2f	0.02738723
154	0x3b70f71c	0.0036768382
155	0x3cd86b2f	0.026418297
156	0xbe53557f	-0.20638083
157	0xbd2474de	-0.040150516
158	0x3e167d32	0.14696196
159	0x3d2d67bb	0.042335253
160	0xbe30637f	-0.17225455
161	0x3e41a85b	0.18911879
162	0x3e40a5f1	0.18813302
163	0xbe1da825	-0.15396173
164	0xbdb16c3a	-0.08663221
165	0x3d0c4bb3	0.03425188
166	0x3c3303ff	0.010926246
167	0x3d4c065d	0.049810756
168	0x3dcfc556	0.10145061
169	0xbdaa90db	-0.0832841
170	0x3dedfb8d	0.11620245
171	0x3dc0bc58	0.09410924
172	0x3d9e6ccc	0.07735595
173	0xbe555d70	-0.20836425
174	0x3e33e09d	0.17566152
175	0xbdeaf9b2	-0.11473407
176	0xbe02fc10	-0.12791467
177	0xbe31f6b1	-0.17379262
178	0xbe379c1a	-0.17930642
179	0x3e0a6dc3	0.13518433
180	0xbd988aab	-0.07448324
181	0xbd7d83da	-0.06189332
182	0xbd31b8fc	-0.043389305
183	0xbdca3968	-0.098742306
184	0xbd9c3157	-0.07626598
185	0xbd6002e3	-0.054690253
186	0xbe35355e	-0.17696139
187	0xbd15e645	-0.036596555
188	0x3e00d64b	0.12581746
189	0x3e407277	0.18793665
190	0x3e013b16	0.12620196
191	0xbde2c8b9	-0.11073441
192	0x3d7cace3	0.061688315
193	0x3df3f134	0.1191124
194	0x3d9a9305	0.07547573
195	0x3e02d594	0.12776786
196	0xbe39e042	-0.18151954
197	0x3e1d569e	0.15365073
198	0xbe4db176	-0.20087227
199	0xbd7ca5a2	-0.061681397
200	0xbe1e47d8	-0.15457094
201	0xbdbbccc0	-0.09169912
202	0x3e4970fd	0.19672008
203	0xbdee1564	-0.11625174
204	0xbe336609	-0.17519392
205	0xbda2142a	-0.07914002
206	0xbb10b2a2	-0.002207913
207	0xbe1cb945	-0.1530505
208	0xbcd758f6	-0.026287537
209	0x3d269e10	0.040678084
210	0x3d96b9c6	0.07359652
211	0x3db1b328	0.086767495
212	0xbcfcda95	-0.030865947
213	0xbd7efc04	-0.06225206
214	0xbe07de46	-0.13268384
215	0x3e24c660	0.16091299
216	0x3e2fdb50	0.17173505
217	0xbe5dc8e0	-0.21658659
218	0x3e1ed4f0	0.15510917
219	0xbcfc2c27	-0.030782772
220	0xbe17de03	-0.14830784
221	0x3da6b61d	0.08140204
222	0x3e1ccd6a	0.15312734
223	0xbdb8c36b	-0.09021648
224	0xbe05951d	-0.13045163
225	0x3da9521b	0.082676135
226	0x3e115aa1	0.14194728
227	0xbdafe322	-0.08588244
228	0x3ddd0f58	0.10793942
229	0x3de6ecc0	0.11275625
230	0xbde4e95d	-0.11177323
231	0xbe01cd26	-0.12675914
232	0x3e1a915d	0.15094514
233	0xbe282b66	-0.16422805
234	0xbe38ccf0	-0.18046927
235	0xbd3a2d59	-0.045453403
236	0xbd8c15fc	-0.06840131
237	0x3dea9afc	0.11455342
238	0x3e4e90d2	0.20172432
239	0xbe354ee7	-0.1770588
240	0x3e1cb89f	0.15304802
241	0xbc3dce2d	-0.011584801
242	0x3cd748cd	0.026279831
243	0xbddbb2cc	-0.10727462
244	0x3e255759	0.16146602
245	0x3d61d619	0.05513582
246	0x3d97817c	0.07397744
247	0xbcbf10d8	-0.023323461
248	0x3e234321	0.15943576
249	0xbe482e51	-0.19548918
250	0x3d9dc926	0.07704382
251	0xbd94b35c	-0.072607726
252	0xbc9ef0f6	-0.019402009
253	0x3e0ee399	0.13954009
254	0x3e574893	0.21023779
255	0x3d943e58	0.072384536

actor.fc1.bias f4 [256]
0	0x3d5cac40	0.053875208
1	0xbe0a49d6	-0.13504729
2	0x3e0818c9	0.13290705
3	0x3da6d1b5	0.08145467
4	0xbe29b6c1	-0.16573621
5	0xbd299243	-0.04139925
6	0x3e19b0bc	0.15008825
7	0x3d4f6b10	0.050639212
8	0xbdbb395b	-0.09141799
9	0x3e191e99	0.14953078
10	0x3e4d67c0	0.20059109
11	0xbbfca032	-0.0077095265
12	0x3e3b1732	0.18270567
13	0x3e43655c	0.19081634
14	0x3e3c7cb9	0.18406953
15	0x3e3ba1d5	0.18323453
16	0xbe464262	-0.1936126
17	0xbd75d399	-0.06001625
18	0xbe3babae	-0.1832721
19	0xbe450b29	-0.19242539
20	0xbe5e022f	-0.2168052
21	0xbe17ec4f	-0.14836238
22	0x3d92a00c	0.07159433
23	0xbe39522d	-0.18097754
24	0x3d89c1ac	0.06726393
25	0xbc077cb9	-0.008269482
26	0x3e03e1b5	0.12879069
27	0x3cd1dc7e	0.025617834
28	0x3bbccf54	0.00576202
29	0x3e44563f	0.19173525
30	0xbe4df7d9	-0.20114078
31	0xbda5dbe4	-0.080985814
32	0x3e38f9b8	0.1806401
33	0x3e4dabcc	0.20085067
34	0xbd77fe98	-0.060545534
35	0x3db74bcd	0.08950005
36	0xbe3dced5	-0.18535931
37	0x3e4c3add	0.1994433
38	0xbe31053f	-0.17287157
39	0xbd850052	-0.06494202
40	0x3cd0aeb9	0.02547394
41	0x3dda3d93	0.106562756
42	0x3e0319d5	0.12802823
43	0x3d47fa59	0.048822735
44	0xbde3fd15	-0.11132256
45	0x3cdc0771	0.026859017
46	0xbe2ac742	-0.16677573
47	0x3ba0faf4	0.0049127284
48	0x3e2edf7e	0.17077443
49	0xbdd76620	-0.10517526
50	0x3ba7e5dd	0.0051238374
51	0xbcc76590	-0.024340421
52	0xbdb0aeb6	-0.086270735
53	0xbdd7bb88	-0.105338156
54	0xbddad981	-0.10686017
55	0x3e2ad0e2	0.16681245
56	0x3cf7e5d5	0.03026096
57	0xbe06b392	-0.13154438
58	0x3e2c71f4	0.16840345
59	0xbe555a39	-0.20835198
60	0xbe4fc048	-0.20288193
61	0xbd2dc217	-0.042421427
62	0xbd4c68a9	-0.0499045
63	0x3db651c5	0.08902315
64	0xbe0ff1c2	-0.14057067
65	0xbe26c536	-0.16286168
66	0xbd089a05	-0.03335001
67	0x3e38c0c3	0.18042283
68	0xbdca2849	-0.09870965
69	0x3d1f9914	0.038964346
70	0x3defbb9a	0.11705704
71	0x3c73c2e5	0.014878009
72	0xbdc65151	-0.096834786
73	0x3e212dee	0.15740177
74	0xbe5d8443	-0.21632485
75	0x3e3fe6ff	0.18740462
76	0x3d495436	0.049152575
77	0x3e0c085f	0.13675068
78	0x3d9de1fb	0.07709118
79	0x3d30aa2e	0.043131046
80	0x3e21c53d	0.15797897
81	0xbe1c8b15	-0.1528743
82	0xbe2ce393	-0.16883688
83	0xbd17e0e1	-0.037079696
84	0x3e43f6fa	0.19137183
85	0xbe42e6b4	-0.19033319
86	0xbe0bc2ce	-0.13648531
87	0x3dc31654	0.09525743
88	0xbe20166e	-0.15633556
89	0x3e57613c	0.21033186
90	0x3dbfb711	0.09361089
91	0x3d8a00d2	0.06738438
92	0x3e0c3c96	0.13694987
93	0x3deaa5da	0.11457415
94	0x3d01eaa7	0.031717923
95	0xbc8937b9	-0.016750203
96	0x3e4c697c	0.19962114
97	0x3d4e1112	0.05030925
98	0xbddce1d2	-0.10785259
99	0x3e30a09a	0.17248765
100	0x3c7d1608	0.015447147
101	0xbdfc54ec	-0.12320885
102	0x3e3c4e28	0.18389189
103	0x3d920881	0.07130528
104	0x3da92cf4	0.08260527
105	0xbdbcfa1f	-0.09227394
106	0xbe41a9ad	-0.18912382
107	0xbe3a3ef6	-0.1818808
108	0x3cac0453	0.020998156
109	0x3da7bbdd	0.08190129
110	0xbc686ee1	-0.014186592
111	0x3daa526f	0.08316504
112	0x3e2e3d61	0.17015602
113	0xbdc6230b	-0.09674653
114	0x3e46b3a9	0.19404472
115	0x3ddee289	0.10883052
116	0xbe390a3f	-0.18070315
117	0xbe0db002	-0.13836673
118	0xbe1d5948	-0.1536609
119	0x3d426a45	0.047464628
120	0x3e41571c	0.18880886
121	0x3d783e33	0.060606193
122	0x3cd29403	0.025705343
123	0x3d4244cd	0.047428895
124	0x3dfb43ff	0.122688286
125	0xbd034f88	-0.03205827
126	0xbdc2ba84	-0.09508231
127	0x3d857c54	0.06517854
128	0xbdb358b4	-0.08757153
129	0xbe54b107	-0.20770656
130	0xbd9f0cda	-0.07766123
131	0x3d804e86	0.06264977
132	0x3d8d52ad	0.06900535
133	0xbd8553c1	-0.065101154
134	0x3d9fdbfa	0.07805629
135	0x3dc02e75	0.09383861
136	0x3dcfe679	0.10151381
137	0x3dc7137b	0.097205125
138	0xbda4dabc	-0.08049533
139	0xbdbe0732	-0.09278716
140	0x3dcf48a1	0.10121275
141	0x3e5b258d	0.21401043
142	0xbd47cc51	-0.048778836
143	0x3e445c7d	0.19175906
144	0x3e0e2aeb	0.1388356
145	0x3e18868a	0.14895073
146	0xbe1b364b	-0.1515743
147	0x3dfaf227	0.12253218
148	0xbb2ba86f	-0.0026192924
149	0xbd9bd353	-0.07608666
150	0x3e0b6f7d	0.13616748
151	0x3d388e9e	0.045057885
152	0xbe25dfb4	-0.16198617
153	0xbe14f721	-0.14547397
154	0x3e48773f	0.19576739
155	0x3e5e7416	0.21723971
156	0x3e232974	0.15933782
157	0xbe47ee36	-0.19524464
158	0x3cf64067	0.030060006
159	0x3e23ee11	0.16008784
160	0x3e077cbb	0.13231175
161	0x3c00f39d	0.007870582
162	0x3e578dad	0.21050139
163	0x3d837048	0.064179
164	0x3db7a9c9	0.08967931
165	0x3dc0d922	0.09416415
166	0x3e159bdb	0.14610235
167	0x3d55c1e5	0.052186865
168	0xbdde6d48	-0.108606875
169	0x3e38d0fe	0.18048474
170	0x3dab93ae	0.08377777
171	0x3dd5e423	0.10443904
172	0xbe5ac9cf	-0.21366046
173	0xbe22ecdc	-0.15910667
174	0xbe16cd23	-0.14726691
175	0xbd33c781	-0.043891434
176	0x3dbba030	0.09161413
177	0x3da67275	0.081273
178	0xbe0735f0	-0.1320417
179	0xbe313c01	-0.17308046
180	0x3e3f0829	0.18655457
181	0x3e26fb10	0.1630671
182	0x3cf67b33	0.030088043
183	0x3d859292	0.06522097
184	0x3d049c4f	0.03237563
185	0x3e43f0ca	0.19134822
186	0xbe31daf6	-0.17368683
187	0x3e135223	0.14386801
188	0x3d4fcf22	0.050734647
189	0x3dee9e49	0.11651284
190	0x3dd7a744	0.1052995
191	0x3d8a416b	0.06750759
192	0x3e0ddd24	0.1385389
193	0x3e1c7626	0.15279445
194	0xbe0665ab	-0.13124721
195	0x3db55430	0.08853948
196	0xbd497d8d	-0.049192
197	0xbb85aca5	-0.0040794187
198	0xbdd1366f	-0.102154605
199	0x3de6a7fe	0.11262511
200	0xbd6ea77e	-0.0582652
201	0xbdbca43e	-0.09211014
202	0xbd104735	-0.03522416
203	0xbde794fc	-0.113077134
204	0x3da19d65	0.07891349
205	0xbe26fb4a	-0.16306797
206	0xbdda9a25	-0.10673932
207	0x3e20159f	0.15633248
208	0xbe306be8	-0.17228663
209	0x3d949eb2	0.07256831
210	0x3ce325fe	0.027728077
211	0xbcbd3746	-0.023097645
212	0xbe108a73	-0.14115314
213	0xbe2b4380	-0.16724968
214	0xbc3729ad	-0.01117937
215	0x3d92bdc2	0.071651
216	0x3e434f04	0.19073111
217	0x3e3ba628	0.18325102
218	0x3e43d03f	0.19122408
219	0xbc760743	-0.01501638
220	0x3d63281a	0.055458166
221	0xbe33fe9a	-0.17577592
222	0xbd223363	-0.039599787
223	0xbd49b024	-0.049240246
224	0x3dac384d	0.08409176
225	0x3e22e249	0.15906633
226	0xbd164ae6	-0.036692522
227	0x3d14ebc7	0.036357667
228	0x3e2e2006	0.17004403
229	0xbc2d3de4	-0.010573838
230	0xbd2b80c7	-0.04187086
231	0xbe52699b	-0.20548098
232	0xbe221f18	-0.15832174
233	0xbdeb9087	-0.11502176
234	0xbe2a66d4	-0.16640788
235	0xbd9118d5	-0.070848145
236	0xbde0f422	-0.10984065
237	0x3d3644e3	0.04449929
238	0xbe338151	-0.17529799
239	0xbdd253d7	-0.102698974
240	0x3deca817	0.11555498
241	0x3e421fd0	0.18957448
242	0x3dbf9c5f	0.09355997
243	0x3d1310ba	0.035904624
244	0xbdcd1695	-0.10014073
245	0x3e46a561	0.19399025
246	0x3e480f62	0.19537118
247	0xbce7e7b9	-0.028308736
248	0x3e4e0d83	0.20122342
249	0xbe06acc9	-0.1315185
250	0xbd45dd10	-0.048306525
251	0x3e384141	0.17993642
252	0xbe15a819	-0.14614905
253	0xbe1b3196	-0.15155634
254	0xbe508011	-0.20361353
255	0xbd537fba	-0.05163548

actor.fc2.weight f4 [128, 256]
0	0x3caa0f38	0.02075921
1	0x3d6ec57f	0.058293816
2	0x3c87c257	0.01657216
3	0xbc87a4c8	-0.016558066
4	0xbcc7370a	-0.024318237
5	0x3b042bd6	0.002016773
6	0x3d80eb50	0.06294882
7	0x3d3e6df9	0.046491597
8	0x3d67881c	0.05652629
9	0x3d0d44e4	0.034489527
10	0xbd035ff1	-0.03207392
11	0x3c959cf2	0.018263314
12	0x3c84d917	0.016216798
13	0xbd203908	-0.03911689
14	0xbc78b88d	-0.015180719
15	0x3d7e208a	0.06204275
16	0xbd177177	-0.036973443
17	0xbd1fd6eb	-0.03902332
18	0x3d0160d2	0.031586476
19	0xbbf55ad0	-0.0074876323
20	0xbc13ea2a	-0.009027997
21	0x3cf606b2	0.03003249
22	0xbc455874	-0.012045015
23	0xbca5226a	-0.020158011
24	0xbd57290c	-0.05252938
25	0xbd53dfa8	-0.051726967
26	0x3d48bf38	0.049010485
27	0x3c4aacaa	0.012370268
28	0xbd34b259	-0.044115398
29	0x3c0034d6	0.007825097
30	0x3c2d5626	0.010579621
31	0xbd1c4f92	-0.03816182
32	0xbd59a6ab	-0.053137463
33	0xbcc0448e	-0.02347019
34	0xbb6e4d76	-0.0036362088
35	0x3bc2e81e	0.0059480807
36	0xbd76ded8	-0.060271114
37	0xbc84a2a6	-0.016190838
38	0xbd2d4189	-0.042298827
39	0xbcc30500	-0.023806095
40	0xbcd97258	-0.026543781
41	0xbd5aa20c	-0.053377196
42	0x3c0c38be	0.00855845
43	0xbd03bd6f	-0.03216308
44	0x3d46143b	0.048359137
45	0x3d04d431	0.032428924
46	0xbcf4acb7	-0.029867513
47	0xbb3aa4fa	-0.0028479681
48	0xbd652552	-0.055943795
49	0xbc927c97	-0.017881675
50	0xbc8bd6de	-0.01707023
51	0x3d391db0	0.045194328
52	0x3d77d658	0.06050715
53	0xbd0a59e9	-0.03377715
54	0xbd216f7e	-0.039412968
55	0xbccb6ca2	-0.024832074
56	0xbccf2267	-0.025284959
57	0x3baf79d0	0.0053550974
58	0x3cb91628	0.022593573
59	0xbd68f198	-0.056871027
60	0x3b4c662f	0.0031188836
61	0xbcea3146	-0.028587949
62	0xbd4db6bf	-0.05022311
63	0x3d65bd44	0.0560887
64	0xbc83e5b2	-0.016100738
65	0x3c988165	0.018616388
66	0x3c0e5663	0.008687588
67	0xbd0a62e8	-0.03378573
68	0x3d3b0588	0.045659572
69	0xbd5945aa	-0.053044952
70	0x3c80ccdf	0.01572269
71	0xbd303c3a	-0.043026187
72	0x3d6d8f99	0.057998274
73	0x3ae5df96	0.0017537947
74	0xbd409313	-0.04701526
75	0xbd6aad5d	-0.05729424
76	0xbcb5f287	-0.022210373
77	0x3c32d6ac	0.01091544
78	0x3d76cb7d	0.060252655
79	0x3d471ea5	0.04861321
80	0xbb82994a	-0.0039855586
81	0xbc49c99e	-0.012316136
82	0xbcf21cf0	-0.029554814
83	0xbc8d1f02	-0.0172267
84	0xbd7965f6	-0.060888253
85	0xbd080ee7	-0.033217337
86	0x3d7815d4	0.060567692
87	0xbcb68f58	-0.022285149
88	0x3cceaece	0.025229838
89	0x3c35be86	0.011092788
90	0x3cfa1a96	0.030530255
91	0xbd7431fc	-0.05961798
92	0xbd374e94	-0.044752672
93	0xbd25c650	-0.04047233
94	0xbd518832	-0.051155277
95	0x3cd42462	0.025896255
96	0x3d72f34d	0.05931406
97	0x3d6481c0	0.0557878
98	0xbb56cde0	-0.003277652
99	0x3d5aa174	0.05337663
100	0xbc3199bd	-0.010839877
101	0x3d3cad03	0.046063434
102	0x3d32c771	0.043647233
103	0x3c59634d	0.013268304
104	0x3d7ee186	0.062226795
105	0xbcbd449f	-0.02310401
106	0xbc924bf6	-0.017858487
107	0x3d705ee9	0.058684263
108	0xbd6c144e	-0.05763655
109	0x3d7eb190	0.062181056
110	0x3d37f03f	0.04490685
111	0x3d2abf82	0.041686542
112	0x3d69eaa0	0.05710852
113	0x3d4e5cd0	0.05038148
114	0xbd6f39c6	-0.058404706
115	0xbd306a6b	-0.043070238
116	0xbd408d34	-0.04700966
117	0x3d44a06f	0.048004564
118	0xbca450e5	-0.020058105
119	0xbd312d4d	-0.043256093
120	0x3bbd2174	0.00577181
121	0xbd0b5889	-0.03401998
122	0x3d50cc0d	0.050975848
123	0xbd79e412	-0.06100852
124	0xbcfffa16	-0.03124718
125	0x3d21a055	0.039459545
126	0xbc8cb2d1	-0.01717511
127	0xbc6c943c	-0.014439639
128	0xbd2791e1	-0.040910605
129	0xbd0792fd	-0.033099163
130	0xbd34373b	-0.043997984
131	0xbd33b645	-0.043874998
132	0xbd5d49e0	-0.05402553
133	0x3b017486	0.0019753291
134	0xbd31590a	-0.043297805
135	0x3b614198	0.0034371372
136	0x3d4157e1	0.04720295
137	0xbbd0eec8	-0.006376121
138	0x3d03d99d	0.032189954
139	0x3ce995b3	0.028513765
140	0x3c2113e4	0.009831402
141	0x3c909749	0.017650263
142	0xbc23bbe4	-0.009993527
143	0xba5b2a64	-0.00083605037
144	0x3d7b905f	0.06141698
145	0x3cead935	0.028668026
146	0x3d7ad024	0.061233655
147	0xbd455ad3	-0.04818232
148	0xbc4db2c7	-0.012554831
149	0xbc518f96	-0.012790581
150	0x3ca7eec4	0.020499595
151	0xbd6c5f28	-0.057707936
152	0xbd508176	-0.050904714
153	0x3d36df78	0.04464671
154	0xbd5a66a3	-0.05332054
155	0xbcfb8e39	-0.030707465
156	0x3c846afc	0.016164295
157	0xbcfe679a	-0.03105526
158	0x3d26d0cc	0.040726468
159	0xbc8e631d	-0.017381245
160	0x3d4bb3f8	0.04973218
161	0xbc805afd	-0.015668387
162	0xbba5755f	-0.005049392
163	0x3d0d6b37	0.034526076
164	0x3b8c9af1	0.0042909314
165	0x3d186526	0.037205838
166	0xbc76c87c	-0.015062448
167	0xbc913b05	-0.017728338
168	0xbd1f503a	-0.03889487
169	0xbcb6e2b6	-0.022324901
170	0x3c091236	0.008366158
171	0x3d138061	0.036011104
172	0xbc03b595	-0.008038898
173	0xbc935db3	-0.017989015
174	0xbce65a46	-0.028119218
175	0xbd3ba7a3	-0.045814168
176	0xbd2a2286	-0.04153683
177	0x3d2c2c50	0.042034447
178	0xbce38440	-0.027773023
179	0x3d244ba9	0.040111218
180	0xbd6b5c56	-0.057461105
181	0xbc8bf3eb	-0.017084083
182	0x3c0144a8	0.007889904
183	0xbcc4fcfa	-0.02404641
184	0xbd1b7aa1	-0.037958745
185	0x3d2c386d	0.042046
186	0x3bb682ab	0.005569776
187	0x3d0ea14f	0.034821805
188	0xbca4cfb0	-0.020118564
189	0x3caea0cc	0.021316908
190	0x3d4e090c	0.050301597
191	0xbd560acc	-0.05225639
192	0xbbbc4ac6	-0.0057462184
193	0x3d3c51a2	0.04597629
194	0xbd341144	-0.04396178
195	0x3ce2e74a	0.027698178
196	0xbd606b49	-0.054789815
197	0x3d04c549	0.03241471
198	0x3d1a41e4	0.037660494
199	0xbd76c15f	-0.060243007
200	0x3a9b1369	0.0011831346
201	0x3c9ed4e6	0.019388627
202	0x3d33d4e4	0.0439042
203	0xbc9ba6e9	-0.019000487
204	0x3cd2d6f0	0.025737256
205	0x3d5f352d	0.05449407
206	0x3d217182	0.03941489
207	0x3c6c5688	0.0144249275
208	0x3c94bad3	0.018155491
209	0xbc827970	-0.015927047
210	0x3d02ec0a	0.031963386
211	0xbc7cac9b	-0.015422012
212	0x3cd0f34f	0.025506644
213	0x3d3fd2e2	0.046831973
214	0xbc66c556	-0.0140851345
215	0x3d00fef4	0.031493142
216	0x3d16d4f8	0.036824197
217	0xbd27c0ac	-0.04095523
218	0xbd112375	-0.035434205
219	0xbd79af64	-0.06095828
220	0xbd385d48	-0.045010835
221	0xbd1c4b83	-0.03815795
222	0x3d2873cc	0.041126058
223	0x3c0ea548	0.008706398
224	0x3ccb8779	0.024844872
225	0xbcb7a070	-0.02241537
226	0x3c91a103	0.017776972
227	0xbd5c4b43	-0.053782713
228	0xbd4f8825	-0.050666947
229	0x3d257cc1	0.040402178
230	0xbc27c30a	-0.010239372
231	0xbcd3a50b	-0.025835535
232	0xbcb7be3f	-0.022429584
233	0x3d43acfd	0.047772396
234	0x3c96d045	0.018409858
235	0x3b88e2ee	0.0041774428
236	0x3c9622f5	0.018327216
237	0xbcc80d37	-0.024420364
238	0xbb38ca7a	-0.0028196857
239	0xbce95f2e	-0.028487768
240	0xbd6d6227	-0.057954933
241	0xbd584c1c	-0.05280696
242	0x3d3e5a99	0.04647312
243	0x3c9226a9	0.0178407
244	0x3ad47aae	0.0016210878
245	0xbd643e5d	-0.055723537
246	0xbd460477	-0.0483441
247	0xbcc6a55e	-0.024248775
248	0x3ca10e14	0.019660033
249	0xbd7a00a3	-0.061035763
250	0x3d6bc719	0.05756292
251	0xbcc2ef74	-0.02379582
252	0x3d336fd0	0.043807805
253	0x3d35b7c6	0.044364713
254	0x3bd1bb6c	0.0064005163
255	0x3ba0d9a7	0.0049087587

actor.fc2.bias f4 [128]
0	0x3d5a3dfa	0.05328176
1	0x3ce39efa	0.027785767
2	0xbd62df89	-0.05538896
3	0xbcf98ee6	-0.030463647
4	0xbd7acab1	-0.061228458
5	0xbd406785	-0.046973724
6	0x3d3d277d	0.046180237
7	0x3a87a2f2	0.0010348244
8	0x3d132f26	0.035933636
9	0x3d64d305	0.055865306
10	0x3b9632c0	0.0045836866
11	0x3cd48e6b	0.025946816
12	0x3cdad47d	0.02671265
13	0x3d661063	0.05616797
14	0x3d5e2e63	0.054243457
15	0xbc5c6757	-0.0134523725
16	0x3d633470	0.05546993
17	0x3d487d34	0.048947528
18	0x3c81ddd0	0.015852839
19	0x3c8d1cc7	0.017225636
20	0x3d176c3c	0.036968455
21	0xbd513ef0	-0.051085413
22	0xbb9e8aa5	-0.004838305
23	0x3ce5a455	0.028032461
24	0x3d3af6c0	0.045645475
25	0xbcec7e4c	-0.028868817
26	0x3cb3e0e9	0.021957831
27	0xbbc73c37	-0.006080176
28	0xbd05e257	-0.032686558
29	0x3c005cd8	0.007834636
30	0x3ca149bf	0.019688485
31	0xbd20dd54	-0.039273575
32	0xbd29021f	-0.04126179
33	0x39c68400	0.0003786385
34	0xbc5dd8c1	-0.013540448
35	0x3cb2ff8e	0.021850374
36	0xbd76b0c5	-0.060227174
37	0xba9219b8	-0.0011146581
38	0xbb96addf	-0.004598364
39	0x3d1c0131	0.038087074
40	0xbd20db71	-0.039271776
41	0x3b851c22	0.0040621916
42	0xbd19c5d1	-0.037542168
43	0x3d461e26	0.048368596
44	0x3cf56737	0.029956443
45	0xbd1a07b6	-0.03760501
46	0xbd404c39	-0.04694769
47	0xbc2c23d6	-0.010506591
48	0xbd3410a0	-0.043961167
49	0x3d1ebf3f	0.038756605
50	0xbd26eaf4	-0.040751413
51	0xbcf80be9	-0.030279117
52	0xbca9cc70	-0.020727366
53	0x3beaf520	0.0071703345
54	0xbcfe499e	-0.031040963
55	0xbceb5b9d	-0.028730208
56	0xbcc5a34a	-0.024125714
57	0x3d738796	0.059455477
58	0x3c660e33	0.014041471
59	0xbc86725a	-0.016411949
60	0x3d10f963	0.035394084
61	0x3d081545	0.03322341
62	0xbd372536	-0.04471322
63	0x3c6d7c3c	0.014494952
64	0xbcd24329	-0.02566679
65	0x3d1b6df4	0.037946656
66	0x3add5f5d	0.0016889382
67	0xbd5e42d9	-0.05426297
68	0x3d36e80f	0.044654902
69	0x3d628c67	0.05530968
70	0x3d1ab4ae	0.037769966
71	0xbc61fe5a	-0.013793552
72	0x3d6c2330	0.057650745
73	0xbd177705	-0.03697874
74	0x3d66c962	0.056344397
75	0xbd5ca8ec	-0.053872034
76	0x3ca8118e	0.020516183
77	0xbd128d51	-0.0357793
78	0xbd2bd639	-0.041952346
79	0xbd3d918a	-0.046281375
80	0xbc13e444	-0.009026591
81	0x3ceaf7d2	0.028682623
82	0xbbc76f09	-0.0060862345
83	0x3d5f4961	0.05451334
84	0xbc394d5d	-0.011309949
85	0xbc94df96	-0.01817302
86	0x3cbc68aa	0.022999126
87	0x3c1aed81	0.009456039
88	0x3d3c22f9	0.04593179
89	0xbd155b8e	-0.036464266
90	0x3d1a80d1	0.037720505
91	0x3b94ebbf	0.0045447047
92	0x3d5c30d2	0.053757496
93	0x3c6b2003	0.014350894
94	0xbd048126	-0.032349728
95	0x3d58f50e	0.052968077
96	0x3d393e4c	0.045225427
97	0x3d4ca64d	0.049963284
98	0xbd578bf7	-0.052623715
99	0xbd52941c	-0.05141078
100	0xbd1d4ad8	-0.038401455
101	0x3d4da88b	0.050209563
102	0x3d77f0ab	0.060532253
103	0xbcb7e5b1	-0.022448393
104	0xbc216fce	-0.0098533165
105	0xbb9071e7	-0.0044081095
106	0xbcde8197	-0.027161403
107	0xbc776a05	-0.015100961
108	0xbd6b2d88	-0.05741647
109	0x3b11bd58	0.0022238102
110	0x3c2902a9	0.010315576
111	0xbb283aac	-0.0025669737
112	0xbc72f22c	-0.014828246
113	0xbce25a76	-0.027631026
114	0xbc7da304	-0.0154807605
115	0xba93dc6c	-0.0011280901
116	0xbd4c29f6	-0.049844705
117	0xbc65cdcd	-0.0140261175
118	0xbd6aaa9e	-0.05729162
119	0xbc16581b	-0.009176279
120	0xbd4bd438	-0.049762934
121	0xbd7281c9	-0.059205804
122	0x3d370140	0.044678926
123	0x3ce04053	0.027374422
124	0x3c44e343	0.012017074
125	0xbd2ffc17	-0.04296502
126	0x3d02d58b	0.03194193
127	0x3d31606c	0.043304846

actor.policy_head.weight f4 [50, 128]
0	0xbda324f8	-0.079660356
1	0x3cf38b13	0.029729402
2	0x3d9b32ff	0.07578086
3	0x3d0e7c5d	0.03478657
4	0x3d8220bd	0.063539006
5	0xbcb8f39a	-0.022577096
6	0x3d9c0696	0.07618444
7	0xbd556e98	-0.052107424
8	0x3d68904d	0.05677824
9	0xbd3e0d14	-0.04639919
10	0x3daea9eb	0.08528503
11	0xbd549f5e	-0.051909797
12	0x3dac3acc	0.08409652
13	0x3c95e0e9	0.018295722
14	0xbd550d1a	-0.052014448
15	0x3ca3c4e7	0.019991351
16	0x3d75dbd0	0.060024083
17	0xbd807562	-0.06272389
18	0x3d961038	0.07327312
19	0x3ca7002a	0.02038582
20	0xbbab6833	-0.0052309274
21	0x3c3229b6	0.0108742025
22	0xbd94f5ee	-0.0727347
23	0x3d7ffa55	0.062494595
24	0x3c8a8b10	0.016912013
25	0x3d9404ce	0.07227479
26	0x3d163705	0.036673564
27	0x3d312376	0.04324671
28	0xbd649071	-0.055801813
29	0x3d72cfb6	0.05928012
30	0x3ced34a2	0.028955761
31	0x3d9e6f47	0.07736068
32	0x3da50b78	0.08058828
33	0x3946c96f	0.00018957791
34	0x3d9d5826	0.076828286
35	0xbd432536	-0.04764291
36	0xbce6715d	-0.028130228
37	0xbda5a6b9	-0.080884404
38	0x3d753585	0.059865493
39	0xbbf1b9d1	-0.0073768874
40	0x3d3266a6	0.043554924
41	0xbda4a4f5	-0.080392756
42	0xbb6a45ff	-0.0035747287
43	0xbba51415	-0.0050377944
44	0xbd872831	-0.06599463
45	0xbc2d5c5d	-0.010581103
46	0x3c9891f2	0.01862428
47	0x3cd5c6ac	0.02609571
48	0xbc467b82	-0.0121144075
49	0x3d087d42	0.03332258
50	0x3d8807f4	0.06642142
51	0x3c963d41	0.018339755
52	0x3db1e4bd	0.086862065
53	0xbcc14810	-0.023593932
54	0x3db45193	0.088046215
55	0x3d76851d	0.06018554
56	0x3daf0395	0.08545605
57	0xbc2c74fe	-0.01052594
58	0x3d6989c1	0.057016138
59	0x3d865c84	0.06560615
60	0xbcfdf0b8	-0.030998573
61	0x3d906ab8	0.07051605
62	0xbcfd9e12	-0.030959163
63	0xbdb494f7	-0.08817475
64	0x3c8f980e	0.01752856
65	0x3d41e04a	0.04733304
66	0xbd9008c8	-0.07032925
67	0x3d27153e	0.040791743
68	0xbc7314bb	-0.0148364855
69	0xbd4144f4	-0.0471849
70	0xbd42e57f	-0.047582146
71	0x3ce4c0f8	0.027924046
72	0x3d6496bb	0.05580781
73	0xbd0218dc	-0.03176199
74	0x3c85bb67	0.016324712
75	0x3c7b734a	0.015347311
76	0x3c65ac62	0.01401815
77	0x3d4a46ef	0.049384054
78	0xbd991cf1	-0.07476223
79	0x3d1a2985	0.037637252
80	0xbd3b4421	-0.04571927
81	0x3d2c5150	0.042069733
82	0xbd9dcc2e	-0.0770496
83	0x3b7c1ff3	0.0038471192
84	0x3d5c5dd8	0.053800434
85	0xbcb52c3f	-0.022115825
86	0x3be22f40	0.0069026053
87	0xbd8d92da	-0.06912775
88	0x3c3121ea	0.010811308
89	0xbb6bf3ae	-0.0036003399
90	0x3bda30cc	0.006658649
91	0xbd5bed2e	-0.05369299
92	0xbd80cfe0	-0.06289649
93	0xbced93c9	-0.029001134
94	0x3d8c9816	0.068649456
95	0x3c924c13	0.01785854
96	0x3d176800	0.036964417
97	0xbcbe742a	-0.02324875
98	0xbc08fbb6	-0.008360794
99	0x3d329509	0.043599162
100	0xbc67e704	-0.0141541995
101	0x3ce65da7	0.028120829
102	0xbc448587	-0.011994726
103	0x3d88b478	0.06675047
104	0x3d639ca0	0.05556929
105	0x3d855dd7	0.06512039
106	0x3da3b776	0.07993977
107	0xbc3c79c1	-0.011503638
108	0x3b22ef82	0.0024861996
109	0x3d884e8a	0.06655605
110	0x3d7b41a6	0.061341904
111	0xbc802e43	-0.01564706
112	0x3c92bcc9	0.017912285
113	0xbd9008ca	-0.070329264
114	0x3d7fde4f	0.06246787
115	0x3d065a92	0.03280122
116	0x3c12b4a5	0.008954202
117	0x3c881f32	0.016616438
118	0xbd31fae2	-0.04345215
119	0xbcb91dd6	-0.022597235
120	0xbd207164	-0.039170638
121	0xbcf282b1	-0.029603334
122	0xbcd13d4a	-0.02554192
123	0x3ce8aa9d	0.028401667
124	0x3da140b4	0.07873669
125	0xbd7efd17	-0.062253084
126	0xbd05f53b	-0.032704573
127	0xbdaf9ad5	-0.08574454
128	0xbc79c97f	-0.015245794
129	0xbc914fa7	-0.017738177
130	0xbd43066c	-0.047613546
131	0x3d6a6b72	0.057231374
132	0x3d576e5e	0.05259549
133	0x3d884353	0.06653466
134	0x3d3b6433	0.045749854
135	0xbd8f38a2	-0.06993224
136	0xbda9c494	-0.082894474
137	0x3caa23f5	0.020769099
138	0xbc9865b3	-0.018603181
139	0xbc2467b6	-0.010034492
140	0x3cd8943c	0.026437871
141	0x3d078a2c	0.033090755
142	0xbd5e3454	-0.054249123
143	0xbdb44c7e	-0.08803652
144	0x3d9146fb	0.070936166
145	0x3a84c5d1	0.0010129755
146	0xbda396d3	-0.07987752
147	0xbd6b0015	-0.057373125
148	0x3d09347f	0.03349733
149	0x3c011c5a	0.007880295
150	0x3d3d278a	0.046180286
151	0xbc7c2936	-0.015390685
152	0xbd9c0254	-0.076176316
153	0xbc74f488	-0.014950879
154	0xbd122a9b	-0.035685163
155	0xbc925816	-0.017864268
156	0x3c986256	0.018601578
157	0xbd6994ec	-0.05702679
158	0xbd95857e	-0.07300852
159	0xbd8e399a	-0.069445804
160	0x3d83efea	0.06442244
161	0xbd6f5307	-0.05842879
162	0x3cc106ae	0.023562755
163	0xbd8cb9a0	-0.06871343
164	0xbda4bb75	-0.08043567
165	0x3a929276	0.0011182565
166	0x3c62890b	0.013826619
167	0x3d9b6f35	0.075895704
168	0x3dad8e6e	0.08474432
169	0xbd9c1e45	-0.07622961
170	0xbdb44508	-0.08802229
171	0x3b84887e	0.0040445914
172	0xbd829e50	-0.06377852
173	0x3ccc51a5	0.024941275
174	0xbd50d7f2	-0.05098719
175	0x3d5e526c	0.054277822
176	0xbbabf051	-0.005247154
177	0x3a72cf0a	0.00092624186
178	0x3da1e4d4	0.079049736
179	0x3dacf74f	0.08445608
180	0x3c85e322	0.016343657
181	0x3c267e22	0.010161908
182	0x3d055475	0.032551248
183	0x3d369b8c	0.044581935
184	0xbc7e5e97	-0.015525482
185	0x3c5c7fe0	0.013458222
186	0xbd56fd84	-0.052487865
187	0x3ce2d5d6	0.027689856
188	0x3d1423d6	0.03616699
189	0xbbc588f9	-0.0060282913
190	0x3c203334	0.009777833
191	0xbdb34cc4	-0.08754876
192	0xbd534703	-0.051581394
193	0x3a102ccf	0.0005499841
194	0xbb331ebd	-0.0027331554
195	0xbc8e6c8d	-0.017385745
196	0x3d42b25a	0.04753337
197	0x3d234cb6	0.03986808
198	0x39ee6a70	0.000454742
199	0x3c7dd565	0.015492772
200	0x3d24ba29	0.0402166
201	0x3cb4c38f	0.022065906
202	0x3d648a0f	0.055795725
203	0x3c74ffaa	0.014953533
204	0x3d62a2a6	0.055330895
205	0xbd9f321f	-0.07773232
206	0x3d82b180	0.06381512
207	0xbb743583	-0.003726334
208	0x3d5000c1	0.05078197
209	0xbd0720bc	-0.032990202
210	0xbbd4172d	-0.0064724893
211	0x3c2ec132	0.010666179
212	0xbd7c3fad	-0.061584163
213	0x3d0ce6fc	0.03439997
214	0xbd29fb44	-0.04149939
215	0xbb1e2ba2	-0.0024134894
216	0xbc7be021	-0.015373261
217	0x3ccceafc	0.025014393
218	0x3d4393ad	0.047748256
219	0xbdb24230	-0.087040305
220	0x3d1f027c	0.03882073
221	0x3a69f368	0.0008924515
222	0x3d53d59c	0.051717386
223	0xbcbdf0e4	-0.023186155
224	0xbc814cb9	-0.015783655
225	0xbd3747f9	-0.044746373
226	0x3db11084	0.08645728
227	0xbd8c3821	-0.06846643
228	0x3bb5fe22	0.0055539766
229	0x3d708cf8	0.05872819
230	0x3d02a23c	0.031893
231	0xbd3bf939	-0.045891974
232	0x3d318a3c	0.04334472
233	0x3d97340c	0.07382974
234	0x3db08fdd	0.0862119
235	0xbcdbc566	-0.026827525
236	0xbd442e3c	-0.047895655
237	0x3cb4d081	0.022072079
238	0x3db46edb	0.088102065
239	0xbd2fa91e	-0.042885892
240	0x3da47d57	0.08031719
241	0x3dae1ccd	0.08501587
242	0x3da11190	0.07864678
243	0x3d1bc72c	0.038031742
244	0x3d8af7fb	0.0678558
245	0x3ce91bb9	0.028455602
246	0x3cea53d1	0.02860442
247	0x3d878982	0.066180244
248	0x3bf6fcb9	0.007537451
249	0xbc9fd399	-0.019510077
250	0xbd4948e2	-0.049141772
251	0xbb2ad14d	-0.0026064694
252	0xbd113d25	-0.035458703
253	0xbade3e35	-0.0016955795
254	0x3d21f1e1	0.039537314
255	0xbd8bf928	-0.06834632

actor.policy_head.bias f4 [50]
0	0xbd5b9d4e	-0.053616814
1	0xbb1574ce	-0.0022805217
2	0x3c87eb73	0.016591763
3	0xbda60bc1	-0.08107711
4	0xbbd3f513	-0.006468424
5	0x3b145a71	0.0022636915
6	0xbda858ec	-0.082200855
7	0xbcec7e07	-0.028868688
8	0xbaeca4fb	-0.0018054539
9	0x3d60dde8	0.054899126
10	0x3b7ace0d	0.0038269788
11	0xbd4afb63	-0.049556147
12	0xbd0207cf	-0.031745728
13	0x3c778936	0.015108397
14	0x3d8bbd19	0.06823177
15	0xbd952bd9	-0.07283754
16	0x3ca38a7d	0.019963497
17	0xbd83eccb	-0.06441649
18	0xbd13c0bd	-0.03607248
19	0xbd2d7685	-0.042349357
20	0xbdb5ba9b	-0.08873483
21	0xbdb40eeb	-0.08791908
22	0xbd4f68bc	-0.05063699
23	0xbd699e50	-0.057035744
24	0xbd5bbb26	-0.053645276
25	0x3d78d334	0.060748294
26	0xbc9fa713	-0.019488847
27	0xbcb2d467	-0.021829797
28	0x3d101c91	0.035183493
29	0xbdb15f05	-0.08660702
30	0x3d8fa6c7	0.07014232
31	0x3d3b36c2	0.045706518
32	0xbd0aee53	-0.03391869
33	0x3d756760	0.05991304
34	0x3d830be5	0.06398753
35	0x3d485c4a	0.04891614
36	0xbd61dfd5	-0.055145103
37	0x3d9d83c4	0.07691148
38	0x3bc23578	0.005926784
39	0x3c96377c	0.018337004
40	0xbd0f4faa	-0.034988083
41	0x3d968b20	0.07350755
42	0xbd9a5acb	-0.07536849
43	0x3c7b633c	0.015343484
44	0xbcb23905	-0.021755705
45	0xbd5cf7bc	-0.053947195
46	0xbd823bbc	-0.0635905
47	0xbd599e9b	-0.053129774
48	0x3da72e6f	0.081631534
49	0xbd83033e	-0.06397103

critic.fc1.weight f4 [256, 21]
0	0xbd18e217	-0.03732499
1	0x3e34d248	0.17658341
2	0x3da51634	0.080608755
3	0xbddd8641	-0.108166225
4	0x3d824bb0	0.063620925
5	0x3e20eec7	0.15716086
6	0xbd330634	-0.043707088
7	0x3e106e8f	0.14104675
8	0x3e5b4a26	0.21415004
9	0x3cb9e871	0.022693845
10	0x3e57ae8e	0.21062681
11	0x3c6820e2	0.014167996
12	0xbd90dc91	-0.0707332
13	0xbe5891c4	-0.21149355
14	0x3e004ad4	0.12528545
15	0x3e4d9af8	0.20078647
16	0xbd196bec	-0.037456438
17	0x3da71ce7	0.081598096
18	0xbe275ff7	-0.16345201
19	0xbe4ebd7c	-0.2018947
20	0x3cf3d19e	0.02976304
21	0xbcb1af2f	-0.02168998
22	0xbdcc4bbf	-0.09975385
23	0xbdbeef01	-0.0932293
24	0x3d975379	0.07388968
25	0x3dbf911d	0.0935385
26	0x3e21398b	0.15744607
27	0xbd3113aa	-0.043231644
28	0xbe2e070d	-0.16994877
29	0xbd3744c9	-0.044743333
30	0x3c5653ee	0.013081534
31	0x3e2d07a2	0.16897443
32	0x3d33f2a2	0.043932565
33	0xbe500ae9	-0.20316662
34	0xbc5dbc3e	-0.01353365
35	0xbe03b13e	-0.12860581
36	0xbe5a16d5	-0.21297772
37	0xbe1c79d5	-0.1528085
38	0xbda74626	-0.08167677
39	0x3d821df4	0.06353369
40	0xbe06cd18	-0.13164175
41	0xbabdf36c	-0.0014492101
42	0x3e320e00	0.17388153
43	0xbe05c2e9	-0.13062634
44	0xbe248250	-0.16065335
45	0xbcdaf39c	-0.02672749
46	0x3dccab45	0.099936046
47	0x3b6a8259	0.003578326
48	0x3d451638	0.048116893
49	0xbe32b92d	-0.17453451
50	0xbdae5ab6	-0.085133955
51	0xbd3c417e	-0.045960896
52	0x3e05db40	0.13071918
53	0xbda69c70	-0.08135307
54	0x3d826377	0.06366628
55	0x3c0efcae	0.008727236
56	0x3d65ced5	0.056105454
57	0xbd96c3c7	-0.0736156
58	0x3e3938c5	0.18088062
59	0xbe4b4c7b	-0.19853394
60	0xbc8cd4d4	-0.017191328
61	0xbd8680c1	-0.065675266
62	0xbd63e18f	-0.05563503
63	0x3d29cf9b	0.041457754
64	0x3d6f3a27	0.058405068
65	0xbe52828a	-0.20557609
66	0xbda71218	-0.08157748
67	0x3b61accf	0.0034435277
68	0xbe53df2d	-0.20690604
69	0xbd5b3c54	-0.05352433
70	0xbdd9e21a	-0.106388286
71	0xbe0b2042	-0.13586524
72	0x3e581813	0.21102934
73	0x3e457842	0.19284156
74	0x3e246962	0.16055825
75	0x3d882aa9	0.06648762
76	0xbdc634af	-0.09678017
77	0x3e54a90e	0.20767614
78	0xbe5565ff	-0.2083969
79	0x3dc1aaa1	0.09456373
80	0x3e004062	0.1252456
81	0x3ddab3dd	0.106788374
82	0x3c140be0	0.009036034
83	0x3e0e03d2	0.13868645
84	0xbd688bdc	-0.056774005
85	0xbdc047ce	-0.09388696
86	0x3e01fe1f	0.12694596
87	0xbcdf1e80	-0.027236223
88	0xbe41e850	-0.18936276
89	0x3e4b3663	0.19844966
90	0xbe0e62e1	-0.13904907
91	0x3c686520	0.014184266
92	0xbd13ad83	-0.036054146
93	0xbd8aeb76	-0.06783192
94	0xbe3b0187	-0.18262301
95	0x3db01f63	0.085997365
96	0xbd540c96	-0.051769815
97	0x3d10b804	0.03533174
98	0x3d9119b6	0.07084982
99	0xbda4c58f	-0.08045494
100	0xbe2c4b35	-0.16825564
101	0xbdec4b0c	-0.115377516
102	0x3ce4edd1	0.027945431
103	0x3e2cff2e	0.16894218
104	0x3dbeae33	0.093105696
105	0x3d6105a9	0.05493704
106	0x3ca82df9	0.020529734
107	0xbe431ace	-0.19053194
108	0x3d908697	0.07056921
109	0xbb2e3fe3	-0.0026588372
110	0x3cb5db76	0.022199374
111	0xbe44d112	-0.19220379
112	0x3e574847	0.21023665
113	0xbd4045f2	-0.046941705
114	0x3e25f9b3	0.16208534
115	0x3d81ed8d	0.06344137
116	0xbe310e51	-0.17290618
117	0xbe4a41c7	-0.19751655
118	0x3ddafaea	0.10692389
119	0xbe5df0ee	-0.21673939
120	0x3e25caf3	0.161907
121	0xbe28096f	-0.16409849
122	0xbd0e4dc6	-0.03474214
123	0xbd477b48	-0.048701555
124	0xbe008a51	-0.12552764
125	0xbd931940	-0.071825504
126	0xbb997cd6	-0.004684071
127	0x3e4f5fa1	0.20251323
128	0xbe3c2045	-0.18371685
129	0x3e37b608	0.17940533
130	0xbe2fc9ac	-0.17166775
131	0xbe1e2a66	-0.15445861
132	0x3dabd770	0.08390701
133	0xbe2422d9	-0.16028918
134	0xbd8a8881	-0.06764317
135	0xbd77a146	-0.060456537
136	0x3e402072	0.18762377
137	0x3d4d57a3	0.050132405
138	0xbdfa3de5	-0.12218837
139	0x3de73836	0.11290018
140	0x3e426a65	0.18985899
141	0x3d319332	0.043353267
142	0x3e0a54d0	0.13508916
143	0xbd9f63a3	-0.07782676
144	0xbd97dfc4	-0.07415727
145	0xbd11be68	-0.035581976
146	0xbe23c199	-0.1599182
147	0xbcce4a00	-0.02518177
148	0x3c9b1236	0.018929582
149	0x3d601a0f	0.05471235
150	0xbe0aca24	-0.13553673
151	0xbd2daa83	-0.04239894
152	0xbdf39929	-0.11894447
153	0x3e5d9556	0.21638998
154	0xbe400791	-0.18752886
155	0x3e5a63eb	0.21327178
156	0xbd18b8fa	-0.037285782
157	0xbdcac56e	-0.09900938
158	0xbd197a2b	-0.037470024
159	0xbe2a9293	-0.16657476
160	0xbddcef0b	-0.10787781
161	0xbd5cf08a	-0.053940333
162	0xbe07c256	-0.13257727
163	0xbd98a06e	-0.074524745
164	0xbe29ca62	-0.16581109
165	0xbd4b1ce7	-0.04958811
166	0x3e49c9f2	0.19705942
167	0x3cfe0f5f	0.031013189
168	0x3e4467bd	0.19180198
169	0xbafd613f	-0.001933135
170	0xbd8ad046	-0.06778006
171	0xbddf1364	-0.1089237
172	0x3e432874	0.190584
173	0xbd9be3e7	-0.07611828
174	0xbe24ab36	-0.16080937
175	0xbdf5d0b9	-0.12002701
176	0x3dea7ada	0.11449213
177	0xbe07f1e5	-0.13275869
178	0x3e2c4e4c	0.16826743
179	0x3ddf88ae	0.109147415
180	0xbd5ce579	-0.05392978
181	0x3df99aa2	0.12187697
182	0x3e409b3a	0.18809214
183	0xbe248112	-0.16064861
184	0xbd3ffa0e	-0.04686933
185	0xbd7f7ac3	-0.062372934
186	0x3de3b8aa	0.11119206
187	0x3e46c8ad	0.19412489
188	0x3baae763	0.0052155717
189	0xbe2d23e9	-0.1690823
190	0x3d855dc3	0.06512024
191	0xbc6d28f8	-0.0144751
192	0x3d0ba88b	0.034096282
193	0xbdf5b0b6	-0.119965956
194	0x3e54dd79	0.2078761
195	0xbe40361d	-0.18770643
196	0xbda2a4fe	-0.07941626
197	0xbe55c142	-0.20874503
198	0xbe405078	-0.18780696
199	0xbe241f16	-0.16027483
200	0x3d56762c	0.05235879
201	0x3e52a06f	0.20569013
202	0x3b96195a	0.004580659
203	0x3d7bd790	0.061484873
204	0xbc0ee976	-0.008722654
205	0x3dedfc25	0.116203584
206	0xbe0a1826	-0.13485774
207	0xbc81ddcb	-0.01585283
208	0x3e175f1d	0.14782377
209	0xbdcf607d	-0.101258256
210	0xbe360efa	-0.1777915
211	0xbd7737f9	-0.060356114
212	0x3e136604	0.14394385
213	0x3d626164	0.05526866
214	0x3da62df3	0.08114233
215	0xbdbddfd3	-0.09271207
216	0xbe101445	-0.14070232
217	0xbd205073	-0.039139222
218	0xbdacbaad	-0.08434043
219	0xbdbce60c	-0.092235655
220	0xbdc5feac	-0.096677154
221	0xbdb5537e	-0.088538155
222	0x3e3ebc6b	0.18626563
223	0x3e4279f8	0.1899184
224	0xbd659262	-0.056047805
225	0x3d19cebf	0.037550684
226	0xbe2f8241	-0.17139532
227	0x3e4a9ede	0.19787166
228	0xbe56b55a	-0.20967618
229	0xbe2d2061	-0.16906883
230	0xbe32072f	-0.17385553
231	0xbe298b9f	-0.16557167
232	0xbe20fc8a	-0.15721336
233	0xbc7c0bef	-0.015383705
234	0x3ce6e007	0.028182996
235	0xbe371526	-0.17879161
236	0x3e24bdfc	0.16088098
237	0x3d8b2d93	0.06795802
238	0x3e3d992c	0.18515462
239	0xbe56d7f8	-0.20980823
240	0x3bea1329	0.0071433973
241	0xbe23b44d	-0.15986748
242	0xbc7ababa	-0.015303308
243	0x3e23a6c2	0.15981582
244	0xb9c655b2	-0.0003782935
245	0x3ddf611e	0.109071955
246	0xbcf427f7	-0.029804213
247	0x3e4f27d8	0.20230043
248	0xbe31e7a1	-0.17373516
249	0xbd8f90f3	-0.07010069
250	0x3d9c7c76	0.076409265
251	0xbe3869f1	-0.18009163
252	0x3d8dc23a	0.069218114
253	0xbe024ace	-0.12723848
254	0x3dffaf1f	0.124845736
255	0xbca5a2e4	-0.020219274

critic.fc1.bias f4 [256]
0	0x3e108faa	0.14117303
1	0xbe332bc8	-0.1749717
2	0xbde607f8	-0.11231989
3	0xbdf5c8a3	-0.12001159
4	0x3dc352cd	0.09537277
5	0xbdbdae36	-0.09261744
6	0x3e3ac26d	0.1823823
7	0x3de5e895	0.11226002
8	0xbd32799e	-0.043573014
9	0x3da0e305	0.078558005
10	0xbd96afa0	-0.073577166
11	0xbd8384ab	-0.06421789
12	0xbcec0915	-0.028812924
13	0xbe5e805c	-0.21728653
14	0xbe0436a9	-0.12911476
15	0xbdfad155	-0.12246958
16	0xbdc6a4ab	-0.09699377
17	0xbd2fbb0b	-0.042902987
18	0x3e40129b	0.18757097
19	0x3ded4379	0.11585135
20	0xbdb4a72d	-0.08820949
21	0x3d850fd8	0.064971626
22	0x3d599070	0.053116262
23	0xbdf08e45	-0.11745886
24	0x3e5b1309	0.2139398
25	0x3d88a2da	0.066716865
26	0xbdf300c2	-0.11865379
27	0xbd9ccfc9	-0.076568194
28	0xbe1ae474	-0.1512621
29	0x3d9e1bb4	0.07720128
30	0xbd3facac	-0.046795532
31	0x3e218aa7	0.15775548
32	0xbe4ef9f3	-0.20212536
33	0x3d9530bb	0.07284685
34	0xbe284cf3	-0.16435604
35	0x3c8495cb	0.016184708
36	0x3d21bc3c	0.039486155
37	0x3d30e65d	0.04318844
38	0x3dc9bbdc	0.098502845
39	0x3e5120a0	0.20422602
40	0x3daed415	0.08536545
41	0xbd286b24	-0.041117802
42	0x3e03327d	0.12812229
43	0xbcf94b10	-0.0304313
44	0x3c7823a7	0.015145219
45	0x3e2b8e80	0.16753578
46	0x3e10f4fb	0.14155953
47	0x3ce14542	0.027498845
48	0xbe2ca4f6	-0.16859803
49	0x3df8d2b4	0.121495634
50	0xbdf5e3e2	-0.12006356
51	0xbe05c657	-0.13063942
52	0xbe076dde	-0.13225505
53	0xbcf658ac	-0.030071579
54	0x3d41b207	0.04728892
55	0xbe0999b2	-0.13437536
56	0xbe2d95da	-0.16951695
57	0xbdc00a9f	-0.09377026
58	0xbdd9f3fc	-0.106422395
59	0xbdcd2e2e	-0.10018574
60	0xbde8ec6e	-0.113732204
61	0xbe1d450e	-0.15358374
62	0x3e4d9c03	0.20079045
63	0xbe4aff71	-0.19824006
64	0xbd9831e1	-0.07431389
65	0x3dfebdec	0.124385685
66	0xbde8bbfa	-0.11363979
67	0xb9e513dd	-0.00043693083
68	0xbdefe04a	-0.117127016
69	0xbe4dacc0	-0.2008543
70	0xbe4b45ae	-0.198508
71	0xbc1d50f1	-0.0096018175
72	0xbdd5bbe2	-0.104362264
73	0xbe4a462e	-0.19753334
74	0xbd44bb5f	-0.048030253
75	0xbe2d5b95	-0.16929467
76	0x3d32e5d7	0.043676224
77	0xbd6cc5bd	-0.057805765
78	0x3cb0aa8a	0.021565694
79	0x3d295b53	0.04134686
80	0xbce763e7	-0.02824588
81	0xbe224a36	-0.15848622
82	0x3dd8e4d8	0.105905235
83	0xbe22682a	-0.15860048
84	0xbe0027f7	-0.12515245
85	0x3d687fb8	0.056762427
86	0xbc5d7873	-0.013517487
87	0x3d016b14	0.03159626
88	0xbd1d0354	-0.038333252
89	0xbd444dad	-0.04792564
90	0xbd999ef4	-0.07501021
91	0x3e3130e8	0.17303813
92	0x3d90d9f2	0.0707282
93	0xbde5a72f	-0.11213528
94	0x3e3a8694	0.182154
95	0x3d08a7af	0.03336304
96	0xbe078482	-0.13234141
97	0xbe2e7706	-0.17037591
98	0xbd435273	-0.04768605
99	0xbc95cc32	-0.018285844
100	0xbda7108c	-0.08157453
101	0xbe19fd3e	-0.1503801
102	0xbde0ff47	-0.1098619
103	0xbe4fc3c4	-0.20289522
104	0x3df5181a	0.11967488
105	0x3d02dea6	0.031950615
106	0xbd76b06b	-0.06022684
107	0xbe3aac2d	-0.18229742
108	0x3bbec7a3	0.0058221384
109	0xbdb265cc	-0.087108225
110	0x3dc8f211	0.098117955
111	0xbc8ea3ed	-0.01741215
112	0xbe570c5b	-0.21000807
113	0x3e1eb879	0.15500058
114	0xbe086d28	-0.1332289
115	0x3e4b046f	0.1982591
116	0xbde1b6f7	-0.11021226
117	0xbe260b71	-0.16215302
118	0x3e59492c	0.21219319
119	0x3dbd8e1a	0.09255619
120	0xbdf033e5	-0.11728648
121	0x3cb8b54c	0.022547387
122	0xbe359484	-0.17732435
123	0x3c019bea	0.007910708
124	0x3d8671ae	0.065646514
125	0xbdf92532	-0.121652976
126	0xbe096355	-0.13416798
127	0x3dd29e5e	0.102841124
128	0x3e4be013	0.19909696
129	0xbdaea88c	-0.085282415
130	0xbe2c012e	-0.16797325
131	0x3e2575a8	0.16158164
132	0x3daca975	0.08430759
133	0xbe382f23	-0.17986731
134	0xbdff5aa7	-0.124684624
135	0xbe12b780	-0.14327812
136	0x3d59ace5	0.0531434
137	0x3c0eb57e	0.008710263
138	0x3de7f68e	0.113263234
139	0x3e0b57a5	0.13607652
140	0x3db42d74	0.08797732
141	0xbd90b06c	-0.070649
142	0xbd7ed9e9	-0.062219534
143	0xbe42930b	-0.19001405
144	0x3d854d51	0.065088876
145	0x3e315ec5	0.17321308
146	0x3e4b9b0e	0.19883367
147	0xbdfe9d14	-0.12432304
148	0xbcafb357	-0.02144782
149	0xbe3fbb47	-0.18723784
150	0xbe0604e5	-0.13087805
151	0x3d24be8b	0.04022078
152	0x3e5484f3	0.20753841
153	0xbd6f464d	-0.058416653
154	0x3dafbfc8	0.08581501
155	0x3de35a69	0.11101229
156	0xbe065377	-0.13117777
157	0xbbaba97a	-0.005238709
158	0x3d7a7bba	0.06115315
159	0x3cbb3e91	0.022856982
160	0xbe456cbf	-0.19279765
161	0x3e5639f8	0.20920551
162	0x3dd31e53	0.10308518
163	0x3dbe3785	0.09287933
164	0x3d57d16b	0.05268995
165	0xbe5afb76	-0.21384987
166	0xbd225947	-0.039635923
167	0x3d2c5154	0.042069748
168	0xbe12912b	-0.1431319
169	0xbe359408	-0.1773225
170	0x3db0a988	0.086260855
171	0xbd5da13f	-0.054108854
172	0x3e4e1636	0.2012566
173	0xbd70e03c	-0.058807597
174	0xbc679383	-0.014134291
175	0x3e4db319	0.20087852
176	0xbdc1bcd7	-0.094598465
177	0xbe14c6dc	-0.14528984
178	0x3dc05453	0.093910836
179	0x3e1bbe55	0.15209325
180	0xbd38a6da	-0.045080997
181	0x3c4284a4	0.011872444
182	0xbdba930a	-0.09110077
183	0xbd591c71	-0.05300564
184	0xbdc0074d	-0.093763925
185	0x3dbacebe	0.09121464
186	0xbe4eb391	-0.20185687
187	0xbdb64b47	-0.08901077
188	0x3e597f81	0.21240045
189	0xbe20bcec	-0.15697068
190	0x3e29ef75	0.16595252
191	0xbe21354a	-0.15742984
192	0x3e4c8837	0.19973837
193	0xbddb5788	-0.10710055
194	0xbdd82ee0	-0.10555816
195	0x3d54dfc4	0.051971212
196	0xbe5e4d6a	-0.21709219
197	0xbba9e889	-0.005185191
198	0x3d7b3fd7	0.06134018
199	0x3e0b6657	0.13613258
200	0x3e4a59e5	0.19760855
201	0x3d16730a	0.036730804
202	0xbe377a1e	-0.17917678
203	0x3c811fbc	0.015762202
204	0x3d58327d	0.052782524
205	0xbdc76bac	-0.09737334
206	0x3db1ba94	0.08678165
207	0xbe1d860a	-0.15383163
208	0x3e29a7b0	0.16567874
209	0xbe5bf2ad	-0.21479292
210	0x3e4bb083	0.19891553
211	0x3dc635d4	0.09678236
212	0x3b59821d	0.0033189126
213	0x3e2c4144	0.16821772
214	0x3cf647d6	0.03006355
215	0x3e168d7a	0.14702407
216	0xbe0f65d6	-0.14003691
217	0xbe23cbed	-0.1599576
218	0x3d323901	0.043511394
219	0xbe58acfb	-0.21159737
220	0xbdb6579a	-0.089034274
221	0x3e1e952d	0.15486594
222	0xbdd804ce	-0.105477914
223	0x3c2be820	0.010492355
224	0x3d7717f5	0.06032558
225	0x3d4a6ffe	0.04942321
226	0x3d76da23	0.060266625
227	0xbe540dd3	-0.20708399
228	0xbddf6855	-0.10908572
229	0xbe15ce4d	-0.14629479
230	0x3dba286b	0.0908974
231	0xbcb53cd5	-0.022123734
232	0xbc4b9725	-0.012426172
233	0xbd5b4757	-0.05353483
234	0x3e319fa0	0.17346048
235	0xbe441959	-0.19150294
236	0xbc5a893c	-0.013338383
237	0x3e14f058	0.14544809
238	0xbe3ad8c4	-0.18246752
239	0xbb22f7b3	-0.0024866879
240	0x3e37c54f	0.17946361
241	0x3e56d15b	0.209783
242	0x3da89701	0.08231927
243	0xbc0ef49c	-0.008725312
244	0xbe592e2c	-0.2120902
245	0x3e0bb5db	0.13643591
246	0xbdb953fa	-0.090492204
247	0xbe01a34d	-0.1265995
248	0xbdbea82e	-0.093094215
249	0x3d18ea9d	0.03733312
250	0x3e5bd987	0.21469699
251	0x3d0e57f2	0.03475184
252	0x3e5628ec	0.20914048
253	0xbe0b879b	-0.13625948
254	0x3d98a720	0.074537516
255	0xbde3dd2f	-0.11126172
