server/policies/checkpoints/policy_1_200/model.pt (torch, 338258 bytes, 11 tensors)

actor.fc1.weight f4 [256, 21]
0	0xbd922d86	-0.07137589
1	0xbdc230c5	-0.09481958
2	0xbd517cdc	-0.051144466
3	0x3d6d101e	0.0578767
4	0x3e4a79c8	0.19773018
5	0x3e084157	0.13306175
6	0xbd13fdcd	-0.036130715
7	0x3e308e1c	0.1724171
8	0x3df592fe	0.11990927
9	0x3e0d2a4c	0.13785666
10	0x3de7dde8	0.11321622
11	0x3ce94e57	0.028479738
12	0xbe181c3b	-0.14854519
13	0xbddee1d7	-0.10882919
14	0x3cd6a7df	0.026203094
15	0x3dc2ef08	0.09518248
16	0xbcb74132	-0.022369955
17	0x3c8e3355	0.017358461
18	0x3e42a8bb	0.19009678
19	0x3e4f69eb	0.20255248
20	0xbe3c6269	-0.18396915
21	0x3dc9c342	0.098516956
22	0xbe29c699	-0.16579665
23	0x3d8e6b38	0.06954044
24	0x3e29d0b3	0.16583519
25	0x3dcf5cab	0.10125097
26	0x3e322e43	0.1740046
27	0xbe2cf7a4	-0.16891342
28	0xbde8c785	-0.1136618
29	0xbdff2041	-0.12457324
30	0xbd919889	-0.07109172
31	0xbe45b53d	-0.19307418
32	0xbd9808ca	-0.074235514
33	0xbd9253fd	-0.07144926
34	0x3dc1ed67	0.09469109
35	0x3dff29b6	0.124591276
36	0x3e35080b	0.1767885
37	0x3e5cecb4	0.2157467
38	0x3dd6a74a	0.104811266
39	0xbc46a41a	-0.012124086
40	0xbdb75d03	-0.089532875
41	0x3b73303b	0.0037107605
42	0x3db8983d	0.09013412
43	0xbd3c89ef	-0.04602998
44	0x3d48f7c2	0.049064405
45	0x3ddb69be	0.10713528
46	0xbd9a0a57	-0.075215034
47	0xbd694de8	-0.056959063
48	0xbde4e29a	-0.11176033
49	0xbe431487	-0.190508
50	0x3bb65256	0.0055640144
51	0xbe09e760	-0.13467169
52	0xbddc420e	-0.107547864
53	0x3e3a8b6e	0.1821725
54	0x3df3844b	0.11890467
55	0x3d2d827a	0.04236076
56	0x3d95f73c	0.07322547
57	0x3e44d696	0.19222483
58	0xbe0001bd	-0.12500663
59	0x3e4273d9	0.18989505
60	0x3e186958	0.14883935
61	0x3dbe239b	0.09284135
62	0xbe012631	-0.12612225
63	0xbe576cea	-0.21037641
64	0xbd36350f	-0.044484194
65	0xbddf47e1	-0.10902382
66	0xbe1bed43	-0.15227227
67	0x3e23055c	0.15920013
68	0xbc6b7595	-0.014371295
69	0xbde69569	-0.112589665
70	0x3da3f134	0.0800499
71	0x3d3dd44c	0.04634504
72	0x3e027361	0.12739326
73	0xbd3faa45	-0.04679324
74	0xbe20d283	-0.15705304
75	0xbcd892cf	-0.026437191
76	0x3e0bd1f6	0.13654312
77	0xbcb7e8c1	-0.022449853
78	0x3dacc5a5	0.08436135
79	0x3d62d21f	0.05537617
80	0x3e0f1c50	0.13975644
81	0x3c8ce13d	0.017197246
82	0xbdc87dab	-0.09789594
83	0x3da5160d	0.080608465
84	0x3ce83f8e	0.028350618
85	0xbd949d71	-0.07256592
86	0x3d50f275	0.051012475
87	0xbd054d66	-0.032544516
88	0xbd610ce1	-0.054943923
89	0xbc8c68ce	-0.017139819
90	0xbe2fbc19	-0.17161597
91	0x3dc0da3a	0.094166234
92	0xbd1092bd	-0.03529619
93	0x3db42eea	0.08798011
94	0xbdbd5e41	-0.09246493
95	0x3e2a2978	0.16617382
96	0xbe3f4e49	-0.18682207
97	0x3d9aa3fa	0.07550807
98	0x3d671eb6	0.056425773
99	0x3d86c5e6	0.06580715
100	0xbd1815b0	-0.037130058
101	0xbd3fc504	-0.046818748
102	0xbd66f0ee	-0.056382112
103	0x3e3d4470	0.18483138
104	0xbd8e5e83	-0.069516204
105	0x3ca4c373	0.020112729
106	0xbdd9b376	-0.106299326
107	0xbd944290	-0.07239258
108	0x3de134aa	0.10996373
109	0xbd1ee873	-0.0387959
110	0xbe2868ea	-0.16446272
111	0x3e026de7	0.12737237
112	0x3da532e0	0.08066344
113	0xbdef7b7e	-0.11693476
114	0x3e060f5f	0.13091801
115	0x3e4c0035	0.19921954
116	0xbd99f819	-0.07518024
117	0xbe2efec2	-0.1708937
118	0x3dff27da	0.12458773
119	0xbdd22c86	-0.102623984
120	0xbe3c0fe3	-0.18365435
121	0xbdcc8822	-0.09986903
122	0xbe42aad4	-0.19010478
123	0xbdfe3c1e	-0.1241381
124	0xbdf303d7	-0.11865967
125	0x3e3800b3	0.17969017
126	0x3dc6ac56	0.09700839
127	0x3e3c184d	0.18368645
128	0xbe5b25c7	-0.2140113
129	0xbe5b68e6	-0.21426734
130	0xbde9ef5b	-0.114226066
131	0xbd902771	-0.07038773
132	0x3dab07a8	0.0835107
133	0x3cedd004	0.029029854
134	0x3d5664db	0.052342277
135	0xbe36813f	-0.17822741
136	0xbe52c2c7	-0.20582114
137	0x3db2ab51	0.08724082
138	0x3e394e12	0.18096188
139	0x3e084b5a	0.13309994
140	0xbe472d6b	-0.1945092
141	0x3dd7e146	0.105410144
142	0xbe32bed3	-0.17455606
143	0xbc9515e6	-0.018198919
144	0xbddc675c	-0.10761902
145	0xbe37c572	-0.17946413
146	0xbdb78d5c	-0.08962509
147	0x3da9b188	0.082858145
148	0x3d60d3b8	0.05488941
149	0x3db6d476	0.089272425
150	0xbc64635d	-0.013939706
151	0xbe0c36d0	-0.13692784
152	0x3dba6034	0.091003805
153	0x3d50c00e	0.050964408
154	0x3cf74c9e	0.030187901
155	0x3d1bf151	0.038071934
156	0xbe5c45c0	-0.21510983
157	0xbe3709f1	-0.17874886
158	0x3d6d9e2a	0.058012165
159	0xbcb99ca8	-0.022657707
160	0x3b1b2c03	0.0023677356
161	0xbdc86bed	-0.0978621
162	0xbdb93fb6	-0.09045355
163	0x3d4ed457	0.05049547
164	0xbe27335e	-0.16328189
165	0x3da27e26	0.07934217
166	0xbd202566	-0.039098166
167	0xbd47c029	-0.048767243
168	0x3dc08fc9	0.09402425
169	0xbe46e404	-0.19422919
170	0x3e43fdca	0.19139782
171	0x3e368e93	0.17827825
172	0x3d6ece71	0.058302347
173	0x3e5d308b	0.21600549
174	0xbda7b3b8	-0.081885755
175	0x3e1cdcab	0.15318553
176	0x3e07d2c4	0.13263994
177	0xbdf6a0b5	-0.12042371
178	0x3cdbc63a	0.02682792
179	0xbe4a0e63	-0.1973205
180	0x3d4c9612	0.049947806
181	0xbdc3b055	-0.09555117
182	0xbca3ff46	-0.020019185
183	0xbe35a548	-0.17738831
184	0x3e32b501	0.1745186
185	0xbdf38243	-0.1189008
186	0x3e08e2d1	0.13367774
187	0xbd8c36d3	-0.068463944
188	0xbd35c150	-0.04437381
189	0xbe19b51c	-0.15010494
190	0x3e4d9055	0.2007459
191	0x3e148824	0.14505059
192	0x3d73510c	0.059403464
193	0x3e349a8d	0.17637081
194	0xbda18909	-0.078874655
195	0xbe2ea832	-0.17056349
196	0x3d0333ed	0.032031942
197	0xbe11e0bb	-0.14245884
198	0xbdeca4e5	-0.11554889
199	0x3da9a58a	0.08283527
200	0x3cd69849	0.026195662
201	0x3dd823b8	0.10553688
202	0x3e056231	0.13025738
203	0xbca7d288	-0.020486131
204	0xbde77b4f	-0.11302816
205	0xbda2bcac	-0.079461426
206	0xbda14628	-0.07874709
207	0x3e190fa0	0.14947367
208	0xbe4cc5d8	-0.19997346
209	0xbe19ea06	-0.15030679
210	0x3de5c8ad	0.112199165
211	0x3e2a4936	0.1662949
212	0xbde2ded9	-0.11077661
213	0x3cd59561	0.026072206
214	0xbe5a5b12	-0.21323803
215	0x3df783d9	0.12085695
216	0xbd28db94	-0.04122503
217	0xbcc9878d	-0.024600768
218	0xbe3d27b8	-0.18472183
219	0x3cea9db4	0.028639652
220	0xbe5ac481	-0.21364023
221	0x3e2a5474	0.16633779
222	0x3db4a07f	0.08819675
223	0x3d77181d	0.06032573
224	0xbe003629	-0.1252066
225	0x3c1e5d1e	0.009665756
226	0xbe50bb6b	-0.20383994
227	0x3d2e13d3	0.042499375
228	0x3e226874	0.15860158
229	0x3d3c73af	0.046008762
230	0xbe0e5891	-0.13900973
231	0xbd5f79f6	-0.05455967
232	0x3dc4420d	0.09582911
233	0x3dd3c13c	0.10339591
234	0xbdb8cbbb	-0.090232335
235	0xbe1e4fb0	-0.15460086
236	0xbe459300	-0.19294357
237	0xbe2ea528	-0.1705519
238	0xbc591f95	-0.013252159
239	0xbddba700	-0.10725212
240	0xbb75ef87	-0.0037526803
241	0x3e2ac0a7	0.16675054
242	0x3e4b13ad	0.19831724
243	0xbdc44fae	-0.0958551
244	0xbe42c9db	-0.19022314
245	0xbd899255	-0.06717364
246	0x3de45262	0.11148526
247	0xbdb4d84b	-0.08830317
248	0x3e36d1c3	0.17853455
249	0xbe178134	-0.14795381
250	0x3e35601f	0.17712449
251	0xbd916a9e	-0.07100414
252	0xbe3ad34e	-0.18244669
253	0x3e20097c	0.15628618
254	0x3de77b72	0.11302842
255	0xbe3e5f8b	-0.18591134

actor.fc1.bias f4 [256]
0	0x3daf711c	0.08566496
1	0x3e57b7a0	0.21066141
2	0x3e5981ce	0.21240923
3	0xbd7dff46	-0.062011026
4	0x3e3e014c	0.18555182
5	0xbe43f97a	-0.19138137
6	0xbd138d52	-0.036023445
7	0x3db24b50	0.08705771
8	0x3c36e042	0.011161866
9	0xbe311ee0	-0.17296934
10	0x3e4b1079	0.19830503
11	0xbdd67b58	-0.10472745
12	0x3e0d0fe2	0.1377559
13	0xbe5ddbf6	-0.2166594
14	0x3e3ee9a4	0.18643814
15	0x3dc25470	0.094887614
16	0xbe27d816	-0.16391024
17	0x3e2d6fd3	0.16937189
18	0xbe1ee40a	-0.15516677
19	0x3cc8a9f1	0.024495097
20	0x3e02c6b8	0.12771118
21	0x3e047e62	0.12938836
22	0xbdd2e072	-0.10296716
23	0xbbaf8e69	-0.005357553
24	0x3e20208f	0.1563742
25	0xbe34c20f	-0.17652152
26	0xbc0ea54a	-0.0087064
27	0xbd989ba3	-0.0745156
28	0x3d3d0508	0.046147376
29	0xbc1b1c20	-0.009467155
30	0xbe2b55a8	-0.16731894
31	0xbe491332	-0.19636229
32	0x3bf2d6c2	0.007410855
33	0x3ce28e19	0.027655648
34	0x3bbcf3de	0.005766376
35	0xbe4462e5	-0.1917835
36	0xbdf97fc4	-0.121825725
37	0xbce7e493	-0.028307235
38	0xbe3ac06c	-0.18237466
39	0xbe5682b8	-0.20948303
40	0xbd4a7731	-0.049430076
41	0x3d632d8c	0.05546336
42	0x3e0c7c19	0.13719214
43	0xbe3c8db5	-0.18413432
44	0xbda3a06a	-0.07989581
45	0xbe30998a	-0.1724607
46	0xbdc5b582	-0.096537605
47	0xbe039afd	-0.12852092
48	0x3dbf5b20	0.093435526
49	0x3d880069	0.06640703
50	0x3d48cf91	0.049026076
51	0xbdbe55bb	-0.092936955
52	0x3e0e5b2f	0.13901971
53	0xbd39b094	-0.045334414
54	0xbe49aa55	-0.19693883
55	0x3e2e0031	0.1699226
56	0xbe135a47	-0.14389907
57	0x3d7214e8	0.05910197
58	0x3dba788d	0.091050245
59	0x3e07f2bf	0.13276194
60	0xbcc176b9	-0.023616182
61	0x3de7151d	0.11283324
62	0x3dbf17b6	0.093306944
63	0x3df4d0da	0.11953898
64	0xbcd68f8f	-0.026191501
65	0x3dff2268	0.12457734
66	0xbc885e17	-0.016646428
67	0xbe3cb0a3	-0.18426757
68	0xbd5c1e6b	-0.053739946
69	0x3daa92ce	0.08328782
70	0xbcab282e	-0.020893183
71	0x3de61aeb	0.11235603
72	0xbe4ae354	-0.19813281
73	0xbe563aee	-0.20920917
74	0x3decafa1	0.11556936
75	0x3c134123	0.008987698
76	0xbd297326	-0.04136958
77	0x3c95ede5	0.018301914
78	0xbc79fac6	-0.015257543
79	0xbdc8b38d	-0.097998716
80	0x3dcc09b1	0.09962786
81	0xbcaf7c28	-0.021421507
82	0x3e459e70	0.1929872
83	0x3e10dda2	0.14147046
84	0x3e406a21	0.18790485
85	0xbe48d39c	-0.19611973
86	0x3d323b01	0.0435133
87	0xbd847f8f	-0.06469642
88	0x3b6ac9f6	0.0035825945
89	0xbe0b6357	-0.13612114
90	0x3c75bc48	0.014998503
91	0x3e5d0836	0.21585163
92	0x3e2e4e8f	0.17022155
93	0xbe41b180	-0.18915367
94	0xbe180c8d	-0.14848538
95	0xbe2a3e8d	-0.16625424
96	0xbdb194a2	-0.086709276
97	0x3d43577b	0.04769085
98	0x3e588492	0.21144322
99	0xbcfef576	-0.031122904
100	0xbdcb4c3f	-0.09926652
101	0xbe057e7e	-0.13036534
102	0xbd9b8947	-0.07594543
103	0x3e24724c	0.16059226
104	0xbdf746bc	-0.120740384
105	0xbe302d9a	-0.17204896
106	0xbd862be7	-0.065513425
107	0x3e3a76b1	0.1820934
108	0xbe2c2c1b	-0.168137
109	0x3dce0421	0.10059381
110	0xbe37235f	-0.17884587
111	0x3e2b859b	0.16750185
112	0x3dd6d256	0.10489337
113	0x3e37f8d5	0.17966016
114	0xbe0f7ba8	-0.14012015
115	0x3d29980d	0.041404773
116	0xbe23484b	-0.15945546
117	0xbe3c6862	-0.18399194
118	0x3e5be354	0.21473438
119	0x3e2dfd65	0.16991194
120	0xbe281679	-0.16414823
121	0x3cbd5df6	0.023116093
122	0xbe0b98cd	-0.13632508
123	0xbb265740	-0.0025381595
124	0xbd64c670	-0.055853307
125	0x3c6a9385	0.014317398
126	0xbdbd1cbe	-0.09233998
127	0x3d4374c2	0.04771877
128	0x3e2d5d86	0.16930208
129	0x3dcc1e90	0.09966767
130	0x3e14c0d7	0.14526688
131	0x3c049452	0.008092003
132	0x3ce411ca	0.027840514
133	0xbd4187d3	-0.047248673
134	0xbd8260d8	-0.06366128
135	0xbe572bfb	-0.21012871
136	0x3d23062b	0.039800804
137	0x3d82d462	0.06388165
138	0xbe5d6d2e	-0.2162368
139	0xbd718a36	-0.0589697
140	0xbdc57ba0	-0.0964272
141	0xbe4a38fc	-0.197483
142	0x3e5b5068	0.21417391
143	0x3e1043a4	0.14088303
144	0xbd8d2954	-0.06892648
145	0x3e144626	0.14479885
146	0x3e331805	0.17489631
147	0xbda2e259	-0.07953329
148	0x3d1436d2	0.036185093
149	0x3e56d57e	0.20979878
150	0xbd6d3248	-0.05790928
151	0x3da6984b	0.08134516
152	0xbe14e3bd	-0.1454
153	0x3d30f6a6	0.043203972
154	0xbdf0b8c5	-0.11753992
155	0xbdf9e90c	-0.12202653
156	0x3e4c5624	0.19954735
157	0x3e27e370	0.16395354
158	0xbb809e75	-0.0039251396
159	0xbe0fee33	-0.1405571
160	0x3d8ad721	0.06779314
161	0xbdaffcb5	-0.08593122
162	0x3e22c75d	0.15896364
163	0xbd090478	-0.033451527
164	0xbc603b2d	-0.013685984
165	0xbcc49bdb	-0.024000099
166	0x3de2ca34	0.110737234
167	0x3e43ebcb	0.19132917
168	0x3e5a0802	0.21292117
169	0x3daf4e46	0.08559851
170	0xbc96c9e6	-0.01840682
171	0xbe497155	-0.19672139
172	0xbe0e4498	-0.13893354
173	0x3e214bfe	0.15751645
174	0xbc1f2051	-0.009712295
175	0x3e2edbe4	0.17076069
176	0xbe5d00ac	-0.21582288
177	0xbdea7ddd	-0.11449788
178	0xbddc5eed	-0.10760293
179	0x3c4ab6a0	0.012372643
180	0xbe29b346	-0.16572294
181	0xbe364f18	-0.1780361
182	0x3e4373c9	0.19087137
183	0xbe0cebdf	-0.13761853
184	0xbe15a621	-0.14614154
185	0xbd9bbc4a	-0.07604273
186	0x3d22f02c	0.039779827
187	0xbda6b219	-0.08139438
188	0x3c3e0a06	0.011599069
189	0x3d9c7b7d	0.07640741
190	0x3dd100aa	0.10205205
191	0xbcfbbbb9	-0.030729162
192	0xbd659b67	-0.056056406
193	0x3d76b297	0.06022891
194	0x3e5fdffd	0.21862788
195	0x3e12776e	0.14303371
196	0xbe35baa0	-0.17746973
197	0xbd5731e5	-0.052537818
198	0xbd55b630	-0.0521757
199	0xbe3f78f4	-0.18698484
200	0xbdc26282	-0.09491445
201	0x3e4cbd47	0.19994079
202	0x3d99a380	0.07501888
203	0x3e404417	0.18775974
204	0x3dffaf16	0.12484567
205	0xbe1c9cc8	-0.15294182
206	0xbdf9096e	-0.12160002
207	0x3e10b0d5	0.14129956
208	0xbd89b3fa	-0.06723781
209	0x3e4564eb	0.19276778
210	0xbdc9aa66	-0.09846954
211	0xbe4a4121	-0.19751407
212	0xbdce7581	-0.10081006
213	0x3e57cc3e	0.21074006
214	0xbe3be49d	-0.18348928
215	0x3ccd8114	0.025085963
216	0xbdf0ab46	-0.11751418
217	0xbe27829a	-0.16358414
218	0x3d55d667	0.052206423
219	0xbe407dcf	-0.18797992
220	0x3c50a6e8	0.012735106
221	0xbc87b9fd	-0.016568178
222	0x3e2e8e45	0.17046459
223	0xbde7193f	-0.11284112
224	0xbd9abbc7	-0.07555347
225	0x3e24c29d	0.16089864
226	0xbdda5b3b	-0.10661932
227	0x3e377bf1	0.17918374
228	0xbe1421a9	-0.14465965
229	0x3cae35e2	0.021265928
230	0x3e318357	0.17335258
231	0xbdba024d	-0.0908247
232	0x3e0d54d2	0.13801888
233	0x3e1cc49d	0.15309377
234	0xbe49d50e	-0.1971018
235	0xbc19d985	-0.00939024
236	0xbe4c7e09	-0.19969954
237	0x3df5c5af	0.12000596
238	0xbdb13a12	-0.08653654
239	0xbe03fcc1	-0.12889387
240	0xbd8e6d34	-0.069544226
241	0x3e582e5e	0.21111438
242	0x3e279352	0.16364792
243	0x3d6b3dd1	0.057432
244	0xbd889159	-0.06668348
245	0xbcc04411	-0.023469957
246	0xbd403091	-0.046921317
247	0x3e1d6540	0.15370655
248	0x3cd47822	0.02593619
249	0x3e000f28	0.12505782
250	0xbe1acce1	-0.15117218
251	0x3e17929d	0.14802022
252	0xbddd5f35	-0.10809175
253	0xbe0b5ed1	-0.13610388
254	0x3e37b864	0.17941433
255	0xbc6ceece	-0.014461232

actor.fc2.weight f4 [128, 256]
0	0x3cc26e9e	0.023734387
1	0x3d6829a3	0.056680333
2	0x3ca51d45	0.020155558
3	0xbd5bfa09	-0.05370525
4	0xbd0bcaba	-0.034128882
5	0x3d529233	0.051408958
6	0x3d5b1c0c	0.053493544
7	0x3cba33cb	0.022729775
8	0xbcba0086	-0.022705328
9	0xbca500eb	-0.02014204
10	0xbcfcf84d	-0.030880118
11	0x3ae6509e	0.0017571633
12	0x3d665edb	0.056242805
13	0xbd09e15f	-0.033662196
14	0x3d3cfbb7	0.04613849
15	0x3bdbcd8c	0.0067078527
16	0x3b6fbcf7	0.0036581138
17	0xbc631c98	-0.013861798
18	0x3d212d88	0.039350063
19	0x3d565da4	0.052335396
20	0x3ccedc86	0.025251638
21	0xbd2a84b2	-0.041630454
22	0xbd438335	-0.04773255
23	0xbbf70b6c	-0.0075392034
24	0x3cd7a6b4	0.026324607
25	0x3c0eb158	0.008709274
26	0xbd3a63cf	-0.04550534
27	0xba9ba48e	-0.0011874603
28	0xbd4f9ea3	-0.050688397
29	0xbd09b603	-0.033620846
30	0x3c1a515d	0.009418813
31	0xbc6da618	-0.014504932
32	0xbd18397c	-0.037164196
33	0x3ce2c004	0.02767945
34	0x3b8a5a98	0.0042222254
35	0x3c4ebb91	0.0126179615
36	0xbd2844ca	-0.041081227
37	0x3cba0002	0.022705082
38	0xbd237c78	-0.039913625
39	0x3c49a92a	0.012308398
40	0x3d7002d6	0.058596455
41	0x398b77b0	0.0002660132
42	0x3cf92ec4	0.030417807
43	0xbd574773	-0.052558374
44	0xbbb0ef4c	-0.00539962
45	0x3d0b2a4a	0.033975877
46	0xbc1a2655	-0.009408553
47	0x3d6b5318	0.05745229
48	0x3d2452cf	0.040118035
49	0xbd034cda	-0.032055713
50	0x3d2c404e	0.042053513
51	0xbc63d816	-0.013906499
52	0x3cee6692	0.029101644
53	0x3c9231b1	0.01784596
54	0x3d449d73	0.048001718
55	0xbd74a359	-0.059726093
56	0xbb5e74ea	-0.0033944198
57	0x3d2a5880	0.041588306
58	0xbcb098b5	-0.021557191
59	0x3d7ff361	0.062487964
60	0xbca373b3	-0.01995263
61	0xbbea5033	-0.007150674
62	0xbc3ecd05	-0.01164556
63	0xbb9d3ce8	-0.0047985204
64	0xbd4e655c	-0.050389633
65	0xbb14c06b	-0.0022697698
66	0x3ca01054	0.019539036
67	0x3d27821f	0.040895578
68	0xbb7d0dbb	-0.003861292
69	0xbd38cfea	-0.045120157
70	0x3d25abb5	0.040446956
71	0xbd0549b8	-0.032541007
72	0xbd251473	-0.040302705
73	0x3d374847	0.044746663
74	0x3cac991e	0.021069106
75	0xbd627d37	-0.055295195
76	0xbd7caa2e	-0.061685733
77	0xbac0effa	-0.0014719956
78	0xbd18e84c	-0.03733091
79	0xbba53049	-0.0050411564
80	0x3d24ae14	0.040205076
81	0xba0e0c61	-0.0005418715
82	0x3a755475	0.00093585934
83	0x3d1a479e	0.037665956
84	0xbd25b463	-0.040455233
85	0x3d1a8f3b	0.03773425
86	0x3b50430a	0.003177824
87	0xbcf35719	-0.029704617
88	0xbd57ca63	-0.052683245
89	0xbd0d10f3	-0.034439992
90	0x3d2bff43	0.041991483
91	0x3d43f6f6	0.047842942
92	0xbd51f80b	-0.051261943
93	0x3d2e680d	0.0425797
94	0x3be7789b	0.007063938
95	0xbd14bb0c	-0.036311194
96	0x39bfdc58	0.00036594528
97	0xbd287c7e	-0.04113435
98	0xbd3aab13	-0.045573305
99	0x3c790e00	0.015201092
100	0x3ce7f0ee	0.028313126
101	0xbb8d6069	-0.0043144715
102	0xbb9db80d	-0.0048132003
103	0x3ca5f9ec	0.020260774
104	0x3d433b5e	0.04766404
105	0x3d453d15	0.048153955
106	0xbb3372c7	-0.0027381645
107	0x3d1cb578	0.038259
108	0x3cb08b52	0.021550808
109	0x3d3aec86	0.045635723
110	0x3bd528cf	0.006505109
111	0xbd4b4508	-0.04962638
112	0x3bc733cf	0.006079174
113	0xbd6dfe51	-0.058103863
114	0xbd6b4168	-0.057435423
115	0x3d4d75aa	0.05016104
116	0xbcdd2a94	-0.026997842
117	0x3c763ad9	0.015028679
118	0x3d05006c	0.032471105
119	0x3d18db7b	0.037318688
120	0xbc84712d	-0.016167248
121	0xbb043a88	-0.002017649
122	0x3c0ea1ba	0.008705551
123	0x3bd3aa0f	0.0064594815
124	0xbd76f927	-0.060296204
125	0xbcecfc38	-0.028928861
126	0xbcaa014f	-0.020752577
127	0x3cc0fa46	0.02355684
128	0x3c0a9a54	0.008459646
129	0xbd667195	-0.056260664
130	0xbc5def72	-0.013545858
131	0xbb834227	-0.0040056887
132	0x3d39fbf6	0.045406304
133	0xbcaa2cba	-0.02077328
134	0x3d1d27c1	0.03836799
135	0x3b71c195	0.0036889066
136	0x3cc2cfe9	0.02378078
137	0x3d2e1e10	0.04250914
138	0x3cea4452	0.02859703
139	0x3d558bdc	0.052135333
140	0xbcce2692	-0.025164876
141	0x3c8cc9a2	0.01718599
142	0x3d15bc7c	0.036556706
143	0x3d4f879a	0.05066643
144	0x3d2a4f0c	0.04157929
145	0xbd3a4d1f	-0.045483705
146	0x3c998871	0.018741818
147	0xbd5bb5f2	-0.053640313
148	0xbb9ce8fc	-0.004788516
149	0x3d1576af	0.03649014
150	0xbc876137	-0.016525848
151	0xbd119d5e	-0.035550468
152	0x3d57b348	0.05266121
153	0x3d103f24	0.035216466
154	0x3d3565f5	0.044286687
155	0x3cc5e188	0.024155393
156	0x3d3e995e	0.04653298
157	0x3d1ffbea	0.039058603
158	0x3d1ffc08	0.039058715
159	0x3c17934a	0.009251425
160	0x3d793765	0.060843844
161	0x3d03f714	0.032218054
162	0x3d13eb72	0.03611321
163	0xbaf938f8	-0.001901417
164	0x3cc3a032	0.023880098
165	0x3d0fd30d	0.035113383
166	0x3d241151	0.040055577
167	0x3d65a6e2	0.056067355
168	0xbcc74e8c	-0.024329446
169	0xbd63a064	-0.055572882
170	0xbd28b15a	-0.04118476
171	0x3d0dac51	0.03458816
172	0xbd2ddb69	-0.042445574
173	0xbb1eda3c	-0.0024238965
174	0x3ca47479	0.02007507
175	0x3c9157b6	0.01774202
176	0xbc20acdd	-0.009806839
177	0xbd24d024	-0.04023756
178	0xbc3238b7	-0.01087778
179	0x3b8b3c44	0.0042491276
180	0xbca0879b	-0.019595912
181	0x3caa45ac	0.020785175
182	0xbd5d3c1f	-0.054012414
183	0x3ce7619d	0.028244788
184	0x3d0f5879	0.034996483
185	0x3c1e9eac	0.009681385
186	0x3d7a4161	0.061097506
187	0x3d1a7228	0.037706524
188	0x3d505d43	0.05087019
189	0x3d4b014e	0.04956179
190	0xbcc374b8	-0.023859367
191	0xbafb1d00	-0.0019158423
192	0x3b0615d9	0.00204598
193	0xbd588eed	-0.05287068
194	0xbcafecf9	-0.021475302
195	0xbd4bcb33	-0.049754333
196	0xbd01abe2	-0.03165806
197	0x3d4295c0	0.047506094
198	0xbd0ff2d4	-0.03514369
199	0xbd33fb11	-0.043940607
200	0x3cbe0982	0.023197893
201	0xbd5d6be6	-0.054057978
202	0xbd4937a4	-0.04912533
203	0x3a70aa31	0.0009180634
204	0x3cb08e11	0.021552118
205	0x3d0dce88	0.03462079
206	0x3cbcde2c	0.023055159
207	0xbd2f5815	-0.04280861
208	0x3d2bc811	0.041938845
209	0x3d081029	0.033218537
210	0xbceec912	-0.029148612
211	0x3ce88ff9	0.028388964
212	0x3c936cf3	0.017996287
213	0x3cec6722	0.028857771
214	0xbc0c7fa6	-0.008575356
215	0xbb09636f	-0.0020963808
216	0xbc7ca61d	-0.015420464
217	0x3ce7a460	0.028276622
218	0x3d5a091d	0.053231347
219	0x3cd74100	0.026276112
220	0xbd0e9d8e	-0.034818225
221	0xbd596956	-0.05307897
222	0xbc977af4	-0.018491246
223	0x3d5b7e90	0.053587496
224	0x3d6734b2	0.05644674
225	0x3bde8d66	0.0067917584
226	0xbcb474d6	-0.022028368
227	0xbd569817	-0.052391138
228	0xbd1b6d43	-0.037945997
229	0xbce2a168	-0.027664855
230	0xbd1f26e5	-0.038855452
231	0xbd46c7d9	-0.048530433
232	0xbc41a11f	-0.011818199
233	0x3d149a4c	0.03627996
234	0xbd0d5877	-0.034508195
235	0xb9c25d68	-0.00037072157
236	0x3d686976	0.0567412
237	0x3d2cf013	0.04222114
238	0xbc9387e3	-0.018009132
239	0xbd6b3b51	-0.057429615
240	0xbd0956a8	-0.033529907
241	0x3d102060	0.035187125
242	0xbd7887ca	-0.060676374
243	0xbd252c64	-0.040325537
244	0xbcb63faa	-0.022247154
245	0xbc544680	-0.012956262
246	0x3d3a1098	0.04542598
247	0x3b9213ab	0.004457911
248	0x3cb562b0	0.022141784
249	0xbc3387c4	-0.010957662
250	0xbb98c153	-0.004661718
251	0xbd6ba7b9	-0.057533
252	0x3d489f4c	0.048980042
253	0x3c2a9017	0.01041033
254	0x3bd1c7c8	0.0064019896
255	0x3cd5ea20	0.026112616

actor.fc2.bias f4 [128]
0	0x3b160f43	0.002289728
1	0xbbdf7dd2	-0.006820419
2	0x3d75f30b	0.060046237
3	0x3d34b4f3	0.04411788
4	0xbcc24068	-0.023712352
5	0x3cc8a1d2	0.024491224
6	0x3d7ddeb0	0.06197995
7	0xbd626d65	-0.055280108
8	0xbd3c8add	-0.046030868
9	0xbd145b5b	-0.036219936
10	0x3d5f05cf	0.0544489
11	0xbd0bf9df	-0.034173843
12	0xbcf5010b	-0.029907724
13	0xbd3ddef8	-0.046355218
14	0x3cdcf9d0	0.026974589
15	0x3caeca1d	0.02133661
16	0x3c8926be	0.016742107
17	0xbb8ee37e	-0.0043606153
18	0xbd1f56be	-0.038901083
19	0xbd295144	-0.041337267
20	0x3d392a27	0.045206215
21	0x3d64d072	0.05586285
22	0xbcd2a331	-0.025712581
23	0xbbdef79b	-0.006804419
24	0xbd236089	-0.039886985
25	0x3c564f3a	0.0130804125
26	0xbc7f3682	-0.0155769605
27	0x3d629a41	0.05532289
28	0x3d22e44d	0.039768506
29	0x3cb7ddd3	0.022444641
30	0xbd23afd2	-0.039962597
31	0x3b1105b5	0.0022128646
32	0xbc61377f	-0.013746141
33	0x3b05aae6	0.0020396053
34	0x3d39af54	0.04533322
35	0xbd0c62a9	-0.034273777
36	0xbb54101b	-0.0032358232
37	0x3ba03046	0.004888567
38	0x3bc8a916	0.0061236722
39	0xbd452a1d	-0.048135865
40	0xbc8dab02	-0.017293457
41	0xbd3a632a	-0.045504726
42	0x3cf0a49b	0.029375365
43	0x3cfb5cbb	0.030683866
44	0x3cb3888c	0.021915697
45	0xb9b9d78c	-0.00035446545
46	0x3d51b353	0.051196408
47	0x3b9c2d30	0.004766129
48	0xbbe3b906	-0.0069495467
49	0xbc018fd4	-0.007907826
50	0x3d58e86b	0.052956026
51	0x3c18c210	0.009323612
52	0x3cb82c1c	0.02248197
53	0x3cc85738	0.024455652
54	0x3ccdb67e	0.025111433
55	0xbd299ba2	-0.04140819
56	0x3d613e8a	0.054991283
57	0xbc0cef1c	-0.00860193
58	0xbd287873	-0.041130494
59	0xbd456846	-0.048195146
60	0x3d2cba9c	0.042170152
61	0xbd321c12	-0.0434838
62	0xbd784d7e	-0.060620777
63	0x3d205b32	0.03914947
64	0x3d096b7d	0.033549774
65	0xbd28b4a7	-0.04118791
66	0x3ced3513	0.028955972
67	0xbd0aa04c	-0.033844277
68	0xbd1d85b8	-0.038457602
69	0x3d1b5390	0.03792149
70	0x3d4ffb12	0.05077655
71	0x3c48caa5	0.0122553455
72	0xbd38386f	-0.044975694
73	0xbd64c17c	-0.055848584
74	0xbb8dac28	-0.004323501
75	0x3d370f7e	0.04469251
76	0xbd306d35	-0.043072898
77	0xbd592333	-0.053012084
78	0xbd2b6885	-0.041847724
79	0xbd455fd6	-0.0481871
80	0x3b9fa31a	0.004871738
81	0x3d02fe9e	0.031981103
82	0x3d07703f	0.03306603
83	0xbd665b98	-0.056239694
84	0xbd278abd	-0.040903796
85	0x3c025d95	0.007956882
86	0x3c9214b6	0.017832141
87	0xbd23b6ef	-0.03996938
88	0xbbeb6710	-0.007183917
89	0x3d43b441	0.047779325
90	0x3c8069c5	0.015675435
91	0x3c983e6d	0.018584454
92	0x3d6982bb	0.05700944
93	0xbc64ff3d	-0.013976869
94	0xbc200598	-0.009766959
95	0x3d565d67	0.05233517
96	0xbd488d57	-0.048962917
97	0xbca9694e	-0.020680096
98	0xbc9aabfe	-0.01888084
99	0xbd2c4150	-0.042054474
100	0xbc5394d4	-0.012913901
101	0xbd52615a	-0.051362373
102	0x3d2025a1	0.039098386
103	0xbcceade4	-0.025229402
104	0x3d4b7b66	0.04967823
105	0xbd609f21	-0.054839257
106	0x3d435efc	0.047698006
107	0x3d1edb5c	0.038783416
108	0x3a6ea95f	0.0009104218
109	0x3bf7c3b7	0.007561173
110	0xbc82fefc	-0.015990727
111	0xbc97201f	-0.018447934
112	0x3afefcaa	0.0019453962
113	0xbd0bcf53	-0.034133267
114	0xba032413	-0.0005002629
115	0xbcb1b564	-0.02169294
116	0xbcfbb60a	-0.030726451
117	0x3cb4f1c4	0.02208794
118	0x3c105e68	0.008811571
119	0x3cda5d82	0.026655916
120	0xbd69cc72	-0.05707974
121	0xbd1ca825	-0.038246293
122	0x3c5cc3f6	0.013474455
123	0x3c522a7d	0.012827513
124	0xbceee7c1	-0.029163243
125	0x3c514223	0.012772116
126	0x3d05aaf2	0.03263373
127	0xbd1da9d6	-0.038492046

actor.policy_head.weight f4 [50, 128]
0	0xbd783530	-0.0605976
1	0x3d89eeb7	0.06734984
2	0x3ce659e9	0.028119044
3	0xbd9440b5	-0.072389044
4	0xbc9b5f44	-0.018966325
5	0xbd061f9f	-0.032745
6	0x3c518cda	0.012789929
7	0x3d99e8c4	0.075151
8	0xbce6351e	-0.0281015
9	0x3da662da	0.08124323
10	0x3d6fc0ec	0.058533594
11	0x3d8dee70	0.06930244
12	0x3d8afedc	0.06786892
13	0x3d941042	0.072296634
14	0xbd206084	-0.039154544
15	0x3b945aea	0.0045274394
16	0xbd07e272	-0.03317494
17	0x3c625bc2	0.013815822
18	0x3d56f82f	0.05248278
19	0x3d422951	0.047402684
20	0xbd99e7db	-0.07514926
21	0xbdb0e505	-0.08637432
22	0xbd9abe71	-0.07555855
23	0xbb7cd544	-0.0038579265
24	0xbd65f7a6	-0.05614438
25	0xbd1fd335	-0.039019782
26	0x3d499cfc	0.049221978
27	0x3d8b0bfc	0.06789395
28	0x3db3e9bb	0.08784815
29	0xbc5176f8	-0.012784712
30	0xbbb80aa7	-0.0056165042
31	0x3da06822	0.07832362
32	0x3cd3a22d	0.025834167
33	0x3d631dbe	0.055448286
34	0x3db15f04	0.08660701
35	0x3daa57b1	0.08317507
36	0xbc7536f5	-0.014966716
37	0xbd6cc71a	-0.057807066
38	0xbd449e87	-0.048002746
39	0xbdab6cb3	-0.08370342
40	0xbbb0afbc	-0.005392043
41	0x3ba71de2	0.005099998
42	0xbd3a95dc	-0.045553073
43	0x3d0f16d8	0.034933895
44	0xbd55192c	-0.05202596
45	0x3da63f63	0.08117559
46	0x3daa33e2	0.08310677
47	0x3cf5ea6a	0.030019004
48	0xbdb32481	-0.08747197
49	0xbd4515ce	-0.048116498
50	0xbd3d64f0	-0.04623884
51	0x3d956e3a	0.07296415
52	0x3d8f4cef	0.06997096
53	0xbda05384	-0.07828429
54	0xbcc64f37	-0.024207694
55	0x3dac5fac	0.084166855
56	0x3d2538d9	0.040337417
57	0x3d7f62fe	0.062350266
58	0xbd997e53	-0.074947976
59	0x3da4f7ca	0.080550745
60	0xbda27bc4	-0.07933763
61	0xbd2ab04e	-0.041672044
62	0xbd071859	-0.032982204
63	0x3b9dc102	0.004814268
64	0xbd2fc234	-0.042909816
65	0x3d619b17	0.055079546
66	0xbd9fa3f0	-0.077949405
67	0xbd57f2dc	-0.052721843
68	0xbc013101	-0.007885219
69	0xbd155a5e	-0.036463134
70	0xbd8ee8fa	-0.069780305
71	0xbd9c2061	-0.07623363
72	0x3d3e0c2b	0.046398323
73	0x3d75227c	0.05984734
74	0x3d937e99	0.07201881
75	0xbd3c7e56	-0.04601892
76	0xbd8181b8	-0.0632357
77	0x3d77a9d6	0.060464703
78	0x3daaedc8	0.083461344
79	0xbda04f12	-0.078275815
80	0xbb8f2080	-0.004367888
81	0xbd4a4257	-0.049379673
82	0x3d510bb1	0.05103654
83	0x3d6be7a5	0.05759396
84	0x3d516dce	0.05113011
85	0x3c8d4e6c	0.017249309
86	0x3d7b2f39	0.061324332
87	0x3d042d01	0.03226948
88	0xbb55d15c	-0.0032626009
89	0x3d9fce8a	0.07803066
90	0x3d194638	0.03742048
91	0x3d44120a	0.047868766
92	0xbd6253c2	-0.05525566
93	0xbd3bfe34	-0.045896724
94	0xbd9ae06e	-0.07562338
95	0x3c573a06	0.013136392
96	0xbdae4689	-0.08509547
97	0xbb068097	-0.0020523423
98	0x3d4e7bc0	0.050410986
99	0x3d9a9b67	0.07549172
100	0x3c7a67f0	0.01528357
101	0xbda4c712	-0.08045782
102	0x3d9c826a	0.07642062
103	0x3c84b62f	0.016200153
104	0xbc85fc2a	-0.016355593
105	0xbda920e1	-0.08258224
106	0xbd53a070	-0.051666677
107	0xbd010782	-0.0315013
108	0xbd9d47c5	-0.076797046
109	0xbcda8963	-0.02667684
110	0xbc9d0194	-0.019165792
111	0x3cf091a6	0.029366326
112	0xbbe2dd9b	-0.00692339
113	0xbd37477d	-0.04474591
114	0xbda40d6d	-0.08010373
115	0x3d98b90b	0.07457169
116	0xbdb10525	-0.08643559
117	0x3d83084a	0.063980654
118	0xbda164a7	-0.07880526
119	0xbd078bce	-0.033092313
120	0xbc234632	-0.009965466
121	0xbd0e9980	-0.034814358
122	0xbd132940	-0.03592801
123	0xbd5bc456	-0.053654037
124	0xbd4f0e61	-0.050550822
125	0xbceb7cd7	-0.028746052
126	0xbcd3f990	-0.025875837
127	0x3d08413f	0.03326535
128	0x3db3bdae	0.08776413
129	0xbd122118	-0.035676092
130	0xbb81fc76	-0.0039668633
131	0x3d9b9056	0.07595889
132	0xbd58e9ba	-0.052957274
133	0xbd08c52f	-0.033391174
134	0xbcc155c3	-0.023600465
135	0x3b1bd6b3	0.0023779094
136	0x3c8efbf5	0.017454127
137	0x3da79d6c	0.08184323
138	0xbdb1e09e	-0.086854205
139	0xbdb52bc9	-0.08846242
140	0xbcb095c1	-0.021555783
141	0xbcff2048	-0.031143323
142	0x3d088624	0.03333105
143	0x3d0f44e1	0.034977797
144	0x3c9d3b29	0.019193249
145	0x3d809ea6	0.0628026
146	0xbc1b420e	-0.009476198
147	0xbd8f44af	-0.06995522
148	0x3c5ab360	0.01334843
149	0xbdb1e24f	-0.08685743
150	0x3d9bad2c	0.07601389
151	0x3da86184	0.08221725
152	0x3d97710f	0.07394611
153	0xbcbcc2cc	-0.023042105
154	0x3d0572fe	0.03258037
155	0xbd580fe6	-0.052749537
156	0x3d851dbd	0.06499813
157	0x3cc80d16	0.024420302
158	0x3cdfeb54	0.027333893
159	0xbc35bb41	-0.011092008
160	0x3a196693	0.00058517716
161	0xbd09e11b	-0.033661943
162	0xbc3d76da	-0.011563981
163	0xbcae10a2	-0.021248166
164	0xbd19f7d4	-0.037589863
165	0xbd4a4b2d	-0.0493881
166	0x3d3b8b60	0.045787215
167	0xbd8d48a8	-0.06898624
168	0xbbebc065	-0.007194566
169	0xbb0a4968	-0.0021100882
170	0xbc78b9a5	-0.01518098
171	0x3d971d9b	0.07378694
172	0x3d7ad96e	0.061242513
173	0xbbe61498	-0.007021498
174	0xbd97eb4d	-0.07417927
175	0x3d6f7c9f	0.058468457
176	0xbc8f1481	-0.017465832
177	0xbd9549b5	-0.07289449
178	0xbd8ffe4b	-0.070309244
179	0x3d1f42ba	0.038881995
180	0xbd2c4051	-0.042053524
181	0x3d50d17a	0.050981022
182	0x3d8b39f4	0.06798163
183	0x3c4feec5	0.012691204
184	0xbd891323	-0.06693103
185	0x3d947403	0.0724869
186	0xbda43602	-0.08018114
187	0xbd3b44d2	-0.04571993
188	0x3da347a3	0.07972648
189	0xbd205935	-0.039147574
190	0xbc8ed6d4	-0.017436422
191	0x3c796420	0.015221626
192	0x3d28803e	0.041137926
193	0x3c710d96	0.014712712
194	0x3d828793	0.06373515
195	0x3cd2f4ac	0.025751434
196	0xbda6a5db	-0.08137103
197	0xbd8a9a6a	-0.067677334
198	0x3ce91cbb	0.028456083
199	0xbd849722	-0.06474139
200	0xbd895f82	-0.0670767
201	0x3d72420d	0.059145022
202	0x3d9fff82	0.07812406
203	0xbc72082c	-0.014772456
204	0x3c8364f4	0.01603935
205	0x3c511e2e	0.012763543
206	0xbd1fc71c	-0.039008245
207	0xbccde23e	-0.025132295
208	0xbd82650b	-0.06366929
209	0x3cee8209	0.02911474
210	0xbcff4440	-0.031160474
211	0x3cf32887	0.02968241
212	0x3c419cb9	0.011817151
213	0x3ce08795	0.0274084
214	0xbd9cbdec	-0.07653412
215	0xbdb36caf	-0.08760964
216	0x3d93e17f	0.07220744
217	0xbcf41276	-0.02979396
218	0x3d271caf	0.04079884
219	0xbd6dc677	-0.0580506
220	0xbb9d9c7f	-0.0048099156
221	0x3c462adf	0.012095182
222	0x3c146cb8	0.009059124
223	0xbb23a874	-0.0024972232
224	0x3d52febb	0.05151246
225	0x3b6e11b6	0.0036326475
226	0x3d14ca49	0.036325727
227	0xbd940b2b	-0.072286926
228	0xbc9af44e	-0.018915322
229	0x3c993f10	0.018706828
230	0x3b8604e9	0.004089941
231	0x3d876bb5	0.0661234
232	0x3d32b3f7	0.04362866
233	0x3ced552d	0.028971279
234	0x3d47bdd5	0.048765022
235	0xbd7a68b9	-0.061135028
236	0x3d91dee8	0.07122594
237	0x3cca7f74	0.024718978
238	0xbd180ebd	-0.03712343
239	0x3d171eed	0.036894727
240	0x3c4f77cd	0.01266284
241	0xbd14c8a3	-0.036324155
242	0x3d0a76b6	0.033804618
243	0x3d9b3d61	0.075800665
244	0xbb08b5e9	-0.002086038
245	0x3d08e085	0.033417244
246	0xbd84c461	-0.06482769
247	0xbbe903e1	-0.007111058
248	0x3d922426	0.07135801
249	0xbca21153	-0.019783651
250	0xbd839f4e	-0.06426869
251	0x3d9111db	0.07083484
252	0x39b99538	0.00035397126
253	0xbd175eaf	-0.03695553
254	0x3da3ec34	0.080040365
255	0x3d953ee9	0.0728739

actor.policy_head.bias f4 [50]
0	0x3d398a39	0.045297835
1	0xbd93da29	-0.07219345
2	0xbd743ac4	-0.059626356
3	0x3db13eef	0.08654582
4	0xbdac0941	-0.084002025
5	0xbc29a657	-0.0103546
6	0xbcc3df2e	-0.023910131
7	0x3d626b94	0.055278376
8	0x3c811121	0.015755238
9	0xbcfdd94f	-0.03098741
10	0x3c8c9aee	0.01716372
11	0xbd3462bb	-0.04403947
12	0x3d9a5899	0.0753643
13	0xbd3683bf	-0.044559237
14	0xbd5a2629	-0.05325905
15	0xbd143055	-0.036178906
16	0x3db3a4f7	0.08771699
17	0x3d803979	0.06260962
18	0x3d9be7d8	0.0761258
19	0x3da2c4e0	0.07947707
20	0x3c9293e9	0.017892795
21	0xbda29478	-0.079384744
22	0xbc265453	-0.01015194
23	0xbb5ecae8	-0.0033995453
24	0xbbfd9734	-0.007738972
25	0xbcae3e4e	-0.021269944
26	0xbc15259c	-0.009103205
27	0xbca8f763	-0.020625776
28	0x3d955169	0.072909184
29	0xbd234b8f	-0.03986698
30	0x3d0e34c4	0.03471829
31	0xbb8c0e98	-0.0042742006
32	0xbdaef52a	-0.08542855
33	0xbcff3d0f	-0.031157045
34	0x3d8fd36d	0.07022748
35	0xbd015a16	-0.031580053
36	0x3d9ba75e	0.07600282
37	0x3d590058	0.052978843
38	0x3da78ed5	0.0818154
39	0xbd65a9ed	-0.056070257
40	0x3cdf0763	0.027225202
41	0xbd1a5900	-0.037682533
42	0xbda4249e	-0.08014797
43	0xbdab5be0	-0.08367133
44	0xbd833e50	-0.064083695
45	0xbc863de9	-0.016386943
46	0xbd8310c5	-0.06399683
47	0x3d5a6c1f	0.05332577
48	0x3d5d13c3	0.053973924
49	0x3d46e19a	0.048554994

critic.fc1.weight f4 [256, 21]
0	0x3d288c36	0.04114934
1	0x3da57fca	0.080810145
2	0x3dab6912	0.0836965
3	0xbda70deb	-0.081569515
4	0x3dc406bf	0.09571599
5	0x3dd5b20d	0.10434351
6	0x3deda31d	0.11603377
7	0x3e341764	0.17587048
8	0xbdd2e776	-0.10298054
9	0xbd32c3a2	-0.0436436
10	0xbe04db22	-0.12974218
11	0xbdf5ad6a	-0.11995967
12	0x3e21e88f	0.1581137
13	0xbe03f0ec	-0.12884873
14	0xbe09103c	-0.13385099
15	0x3d0c0139	0.034180854
16	0x3cef71b9	0.029229032
17	0x3dfe7bdb	0.12425967
18	0x3d306ec8	0.0430744
19	0xbe3956a9	-0.18099464
20	0xbda805fd	-0.08204267
21	0x3e4cbcfc	0.19993967
22	0xbddc6d7a	-0.107630685
23	0xbca75686	-0.020427
24	0x3d0649eb	0.032785337
25	0xbe448950	-0.19193006
26	0xbc7073b6	-0.014676025
27	0x3de74c1b	0.11293813
28	0x3da86416	0.08222215
29	0x3e0b4983	0.13602261
30	0xbd82a1d1	-0.0637852
31	0xbd3e01ea	-0.046388544
32	0x3da0c6d0	0.078504205
33	0x3e10cf55	0.14141591
34	0xbd1cc92f	-0.0382778
35	0x3e59fd62	0.21288064
36	0xbd9a809d	-0.07544062
37	0xbd8745a9	-0.066050835
38	0x3e2afadb	0.16697256
39	0x3e07c773	0.13259678
40	0x3e3b4e5a	0.18291607
41	0xbda506b8	-0.08057922
42	0x3df7414b	0.120730005
43	0xbd6a8514	-0.05725582
44	0xbb445053	-0.0029955104
45	0xbe18c65b	-0.14919417
46	0x3d629cd0	0.05532533
47	0xbc27984a	-0.01022918
48	0xbe0f26e1	-0.13979675
49	0xbe00e29f	-0.12586449
50	0x3e335a88	0.17515004
51	0xbcdfb9a7	-0.027310206
52	0x3e3f5f52	0.18688706
53	0xbc670873	-0.014101136
54	0xbe215ca3	-0.15757994
55	0x3e0c5b9e	0.13706824
56	0xbe0c8bc6	-0.13725194
57	0x3e340d64	0.17583233
58	0x3d2eb7e7	0.04265585
59	0xbe3e1205	-0.18561561
60	0xbe3250d4	-0.17413646
61	0xbdd80c7a	-0.10549255
62	0xbcc3cda5	-0.02390177
63	0xbe3b8f78	-0.18316448
64	0x3db1b6fa	0.08677478
65	0xbc7ada7b	-0.015310879
66	0x3db9d0bd	0.09073017
67	0xbbeca393	-0.007221648
68	0xbe28d1cc	-0.16486281
69	0x3c5b2f40	0.0133779645
70	0xbe1b3411	-0.1515658
71	0xbc9df1c1	-0.019280316
72	0x3e464d6a	0.19365469
73	0x3ba774cc	0.005110359
74	0x3dec7b52	0.11546959
75	0x3e02990c	0.12753695
76	0x3e1bce90	0.15215516
77	0xbca3b003	-0.01998139
78	0x3e16a389	0.14710821
79	0x3ca1b01e	0.0197373
80	0x3db6e7e5	0.08930949
81	0xbd12d34a	-0.035846032
82	0x3e1e9184	0.15485197
83	0x3e243dc0	0.16039181
84	0xbd9cc706	-0.07655148
85	0x3c3e998e	0.01163329
86	0x3a3b3142	0.0007140824
87	0x3e4aa11a	0.19788018
88	0xbe10c07a	-0.14135924
89	0xbe56761b	-0.20943491
90	0x3e01f873	0.12692432
91	0xbe3c8266	-0.18409118
92	0x39deb44d	0.00042477474
93	0xbd112444	-0.035434976
94	0x3c472cf2	0.012156712
95	0x3e552624	0.2081533
96	0xbda30e0e	-0.07961665
97	0x3de8e838	0.11372417
98	0x3e27ee27	0.16399442
99	0x3d888631	0.0666622
100	0x3e491870	0.19638228
101	0x3e5c0a5e	0.2148833
102	0xbdc06170	-0.09393585
103	0xbe2275f1	-0.15865304
104	0xbcee9f65	-0.02912874
105	0x3e4d1244	0.20026499
106	0x3d8fffd4	0.07031217
107	0xbd2f00f8	-0.042725533
108	0x3c853d2e	0.016264524
109	0x3d6c8381	0.0577426
110	0xbd1285ad	-0.035772014
111	0x3dad5da2	0.08465125
112	0x3da1e10a	0.07904251
113	0xbde39d9c	-0.11114046
114	0xbe2bfec9	-0.16796412
115	0x3dcb3d14	0.09923759
116	0xbdca51d0	-0.09878886
117	0xbdcaca79	-0.099019
118	0xbd48cbec	-0.0490226
119	0xbc084469	-0.0083170915
120	0x3e5955b4	0.212241
121	0x3e1e947f	0.15486334
122	0xbe5ed05a	-0.21759167
123	0x3d553432	0.05205173
124	0xbda75c7e	-0.08171938
125	0x3dc74541	0.09730006
126	0x3e42091f	0.18948792
127	0xbdc80eb4	-0.097684294
128	0x3dcdbe71	0.100460894
129	0x3dffd256	0.1249129
130	0xbc32dcda	-0.010916913
131	0xbc59ecfe	-0.013301132
132	0xbe03919d	-0.12848516
133	0x3e03bcfb	0.12865059
134	0x3dad8c9b	0.08474084
135	0xbe3f6f8f	-0.186949
136	0x3d2c736e	0.04210227
137	0x3e0b51db	0.13605444
138	0x3d480ded	0.048841406
139	0x3d8a7e95	0.06762425
140	0xbdca3f06	-0.09875302
141	0xbe572b80	-0.21012688
142	0x3e3b24a6	0.18275699
143	0xbced6c56	-0.028982323
144	0xbe00138d	-0.12507458
145	0xbe44ed96	-0.19231257
146	0xbe493a1f	-0.19651078
147	0xbd66fbba	-0.05639241
148	0xbc36d9d6	-0.011160335
149	0xbb6db878	-0.0036273282
150	0xbe2014f6	-0.15632996
151	0x3e534888	0.20633137
152	0xbe55c15c	-0.20874542
153	0xbe13e6bf	-0.14443491
154	0xbe27676c	-0.16348046
155	0x3d536df2	0.051618524
156	0xbe5363ea	-0.20643583
157	0x3d05525d	0.03254925
158	0xbdc8ab14	-0.097982556
159	0xbe17632f	-0.1478393
160	0xbda21543	-0.079142116
161	0x3e45f89b	0.19333117
162	0xbd78a8c5	-0.060707826
163	0xbe04cadd	-0.12968011
164	0xbdc8d1ef	-0.09805667
165	0xbe14f680	-0.14547157
166	0xbcd22df8	-0.025656685
167	0x3da79c23	0.081840776
168	0x3d9cf110	0.076631665
169	0xbde96766	-0.11396675
170	0x3cbb00a7	0.02282746
171	0x3dc54835	0.09632913
172	0xbe2e4b74	-0.1702097
173	0xbcd5a26e	-0.02607843
174	0xbe3eebe8	-0.18644679
175	0x3e559951	0.20859267
176	0xbc208c14	-0.009799022
177	0xbdd99c99	-0.10625572
178	0xbe3fcdc8	-0.18730843
179	0x3e293b42	0.16526511
180	0x3e3e80dc	0.18603843
181	0x3e302c84	0.17204481
182	0xbe04cc90	-0.1296866
183	0xbe15a6c3	-0.14614396
184	0x3c05d6fe	0.008168934
185	0x3e44dd4b	0.19225042
186	0xbc54847d	-0.012971041
187	0xbe3c1890	-0.18368745
188	0x3e3f8833	0.187043
189	0xbe50317d	-0.20331378
190	0xbdc0edd0	-0.09420359
191	0x3c356c38	0.011073165
192	0x3de40d0f	0.11135303
193	0x3e0c26f8	0.1368674
194	0xbdf6aefe	-0.12045096
195	0xbe083ed9	-0.13305224
196	0xbe396b18	-0.1810726
197	0xbdf99930	-0.12187421
198	0x3e5c9448	0.2154094
199	0xbe1ede27	-0.15514432
200	0x3e1d8258	0.15381753
201	0xbde3c88c	-0.11122236
202	0xbca21d23	-0.019789284
203	0xbda5935a	-0.08084746
204	0xbe1bc33b	-0.15211193
205	0x3d3800cb	0.04492263
206	0x3e5cf041	0.21576025
207	0x3e4276db	0.18990652
208	0xbe4527b0	-0.19253421
209	0x3e2209c6	0.15824041
210	0x3df6892b	0.120378815
211	0x3daee27b	0.085392915
212	0xbe3277ae	-0.17428467
213	0x3d5f2323	0.05447687
214	0x3e59bfaf	0.21264528
215	0x3d652b87	0.055949714
216	0x3e321581	0.17391016
217	0x3c20eea9	0.009822526
218	0xbd1c7c58	-0.03820452
219	0xbdbac249	-0.09119088
220	0x3d6854ad	0.056721378
221	0x3d74d3ca	0.05977229
222	0x3e5f0d06	0.21782312
223	0x3e241a3d	0.16025634
224	0x3d9e387d	0.07725618
225	0xbdb97cde	-0.0905702
226	0x3dd8c3db	0.105842315
227	0x3e3cec07	0.18449412
228	0x3e22190a	0.15829864
229	0x3b436314	0.0029813694
230	0x3c2113c3	0.009831372
231	0x3d2b59e5	0.041833777
232	0xbe042313	-0.12904005
233	0xbe00a2fd	-0.12562175
234	0x3d1c9114	0.038224295
235	0x3e28ba6e	0.16477367
236	0x3b535b4d	0.0032250464
237	0xbcd495d1	-0.025950344
238	0x3c28213a	0.010261828
239	0xbe2facf5	-0.17155822
240	0x3de6f640	0.11277437
241	0xbe4a957e	-0.19783589
242	0x3e0a6cad	0.13518019
243	0x3e2e13b6	0.16999707
244	0x3c2f4f1f	0.010700016
245	0x3e32b240	0.1745081
246	0xbe3e370f	-0.1857569
247	0xbd8ef5d7	-0.06980484
248	0xbe5f1ab4	-0.2178753
249	0x3d3a5dd4	0.045499638
250	0x3e1f2949	0.15543093
251	0x3d8ad363	0.067786
252	0x3e52f32b	0.20600574
253	0xbd4a9ccb	-0.049465936
254	0xbe2b2585	-0.16713531
255	0x3e185e6e	0.14879772

critic.fc1.bias f4 [256]
0	0xbdd010b3	-0.10159435
1	0xbe281cc6	-0.16417226
2	0xbc85c3de	-0.016328748
3	0x3d7d4a5c	0.061838493
4	0xbe0c754a	-0.13716617
5	0x3c069574	0.008214343
6	0xbe0ae01d	-0.13562055
7	0x3db78261	0.08960415
8	0xbe1aa80c	-0.15103167
9	0xbd284ffb	-0.0410919
10	0x3e2b724c	0.1674282
11	0xbe3a00a1	-0.18164302
12	0x3d7dc1fa	0.06195257
13	0x3da7965b	0.08182975
14	0xbe47a46f	-0.1949632
15	0xbe569b4f	-0.20957683
16	0xbb96a98c	-0.0045978483
17	0x3e58f982	0.2118893
18	0x3e51166c	0.2041871
19	0x3e555f7d	0.20837207
20	0xbe434e47	-0.19072829
21	0xbcc2ac37	-0.023763759
22	0x3e3b7476	0.18306145
23	0xbc36ff76	-0.011169305
24	0x3ccb3f8c	0.024810575
25	0xbd8c5b01	-0.06853295
26	0xbdb5dcf4	-0.08880034
27	0xbd08b23e	-0.03337311
28	0xbcf1573c	-0.029460542
29	0xbde270dd	-0.11056683
30	0x3e0a90d3	0.13531809
31	0xbd933bfb	-0.07189175
32	0x3d6795b9	0.05653927
33	0xbe5f19bd	-0.21787162
34	0x3dc1e4ff	0.09467506
35	0xbde07912	-0.10960592
36	0x3c31cc4f	0.010851934
37	0xbc41ef88	-0.011836894
38	0x3e247601	0.1606064
39	0xbe3004d1	-0.17189337
40	0xbceb3d19	-0.028715657
41	0xbd0f595d	-0.034997333
42	0xbe33a308	-0.1754266
43	0x3de7e956	0.11323802
44	0x3d9b26d5	0.07575766
45	0x3d6ae1d2	0.057344265
46	0xbcc6f74c	-0.024287842
47	0xbd8fb98d	-0.07017813
48	0x3dd81c3f	0.105522625
49	0x3d9175e0	0.07102561
50	0xbe5c0254	-0.21485263
51	0xbe081fa6	-0.13293323
52	0xbd2e1a3e	-0.042505495
53	0x3e52e149	0.20593752
54	0xbd757022	-0.05992139
55	0xbe069e4b	-0.13146321
56	0x3c03326c	0.008007627
57	0x3e27f521	0.16402103
58	0x3e2d5122	0.16925481
59	0x3cae19b8	0.021252498
60	0xbd27df27	-0.0409843
61	0x3dbb8398	0.09155959
62	0x3e536db7	0.20647322
63	0x3df25862	0.11833264
64	0x3dae2a70	0.08504188
65	0xbd4521f8	-0.0481281
66	0x3dec7bc6	0.115470454
67	0x3e443dcb	0.19164197
68	0xbe358c26	-0.17729244
69	0x3ddc4dc3	0.10757019
70	0xbe583841	-0.21115209
71	0x3e046aa0	0.12931299
72	0xbd44f253	-0.04808266
73	0x3dc088c4	0.09401086
74	0x3d2cc490	0.042179644
75	0xbd56013c	-0.05224727
76	0x3dd33b2c	0.103140205
77	0x3e495689	0.19661917
78	0x3e553c92	0.20823887
79	0xbe56ae30	-0.20964885
80	0xbcd816ea	-0.026378114
81	0xbc5ab1d4	-0.013348062
82	0xbe1e8395	-0.15479882
83	0x3e21759c	0.1576752
84	0x3de534a9	0.11191685
85	0x3e09f5b0	0.13472629
86	0xbe0950ce	-0.13409731
87	0x3dd7f7d0	0.10545313
88	0x3e11e45a	0.14247265
89	0xbcfac77a	-0.030612696
90	0x3c837b3a	0.01604997
91	0xbe3398a9	-0.17538704
92	0xbe02752a	-0.12740007
93	0xbdbc203c	-0.09185836
94	0xbd8ddab3	-0.06926479
95	0xbdbd7a6a	-0.09251864
96	0x3d571bf3	0.05251689
97	0xbc13d530	-0.009022996
98	0x3d807f95	0.06274334
99	0xbd3aa2cc	-0.04556541
100	0x3d15db3d	0.036586035
101	0x3dec6c02	0.11544038
102	0x3d9997dd	0.07499669
103	0xbdc24720	-0.09486222
104	0x3d99cc8f	0.075097196
105	0x3e2149d0	0.15750813
106	0xbdc54698	-0.09632605
107	0x3e05d8f1	0.13071038
108	0xbe596d5b	-0.21233122
109	0xbe2b221d	-0.16712232
110	0x3be926b2	0.0071152085
111	0x3e173498	0.14766157
112	0x3e1ae637	0.15126882
113	0x3d9d3b8f	0.076773755
114	0x3ca3891f	0.019962845
115	0xbe49789a	-0.19674912
116	0x3d8ef808	0.06980902
117	0x3e1c5444	0.1526652
118	0x3d8a4ca8	0.06752902
119	0xbdb356d1	-0.08756793
120	0x3e197cbc	0.14988989
121	0xbe2f7046	-0.17132673
122	0xbe436ab9	-0.1908368
123	0x3d5dee1d	0.05418216
124	0xbe1709f4	-0.1474989
125	0x3d3be94d	0.04587679
126	0x3e41b035	0.18914874
127	0xbe15cc9e	-0.14628837
128	0xbd1bcf17	-0.038039293
129	0x3de6890f	0.112566106
130	0xbdd5273e	-0.104078755
131	0xbdde4fe5	-0.108550824
132	0xbe3e37cc	-0.18575972
133	0xbd9c181f	-0.07621788
134	0x3dfb4356	0.12268703
135	0xbe053a4b	-0.13010518
136	0xbe1afbce	-0.15135118
137	0x3c8fb201	0.017540934
138	0x3ce74595	0.028231421
139	0x3d828927	0.06373816
140	0x3d26363d	0.04057907
141	0xbde40cd2	-0.11135258
142	0x3c8d492d	0.017246807
143	0xbd54a9b5	-0.051919658
144	0x3cba69b9	0.02275549
145	0xbda81b0d	-0.082082845
146	0xbe296c05	-0.16545112
147	0x3cb9e72f	0.022693245
148	0x3d779687	0.06044629
149	0xbd32ca36	-0.043649875
150	0x3d569be6	0.05239477
151	0xbd32ece1	-0.043682937
152	0x3d23d736	0.040000163
153	0xbe0ad8bf	-0.13559245
154	0x3e18ca98	0.14921033
155	0xbd4bbc7b	-0.049740296
156	0x3def7309	0.11691863
157	0xbe0cf5a5	-0.13765581
158	0x3e0f5606	0.13997659
159	0xbe2cd021	-0.1687627
160	0xbe33b781	-0.1755047
161	0xbd52c5dd	-0.05145823
162	0x3e5ce8f7	0.21573244
163	0x3d2be507	0.041966464
164	0x3e2aef3d	0.16692825
165	0x3e1d45ce	0.1535866
166	0x3e20b103	0.15692525
167	0x3c01af6d	0.00791536
168	0xbdfce5e2	-0.12348534
169	0xbdd828f8	-0.10554689
170	0x3cabe104	0.02098132
171	0xbbd8dc63	-0.006618069
172	0xbe512a46	-0.20426282
173	0x3dfedb99	0.12444229
174	0x3d829979	0.06376929
175	0x3c97343c	0.018457524
176	0x3e4d938f	0.2007582
177	0x3e29b9d3	0.16574793
178	0xbd4dbb5f	-0.05022752
179	0x3c523b39	0.012831503
180	0x3d86f17d	0.06589029
181	0x3df21681	0.118206985
182	0x3cc3e04f	0.02391067
183	0xbe25a130	-0.1617477
184	0x3c9d7142	0.019219045
185	0x3cd95d85	0.026533851
186	0x3d3a3f6f	0.04547065
187	0x3e324b41	0.1741152
188	0x3db88162	0.09009053
189	0x3e1245ce	0.14284441
190	0xbe565353	-0.20930223
191	0xbdffa240	-0.124821186
192	0xbdf33687	-0.11875635
193	0x3d993268	0.07480317
194	0xbcd625a1	-0.02614099
195	0xbe4d1d57	-0.20030724
196	0x3e309552	0.17244461
197	0xbe1c961e	-0.1529164
198	0x3e3a9a24	0.18222862
199	0xbe3b4bb5	-0.18290599
200	0xbe513edd	-0.20434137
201	0x3d9e3245	0.07724432
202	0x3c5de728	0.0135438815
203	0xbbea42c9	-0.0071490747
204	0x3dbcc058	0.09216374
205	0x3bae5627	0.0053203288
206	0xbe311272	-0.17292193
207	0xbddce208	-0.107852995
208	0xbbf93bb5	-0.0076059946
209	0x3e372440	0.17884922
210	0x3e248196	0.16065058
211	0x3e458f53	0.19292955
212	0xbe36965f	-0.178308
213	0xbd9577c5	-0.07298235
214	0xbe4bae12	-0.19890621
215	0x3cd101cd	0.025513554
216	0x3c954a11	0.018223794
217	0xbe4279ab	-0.18991725
218	0xbe090304	-0.13380057
219	0x3cba3007	0.02272798
220	0x3e263b37	0.16233526
221	0x3e1ab7f1	0.1510923
222	0xbda6cc3c	-0.08144423
223	0x3deca392	0.11554636
224	0x3e5322ba	0.20618716
225	0xbc7f4744	-0.015580956
226	0x3e2e5a39	0.17026605
227	0x3dc2facd	0.09520493
228	0x3d679566	0.05653896
229	0x3de238f1	0.11046017
230	0x3da7e330	0.081976295
231	0x3e494a1a	0.19657174
232	0xbdb68cb8	-0.08913559
233	0xbe3f2229	-0.18665375
234	0x3e5cd8e0	0.21567106
235	0xbdaa98eb	-0.08329948
236	0x3e445eb0	0.19176745
237	0xbe50b732	-0.20382383
238	0x3db7fffa	0.089843705
239	0x3e373108	0.17889798
240	0x3ce2284d	0.027607108
241	0x3e5aef07	0.21380244
242	0x3e1d2a92	0.1534827
243	0x3d739857	0.059471454
244	0xbde15f90	-0.11004555
245	0xbd99d65a	-0.075115874
246	0xbd5c62ea	-0.05380527
247	0xbcac6b0f	-0.021047143
248	0xbcdbf594	-0.0268505
249	0xbe4e21eb	-0.20130126
250	0xbe2cae6c	-0.16863412
251	0x3bef9809	0.007311825
252	0x3db84633	0.089977644
253	0x3e11e6d0	0.14248204
254	0x3de82d20	0.11336732
255	0xbda16268	-0.07880098
