server/policies/checkpoints/policy_1_410/model.pt (torch, 338258 bytes, 11 tensors)

actor.fc1.weight f4 [256, 21]
0	0xbe54a427	-0.20765744
1	0x3c9c0121	0.019043507
2	0xbd8fc5b9	-0.070201345
3	0xbb29a2c6	-0.0025884374
4	0xbe18da53	-0.14927034
5	0xbddc9f38	-0.10772556
6	0xbe285fdf	-0.16442822
7	0x3da589cf	0.080829255
8	0xbe0a347a	-0.1349658
9	0xbe34277e	-0.1759319
10	0x3d63afa4	0.055587426
11	0xbe2f197a	-0.17099562
12	0xbe121e0e	-0.14269277
13	0xbb8d5b3a	-0.0043138536
14	0x3c5499a7	0.012976087
15	0x3deb5636	0.11491053
16	0x3c197659	0.009366595
17	0x3e1f793e	0.15573594
18	0x3d22b3b1	0.03972215
19	0x3dcfd030	0.101471305
20	0xbda0c709	-0.07850463
21	0xbc89813d	-0.016785258
22	0xbd3ad588	-0.045613796
23	0xbcb8d2ea	-0.02256151
24	0x3cabb985	0.020962486
25	0x3e43b5b8	0.19112289
26	0xbd4c9989	-0.04995111
27	0x3e11d002	0.14239505
28	0xbdef725b	-0.116917334
29	0xbcb6f6b3	-0.022334432
30	0x3cbe8b73	0.023259854
31	0x3c0dba2a	0.008650342
32	0x3c5a7e66	0.0133358
33	0xbd180102	-0.037110336
34	0x3be60033	0.0070190667
35	0xbe3926dd	-0.18081231
36	0x3d696c7c	0.056988224
37	0x3e1d96cd	0.15389557
38	0xbe0ee269	-0.13953556
39	0x3dcf7806	0.101303145
40	0x3cf7a8e2	0.030231897
41	0xbe1c5741	-0.1526766
42	0xbc6c6dca	-0.014430473
43	0x3d8f1916	0.06987207
44	0xbe41c88d	-0.1892416
45	0xbe0b7728	-0.13619673
46	0x3c26d2b1	0.010182069
47	0x3d658798	0.056037515
48	0xbdc369d4	-0.095416695
49	0xbb0488f3	-0.002022323
50	0x3c6cb520	0.01444748
51	0xbe0e257e	-0.1388149
52	0x3ce57885	0.02801157
53	0xbcee5098	-0.029091164
54	0xbc12ea7e	-0.00896704
55	0xbe59a535	-0.21254428
56	0x3e4ef2b8	0.20209777
57	0x3db7f0fb	0.0898151
58	0x3e28466f	0.16433118
59	0xbe2511f7	-0.16120134
60	0xbdd19b54	-0.102347046
61	0xbb9f266f	-0.0048568766
62	0xbe370672	-0.17873552
63	0xbdd46947	-0.103716426
64	0xbe554e7e	-0.20830724
65	0x3e06e16f	0.13171934
66	0xbd419440	-0.047260523
67	0xbe0974e6	-0.134235
68	0x3e3c468c	0.18386286
69	0x3e20aa75	0.15690024
70	0xbd0f4a54	-0.034982994
71	0xba96af00	-0.0011496246
72	0x3df9021e	0.12158607
73	0x3e22ad59	0.1588644
74	0xbe4e4562	-0.20143655
75	0x3d9c960f	0.07645809
76	0xbdc72144	-0.09723142
77	0xbccd6df2	-0.02507684
78	0x3d386e64	0.04502715
79	0x3d9f71af	0.07785355
80	0x3e46770c	0.1938135
81	0xbe393faf	-0.180907
82	0x3dc569bf	0.0963931
83	0xbe1dff7d	-0.15429492
84	0x3da80ef4	0.08205977
85	0xbd455dc4	-0.048185125
86	0x3be3ccbe	0.0069518974
87	0xbe02427d	-0.12720676
88	0xbe2c3a78	-0.16819179
89	0xbd110d25	-0.035412926
90	0x3c689917	0.014196656
91	0x3e54425f	0.20728444
92	0xbdf41a8f	-0.11919128
93	0xbdbaf46c	-0.09128651
94	0x3ddf936e	0.10916792
95	0x3d83cae5	0.064351834
96	0x3d90b414	0.07065597
97	0xbe0e4c62	-0.13896325
98	0x3c949c60	0.018140972
99	0x3e2a166b	0.16610114
100	0x3d0586b6	0.032599173
101	0x3e2d81aa	0.16943994
102	0x3d90a4a6	0.07062654
103	0xbe360e9a	-0.17779008
104	0xbdbf6cdb	-0.093469344
105	0x3c38b010	0.011272445
106	0xbe0af90e	-0.1357157
107	0xbba49af3	-0.005023354
108	0xbc89f465	-0.01684017
109	0x3d687f75	0.056762177
110	0xbce2714a	-0.027641911
111	0xbd60c3cf	-0.054874238
112	0x3e04e3de	0.1297755
113	0x3d72b04c	0.05925016
114	0x3c1b859a	0.009492302
115	0x3d88a402	0.06671907
116	0xbd927c93	-0.07152667
117	0x3e2764ef	0.16347097
118	0xbe345b70	-0.17613006
119	0x3d110de8	0.035413653
120	0x3dbb14c0	0.09134817
121	0x3cac2245	0.021012435
122	0x3d4d7717	0.0501624
123	0xbe0bbf28	-0.13647139
124	0xbe578940	-0.2104845
125	0xbe4e03f3	-0.20118694
126	0x3e15cb96	0.14628443
127	0xbe58e7b5	-0.21182139
128	0x3e124a5f	0.14286183
129	0xbe1faa2c	-0.15592259
130	0x3d1ea7fd	0.038734425
131	0x3d9c4075	0.07629482
132	0xbc612c5e	-0.013743488
133	0x3e49dae2	0.19712403
134	0xbdebcf00	-0.115140915
135	0x3e3e370b	0.18575685
136	0xbe295895	-0.16537698
137	0xbe47d690	-0.19515443
138	0x3ac323c0	0.0014887974
139	0x3d039a46	0.03212955
140	0x3d371df7	0.04470631
141	0xbe42ef08	-0.19036496
142	0x3cc0d6e9	0.023539977
143	0x3dc42aab	0.09578451
144	0xbd6a7112	-0.05723674
145	0x3d3e154f	0.04640704
146	0x3cfb9ae3	0.030713504
147	0xbdfeb228	-0.12436324
148	0x3be23a24	0.0069039036
149	0xbe5a7b2d	-0.2133605
150	0xbddabde3	-0.10680749
151	0x3dd5e0dd	0.1044328
152	0x3e25d967	0.16196214
153	0xbe06d887	-0.13168536
154	0xbe1cabbc	-0.15299886
155	0x3d4eccff	0.05048847
156	0xbd200aa7	-0.03907266
157	0xbdcd68b8	-0.10029739
158	0x3e1c9930	0.15292811
159	0xbe12401b	-0.14282267
160	0xbdf7583e	-0.12077378
161	0x3dfad8d9	0.12248392
162	0x3b91c50e	0.0044485396
163	0xbd9864f3	-0.074411295
164	0xbd99d876	-0.0751199
165	0x3d06a36e	0.032870702
166	0x3d25f077	0.04051253
167	0xbc45da47	-0.012075967
168	0xbe052988	-0.13004124
169	0x3e4d66a6	0.20058689
170	0xbb7b716f	-0.0038367172
171	0x3e16a4ca	0.147113
172	0x3e03e50c	0.12880343
173	0x3df88678	0.12135023
174	0x3e2bd8ac	0.16781873
175	0x3e5aef27	0.21380292
176	0x3c6bfd76	0.0144036915
177	0xbdc7acdd	-0.09749768
178	0x3e2b6369	0.1673714
179	0x3e0cbfe4	0.13745075
180	0xbd94d636	-0.0726742
181	0x3e1490ff	0.14508437
182	0xbda6f407	-0.08152013
183	0xbddb952b	-0.10721811
184	0xbd9477a3	-0.072493814
185	0xbe40267c	-0.1876468
186	0x3e35091e	0.17679259
187	0xbdef710f	-0.11691486
188	0x3e4e7b78	0.20164287
189	0x3e053c7b	0.13011353
190	0xbe42f9f1	-0.19040658
191	0xbd414747	-0.047187116
192	0x3ddc511d	0.10757659
193	0x3e140572	0.14455202
194	0xbe46b7f7	-0.19406115
195	0xbdc626a9	-0.096753426
196	0x3d5d5a0d	0.054040957
197	0x3e34d8e3	0.1766086
198	0xbe45af78	-0.19305217
199	0x3da480e5	0.08032397
200	0xbdf924c7	-0.12165218
201	0xbdd77517	-0.1052038
202	0x3aa094e0	0.00122514
203	0xbe3dadf4	-0.18523389
204	0xbdcedc23	-0.101005815
205	0x3de093a0	0.10965657
206	0xbcd69a4d	-0.026196623
207	0xbe45ff56	-0.19335684
208	0xbdff326f	-0.12460791
209	0x3cd4c3da	0.025972296
210	0xbd5289a9	-0.051400814
211	0x3d91974a	0.07108934
212	0x3e579df4	0.21056348
213	0xbdfe4133	-0.124147795
214	0x3cfb7968	0.03069754
215	0xbe46c6d5	-0.19411786
216	0x3dff1e0b	0.12456902
217	0x3dc6c8b9	0.097062536
218	0xbd8585c0	-0.065196514
219	0xbe2a4fe1	-0.16632034
220	0xbd86a1fd	-0.065738656
221	0xbe10e57e	-0.14150044
222	0x3e1091b2	0.14118078
223	0xbe0d13bc	-0.1377706
224	0xbe4d2adf	-0.20035885
225	0x3ddf73d2	0.10910763
226	0xbd5ba84f	-0.05362731
227	0x3e3a7d3a	0.18211833
228	0xbdde7e92	-0.10863985
229	0x3dea16e0	0.11430144
230	0x3e323d26	0.17406139
231	0x3c56f7f4	0.01312064
232	0xbe0a0b42	-0.13480857
233	0xbd45f2cf	-0.048327263
234	0xbd5dc523	-0.054143082
235	0x3dc7dc15	0.09758774
236	0xbe493ef0	-0.19652915
237	0x3e0074f0	0.12544608
238	0x3be43af2	0.0069650346
239	0xbcdcdbc9	-0.02696027
240	0xbd5d0027	-0.053955223
241	0x3e4e653f	0.2015581
242	0xbdb819fd	-0.08989332
243	0x3e4e61b2	0.20154455
244	0x3e1b0c85	0.15141495
245	0x3d0859ba	0.033288695
246	0x3e5b3489	0.2140676
247	0xbde87d69	-0.11352045
248	0xbe116bc3	-0.14201264
249	0xbd81a47c	-0.06330201
250	0xbdd03044	-0.10165456
251	0x3d707d49	0.05871323
252	0xbe2a1f30	-0.1661346
253	0xbdde8123	-0.108644746
254	0x3e49540d	0.19660969
255	0x3e5dc35e	0.21656558

actor.fc1.bias f4 [256]
0	0x3d761895	0.060082037
1	0xbdd134d4	-0.10215154
2	0x3e49de5a	0.19713727
3	0x3e205a74	0.15659505
4	0x3e57e5c6	0.21083745
5	0xbd71938f	-0.058978613
6	0xbe193ec9	-0.14965357
7	0xbd60984a	-0.054832734
8	0x3dc3e77c	0.095656365
9	0x3dca7e64	0.09887388
10	0x3c23faf7	0.010008565
11	0x3d7a06f9	0.061041806
12	0xbe295d61	-0.16539527
13	0xbd973c63	-0.07384565
14	0x39018e70	0.00012355461
15	0x3c1cbec3	0.0095669655
16	0x3dbfce9f	0.09365582
17	0xbd02546e	-0.0318188
18	0xbe416edc	-0.18889946
19	0xbe07fe3c	-0.13280576
20	0x3cbc8452	0.023012314
21	0x3d7aa23a	0.061189868
22	0x3c3de79b	0.011590864
23	0xbdde38dd	-0.108506896
24	0x3e128275	0.14307578
25	0x3d443fc5	0.047912378
26	0xbdc28c6d	-0.0949944
27	0xbd992f20	-0.074796915
28	0xbd65abe6	-0.05607214
29	0xbdd8dd18	-0.10589045
30	0x3b082c20	0.0020778254
31	0x3d2e6001	0.042572025
32	0x3d0c1c8e	0.03420692
33	0xbdc71952	-0.09721626
34	0x3e37c755	0.17947133
35	0xbdbaa8d6	-0.09114234
36	0x3c1522b8	0.009102516
37	0xbda8ef90	-0.08248818
38	0x3e36e15c	0.17859405
39	0x3e057328	0.1303221
40	0xbe2f3130	-0.17108607
41	0x3dd2ed63	0.10299184
42	0x3d57c4d6	0.05267795
43	0x3e478c45	0.19487102
44	0xbe05a8ea	-0.13052717
45	0x3e1b204c	0.15149039
46	0xbe33affc	-0.17547601
47	0xbcf63e4a	-0.030058999
48	0x3db681f0	0.08911502
49	0x3d6e4882	0.058174618
50	0x3e454156	0.19263205
51	0xbe06b30b	-0.13154237
52	0x3b633f06	0.0034675016
53	0x3e304b04	0.17216116
54	0xbe1b1ff6	-0.15148911
55	0x3dc66866	0.09687881
56	0x3e266f24	0.16253334
57	0x3d8a9d54	0.06768289
58	0xbe34fcf8	-0.17674625
59	0xbe1ec56d	-0.15505
60	0x3e539fd6	0.20666441
61	0xbcee383a	-0.029079545
62	0x3df244f1	0.11829556
63	0xbe2ceba4	-0.16886765
64	0x3e49ef89	0.19720282
65	0xbdfa0345	-0.12207655
66	0x3e226801	0.15859987
67	0x3e287d4b	0.16454045
68	0x3e37e307	0.17957698
69	0xbd9123ea	-0.07086928
70	0xb9d373cc	-0.00040331332
71	0x3d9743f7	0.0738601
72	0x3d85c5b3	0.06531849
73	0x3e59a8a3	0.21255736
74	0x3dd06527	0.10175543
75	0x3cbed8af	0.023296682
76	0x3daf5da8	0.085627854
77	0x3ddbe822	0.10737635
78	0x3d3bb7b9	0.04582951
79	0xbdd279ac	-0.10277113
80	0xbe06942e	-0.13142464
81	0x3e04d659	0.12972392
82	0x3e2522a3	0.16126494
83	0x3e11c0c2	0.14233688
84	0xbe3d4908	-0.1848489
85	0xbd1d216f	-0.038361963
86	0x3e234a8b	0.15946405
87	0xbd8560e7	-0.06512623
88	0x3d438db0	0.047742546
89	0xbd02976c	-0.03188269
90	0xbd1ba89d	-0.0380026
91	0x3c6d770a	0.014493713
92	0xbd95c338	-0.07312626
93	0xbd8ab7c9	-0.067733355
94	0x3e138ee5	0.14409979
95	0xbe3c5c5e	-0.1839461
96	0x3de7f059	0.113251396
97	0xbde1dff4	-0.11029044
98	0x3e4b173a	0.19833079
99	0xbdfb6413	-0.12274947
100	0xbe09888b	-0.13430993
101	0xbe258ac7	-0.1616622
102	0xbe31a5a0	-0.17348337
103	0xbdd4844a	-0.10376795
104	0x3e56ff62	0.20995858
105	0x3db2eef1	0.08736981
106	0xbe14f66c	-0.14547127
107	0xbce97b62	-0.028501216
108	0xbb116f28	-0.0022191498
109	0x3c419e5f	0.011817544
110	0xbd93a06a	-0.07208331
111	0xbd4ad8cb	-0.049523156
112	0x3e53c1d2	0.20679405
113	0xbd8e837e	-0.06958674
114	0xbe184e6d	-0.14873667
115	0xbdb5aefc	-0.08871266
116	0x3d86c397	0.065802746
117	0xbd918417	-0.07105272
118	0x3de2d105	0.110750236
119	0x3cacc317	0.02108912
120	0x3e4fa278	0.2027682
121	0xbd88b377	-0.06674855
122	0x3cb1ea47	0.021718157
123	0xbd37cf2c	-0.04487531
124	0xbdfef576	-0.12449162
125	0x3e0f79cc	0.14011306
126	0x3dfb9494	0.122841984
127	0x3d30dcd9	0.043179367
128	0x3d065bee	0.032802515
129	0xbe14b275	-0.14521201
130	0x3e3d840f	0.18507408
131	0x3d5fa765	0.054603
132	0x3daeb99e	0.085314974
133	0xbe0a1a96	-0.13486704
134	0x3e18372a	0.14864793
135	0x3b172e84	0.0023068497
136	0x3e18c384	0.14918333
137	0x3e41b535	0.18916781
138	0x3d879f13	0.06622138
139	0xbe0b1fdd	-0.13586374
140	0x3e15668d	0.14589901
141	0xbd01f8a2	-0.031731255
142	0x3c6b1c00	0.014349937
143	0xbd6b836e	-0.057498388
144	0xbd528270	-0.051393926
145	0xbce48287	-0.027894272
146	0xbe111645	-0.14168651
147	0x3e0c5285	0.13703354
148	0xbe5bc441	-0.21461584
149	0xbd5d94cc	-0.054096982
150	0xbe2f7efc	-0.17138284
151	0xbddd5afa	-0.10808368
152	0xbdd38896	-0.10328786
153	0x3cdd41ba	0.02700888
154	0x3e457d5a	0.19286099
155	0xbc21cdf5	-0.009875764
156	0x3dfddbdb	0.1239545
157	0xbe129587	-0.14314853
158	0xbe3401c8	-0.17578804
159	0x3d0fc089	0.035095725
160	0xbe1dd388	-0.15412724
161	0xbca88ba5	-0.0205744
162	0x3cbabd32	0.022795293
163	0x3e4a20ad	0.19739027
164	0x3e2026a1	0.15639736
165	0x38220550	3.8628757e-05
166	0x3ce1d46a	0.027567107
167	0x3e351a77	0.17685877
168	0x3dd05289	0.10171992
169	0x3e18787a	0.14889708
170	0x3e51ea03	0.20499425
171	0x3e2087f8	0.15676868
172	0x3c751c28	0.014960326
173	0xbda47b81	-0.08031369
174	0x3e055f5b	0.13024656
175	0xbe2d1141	-0.16901113
176	0x3e59f486	0.21284685
177	0x3e0939ad	0.13400908
178	0xbe10f0d2	-0.14154366
179	0x3c02a723	0.007974419
180	0x3ce3efc4	0.02782429
181	0x3e4834e5	0.19551428
182	0x3e5541ef	0.20825933
183	0xbe55ccb6	-0.20878872
184	0x3d8d1b41	0.06889964
185	0xbd0c4922	-0.034249432
186	0x3e057eea	0.13036695
187	0x3de7ad2b	0.11312326
188	0xbe558f8e	-0.20855543
189	0xbcd14812	-0.025547061
190	0x3e1347de	0.14382884
191	0x3d69b8ac	0.057060882
192	0xbe4bf562	-0.19917825
193	0xbdc4f5a0	-0.09617162
194	0xbd9015d9	-0.07035417
195	0xbe48f938	-0.1962632
196	0x3e3de798	0.18545377
197	0x3defdcb8	0.11712021
198	0xbe033891	-0.12814547
199	0xbda21b10	-0.07915318
200	0x3c8db03e	0.017295953
201	0x3e49fa83	0.19724469
202	0x3e02e33f	0.12782
203	0xbe4e6e16	-0.20159182
204	0x3dc82118	0.09771937
205	0xbe2feeac	-0.1718089
206	0xbd759cc2	-0.05996395
207	0xbe16d6bf	-0.14730357
208	0xbd17a8f5	-0.037026364
209	0x3e36db96	0.17857203
210	0x3de8c416	0.113655254
211	0xbd84bd7b	-0.06481453
212	0xbd1d43a1	-0.038394574
213	0x3e41b211	0.18915583
214	0x3da5f141	0.08102656
215	0x3e21ced8	0.15801561
216	0xbe361482	-0.1778126
217	0x3e390099	0.18066634
218	0x3d157aa4	0.036493912
219	0xbde841b4	-0.11340657
220	0xbd1c4aba	-0.038157202
221	0xbc218e8e	-0.009860648
222	0x3d8d7f48	0.069090426
223	0x3cd761b2	0.026291702
224	0xbe13e2cc	-0.14441985
225	0xbe43b2c0	-0.19111156
226	0x3e42fcee	0.19041798
227	0xbe1a641a	-0.15077248
228	0xbe406575	-0.18788703
229	0x3d8cb052	0.06869568
230	0xbd96f5fc	-0.073711365
231	0xbe2440b9	-0.16040315
232	0xbd32219a	-0.043489076
233	0xbdf33dbe	-0.11877011
234	0x3e302587	0.17201816
235	0x3d5f2e58	0.054487556
236	0xbdd079a3	-0.1017945
237	0x3e1ce865	0.15323026
238	0x3d172bb3	0.03690691
239	0x3e112bb3	0.14176826
240	0xbe59bc88	-0.21263325
241	0x3e19f1f5	0.15033706
242	0x3c7a5c65	0.015280818
243	0xbe499784	-0.19686705
244	0xbdd55ace	-0.1041771
245	0x3dbba43a	0.09162183
246	0xbe439644	-0.1910029
247	0xbe07da67	-0.13266908
248	0x3df6f6f2	0.1205882
249	0x3ce7a246	0.02827562
250	0x3e5a796e	0.21335384
251	0x3d0aa2a6	0.03384652
252	0xbde039d9	-0.109485336
253	0xbe1b720d	-0.15180226
254	0x3d4d5520	0.05013001
255	0xbd133a83	-0.035944473

actor.fc2.weight f4 [128, 256]
0	0x3d3c8599	0.046025846
1	0xbcac2745	-0.021014819
2	0xbd79e427	-0.0610086
3	0x3c127d73	0.008941042
4	0x3d4f3257	0.050585117
5	0xbbd54029	-0.0065078926
6	0xbb00fe38	-0.0019682776
7	0xbd78c1d8	-0.06073174
8	0xbd328e1a	-0.04359255
9	0xbc59e8df	-0.01330015
10	0xbcb3b4e9	-0.02193685
11	0x3d04a24b	0.032381337
12	0xbca3dafd	-0.020001883
13	0x3d6d2a7f	0.057901856
14	0x3c30f5e0	0.010800809
15	0xbd2c196b	-0.042016428
16	0xbd0f0a96	-0.034922205
17	0x3c907056	0.017631691
18	0xbd451a67	-0.048120882
19	0x3d2d1f1f	0.042266008
20	0x3c1272a0	0.008938462
21	0x3c9e3afe	0.019315239
22	0x3c8d5843	0.017254
23	0xbd1cd1c7	-0.038285997
24	0xbcfb2fbe	-0.030662414
25	0x3bb0c7da	0.005394918
26	0xbd1bbdc4	-0.03802277
27	0x3d7f2e58	0.062300056
28	0xbca728bd	-0.020405168
29	0xbc81ad00	-0.015829563
30	0x3d493183	0.049119484
31	0xb9ba3b02	-0.0003552065
32	0xbbe1a8df	-0.006886586
33	0xbcbec86d	-0.02328893
34	0xbcb72c8e	-0.022360113
35	0xbcc5a30c	-0.024125598
36	0xbb1ea4f8	-0.0024207216
37	0xbd677fd2	-0.056518383
38	0x3d107fd9	0.035278175
39	0x3ccd7067	0.025078012
40	0x3c8537d6	0.016261976
41	0x3d2dd396	0.042438112
42	0xbce1d586	-0.027567636
43	0xbd369ae2	-0.0445813
44	0xbd34516f	-0.044022974
45	0xbd517d93	-0.051145148
46	0xbd112777	-0.035438027
47	0x3d68fdae	0.056882553
48	0x3cf47172	0.029839251
49	0xbd585d0e	-0.05282312
50	0xbb6704fa	-0.003525077
51	0x3d1094fa	0.035298325
52	0xbc98dd62	-0.018660251
53	0xbc6de7ac	-0.014520567
54	0xbcee054e	-0.029055264
55	0xbc996127	-0.018723084
56	0xbd477b02	-0.048701294
57	0x3c06d691	0.008229868
58	0x3d8084f6	0.0627536
59	0x3cefe57d	0.029284233
60	0x3cca2294	0.024674691
61	0xbcdacfc7	-0.026710404
62	0x3d4416de	0.04787337
63	0xbd30d58e	-0.04317241
64	0xbc5eb3fa	-0.013592714
65	0xbced5d22	-0.028975073
66	0xbd51c956	-0.0512174
67	0x3d1cfe7c	0.038328633
68	0x3c9206e6	0.017825555
69	0xbd279bc0	-0.04092002
70	0xbd44c352	-0.048037834
71	0x3d0e8e80	0.034803867
72	0x3ce31a92	0.02772263
73	0x3d535d01	0.051602367
74	0x3d6d0f80	0.05787611
75	0xbbb3d9b8	-0.0054886006
76	0xbd714694	-0.0589052
77	0xbd50350d	-0.050831843
78	0xbcd2b82d	-0.025722587
79	0x3cbe0b49	0.02319874
80	0x3d66be58	0.05633387
81	0x3c0c5a39	0.008566433
82	0x3cd1213a	0.025528539
83	0x3c066d90	0.008204833
84	0x3d2c188d	0.0420156
85	0xbd720fbe	-0.059097044
86	0x3d61dccd	0.055142213
87	0xbd79388e	-0.06084495
88	0xbd094510	-0.03351313
89	0x3cbd5907	0.02311374
90	0x3be4deef	0.0069845836
91	0xbcf2cc79	-0.029638516
92	0x3c8c59af	0.017132608
93	0xbca420cd	-0.020035172
94	0x3d6f8c4e	0.058483414
95	0xbcf194fd	-0.029489988
96	0x3d44194b	0.047875684
97	0x3c1a651b	0.0094235195
98	0xbd014b07	-0.031565692
99	0x3d0f8467	0.035038378
100	0x3ad59831	0.0016295967
101	0xbd1d8cb4	-0.038464263
102	0x3ab1054c	0.0013505607
103	0xbd41700f	-0.047226008
104	0xbc2c74b4	-0.010525871
105	0x3d1057cf	0.03523999
106	0xbcd0584f	-0.025432734
107	0x3cdfc9d2	0.027317915
108	0x3d2cd102	0.042191513
109	0x3a9effd4	0.0012130686
110	0xbca0f261	-0.019646825
111	0xbbed42d7	-0.007240634
112	0x3cfc839f	0.03082448
113	0xbc88b48b	-0.016687652
114	0xbd41c5dc	-0.047307834
115	0x3d19b38f	0.037524756
116	0x3d34f848	0.044182092
117	0x3ce64a62	0.02811164
118	0x3d616261	0.055025462
119	0x3d4c0bea	0.04981605
120	0xbcd870e7	-0.026421024
121	0x3d555f12	0.05209262
122	0x3c02c86f	0.007982357
123	0x3caa5dde	0.020796712
124	0xbc95bf6f	-0.01827976
125	0x3a3aa68c	0.00071201543
126	0x3c932be3	0.017965263
127	0xb93ce764	-0.00018015277
128	0xbd77d595	-0.060506422
129	0x3c60b9d3	0.013716179
130	0x3cb4b882	0.022060636
131	0xbcad90ed	-0.02118727
132	0x3b5cf460	0.0033714995
133	0x3d1f282f	0.03885668
134	0xbc8eace6	-0.017416429
135	0xbc89aefe	-0.016807076
136	0x3cefb1f9	0.029259669
137	0xbbd76964	-0.006573843
138	0xbd44c222	-0.048036702
139	0x3d2ef769	0.042716417
140	0xbbcf69fa	-0.006329772
141	0x3bbb59ce	0.0057174927
142	0xbc81f61f	-0.01586443
143	0xbca4f6b8	-0.020137176
144	0xbd597535	-0.053090293
145	0xbc62b570	-0.013837203
146	0x3c434b0e	0.01191975
147	0x3cd74169	0.026276307
148	0x3d71cc18	0.05903253
149	0x3d5a39e7	0.053277876
150	0xbc7a3829	-0.015272179
151	0xbba42fab	-0.0050105653
152	0x3cdad2e6	0.026711892
153	0xbd048c4e	-0.032360367
154	0x3d48bfaa	0.04901091
155	0x3c920007	0.017822279
156	0x3b5c2e12	0.0033596796
157	0x3d1841f2	0.037172265
158	0x3d171d75	0.036893327
159	0xbceab116	-0.028648894
160	0x3c4e4bfa	0.012591356
161	0xbd63f301	-0.05565167
162	0x3d5687dc	0.05237566
163	0xbd5d36eb	-0.054007452
164	0x3c9e5cd2	0.01933137
165	0x3d667110	0.05626017
166	0x3d59d711	0.05318362
167	0xbd5606cd	-0.05225258
168	0x3ca42c1b	0.020040562
169	0x3d3b36e0	0.04570663
170	0x3c8c41cd	0.01712122
171	0x3d2117d3	0.03932936
172	0xbcc947d5	-0.024570385
173	0x3cb25e1e	0.021773394
174	0xbd3234ce	-0.04350739
175	0x3d4f73c1	0.0506475
176	0xbd03a238	-0.032137126
177	0x3d4acc92	0.0495115
178	0xbd073375	-0.033008058
179	0xbc8ea5ce	-0.017413046
180	0xbd364748	-0.044501573
181	0x3be79325	0.0070671015
182	0x3d7e259b	0.062047582
183	0xbd235e8e	-0.039885096
184	0xbd49352d	-0.049122978
185	0xbce64e25	-0.028113434
186	0xbc6c6f5c	-0.014430847
187	0xbcc99f41	-0.024612071
188	0xbb2a8a44	-0.0026022354
189	0x3d600ca7	0.054699566
190	0x3d25b489	0.040455375
191	0x3d2a0f05	0.04151823
192	0x3d0bf4a8	0.03416887
193	0xbba00d5a	-0.004884404
194	0xbd40bf97	-0.047057714
195	0x3d1adb64	0.037806883
196	0x3c58a78d	0.013223541
197	0x3d6e15e3	0.05812634
198	0x3c560751	0.013063268
199	0xbd4cf2a5	-0.05003609
200	0x3d361b28	0.044459492
201	0x3c65473d	0.013994035
202	0xbd1840b0	-0.037171066
203	0x3d13b3c4	0.03606011
204	0xbd35a18e	-0.044343524
205	0x3d1def71	0.038558427
206	0x3d69f1aa	0.057115234
207	0xbc61d4af	-0.013783618
208	0xbd49a77d	-0.049231995
209	0xbcbe90b2	-0.023262355
210	0xbd1df096	-0.03855952
211	0xbccfdf3a	-0.025374997
212	0x3ceb042e	0.028688516
213	0xbd0a3cf5	-0.03374954
214	0x3d50fb88	0.05102113
215	0xbc8cfdf0	-0.01721093
216	0x3c8df174	0.017327048
217	0xbd3467a0	-0.044044137
218	0x3d08b00a	0.03337101
219	0xbc66557c	-0.014058467
220	0x3c4a33c3	0.0123414425
221	0x3bc0d55d	0.00588481
222	0xbcab0cd7	-0.020880146
223	0x3d3a9381	0.045550827
224	0xbd5ec0a8	-0.05438295
225	0x3c6b368a	0.014356265
226	0x3cded363	0.027200406
227	0x39f759d0	0.00047178427
228	0x3c5ba4f9	0.013406032
229	0x3d426512	0.04745967
230	0x3c1c0651	0.00952299
231	0xbc90cbc2	-0.017675284
232	0x3d5cc15b	0.053895336
233	0xbc898e68	-0.016791537
234	0xbc9ff006	-0.019523632
235	0xbd5969bb	-0.053079348
236	0x3d670781	0.05640364
237	0x3d39ac34	0.04533024
238	0xbd3f7ceb	-0.04674999
239	0x3d31dfdd	0.043426383
240	0x3d16e5f6	0.0368404
241	0xbc1629c4	-0.009165231
242	0x3d207173	0.039170694
243	0x3cbed28b	0.023293754
244	0x3d10f6fc	0.035391793
245	0x3cffae99	0.031211184
246	0x3bbd3f53	0.005775371
247	0x3c29358a	0.010327706
248	0xbc46211f	-0.012092858
249	0xbd799bf8	-0.06093976
250	0xbcf0787c	-0.029354326
251	0x3d595f1d	0.053069223
252	0x39ae92d8	0.00033297273
253	0xbd11dbfd	-0.035610188
254	0x3c05cd25	0.008166586
255	0x3cfdd74d	0.030986452

actor.fc2.bias f4 [128]
0	0xbd247f16	-0.04016026
1	0xbd7a258d	-0.061070967
2	0x3c89ef42	0.01683772
3	0x3b264aa4	0.002537408
4	0x3cc7e55f	0.024401365
5	0xbc0763a0	-0.008263499
6	0xbce5902f	-0.028022854
7	0xbd1fd550	-0.03902179
8	0x3c0dec00	0.008662224
9	0xbcd4a266	-0.025956344
10	0xbccefa5d	-0.025265867
11	0x3d12573e	0.035727732
12	0x3d6f549c	0.0584303
13	0x3bfe1a41	0.0077545946
14	0xbc3201b8	-0.010864668
15	0xbd5e39a7	-0.0542542
16	0x3d57b338	0.05266115
17	0xbc8a7c3c	-0.016904943
18	0x3c29410f	0.010330453
19	0x3c2597f7	0.010107032
20	0x3d1df196	0.038560472
21	0x3d0a0314	0.03369434
22	0x3d5fcb7f	0.05463743
23	0x3d2c245f	0.042026874
24	0xbc6ab8ac	-0.014326256
25	0x3d08b382	0.033374317
26	0x3d80dd0b	0.062921606
27	0x3c5d8490	0.013520375
28	0xbc61330e	-0.013745083
29	0x3cba4db6	0.022742134
30	0x3a991558	0.0011679335
31	0x3bd26e35	0.006421829
32	0xbc944a7e	-0.018101927
33	0xbcd9c291	-0.026582034
34	0xbd432d88	-0.047650844
35	0xbc784057	-0.015152059
36	0xbc9c9168	-0.019112304
37	0x3cf3f9f6	0.029782277
38	0xbd0ae902	-0.03391362
39	0xbc95aeb5	-0.018271783
40	0xbac131da	-0.0014739588
41	0x3d6fa572	0.05850739
42	0xbd4d99e1	-0.05019558
43	0xbd75cb2c	-0.060008213
44	0x3d44084c	0.047859475
45	0x3d555a70	0.0520882
46	0x3c38de5b	0.011283482
47	0x3bbb6856	0.005719225
48	0xbb080662	-0.0020755758
49	0xbd24aebc	-0.040205702
50	0xbce8ea85	-0.02843214
51	0xbc9b6ff7	-0.018974287
52	0x3d64066e	0.055670194
53	0x3c11ed69	0.008906701
54	0x3cc147e8	0.023593858
55	0x3d0e5e52	0.03475792
56	0xbd3f34fe	-0.046681397
57	0xbaab0582	-0.0013047906
58	0x3d4f26c5	0.050574083
59	0xbc3fd911	-0.0117094675
60	0x3bc514e6	0.006014454
61	0x3ceecb70	0.029149741
62	0x3d05734a	0.03258065
63	0x3b2a0a46	0.0025946065
64	0xbbd03b4a	-0.006354724
65	0xbd3280f6	-0.043580018
66	0xbd0a241d	-0.033725847
67	0x3d3f9414	0.046772078
68	0x3d6c067f	0.057623383
69	0x39ba010e	0.0003547747
70	0x3d72ec4b	0.059307378
71	0x3b04587e	0.0020194347
72	0xbd2b12df	-0.041766044
73	0xbcaf99be	-0.021435615
74	0x3cc1f248	0.023675099
75	0x3ca045c8	0.019564524
76	0x3d000dc1	0.031263117
77	0xbd347c67	-0.04406395
78	0x3d236ef4	0.039900735
79	0x3d553740	0.052054644
80	0x3ca217ee	0.019786801
81	0x3ce28e5a	0.02765577
82	0x3cfcb76b	0.03084918
83	0x3d2a29ff	0.041543957
84	0x3c859469	0.016306119
85	0xbd4e9845	-0.050438184
86	0x3d32761e	0.043569677
87	0xbcfe8cc4	-0.031072982
88	0x3c30c04b	0.010788034
89	0x3cd18870	0.025577754
90	0x3c4429f4	0.011972893
91	0xbd346932	-0.044045635
92	0x3d25a73e	0.040442698
93	0xbca74286	-0.020417463
94	0x3c29bf8a	0.010360608
95	0x3c27b6e5	0.010236477
96	0x3d76f7df	0.060294982
97	0x3d732237	0.0593588
98	0x3c219fa6	0.009864723
99	0x3cb3745b	0.021906069
100	0xb9154414	-0.00014235108
101	0xbd4f1d45	-0.050565023
102	0x3d5eced5	0.05439647
103	0x3cc34627	0.023837162
104	0x3cb9ab30	0.022664636
105	0x3cabd453	0.020975268
106	0xbcc8ae39	-0.024497138
107	0xbd09274c	-0.033484742
108	0x3d01b58f	0.03166729
109	0xbc95b527	-0.018274857
110	0x3add6aec	0.0016892827
111	0x3d03b806	0.03215792
112	0x3b88e287	0.004177395
113	0xbb9f8128	-0.0048676915
114	0xbc803dd7	-0.015654488
115	0x3c153f14	0.009109277
116	0xbcb71492	-0.022348676
117	0xbc2730d6	-0.0102045145
118	0x3d6a1f01	0.057158474
119	0xbd61b674	-0.05510564
120	0xbbfb4440	-0.007668048
121	0xbd69e88c	-0.05710654
122	0x3c5635d0	0.013074353
123	0x3d6a4a70	0.057199895
124	0x3ac06c63	0.0014680739
125	0xbd22d8e3	-0.03975762
126	0xbd3afa8e	-0.045649104
127	0x3d812de1	0.06307579

actor.policy_head.weight f4 [50, 128]
0	0x3d2e50e1	0.0425576
1	0xbd880576	-0.066416666
2	0xbd83da88	-0.06438166
3	0xbc1cfb10	-0.009581342
4	0xbdaa20ec	-0.083070606
5	0xbd6bf6a8	-0.057608277
6	0x3ba35e12	0.0049855793
7	0xbd8e3e7e	-0.06945513
8	0xbdb34a30	-0.087543845
9	0xbc9352de	-0.01798385
10	0xbc885dbd	-0.01664626
11	0xbb5aff90	-0.0033416487
12	0x3d0ea5c1	0.034826044
13	0xbd8faa6e	-0.07014929
14	0xbc7abdad	-0.015304011
15	0xbdaa2331	-0.083074935
16	0xbd16f09c	-0.036850557
17	0x3c06c2c0	0.008225143
18	0x3d89bb37	0.067251615
19	0x3dad7c25	0.08470944
20	0x3c821a62	0.01588172
21	0x3b6b83d1	0.0035936723
22	0xbd0c710a	-0.03428749
23	0xbc66be8a	-0.014083514
24	0xbd6651a1	-0.05623019
25	0xbbb19dd7	-0.0054204273
26	0xbdae8f69	-0.08523447
27	0xbc1f81ce	-0.009735538
28	0x3d1f8ef5	0.038954694
29	0x3cfc0238	0.030762777
30	0x3d990e13	0.074733876
31	0x3d907c87	0.07055002
32	0x3dac7aa9	0.08421833
33	0x3d6d0e33	0.05787487
34	0x3db1b5fa	0.086772874
35	0x3c5f5c07	0.013632781
36	0xbb9880e5	-0.0046540373
37	0xbc9e4c6b	-0.019323548
38	0x3d76d246	0.060259126
39	0xbdacd447	-0.08438926
40	0x3d1b1126	0.03785815
41	0x3c85c8dc	0.016331129
42	0xbc37bbee	-0.0112142395
43	0x3d6a9c65	0.057278056
44	0xbca64a19	-0.020299004
45	0x3d597fd1	0.05310041
46	0x3cf8e589	0.030382888
47	0xbd1a6854	-0.03769715
48	0x3d4564b8	0.048191756
49	0x3d71921f	0.058977243
50	0xbce5be20	-0.02804476
51	0x3a5ca3f9	0.0008416768
52	0x3da1a2ea	0.078924015
53	0xbc80cf6e	-0.01572391
54	0xbd6ddc5e	-0.058071487
55	0x3d17c801	0.037055973
56	0xbd853e6e	-0.06506048
57	0xbbf4611f	-0.007457867
58	0xbca9d0cb	-0.020729443
59	0xbd208ca4	-0.039196625
60	0x3d6c2de6	0.05766096
61	0xbc8de575	-0.017321328
62	0x3c45b0ab	0.012066047
63	0x3c95b9b8	0.018277034
64	0x3d16e0bd	0.03683542
65	0x3d42a42e	0.047519855
66	0xbd98698b	-0.07442006
67	0xbd00d6fa	-0.031455018
68	0x3c529999	0.012854003
69	0xba388063	-0.0007038174
70	0xbca26668	-0.019824222
71	0x3da9d576	0.082926676
72	0xbd4a60a1	-0.04940856
73	0x3d798a49	0.060922895
74	0xbdac0886	-0.08400063
75	0xbd55723d	-0.0521109
76	0xbcdb0494	-0.026735581
77	0x3d8d7a36	0.069080755
78	0x3db39544	0.087687045
79	0x3d71dbc1	0.059047464
80	0x3d1847d5	0.03717788
81	0x3bceb5e2	0.006308303
82	0xbced075d	-0.028934175
83	0x3c69d56e	0.014272077
84	0x3daace3a	0.08340116
85	0x3b09ba09	0.0021015427
86	0x3d48f5f7	0.049062695
87	0x3da42532	0.08014907
88	0x384e649a	4.920792e-05
89	0x3cc6cc0b	0.024267217
90	0x3ce85b6f	0.028363911
91	0xbd1de4d9	-0.038548324
92	0xbd9ba11e	-0.0759909
93	0xbd1aaa58	-0.03776011
94	0xbd048e38	-0.032362193
95	0x3d7ec5b3	0.06220026
96	0xbd8ad04a	-0.06778009
97	0xbd53abd4	-0.05167754
98	0x3d2e5932	0.042565532
99	0x3bbd870a	0.00578392
100	0xbce6a915	-0.028156796
101	0x3db195ca	0.08671148
102	0x3bb504e9	0.005524267
103	0x3cb66669	0.02226563
104	0x3d83ee49	0.06441934
105	0x3c417129	0.011806765
106	0xbda15e63	-0.07879331
107	0x3c4581c1	0.0120548615
108	0x3da20a39	0.07912106
109	0xbc730c64	-0.014834497
110	0x3d488859	0.048958156
111	0xbdafb1b3	-0.08578815
112	0xbd9b96b8	-0.07597107
113	0x3cb57e08	0.022154823
114	0xbd9c73cc	-0.07639274
115	0x3c26a724	0.010171685
116	0x3c298dbf	0.010348736
117	0xbcb074ce	-0.021540072
118	0x3d331001	0.043716434
119	0xbd1ea545	-0.038731832
120	0x3d1fd5ce	0.03902226
121	0xbd10f8c5	-0.035393495
122	0xbce12850	-0.027485043
123	0x3d82f117	0.063936405
124	0xbc4a2382	-0.012337567
125	0x3d8747e5	0.0660551
126	0xbca74a42	-0.020421151
127	0xbd8d187e	-0.06889437
128	0xbd01d7a7	-0.031699803
129	0xbd34d26c	-0.044145986
130	0x3d966454	0.07343355
131	0xbc6e42df	-0.0145423105
132	0x3cc3d752	0.023906384
133	0x3c4c5b5b	0.012472953
134	0xbcbc376e	-0.02297565
135	0xbb84bee3	-0.004051076
136	0x3ca843de	0.020540174
137	0x3d44184d	0.047874738
138	0x3d8dfa13	0.069324635
139	0xbd8ae086	-0.06781106
140	0x3d2b0e9e	0.041761987
141	0xbd93e0bb	-0.07220598
142	0x3d278715	0.04090031
143	0xb8649f50	-5.4507807e-05
144	0x3d5eae8c	0.05436568
145	0xbd5fac83	-0.05460788
146	0xbcfca7bb	-0.030841699
147	0xbda1fe26	-0.07909803
148	0xbd082e45	-0.03324725
149	0xbd9bb053	-0.076019906
150	0xbc85966b	-0.016307076
151	0xbd3b6022	-0.045745976
152	0xbce86ad9	-0.028371261
153	0xbd9f7a77	-0.0778703
154	0xbbeb23f8	-0.0071759187
155	0x3d01b1ee	0.031663828
156	0xbcb4c34d	-0.022065783
157	0x3d723003	0.05912782
158	0x3c323e0c	0.010879051
159	0xbd576643	-0.05258776
160	0xbd01c1bc	-0.0316789
161	0x3d2e7cec	0.042599604
162	0x3d29ff7a	0.041503407
163	0x3c97f082	0.0185473
164	0x3d2172fb	0.039416295
165	0xbd097f71	-0.033568803
166	0xbd41cf1a	-0.047316648
167	0xbd669a7d	-0.056299675
168	0x3d8dc02c	0.069214195
169	0x3c17f932	0.009275721
170	0x3d676e63	0.056501757
171	0xbd69dbc0	-0.057094336
172	0x3bbffbcd	0.0058588744
173	0x3998b812	0.00029128842
174	0xbd996c18	-0.0749132
175	0x3d9f18fe	0.07768439
176	0x3d3b66c7	0.045752313
177	0xbd9cb2fd	-0.07651327
178	0xbcb62721	-0.022235455
179	0xbd92ec48	-0.07173973
180	0xbda2b9de	-0.079456076
181	0x3cb763ea	0.02238651
182	0x3d15fbaf	0.036616977
183	0x3d4fa61f	0.050695535
184	0x3d356777	0.044288125
185	0x3d3edcb6	0.046597205
186	0xbd5be4e8	-0.0536851
187	0x3cc16888	0.023609415
188	0xbd1458cc	-0.036217496
189	0x3d3ac10b	0.045594256
190	0xbd20e6a6	-0.039282463
191	0x3c809603	0.015696531
192	0xbdae6396	-0.08515088
193	0xbd7006f7	-0.058600392
194	0xbda43567	-0.08017998
195	0x3db0a1a9	0.08624584
196	0x3dad43e0	0.08460212
197	0xbd31e729	-0.043433342
198	0x3b996611	0.0046813567
199	0x3d316f74	0.04331918
200	0xbc882541	-0.016619327
201	0x3d776f7a	0.060409047
202	0x3ba83724	0.0051335264
203	0xbcaa0f6f	-0.020759312
204	0x3d59c2f5	0.05316444
205	0x3d9a2ceb	0.07528099
206	0xbc293e5a	-0.010329807
207	0xbbbe503c	-0.0058079045
208	0xbcf6c419	-0.030122804
209	0xbd803f06	-0.06262021
210	0xbc8de694	-0.017321862
211	0x3c3cbf10	0.011520162
212	0xbd9fcbce	-0.078025445
213	0xbc060eff	-0.008182286
214	0xbd7e1c56	-0.062038742
215	0x3ba10fc0	0.0049152076
216	0xbd5bd2d9	-0.053667877
217	0x3d898c92	0.06716265
218	0xbd2d3ed1	-0.042296235
219	0xbd565760	-0.05232942
220	0xbd3890f1	-0.045060102
221	0xbda42292	-0.08014406
222	0xbd3b6be3	-0.045757186
223	0xbd5e24bb	-0.054234248
224	0x3bfaf76f	0.007658891
225	0xbb0b81ad	-0.002128701
226	0x3d3f605b	0.04672275
227	0xbcb350a3	-0.021889037
228	0x3d0a2268	0.03372422
229	0x3d694619	0.056951616
230	0xbc895d14	-0.016768016
231	0x3d1608f1	0.03662962
232	0xbd8d783d	-0.06907699
233	0xbd48eb26	-0.04905238
234	0xbd1ee324	-0.038790837
235	0x3da79192	0.08182062
236	0xbdaf530a	-0.0856076
237	0xbd9d0f32	-0.07668914
238	0xbd48b67d	-0.04900216
239	0xbd93189f	-0.071824305
240	0x3cda02fd	0.026612753
241	0xbd627a4e	-0.05529242
242	0x3d6e306b	0.058151644
243	0x3d95a446	0.07306723
244	0x3d4bf56a	0.049794592
245	0x3d07b8da	0.033135273
246	0xbbdf793a	-0.0068198713
247	0x3d2e4e56	0.042555176
248	0xbcb5c9b5	-0.022190908
249	0xbd4d5958	-0.050134033
250	0x3cc8ca70	0.024510592
251	0xbcef1bed	-0.02918812
252	0x3d0f3bbd	0.03496908
253	0x3ccd3c27	0.025053097
254	0x3db3648b	0.087594114
255	0xbd9b4a71	-0.07582558

actor.policy_head.bias f4 [50]
0	0xbcdc33c8	-0.02688016
1	0xbd9e2107	-0.07721143
2	0x3dad066a	0.08448489
3	0xbdac4917	-0.08412378
4	0xbb4877de	-0.0030589025
5	0xba98d350	-0.0011659656
6	0x3d3d78a3	0.046257626
7	0x3b14d464	0.0022709602
8	0x3daa726e	0.08322607
9	0xbd33f751	-0.04393703
10	0x3d5bdf09	0.0536795
11	0x3d302de6	0.043012522
12	0xbcb811f2	-0.022469494
13	0xbcd285ee	-0.025698628
14	0xbd43f292	-0.047838755
15	0xbd9e3f52	-0.07726921
16	0xbcea5ab2	-0.0286077
17	0xbd3cde39	-0.046110366
18	0x3b466485	0.0030272317
19	0xbd421b61	-0.04738939
20	0xbd4d10ee	-0.050064974
21	0x3d914013	0.07092299
22	0x3d70488c	0.058662936
23	0x3d114236	0.035463534
24	0x3d467785	0.048453826
25	0x3cc8d430	0.024515241
26	0x3cf24307	0.029572977
27	0x3d89fd5f	0.0673778
28	0xbd8f529f	-0.069981806
29	0xbc34d879	-0.011037939
30	0x3d39334a	0.04521493
31	0x3db32b99	0.0874855
32	0x3d9eb468	0.077492535
33	0x3d310b68	0.04322377
34	0xbd3afb34	-0.045649722
35	0x3d0b610a	0.03402809
36	0xbd8cfeec	-0.0688456
37	0x3b9f909c	0.0048695337
38	0xbd6f6754	-0.05844815
39	0x3d0ce5fa	0.03439901
40	0xbc8197cc	-0.015819453
41	0x3b79607c	0.0038051894
42	0x3d532d8b	0.051557105
43	0xbcf8a49f	-0.030351935
44	0xbd03124c	-0.03199987
45	0x3db43a7d	0.08800218
46	0x3c3b1059	0.011417472
47	0xbcce6331	-0.025193783
48	0xbd1c5cd2	-0.038174458
49	0x3d353678	0.0442414

critic.fc1.weight f4 [256, 21]
0	0x3cf0cf0c	0.029395603
1	0xbd175ff5	-0.036956746
2	0x3cbb4a52	0.022862587
3	0x3e15f0aa	0.14642587
4	0xbe357443	-0.17720132
5	0x3e115824	0.14193779
6	0xbdc51840	-0.09623766
7	0xbd033941	-0.032037023
8	0x3e29ca56	0.16581091
9	0x3e041f61	0.12902595
10	0xbdc8eca3	-0.0981076
11	0xbe0c8367	-0.13722001
12	0xbe3a8df6	-0.18218216
13	0x3cb8dc6a	0.02256604
14	0x3dcf3c62	0.10118939
15	0xbe0707e6	-0.13186607
16	0xbb5e688a	-0.0033936822
17	0x3d8b9e51	0.06817306
18	0xbd9b9b34	-0.07597962
19	0x3e51d800	0.20492554
20	0xbd26e7b8	-0.040748328
21	0x3e32a846	0.17447004
22	0x3d7d5514	0.061848715
23	0xbe4f2a82	-0.20231059
24	0xbe1350d7	-0.14386307
25	0xbcc23cf9	-0.023710715
26	0x3d82e8dd	0.063920714
27	0xbdaab40c	-0.083351225
28	0x3de25afc	0.1105251
29	0x3d016c43	0.031597387
30	0x3d0d9301	0.034564022
31	0xbe2859f4	-0.16440564
32	0xbc77bfff	-0.015121459
33	0x3e4f36ab	0.20235698
34	0x3d82fea8	0.06396228
35	0xbe31e761	-0.1737342
36	0xbda8946e	-0.08231436
37	0x3d623aa6	0.055231713
38	0x3e38273a	0.17983714
39	0xbe189de3	-0.14903979
40	0xbe25ce24	-0.16191918
41	0x3e1aadfd	0.15105434
42	0xbe0ae298	-0.13563001
43	0xbe402c40	-0.1876688
44	0x3d979957	0.07402294
45	0xbd2da0e4	-0.042389765
46	0x3e1ed9ac	0.15512723
47	0xbe185f0b	-0.14880006
48	0x3dea5688	0.11442286
49	0x3e233769	0.15939106
50	0xbb52750b	-0.003211322
51	0x3daa9d69	0.08330805
52	0x3e2860f0	0.16443229
53	0x3dd6b3d6	0.1048352
54	0x3dd95dfa	0.10613628
55	0xbdaf910c	-0.08572587
56	0xbc8fd637	-0.0175582
57	0x3e1e6827	0.15469418
58	0x3df43dd3	0.119258545
59	0x3e073305	0.13203056
60	0xb8b66f0a	-8.699119e-05
61	0xbe26717d	-0.1625423
62	0xbdf1e7db	-0.11811801
63	0x3d8b2d09	0.06795699
64	0x3e2a02ce	0.16602632
65	0xbde41db9	-0.11138482
66	0x3d0dfe12	0.03466613
67	0x3c9c8e9d	0.019110972
68	0xbe26a68a	-0.16274467
69	0x3d95a2d4	0.073064476
70	0x3e4b1946	0.1983386
71	0xbd8e5f6a	-0.069517925
72	0xbdc1f92e	-0.094713554
73	0x3dbc3200	0.09189224
74	0xbd0b003f	-0.03393578
75	0xbd666115	-0.05624493
76	0x3de5e152	0.11224617
77	0xbe5ee996	-0.21768793
78	0x3e3c9096	0.1841453
79	0x3de4fb35	0.111807264
80	0xbcd9ec39	-0.026601898
81	0xbe01e8a8	-0.12686408
82	0x3ca9730f	0.020684747
83	0xbdf89984	-0.12138656
84	0xbdc2e248	-0.09515816
85	0xbdb1c5c5	-0.086803
86	0x3e5d3661	0.21602775
87	0xbdd9eda1	-0.10641027
88	0x3d463ad2	0.04839594
89	0x3c6f143e	0.014592228
90	0x3d8cec30	0.06880987
91	0xbd798400	-0.0609169
92	0x3d76f514	0.06029232
93	0xbe48d2c0	-0.19611645
94	0xbdc18f1c	-0.09451124
95	0x3d252be4	0.04032506
96	0xbe4e0a2f	-0.20121072
97	0xbbc0d454	-0.0058846865
98	0xbe2e24c7	-0.17006217
99	0x3e353c07	0.1769868
100	0x3e49d6d0	0.1971085
101	0x3dd7c9bd	0.105365254
102	0xbe28972a	-0.16463915
103	0xbda3f2ae	-0.08005272
104	0xbe15a612	-0.14614132
105	0xbc1e9310	-0.009678617
106	0x3d2590f9	0.04042146
107	0xbe0329fd	-0.12808986
108	0x3e0a0118	0.1347698
109	0x3cca26ec	0.024676763
110	0xbd27b952	-0.04094822
111	0x3e5e15d5	0.21688016
112	0x3e48358a	0.19551674
113	0xbdf95b74	-0.121756464
114	0xbd9fc4de	-0.07801221
115	0x3d992b63	0.074789785
116	0xbdaea7a7	-0.08528071
117	0x3e17cd12	0.14824322
118	0x3b898170	0.0041963384
119	0xbe4943b2	-0.1965473
120	0x3e0607f8	0.13088977
121	0xbd33ac85	-0.0438657
122	0xbaa2d5a5	-0.001242329
123	0xbe17eed4	-0.148372
124	0x3e3c39e4	0.18381459
125	0xbcabb88b	-0.02096202
126	0xbe0daecb	-0.1383621
127	0xbde5d86d	-0.112229206
128	0xbdc302f1	-0.095220454
129	0xbcef4efb	-0.029212466
130	0x3d529ec7	0.051420953
131	0x3e1666ae	0.14687607
132	0x3de75405	0.11295322
133	0xbe0958b3	-0.13412742
134	0xbc2fe9db	-0.010736908
135	0x3e0ac9ef	0.13553594
136	0xbd755fde	-0.05990588
137	0x3d572c58	0.052532524
138	0xbe06f937	-0.13181005
139	0x3e4bb202	0.19892123
140	0x3d91191d	0.07084868
141	0xbe38482b	-0.1799628
142	0xbd8760eb	-0.066102825
143	0x3b9204b1	0.0044561257
144	0xbdb95773	-0.09049883
145	0x3e2700c5	0.16308887
146	0xbdd7d143	-0.105379604
147	0xbe58c347	-0.21168242
148	0xbe1c381d	-0.1525578
149	0x3dccfbee	0.10008989
150	0x3ca5b0de	0.020225938
151	0x3b4f34da	0.0031617195
152	0x3dd4ea00	0.103961945
153	0xbe1001bf	-0.14063166
154	0x3de10b37	0.10988467
155	0x3d873564	0.0660198
156	0x3d8d2844	0.06892446
157	0x3e1debc8	0.15421975
158	0x3d9e7257	0.07736652
159	0xbc8139bf	-0.015774606
160	0x3e084315	0.1330684
161	0xbcaad668	-0.02085419
162	0xbe1c7a30	-0.15280986
163	0xbe22ea34	-0.15909654
164	0x3cb996dd	0.022654945
165	0xbe56289b	-0.20913927
166	0xbe1215bc	-0.14266104
167	0xbe5d6717	-0.21621357
168	0x3db8e467	0.09027939
169	0x3e4497f3	0.19198589
170	0xbe48f526	-0.19624767
171	0xbdfe9aba	-0.124318555
172	0xbdc842ad	-0.097783424
173	0xbdd2e59e	-0.10297702
174	0xbd4833c1	-0.04887748
175	0x3e06f935	0.13181002
176	0xbe3e63ab	-0.18592708
177	0xbe45a01e	-0.19299361
178	0xbdd59509	-0.10428817
179	0x3d7c6018	0.06161508
180	0x3c9e0f1e	0.019294318
181	0x3c4fd082	0.0126839895
182	0x3d21759c	0.0394188
183	0x3d5a5ed6	0.0533131
184	0xbe1ebac5	-0.15500934
185	0x3d1d7f04	0.03845121
186	0x3ca21fad	0.019790495
187	0x3dea3126	0.114351556
188	0xbe497faa	-0.19677606
189	0xbe151722	-0.14559606
190	0xbdde7cfa	-0.10863681
191	0xbe110952	-0.14163712
192	0xbdd454d9	-0.10367746
193	0xbdfdf587	-0.12400346
194	0x3d64f27c	0.055895314
195	0xbda60b82	-0.08107664
196	0xbe21c792	-0.15798786
197	0x3e174fd4	0.14776546
198	0xbe2b6ef6	-0.16741547
199	0xbe39a2d4	-0.1812852
200	0x3e3218cc	0.17392272
201	0xbe2d5022	-0.169251
202	0xbd82751d	-0.06369994
203	0x3d99fb8b	0.07518681
204	0x3e1630d2	0.14667061
205	0x3e0bcd4b	0.13652532
206	0xbd66f592	-0.056386538
207	0xbd655b70	-0.055995405
208	0x3cfd0072	0.030884001
209	0x3e3b8155	0.18311055
210	0x3dd2b9fb	0.10289379
211	0x3e2e9f94	0.17053062
212	0xbe063ba8	-0.13108695
213	0xbd4357b3	-0.04769106
214	0x3d8d664c	0.06904277
215	0xbd10cb8d	-0.03535037
216	0x3c9cc045	0.01913465
217	0xbd67680f	-0.056495722
218	0xbca816a2	-0.020518605
219	0x3d55120f	0.052019175
220	0x3c9bcd9e	0.019018944
221	0xbde1ddc3	-0.11028626
222	0x3e0c6c5b	0.1371321
223	0xbd63a4f7	-0.055577245
224	0x3e0a84ce	0.13527223
225	0xbb9a7afd	-0.0047143684
226	0x3d678cb5	0.056530673
227	0xbdb18949	-0.08668763
228	0xbdfc0fc6	-0.12307696
229	0xbda5f590	-0.08103478
230	0x3dfdfd21	0.12401796
231	0xbe5043e0	-0.20338392
232	0x3cefa90e	0.029255416
233	0xbdc51730	-0.09623563
234	0xbe101178	-0.14069164
235	0xbe0cb520	-0.13740969
236	0xbe56ee19	-0.20989265
237	0x3dec689f	0.115433924
238	0x3e0de4f8	0.13856876
239	0xbe15913d	-0.14606185
240	0xbe09df08	-0.13463986
241	0xbda2fd01	-0.07958413
242	0x3e39439a	0.18092194
243	0xbd9d4c10	-0.076805234
244	0x3dc7478b	0.097304426
245	0x3e1ed612	0.15511349
246	0xbc9cb39e	-0.019128617
247	0x3b5cb361	0.0033676254
248	0x3e589f0d	0.21154423
249	0xbd195394	-0.037433222
250	0x3e3acbb6	0.18241772
251	0xbdb7bab4	-0.08971158
252	0xbd0ad045	-0.033890028
253	0x3e1509f5	0.1455458
254	0x3e387086	0.18011674
255	0xbe3d97b8	-0.18514907

critic.fc1.bias f4 [256]
0	0x3e095b89	0.13413824
1	0x3dadaa0e	0.08479701
2	0xbdc86453	-0.0978476
3	0xbde5d446	-0.112221286
4	0x3b582d72	0.0032986072
5	0xbd352e07	-0.04423335
6	0xbe14a9af	-0.14517854
7	0x3d87d3f0	0.06632221
8	0x3da260d7	0.07928627
9	0x3e423658	0.18966043
10	0x3db8e8a4	0.09028748
11	0xbe413816	-0.18869051
12	0xbc654906	-0.013994461
13	0x3d0c49f9	0.034250233
14	0x3d1d8413	0.038456034
15	0x3daebb3b	0.08531805
16	0xbe3cd2f6	-0.1843985
17	0xbd7794cf	-0.06044465
18	0x3c274e6d	0.010211569
19	0xbe23e158	-0.1600393
20	0xbdbcd3b4	-0.09220067
21	0x3d4d0eba	0.050062872
22	0xbe01a97a	-0.12662306
23	0xbda6c137	-0.081423216
24	0x3db423ff	0.08795928
25	0xbe242612	-0.16030148
26	0xbdcb8bd0	-0.099387765
27	0x3e324804	0.17410284
28	0x3cb2938d	0.021798873
29	0x3e2d5652	0.1692746
30	0x3d70e607	0.05881312
31	0x3b9415e0	0.0045192093
32	0x3e300662	0.17189935
33	0xbdd695d7	-0.104777984
34	0xbdfa93c0	-0.12235212
35	0x3e207eb8	0.1567334
36	0x3d8dba88	0.06920344
37	0x3e046a9c	0.12931293
38	0x3cf15871	0.029461117
39	0xbe11f6e2	-0.14254335
40	0x3c9f445d	0.019441778
41	0x3c3b6d87	0.011439688
42	0xbe3cb9cd	-0.18430252
43	0xbd13b1b7	-0.036058154
44	0xbd1014d8	-0.03517613
45	0xbde07fea	-0.10961898
46	0x3e06e5e7	0.13173638
47	0x3e1cd658	0.1531614
48	0x3d64aab8	0.055826873
49	0xbd8e5e27	-0.06951552
50	0xbe1fcc05	-0.15605171
51	0xbc212659	-0.009835803
52	0x3e5255f2	0.20540598
53	0xbd7441a4	-0.059632912
54	0xbdd199ec	-0.102344364
55	0xbe567f05	-0.20946892
56	0xbe5735f7	-0.2101668
57	0x3e0c7e4e	0.13720056
58	0x3dedc00c	0.11608896
59	0x3d88aaa2	0.066731706
60	0x3d30839c	0.043094262
61	0x3cba0ab7	0.022710187
62	0xbde88686	-0.11353783
63	0x3dbf6253	0.09344926
64	0xbe2deff2	-0.16986063
65	0xbe4b62ed	-0.19861956
66	0x3df52357	0.11969631
67	0xbe3dec69	-0.18547215
68	0x3cb3ad8c	0.02193334
69	0x3d7ad27e	0.061235897
70	0xbe5c2517	-0.21498524
71	0xbe52506a	-0.20538488
72	0xbe3db377	-0.18525492
73	0xbc0b3664	-0.008496854
74	0xbddfc1d5	-0.109256424
75	0xbd05f547	-0.032704618
76	0x3df1b498	0.11802024
77	0x3de346f8	0.110975206
78	0x3e1a7a23	0.15085654
79	0x3c0bc4ac	0.008530777
80	0x3e547b5b	0.20750181
81	0x3cddf857	0.027095957
82	0x3dfad0f0	0.12246883
83	0xbddb8363	-0.107184194
84	0xbe19e742	-0.15029624
85	0x3e41cc0b	0.18925492
86	0x3dce7dc7	0.10082584
87	0x3e5a4568	0.21315539
88	0xbe27003b	-0.16308682
89	0x3de44af2	0.11147107
90	0xbdd226da	-0.102613166
91	0x3e3bf184	0.1835385
92	0xbe15864c	-0.14602011
93	0xbd540e13	-0.051771235
94	0xbe02fe87	-0.12792407
95	0x3e03f2e5	0.12885626
96	0xbd459907	-0.04824164
97	0xbd60e5aa	-0.054906525
98	0xbde7fe6a	-0.113278225
99	0x3e424d8b	0.18974893
100	0xbda98d1d	-0.08278868
101	0xbcbd7d46	-0.023131024
102	0x3e44534e	0.19172403
103	0x3dba8df8	0.0910911
104	0x3e553b59	0.2082342
105	0x3e56eb70	0.2098825
106	0xbd86b554	-0.06577554
107	0xbdd49683	-0.1038027
108	0x3d0dae2a	0.034589924
109	0xbe530a9e	-0.20609519
110	0xbe20df16	-0.157101
111	0xbe186eda	-0.14886037
112	0x3e47bf30	0.19506526
113	0x3dd680bc	0.10473773
114	0xbe3b592d	-0.18295737
115	0x3e30b5d9	0.1725687
116	0xbde44a0f	-0.11146938
117	0x3e1fecfd	0.15617748
118	0xbe39e0fe	-0.18152234
119	0xbe04d234	-0.12970811
120	0xbe46451b	-0.19362299
121	0x3c012ebf	0.00788468
122	0xbe545ab2	-0.20737723
123	0x3c1b6c9f	0.0094863465
124	0x3c69306e	0.014232738
125	0xbdb0f335	-0.08640138
126	0x3e59f43f	0.21284579
127	0xbdd96d65	-0.106165685
128	0xbdf9b7b9	-0.121932454
129	0x3e317f87	0.17333804
130	0xbdca815b	-0.09887954
131	0xbd23edaa	-0.040021576
132	0xbde7578c	-0.11295995
133	0xbdfeb9ff	-0.1243782
134	0xbe274b2c	-0.1633727
135	0x3da28a28	0.079365075
136	0xbd36fff4	-0.04467769
137	0x3e564961	0.2092643
138	0xbd90c1b5	-0.07068197
139	0xbe270991	-0.16312243
140	0x3e224b1b	0.15848963
141	0xbc929025	-0.017891
142	0xbe1f9a04	-0.15586096
143	0xbe18440c	-0.14869708
144	0xbe282129	-0.164189
145	0x3dcf1d9b	0.10113069
146	0x3ca706d0	0.02038899
147	0xbdc64d50	-0.09682715
148	0x3dfa5fa6	0.12225275
149	0xbcf3d030	-0.029762357
150	0x3d6ddddc	0.05807291
151	0xbe258fd5	-0.16168149
152	0x3dd7e9b8	0.10542625
153	0xbcd33fe6	-0.025787305
154	0xbdae9ad1	-0.08525623
155	0x3d9c3573	0.07627382
156	0x3e0a5b36	0.13511357
157	0xbe123c51	-0.14280821
158	0x3df1b860	0.11802745
159	0xbcb3351f	-0.021875916
160	0xbe107303	-0.14106373
161	0x3e2ed993	0.17075185
162	0xbd835b02	-0.06413843
163	0xbe3231a7	-0.17401753
164	0x3da95345	0.082678355
165	0x3cba930d	0.022775197
166	0x3e5e84fb	0.21730416
167	0x3db656f6	0.08903305
168	0xbd8393f2	-0.06424703
169	0xbe00badd	-0.12571283
170	0x3e444072	0.19165209
171	0xbdbce801	-0.09223939
172	0x3e52ef85	0.20599182
173	0x3e5b61d8	0.21424043
174	0x3c775f3e	0.015098391
175	0x3dda6cdf	0.10665297
176	0xbd26e7a5	-0.040748257
177	0xbd9e572a	-0.07731469
178	0x3df30bb3	0.11867466
179	0xbd2978f0	-0.0413751
180	0x3df04d6f	0.11733519
181	0xbd0af195	-0.033921797
182	0xbd28392b	-0.041070145
183	0xbc8407a9	-0.016116934
184	0x3d5d8715	0.054083902
185	0xbe48644b	-0.19569509
186	0x3cd3e8c0	0.02586782
187	0xbdd10246	-0.10205512
188	0xbe278b96	-0.16361842
189	0xbe0bc42f	-0.13649057
190	0xbdcc841c	-0.09986135
191	0xbe3d1414	-0.1846469
192	0x3e444033	0.19165115
193	0xbe25c657	-0.16188942
194	0xbdc2c473	-0.09510126
195	0xbe43d8da	-0.19125691
196	0xbbcc7a7a	-0.0062401863
197	0xbd9a7e59	-0.0754363
198	0xbc7686bb	-0.015046771
199	0x3e2041c7	0.15650092
200	0x3dee2902	0.11628915
201	0xbe0b24f1	-0.13588311
202	0xbe413dd9	-0.1887125
203	0xbccb0aab	-0.02478536
204	0xbe2697c6	-0.16268834
205	0x3e19aad6	0.15006575
206	0x3e4f937d	0.20271106
207	0x3e1b69d0	0.15177083
208	0xbe2117c9	-0.1573173
209	0x3e2b165d	0.1670775
210	0x3e16570e	0.14681646
211	0xbe52d61b	-0.20589487
212	0xbddc265b	-0.10749503
213	0x3e2e53da	0.17024174
214	0xbe54cde3	-0.20781665
215	0x3c441113	0.011966961
216	0xbe0799da	-0.13242283
217	0xbe57ffec	-0.2109372
218	0x3d28feee	0.041258745
219	0xbe0b9843	-0.13632302
220	0xbb8adb37	-0.004237558
221	0x3d8c72d9	0.06857843
222	0xbe425940	-0.18979359
223	0x3e315f06	0.17321405
224	0x3e0b5cb0	0.13609576
225	0xbe1153c6	-0.14192113
226	0xbdb2575b	-0.08708068
227	0xbe287fb9	-0.16454972
228	0xbe4729ff	-0.19449614
229	0x3c231deb	0.0099558635
230	0x3ce34f76	0.02774785
231	0xbdb46cc8	-0.08809811
232	0x3cac57f2	0.02103803
233	0xbdf1c625	-0.11805371
234	0xbd22f46f	-0.03978389
235	0x3e4ef969	0.2021233
236	0x3e49602d	0.19665594
237	0x3de16b8d	0.11006842
238	0x3da860e4	0.082216054
239	0xbcdfc90c	-0.027317546
240	0xbdfceacb	-0.12349471
241	0xbdfc5855	-0.123215355
242	0x3d9c1564	0.076212674
243	0x3da92ee5	0.082608975
244	0x3dfec6fc	0.12440297
245	0x3e230dc5	0.15923221
246	0xbe225680	-0.1585331
247	0x3e4995b4	0.19686013
248	0x3e0e71d1	0.13910605
249	0x3e3f4fb1	0.18682744
250	0xbcdf79bd	-0.027279729
251	0x3e0e596e	0.13901302
252	0xbc8de1d7	-0.017319603
253	0x3c18ca62	0.009325596
254	0x3e127b95	0.14304955
255	0xbe52cc03	-0.20585637
