server/policies/checkpoints/policy_2_700/model.pt (torch, 338258 bytes, 11 tensors)

actor.fc1.weight f4 [256, 21]
-0.16610408 -0.073411375 -0.18825173 -0.13407047 0.19718705 -0.09387579 0.056565512 -0.090349786
-0.07211355 0.21246406 -0.096310444 0.040035374 0.16350304 -0.15161481 -0.12938987 -0.14949068
-0.17889938 0.1410464 -0.074296005 -0.05899243 -0.020929676 0.08790719 0.12313319 0.21357746
-0.20329012 0.07908297 -0.055511303 -0.044592373 0.21271698 0.17073178 0.02844087 0.21256332
-0.21115156 0.12705582 -0.039925035 -0.21491346 -0.10596666 -0.13048019 -0.20086642 0.15442649
-0.1637948 0.0049643447 0.0077374442 -0.03948714 -0.07096966 0.05345708 0.19419722 0.017377364
0.078618936 0.020772154 -0.09442218 0.09867582 0.0050951373 0.11469306 -0.024628807 -0.1371814
-0.020675793 0.028022725 0.07237117 -0.18092418 0.18473527 0.21382001 0.0072551407 0.013976638
-0.19262949 -0.14098158 -0.10463553 -0.08608355 0.16405071 -0.09871292 -0.2119502 -0.1630486
-0.03528607 -0.17172857 0.17662582 0.13822648 -0.13563669 0.007161511 -0.069584675 -0.047141276
-0.11661222 0.08665802 0.20707096 -0.18506277 0.08612796 0.12824513 -0.10325546 -0.004390347
0.17386098 -0.19306694 0.101787336 0.17609058 -0.21506712 0.15973237 -0.17977084 -0.006092372
-0.07862836 0.13111827 -0.031427152 -0.021244468 0.071591824 -0.1267106 -0.19746596 -0.080628015
0.21419714 0.124950334 -0.024238735 -0.15405023 0.17611395 0.079195015 -0.0314903 0.070990585
-0.03285463 -0.0021106335 0.15003742 -0.035783052 0.05615152 0.039933283 0.18138506 -0.21062148
-0.0077188136 -0.10335073 -0.025362823 -0.0989149 -0.11256584 0.19454367 0.05690203 0.05267309
-0.16055991 0.14590393 0.012050475 -0.17558023 -0.041788638 -0.12235427 -0.21147582 0.02133856
-0.14061762 -0.08455747 -0.10941728 0.17382507 -0.05926513 0.136411 0.07195406 0.10292891
-0.1698693 -0.06783691 0.0067947116 0.18736872 -0.06753397 0.21072526 -0.056317326 0.04102638
0.095086336 -0.020798419 0.20652886 -0.025476996 0.10078268 -0.062011246 0.07985998 0.21028852
-0.06619589 -0.060217015 -0.12620783 0.03105172 -0.0017784137 0.026400942 -0.096595585 0.011887014
-0.02313337 -0.20563461 -0.05818454 -0.15829241 0.0076816967 0.042410478 -0.20459855 -0.15847708
-0.037133105 0.075644195 -0.104275785 -0.20251578 0.067143634 -0.05813209 0.1296284 0.08649283
0.1350676 0.02222687 -0.14045598 0.105581224 -0.009199118 0.1658811 -0.09593418 -0.0052972734
-0.19381988 -0.042892974 -0.15358682 0.19291301 -0.21208875 -0.1682755 0.080758825 -0.16271837
0.05564407 -0.21359028 0.18761574 -0.17291643 -0.062899224 0.07136302 -0.09282365 0.028808448
-0.09756562 0.2163804 -0.05850112 -0.1896032 -0.21478002 0.05995032 -0.113546535 0.21263447
-0.07924722 0.118998714 -0.048481196 -0.1977989 -0.19870508 -0.1609279 -0.17650016 0.11493604
-0.09769855 0.017467516 -0.14904928 -0.1835298 0.03245733 0.061523832 0.18289046 -0.13963202
0.2160898 -0.03293803 -0.20445086 0.19059022 0.016299944 0.019356227 -0.07884603 0.117638655
-0.017214786 -0.16913998 -0.16738653 0.04242518 -0.14614573 0.057955805 -0.072223246 0.15172386
-0.18649104 -0.094125174 -0.15482423 0.10079096 -0.12802619 -0.09278078 -0.10002038 -0.16859673
00000000: 3017 2abe b458 96bd 10c5 40be c549 09be
00000010: 67eb 493e f341 c0bd 3db1 673d 4f09 b9bd
00000020: 45b0 93bd 2e90 593e 693e c5bd 22fc 233d
00000030: 576d 273e ea40 1bbe c77e 04be 1614 19be
00000040: 6631 37be 786e 103e 8128 98bd 0ca2 71bd
00000050: b674 abbc af08 b43d 412d fc3d 0db4 5a3e
00000060: 492b 50be 41f6 a13d d25f 63bd 7ea6 36bd
00000070: 7bd2 593e 50d4 2e3e d4fc e83c 33aa 593e
00000080: 1d38 58be ec1a 023e 6f88 23bd 4612 5cbe
00000090: 0c05 d9bd 999c 05be edaf 4dbe fa21 1e3e
000000a0: d3b9 27be f1ab a23b 638a fd3b 44bd 21bd
000000b0: 8b58 91bd d0f5 5a3d a3db 463e f95a 8e3c
000000c0: f702 a13d 5d2a aa3c 6a60 c1bd 8c16 ca3d
000000d0: 1cf5 a63b 32e4 ea3d 5ac2 c9bc 4879 0cbe
000000e0: 4860 a9bc ea8f e53c 5637 943d 3044 39be
000000f0: 3e2b 3d3e a2f3 5a3e 88bc ed3b 45fe 643c
00000100: aa40 45be 7a5d 10be 274b d6bd 924c b0bd
00000110: e9fc 273e 002a cabd 7909 59be 36f6 26be
00000120: 2088 10bd 9dd9 2fbe 66dd 343e 3e8b 0d3e
00000130: 58e4 0abe 1cab ea3b 6982 8ebd 3617 41bd
00000140: 63d2 eebd c379 b13d 690a 543e 1881 3dbe
00000150: db63 b03d b152 033e 9977 d3bd e6dc 8fbb
00000160: 9d08 323e 57b3 45be e175 d03d 1751 343e
00000170: 8e3a 5cbe e290 233e d915 38be 85a2 c7bb
00000180: e807 a1bd de43 063e c2b9 00bd e108 aebc
00000190: bc9e 923d 6cc0 01be 8434 4abe 4d20 a5bd
000001a0: 7f56 5b3e f6e5 ff3d 5090 c6bc 58bf 1dbe
000001b0: 3757 343e ff30 a23d f9fb 00bd 8363 913d
000001c0: 9492 06bd 8e52 0abb 69a3 193e 4091 12bd
000001d0: 23ff 653d 1591 233d 01bd 393e 28ad 57be
000001e0: 1aee fcbb 8ca9 d3bd b2c5 cfbc e593 cabd
000001f0: eb88 e6bd 7536 473e 1a12 693d bdbf 573d
00000200: d169 24be d767 153e 5b6f 453c 4ecb 33be
00000210: 902a 2bbd e094 fabd 1e8d 58be 34ce ae3c
00000220: 11fe 0fbe 782c adbd 2b16 e0bd 33ff 313e
00000230: febf 72bd 53af 0b3e a65c 933d 64cc d23d
00000240: 38f2 2dbe 14ee 8abd 2ca6 de3b 96dd 3f3e
00000250: 404f 8abd 5dc8 573e ffac 66bd 470b 283d
00000260: a0bc c23d 7261 aabc 4d7c 533e 22b5 d0bc
00000270: 2667 ce3d 81ff 7dbd a18d a33d e055 573e
00000280: b691 87bd 1ea6 76bd a03c 01be 2d60 fe3c
00000290: a919 e9ba ca46 d83c e8d3 c5bd c0c1 423c
000002a0: 3182 bdbc e191 52be ea52 6ebd 6817 22be
000002b0: beb6 fb3b 9cb6 2d3d 4882 51be d147 22be
000002c0: e218 18bd 58eb 9a3d 8b8e d5bd 4c60 4fbe
000002d0: 9a82 893d ea1b 6ebd 4fbd 043e 2723 b13d
000002e0: 294f 0a3e 2015 b63c b1d3 0fbe f83a d83d
000002f0: e6b7 16bc bcdc 293e 2479 c4bd c094 adbb
00000300: b878 46be 8bb0 2fbd dd45 1dbe fd8a 453e
00000310: cb2d 59be 6a50 2cbe e264 a53d a59f 26be
00000320: 09eb 633d 69b7 5abe 571e 403e 0111 31be
00000330: 4fd1 80bd c626 923d 531a bebd b2ff eb3c
00000340: 7cd0 c7bd d392 5d3e df9e 6fbd 5727 42be
00000350: 4bef 5bbe 778e 753d 168b e8bd dabc 593e
00000360: 5e4c a2bd 99b5 f33d 3894 46bd cb8b 4abe
00000370: 5879 4bbe 49ca 24be 75bc 34be 9663 eb3d
00000380: 2d16 c8bd 0918 8f3c 60a0 18be 3cef 3bbe
00000390: faf1 043d 6a00 7c3d a347 3b3e b2fb 0ebe
000003a0: a546 5d3e 07ea 06bd 915b 51be 152a 433e
000003b0: 7687 853c f390 9e3c 077a a1bd 89ec f03d
000003c0: 0606 8dbc 0833 2dbe 6067 2bbe 07c6 2d3d
000003d0: 3aa7 15be 1163 6d3d c8e9 93bd 805d 1b3e
000003e0: 82f7 3ebe b3c4 c0bd 3e8a 1ebe 7e6b ce3d
000003f0: 4c19 03be d903 bebd 7cd7 ccbd 9fa4 2cbe

actor.fc1.bias f4 [256]
-0.07653461 -0.054105684 0.10459136 0.16458467 0.09149039 0.14744148 -0.0124390125 -0.023030633
0.019382466 -0.18498749 0.059831172 0.01360525 -0.20921966 0.03973965 -0.02751915 0.14738405
-0.17192364 0.1455426 -0.0021067061 -0.1528028 0.09434697 -0.07994115 0.12219671 0.044054408
-0.06780777 0.016925888 0.036904752 -0.1482418 -0.101361476 0.033006597 -0.11046337 0.20937553
-0.07335837 0.03942709 -0.047512524 -0.022441031 -0.1733917 0.18790197 0.0398206 0.13665348
0.067279845 0.06867732 -0.17936933 0.053254545 0.17369372 0.15657252 0.12151221 -0.1885015
-0.14174016 -0.10426655 0.19905737 -0.20657486 -0.028187057 -0.03446156 -0.073946185 -0.06697231
-0.13444784 0.03745251 -0.08769988 -0.017150318 0.18042211 0.084431775 -0.08716785 -0.041332662
-0.14918613 0.16791672 -0.14008069 0.016375376 0.109402955 -0.04735976 -0.00681271 0.11190562
0.022968626 -0.052346386 0.15851624 -0.04612681 -0.08607858 -0.08206311 -0.1660569 -0.020157812
-0.09397838 0.1130694 0.10082258 0.16159971 -0.14767182 -0.019095818 0.20864543 -0.010387842
0.000995736 0.029274462 -0.19200438 0.08448139 0.17126082 -0.19150601 -0.035732903 -0.13842766
0.14125547 -0.08098216 -0.11133366 0.13267536 0.13091382 0.0996475 0.11474837 0.1617334
0.20925364 0.029328542 -0.0350614 -0.19030909 -0.11239911 -0.20678902 -0.16882704 0.1845905
0.15042719 -0.16917218 0.20064186 0.038249195 -0.0045412835 -0.13358243 0.07358187 0.09311362
-0.028764285 -0.00266417 -0.02309328 0.1227793 -0.03161976 -0.08244472 -0.20931034 -0.13400546
0.17161621 -0.1392743 0.16708586 0.08575927 -0.18937263 0.05888922 0.10690078 0.12645833
-0.15390036 0.019903615 0.21896353 0.04689093 -0.16258843 -0.17461541 0.027013343 0.048219778
0.20244797 0.20982909 0.027800582 0.07851066 0.10649127 -0.040268928 -0.17237402 0.12243878
-0.12889329 -0.19376801 -0.20134032 -0.17878053 0.088864654 0.1775909 0.14588608 -0.09123126
-0.0048220274 -0.13443668 -0.09680195 -0.1600272 0.06816648 0.058606658 0.00783125 -0.11816395
0.1553935 0.07704856 0.11916628 0.029534658 0.21484157 -0.044685837 0.0061515346 0.017760329
-0.037915975 0.061795097 -0.09638777 0.13280828 -0.08727203 -0.09579291 0.109070085 0.018333161
0.03501567 0.054970775 0.15378127 0.0726507 -0.09999119 -0.12509026 -0.12061529 0.08453385
-0.02362685 -0.13172722 -0.10200741 0.20852546 0.18594678 -0.20861273 0.18236463 -0.1286052
0.178089 0.029143944 0.08734467 0.11302724 -0.19413188 -0.12614258 -0.16319187 -0.05446349
0.13274358 -0.19809629 0.20707399 -0.026813583 0.19940332 0.13476008 -0.115633085 -0.1052324
0.11796825 -0.14262262 -0.12565573 0.09299134 0.156625 0.119604595 0.0209691 -0.08087478
0.1308495 -0.153214 -0.1641732 0.12383948 -0.054957002 0.09808654 -0.14925607 0.09598585
-0.20297414 -0.2083302 -0.038764577 -0.04862105 0.016602073 0.14510429 -0.034316666 -0.1445866
-0.10025601 -0.03146511 -0.025876453 -0.091160536 -0.17940946 -0.07636882 0.21125065 -0.0015868688
0.1870465 0.099641606 0.03738704 0.060167614 -0.08187764 0.012208668 -0.10330813 -0.13216765
00000000: 2dbe 9cbd ec9d 5dbd ff33 d63d e288 283e
00000010: 505f bb3d e6fa 163e 00cd 4bbc bdaa bcbc
00000020: fac7 9e3c 5c6d 3dbe 8811 753d 8ee8 5e3c
00000030: ae3d 56be 0bc6 223d d76f e1bc d8eb 163e
00000040: c00c 30be 1f09 153e aa10 0abb 5678 1cbe
00000050: fc38 c13d 30b8 a3bd 4542 fa3d 6572 343d
00000060: cdde 8abd 29a8 8a3c 7029 173d b3cc 17be
00000070: 9b96 cfbd ed31 073d 9f3a e2bd 8a66 563e
00000080: ea3c 96bd 4d7e 213d 7e9c 42bd 41d6 b7bc
00000090: 988d 31be 6069 403e ed1a 233d e4ee 0b3e
000000a0: 04ca 893d b2a6 8c3d 98ac 37be 7021 5a3d
000000b0: c4dc 313e 8c54 203e 65db f83d 8a06 41be
000000c0: 5524 11be b389 d5bd b2d5 4b3e 5c88 53be
000000d0: 8be8 e6bc 9127 0dbd 1971 97bd c728 89bd
000000e0: b2ac 09be ce67 193d ff9b b3bd d37e 8cbc
000000f0: 93c0 383e 91ea ac3d 0f85 b2bd 704c 29bd
00000100: 40c4 18be 5cf2 2b3e 5071 0fbe a725 863c
00000110: a80e e03d 4ffc 41bd 273d dfbb c62e e53d
00000120: b328 bc3c 2a69 56bd 1552 223e 77ef 3cbd
00000130: f749 b0bd b410 a8bd d20a 2abe ff21 a5bc
00000140: bd77 c0bd ee90 e73d 127c ce3d 657a 253e
00000150: 4837 17be d56e 9cbc 26a7 553e c431 2abc
00000160: 5b83 823a ffd0 ef3c cc9c 44be 9404 ad3d
00000170: ff5e 2f3e 271a 44be aa5c 12bd fbbf 0dbe
00000180: 46a5 103e fad9 a5bd e702 e4bd 0ddc 073e
00000190: 460e 063e fd13 cc3d 3201 eb3d 719d 253e
000001a0: 9646 563e 6942 f03c 8b9c 0fbd 63e0 42be
000001b0: 8131 e6bd 80c0 53be ffe0 2cbe 4b05 3d3e
000001c0: 9609 1a3e 793b 2dbe 0f75 4d3e 30ab 1c3d
000001d0: 0ccf 94bb d5c9 08be 17b2 963d 5bb2 be3d
000001e0: 14a3 ebbc 5b99 2ebb 1e2e bdbc b773 fb3d
000001f0: b983 01bd c7d8 a8bd 7355 56be ba38 09be
00000200: 29bc 2f3e ec9d 0ebe 8e18 2b3e 8ea2 af3d
00000210: e6ea 41be d335 713d ccee da3d 4b7e 013e
00000220: 0e98 1dbe e80c a33c fa37 603e b410 403d
00000230: 957d 26be 62ce 32be 164b dd3c 1a82 453d
00000240: 854e 4f3e 70dd 563e 0cbe e33c 32ca a03d
00000250: 1818 da3d 08f1 24bd d182 30be 2fc1 fa3d
00000260: 9afc 03be 1f6b 46be 282c 4ebe 3e12 37be
00000270: acfe b53d 64da 353e 2963 153e 74d7 babd
00000280: 1902 9ebb c5a9 09be 1a40 c6bd 2cde 23be
00000290: de9a 8b3d 890d 703d a54e 003c f1ff f1bd
000002a0: 791f 1f3e a3cb 9d3d 730d f43d abf2 f13c
000002b0: 6eff 5b3e 7f08 37bd d092 c93b 1c7e 913c
000002c0: c84d 1bbd db1c 7d3d f366 c5bd e5fe 073e
000002d0: aebb b2bd 132f c4bd 2360 df3d 6d2f 963c
000002e0: 976c 0f3d 0929 613d d678 1d3e e4c9 943d
000002f0: 2ec8 ccbd a917 00be 2605 f7bd 1520 ad3d
00000300: 198d c1bc 80e3 06be 43e9 d0bd b387 553e
00000310: d568 3e3e 939e 55be cbbd 3a3e 15b1 03be
00000320: f65c 363e 48bf ee3c c3e1 b23d d37a e73d
00000330: 82ca 46be 852b 01be c51b 27be 1c15 5fbd
00000340: efed 073e c1d9 4abe 340b 543e 29a8 dbbc
00000350: 6230 4c3e 8cfe 093e 0ad1 ecbd 1684 d7bd
00000360: 5699 f13d aa0b 12be e5ab 00be 3e72 be3d
00000370: 4e62 203e 41f3 f43d 64c7 ab3c ada1 a5bd
00000380: 69fd 053e 21e4 1cbe 051d 28be 8e9f fd3d
00000390: 981a 61bd 99e1 c83d 95d6 18be 3b94 c43d
000003a0: 74d8 4fbe 8354 55be 9bc7 1ebd de26 47bd
000003b0: 1201 883c 3896 143e a28f 0cbd 820e 14be
000003c0: 0653 cdbd 8fe1 00bd dbfa d3bc 60b2 babd
000003d0: 1db7 37be 4267 9cbd 1752 583e 7bfe cfba
000003e0: 1e89 3f3e e610 cc3d 2723 193d 5172 763d
000003f0: 77af a7bd dd06 483c 3693 d3bd f556 07be

actor.fc2.weight f4 [128, 256]
0.055543426 -0.04114889 -0.04058619 0.048353128 -0.02318997 -0.0012140041 -0.0027589474 -0.0007075922
0.038172007 0.032414507 0.034362677 0.03734453 -0.05716541 -0.051758964 0.008008024 -0.04686072
-0.0019552233 -0.04256516 -0.0106725395 0.04387922 0.04778448 0.02655916 0.03816414 -0.025126437
0.008884868 0.01763819 0.022500442 0.0019985912 -0.05274105 -0.05079087 -0.039806083 0.04511878
0.0059593758 0.039295975 0.033103738 -0.028855395 0.048810456 0.012118576 0.0067077423 0.042913638
-0.055171356 -0.057220574 -0.015267866 -0.019378982 -0.034640543 0.001326917 0.016460164 -0.04461077
-0.037263554 0.05692109 0.03394071 0.053468987 0.012464704 0.038936432 -0.046381664 -0.052768547
0.011374986 -0.021264942 0.06074739 0.009902161 0.031227162 -0.02183384 -0.04462479 0.011364814
-0.04629698 -0.00615302 -0.022770526 -0.028722104 -0.03580089 -0.026526116 0.0222984 -0.04409328
0.034640018 -0.056338362 0.018286953 -0.04498444 -0.0018608046 -0.0015643204 0.012559493 0.028057383
0.034487072 -0.023896681 0.00041344727 -0.01285752 0.01234323 -0.04044854 0.0038127895 0.058258492
0.048582423 0.015464038 0.04267066 -0.047907338 -0.037597142 -0.0050202333 0.02113812 -0.014429116
0.053785633 0.018090824 0.031587157 -0.06114818 0.027721668 -0.048605464 0.0063624345 0.039850354
0.017280072 0.06211747 0.030759847 0.050524823 -0.043495305 0.026958203 -0.025807021 0.03618509
-0.022650117 -0.02599569 -0.052926056 -0.038991828 -0.016478166 -0.054653645 -0.043620605 0.026586553
-0.046602238 0.022872303 0.040997263 0.008225867 -0.048982725 0.045904312 -0.036382597 0.028583735
0.047336813 -0.0046268916 0.057632934 -0.009950723 0.034988143 0.053132035 -0.0067817336 -0.039519377
0.036020003 -0.054268997 -0.008821888 0.023537716 -0.008723363 0.003883204 -0.009325183 -0.0067899004
0.021456892 0.007472666 0.045244094 0.027044099 -0.034652267 0.01416149 -0.0058839396 0.014603579
0.042092204 0.018209714 0.0036923548 -0.022819031 -0.011014998 0.056609076 0.035354644 -0.04640043
-0.04748334 -0.05104288 -0.05056675 -0.05230807 -0.020311926 -0.025749262 -0.043673567 -0.03487664
0.028088184 -0.012109952 -0.0073095597 0.061708637 0.05723097 -0.012819829 0.01899333 -0.0096645225
-0.0030940012 0.0023195352 0.023522515 -0.05216079 0.0312621 0.058709882 -0.039348736 -0.004923883
0.02841787 -0.04932894 0.0020762123 0.051787984 0.009289249 -0.016291331 0.03660927 -0.001802233
0.056816086 0.022519866 0.061397705 0.022527128 -0.0295225 -0.05073166 -0.060181737 0.029811831
-0.019052595 -0.022134138 0.046658006 -0.011655495 -0.042602018 0.020990694 0.008207809 0.011148585
0.015809897 -0.006281062 -0.028766902 0.048737768 0.002077856 0.031973433 0.002573777 0.019765293
-0.03076434 0.0033555445 -0.05626562 -0.004493873 -0.012347212 -0.046734065 -0.008685069 -0.059164815
-0.026993237 -0.023070497 -0.0031583598 -0.012475879 -0.054172788 -0.037711825 -0.03487017 0.0058189416
0.013277032 -0.032195102 -0.035115924 -0.014347711 0.021860769 -0.0013741376 -0.01590037 -0.013016931
-0.009739923 -0.043242503 -0.034835964 -0.03531567 0.028481543 0.042006087 0.015125582 -0.034636877
0.0072132465 0.057295453 0.051398467 0.050750576 0.015715593 -0.014254509 -0.054286957 -0.01477395
00000000: 8181 633d bd8b 28bd b43d 26bd ee0d 463d
00000010: e4f8 bdbc 381f 9fba 75cf 34bb b57d 39ba
00000020: 405a 1c3d 13c5 043d e1bf 0c3d 94f6 183d
00000030: 4726 6abd 3501 54bd 1634 033c 07f1 3fbd
00000040: 3423 00bb ce58 2ebd e0db 2ebc b2ba 333d
00000050: a9b9 433d 9892 d93c 0052 1c3d f5d5 cdbc
00000060: d691 113c f77d 903c d952 b83c ccfa 023b
00000070: 0007 58bd 160a 50bd b40b 23bd 78ce 383d
00000080: de46 c33b d1f4 203d c997 073d 2662 ecbc
00000090: 79ed 473d fe8c 463c 9fcc db3b 36c6 2f3d
000000a0: 5cfb 61bd 1f60 6abd 1226 7abc acc0 9ebc
000000b0: 3ee3 0dbd f2eb ad3a 77d7 863c c8b9 36bd
000000c0: aba1 18bd 1726 693d 6a05 0b3d 4c02 5b3d
000000d0: c238 4c3c cf7b 1f3d b3fa 3dbd d523 58bd
000000e0: 265e 3a3c d133 aebc 41d2 783d ac3c 223c
000000f0: 1bd0 ff3c e2dc b2bc 7cc8 36bd 7c33 3a3c
00000100: e7a1 3dbd 469f c9bb 4189 babc 9e4a ebbc
00000110: f4a3 12bd 4c4d d9bc 22ab b63c 289b 34bd
00000120: b1e2 0d3d 0ec3 66bd 85ce 953c 9b41 38bd
00000130: 3ee6 f3ba e209 cdba 55c6 4d3c 99d8 e53c
00000140: 5142 0d3d f9c2 c3bc f4c3 d839 59a8 52bc
00000150: 423b 4a3c 5ead 25bd fedf 793b 75a0 6e3d
00000160: 5dfe 463d e05c 7d3c 6ec7 2e3d 7c3a 44bd
00000170: 76ff 19bd c580 a4bb da29 ad3c 1968 6cbc
00000180: 534e 5c3d 3533 943c 8961 013d 8476 7abd
00000190: 8d18 e33c 8616 47bd f87b d03b 203a 233d
000001a0: f08e 8d3c e36e 7e3d 13fc fb3c 1ef3 4e3d
000001b0: 2228 32bd 73d7 dc3c 3f69 d3bc d136 143d
000001c0: bd8c b9bc eaf4 d4bc fec8 58bd e5b5 1fbd
000001d0: 38fd 86bc 80dc 5fbd 85ab 32bd 0bcc d93c
000001e0: fde1 3ebd b25e bb3c bfec 273d c9c5 063c
000001f0: 1ca2 48bd 2906 3c3d eb05 15bd 7028 ea3c
00000200: 3fe4 413d 2e9d 97bb 8310 6c3d 5b08 23bc
00000210: ba4f 0f3d faa0 593d 4e39 debb 12df 21bd
00000220: b689 133d 2b49 5ebd ae89 10bc 2bd2 c03c
00000230: 70ec 0ebc 5a7d 7e3b a7c8 18bc d07d debb
00000240: 5dc6 af3c 44dd f43b df51 393d 968b dd3c
00000250: 89ef 0dbd 9805 683c 10ce c0bb da43 6f3c
00000260: e068 2c3d 8a2c 953c 6ffb 713b faee babc
00000270: 4078 34bc ebde 673d 08d0 103d 610e 3ebd
00000280: e47d 42bd 5712 51bd 151f 4fbd fd40 56bd
00000290: 3265 a6bc 1ef0 d2bc 0ee3 32bd cfda 0ebd
000002a0: 3119 e63c d268 46bc 0885 efbb 32c2 7c3d
000002b0: 066b 6a3d 430a 52bc e697 9b3c f257 1ebc
000002c0: bac4 4abb 5803 183b 4ab2 c03c 8da6 55bd
000002d0: b00c 003d c679 703d 242c 21bd 8658 a1bb
000002e0: 98cc e83c 250d 4abd 1011 083b a31f 543d
000002f0: ef31 183c 6675 85bc 9af3 153d e838 ecba
00000300: fcb7 683d 957b b83c 297c 7b3d d08a b83c
00000310: 2bd9 f1bc 00cc 4fbd 2081 76bd f137 f43c
00000320: 3014 9cbc a752 b5bc 771c 3f3d b0f6 3ebc
00000330: 747f 2ebd adf4 ab3c 0c7a 063c 8ea8 363c
00000340: c283 813c 5ed1 cdbb 91a8 ebbc 41a1 473d
00000350: a42c 083b 93f6 023d d0ac 283b d3ea a13c
00000360: 7f05 fcbc b2e8 5b3b c776 66bd 5741 93bb
00000370: f64b 4abc 386c 3fbd d24b 0ebc ce56 72bd
00000380: ec20 ddbc 57fe bcbc 7cfc 4ebb a167 4cbc
00000390: 49e4 5dbd b777 1abd 06d4 0ebd d2ac be3b
000003a0: e987 593c 03df 03bd b7d5 0fbd a912 6bbc
000003b0: 5b15 b33c 681c b4ba 7e41 82bc f744 55bc
000003c0: 3394 1fbc 0d1f 31bd 28b0 0ebd 2aa7 10bd
000003d0: 2052 e93c 930e 2c3d 4ad1 773c 66df 0dbd
000003e0: 195d ec3b a3ae 6a3d 3387 523d d6df 4f3d
000003f0: fdbd 803c be8b 69bc 005c 5ebd 700e 72bc

actor.fc2.bias f4 [128]
-0.03529902 0.000542191 0.03377722 -0.00981743 0.06149601 0.019016378 -0.005581025 0.01309405
0.03816995 0.032929588 0.033571433 0.004157734 0.016397156 0.004461945 -0.024695551 0.0021064796
-0.05441924 0.057733033 0.0338305 0.062319886 -0.010267171 0.011799488 0.03522766 -0.049135696
0.020751277 -0.043423135 -0.018303353 0.030545255 0.046091307 -0.044747323 -0.051418673 0.0030334014
0.042456012 -0.046321917 -0.05843801 0.040408205 -0.0051993444 0.036559068 0.04217817 0.044144478
0.028453493 -0.0026295695 -0.02912496 -0.04670962 0.023628227 -0.040984984 -0.019153595 -0.033369564
0.0060378076 0.018255934 0.02080258 -0.03076371 0.053177368 -0.035821594 -0.038971726 -0.015978469
0.035114504 0.02653699 0.0508184 -0.02098803 -0.036286954 -0.05700819 0.03587582 0.062383577
-0.01574835 0.05287247 0.05261361 0.004534429 0.041519135 -0.024634024 -0.035723135 0.02349205
0.03699333 0.039896395 0.041235454 -0.05904938 -0.055300765 -0.037596304 0.041681964 0.01575169
0.010479677 0.03851836 0.05883517 -0.05085548 -0.025337877 -0.042993456 -0.024010107 0.034166064
-0.06092042 0.010929359 -0.043170813 -0.029891068 -0.011653343 -0.03884754 -0.025843881 -0.040098667
0.05965681 -0.0508606 0.05998765 -0.040116496 -0.0041495026 0.022137163 -0.053639 0.062094133
-0.054182928 0.050008103 -0.028598102 0.03767956 0.028042689 -0.028554294 0.051077098 -0.012091398
0.029122042 0.02469691 -0.0052951807 -0.009463408 -0.017838374 0.0062354896 0.055082444 0.036908615
-0.039038196 -0.00042240077 0.049878202 -0.04300711 0.013136057 0.0063279755 0.0061201276 -0.038508732
00000000: b595 10bd d221 0e3a fb59 0a3d 49d9 20bc
00000010: 3de3 7b3d 3cc8 9b3c 08e1 b6bb 6d88 563c
00000020: 1858 1c3d 2de1 063d 3382 093d 9a3d 883b
00000030: 5453 863c 8235 923b 534e cabc dd0c 0a3b
00000040: b6e6 5ebd 7979 6c3d da91 0a3d 2343 7f3d
00000050: a337 28bc a452 413c e14a 103d 8342 49bd
00000060: 95fe a93c 75dc 31bd eaf0 95bc 0b3a fa3c
00000070: 3dca 3c3d f848 37bd 639c 52bd 08cc 463b
00000080: 5be6 2d3d 0dbc 3dbd b25c 6fbd 1383 253d
00000090: 435f aabb f6be 153d 04c3 2c3d d7d0 343d
000000a0: 4d17 e93c db54 2cbb 7897 eebc 9652 3fbd
000000b0: fc8f c13c dfdf 27bd 00e8 9cbc 86ae 08bd
000000c0: cdd8 c53b 788d 953c 2c6a aa3c 2d04 fcbc
000000d0: 83d0 593d aab9 12bd d1a0 1fbd 47e5 82bc
000000e0: 3ad4 0f3d 1a64 d93c f426 503d 17ef abbc
000000f0: a1a1 14bd 6b81 69bd 86f2 123d ec85 7f3d
00000100: af02 81bc ce90 583d 5e81 573d 8c95 943b
00000110: f80f 2a3d 4bcd c9bc 6c52 12bd 6672 c03c
00000120: 5186 173d 676a 233d 82e6 283d c3dd 71bd
00000130: 0e83 62bd 95fe 19bd b5ba 2a3d b009 813c
00000140: f3b2 2b3c 6ec5 1d3d 26fd 703d d64d 50bd
00000150: 6191 cfbc e819 30bd d8b0 c4bc b7f1 0b3d
00000160: b187 79bd 0e11 333c e1d3 30bd 1dde f4bc
00000170: aaed 3ebc 991e 1fbd 8cb6 d3bc 803e 24bd
00000180: b35a 743d 3453 50bd 9cb5 753d 3251 24bd
00000190: 8df8 87bb ff58 b53c 91b4 5bbd 6b56 7e3d
000001a0: ebee 5dbd 4cd5 4c3d 9146 eabc e255 1a3d
000001b0: c8b9 e53c b2ea e9bc 3836 513d 001b 46bc
000001c0: 5991 ee3c 2d51 ca3c 3283 adbb 690c 1bbc
000001d0: c821 92bc 1453 cc3b 219e 613d 7d2d 173d
000001e0: 84e6 1fbd ac75 ddb9 164d 4c3d 3928 30bd
000001f0: 9e38 573c e85a cf3b 5a8b c83b 55bb 1dbd

actor.policy_head.weight f4 [50, 128]
0.025728362 0.020421848 0.03613143 0.026036505 0.07952455 -0.02486944 0.051069677 0.03634253
-0.07627039 0.071581066 -0.022888482 0.033475157 -0.07382281 -0.0102769695 0.066962145 -0.02405849
0.087163664 -0.060746294 0.056743883 0.08197502 -0.022267396 -0.0812998 -0.046398625 0.008505167
-0.021608366 -0.08704784 -0.082604975 0.015286235 0.022304654 0.052521188 0.08835789 0.011520677
0.05454864 -0.06349102 0.02130039 0.05162056 0.025954118 -0.054287363 -0.01594657 0.007092736
0.038791735 -0.0013804719 0.021388793 0.02926626 0.030390237 -0.08736664 0.01407963 0.04631814
0.078584656 -0.07091927 0.011134001 -0.018855011 0.071978144 0.014953381 -0.07763856 0.038759895
-0.0018150652 -0.059272673 0.04629476 0.080110475 0.052694105 -0.06678337 0.036212604 0.026193967
-0.05224797 0.07495049 0.078623764 0.006556582 0.082156815 0.06804062 0.04487501 -0.014592481
0.015660513 0.07045894 -0.0184028 0.06905768 -0.053098757 0.05953167 -0.057712145 0.06955312
0.024949808 0.049046315 -0.04889399 0.08145594 0.045930546 0.067691185 0.08420069 0.07763817
-0.0137288775 -0.08573195 -0.06673763 0.013625773 0.020393252 -0.01686083 0.067916125 0.042405035
-0.012506999 0.04117042 -0.07730074 0.041232713 0.01388148 0.003240913 -0.013822254 -0.06518819
0.0038947582 0.028536014 0.016136363 0.049936447 -0.0573058 0.005889976 -0.04688907 -0.07757437
0.06602698 -0.07029899 -0.035133008 0.07148168 -0.05955615 -0.03363908 -0.004877386 0.024869896
-0.041423973 0.050293062 -0.028434498 0.073297195 0.08694076 0.0447131 -0.0063933437 0.0833656
0.029660845 0.05150771 0.081132434 -0.0744829 -0.08329329 0.037913624 -0.054392368 0.049547557
-0.024701811 -0.07946765 -0.06485134 0.068289325 0.023505244 0.060384933 -0.059806094 0.045356717
0.01439818 0.07361505 -0.0026644436 0.019631049 0.0738286 0.06264195 0.005705474 -0.07991198
0.020186733 0.032296184 0.006858024 0.009311375 0.04265539 0.063527584 0.0031856273 -0.035051867
-0.07087444 0.0628072 0.048075352 0.0044096867 -0.043677032 0.009376549 0.073980585 0.037344657
-0.045394987 -0.01331918 0.07432193 -0.0113895675 0.010024373 -0.08467412 -0.087487735 0.055136487
0.065512426 -0.08454242 0.021398094 -0.07411286 -0.082309134 0.0805138 -0.08037237 0.07528837
-0.034053877 0.07878076 -0.064572565 0.036126327 -0.08065724 -0.061271694 0.02427753 -0.014231594
-0.05171289 -0.076294385 0.046898343 0.0637899 0.07694694 0.05446121 0.02051679 -0.08098657
0.02215938 0.050767902 0.024548056 -0.055212975 -0.042829804 -0.022417586 0.0798039 0.030276608
0.06299906 0.0745426 0.051116675 0.026778204 -0.04172905 0.01872614 -0.043262694 -0.060293995
-0.041868556 -0.059554398 -0.034069553 0.044205263 -0.074082315 -0.07858693 0.07996842 -0.0029452136
0.0050477055 0.036885828 0.026604991 -0.06004441 0.014672388 0.032781545 -0.05785023 -0.017836116
0.06499693 0.029336946 0.05440975 -0.07586914 0.06671794 0.016975658 0.011835543 -0.0021664745
0.056051426 0.059115022 0.025480133 0.080935165 0.025503064 -0.05201219 0.042421076 -0.02921001
-0.00015319744 -0.069681756 0.04355617 0.047867954 0.05358336 -0.043216113 -0.08317528 -0.008148404
00000000: 49c4 d23c b84b a73c 8dfe 133d 824a d53c
00000010: c4dd a23d ffba cbbc 702e 513d e8db 143d
00000020: a633 9cbd 1899 923d a080 bbbc 3f1d 093d
00000030: 6a30 97bd bc60 28bc 7323 893d 4f16 c5bc
00000040: dd82 b23d 1bd1 78bd 466c 683d 85e2 a73d
00000050: 1d6a b6bc 8280 a6bd 7c0c 3ebd 4259 0b3c
00000060: 0704 b1bc 2346 b2bd cc2c a9bd 1e73 7a3c
00000070: 40b8 b63c 7520 573d fbf4 b43d 39c1 3c3c
00000080: 656e 5f3d 9407 82bd 287e ae3c 1570 533d
00000090: bb9d d43c 6d5c 5ebd 62a2 82bc 2f6a e83b
000000a0: 15e4 1e3d f3f0 b4ba 8d37 af3c ccbf ef3c
000000b0: f2f4 f83c 48ed b2bd 40ae 663c 17b8 3d3d
000000c0: fef0 a03d 1f3e 91bd 636b 363c d375 9abc
000000d0: 4769 933d 07ff 743c f700 9fbd b2c2 1e3d
000000e0: 7be7 edba e7c7 72bd 939f 3d3d f610 a43d
000000f0: c6d5 573d b8c5 88bd ab53 143d bb94 d63c
00000100: f801 56bd a47f 993d 7f05 a13d 99d8 d63b
00000110: d541 a83d e158 8b3d dcce 373d 4d15 6fbc
00000120: 7a4a 803c c74c 903d 78c1 96bc 1d6e 8d3d
00000130: 157e 59bd 7bd7 733d 9263 6cbd de71 8e3d
00000140: 8a63 cc3c cae4 483d 1145 48bd 5fd2 a63d
00000150: ab21 3c3d ada1 8a3d 6971 ac3d c300 9f3d
00000160: 16ef 60bc 3c94 afbd bdad 88bd a23e 5f3c
00000170: c00f a73c b91f 8abc 9c17 8b3d e7b0 2d3d
00000180: 28ea 4cbc 50a2 283d da4f 9ebd a2e3 283d
00000190: 266f 633c 7f65 543b bc76 62bc 6381 85bd
000001a0: 333f 7f3b 5cc4 e93c 6830 843c 298a 4c3d
000001b0: 7db9 6abd b300 c13b c10e 40bd 50df 9ebd
000001c0: 2739 873d ebf8 8fbd a1e7 0fbd fd64 923d
000001d0: 26f1 73bd 22c9 09bd 7bd2 9fbb f4bb cb3c
000001e0: 2fac 29bd 1900 4e3d 77ef e8bc d71c 963d
000001f0: ff0d b23d 1525 373d 417f d1bb 95bb aa3d
00000200: 4dfb f23c c0f9 523d c328 a63d 7e8a 98bd
00000210: ac95 aabd 514b 1b3d 88ca 5ebd 61f2 4a3d
00000220: 745b cabc efbf a2bd c8d0 84bd 46db 8b3d
00000230: 128e c03c 3156 773d 3cf7 74bd f7c7 393d
00000240: 58e6 6b3c 7dc3 963d f29d 2ebb 4bd1 a03c
00000250: 7333 973d 6c4a 803d fcf4 ba3b e4a8 a3bd
00000260: a65e a53c 0149 043d 46b9 e03b bd8e 183c
00000270: 6bb7 2e3d c01a 823d f5c5 503b 8c92 0fbd
00000280: 9e26 91bd 10a1 803d a9ea 443d 227f 903b
00000290: b0e6 32bd 19a0 193c 2283 973d b6f6 183d
000002a0: 18f0 39bd b138 5abc 1936 983d 4f9b 3abc
000002b0: 453d 243c a069 adbd c52c b3bd ccd6 613d
000002c0: 612b 863d 9424 adbd 0e4b af3c 7cc8 97bd
000002d0: b191 a8bd 6be4 a43d 459a a4bd ca30 9a3d
000002e0: 147c 0bbd cf57 a13d 9f3e 84bd 33f9 133d
000002f0: 9f2f a5bd 07f8 7abd ace1 c63c a22b 69bc
00000300: e5d0 53bd 3b40 9cbd 7a18 403d 47a4 823d
00000310: 5b96 9d3d b812 5f3d d412 a83c 49dc a5bd
00000320: 9787 b53c 01f2 4f3d 0119 c93c 0027 62bd
00000330: 4e6e 2fbd 16a5 b7bc 3a70 a33d a606 f83c
00000340: a705 813d caa9 983d b85f 513d f75d db3c
00000350: 15ec 2abd 9067 993c 3934 31bd d6f6 76bd
00000360: 5d7e 2bbd 50ef 73bd 848c 0bbd 9410 353d
00000370: 78b8 97bd 2ff2 a0bd 7cc6 a33d 7c04 41bb
00000380: 3967 a53b 9815 173d b6f2 d93c 21f1 75bd
00000390: 7564 703c f145 063d 5df4 6cbd 0c1d 92bc
000003a0: 1c1d 853d 0954 f03c c2dc 5e3d 4861 9bbd
000003b0: 6aa3 883d 8910 8b3c dee9 413c 69fb 0dbb
000003c0: 2e96 653d 9822 723d b6bb d03c 56c1 a53d
000003d0: cdeb d03c bc0a 55bd b9c1 2d3d d549 efbc
000003e0: a0a3 20b9 4fb5 8ebd f467 323d 3011 443d
000003f0: 3a7a 5b3d 6103 31bd cd57 aabd e280 05bc

actor.policy_head.bias f4 [50]
0.051271364 0.033476863 -0.031404883 0.049991596 0.034378897 0.07829841 0.002857449 0.06013434
0.06899739 -0.011479823 0.046581637 -0.07600018 0.055862997 0.018087998 -0.060729466 0.0604426
0.017980821 -0.03276299 -0.075735755 0.079235226 0.048020005 -0.06185344 -0.0020207837 0.015910866
-0.06634258 -0.0044561066 0.07497745 0.011453392 0.008388327 -0.03249943 -0.05346895 0.07838369
-0.004713444 0.045233052 0.05226827 -0.03229829 0.021449164 0.03563345 -0.0055470103 0.009702602
-0.074784875 0.06938564 -0.057176 -0.06584714 0.046726048 -0.016410178 0.037190538 -0.07660463
-0.0070862444 0.008743599
00000000: ec01 523d 091f 093d 68a2 00bd fdc3 4c3d
00000010: e3d0 0c3d eb5a a03d 0a44 3b3b 6d4f 763d
00000020: 814e 8d3d de15 3cbc 63cc 3e3d fba5 9bbd
00000030: 99d0 643d 482d 943c 76bf 78bd a992 773d
00000040: 844c 933c 7c32 06bd 591b 9bbd 1446 a23d
00000050: a0b0 443d 085a 7dbd 206f 04bb 8157 823c
00000060: 9ede 87bd 8804 92bb c78d 993d 02a7 3b3c
00000070: 326f 093c 1f1e 05bd 4202 5bbd a187 a03d
00000080: 3c73 9abb 4b46 393d 4117 563d 364b 04bd
00000090: 28b6 af3c 61f4 113d b2c3 b5bb aaf7 1e3c
000000a0: d028 99bd 0f1a 8e3d 6231 6abd deda 86bd
000000b0: d063 3f3d a36e 86bc 1b55 183d e3e2 9cbd
000000c0: ba33 e8bb 5041 0f3c

critic.fc1.weight f4 [256, 21]
0.077266045 -0.123736925 -0.0577205 0.17766811 -0.084569216 0.1538782 0.14778088 0.19951649
-0.117895596 -0.21254551 -0.05152902 -0.19908024 0.21722108 0.14034833 -0.054967843 0.18439007
-0.16573799 -0.07753801 0.044311684 -0.024299465 0.21373402 0.010793546 0.19567846 0.12760909
0.1317377 0.035762887 0.06866469 -0.11913179 -0.15666969 0.030049294 0.1346275 -0.043964457
-0.16281208 0.012957428 0.15893409 0.1793593 -0.17518717 0.12505744 0.1705192 -0.11038651
0.05984049 -0.11239799 -0.13602419 -0.11578301 0.07583187 0.031478323 -0.17602402 0.033315986
-0.04740814 -0.117314614 0.1532603 -0.19862314 -0.13172223 0.053613078 -0.10613043 0.21075267
-0.08946073 0.17898117 0.13400926 -0.00084387633 0.17966682 0.20432952 -0.15113136 0.11317528
0.07189132 0.21759087 0.065698795 0.15434851 0.18780704 -0.13326927 0.13176118 0.17012659
0.02843336 -0.041549698 0.015588595 -0.116413236 0.12029338 0.005000821 0.109050766 -0.19236355
0.14644964 -0.12286929 0.06258386 0.16372377 0.037559103 0.09473084 0.16974248 0.11729207
-0.03502379 0.10096653 -0.057060555 0.14782271 -0.11221192 -0.13193223 0.1781396 0.117222704
-0.12930773 -0.13995707 0.08170923 -0.089060634 -0.1127122 -0.019292396 0.02868923 -0.043056984
-0.037600067 0.17181872 -0.012414703 -0.03451783 -0.09778135 -0.022711238 0.17658293 0.01381526
-0.13010906 -0.11928665 -0.020217495 -0.0004786158 0.09119091 0.100991026 0.14946732 0.13972858
0.057602484 0.008444085 0.21567196 0.21302138 -0.017354554 -0.01800756 0.050727822 -0.0048274584
-0.15720816 -0.044326857 0.05418088 -0.023422655 0.16102545 0.09052472 0.16095905 0.2028969
0.071409084 -0.21630023 0.040719233 0.17473999 -0.17826864 -0.034859095 -0.12214915 0.18748848
-0.20546582 -0.035504423 -0.14417428 -0.042513005 0.1348318 -0.1471715 0.06909829 -0.026535973
0.17468855 0.124334335 -0.018343862 -0.08860145 0.12416043 -0.018711548 -0.029536193 -0.19825682
-0.05872492 -0.020813782 -0.027007896 -0.071177654 -0.12852846 -0.03390075 0.0097521 0.103692874
0.17885247 0.07757286 0.20186663 0.18587415 0.114081316 0.09776683 0.047267877 0.055670973
-0.07775669 -0.15601642 -0.04760982 -0.09097595 -0.009276037 -0.063908845 -0.15596548 -0.0023875418
0.17243618 0.10483778 -0.0045263185 0.02888449 -0.06924205 0.13326399 0.06465327 0.1372376
-0.011046964 0.02627728 0.17431037 -0.15820676 -0.07830641 0.15224239 0.17974843 0.10026991
-0.068265334 -0.0034711906 0.17947549 -0.0054505733 0.0001248695 -0.21297379 0.019801578 -0.18771842
0.0020769516 0.10286689 0.11657333 0.16445318 -0.0995427 -0.12575896 -0.014221349 -0.09362015
0.11828763 0.006790749 -0.16449103 -0.21266533 0.054146774 -0.16487892 0.02478252 -0.0023698641
-0.16373739 -0.20408614 -0.12343663 -0.09050188 -0.018199796 -0.18548152 0.17027539 0.064071506
-0.17499806 0.13197738 -0.033497944 -0.0030675796 -0.161112 0.21012291 0.16114382 -0.11017949
0.1772139 0.058661558 -0.085898794 0.029347736 0.11804821 -0.082383454 -0.05526367 -0.20642959
-0.095530055 -0.16510698 -0.05137079 0.13553567 0.114897765 0.046305273 -0.1969709 0.094492085
00000000: a93d 9e3d c969 fdbd 556c 6cbd a1ee 353e
00000010: a032 adbd 3f92 1d3e df53 173e 0d4e 4c3e
00000020: 3f73 f1bd 88a5 59be 1810 53bd b1db 4bbe
00000030: 346f 5e3e 79b7 0f3e f625 61bd c0d0 3c3e
00000040: 38b7 29be 40cc 9ebd 2b80 353d ac0f c7bc
00000050: 17dd 5a3e 6ad7 303c ef5f 483e f5ab 023e
00000060: 3fe6 063e 1b7c 123d 13a0 8c3d 5efb f3bd
00000070: 056e 20be f029 f63c cbdb 093e 1314 34bd
00000080: 36b8 26be 644b 543c 9ebf 223e f7a9 373e
00000090: 4464 33be 0f0f 003e 969c 2e3e 5312 e2bd
000000a0: 4d1b 753d eb30 e6bd ed49 0bbe a51f edbd
000000b0: bd4d 9b3d 6aef 003d a43f 34be 5876 083d
000000c0: 0a2f 42bd a542 f0bd 45f0 1c3e dd63 4bbe
000000d0: 31e2 06be 6399 5b3d e95a d9bd 8ccf 573e
000000e0: 3037 b7bd d746 373e b939 093e 9537 5dba
000000f0: 94fa 373e c23b 513e 2ec2 1abe 71c8 e73d
00000100: c23b 933d 24d0 5e3e 178d 863d 890d 1e3e
00000110: 7d50 403e bd77 08be 67ec 063e aa35 2e3e
00000120: 14ed e83c 0430 2abd 4e67 7f3c 106a eebd
00000130: 605c f63d eddd a33b 0256 df3d f3fa 44be
00000140: e5f6 153e e5a2 fbbd f72b 803d 34a7 273e
00000150: 93d7 193d 3e02 c23d f9d0 2d3e d336 f03d
00000160: 1b75 0fbd 8ac7 ce3d 54b8 69bd d65e 173e
00000170: 5dcf e5bd 3e19 07be 3a6a 363e 7512 f03d
00000180: 3f69 04be e850 0fbe 2b57 a73d 6c65 b6bd
00000190: a7d5 e6bd 160b 9ebc ad05 eb3c 855c 30bd
000001a0: 8702 1abd 3ff1 2f3e 0a67 4bbc 9162 0dbd
000001b0: 9741 c8bd eb0c babc 28d2 343e 6659 623c
000001c0: 4f3b 05be 8f4c f4bd 299f a5bc baee fab9
000001d0: 4dc2 ba3d 62d4 ce3d f60d 193e 0215 0f3e
000001e0: 95f0 6b3d 0f59 0a3c 1cd9 5c3e 4722 5a3e
000001f0: 232b 8ebc 9784 93bc fac7 4f3d a82f 9ebb
00000200: 2dfb 20be 1490 35bd c5ec 5d3d dee0 bfbc
00000210: dbe3 243e 0665 b93d 73d2 243e 34c4 4f3e
00000220: ed3e 923d cf7d 5dbe 36c9 263d 0aef 323e
00000230: 0e8c 36be 69c8 0ebd 5529 fabd fbfc 3f3e
00000240: a265 52be 166d 11bd 6ca2 13be 1e22 2ebd
00000250: 5911 0a3e 20b4 16be 6783 8d3d f861 d9bc
00000260: 8ee1 323e 00a3 fe3d de45 96bc ad74 b5bd
00000270: d347 fe3d f648 99bc e3f5 f1bc d603 4bbe
00000280: 8b89 70bd aa81 aabc aa3f ddbc 97c5 91bd
00000290: f79c 03be 83db 0abd 46c7 1f3c ee5c d43d
000002a0: 1a25 373e 85de 9e3d 20b6 4e3e cb55 3e3e
000002b0: 77a3 e93d fa39 c83d f69b 413d 3f07 643d
000002c0: e63e 9fbd c5c2 1fbe 8402 43bd 9951 babd
000002d0: 85fa 17bc a4e2 82bd 6ab5 1fbe 4e78 1cbb
000002e0: 1c93 303e 31b5 d63d 8351 94bb 2a9f ec3c
000002f0: c7ce 8dbd 5b76 083e ef68 843d 0388 0c3e
00000300: 53fe 34bc 7343 d73c 6b7e 323e f400 22be
00000310: 1c5f a0bd 6ee5 1b3e f90f 383e 505a cd3d
00000320: b2ce 8bbd ea7c 63bb 6cc8 373e b99a b2bb
00000330: 67ef 0239 cd15 5abe eb36 a23c 4239 40be
00000340: 771d 083b e0ab d23d ffbd ee3d 6a66 283e
00000350: 0bdd cbbd f5c6 00be a900 69bc ecbb bfbd
00000360: c940 f23d ee84 de3b 5670 28be f1c4 59be
00000370: 02c9 5d3d 05d6 28be b604 cb3c b94f 1bbb
00000380: c6aa 27be f5fb 50be 58cc fcbd 0d59 b9bd
00000390: bd17 95bc deee 3dbe ac5c 2e3e ec37 833d
000003a0: b132 33be 1425 073e 2435 09bd 7209 49bb
000003b0: 8bfa 24be 762a 573e e302 253e c9a5 e1bd
000003c0: 9077 353e 1a47 703d b5eb afbd aa6a f03c
000003d0: 43c3 f13d a8b8 a8bd 285c 62bd 4762 53be
000003e0: 43a5 c3bd ce11 29be 2d6a 52bd ddc9 0a3e
000003f0: 854f eb3d 99aa 3d3d bdb2 49be 1185 c13d

critic.fc1.bias f4 [256]
-0.1348642 0.17613912 -0.17377992 0.05631174 -0.1253815 0.21093482 -0.10341126 -0.20780501
0.064576454 0.13226996 -0.08689661 -0.076253 0.10170119 0.03216444 0.20238827 -0.07753106
-0.09058356 0.17932181 -0.20937523 -0.1603699 0.009625574 -0.00966636 -0.020524718 -0.027130919
-0.1436157 0.1868994 -0.14438242 -0.18640386 -0.0863669 -0.06458276 0.1657755 0.12663056
-0.18859734 0.05709097 0.122102946 -0.0015041537 -0.18962725 0.17272812 -0.04849524 0.13556044
-0.2107781 0.13529564 0.010405822 -0.19577195 -0.1660882 -0.16945712 -0.18899228 -0.024239542
0.160241 -0.02485666 -0.11418967 0.07930664 0.044609144 -0.14739835 0.15787758 -0.060497843
-0.038274374 0.21604185 -0.093475655 0.089158155 -0.19510332 -0.094849035 -0.095222384 -0.16605112
-0.06151911 0.15304285 -0.07701147 0.108872026 0.052857164 -0.106007665 -0.06701113 -0.15381815
0.06099011 0.03327621 -0.106311634 0.13740414 -0.04559321 -0.08789222 0.15837143 -0.21695746
0.1505907 -0.15485355 -0.0025651606 0.00065659906 0.043175537 0.08821307 -0.043152157 -0.039977174
0.002912208 -0.121691994 -0.18995021 0.1477659 0.17620271 0.14361085 -0.1869964 -0.13911998
0.008153567 -0.18371701 0.1425652 0.08539803 -0.17102219 0.0783964 0.16695708 -0.12552305
-0.13155174 0.21827418 0.10902599 -0.103167176 0.16004506 -0.09820134 0.13788372 -0.17723764
0.082881436 0.05473634 -0.1321422 -0.049936302 0.15111168 -0.2014432 0.051103543 -0.16545849
0.07574682 -0.19399677 0.1477375 -0.090078145 -0.023299685 0.01223702 -0.16903432 0.115176655
0.16248153 -0.19122912 -0.14213611 0.15091777 -0.15205547 -0.18907742 -0.2143671 0.11183482
0.21749656 0.14838423 -0.08267711 0.037863065 -0.1078843 0.13431376 -0.15909363 0.036537126
-0.1462388 0.089919806 -0.14722583 0.17771628 0.0946107 -0.108436614 0.15645744 -0.13811284
-0.21453074 -0.11590999 0.031205123 0.036703434 -0.121747844 -0.16677509 -0.039376058 0.09069357
-0.07272348 -0.17749466 -0.08748166 -0.07480593 0.21761672 -0.12835747 0.07012737 0.15716983
0.118997626 0.08676443 0.14012375 0.13259096 0.06518571 -0.14382885 -0.14798623 0.1573991
-0.0060251453 -0.17879929 -0.17780012 -0.17685147 -0.17707473 0.07551529 -0.045496028 -0.21600744
0.033844788 0.12770355 0.10672233 0.16041918 -0.11455766 -0.04887486 -0.05131073 0.18396197
0.16437912 -0.13356963 -0.010845507 -0.07832994 0.036514845 0.10204038 0.1386025 -0.10518213
0.14442421 -0.10304306 -0.042922206 -0.045626838 0.0853647 -0.15776066 -0.019212898 0.10552198
0.02599338 -0.04429131 0.02255966 0.15201294 0.14394382 -0.060232155 0.020895008 0.028320462
-0.09925218 -0.064646535 0.07561743 -0.1858371 -0.16138898 0.20501955 -0.010961409 -0.10974686
0.11204638 -0.15939948 -0.18956833 0.10133423 0.1824041 0.21448839 0.10413136 -0.19825087
-0.13665903 0.09320448 -0.049181532 0.029047647 -0.013119029 0.17202029 0.13684607 0.19867042
-0.189984 -0.06790937 -0.13954186 0.025103267 -0.2148543 -0.05553146 -0.095383935 -0.0052107302
0.15026672 -0.13920338 -0.115526766 -0.03220815 -0.17230998 -0.04865998 -0.024427775 0.17459671
00000000: d719 0abe d05d 343e 5df3 31be 24a7 663d
00000010: 0264 00be 4cff 573e 48c9 d3bd d6ca 54be
00000020: a940 843d c771 073e daf6 b1bd 882a 9cbd
00000030: b748 d03d dcbe 033d df3e 4f3e 9bc8 9ebd
00000040: e083 b9bd 23a0 373e 7666 56be 0238 24be
00000050: 95b4 1d3c a75f 1ebc 7423 a8bc a941 debc
00000060: fe0f 13be 8e62 3f3e fcd8 13be a7e0 3ebe
00000070: 21e1 b0bd f743 84bd 0dc1 293e 71ab 013e
00000080: a91f 41be 39d8 693d 1c11 fa3d 0627 c5ba
00000090: a52d 42be a4df 303e f2a2 46bd 5bd0 0a3e
000000a0: 37d6 57be f18a 0a3e 2e7d 2a3c 7178 48be
000000b0: 0613 2abe 2b86 2dbe 3187 41be 0192 c6bc
000000c0: 3716 243e 32a0 cbbc 46dc e9bd 856b a23d
000000d0: 14b8 363d 98ef 16be a9aa 213e 96cc 77bd
000000e0: 97c5 1cbd 133a 5d3e 2a70 bfbd 8d98 b63d
000000f0: 2ac9 47be 3640 c2bd f403 c3bd 4e09 2abe
00000100: 76fb 7bbd 44b7 1c3e 31b8 9dbd 4cf8 de3d
00000110: c180 583d 8c1a d9bd 223d 89bd 8182 1dbe
00000120: c4d0 793d a34c 083d eab9 d9bd acb3 0c3e
00000130: f2bf 3abd d600 b4bd 1f2c 223e 192a 5ebe
00000140: 7334 1a3e ee91 1ebe 411c 28bb 9e1f 2c3a
00000150: d5d8 303d 0ea9 b43d 51c0 30bd 1bbf 23bd
00000160: beda 3e3b a739 f9bd 4f82 42be f24f 173e
00000170: 7c6e 343e b90e 133e fc7b 3fbe 7875 0ebe
00000180: 8a96 053c 5020 3cbe 9dfc 113e 2ae5 ae3d
00000190: 7120 2fbe 4b8e a03d ccf6 2a3e 1d89 00be
000001a0: 80b5 06be 4483 5f3e 0549 df3d 5049 d3bd
000001b0: dae2 233e c91d c9bd 6431 0d3e c97d 35be
000001c0: bebd a93d 3633 603d 4950 07be 028a 4cbd
000001d0: 05bd 1a3e 2047 4ebe f351 513d f36d 29be
000001e0: 2621 9b3d 17a7 46be 8048 173e e47a b8bd
000001f0: fbde bebc c87d 483c 5517 2dbe bde1 eb3d
00000200: 8f61 263e 91d1 43be 218c 11be 308a 1a3e
00000210: 6eb4 1bbe 839d 41be 0d83 5bbe a709 e53d
00000220: 6bb7 5e3e 09f2 173e 9e52 a9bd 4d16 1b3d
00000230: 72f2 dcbd 8c89 093e 71e9 22be f4a7 153d
00000240: a0bf 15be e027 b83d 5ec2 16be 42fb 353e
00000250: 41c3 c13d 0414 debd 6136 203e 746d 0dbe
00000260: f2ad 5bbe 3862 edbd e3a1 ff3c 5756 163d
00000270: ef56 f9bd 17c7 2abe ca48 21bd 8dbd b93d
00000280: 0cf0 94bd 29c1 35be 9629 b3bd da33 99bd
00000290: ebd6 5e3e 2470 03be f09e 8f3d 21f1 203e
000002a0: 07b5 f33d 8db1 b13d 9a7c 0f3e edc5 073e
000002b0: 1680 853d df47 13be b489 17be 3b2d 213e
000002c0: 956e c5bb 2917 37be 3c11 36be 8d18 35be
000002d0: 1453 35be c3a7 9a3d 0b5a 3abd 0e31 5dbe
000002e0: d5a0 0a3d b8c4 023e 3d91 da3d ed44 243e
000002f0: 359d eabd 0131 48bd 332b 52bd 8760 3c3e
00000300: 0053 283e 7ac6 08be 5ab1 31bc 736b a0bd
00000310: 9790 153d 8cfa d03d d0ed 0d3e bb69 d7bd
00000320: f1e3 133e 3d08 d3bd 32cf 2fbd 35e3 3abd
00000330: b0d3 ae3d 038c 21be 5e64 9dbc e81b d83d
00000340: 12f0 d43c ce6a 35bd 09cf b83c 48a9 1b3e
00000350: 0266 133e feb5 76bd 022c ab3c 5000 e83c
00000360: ba44 cbbd 6765 84bd 50dd 9a3d 154c 3ebe
00000370: 2743 25be a5f0 513e 7b97 33bc f6c2 e0bd
00000380: 9378 e53d 9e39 23be 331e 42be 5288 cf3d
00000390: 24c8 3a3e d8a2 5b3e d342 d53d 4702 4bbe
000003a0: 58f0 0bbe fee1 be3d 9372 49bd 55f5 ed3c
000003b0: 32f1 56bc 1626 303e 6021 0c3e 4270 4b3e
000003c0: 2a8b 42be 1114 8bbd 10e4 0ebe 5ea5 cd3c
000003d0: c402 5cbe f574 63bd a758 c3bd c6be aabb
000003e0: 85df 193e 558b 0ebe 4c99 ecbd b1ec 03bd
000003f0: 0772 30be b04f 47bd c21c c8bc 7bc9 323e

critic.fc2.weight f4 [128, 256]
0.031330027 0.056185983 0.022074146 -0.0055803293 0.01929128 -0.017151404 0.03750657 -0.0026383065
0.013285272 -0.005398825 -0.05882212 -0.014233203 -0.04025019 -0.029039863 0.0055817743 0.013862938
0.014961443 0.027660996 0.0050499565 -0.048753966 -0.0019282332 -0.054012086 -0.046560258 -0.023645915
0.0091645345 0.015483733 -0.0197169 -0.056090515 -0.043667015 0.013966866 -0.017803112 -0.054937415
-0.015673904 0.03624535 0.007856541 -0.043205354 0.024897084 -0.034373302 -0.00485954 -0.014245757
-0.02645705 0.022234412 -0.0103276335 0.017663196 0.03085204 -0.006870001 0.023751607 -0.003593739
-0.017856754 -0.019260118 -0.052522283 -0.061036877 0.05172639 0.0061924895 -0.034204096 0.045803938
0.027856221 0.017046252 -0.049504433 0.04150692 0.036324147 -0.0607574 -0.034466848 -0.010046052
0.016241502 0.05572936 -0.0052251043 -0.048503313 0.0072054653 0.062113438 0.04084972 0.01802245
0.026696382 0.016683718 0.037392337 -0.044718217 -0.031983774 -0.031685155 -0.036057513 -0.012785638
-0.026075698 -0.01021013 0.058136772 0.04400107 -0.008529578 0.03831561 0.047567718 0.024237854
-0.05687518 -0.004327797 -0.0023050727 0.015046344 -0.061045945 -0.016216133 0.040678017 -0.045074634
0.0051299925 0.0009018816 0.051430997 -0.012901474 0.048303146 0.041610554 -0.0010780473 -0.04048656
0.014611831 -0.0025986098 -0.049120158 -0.042527474 -0.05340002 -0.03293415 0.042775296 -0.042958897
0.04120007 0.0059719724 0.046776872 -0.04442165 0.058222186 -0.010928904 0.046294343 -0.017773278
0.017385572 -0.006700018 -0.024665028 0.043329816 0.04136793 -0.05705208 0.012678291 0.023719192
0.034101386 0.048393246 0.017064953 -0.002942857 0.04787433 -0.015411514 -0.026027838 0.033391237
0.061789345 -0.05290878 0.034775853 -0.0329341 0.03252939 0.010056555 -0.033395912 0.027328795
-0.016410677 0.03863194 -0.029474664 0.038215008 -0.052654713 0.0026036375 0.057216987 -0.0023727657
0.03391977 0.030943546 -0.0052244994 0.024431504 -0.04042407 -0.0036655816 -0.018872585 -0.04865021
-0.0576579 -0.056543697 0.0010171328 -0.0019551707 0.0532366 0.015169558 0.05744106 0.012159194
0.050505754 -0.06265271 0.0052699656 0.029801186 0.047697704 0.033106193 -0.04417301 0.048037585
0.018161943 -0.03356324 0.008990171 -0.051969197 -0.058280133 -0.037432354 0.05741378 0.012223884
0.002178749 -0.0028272432 -0.054785315 -0.003446322 -0.013293376 -0.031937953 -0.040307894 -0.05780502
-0.056637097 0.017211566 0.057960957 0.02488826 0.038163085 -0.019254236 -0.047525275 0.0063842167
0.03990426 -0.040222175 -0.007924555 -0.0045588966 -0.04851797 -0.029795095 0.04802353 -0.05411785
0.020797035 0.055040423 0.06111265 0.054430954 -0.045597717 0.028093671 0.02512555 -0.050649602
-0.043788865 -0.0014712578 0.050439417 0.0015127601 -0.01884308 0.022862362 0.036760576 0.01272995
-0.05582173 -0.0022640028 0.045398585 -0.0006472685 0.04079772 -0.028948141 0.06184182 0.020652492
0.010288216 -0.053053536 -0.0095367655 -0.0069289207 0.023694275 0.042979617 -0.046222076 -0.021011729
0.05901809 -0.032594018 -0.061248936 -0.058916736 -0.0604197 0.031794216 -0.058096033 0.052915793
-0.025645807 0.015991792 0.029606223 0.033380035 0.021213554 -0.004066576 0.04490422 -0.017130941
00000000: ea53 003d 4623 663d d7d4 b43c 32db b6bb
00000010: bf08 9e3c 1a81 8cbc 7da0 193d 70e7 2cbb
00000020: 78aa 593c a0e8 b0bb 77ef 70bd 6132 69bc
00000030: 62dd 24bd 02e5 edbc 51e7 b63b 6021 633c
00000040: d720 753c 5099 e23c 1b7a a53b 3db2 47bd
00000050: c5bc fcba c73b 5dbd f8b5 3ebd 14b5 c1bc
00000060: d826 163c 7caf 7d3c 5685 a1bc 2bbf 65bd
00000070: 2fdc 32bd 48d5 643c d5d7 91bc 0e06 61bd
00000080: 8f66 80bc 0176 143d b9b8 003c 19f8 30bd
00000090: f8f4 cb3c 05cb 0cbd c73c 9fbb 0967 69bc
000000a0: 75bc d8bc f124 b63c 3c35 29bc 68b2 903c
000000b0: 6bbd fc3c bf1d e1bb bb92 c23c ef84 6bbb
000000c0: 5448 92bc 65c7 9dbc 9b21 57bd ce01 7abd
000000d0: 0ddf 533d 5eea ca3b 9819 0cbd e99c 3b3d
000000e0: bb32 e43c 95a4 8b3c 29c5 4abd 2903 2a3d
000000f0: a1c8 143d c0dc 78bd 1c2d 0dbd 3298 24bc
00000100: e60c 853c 7844 643d 5a37 abbb 69ab 46bd
00000110: d31b ec3b a96a 7e3d 0952 273d d1a3 933c
00000120: 5fb2 da3c 4bac 883c b528 193d 732a 37bd
00000130: 6b01 03bd 4bc8 01bd 0bb1 13bd da7a 51bc
00000140: b49c d5bc 6448 27bc d320 6e3d 773a 343d
00000150: a5bf 0bbc d4f0 1c3d 5ed6 423d 778e c63c
00000160: f3f5 68bd 31d0 8dbb b410 17bb f184 763c
00000170: 500b 7abd b2d7 84bc fe9d 263d 2ea0 38bd
00000180: 7f19 a83b 406c 6c3a 4fa9 523d b460 53bc
00000190: 85d9 453d d46f 2a3d 444d 8dba 3cd5 25bd
000001a0: 7666 6f3c 704d 2abb 3832 49bd 4a31 2ebd
000001b0: fbb9 5abd f6e5 06bd 2635 2f3d abf5 2fbd
000001c0: 68c1 283d 89b0 c33b 1b99 3f3d 7af3 35bd
000001d0: 637a 6e3d 250f 33bc 239f 3d3d 4499 91bc
000001e0: 306c 8e3c d38b dbbb 500e cabc 9b7a 313d
000001f0: 6b71 293d 71af 69bd 9bb8 4f3c c04e c23c
00000200: e5ad 0b3d ff37 463d cdcb 8b3c f3dc 40bb
00000210: e017 443d 9380 7cbc 5538 d5bc 40c5 083d
00000220: d316 7d3d e0b6 58bd 2071 0e3d e8e5 06bd
00000230: 8a3d 053d 40c4 243c 27ca 08bd a3e0 df3c
00000240: af6f 86bc 863c 1e3d da74 f1bc 5787 1c3d
00000250: 78ac 57bd caa1 2a3b 5c5c 6a3d 6780 1bbb
00000260: 75ef 0a3d 527d fd3c 4732 abbb 9424 c83c
00000270: b693 25bd 413a 70bb ae9a 9abc 7145 47bd
00000280: b12a 6cbd 5d9a 67bd 5051 853a 5222 00bb
00000290: 9f0e 5a3d bd89 783c 5147 6b3d 5b37 473c
000002a0: 1fdf 4e3d 1050 80bd adaf ac3b 9e21 f43c
000002b0: ab5e 433d 5c9a 073d c2ee 34bd 0fc3 443d
000002c0: 5bc8 943c 9c79 09bd 834b 133c a7dd 54bd
000002d0: 26b7 6ebd ab52 19bd b62a 6b3d b046 483c
000002e0: 58c9 0e3b 4549 39bb 9166 60bd b0db 61bb
000002f0: 76cc 59bc 5fd1 02bd e419 25bd f5c4 6cbd
00000300: 4dfc 67bd 45ff 8c3c 7868 6d3d 77e2 cb3c
00000310: e550 1c3d 0fbb 9dbc dda9 42bd b132 d13b
00000320: a672 233d 02c0 24bd fed5 01bc cc62 95bb
00000330: c7ba 46bd d814 f4bc 52b4 443d aeaa 5dbd
00000340: 8b5e aa3c 1172 613d 4251 7a3d fef2 5e3d
00000350: acc4 3abd b324 e63c 19d4 cd3c f575 4fbd
00000360: f45b 33bd 38d7 c0ba 9099 4e3d ce47 c63a
00000370: ce5c 9abc d949 bb3c 4292 163d 4891 503c
00000380: 54a5 64bd aa5f 14bb def3 393d 74ad 29ba
00000390: 831b 273d a724 edbc d94d 7d3d 6a2f a93c
000003a0: e88f 283c aa4e 59bd 1840 1cbc 000c e3bb
000003b0: 7f1a c23c 650b 303d 5c53 3dbd ca20 acbc
000003c0: f4bc 713d 4e81 05bd 2ae0 7abd ad52 71bd
000003d0: a67a 77bd a73a 023d 1bf6 6dbd 3bbe 583d
000003e0: 2817 d2bc 3801 833c c088 f23c 81b9 083d
000003f0: 0cc8 ad3c e940 85bb 7ded 373d 3056 8cbc
