client/temp_files/thread_1/policies/policy_1/model.pt (torch, 338258 bytes, 11 tensors)

actor.fc1.weight f4 [256, 21]
00000000: d796 c93d 6792 40bc ed92 323e af9a 583e
00000010: 5ea3 d6bd 04b5 a53c c246 183e 1189 4dbe
00000020: 7ca3 c9bd b4cf 51be fc23 5e3e b011 b83d
00000030: b431 603d 633f 34be f3ce c9bd 154d 4fbe
00000040: 8056 b1bd 2096 8a3d f01b 403e d9ef e2bd
00000050: 39f9 b9bd 673f 733d 5e33 c6bc 4c26 bfbd
00000060: 5264 e6bd 362d 0f3e defd 46be 4ba2 ed3d
00000070: d334 58bc b753 293d 41ef 09be c232 893d
00000080: 65c0 43be 8960 5ebd 1669 103e f46d 603c
00000090: f41c cd3d 78e5 82bd 29f1 b23d bd7b 5dbe
000000a0: 0ff0 a53d 48d2 13be 6778 d1bd 4084 d5bd
000000b0: 5f3d e63d 1d33 b93d adb4 383e b53b 0dbd
000000c0: fae2 26be f56c 5d3e ad07 50be 678d 4ebe
000000d0: d699 f5bc 3558 3ebe 631f 43bd e02c 8ebd
000000e0: a2c8 90bd 4f0a 0e3e 4c94 9f3d 97a7 11be
000000f0: 23ab d9bd 9d41 55be 0104 9d3d 0a13 a03c
00000100: 03de 8abd fd61 a5bc 21d7 033d 185b 043e
00000110: c16f 523e a6e7 8b3d 9fa8 06be 9bb2 093e
00000120: 8f8e 403e 89e9 883d 6c44 043e ffdc 1f3e
00000130: b35b 0fbe 7cc3 cfbd 7932 e0bd 796a 17be
00000140: becd f1bd 1a6a 943d 5152 17be 96aa d2bd
00000150: 2d59 9b3d 8168 2b3e 79ac f23d 0a64 6cbd
00000160: df4f 293e e7a5 1cbe 779d 16be a1f5 acbd
00000170: 98a5 80bd d1c8 efbd f051 32be cfac 5f3c
00000180: ff8f 0e3d a379 f8bd 6382 c93d 20cd 433e
00000190: a060 5dbe 2256 b2bd b68e df3d c39f 313e
000001a0: f530 04bd 5594 543e 134f 58be ebd6 47be
000001b0: 9566 b1bd ef4e 05be c120 cbbd c14b 153d
000001c0: 687f 88bd 8e35 21bd 3439 e3bc 8c32 003e
000001d0: 8ddf 3f3e 26d9 0abe 8628 523e 13b8 c8bd
000001e0: ed96 ac3d 9ae7 213e 8855 2e3e fb28 3bbe
000001f0: 37ae 5dbd 392c 5d3e ac40 55be 1e69 f6ba
00000200: 5154 15be 095f f63d ff8d 9cbb 19c9 1fbc
00000210: e71d 5abe 7728 aa3d 5c7e 5a3e e9f5 543e
00000220: 3e8e 7d3d 064e c4bc 5646 d4bd 89df 5dbe
00000230: c5b9 5b3e 95c3 4dbd 39cd a43d f42b 2639
00000240: 0419 ce3d d6e5 db3d c9ba 08be 0a57 17be
00000250: 5ec1 103c 81db 1e3e 1128 fe3d eafa 463c
00000260: 24eb 3fbe ab51 0fbe a011 38be bd18 26be
00000270: 5b30 8b3d dfb5 30be 87ab 0b3e 1b1d 1dbe
00000280: b040 d03d d154 62bd 3dbf 2dbe bd74 043b
00000290: 1896 45be d9e4 cebd 008b 37be b468 8bbc
000002a0: a38f f23d 6886 e23c 5de2 cfbd 427b 573d
000002b0: 9567 a0b9 1139 27be 68f1 583e 4ab1 11be
000002c0: bd2d 463e 236e 5abe dd44 e93d 5475 203b
000002d0: a7f8 5d3d bc99 083e 8bc6 adbd b60e 973d
000002e0: 9dc7 553e b00c 0d3e 4373 693d f3ec 31bd
000002f0: 5f09 cc3d 2bf0 1abe 86b3 82bd e851 21be
00000300: 2759 e73c 6496 383d 1a54 503d e941 a6bd
00000310: 251b 17be 366a 203e a211 bcbd 4205 ecbd
00000320: 67b6 41be aae1 89bd 7f97 38be 9951 9a3d
00000330: 810a 3c3e db81 03be 0c41 85bd a099 c7bb
00000340: 7a19 a5bc 480d 2b3e 70de 5dbe 4807 a53d
00000350: 8e20 ecbd 1ff1 42be ada2 0f3e 6d04 573e
00000360: 16ba 383b ae2d 56be 5c39 a5bc ddde 16be
00000370: 92e2 ea3d d605 083e c89c 223d aa48 3f3b
00000380: d054 cb3d bcd2 85bd 8a36 fabd 35de 9d3c
00000390: a385 a63d 7aff 35be 7826 40bd 38dc d63d
000003a0: e216 55bc 576b 643c 0daa 1fbe 1f33 38bd
000003b0: 69a7 b73d 517f 993d f77f 833b 77d5 1a3e
000003c0: e401 fabd d44d ecbb 16e0 47be 5ed5 1a3e
000003d0: 18b0 1c3e 5731 cd3d 3789 8d3d 7a9b 52be
000003e0: b334 933d 6737 4b3e 5088 4e3c b84b 253e
000003f0: 4faf e4bd a09a 9dbd 20b7 2b3e 9080 bb3c
0.098432235 -0.011753655 0.1743886 0.21152757 -0.104803786 0.020227917 0.14870742 -0.20071818
-0.09845635 -0.20489389 0.21693414 0.089877486 0.0547349 -0.17602305 -0.098539256 -0.20244248
-0.08659077 0.06766915 0.18760657 -0.110809036 -0.090807386 0.059386637 -0.024194416 -0.093334764
-0.11249603 0.1398209 -0.1943278 0.116032206 -0.013196188 0.041339602 -0.13470174 0.066991344
-0.19116361 -0.05429128 0.14102587 0.01369809 0.10015288 -0.06391424 0.08737404 -0.21629234
0.08102428 -0.14435685 -0.10228043 -0.10425615 0.11242174 0.09042952 0.18037672 -0.03448077
-0.16297522 0.21623595 -0.20315428 -0.20171128 -0.029980581 -0.18588336 -0.047637355 -0.06942153
-0.07069518 0.1387112 0.07791957 -0.14224087 -0.10628345 -0.2082581 0.07666779 0.019540329
-0.067806266 -0.020188326 0.032187585 0.12925375 0.20550443 0.06831293 -0.13150261 0.13447039
0.18804382 0.06685168 0.12916726 0.15611647 -0.13999824 -0.101447076 -0.10947127 -0.1478671
-0.1180682 0.072468 -0.14777495 -0.10286443 0.07585368 0.16739084 0.11849303 -0.057712592
0.16534375 -0.15297662 -0.14708506 -0.084452875 -0.062815845 -0.117082246 -0.17414069 0.013652041
0.034805294 -0.12132575 0.098393224 0.19121218 -0.21618891 -0.08707835 0.10915892 0.173461
-0.03227325 0.20759709 -0.21123914 -0.19515578 -0.08662144 -0.13018392 -0.09918357 0.036449198
-0.06664926 -0.039357714 -0.027737238 0.12519282 0.18737622 -0.13559398 0.20523271 -0.09800734
0.08427224 0.15811005 0.17024815 -0.18277352 -0.054121222 0.21598901 -0.20825452 -0.0018799638
-0.14582945 0.12029845 -0.0047776694 -0.009752535 -0.2130047 0.08308499 0.21337265 0.20796932
0.06190323 -0.023962986 -0.10364978 -0.21667303 0.21457584 -0.05023535 0.080469556 0.00015847367
0.10063365 0.10737197 -0.13352503 -0.14779297 0.008835165 0.15513422 0.12409986 0.0121447835
-0.18742043 -0.13995998 -0.17975473 -0.16220374 0.067963324 -0.17256878 0.13639651 -0.15343134
0.10168588 -0.05525667 -0.16967483 0.0020211183 -0.19295537 -0.10102243 -0.17924118 -0.0170177
0.11843803 0.02765198 -0.10150597 0.052607782 -0.00030594753 -0.16330363 0.21185839 -0.14227787
0.19353385 -0.21331076 0.11390088 0.0024483996 0.05419221 0.13339895 -0.08485135 0.07375853
0.20876928 0.13774371 0.056994688 -0.043438863 0.09962725 -0.1513068 -0.06381898 -0.15753901
0.028240753 0.0450653 0.050861456 -0.0811804 -0.14756449 0.15665516 -0.09183051 -0.1152444
-0.18917237 -0.06732495 -0.18026541 0.07535095 0.18363382 -0.12842505 -0.06506547 -0.0060913116
-0.02015375 0.16704285 -0.21666884 0.080580294 -0.11529647 -0.19037293 0.140269 0.20997782
0.0028187088 -0.20915863 -0.020168953 -0.14733453 0.11468996 0.13283476 0.0397003 0.0029187598
0.09928286 -0.06534335 -0.12217434 0.019270996 0.08130958 -0.17773238 -0.046911687 0.10491222
-0.013005944 0.013941607 -0.15592213 -0.044970628 0.08967478 0.07494987 0.0040130573 0.15120493
-0.12207392 -0.0072114263 -0.19519076 0.15120456 0.1530155 0.100191765 0.06910937 -0.20567122
0.07187786 0.19845353 0.012605742 0.16142166 -0.1116625 -0.07695508 0.16769075 0.022888452

actor.fc1.bias f4 [256]
00000000: f116 f43d cb94 0f3d b00a aabd 1d3a ecbd
00000010: 1bc8 31be ece4 0dbe 2dbc 90bd 97ea 0b3e
00000020: b8cd c33d 5a4b 1abe a43c c4bd add7 30bd
00000030: 5055 0abd 617f 1ebe 2333 4a3d 192a 47be
00000040: d62e 41be 99bd 113e af42 59bd 52d4 263e
00000050: c582 183e 3ff1 9dbd 2044 f93d 6921 49bd
00000060: b428 d2bc 2389 67bd cc2d 033d d795 093e
00000070: 6a0a 56be e0c8 eebd 2044 2abe 1b3e acbc
00000080: 76db 08be 1fbc 5abe d075 05bd 8e98 03be
00000090: b3b6 06bd 86ec 00be d224 563e 565d f6bd
000000a0: af8c 37be 6f48 153e 3c42 c43b 04e7 a03d
000000b0: ddfb 9f3d 27c4 56be 578b 12be f11d a2bb
000000c0: 98a6 f3bd b384 913b bc3b 59be 4b4f 35be
000000d0: 5893 4a3e 9f2a 963d 4419 f43d 0c0c 313e
000000e0: 5561 00be 6c95 3b3e 0fe5 4b3e 0f58 2fbd
000000f0: 41b2 50be fa97 5cbe 0a35 bfbd ba6e 53be
00000100: 1d19 2f3e 204b 17be 13a1 89bd b58f 0bbe
00000110: 2266 703d c095 dfbc 7caf 353e e244 253d
00000120: ffe5 123e 6977 163e adf1 a83d e81d c33c
00000130: 22f7 5d3e a894 f43d c7b2 4cbd 73da 3d3e
00000140: 55a4 123e ee08 2e3e 5bf3 1d3d 3971 1bbd
00000150: 841d 10be e019 95bd 308d 4f3e bf69 e23d
00000160: 6bc9 883d 64d9 3d3d b9b1 f3bd 1f48 1b3d
00000170: 2e64 89bd ddc3 1dbe 5ee2 0b3d b798 49be
00000180: ec4b 7b3d 9628 ee3d 0eef d2bd 337e c73d
00000190: b7e9 94bd e034 773d 0baf 03be 2f85 42be
000001a0: c431 bf3d 20e9 07bd ab3c 123c 12cf c93d
000001b0: 3496 fb3c fb7a 423e 7480 7b39 147a cdba
000001c0: 70f3 a33d 75c2 1ebd cb8e 8fbd 91ac b83d
000001d0: ef71 0abe d9fd 1bbe dbab b13d e69c 96bd
000001e0: 0745 143e 95db 56bd 2084 b0bd 0dd3 1c3e
000001f0: b127 973c 6cd5 c4bc 2ceb 1dbe cbe8 42be
00000200: 8872 e03c 0783 0cbe 452b 2c3e 1063 813d
00000210: 7c71 30be 29b0 443e eb10 533e 7b98 babd
00000220: 0d57 cdbd c038 333e 99f0 27be c4e7 003e
00000230: 3b22 a63d 3509 56be 1a13 07be b7f9 e63d
00000240: fc02 073e 5ff3 5cbe e222 3c3e 06b7 aebb
00000250: 62a6 763c 9ae0 f5bc 4ad6 3ebe edf6 21be
00000260: b9f2 fbbd a345 46be 6790 83bd 1097 d23c
00000270: 7ee1 5b3e 7b25 a03b aead caba 3c09 363e
00000280: e939 a43c 62a2 483e 2945 5ebe bfc1 5cbe
00000290: 7ec4 4e3e 4854 9b3d 0d00 d23d 71d3 d5bd
000002a0: bf39 2d3e ca79 eabc fa50 2dbe b1ee d6bc
000002b0: bbbb 04be 4275 933c 1da7 5d3d ad4b bc3d
000002c0: cbf5 f33d 17f5 bd3d 4acb bd3c b838 ca3d
000002d0: b72b 32be 4cbf 123d 5c1d febd e602 0c3c
000002e0: f75f 85bd 6126 443e 894a 193c b74e 09bd
000002f0: ea34 fe3c 3f08 1b3d ac17 b03d 8964 48be
00000300: dca2 06bd 6e5f 18be ce32 c0bd cccd 1f3e
00000310: 7681 a4bd 5d14 50be a635 9b3d b9bf 06be
00000320: c772 093e 33dc b13d 3200 203d 294b 06be
00000330: a9cc ac3d e73b 57bc 2e1b 86bd 7747 9dbd
00000340: 33fb 50be 45d0 0c3d bd7d 17be 91d8 30be
00000350: d019 c1bd c302 51be f4eb a03d 21d9 97bc
00000360: b877 ebbd f692 21be 82ec 49bc 371d 12be
00000370: d1a7 2c3e 5a24 0d3d b5a0 e83d 45a6 4c3e
00000380: b81c 42be 4772 e63d 2d53 ac3d 1bab 9dbd
00000390: 5d7d 833b e6f0 3ebd 3ca2 823c 5491 173e
000003a0: 514d 05be cef9 f63c bab2 f13b f763 febd
000003b0: 3931 14be 7a95 cb3d bf15 f33d cdb5 473e
000003c0: 2558 063e 2b1e 0bbe 9df5 50be 5d70 953d
000003d0: 5f6e 313e 11dc bfbd 0427 07be 3ba1 ad3d
000003e0: d4f3 75bd 2e5e 273d e862 72bd 90e5 a33d
000003f0: 9b72 183e c60f 96bd 8944 2d3e 16ae 473e
0.11918438 0.03505401 -0.0830282 -0.11534522 -0.1736149 -0.13856858 -0.07067142 0.13663708
0.09560722 -0.15067807 -0.09581879 -0.043174434 -0.033772767 -0.15478279 0.049365174 -0.19449653
-0.18865523 0.14232482 -0.05304211 0.16291931 0.14893635 -0.0771203 0.12171197 -0.049104128
-0.025654174 -0.05652727 0.032026097 0.13436066 -0.2090241 -0.116594076 -0.1662755 -0.021025708
-0.13364968 -0.21360825 -0.032583058 -0.12851164 -0.03288908 -0.12590227 0.20912483 -0.12029521
-0.1792476 0.14578412 0.005989341 0.07856563 0.07811711 -0.20973264 -0.14310966 -0.004947417
-0.118970096 0.004440868 -0.21214193 -0.17706029 0.1978277 0.07332348 0.119188815 0.17289752
-0.12537129 0.18318719 0.19911598 -0.04280859 -0.20380498 -0.2154235 -0.09336288 -0.20647708
0.17099424 -0.14774752 -0.067201756 -0.13629039 0.05869115 -0.027293086 0.17742723 0.040348895
0.14345549 0.14693989 0.08249221 0.023817971 0.21676305 0.119424164 -0.049975183 0.18540363
0.143205 0.16995594 0.03856216 -0.037949774 -0.1407376 -0.07280326 0.20268703 0.11055326
0.066790424 0.046349898 -0.11899132 0.037910577 -0.06708561 -0.15406747 0.034151427 -0.19687162
0.0613517 0.11628835 -0.10299502 0.097408675 -0.0727114 0.06035316 -0.12859742 -0.18996118
0.09335664 -0.03318131 0.008925597 0.09853949 0.03071127 0.18992226 0.00023985078 -0.0015676641
0.080054164 -0.038759667 -0.070096575 0.090172894 -0.13520025 -0.15233554 0.08675357 -0.07354145
0.14479457 -0.052455503 -0.08618951 0.15314884 0.018451544 -0.024027549 -0.15421742 -0.19034116
0.027398363 -0.13721858 0.16813381 0.06317723 -0.17230791 0.19207825 0.20611922 -0.091111146
-0.10026369 0.17502117 -0.16400374 0.12588412 0.08111998 -0.2090195 -0.1319088 0.11278098
0.13184732 -0.21577214 0.18372682 -0.0053318767 0.015054317 -0.030014325 -0.18636432 -0.15816851
-0.12302155 -0.19362502 -0.06424027 0.025706798 0.21472737 0.0048872805 -0.0015463138 0.1777696
0.020047145 0.19593194 -0.2170607 -0.21558283 0.20192143 0.07584435 0.10253916 -0.1044072
0.1691656 -0.028622527 -0.16925421 -0.026236864 -0.12962238 0.018000249 0.05411445 0.091941215
0.11912116 0.09275263 0.023168225 0.098740995 -0.17399488 0.035826966 -0.124079436 0.008545613
-0.065124445 0.19155265 0.0093561495 -0.033522334 0.03103109 0.03784966 0.08598265 -0.19569601
-0.03287016 -0.14880154 -0.0938469 0.15605849 -0.08032505 -0.20320268 0.07578592 -0.13159074
0.1342269 0.08684578 0.039062686 -0.13114609 0.08437473 -0.01313684 -0.06548153 -0.076796465
-0.20408325 0.03437831 -0.14794059 -0.17270114 -0.094287515 -0.2041121 0.078575045 -0.018536152
-0.11497444 -0.15778717 -0.012324454 -0.14268957 0.16860892 0.034458496 0.113587774 0.19985302
-0.18956268 0.112522654 0.08414302 -0.076986514 0.004012747 -0.046616457 0.0159465 0.14801532
-0.13017775 0.030148413 0.007376042 -0.124214105 -0.14471902 0.0994062 0.11869382 0.19502945
0.13119562 -0.13585727 -0.20406194 0.07296822 0.1732726 -0.09368146 -0.13198477 0.08478018
-0.060046986 0.0408613 -0.059176356 0.0800277 0.14887469 -0.07327227 0.16920675 0.19500002

actor.fc2.weight f4 [128, 256]
00000000: 1e00 a6bb 766f bd3c 807b 5e3d 77b1 2c3c
00000010: 737f 1f3c f733 b13c dae9 26bd 2402 8e3c
00000020: 54ad 103d 7ccc 5c3d 719a 2dbd c14f 703d
00000030: 4a5d b33b c40d 033d fc7d c53b 7384 043d
00000040: 2d9c 67bd 3281 fa3c 6092 603c 9f82 403d
00000050: e0d2 38bd 588e 0d3d 2a66 28bd e8ef 703c
00000060: a566 24bd eb49 9c3b d96b 803b 6aa9 2e3c
00000070: 1c3f 9fba b662 31bd 6aaf 09bd 6c04 583d
00000080: 5172 f93b 6d99 0bbd 2d23 00bd 2e80 73bd
00000090: 38ee 67bd 35d2 a93c 8b30 283c 652f 193d
000000a0: e20a 53bd 3587 dabc 6003 7cbc 54ce 0cbd
000000b0: cb7b 213c 3012 dabc e71a c7bc 0990 18bd
000000c0: 5899 41bb bb99 b53c 2f5e 42bd e97e 4c3d
000000d0: 0c0f 643c e0f6 c2bc 8bdf 17bd 7613 7abd
000000e0: 6c8a 023d f055 0b3d 74eb 5d3d 5a4b d63c
000000f0: 0412 f33c b452 56bd 6040 7abd a83a 373d
00000100: 10fc e93c 39c0 cfbc 4fe3 733d 3ad7 133d
00000110: 0558 3f3d 8ff7 32bd d53c 39bc b9f6 2e3c
00000120: eae5 043d 65c2 bb3b c71a 3dbd 80f9 7f3d
00000130: ceb2 5bbd 2a0b d5bb a67b e03b ddf8 15bd
00000140: c739 693d 226c 62bc a6d0 a5bc bb5b 30bd
00000150: a75f 3fbd f6fb 8a3b 6152 65bd 8bb0 09bd
00000160: 3397 e0bc 1404 d7bc 1301 5abd d9aa 553d
00000170: 23c4 95bc f179 783d 911c 1abd 657d e8bc
00000180: 11ef a33c 9b5e 723d 1c63 cc3c bef2 01bd
00000190: bb6b 78bd 7e5e 48bc be7e 153b 1245 f83c
000001a0: 3bd2 40bc 8fc2 92bc 3e0e c03c 6213 dabc
000001b0: 1130 733c f80e 54bd e955 7b3d 894b 2d3d
000001c0: f09f b13c 5f83 3e3d d197 f7bc 7ca9 953b
000001d0: 646e d83c 202e f3b7 53f6 e43c 67ae 22bd
000001e0: 8096 923c cdf3 333d 4fdd 723c 9c67 783d
000001f0: cc58 dbbc b7f1 f6bb 7002 5fbd 6f6a 1a3d
00000200: 069a 4a3d 6d10 563d 93ff 3dbd b210 88bc
00000210: 02b8 bf3c d82f 303c 0c9f 373d 731b a63b
00000220: ed01 6c3c 54a8 2e3d 6883 f13b 69cf cf3c
00000230: f752 3fbd c538 f23c be8c f53b aefb 6fbd
00000240: a804 b43c 61f7 01bd bff0 38bd 8eab 0b3b
00000250: 9682 8abc 13a6 5c3d 3603 8ebc ff31 33bd
00000260: 70c5 e93c e97c d3bc 33d8 6bbd d646 a8ba
00000270: 6ea1 b3bc 09a7 7f3c e9de 27bc cd92 d2bc
00000280: a554 603d c2ad 143d df30 033d 3ec3 fdbc
00000290: 47ab d2bc 162d 22bd 2de5 143d 41e0 7abc
000002a0: 8af7 67bd e503 08bd 5f7e 0e3d 809b 5abd
000002b0: abe2 51bd 15e7 633d 4c27 0ebd f51a 5cbd
000002c0: bcd4 183d d4e9 6e3c 3f11 7abd 3f1f 9ebc
000002d0: 3def 783d d050 fd3c bf3d 6bbd 9637 803d
000002e0: 9d23 04bd 74f3 2fbd 6e1a 38bd 48c2 fbbc
000002f0: 1728 f93c e6ff 333b a517 f13c 9656 0abd
00000300: 32e8 bd3c 9cce b53c 1607 b1bb 9d4c c83c
00000310: f5c7 183d 9f62 1c3c 8003 3abc a43a e43c
00000320: 72e7 26bd e4e8 50bd 58d1 993c 36c4 eabc
00000330: a0ff 553b 99f4 803d cd17 dd3a b4c1 eabc
00000340: 77f4 50bd 43a3 e7bc ee74 ba3c cd71 54bd
00000350: 637d d73b 999a f13a 4d19 b3bc b9d3 cabb
00000360: 8269 c9bb 9283 1d3d 644d 2dbd ce41 45bd
00000370: ea29 28bd 6c9a 143d 0c42 5c3c a0f9 5c3d
00000380: 307f 89ba 80f8 df3c c436 413d f8c4 c93c
00000390: fa7d c23a 1e56 eb3c 6aa2 8bbc 4457 f3ba
000003a0: 683d a7bc 6d59 51bd 4399 22bd 4b91 813d
000003b0: e4bf 363c c727 60bd 9a68 8abc 508c 6a3d
000003c0: fbad 4cbd 48ea b6bc f457 61bb f85d 67bd
000003d0: 7e39 173d 621b 16bd 0e11 653d da89 503c
000003e0: d36d f83c 008b a9bc 0db4 cdbc 1898 0a3d
000003f0: 2ece 4cbc 5a8f ebba cdac 223d 02d4 32bb
-0.005065932 0.023124438 0.054316998 0.010540358 0.009734976 0.021631224 -0.040750362 0.017335005
0.03532155 0.05390595 -0.042383615 0.05866981 0.0054737674 0.03199555 0.0060269814 0.032352876
-0.056545425 0.030579183 0.0137067735 0.04699957 -0.04512298 0.034559578 -0.041113056 0.014705636
-0.040136952 0.004769554 0.0039191064 0.010660509 -0.0012149545 -0.04330703 -0.033614554 0.052738592
0.0076125045 -0.034081865 -0.031283546 -0.059448414 -0.056623667 0.020730117 0.01026548 0.037398715
-0.05152405 -0.0266758 -0.015381664 -0.034376457 0.009856175 -0.02662 -0.02430482 -0.037246738
-0.0029540863 0.022168031 -0.0474531 0.04992572 0.013919603 -0.02379936 -0.03707842 -0.061053716
0.03187029 0.034017503 0.054179624 0.026158977 0.029671676 -0.052324966 -0.06109655 0.044733673
0.028562576 -0.025360214 0.05954295 0.036093928 0.0467148 -0.04369312 -0.011306007 0.01067894
0.032445826 0.0057299607 -0.046168115 0.0624938 -0.05363732 -0.006501575 0.0068506775 -0.036614288
0.056939866 -0.013819726 -0.020241093 -0.04305623 -0.04672208 0.004241462 -0.055986766 -0.03361563
-0.027415847 -0.026247062 -0.05322368 0.052164886 -0.018282002 0.060663167 -0.0376249 -0.028380105
0.020011457 0.059172254 0.024949603 -0.031725638 -0.060649615 -0.01222956 0.002281114 0.030306373
-0.011768873 -0.017915038 0.023444291 -0.02662057 0.014843003 -0.051772088 0.061361227 0.042308364
0.02168271 0.046512004 -0.030223759 0.0045673233 0.026419826 -2.8989336e-05 0.027949488 -0.039717104
0.01789403 0.04393368 0.014823272 0.060645685 -0.02677574 -0.007536139 -0.054445684 0.03769916
0.049463294 0.05226176 -0.046386313 -0.016609523 0.023403171 0.010753594 0.044829413 0.00506919
0.014404756 0.042641 0.007370401 0.025367456 -0.04670998 0.029568085 0.0074935844 -0.05858963
0.021974877 -0.03173006 -0.04515147 0.0021311971 -0.016907971 0.05386932 -0.017335515 -0.043748852
0.028536528 -0.025816398 -0.05757923 -0.0012838494 -0.021927562 0.015603789 -0.010246017 -0.025704766
0.054768223 0.03629852 0.03202903 -0.030976888 -0.025716437 -0.03959378 0.03635137 -0.015312255
-0.056632556 -0.03320684 0.034788486 -0.053370953 -0.051241558 0.0556403 -0.034705445 -0.053736646
0.037312254 0.014582116 -0.061051603 -0.019302009 0.06077503 0.030922323 -0.057431933 0.06260602
-0.032260526 -0.042956784 -0.04494708 -0.030732289 0.030414624 0.002746576 0.02943022 -0.03377398
0.023182008 0.022193246 -0.005402456 0.024450595 0.03730007 0.0095449975 -0.0113533735 0.027859993
-0.040748067 -0.05100335 0.01877658 -0.028658014 0.0032653585 0.06296653 0.0016868055 -0.028656818
-0.05101439 -0.028276091 0.022760835 -0.05186634 0.0065762266 0.0018432915 -0.02186265 -0.00618979
-0.0061466107 0.038455553 -0.042310134 -0.04815846 -0.041055597 0.03628008 0.013443481 0.053949
-0.0010490175 0.027340174 0.04717137 0.024630055 0.0014838569 0.028727587 -0.017045218 -0.0018565436
-0.020415023 -0.051110674 -0.039696943 0.063265406 0.011154149 -0.054725435 -0.016895581 0.05726272
-0.04997061 -0.02232851 -0.00343847 -0.0564861 0.036920063 -0.036647208 0.055924468 0.012728179
0.030325806 -0.020696163 -0.025110269 0.033836454 -0.012500329 -0.0017971799 0.039715577 -0.002728701

actor.fc2.bias f4 [128]
00000000: 287a 11bc e4b8 f7bc c175 6b3c 28fb 5c3d
00000010: 8ec1 053d b16d 2bbd 292b 193d 6c49 7e3c
00000020: 2da0 8d3c a3aa 783c f863 da3b 316f 353c
00000030: 018b 2f3d 8511 5a3d 5722 cfbb ec24 8c3b
00000040: 18bc cab8 4e27 3ebc 545b 673d 849a 41bd
00000050: c92c 2c3d b551 fe3c 2abb cebc 4d0f 19bd
00000060: 42c9 bf3c daaf 6fbd fd36 be3c 92f4 1d3d
00000070: b67a 5ebd 6a28 76bd 1e6e 573d 0e65 143d
00000080: 5c47 c83c 96ee 273d de42 0e3d 1b73 cc3c
00000090: 0d91 cb3c 4fa8 f33b f658 73bd fc6b cb3c
000000a0: e91d 333b e958 36bd c62b 7bbd 6925 5abd
000000b0: bdad 9fbc 883d 013d 2503 8ebb adb8 753d
000000c0: 20be b8bb ee63 85ba 4ab8 95bc 087e 8b3b
000000d0: 8843 b13c 9a7b 8d3c 0cce d53c 7882 53bc
000000e0: 3c41 0fbc ae3c febc 291b 6cbd b453 c73c
000000f0: fef6 ae3a 2ed7 6ebc a0ef b7bc d6ad 47bb
00000100: 9434 723d 5cfa 44bd 4b1e da3c 79f1 503d
00000110: b4d7 35bd bef3 a3bc 8c75 71bd 0ca2 9dbb
00000120: 50da 563d acec 083d a9cb 2a3d 310c 923c
00000130: 9bbb c23c a0d5 61bc 26e1 f6bc 3d99 6cbb
00000140: fbbf 06bd 8119 0a3d 67dc 8b3c 5343 fbbc
00000150: e13d ba3c b7de 693a 8c82 2ebd 67d0 2ebd
00000160: 7420 2cbd 125a c23b 68bc db3c 20db 643d
00000170: 3a21 2b3d b545 b93c 7fba 813d dac5 2e3a
00000180: f450 693d 8251 2e3c 19ca 7d3d 50b8 073c
00000190: e25c 3fbd 9b3a 943c f490 1c3d fb9c 5d3d
000001a0: 72e7 653c 5de1 613c ff34 7d3d 4782 273c
000001b0: f18c 3cbd cff3 79bc 303a 033c d843 543b
000001c0: 3d71 12bd f078 8c3c 6209 c7bb 5a68 2c3c
000001d0: 0d5d 683d 4658 8c3c 1216 5dbc ba83 183d
000001e0: 72ce f43b 4ece 78bc 2084 11bd 9809 40bb
000001f0: 5570 f73b 6906 c63c 40ab 2f3a da07 003d
-0.008879222 -0.03023953 0.014371336 0.05395046 0.03265529 -0.041852657 0.037394676 0.015520435
0.017288292 0.015177402 0.0066647492 0.011073873 0.042857174 0.053239364 -0.0063212323 0.0042768624
-9.667146e-05 -0.011606051 0.05648358 -0.0472665 0.042034898 0.03104482 -0.025235731 -0.037368108
0.023411397 -0.058517314 0.02321958 0.03856332 -0.054316245 -0.060097136 0.05259525 0.036229186
0.02444809 0.040999018 0.03473174 0.02495723 0.024849439 0.0074358354 -0.05941101 0.024831764
0.002733106 -0.044518385 -0.061321042 -0.053258333 -0.019492025 0.03155282 -0.004333871 0.059990574
-0.005637899 -0.0010176876 -0.018276352 0.0042569675 0.021638647 0.017270852 0.026099227 -0.012909524
-0.00874358 -0.031034794 -0.05764309 0.024331905 0.0013348756 -0.01457767 -0.02245313 -0.0030468605
0.059132174 -0.048090324 0.026625773 0.051011536 -0.044395164 -0.020013686 -0.058949992 -0.0048105773
0.052454293 0.033428833 0.04169813 0.017828079 0.023771098 -0.013783842 -0.030136656 -0.003610208
-0.03289793 0.03371573 0.01707287 -0.030671751 0.022734584 0.0008921432 -0.042604968 -0.042679217
-0.042023137 0.0059311474 0.026823238 0.055873036 0.041779734 0.022616247 0.063343994 0.00066670554
0.05696197 0.01063955 0.061960313 0.00828369 -0.04671944 0.018094352 0.038224176 0.054104786
0.014032232 0.013786641 0.06181812 0.010223932 -0.04603285 -0.015255882 0.008009478 0.003238907
-0.035752524 0.017147511 -0.0060741166 0.010522926 0.056729365 0.017131936 -0.0134940315 0.037235
0.0074708993 -0.015185906 -0.035526395 -0.0029302593 0.007551233 0.024172978 0.00067012385 0.031257488

actor.policy_head.weight f4 [50, 128]
00000000: e600 043c 6539 b3bc 3b7c 41bd cf04 a83c
00000010: 2b88 0c3c f4ba 923c 81ec 96bd 38f7 f0bb
00000020: 4206 e3bc 6412 533d 34a6 5c3c 7d37 483d
00000030: f813 04bd 7a5d 6fbd cdd7 3c3d f345 083d
00000040: b7e0 a4bd b1c7 6a3c 4b98 91bd 4dc1 863c
00000050: 423b 40bd 3168 b23c 8971 fabc 7870 13ba
00000060: b46f 78bd e31e 073d a0fa 6e3d b2a6 90bd
00000070: 6eef 44bc ac71 44bd 4440 313d 8a65 9dbc
00000080: 3932 443b 54e5 b9ba bce7 ac3d 1812 a63c
00000090: 8262 81bd 15c3 063d 5063 443c f586 57bd
000000a0: e35a 4d3d 7e4b 853a 397e 8c3d 3434 85bd
000000b0: f369 83bd e86b 34bd a565 e8bc f701 923d
000000c0: d576 0a3d 2e67 803d 56be 4abd 6178 a53c
000000d0: 6045 743c bcc4 953d 84fb 9cbc e16d 57bd
000000e0: 5e1a 5e3d f237 a2bd d9c4 a6bd 42f5 a13c
000000f0: 035b f63c c88f cb3c 6328 ed3c 05d2 863d
00000100: c40c 45bd 7076 89bd 28dc 0f3d 6e1f 403d
00000110: 6e9f d5bc 9528 38bd d320 08bc 7074 863c
00000120: 721c 6fbd 2411 673d e1df a03d 7375 d0bb
00000130: 88d0 f5bc c6e8 b13d 54b4 1abd 5855 54bd
00000140: 776f 9bbd 2b93 883d 533f d1bc 6156 37bd
00000150: 5503 4dbd 21be 49bd 1a8e 8d3d a2df b4bc
00000160: 0e37 a8bd c639 a8bd dac5 1abd 0f45 6ebd
00000170: 9969 f23c c723 9bbc e5a0 1dbd eba0 95bd
00000180: 8005 273d de7e 93bd 9be8 b33c 9170 95bd
00000190: aa5c ab3d 958e 49bd daed 173d e2fd 62bd
000001a0: 8529 4a3d fb35 cabc 3798 44bd 504a 943d
000001b0: 8341 9bbd fb55 97bd 450b 8dba 2640 743d
000001c0: f88a 7cbd c6c1 bd3c 1bbe 393d 884f b03d
000001d0: 323f 4e3d 538a 2cbd a710 8e3d dd4b b5bc
000001e0: e4d7 f83c bf55 74bd 38b1 333d 02ad 84bd
000001f0: 870e fc3c c270 85bc 24d3 febc 399d 223d
00000200: 0105 80bd b675 033b e6d5 e63c 725b d8bc
00000210: 8d50 ac3d 33d1 183d b5e2 833d 63d3 66bd
00000220: 7508 68bd 6bbf 063d ad50 8cbd 85ad 4bbd
00000230: a230 49bd 7a08 a3bd 92d3 733d d96f 483d
00000240: 96b2 92bd 9c1e 983d d5bd 903d e08b 273d
00000250: 2c21 583c 6cc0 1bbd f71a 2a3d ca61 55bd
00000260: 60ba ab3d 389b 3a3d 382e 9abd 808f af3d
00000270: 001f 4a3c 3ec2 853d c3d3 8bbc b19b 15bd
00000280: efd9 08bd 7799 293d 58e9 c6bc 8dbe a4bc
00000290: 892c dcbc 080c 863d fcae 37bd 07c8 29bd
000002a0: b504 473d 4327 823c 0896 403b c8ab 813d
000002b0: 70f2 9abc 6766 15bd fa23 acbd 4c5a 883d
000002c0: 5ab1 9fbd c457 12bd 411c 8bbc a5e8 353d
000002d0: ff1a 723d 1b8f d83c b6ca 6a3d 5f1a 463d
000002e0: 0c68 693c 0cde 953d 372b 143d b065 663b
000002f0: 2806 90bc 81a7 15bd 29a2 57bd 46dc 8c3d
00000300: df76 763c 574c b0bd ea66 37bd 3f38 a13d
00000310: 3a08 dbbc 2d3c 053d a433 68bc b46e ef3c
00000320: 022e 863d 84b2 a23c f709 9b3d 1791 a7bb
00000330: 1dd9 943d c9dc 9c3c 9d07 2f3c 6f18 2f3d
00000340: cbef 063d be30 3e3d 6265 38bd df86 c2bc
00000350: 86a5 1a3b 09e1 943d 3b05 43bd 90a4 aabd
00000360: d2f8 50bc 082f 4b3d 0962 bfba 0026 1b3c
00000370: ca6a 7f3d d658 9dbb a8bc 58bd 81c4 8b3c
00000380: 6ef8 abbd 9e04 253d 32bd 36bb a5f4 11bd
00000390: 39a4 c3bc 8855 ccbc 088c e93c c356 a5bd
000003a0: 7ea8 703d 853c 4fbc 9f73 8a3d 9497 a03c
000003b0: d331 a23d 177c 5b3c 844c 013d afaf 9d3d
000003c0: 3518 a3bd e490 823d 05ae a5bd 5d7d b33c
000003d0: c67e 4bbd 2ddc a73b 7b28 b2bd 3672 843c
000003e0: 0260 8bbc f813 13bd 5e59 873d 18b1 173d
000003f0: c9b4 1c3c d21e 933d 45ed b5ba e2bb 883d
0.008056855 -0.021877954 -0.047237616 0.020510105 0.008577387 0.017911412 -0.07369328 -0.0073536895
-0.027712945 0.05153121 0.01346736 0.048881043 -0.032245606 -0.058438756 0.04610424 0.033269834
-0.080506735 0.014329837 -0.07109126 0.016449595 -0.046931513 0.021778198 -0.030571716 -0.0005624364
-0.060653403 0.03298844 0.058344483 -0.070630446 -0.012019975 -0.04795997 0.04327418 -0.019213457
0.0029937162 -0.0014182725 0.08442637 0.0202723 -0.06317617 0.03290089 0.011986569 -0.05261894
0.050135504 0.0010169593 0.068600126 -0.065040976 -0.064166926 -0.04404822 -0.02836878 0.07129281
0.033804733 0.0626968 -0.049497925 0.020199003 0.014909118 0.07312915 -0.0191629 -0.052595023
0.054224364 -0.07920827 -0.081430145 0.019770268 0.030072695 0.024848834 0.028949922 0.06583027
-0.048107877 -0.06712043 0.035122067 0.046904974 -0.026076999 -0.044960577 -0.008308607 0.016412944
-0.058376737 0.05641283 0.078552015 -0.0063616573 -0.030006662 0.08686976 -0.03776963 -0.051839203
-0.075896196 0.06668695 -0.02554289 -0.04476011 -0.050052006 -0.049253587 0.06911869 -0.022079293
-0.08213626 -0.082141444 -0.037786342 -0.05817133 0.029591369 -0.018937958 -0.03848352 -0.07306083
0.04077673 -0.07201932 0.0219615 -0.07296861 0.08367284 -0.049208242 0.037092067 -0.055417903
0.049356002 -0.024683943 -0.047996726 0.072407365 -0.07580855 -0.07389446 -0.0010760805 0.05963149
-0.06165597 0.023163687 0.045347314 0.086089194 0.050353236 -0.042124104 0.0693677 -0.022130901
0.030376382 -0.059652086 0.04387018 -0.06478311 0.030768646 -0.016289119 -0.03110654 0.03970072
-0.062509544 0.0020059175 0.028178167 -0.026410792 0.08413801 0.037308883 0.06439725 -0.056353938
-0.05664869 0.032897394 -0.06851325 -0.049726028 -0.049118645 -0.07960601 0.05952794 0.04893479
-0.07162969 0.07427713 0.070674576 0.04090488 0.013191503 -0.038025305 0.041529622 -0.052095212
0.083851576 0.045558184 -0.07528347 0.08572292 0.012336493 0.065311894 -0.01706875 -0.036525432
-0.033410963 0.04140612 -0.024281189 -0.020110393 -0.026876705 0.065452635 -0.044844612 -0.041450527
0.048588473 0.015887862 0.00293863 0.06331593 -0.018914431 -0.03647461 -0.084052995 0.06657848
-0.07797499 -0.03572823 -0.016981246 0.04441132 0.059107777 0.026435426 0.057322226 0.048364993
0.014245998 0.07317743 0.036174025 0.0035155825 -0.01758106 -0.036536697 -0.052644882 0.06877951
0.0150429895 -0.08608311 -0.04477588 0.07872056 -0.026737321 0.03252809 -0.014172468 0.029227592
0.06551744 0.019860514 0.0757026 -0.0051137316 0.072679736 0.019148247 0.0106829675 0.04274791
0.03294353 0.046433203 -0.04501856 -0.023745952 0.0023597195 0.072694845 -0.04761241 -0.08332169
-0.012754636 0.0496054 -0.001460136 0.009469509 0.0623577 -0.00480185 -0.05291429 0.017061474
-0.083969936 0.040287606 -0.0027883765 -0.0356337 -0.023882018 -0.024943128 0.028509155 -0.08073189
0.058754437 -0.012648706 0.06760334 0.019603528 0.079196595 0.013396285 0.03156711 0.076995246
-0.079636015 0.06375292 -0.08089832 0.021910364 -0.049681447 0.0051226825 -0.08699127 0.016167741
-0.017013554 -0.035907716 0.06608842 0.037034124 0.009564587 0.07183613 -0.0013879916 0.06676461

actor.policy_head.bias f4 [50]
00000000: 8bfd abbd 0f2e afbd a25a 9fbc 8a91 93bd
00000010: 38fb 6ebd a058 76bd 9882 9d3d b00e 8d3d
00000020: 8e6d b73c 7839 8e3d f8ae 8b3c 1e2d 8b3d
00000030: 00e5 acbd 759e 58bd 7cdc 2b3b 4857 fdbc
00000040: e341 45bd 2df2 aabd eb2d 59bd 364f eabc
00000050: d988 8dbd 7e07 0cbd 7ed9 2dbd 141d b4bd
00000060: c999 efbc 8ac8 66bd e75f 83bc fe07 adbc
00000070: 6137 3a3d c4a6 75bc 577b 0c3d 5a07 b13b
00000080: f3f8 aebc 075c 483d badb f639 21a2 a53a
00000090: b486 b73c e8a7 2b3d d4b2 eb3c d543 a63d
000000a0: 0e1f aebd ebf5 4b3c 3407 b0bd e226 d4ba
000000b0: 2180 db3c d0c0 a43d 3ac1 43bb a850 6d3b
000000c0: f931 87bc f61f a4bc
-0.08397969 -0.08553707 -0.019452397 -0.07205494 -0.05834505 -0.060143113 0.076909244 0.06887567
0.022391107 0.06944555 0.017051205 0.06795715 -0.08442116 -0.05288549 0.0026223948 -0.030925408
-0.048158538 -0.083469726 -0.053022306 -0.028602224 -0.06910867 -0.034186833 -0.042443745 -0.08794609
-0.029248135 -0.056343593 -0.01603694 -0.021121975 0.04546297 -0.014993373 0.034297314 0.0054024877
-0.021358943 0.04891589 0.00047084485 0.0012636819 0.022403099 0.041908175 0.028771795 0.08118407
-0.08502017 0.012448768 -0.08595124 -0.0016185904 0.026794495 0.080445886 -0.002986981 0.0036211405
-0.016503321 -0.020034771

critic.fc1.weight f4 [256, 21]
00000000: 648c e3bd cbc5 32bd d55d 22bd f2c5 01be
00000010: 44a4 093d e50b 003e 3392 fbbd ef29 f7bd
00000020: fbea 25be 7911 263e 4bd0 133e 3bed debd
00000030: 10ef dcbd d702 16be ee2c 3dbe 5cf2 39be
00000040: 311a c6bd c628 263c f2bb e13d c3b9 fb3d
00000050: f2df 93bd 31ba 773d 2537 47be 9f60 9f3d
00000060: 8b9b d93d 3cb8 233e 87cb 8fbc ec7c 42be
00000070: 64ab 3e3e a3e7 143d 098c d5bd cd2e 16be
00000080: f4a7 cd3d 7e76 44be 3e42 d4bd a2ca 53be
00000090: 9912 5d3e 6c51 3e3e 7f4a 9a3c 14cb 243e
000000a0: ead7 083e e2b6 4c3d 7043 39be 0723 34be
000000b0: 1038 b2bc 3725 20be 9ee4 a33d 30fb ec3a
000000c0: 3a6b 893d 86a1 06be 5d79 10be bb8c bebb
000000d0: a72d 00be 1526 04be 2cd8 363d 0cb1 f9bd
000000e0: 41ab 593e d077 03be 6a51 e13d 35c1 143d
000000f0: b8e3 433e 2fab b0bd 9109 273e 9638 593d
00000100: aa3e 743d 2b4b f33d d5ec cc3d e04f d5bd
00000110: 3869 5d3e bc01 dd3d 1639 fcbd 88a0 323d
00000120: 6268 17be bde7 2c3d 6aaf 053e 96cd bcbd
00000130: e6c8 ee3d 958f 17be d36d 1b3e 7441 673c
00000140: ea9d 54be c91d c23d dbba 56be c90a 053e
00000150: bd1e 59be e563 3b3e f287 2ebe 9b6b 423e
00000160: 5754 49be b98a 543e 0087 a53d 5a18 4b3e
00000170: 1485 b43d 8cd1 d73d ccc5 21be 58c6 083d
00000180: 35a8 4dbe 6f22 d0bd 0a25 fe3d 44ce 6abc
00000190: 83e0 16be 5cf7 1fbe b86d dcbd 107f 0fbd
000001a0: bef9 0b3e 9b86 ad3d 24b2 5dbe 5eae c13d
000001b0: 458d c4bd ab58 403d e077 493e 8499 0dbe
000001c0: 9bdf eebc 1757 f7bc 4366 efbc 7855 2d3e
000001d0: 569f c7bd db9a 163c 5c8d 16bc d355 533e
000001e0: 8009 3a3e ddbb 01be 23c1 48bd 8b39 323d
000001f0: 1fdd 4d3e 31b9 37be 6f2d 0d3e cb29 123e
00000200: af04 a1bd 5e93 b83c abbe 29be 2480 59be
00000210: f065 f3bb c1bd 153e 28e4 06bd 6349 02be
00000220: 11a9 1b3d d78c b0bd afb7 973d 94fc 153d
00000230: 82c6 5d3e edda 303e 1767 ffbd be99 153e
00000240: 6b4b eb3d 4621 493e 719e b5bd 2b88 bdbd
00000250: 5a7e 37b9 b598 113d 9d48 0d3e d4c0 dd3c
00000260: 18d8 27be cdd4 71bd 4084 40be ff46 153e
00000270: 23d0 9f3d 2395 bebc e1b7 37be b4a7 2bbe
00000280: 46ec 4f3e 9b20 2dbd 4e0c acbd 7fc3 413d
00000290: 128f 43bd db37 4dbe 0081 48bd 7a4d aabc
000002a0: 1b32 e0bd 9e48 5f3e 8eee 8c3d ee9e 173d
000002b0: 2bf1 ab3d 8648 2f3d 9148 45be 157a 03be
000002c0: 4a34 353e b163 1ebe 1613 0a3e baf9 08be
000002d0: fc15 e33c d392 ae3d 8940 c33c 2e3a d9bd
000002e0: 2f59 4bbe c77e d7bd 5436 1c3e 3559 1e3e
000002f0: 7ebd 543e 0bd7 0cbe c7f4 cf3c 7698 d83c
00000300: b0dd ff3d ba31 873d fb5e 233d 8ad4 243e
00000310: 51fd 42be c88d 4a3e a3dc f53d ecdc 33be
00000320: 4617 c4bd 0b84 c63c 8cd5 f0bd 3cf6 27bd
00000330: b343 40be 739a 193e 1759 86bb 72cd 4abe
00000340: ac91 583d 7eab 343d f33e 0abe c512 f23d
00000350: c0c6 273e 6392 ed3d 6dc1 783d be6d 413d
00000360: 41e8 b0bd 978d e5bd f598 03be e0d0 41be
00000370: 5b79 4b3e b37f e6bd 24f5 5b3e 7499 23be
00000380: 8506 bdbc d3dd 1bbe dd4a 17be fe13 3a3e
00000390: 781d 263e 7aaf 01bd cdcb c53c 3e54 ebbd
000003a0: 9ffb 34bd fe8b d5bd 44aa ebbd 9afa 5cbe
000003b0: 7a4d 153e 482a 8fbd 6a55 543e e348 35be
000003c0: 5518 c63d 5dd3 2e3e e219 dc3d ea45 233e
000003d0: 68da 453e 867b 2d3e 5b2f 41be e2cc 70bd
000003e0: 62e9 c33d 06f9 0f3e b25a d93d f8c1 ca3d
000003f0: 6a42 6b3d 74c2 b4bc 9bfb fb3c 91a8 293e
-0.11110762 -0.04364566 -0.039640266 -0.12673166 0.03360392 0.12504537 -0.12283745 -0.12068545
-0.16202919 0.16217603 0.14434926 -0.10885092 -0.10787785 -0.14649521 -0.1847417 -0.18158859
-0.09672964 0.010141557 0.11022176 0.122912906 -0.072204486 0.0604803 -0.1945463 0.07782101
0.106253706 0.15988249 -0.017553104 -0.18992966 0.18620068 0.03635372 -0.104271 -0.1466629
0.100418 -0.19185826 -0.10364197 -0.20682767 0.21589126 0.18585747 0.01883435 0.16093093
0.13363615 0.0499791 -0.18092132 -0.17591487 -0.021755248 -0.15639196 0.0800259 0.0018080231
0.06709905 -0.13147554 -0.14108796 -0.005815116 -0.12517415 -0.12905152 0.04463975 -0.12191972
0.21256734 -0.12838674 0.110018566 0.03631707 0.19129837 -0.08626401 0.16312243 0.05303248
0.059630074 0.118795715 0.100061096 -0.104156256 0.21622169 0.107913464 -0.12315576 0.043610126
-0.14785913 0.04221319 0.13055196 -0.092189 0.11659412 -0.14800866 0.15178613 0.014114726
-0.20763364 0.09478337 -0.20969717 0.12992395 -0.21203132 0.18299825 -0.17044047 0.1898636
-0.1966108 0.20756043 0.0808239 0.19833508 0.08814445 0.10538015 -0.1579811 0.03339228
-0.20083697 -0.10162818 0.124094084 -0.014331404 -0.14734082 -0.15621704 -0.10763115 -0.035033286
0.13669488 0.084729396 -0.21649987 0.09457086 -0.095972575 0.04695956 0.19674635 -0.13828093
-0.029159358 -0.030192895 -0.029223567 0.16927135 -0.09747188 0.009192194 -0.009188976 0.20638208
0.18167686 -0.1266932 -0.049012315 0.04351191 0.20103882 -0.17941739 0.13786863 0.14273755
-0.078622214 0.022531208 -0.1657664 -0.21240288 -0.0074279234 0.14623167 -0.03293243 -0.12723307
0.03800303 -0.08620613 0.07408082 0.03661783 0.21657756 0.17271014 -0.12470835 0.14609429
0.11488994 0.19641599 -0.08868111 -0.092544876 -0.0001749931 0.035546023 0.13797231 0.027069487
-0.16391027 -0.059040833 -0.1880045 0.14577864 0.07803371 -0.023264473 -0.17941238 -0.16763192
0.20304975 -0.042267423 -0.084007844 0.04730558 -0.047743864 -0.20040838 -0.04895115 -0.020788897
-0.10947057 0.21805045 0.06881438 0.0370168 0.083956085 0.042793773 -0.19265963 -0.1283954
0.17695728 -0.15467717 0.13483843 -0.13376513 0.027720444 0.08524098 0.023834484 -0.106068
-0.1985824 -0.10522228 0.152551 0.15463717 0.2077541 -0.13753907 0.025385274 0.026439887
0.124934554 0.066012815 0.039885502 0.16096702 -0.19041945 0.19780648 0.12004974 -0.17564744
-0.095747516 0.024232885 -0.11759481 -0.04100631 -0.18775825 0.15000324 -0.004099976 -0.19804934
0.0528733 0.04410886 -0.13500576 0.11819986 0.16384411 0.11600187 0.06073134 0.0472238
-0.08638049 -0.11208647 -0.12851317 -0.18927336 0.19870512 -0.112548254 0.21480232 -0.15976506
-0.023074398 -0.15221338 -0.14774652 0.18171689 0.16222179 -0.031661488 0.024145031 -0.11490677
-0.044185277 -0.10427092 -0.11507085 -0.21579972 0.14580336 -0.069904864 0.20735708 -0.17703585
0.0967261 0.17072816 0.10747124 0.15944639 0.19321597 0.16941652 -0.18865721 -0.05878914
0.095659986 0.14059839 0.10613002 0.09900278 0.057436384 -0.022065379 0.030759623 0.16568209

critic.fc1.bias f4 [256]
00000000: 58a3 553e 7463 8a3c 49db e1bd 38bf 01bd
00000010: 9da5 5dbc 0a8b d6bc 4779 343d b08c a5bd
00000020: 5fc9 c43d 2038 003e 345f 513a ac43 a2bd
00000030: 4351 e83d 83d4 393e 2272 243e 038e 8e3b
00000040: 1472 f6bd a872 efbd 1287 02be 0978 c53c
00000050: fe79 4dbe 97ea 2ebe 9466 2d3e 30d7 64bc
00000060: dda0 c4bd 5335 b03c 57a0 77bd 2f6b 10bd
00000070: 26b5 d73b 32c8 c5bd 425f 7e3b 82ad 033e
00000080: 9260 1ebe 7bf8 7d3c dfa2 4abd 3f32 4fbd
00000090: 0963 40bc 2a69 1f3e 0b2b edbd dbed 09be
000000a0: 47de 513d 9244 46be 6936 f8bd 6cb1 bfbd
000000b0: 5bcb 61bd f765 d13b 764e 26be 15b4 e1bd
000000c0: e6f4 253e d72d 803d 497f 4fbe 970f 2fbe
000000d0: 4572 023e 5305 1dbc 3092 16be cb91 c6bd
000000e0: 721a e5bd f353 f23d bd55 0e3d 39de d1bc
000000f0: 8e39 353e 92cf 51ba 719c 0f3e c427 ddbc
00000100: 4a30 133d fd15 c1bd a2c0 11bd eafc ceba
00000110: 8f53 26be 05b8 d63b 203c 353e 2948 ce3c
00000120: 1370 bd3b c007 11bd aa66 283e 77c7 b13c
00000130: 4f84 08be 89ce 263d 3b8b e53d 3b76 c13d
00000140: df39 05be b3cc 983d cd20 51be 48dc 2e3e
00000150: aa8c 4bbd 603e ba3c 80c1 043e 3cd8 dd3d
00000160: 5bcc 6a3d abd2 4dbe 14ac c43d 36f5 9cbd
00000170: 5500 08bc 59fe 58be 837b 333e 1e8c cbbd
00000180: 1b95 f43d 94c1 933d 89b5 5e3e 332f c43d
00000190: cd51 71bd edc9 33be ad7a 27be 1002 cabd
000001a0: 8568 463d 0d73 ccbd e0d3 ea3d 187b 70bd
000001b0: fa53 13be 5c35 1abe 06f1 7b3d fbac 1b3e
000001c0: 9be5 18bd 71c7 3f3e f9b2 01bd a4f7 c6bd
000001d0: 58f9 333e 3c9e 8abd 8e60 d8bd f58e 97bd
000001e0: be7c df3d bee1 5bbe 7b59 f53d 4374 3cbe
000001f0: 30cd 63bd 757e 1f3e 761a 8fbd dcda 4dbe
00000200: c714 4e3e a3ac 29be 52ed 2e3e 2eb1 c7bd
00000210: bf04 133e 00f5 9a3d 7659 fc3d 66b1 f83d
00000220: 7cae 0dbe d791 3bbe d9a0 3d3e d9a3 5dbd
00000230: 46b4 46bd e2a3 52be da01 0d3e 23e8 013e
00000240: c805 34be dedf 22be 5616 aa3d 6e99 b33c
00000250: 641a 923d 8944 23be 99b7 f13d 435d 19be
00000260: 4257 693c 5b91 1e3e e43f 063e cefd 5c3d
00000270: 77cd 16be 6548 d4ba 8b4c 193e 74be 3b3b
00000280: 1eef 27bd 282a b2ba 8278 18be d282 be3d
00000290: bab3 1cbe b821 053d e697 cfbd 973d b13d
000002a0: 6124 243d 8004 e63d 933f 43be 41cd d13d
000002b0: 120e 423e 777e 59be db4a 033d 72d9 033e
000002c0: a5da e43d 9c6f 9d3d 19f6 df3c e276 533e
000002d0: 5f75 263e 0578 11be eb53 5bbe 0021 673d
000002e0: d54f a9bd 802d 183e 4b10 81bd da35 983d
000002f0: 8827 1abe 8b88 5b3e 9a9e d03d b670 d8bd
00000300: f07d 413d 1aac 163e 8424 0cbe 5281 2dbe
00000310: 1130 283e 0f2a 363e 526f 743c 579e 0fbe
00000320: d0c3 fc3d 6ba4 313e 9ea8 f8bd f494 763d
00000330: 1f35 cd3c e749 5f3e 01c9 223d 9e0d 243e
00000340: 68b8 46bd c1e2 fcbd 703c 53bc c70f 06be
00000350: 9c9d 8ebd 870b 26be 94c1 143e 0085 033e
00000360: 18e4 4dbd 7375 59be ba31 93bd 2702 0fbc
00000370: da4d 413e b230 31bb bf2e 2c3e f6ca 22be
00000380: 0e13 d9bd aefe f5bc ae14 cd3d d9cd 003d
00000390: 0062 0ebd d218 33be 5d0a 59be fbf1 55bc
000003a0: 2efe 5f3d fd3c 4cbd c9a9 12be 62af d33b
000003b0: ad46 163e 68ca 3dbd 37a9 6dbd 73bd b13d
000003c0: ea94 303d 6c01 15be 8619 69bb 43c0 893d
000003d0: 6168 923d 5687 4cbe c337 52bd 8fa0 cebc
000003e0: 977c 84bd ae62 11be 17f5 93bc 71ca 9ebd
000003f0: 506d 533e f7f8 033c 7a6c 273e 30ca 2d3d
0.20863092 0.016893126 -0.110281534 -0.0316765 -0.013528255 -0.026189346 0.04406097 -0.08083475
0.09608721 0.1252141 0.00079869037 -0.07923064 0.113436244 0.18147473 0.16059163 0.004350425
-0.120334774 -0.11691791 -0.12746838 0.024105089 -0.20066068 -0.17081676 0.16933662 -0.01396732
-0.09600995 0.021509802 -0.060455646 -0.03525847 0.006582874 -0.09657325 0.0038814102 0.12859157
-0.15466526 0.015501137 -0.049471732 -0.050585028 -0.011742362 0.1556746 -0.115804754 -0.13469641
0.05123737 -0.19362095 -0.12119753 -0.093600124 -0.055125576 0.006390329 -0.16240868 -0.11020676
0.16206703 0.06258743 -0.20263399 -0.17095791 0.12738903 -0.009583789 -0.14704204 -0.096957766
-0.11186685 0.11832418 0.034749735 -0.02561866 0.17697737 -0.00080036477 0.14024521 -0.0269965
0.035934724 -0.09428022 -0.0355841 -0.0015791927 -0.16242813 0.0065526986 0.17698717 0.025180893
0.0057811826 -0.03540778 0.16445413 0.021701558 -0.13331722 0.04072431 0.11208197 0.09446379
-0.13010357 0.07460918 -0.20422669 0.17076218 -0.049694695 0.02273482 0.1296444 0.10832259
0.057323795 -0.20099895 0.09603134 -0.07663958 -0.00830086 -0.21190776 0.17527585 -0.099388346
0.11942502 0.072146565 0.21748938 0.09579315 -0.058915902 -0.17557497 -0.16355391 -0.09863675
0.04843952 -0.09982882 0.11466193 -0.05871114 -0.14387503 -0.15059417 0.061509155 0.15202706
-0.037328344 0.18728425 -0.031664822 -0.097152025 0.17575586 -0.06768462 -0.10565291 -0.07400314
0.109124646 -0.21472833 0.11979958 -0.18403725 -0.055615604 0.15575583 -0.06987469 -0.2010302
0.20125113 -0.16569762 0.17082718 -0.09750591 0.14357279 0.07566261 0.12321751 0.12143211
-0.13836092 -0.18317352 0.1851839 -0.054111335 -0.048511766 -0.20570329 0.13770238 0.1268621
-0.1758033 -0.15905711 0.083050415 0.021923747 0.0713394 -0.15944113 0.118025966 -0.14976983
0.014241995 0.15485136 0.1311031 0.053952985 -0.14726816 -0.0016195892 0.14970605 0.0028647454
-0.040999524 -0.0013592886 -0.1488972 0.09302296 -0.15302935 0.03250286 -0.10136394 0.086543255
0.040073756 0.11231327 -0.1906722 0.10244227 0.1895068 -0.21239649 0.03205381 0.12875918
0.11174516 0.076873034 0.027339028 0.20650819 0.16255711 -0.1420594 -0.21418731 0.056427956
-0.0826718 0.14861107 -0.06301936 0.07432146 -0.15054142 0.21438806 0.10186501 -0.10568373
0.047239244 0.14714089 -0.13685805 -0.16943863 0.16424586 0.17789482 0.014919119 -0.14025246
0.12342036 0.17347877 -0.12141536 0.060200647 0.025049744 0.21805535 0.039742474 0.1602082
-0.048515707 -0.123479374 -0.012892827 -0.13091956 -0.06963655 -0.16215335 0.14526969 0.12843704
-0.050266355 -0.2123621 -0.07187219 -0.0087285405 0.18877354 -0.0027037081 0.16814707 -0.15897736
-0.105993375 -0.030028667 0.1001371 0.03144631 -0.03476143 -0.17489937 -0.2119536 -0.013058181
0.054685764 -0.04986285 -0.1432258 0.0064601162 0.14675398 -0.046335608 -0.058022704 0.08678713
0.043110766 -0.14551324 -0.0035568192 0.06726124 0.07148815 -0.19973502 -0.05132271 -0.025223045
-0.06469076 -0.141978 -0.018061204 -0.077534564 0.20647168 0.008054963 0.16349974 0.04242915

critic.fc2.weight f4 [128, 256]
00000000: d1df 043d d532 bdbc 137f 23bd 4b21 083c
00000010: 44ca a5ba 97b3 41bd 82a9 623d af51 433d
00000020: b050 3b3d 5983 fcbc fcc4 af3c 0413 0d3d
00000030: e702 653c 7c95 9e3b 0c89 513d d093 423d
00000040: 7f46 cabc 8661 713c 3f58 e53c 28ff e83a
00000050: 4e80 e1bb 0a1b 953c 16f1 b2bc b062 7cbd
00000060: a8e5 ecbc 5ddf 9e3c 35b1 eebc ab4d c43c
00000070: 1b0f 683d 84b4 6fbc 22c1 c8b9 8bdb c1bc
00000080: 9b43 9bbc ca57 1d3c b16f 76bc 78f3 743b
00000090: a77c c93c 9d65 bbbc 8f0f 4cbd 9643 38bd
000000a0: 339d 773d 9bbf 343d cf42 ae3c 72c1 3e3d
000000b0: d805 db3b c8bc 6ebd 2b2d fcbc 2fbd 3a3d
000000c0: 0624 493d 81ff 393d 7d65 19bd 6290 2ebd
000000d0: 28e9 6cbd f385 6cbc e5dd 53bd 9750 703d
000000e0: 3116 e2bc 304e edbc 1c12 3abd 444f 7ebd
000000f0: f552 0d3d 4ff8 c7bc 67a9 9fbc 60f4 153d
00000100: a7f3 773d 4630 363c da87 733b 1c8a 133d
00000110: bb53 cebc b1c1 a9bc 6636 74bd 5cf6 a8bc
00000120: cabd 1cbd 23a7 86bc 316f babb 30bd 6dbd
00000130: 4cb8 bebc f62b 513d 60d7 64bd b11a 173d
00000140: 49a2 75bd 67c8 d53c b64b 863c fde8 74bd
00000150: 0835 083d 0ec0 c7bc 4bed e13b 0edb 173d
00000160: 9918 583c af2b 223c fd34 1dbd 44b3 6bbd
00000170: 62e5 a23c b5d4 5e3c 3d2a 4d3d 6c2d 3ebd
00000180: 7bd2 88bc 8151 d43c f65f ab3c 0e44 1bbd
00000190: 0c3a fdbc c04c 6a3d 76e3 463d 8f6d 4d3c
000001a0: 3ca1 113d d4ed 743d 2ca0 02bd 92db 68bc
000001b0: 8cbc 6b3b 3acc ea3b 5173 73bd f6ef d9bc
000001c0: f6c9 93bc 5e8d 17bc ac5a 4f3d 92e4 21bd
000001d0: ed8f 733d 9090 c23c 64f6 2bbd cb65 5f3d
000001e0: 0dec 07bc 4d61 093d df69 07bc 575a 58bd
000001f0: 3277 523c c0ea 1c3d ec62 61bd 3d41 0a3c
00000200: 4221 723d 71d8 3b3d 74aa b23b bf01 193d
00000210: a3e1 183d f8c2 373d 218e 0e3d 171c 193d
00000220: de7a a73c 5e6b 5c3c ff80 86bc 2f1f d9bb
00000230: c63a afbc 7691 663d 525a 48bb d10d fcbb
00000240: 9868 3ebd 4fda 2e3b 8848 803c 93a5 3abc
00000250: 5381 81bc 25e3 81bc a884 32bd cbc5 7f3d
00000260: 2273 9a3c afc3 8e3b 09a2 b9bb 110d f1bc
00000270: a060 d3bc fe3e a7bc a071 3c3d a404 60bc
00000280: dced 44bd e097 043d 8dd2 3f3d 64fe 073c
00000290: 143f 1ebd 943c ff3c b85a 8fbc 796e 7dbd
000002a0: 3d59 f5bc d6fa 5f3d 7921 663d c73b 793d
000002b0: 6163 a9bb 009e 4e3d 0118 14bd b7f3 2abd
000002c0: 032f ecbc d9e4 6b3d de99 03bd 7124 743d
000002d0: e5fc 04bd 2bd1 103d 5e4a 62bd c26b f33c
000002e0: 6356 60bd 940f 363d 5230 333d bc14 41bd
000002f0: 8d62 553d a0cc 293d fb5a ffbc 9002 4b3d
00000300: 24ac 05bd 5a53 74bd 148b 713d 4c51 2c3c
00000310: 5306 6c3d b3b0 033d 1a64 083d 3fc8 523d
00000320: 6c1f 7a3d 14c1 293d e8cc a43c 3446 00bd
00000330: e107 2bbc f0a0 1d3c 7375 5a3d 906a e7bc
00000340: 553e 883c 64c7 02bd c4cc 263d d0ad 7abd
00000350: ce9f 51bd 5f00 f5bc 3e50 44bd 03a8 b53b
00000360: 5837 df3a 5b72 91bc 0576 0a3d d5d6 813b
00000370: 4546 8dbc fdaa b23b ed7f 863c eb55 533d
00000380: 37fc 8c3b 0be3 c0bb 021e 7b3b cc76 d1bc
00000390: db00 1c3d 4d83 23bc eda5 93bc f65f 29bc
000003a0: 8ecd 44bd 2713 7b3c 0c25 633d 6656 e4bc
000003b0: 271d eb3c c407 113d 2fcd cd3c 6379 963c
000003c0: 2716 7fbd fdf0 7c3d 2aae 31bd b3ec 383a
000003d0: eba8 7cbc 32e7 893c 0ca4 0c3d 9e76 483c
000003e0: 815a e73b 5a24 8ebc 3c87 2b3d 5ce6 00bd
000003f0: 6a83 c53c 40c2 05bd d79f f6bc a4ac e2bc
0.03244001 -0.023095528 -0.03991611 0.008308719 -0.0012648781 -0.04729041 0.055337436 0.04768532
0.045731246 -0.03082435 0.021456234 0.034441963 0.013977743 0.0048395973 0.05115609 0.047504246
-0.024691818 0.014732724 0.02799618 0.0017776238 -0.00688175 0.01820137 -0.021843474 -0.061617553
-0.028918102 0.019393617 -0.029137233 0.023962816 0.05665503 -0.014630441 -0.00038290868 -0.023664257
-0.018953135 0.00960345 -0.015041278 0.0037376564 0.024595572 -0.022875601 -0.049819525 -0.04498633
0.06045265 0.04412804 0.021272091 0.046571203 0.0066840462 -0.058285505 -0.030783257 0.045590576
0.04910662 0.045409683 -0.037450302 -0.042618163 -0.057839543 -0.014436233 -0.051725287 0.058670606
-0.027598472 -0.028967947 -0.045427427 -0.062087312 0.034502942 -0.024410395 -0.019489957 0.036610007
0.0605351 0.011119908 0.0037159831 0.036020383 -0.02518641 -0.020722242 -0.05962219 -0.020625286
-0.038266934 -0.016437119 -0.0056895246 -0.05804175 -0.023281239 0.051067315 -0.05586946 0.03689069
-0.05996922 0.026096536 0.016393524 -0.059792507 0.0332537 -0.024383571 0.0068947426 0.03707414
0.013189458 0.00989811 -0.03838061 -0.057544008 0.019884769 0.013600518 0.05008911 -0.046430036
-0.016701927 0.02591777 0.020919781 -0.0379067 -0.030911468 0.0572021 0.048556767 0.012538328
0.035554156 0.059797123 -0.031891033 -0.014212506 0.0035970537 0.007165459 -0.059436146 -0.02660368
-0.018040638 -0.009250013 0.05062358 -0.039524622 0.05946343 0.023750573 -0.041983023 0.054540437
-0.008296025 0.03354006 -0.008264988 -0.05282053 0.012845801 0.038309813 -0.05502598 0.008438406
0.05911375 0.04586071 0.0054524485 0.03735518 0.03732456 0.04486367 0.034803513 0.037380304
0.02044433 0.013453333 -0.016418932 -0.006626032 -0.02139033 0.056291066 -0.0030571413 -0.0076920767
-0.046486467 0.0026680415 0.015659586 -0.011392015 -0.015808737 -0.015855381 -0.043583542 0.06244449
0.018853728 0.0043568234 -0.005665068 -0.029425176 -0.02580291 -0.02041578 0.0460068 -0.013672981
-0.048078403 0.0323714 0.046831656 0.008300398 -0.038634375 0.031156816 -0.017499313 -0.061872933
-0.029949779 0.054682575 0.056184266 0.060848024 -0.0051693176 0.05044365 -0.036155704 -0.04173633
-0.02883101 0.057591293 -0.03212916 0.059605066 -0.03246774 0.035355728 -0.055246703 0.029714469
-0.054769885 0.04444845 0.043747254 -0.047138914 0.05209594 0.04145491 -0.031171313 0.04956299
-0.03263487 -0.059649803 0.058970526 0.01051743 0.05762322 0.032150935 0.03329859 0.0514605
0.061065122 0.0414439 0.020117238 -0.03131695 -0.01043889 0.00962089 0.053334665 -0.028249055
0.016631285 -0.031928435 0.040722623 -0.061200917 -0.051177792 -0.029907404 -0.047928087 0.00554371
0.0017030044 -0.017754724 0.03380396 0.0039623776 -0.017245421 0.0054525123 0.016418422 0.05159561
0.0043025273 -0.0058864406 0.0038317447 -0.025569342 0.038086753 -0.009980035 -0.018023456 -0.01033782
-0.048047595 0.0153243905 0.055455253 -0.02787323 0.028700424 0.035407797 0.025122253 0.018368429
-0.062276985 0.06175326 -0.043378986 0.0007054314 -0.015421133 0.016833875 0.034336135 0.012235312
0.0070603495 -0.017351318 0.041877016 -0.031469688 0.024110515 -0.032655954 -0.030105514 -0.027670212
