server/policies/checkpoints/policy_2_360/model.pt (torch, 338258 bytes, 11 tensors)

actor.fc1.weight f4 [256, 21]
00000000: 9bee f43c 80a6 7f3d b215 f53d 9a76 52be
00000010: e8cc 3dbe 9c3c 15be 004e 783d c4a3 313e
00000020: 92e0 2fbe 07ca 9ebd 4139 2a3d f78a 553e
00000030: ae90 f1bc 005b 1cbd 9150 873c 8790 f2bc
00000040: 17dc a33d 83e6 8a3d 95fa 16be 0a4c 323d
00000050: f945 533e 2aba 1f3e c490 f03d aa7f 333d
00000060: fe82 21be 2e34 2ebe c1cd cfbc ea33 d03d
00000070: 2c44 b53d 2eb7 85bc 6a36 4a3d bc82 95bd
00000080: 901b 0bbe b2d3 16be 84ff bfbc 80d6 e43d
00000090: 1b06 49be f800 38be 1632 443e 0a61 e1bc
000000a0: 63e3 f0bd f881 88bd 8207 94bd 49ee 2abe
000000b0: 1124 ebbd b28d f23d 30ca 1bbb cb39 e5bd
000000c0: 6b26 493e a5ce 273e bf7a 1abe ba38 043e
000000d0: 604b 453d 1eb0 b43d d256 d8bd ed37 c5bd
000000e0: 61b3 563e 50d5 61bd cfd8 05be eba7 49bc
000000f0: 3f72 1c3c 3392 da3c e6c7 84bd e466 1a3e
00000100: 8590 ae3d 508a c93d e5f4 cfbd 9e74 d23d
00000110: 5f55 fc3d 41de 143e c66e 583e 65be e3bd
00000120: da50 a63d 5f94 40be 20db 1d3e c8d8 94bd
00000130: ae18 8e3d e179 5dbe dff4 5d3e aa38 4dbe
00000140: 6a03 9c3c 99af c13c 4971 023e 86a7 35bd
00000150: 643e 5fbe ef25 b33d 221a 54be f653 94bd
00000160: 728e ed3d 416a fe3d eb91 aa3c f80b bcbd
00000170: eb42 8d3d 0a6b 1abe 15ff e9bd 36d5 443e
00000180: 6d83 49be abbd eebd a1f6 3ebe ca5e 95bd
00000190: 3828 0abe 8eab 49be 0c23 5f3e 8920 75bd
000001a0: 1469 27be decc 05be 4a1f d13d c883 823d
000001b0: 3246 6fbb cd94 86bc 3d26 38be 914c 123a
000001c0: d2b4 e23c c297 963d c698 c7bc 799d bc3d
000001d0: 1298 13bc 5850 8cbb 65f7 7cbd c5fb 3f3e
000001e0: a011 b3bd aef1 22bd 291c f63d d1ca fb3d
000001f0: f32e 1f3e e82c 1ebe 8de1 02be 68ed 323e
00000200: 0eae 373e 1c03 52be e080 09be 9c31 553e
00000210: 30f9 543e 3fdf dfbd 86cd fc3d 869b dabd
00000220: 20f2 dc3d 121d 4abe c245 adbd c9d6 8abb
00000230: f964 3b3e 2e4c 8a3c 28fa 38be de50 843d
00000240: 2075 3a3e 366e b2bd a2f0 15be 2f9b ab3d
00000250: 5e77 3c3e 56c2 5a3c 2ee2 01be 5646 29be
00000260: 055e 673c d604 04be d185 303e ca59 dabd
00000270: 441a 563e 2ed4 26be 3ec5 253e 9a4f 2e3e
00000280: 75f6 593d 586a bf3d 6270 453e d626 afbd
00000290: 8ec2 553d c5ae 29be 0e57 31be 18ed ffbd
000002a0: a24d 1bbe ae0f cc3d 0c82 f9bd 687f 193d
000002b0: 3606 c8bd d419 dbbd f316 a4bd 3e56 143d
000002c0: 46c8 2fbe a55d 47be 9fb2 f6bd 7a8b 1dbe
000002d0: b954 c53d 7c5b 123e e6dd e03d 6de2 09be
000002e0: 6dec 0b3e efe6 b4bd f863 29be 9b0b b3bd
000002f0: 41f9 26bd 7cf2 0b3e cbec 11be 5a6a d6bd
00000300: 4767 16be 7e0a 4eba 2cec 21be cdcf 71bd
00000310: fc8e f1bd d904 b73d 36a2 1b3e 4c03 013d
00000320: 3039 1bbe 0f2b 863d 3a1d 79bc c59d d0bd
00000330: ab62 513e 8a38 173e a516 11be 792e 213e
00000340: aa18 163e 7d9c 0b3e 6ca3 8a3c d69d dabd
00000350: f026 c63d 6617 e3bd 8e24 633d 8765 f83d
00000360: 90eb 18bc f427 43be d86c 19be 4404 4d3e
00000370: 3fbe ffbd 3b1e 42be d28e 833d cafc 863c
00000380: 67f8 8c3d 70b3 ad3d 1804 5c3e caf1 c13d
00000390: 1ca6 473e 51b0 c9bd 6729 d33d 4408 c03d
000003a0: 161e 063e 16ba 91bc 6875 293e 31d1 cb3c
000003b0: 3837 f43d 595f 12be aa1d b0bd 47d3 343d
000003c0: 24e9 a1bd d367 9abb 19d9 e2bd 4ba2 51be
000003d0: 8b7a 793d 9f8c 0bbe d708 84bc eca2 09be
000003e0: 81c3 0a3e 5a40 77bd 074f 4e3c ff46 3e3e
000003f0: ec80 cfbd 7838 29be f3fa 42be df1c 903d
0.029898932 0.062414646 0.11967029 -0.20553055 -0.18535197 -0.14573902 0.06062126 0.17347628
-0.1717551 -0.077533774 0.041558508 0.20853792 -0.029487934 -0.038172722 0.01651791 -0.029609932
0.08000963 0.06782248 -0.14744027 0.043529548 0.20632161 0.1559836 0.11746362 0.04382292
-0.15772626 -0.17012092 -0.025366666 0.10166152 0.088508934 -0.016322698 0.0493683 -0.07300326
-0.13584733 -0.14729193 -0.023437269 0.11173725 -0.19631235 -0.1796912 0.19159731 -0.027512092
-0.117621206 -0.066654146 -0.072279945 -0.16692461 -0.114814885 0.118434325 -0.0023771636 -0.11192664
0.19643562 0.16387422 -0.15085886 0.12912264 0.048167586 0.08822654 -0.10563435 -0.096298076
0.20966865 -0.05513507 -0.13070987 -0.012308101 0.009548723 0.026681041 -0.0648344 0.15078312
0.08523659 0.09840834 -0.10154132 0.10276149 0.12320971 0.14537908 0.21136007 -0.11120299
0.0812089 -0.18806599 0.15415621 -0.0726791 0.06938301 -0.21628524 0.21675442 -0.20041147
0.019044597 0.023643302 0.12738527 -0.044349216 -0.21801144 0.0874747 -0.20713094 -0.07242577
0.11599435 0.1242261 0.020821532 -0.0918197 0.06897529 -0.15079895 -0.11425606 0.19221959
-0.19679041 -0.1165727 -0.18648769 -0.0729347 -0.13491905 -0.19694349 0.21790713 -0.05984548
-0.16348678 -0.13066432 0.10211046 0.063727915 -0.0036510346 -0.016428376 -0.17983337 0.00055808673
0.027674112 0.07353164 -0.02436484 0.09209723 -0.009008424 -0.0042820387 -0.06175937 0.18748386
-0.08743596 -0.039781265 0.1201709 0.122945435 0.15545253 -0.15446818 -0.12781353 0.17473376
0.1793749 -0.20508999 -0.13428068 0.20819706 0.20798182 -0.10931253 0.12343888 -0.10674195
0.10788369 -0.19737652 -0.08460571 -0.00423703 0.18300237 0.016882028 -0.18064177 0.06460737
0.18208742 -0.08712427 -0.14642575 0.08379208 0.1840491 0.013351997 -0.12683937 -0.16530737
0.014121537 -0.1289247 0.17238547 -0.10661657 0.20908457 -0.16291878 0.16188523 0.17022553
0.053213555 0.09346455 0.19281152 -0.08552329 0.052187495 -0.16570576 -0.17318365 -0.12496394
-0.15166333 0.09963928 -0.121830076 0.03747502 -0.0976681 -0.10698286 -0.0801219 0.03621506
-0.17166242 -0.19469316 -0.12045788 -0.15385237 0.096353 0.14292711 0.10979824 -0.13465281
0.13664408 -0.088331096 -0.16542041 -0.08742448 -0.04076505 0.13666719 -0.14250486 -0.10469504
-0.14687835 -0.000785984 -0.15812749 -0.059036065 -0.1179485 0.089364715 0.15198597 0.031497285
-0.15158534 0.065511815 -0.015204722 -0.10186342 0.20447795 0.14767662 -0.14168794 0.15740384
0.14657846 0.13633914 0.016923629 -0.10674636 0.096753955 -0.11088447 0.055454783 0.1212874
-0.009333506 -0.1905821 -0.14982927 0.20021158 -0.124874584 -0.18956845 0.06423725 0.016477961
0.068833165 0.084814906 0.21485937 0.09469946 0.1949696 -0.09848083 0.10310631 0.093765765
0.13097414 -0.017788928 0.16548693 0.024880024 0.11924595 -0.14294185 -0.08599408 0.044146802
-0.07905796 -0.004712084 -0.11076564 -0.20472066 0.06090788 -0.13627861 -0.016117496 -0.13441056
0.13551141 -0.060364105 0.012592084 0.1858177 -0.10132012 -0.16525447 -0.19041042 0.07036757

actor.fc1.bias f4 [256]
00000000: 31d5 e3bd 9bda 6fbc f648 5dbd 61a2 e1bd
00000010: 26bf a73d 296f cbbd 068d 2bbe 1213 873d
00000020: 3bc2 ad3d a5b6 443e df1a 38bd a619 fc3d
00000030: 0cd4 bdbd e0ab 49bd 78ae 193d eff0 1dbe
00000040: 9099 583e 7fb0 0cbe 1e54 203e 8989 01bd
00000050: 37b4 333e 9b86 1dbe bd4c 023d 81e8 e7bd
00000060: e060 d2bd 0467 f9bd 79c6 753d 4ce0 bdbd
00000070: 566f 243d d8b1 b4bc 845f 10be 0241 793c
00000080: aed2 e33b 3a78 f9b9 9f7e 5cbc 28e2 f53d
00000090: 765d 983c 9fc8 563c 4061 5d3e 8938 19be
000000a0: 7eef 53be e6e3 c63d 89cb d1bd 36ce 43be
000000b0: 40fc 21be 3bfe e8bd d0c4 debd 25b9 5c3e
000000c0: 2c2c 263e ba31 c1bd 90ec 573e d809 2dbe
000000d0: 19ed 8cba 1504 4e3e 63ac 3dbe cf3c aebd
000000e0: d7af d9bd 5d09 11be 72b2 5cbe 464b 3fbe
000000f0: ff09 09bc f999 3f3d 9df7 1cbe 6a7f 053e
00000100: 0dd9 fd3d ccb7 8f3d 2811 11be 8027 1e3d
00000110: a07c ca3d 1c71 b73d c911 dabd 1459 1cbd
00000120: 0d77 20be 236f 083e da54 19be b32b 3cbe
00000130: 823e 4a3e dbdb 32be 7cc5 3b3e fe46 e33c
00000140: 8a68 3d3e 3319 da3d 5762 893d d2e3 3ebe
00000150: c247 043e 8d2c e43d 0780 133e a116 0d3e
00000160: 8657 5c3e 85d9 adbd 5953 ac3b 0e41 063e
00000170: f57e be3d 5f93 20be b952 25bd b383 c6bd
00000180: 3f92 3a3d d781 b6bd 15a4 08be 78a3 0a3e
00000190: 36d7 913d f266 26be 615b 44be b47f 7dbd
000001a0: 3b98 35bd 77ca 953d 73ad 153e c71f b33b
000001b0: 8cdb 153e f4f6 dbbd 73b5 2d3d d789 37be
000001c0: e4b2 203e 8b0b 033e a806 af3d 1c16 123e
000001d0: 918e 0a3e b507 983c e608 31be fd1c 51be
000001e0: 2b05 8dbd c70c d7bd cd32 aebd 9562 5bbe
000001f0: 8e10 923d 99b2 b6bd af9a a8bd 0368 c5bd
00000200: 9524 0b3e e1ec a4bd e398 debd 4e17 95bb
00000210: 671b 533e fb57 46be 618d 1a3e f36e 4dbd
00000220: e7fd 2f3e 2b12 313e 1c0d 373e 1bb8 17be
00000230: e86f 94bc 6150 4b3e 9340 793c 1d57 2b3b
00000240: f364 e5bd b376 4dbb 64fc ddbd 6b8a f83d
00000250: 5161 ee3d 4a79 243d 9d65 a8bd f5d8 4d3d
00000260: 21f9 a43d c9ce 613d 521a 2ebe ca48 be3d
00000270: 42a6 ae3d f3a4 6bbd 9014 42be 6aaa 5b3c
00000280: 328e 53be 6569 da3d ded6 0abe 6c7a 143e
00000290: de23 5c3e ca33 1f3e bb99 253d 7948 913d
000002a0: 53db 543e 537c e2bc 82bc d7bd cb21 163d
000002b0: ad1f 0cbe 487d 573e 69e8 de3d db89 d1bd
000002c0: ba8c 85bc aff8 22be 31dc 313d 4da7 893d
000002d0: 0d2c 743c eb46 fc3d 8e45 b93d a60d 303e
000002e0: cf2d 483e 8d9b d1bd 7d1c 2d3e 5d32 db3d
000002f0: 57a0 f2bd 5e33 5a3e a9e0 49be 1666 0bbe
00000300: fb09 29be 9685 533e dfd1 513e daf7 b0bd
00000310: 3b67 983d 2360 e33c 2c06 95bd e413 1ebe
00000320: 6304 0c3e d8e9 a0bd 3c5f d13d c5e5 b6bd
00000330: 8cfa 3b3e 0ef2 a13d 85cc 4a3d af67 f33d
00000340: 17d5 a3bd 0de3 7b3d cbd6 80bd 1031 4abe
00000350: 7eb1 973c d7e3 883d b709 9f3c 24fc 5ebd
00000360: a68e 6e3c 0ac4 51be 2c9b 333e 025e 193e
00000370: 8c4b 543d c21d 86bd 62b4 593e 295a ce3b
00000380: 466e 0e3e f651 3ebe 1d74 1c3e 7e70 9a3d
00000390: 5ac0 c6bd b58d 33be d659 8fbd 0a46 093e
000003a0: e1ec 39bd 4022 6a3d cb12 4fbe 5d5e 07be
000003b0: 980f 57bd b5e1 273e 662b 8bbd c2c4 5cbd
000003c0: d6d2 933d 139f 3c3e 3ddd afbd 4f96 553d
000003d0: 7e7a 11be 7a65 2a3e 606f 053d c9e8 94bd
000003e0: 34ad 1c3e 1f91 0a3d cd25 abbd fbc1 153c
000003f0: e151 4b3e f9d3 7ebd dee5 17be 94c2 b4b9
-0.111246474 -0.014639522 -0.05402466 -0.110172994 0.081907555 -0.099333115 -0.16753015 0.06595434
0.08484312 0.19210298 -0.0449475 0.123095796 -0.0926896 -0.04923618 0.037519902 -0.1542394
0.2115233 -0.13739203 0.15657088 -0.031625304 0.17549215 -0.15383379 0.031811465 -0.113236435
-0.10272384 -0.12177852 0.06000373 -0.09271297 0.04014524 -0.022057459 -0.14098936 0.015213253
0.006952605 -0.00047582557 -0.013457923 0.120060265 0.018599253 0.013109355 0.21619129 -0.14962973
-0.20696828 0.09711437 -0.102438994 -0.19121632 -0.15818882 -0.113766156 -0.10877383 0.21555002
0.16227788 -0.09433313 0.21086335 -0.16898286 -0.0010751813 0.20118745 -0.18522792 -0.08507692
-0.10629242 -0.14163728 -0.21552446 -0.18681058 -0.0083642 0.0467777 -0.15328832 0.13036886
0.12394915 0.07017478 -0.14166701 0.03861189 0.098870516 0.08957121 -0.106479235 -0.03817089
-0.15670414 0.13323645 -0.14973775 -0.18376045 0.19750407 -0.1746668 0.18337053 0.027743813
0.1849691 0.106493376 0.0670821 -0.18641594 0.12917998 0.1114131 0.14404307 0.13778163
0.21517763 -0.08488754 0.0052589593 0.13110754 0.09301559 -0.15681218 -0.040362094 -0.096930884
0.045549627 -0.08911484 -0.13343842 0.13538921 0.07121126 -0.16250208 -0.19175483 -0.061889365
-0.04433463 0.07314008 0.14616947 0.0054664346 0.14634532 -0.10740462 0.04240937 -0.17923675
0.15693241 0.12797372 0.085461915 0.14266247 0.13530947 0.018558362 -0.1728855 -0.20421214
-0.06885751 -0.10500484 -0.08505783 -0.21424325 0.07132064 -0.089207835 -0.082326286 -0.09638979
0.13588174 -0.080529936 -0.108690046 -0.0045498973 0.20615922 -0.193695 0.15092994 -0.050154638
0.171867 0.17292087 0.17876095 -0.14816324 -0.018119767 0.19854881 0.01521315 0.0026144453
-0.11200895 -0.0031351268 -0.10839155 0.12135776 0.116396554 0.040154733 -0.08222506 0.050255734
0.0805533 0.055128846 -0.17002228 0.09291227 0.08527805 -0.057530355 -0.18953156 0.013407329
-0.20659712 0.10664634 -0.13558528 0.14499825 0.21498057 0.155471 0.040429812 0.07093901
0.2078679 -0.027647173 -0.10534002 0.03665332 -0.13683958 0.21043885 0.108841725 -0.10231372
-0.016302455 -0.15915178 0.04342288 0.06721363 0.014903081 0.12318214 0.0904647 0.17192706
0.19548725 -0.10234747 0.16905399 0.107029654 -0.11846989 0.21308658 -0.19714607 -0.13613161
-0.16507713 0.20656428 0.20490216 -0.08641024 0.07441565 0.027755802 -0.07276568 -0.15437275
0.13673548 -0.07857102 0.10223243 -0.08930544 0.18357295 0.079074964 0.04951145 0.118850105
-0.07999628 0.06149583 -0.062909685 -0.19745278 0.018517252 0.06684082 0.019413812 -0.05443968
0.014560377 -0.20484939 0.17539662 0.14977267 0.05182986 -0.065486446 0.21260217 0.006297369
0.13909253 -0.18585953 0.15278669 0.075409874 -0.09704657 -0.17534526 -0.06999557 0.13405624
-0.04539192 0.05716157 -0.20222013 -0.1321959 -0.052505106 0.16394694 -0.06795387 -0.05389858
0.07217948 0.18420057 -0.0858712 0.0521453 -0.14206883 0.16640273 0.03257692 -0.07270963
0.15300447 0.033829805 -0.08356819 0.009140487 0.19855453 -0.06221387 -0.14833781 -0.00034477247

actor.fc2.weight f4 [128, 256]
00000000: 3a73 17bd 4a38 563d 8cd7 063d fa4b 3c3d
00000010: b47c f03c d252 6fbc 3f1e e13c d04d 52bd
00000020: 1edf 9e3c d447 973c 56e4 feb9 3208 363b
00000030: cd37 dcbc fcc8 67bd de65 663d be99 1bbd
00000040: 1078 4fbd c0ad 03bd 9de9 1ebc e42a b53c
00000050: 599c 7bbd 9467 743d d3e8 1ebd a7ad 5cbd
00000060: 9156 10bc 594c 06bd 2ced 2d3d c023 023b
00000070: 4abe 5a3c e28e 7abc 323a fdbc a7a2 06bd
00000080: 3c5e 16bd 21c8 7a3d ec63 1b3c c366 21bd
00000090: 9de7 3e3d 6eb1 3f3d 3963 89bc 914b 1e3c
000000a0: 72e9 68bc 3061 813d 9f2f 15bd 9b96 3e3d
000000b0: 8d2e cebc 18ae 76bc ed6d 193b 5062 4c3d
000000c0: 2d95 e3bc 742a 643c 8815 363d 9c50 e4bc
000000d0: a5dd 38bd 09c6 14bd 5fd1 41bd 3f15 12bd
000000e0: f18d 4f3c 7a1b f03c 05c6 863c c00b 413d
000000f0: 5e69 cd3c feca 4abd 999b 01bc 0fb6 f53c
00000100: a03a e13c a8ef f23c 23fa 133d 62de 4c3d
00000110: a69e 4dbc 4062 0fbd 734f 013d c357 03bd
00000120: 8e04 70bb eabd 40bd 37f0 5bbd 4917 3fbd
00000130: 9593 73bd 43e2 0fbd be27 84bc 0448 f3bb
00000140: d197 18bd d877 44bd 64dc 563d 1335 de3b
00000150: 5cc8 183c c5b0 5c3c ade2 90bc 2c23 bb3b
00000160: c379 433c 935a 803b 2584 b43c 2641 b33b
00000170: 09f9 e03c e785 693d 27cb 54bd c353 52bd
00000180: 207d 393d 3fa3 a63a fda9 363d d2cd fdbc
00000190: 9bc3 43bd f308 ecbc 97be 8f3c 978a 813d
000001a0: 529e 01bc fb4b 0abd ef99 ff3c 6609 cbbc
000001b0: 7ddc 753d 1fe7 243c 192a 2dbb 033c d7bc
000001c0: c581 b0bc 6fcb 12bd 4498 36bd d2b2 54bd
000001d0: a194 0abd 1d3d 263d fc23 813d a08c 563c
000001e0: 1a45 213d 4138 a9bc 0b7f 26bd 6a82 8e3c
000001f0: 3a13 c43c 8c5c 1a3d 8a96 493d 6974 dc3c
00000200: 5e49 8f3c c4d7 25bc cdcc 77bd f989 4f3d
00000210: 402c e03b dae2 3fbd 2348 23bc 6776 d23b
00000220: 44b6 aebc 1e67 393c 44c2 343d b58e 08bd
00000230: 553d 543d 6a37 5abd d271 203d ec0c 4e3d
00000240: 942c fa3c 4ba5 633d 85ad 77bd f2c0 32bd
00000250: 8499 3ebd e8c4 a73c 84c5 8d3a 37f7 28bc
00000260: a1d9 1f3d 431d 653d b5a0 013c 408a 123c
00000270: f8b5 5fbd 18e8 0c3d 9f9a 3c3d 540f 9d3c
00000280: f926 583d 6004 cf3c 87fb 0abd 8b25 0dbd
00000290: 29b7 0d3d d49a e53a 6609 04bd ddb4 c93c
000002a0: 7bb8 3ebd 5644 22bc 578a 0dbc 4d2a 6dbd
000002b0: b3a5 033c dc25 103d 08b0 1bbd 8402 0f3d
000002c0: 0c13 6bbb 5075 163c a927 8c3b c3a2 0c3d
000002d0: d250 fdbb 5424 af3c a623 0c3d 2cc0 d1bc
000002e0: e914 9c3c 3697 2b3c 2f91 20bd e1b5 57bd
000002f0: dd89 e7bc 7065 7a3d 3755 24bd 960b 043d
00000300: 902e 68bd 7bb3 f83b 1fa0 5d3b 1ad7 c5b9
00000310: 2cfc 0c3d c09c 18bd 3853 1b3d bab5 db3c
00000320: a77d 81bc fcb0 9b3c 6e05 5abc 2854 473d
00000330: 74f4 45bc 2d48 193d 4704 8dbc 605a 3c3c
00000340: f131 483d bb0b 153b b6a7 ee3b 588e 89bb
00000350: 777b 04bd df05 6bbd a24a 313d d88c e0bc
00000360: b103 d83b 3a08 2c3d 0bf8 17bd 8526 193d
00000370: ff07 93bc 5176 503d 8859 333c 9495 4aba
00000380: d2ff 593d 7732 c53c 1828 c53c 6ed1 3cbc
00000390: 25b4 79bc e9bf b7bc 0971 f8bb 00b2 5fb9
000003a0: 4e9b a3bc 8409 0e3d 82cc b8bc 9f93 71bb
000003b0: 9e9f 7f3c 4df7 aa3c 0de1 e83b 84ca 29bb
000003c0: 3905 7b3d bf3a 413d 020c 56bc 5fba e7bc
000003d0: dfb2 46bd fd4a 51bd bff2 043c b701 e4bc
000003e0: c050 3f3d d896 eb3c 91c1 133c f919 073c
000003f0: 613c 313d c920 5abd 6bde 47bb f300 d2bc
-0.036975123 0.052299775 0.032920405 0.045970894 0.029356338 -0.014607148 0.027480243 -0.05134374
0.0193935 0.018466868 -0.0004861678 0.002777588 -0.026882077 -0.056588158 0.056249492 -0.037988417
-0.05065161 -0.032148123 -0.009699252 0.022115178 -0.0614284 0.059669092 -0.038796257 -0.053876545
-0.008809702 -0.032787655 0.042462513 0.0019857734 0.0133510325 -0.015292855 -0.030911539 -0.03286996
-0.036710963 0.061226014 0.009484272 -0.03940464 0.046607602 0.04680007 -0.016770946 0.009661571
-0.014215814 0.06317365 -0.03642237 0.046530347 -0.025168682 -0.015056156 0.0023411468 0.049898446
-0.027781093 0.013926137 0.044454128 -0.027870469 -0.04513325 -0.036321674 -0.047318812 -0.035664793
0.012668119 0.029309977 0.016451845 0.047130346 0.025074657 -0.049509995 -0.0079106325 0.029994039
0.027493775 0.029655293 0.03612722 0.05001677 -0.012550032 -0.035005808 0.03156991 -0.032066118
-0.0036623809 -0.047056116 -0.053695884 -0.046653066 -0.059466917 -0.03512789 -0.016132232 -0.0074243564
-0.03725416 -0.047965854 0.052456275 0.0067812293 0.009325113 0.0134698795 -0.017686212 0.00571098
0.011930886 0.0039170473 0.022035668 0.005470413 0.0274625 0.057012465 -0.051951554 -0.051349413
0.045285344 0.0012713446 0.044595707 -0.030981932 -0.047793966 -0.028812861 0.017546935 0.06325262
-0.007911282 -0.033763867 0.031201331 -0.024784755 0.060024727 0.010064869 -0.0026422797 -0.026273733
-0.021546254 -0.03583854 -0.044578806 -0.05192835 -0.03383315 0.040585626 0.063056916 0.013095051
0.03937254 -0.020656707 -0.0406485 0.01739617 0.02393495 0.037685916 0.04921583 0.026910977
0.017491039 -0.010122243 -0.060498048 0.05066869 0.0068412125 -0.046847202 -0.009965929 0.006422806
-0.021327145 0.011316089 0.04413058 -0.03333922 0.051816303 -0.053275503 0.039171048 0.050305292
0.030538835 0.055577558 -0.060468215 -0.04364104 -0.046533123 0.020479634 0.001081631 -0.010312847
0.039025906 0.05593611 0.007911851 0.008944094 -0.0546169 0.03440103 0.046045896 0.019172348
0.052771542 0.02527064 -0.03393128 -0.034459632 0.034598503 0.0017517456 -0.032235526 0.024622375
-0.046562653 -0.009903988 -0.00863894 -0.05790167 0.008035111 0.035192356 -0.038009673 0.03491451
-0.0035869507 0.009183243 0.004277189 0.03433491 -0.007730582 0.021379627 0.034213684 -0.02560433
0.01905294 0.010473063 -0.039200958 -0.052663688 -0.02826398 0.061131895 -0.04012033 0.03223761
-0.05668503 0.007589755 0.0033817363 -0.0003773503 0.034420177 -0.037258863 0.03792116 0.026820052
-0.015806986 0.019005291 -0.013306959 0.048664242 -0.012082208 0.037422348 -0.017213954 0.011496156
0.048875753 0.0022742588 0.0072831763 -0.004197877 -0.032344308 -0.057378646 0.043284066 -0.02741091
0.006592237 0.042000033 -0.037101787 0.03739025 -0.017948149 0.050894085 0.010946639 -0.00077279774
0.053222485 0.024071915 0.02406697 -0.011524541 -0.015240704 -0.022430377 -0.007581834 -0.00021333247
-0.019971516 0.034677044 -0.022558454 -0.003686167 0.015602021 0.020869875 0.0071069063 -0.0025908062
0.061284278 0.047175165 -0.013064386 -0.02828711 -0.04851043 -0.051096905 0.008114516 -0.027832849
0.04670787 0.028758451 0.009018318 0.008245938 0.043270472 -0.053253923 -0.0030497562 -0.025635218

actor.fc2.bias f4 [128]
00000000: 9b4a 333d b70a 673d d73f f63c a843 5bbd
00000010: dcd8 86bb ac7d 25bd ac6d 7c3d 37b3 05bd
00000020: f67d 653d 4857 6ebd 9c28 59bd 9491 1bbd
00000030: f0a3 713d b5c2 6f3d e946 be3c e6db 4bbd
00000040: c4c6 0d3d 8c8d ec3c 3d5a 333d 2c3b 2d3c
00000050: ef92 623d 35db 75bd 91c5 31bd 5dd3 333d
00000060: 30b6 2ebd 9721 8cbc e460 2bbb 57c8 7a3d
00000070: 3dfe 2ebd be04 363c ea9a 95bc 80a5 a53c
00000080: 944a d1bc 4c1f 54bd 97f6 73bc 32b8 ac3c
00000090: 2454 55bd c1b7 1f3d b92e 853c 6c58 213d
000000a0: 974b 99bc 744e 5fbd ab65 373d c89e 22bd
000000b0: 63ef 863c 1072 62bd 1c54 1f3c 349f e5ba
000000c0: 819e 133d bf37 6abd 0cf2 b9bc 7385 b6bb
000000d0: c1a0 28bd 7603 043d c636 633b 3c87 52bc
000000e0: 1e1a 1c3c 5695 2ebd 6340 213d 0c1d 88bb
000000f0: d93c 43bc 344e cebb 4aaa 06bc 2259 87bc
00000100: e65b ebbc 5bb8 ccbc e85f 223d 95b3 20bd
00000110: c41e 2d3c d2c7 9c3c 0f10 f5bc c507 ddbc
00000120: 591d 56bc 307d d73c 530b e2bb 7808 3b3b
00000130: 544d 19bc ccf9 083d b5c4 893c fca2 cc3c
00000140: 4140 37bc b903 b4bc acd6 45bc ee0e fc3c
00000150: d882 573c 6c7c e6bb 3075 90bc 6d3c 353d
00000160: cad6 543d bf15 c03c 8f04 4d3d f033 70bc
00000170: e8a5 64bd ecac b53b b337 02ba 3686 313b
00000180: d91e 473c d261 1abd 5fff 043d 15ce 7abd
00000190: ea7e dabc 7b75 ee3b f257 18bd 6515 3f3d
000001a0: 1fdb 163d 9074 9abc d20e 2c3d c8c9 82bc
000001b0: f545 29bd bc15 75bd 5589 05bc 70da 1d3c
000001c0: d5fe 39bd 73b3 e1bc 5b47 8abc 321c 34bc
000001d0: 7796 6a3c 5e42 fd3c 85ad 6fbc 3467 48bd
000001e0: 6d93 11bd aea4 e03c d7ab e43c dfad 7abd
000001f0: ae8c 013d 34be 333d e0ce 73bd d8ae 80bc
0.04377232 0.056406703 0.030059738 -0.05353132 -0.004115207 -0.040403053 0.06162803 -0.032641616
0.05602833 -0.058188707 -0.053017244 -0.03798063 0.058994234 0.058535296 0.023227172 -0.04977026
0.034613386 0.028876089 0.04378723 0.01057319 0.055315908 -0.060023505 -0.043401305 0.043902744
-0.042654216 -0.01710586 -0.002615028 0.061226215 -0.04272293 0.011109529 -0.018262345 0.020220518
-0.025548257 -0.05178766 -0.014890335 0.021083925 -0.052082196 0.0389936 0.01625763 0.039390966
-0.018712802 -0.054518178 0.044774693 -0.039702207 0.01647157 -0.05528456 0.009724643 -0.001751876
0.036039833 -0.05718207 -0.022698425 -0.0055701076 -0.041168932 0.032229863 0.0034670099 -0.012849625
0.009527711 -0.042622887 0.039368045 -0.0041538533 -0.011916363 -0.0062959436 -0.008219311 -0.016521994
-0.028730344 -0.024990251 0.039642245 -0.039233763 0.010566417 0.01913825 -0.029914884 -0.026981244
-0.01306852 0.026304811 -0.0068983226 0.0028538983 -0.009356815 0.03344135 0.01681743 0.02498006
-0.011184753 -0.021974431 -0.012075108 0.030768838 0.013153754 -0.007033875 -0.017634004 0.04424708
0.05196265 0.02344787 0.050053176 -0.01466082 -0.055822283 0.0055442955 -0.0004967406 0.0027088053
0.012153351 -0.037690945 0.032470103 -0.06123169 -0.026671845 0.0072771884 -0.037193246 0.046651263
0.036830064 -0.01885441 0.04200632 -0.015965357 -0.04132648 -0.05983518 -0.008150418 0.009634599
-0.045409042 -0.027551388 -0.016879728 -0.01099305 0.0143181 0.030915435 -0.014628773 -0.048926547
-0.035540987 0.027422275 0.02791397 -0.061200973 0.031628303 0.043882564 -0.059523463 -0.015708372

actor.policy_head.weight f4 [50, 128]
00000000: 0d70 43bd 020b d2bb 62f2 9cbd aed5 803d
00000010: eee6 973d 0145 1bbd 1b8c 213c 277f 7dbc
00000020: 2958 89bd f83b 83bc d23a 64bd 441f 37bc
00000030: 9d9b aebd b8e3 4b3b 47c0 823d 0b0e b239
00000040: c0e3 203d 444c f93c d6dc 9e3d caf3 38bc
00000050: e15b 84bd 63f0 f83b c9ee 02bd 7693 433c
00000060: ef5b 9c3d 1293 a63d 8b03 003d f54f 9b3d
00000070: 0bbf 863d 7946 0e3c 41b2 89bd 1e80 a1bb
00000080: 05ae 95bd c191 783d 58db 663d f88d e33c
00000090: 5b15 973d 17ea 9dbd 9a29 433d 9954 ae3d
000000a0: 6f30 953d 1d68 783c 31ab 7fbd 0cb9 2e3d
000000b0: bd4a 303d 6aa7 b33d 02d3 a4bd 9b9a 37bc
000000c0: 8e8b a93d dec0 443d 5aa0 3cbd b07c 9fbd
000000d0: 6afe 61bd 74c5 b33d 862e 48bc 79da 903d
000000e0: 9b5a 42bc 5451 2a3d a5d6 cf3c 5dd0 a2bd
000000f0: 8bda 09bd 4712 853d 37ac a03c bb07 9b3d
00000100: 0c92 883d 032c b2bd d4df 6fbd 990d 8e3d
00000110: f6e4 a43c d03a 95bd f91d 833c d290 103c
00000120: 6518 a83d f803 0ebd 11c0 84bd 43a4 ffbc
00000130: bde0 413d e796 233c 1867 8ebc 694e afbd
00000140: 359a edbb 1314 173d 06c6 6a3d f357 9f3d
00000150: 4ff7 693d 1e71 0cbc ad58 223d 38e1 6c3d
00000160: 6220 6c3d e9c2 9e3d c86f 863d 8300 a63d
00000170: c1c0 2f3d 5d87 2dbd 5f15 a0bd 4769 393d
00000180: af4c 963d 5a0b efbc 4d4d 9fbd 8259 4d3d
00000190: 110c 43bd 8dde ab3d 49ac 903d 5a8c 113c
000001a0: 98e7 1a3d e7f9 a4bc 4263 8d3d be09 a8bd
000001b0: e425 5f3d c6fa 603c 13a3 b1bd 78d9 8bbd
000001c0: 30b8 283d ab42 97bd b223 953c 57a1 5bbd
000001d0: 671e 0c3c 0af6 29bd d4d3 b13d cfce e9bc
000001e0: bbd3 373d 4aaf 243d 3b1a 2ebd d6a5 9b3d
000001f0: f817 46bd baaa 0ebc 7911 b73c 3cc2 94bd
00000200: e25f 43bd e940 a33d 8bb5 7a3d 1c9e 963d
00000210: 57f6 84bb 3697 17bd bb47 af3d 952d 42bd
00000220: fd23 173c 3ceb a63d a144 7a3d a81f 3fbd
00000230: 6e2a 8fbd 904d c63c 862e 0c3d 85e7 98bd
00000240: f01d e3bc 0657 97bc 25ed 3ebc bf04 3ebc
00000250: 9414 943d ff7f a7bd 71f0 91bd a80f 18bd
00000260: 3d5e 72bd fde1 7abd 91d1 05bd 03ae 1a3d
00000270: 0750 b9bc bca7 4cbd d89c 303d bae5 a4bc
00000280: c453 913d 1103 7abd 7eba 61bd d503 79bd
00000290: a8df 723d 0686 6f3c 5972 9a3d cf84 bd3c
000002a0: 0ff4 433d 6eed 493d ae0a 933d 4df0 a1bd
000002b0: dcba 693d 5542 b23d 008e 783c e102 45bd
000002c0: 3672 c0bc a3e1 e8bb 6da0 5cbd 7c8a 373d
000002d0: 0df8 af3d 15f5 2abd 88f7 95bd 8698 07bd
000002e0: 232c aebb 1f24 813d 85ef 873d fec1 bebc
000002f0: acc1 343c cf48 bebc 9299 03bd ef3f 863d
00000300: 36a1 90bd 0d7c a83d c8e5 f0bc 0697 79bd
00000310: 4e78 27bd ccbb a93d b203 ab3d 2d3a 773d
00000320: 6d38 963d 2556 28bd dac2 80bd a8e2 873d
00000330: f0eb 76bd 30cd 58bd 8087 72bd a8e3 223d
00000340: e343 b4bc 1b41 12bd eb1f dcbc e0c7 86bb
00000350: 0b36 66bd 358c 10bd 019c 1f3d 1e5c cebb
00000360: 2233 91bc 023a d73c 6750 aa3d 3536 c8bc
00000370: 597c 8e3d ec0b 3d3d 131a 983d e8da 8ebd
00000380: ed68 6abb 8b7f 383d 552b f4ba f0b4 b23c
00000390: d285 50bd 7ac3 a9bd 9a8f 123d 638b 94bc
000003a0: 8ca0 b7bc 3f34 8fbc a771 f13c 7671 6cbc
000003b0: ea02 023d eb8d 84bd fd80 563d 25da b4bc
000003c0: 8a00 b3bd fbb4 ab3d 0fb5 6b3c 226d acbd
000003d0: 344e 623d 706e d0bc e37d b2bd 191f f23c
000003e0: 59b0 6b3d e627 b1bc 0a59 f93c 3732 98bd
000003f0: 102c 83bd beb7 4d3c 0f9f 6b3d 4408 213d
-0.04771428 -0.0064100036 -0.07663418 0.06290756 0.07417093 -0.037907604 0.009860064 -0.01547221
-0.06706268 -0.016019806 -0.055720158 -0.011176888 -0.08525775 0.0031111073 0.0638433 0.00033961268
0.0392797 0.030431874 0.07756965 -0.011288593 -0.06462837 0.0075970157 -0.031966005 0.011937013
0.076347224 0.0813352 0.03125338 0.0758361 0.06579407 0.008683794 -0.06723452 -0.004928603
-0.07308582 0.060685877 0.056361526 0.027777657 0.0737712 -0.07710665 0.047647096 0.085122295
0.072846286 0.015161541 -0.06241912 0.042656943 0.043040026 0.08772166 -0.08048059 -0.011206294
0.08278571 0.048035495 -0.04605136 -0.07787454 -0.05517427 0.087778956 -0.012218123 0.0707292
-0.011862422 0.041581467 0.025370905 -0.079498984 -0.033655684 0.06497627 0.019613368 0.07569834
0.06668481 -0.08699801 -0.05856307 0.06936187 0.020128708 -0.07286608 0.016005503 0.00882359
0.08207778 -0.034671754 -0.06481946 -0.031206256 0.047333468 0.009984708 -0.017383143 -0.085598774
-0.007251049 0.03688438 0.057317756 0.07780447 0.057120617 -0.008571891 0.03963535 0.057831973
0.05764807 0.0775202 0.06564289 0.08105566 0.042908434 -0.04236542 -0.07816576 0.045266416
0.07338845 -0.029180218 -0.07778416 0.05013419 -0.04761893 0.083920576 0.07064111 0.00888356
0.03781852 -0.020138694 0.069036976 -0.08204983 0.054479495 0.013731664 -0.08673682 -0.06828588
0.04119128 -0.07385763 0.018205497 -0.053620663 0.00855217 -0.041494407 0.08682981 -0.028540997
0.044879656 0.04020623 -0.042505484 0.0759999 -0.048362702 -0.008707697 0.022347199 -0.0726361
-0.047698863 0.07971365 0.06120829 0.07354376 -0.0040576863 -0.03700944 0.085586034 -0.04740675
0.009224889 0.08150336 0.061100606 -0.04666105 -0.06990515 0.024206907 0.034224056 -0.07466034
-0.027724236 -0.018474113 -0.011653219 -0.011597811 0.072304875 -0.0817871 -0.07125939 -0.037124306
-0.059171904 -0.061250675 -0.03267056 0.037763607 -0.022621168 -0.04996465 0.043118328 -0.020129073
0.07096055 -0.06103808 -0.055109493 -0.06079467 0.059295326 0.014619356 0.07541341 0.023134617
0.047840174 0.049298696 0.07179771 -0.07907162 0.05706297 0.08704058 0.015170574 -0.04809845
-0.02349196 -0.007106976 -0.05386393 0.044809803 0.08592234 -0.041737635 -0.073226035 -0.033104442
-0.00531532 0.06305718 0.066374816 -0.023285862 0.011032503 -0.023228077 -0.032128878 0.06555163
-0.070619985 0.08226786 -0.029406443 -0.060935043 -0.040886216 0.082877725 0.08350314 0.060358215
0.07334981 -0.04109778 -0.06287165 0.06635028 -0.0602836 -0.052930057 -0.059211254 0.03976789
-0.022005027 -0.03570662 -0.026870688 -0.0041131824 -0.056203883 -0.03528996 0.038967136 -0.0062976023
-0.017724577 0.026272777 0.08316117 -0.02443991 0.06957311 0.046153948 0.07426848 -0.06975347
-0.0035768107 0.04504351 -0.0018628637 0.021814793 -0.05090887 -0.08289237 0.03578148 -0.018132871
-0.022415422 -0.017480968 0.029473139 -0.014431348 0.03174106 -0.06472381 0.052369107 -0.022076676
-0.08740337 0.08384129 0.014386429 -0.08419253 0.05525036 -0.025443286 -0.08715417 0.029555844
0.057541225 -0.02162547 0.030437965 -0.07431453 -0.06404889 0.012556015 0.057524737 0.039314523

actor.policy_head.bias f4 [50]
00000000: 076c 563d c8ab 83bd bd8c 9d3c 7252 503d
00000010: f892 aa3d e456 0cbd 8dff 58bd 5f67 3b3d
00000020: 2b9b 1ebd 635b aabd ab4e 9c3d df63 67bd
00000030: c149 0abc ad02 343d b107 9b3c ddf1 aebd
00000040: 38bd 47bd 2e03 cc3c 72db f93a a576 0bbb
00000050: 64c8 26bc a90e b4bd a16c 81bd f47e 77bb
00000060: 2240 943d 3012 b3bc a49c 2abc 36c3 57bc
00000070: c47a a83d 64c3 743d 3229 073d 8bd4 983d
00000080: 29bd f03c 2288 423c 6c59 f13c c653 9d3d
00000090: b8cf aebd 24ba 3fbd d7b9 df3b e5f2 9c3d
000000a0: cb25 543d 6e3f 88bc b23b 9fbd d013 023d
000000b0: 1014 30bb 95bb 8f3d 94d5 f53c e926 973d
000000c0: 2bfb 2e3d 810c 483c
0.052349117 -0.06429249 0.019232148 0.050859876 0.08328813 -0.034262553 -0.052978087 0.04575288
-0.0387222 -0.08318212 0.07632192 -0.05649173 -0.008440436 0.043947864 0.018924566 -0.085422255
-0.048764437 0.02490386 0.0019062592 -0.0021280434 -0.010179613 -0.08791859 -0.063195474 -0.003776488
0.07238795 -0.021859258 -0.010413323 -0.0131691005 0.08226541 0.05975665 0.03299827 0.07462414
0.029387074 0.011873277 0.029461585 0.07681994 -0.08535713 -0.046808377 0.0068275738 0.07663516
0.051793855 -0.016631808 -0.07775058 0.031757176 -0.0026867427 0.070182 0.030009069 0.073804684
0.04272 0.012210012

critic.fc1.weight f4 [256, 21]
00000000: 1671 813d 3075 553e dd07 cbbd 0357 fb3d
00000010: a772 5e3e 4f65 023e 882f 3e3e 7b4b 3ebe
00000020: 861e dd3d d8f1 bbbb 868b 8b3d ee1f 47be
00000030: b60c 523e b602 40bd 1892 e63d dd8e 993d
00000040: d186 4d3e 9232 66bc e96d 5d3e 62df f53c
00000050: d849 463d f237 1bbe 1054 e93d d096 ef3d
00000060: c2ec 38bd 5d0c 163e e4aa 4cbe 98dd 9d39
00000070: b640 8d3d c24d bb3d 6ca9 533e 506e 69bd
00000080: a641 8bbd 240c 943d 304d 473e de97 283e
00000090: 3f7a 0abe 18b1 22be a482 24be 8ade 43be
000000a0: e542 cfbd 4367 e2bd d975 4cbd 47d8 f83d
000000b0: a074 c43d c25e 1a3d 83e1 2bbe c62a e23d
000000c0: b4ba 363e 07a3 0e3e 51b6 483e 77e3 75bd
000000d0: a5ac c73d 9fc1 d6ba b3eb d2bd a3f4 44be
000000e0: 6a68 a43d 68bb 9e3c eeba 2f3e f23f 07be
000000f0: 8813 14be 6876 aabd e5ab d7bc 7412 1d3e
00000100: b135 4bbe d0dc 14be d4ab cf3d 1560 263e
00000110: 535e 2dbe 8018 423d c6d3 6b3d 0dcf 373e
00000120: 6e2a 1fbe 3d47 803d 931c 1bbe c597 37be
00000130: 23c8 603d 46be 513e 1ab3 1cbe 9866 ae3d
00000140: 781f 5f3e 06b1 f93d 092f 1f3e 7148 d93d
00000150: a3b1 ed3d 7202 003e 0b03 f3bd 7c56 59be
00000160: 715b 593e 5dea 43bd 2ab7 43be c347 2c3e
00000170: dc02 5cbe 664a e6bd d8cb 163d 9e91 293e
00000180: 6be7 a5bd 4a6a 54bd f293 583e 67fe 09be
00000190: 708b 61bc fed3 7dbc cd3a 49be 6bd9 a6bd
000001a0: c35f 19be fdfc 5bbe 095d 4bbe ccc0 3fbe
000001b0: 8c3f c83c 165c c23a 91ec b6bd d05e dd3d
000001c0: 6be1 2dbd 2844 9f3c 9792 e6bd c082 763d
000001d0: aa5a 38be f3fb e83d 75a9 293e 063c 053c
000001e0: 60ec 653d 10e7 023d 9341 93bc 1bbd c93d
000001f0: 8f9e a13d 37f2 fbbc 0655 013d 5b93 b23d
00000200: 3b93 253e dac9 05bd 3e99 56bd efa4 e0bd
00000210: c4ef d7bc 6664 563e 6640 033e 18cf 303e
00000220: 6ba3 dfbd 9b2f 3bbe 01d4 293c f206 d13d
00000230: 4dc2 26bd 8b1e e33c 2a40 f33b ea0c 423d
00000240: 690e 193e 2550 e73c 5519 32be 65ae 25be
00000250: da5e fabd 9b52 24bc 1571 d3bd d75f 2ebe
00000260: 4adf 8f3d 3c1f 453e 7915 423e 31a9 893d
00000270: 5812 f23d 83ce cc3d 7837 1bbe 1f51 563e
00000280: a8bf 95bd 2b3f ae3d 3dd7 503d 46dd 5a3d
00000290: 1e18 a83d 6605 14bd 3b84 e63d fc71 4fbc
000002a0: 5891 1fbe 35f5 cf3d df82 01be 7faa 223e
000002b0: ca8a f4bc 0dd0 d53d 82f2 f93c a9f6 a33d
000002c0: dd24 8e3d df64 db3d fc7b 8c3c 770e 3f3e
000002d0: 5087 eabd 5993 183d 501a 88bd c5b5 e9bd
000002e0: 1c19 46be 994f a0bd c222 453e 468b 493e
000002f0: 2e85 363e 8052 b0bd d306 02be 1813 5bbe
00000300: 3b3a 043e 4575 10bd be4e 673d 94c1 31bc
00000310: 260d 413e b8ce 32be 92a3 223e f41d 2a3e
00000320: 4780 9e3d b160 1a3e 125d d6bd 6891 24be
00000330: daf4 97bc 7b8f ef3d 52ec f03d bf6a 553e
00000340: 36d5 113d d41f 5a3e 6729 d4bd 9230 693d
00000350: 31de b6bd 28b3 fcbd 048f 27be 49ee 1c3e
00000360: afee 1bbe ffda 8b3c 6780 783c 2c05 68bd
00000370: 6f93 86bd e0ab a23d a7f6 aa3c 473a 023e
00000380: c6f8 503e 816e 283e 59c1 853d 55c3 61bc
00000390: 00c1 4ebd 8a83 1a3e 317c 90bd 1228 febb
000003a0: debf 46be 570c febd 7d68 a13d 53cd 5ebe
000003b0: 750d 29be 27c4 b63d 4afa 8abd 9acb c53c
000003c0: ce04 10be b1de f5bd cb3e cf3d 0c3a bf3d
000003d0: 282b 293e 23c1 1bbe a923 8dbd 1af3 983d
000003e0: 16a1 333d 879f 47be bc44 8c3d 1ac0 6f3d
000003f0: 9ca2 8d3d 5983 59be 32fd 0fbe b637 803d
0.063203976 0.20845485 -0.09913609 0.122724555 0.21723424 0.12733959 0.18572819 -0.18583481
0.107968375 -0.005735617 0.06813721 -0.19445774 0.20512661 -0.046877585 0.11258334 0.07497952
0.2007096 -0.014050143 0.21623959 0.030013744 0.048410267 -0.1515806 0.11392987 0.11698687
-0.045147665 0.14653154 -0.19987065 0.00030110474 0.06897108 0.091456905 0.20670098 -0.056989968
-0.06799631 0.07228878 0.19463038 0.16464183 -0.13523196 -0.15887868 -0.1606546 -0.1912786
-0.10120181 -0.11054852 -0.049917076 0.12150627 0.09592557 0.037688024 -0.16785245 0.11043315
0.17844659 0.13929377 0.19600798 -0.06003138 0.09749726 -0.0016384608 -0.10298862 -0.19233947
0.08027728 0.019376472 0.17161152 -0.13207987 -0.14460576 -0.083233654 -0.026327083 0.1533907
-0.198447 -0.14537358 0.101401955 0.1624759 -0.16930513 0.047386646 0.05757501 0.17950077
-0.1554353 0.062635876 -0.15147619 -0.17928989 0.054878365 0.2048274 -0.15302697 0.08515662
0.21789348 0.12191968 0.15545286 0.1060952 0.11606147 0.12500933 -0.11865815 -0.21224397
0.21226288 -0.047830928 -0.1911284 0.1682425 -0.21485466 -0.11244659 0.036815494 0.16559455
-0.0810078 -0.051859178 0.21150187 -0.13475953 -0.013766155 -0.015492437 -0.19651337 -0.08146938
-0.14977936 -0.21483226 -0.19859709 -0.1872589 0.024444364 0.0014828469 -0.0893184 0.108091
-0.042451303 0.01944168 -0.112584285 0.060183287 -0.18003336 0.113761805 0.16568549 0.0081319865
0.056133628 0.03195864 -0.017975604 0.09850522 0.07891571 -0.030755145 0.031575225 0.08719512
0.16169445 -0.032663204 -0.052392237 -0.109689586 -0.026359446 0.20936736 0.12817535 0.172665
-0.109198414 -0.18279879 0.010365487 0.10206403 -0.040712643 0.027724525 0.0074234204 0.047375597
0.14946903 0.028236458 -0.17392476 -0.16179807 -0.12225123 -0.01002946 -0.10324303 -0.17028747
0.07025011 0.19250196 0.18953504 0.06721724 0.11819905 0.100003265 -0.15157878 0.20929383
-0.07311946 0.08508142 0.050986517 0.05343368 0.08207725 -0.03613796 0.1125569 -0.012661453
-0.15582788 0.101541914 -0.1264758 0.15885352 -0.029851336 0.10440073 0.030511145 0.08006031
0.06940625 0.10712599 0.017148964 0.18657862 -0.1145159 0.037249897 -0.06645644 -0.11411623
-0.19345516 -0.07827682 0.1925154 0.19682035 0.17824242 -0.086094856 -0.12697916 -0.21394002
0.12912838 -0.035268087 0.05647158 -0.010849375 0.18852672 -0.1746167 0.1588271 0.16612989
0.07739311 0.15075947 -0.104669705 -0.16071093 -0.018549372 0.116972886 0.117638245 0.20841502
0.035603724 0.21301204 -0.10359459 0.056931086 -0.089290984 -0.12338859 -0.1636315 0.15325274
-0.1522777 0.017072199 0.015167332 -0.056645557 -0.065710895 0.07942939 0.020869566 0.12717544
0.204074 0.16448404 0.06531019 -0.013779481 -0.050477028 0.1508924 -0.07054938 -0.0077562416
-0.19409129 -0.124046974 0.07881258 -0.21758012 -0.1650904 0.08924132 -0.0678602 0.024144936
-0.14064333 -0.12005366 0.10119399 0.093372434 0.16520369 -0.15210395 -0.06891567 0.07468243
0.043854795 -0.19494449 0.068490475 0.05853281 0.06915781 -0.21241511 -0.1406143 0.06260626

critic.fc1.bias f4 [256]
00000000: a11c dbbd 0f25 84bd c4bd 0dbd cb65 15bc
00000010: 984d 3ebe 6cc0 263e 05c2 ab3d 6c28 c13d
00000020: 1271 1bbe 59b3 39bd 4e61 58bd b9e9 323e
00000030: 332e 40be c3fe f13d fd89 543e 5110 4b3e
00000040: 8b5b c7bc 3836 6d3d f525 c7bc d1ef cebd
00000050: 4468 57be 07c6 36be 8aee cb3d eff2 42be
00000060: 988b 2d3e f83b a8bd bc02 ad3d 4d30 05be
00000070: 6acc 3a3e 80a9 b8bd 5bd6 2b3e c7ac eb3c
00000080: 4aa1 4f3e 067b 36be c4f3 d4bc 42a3 39be
00000090: 75db 1bbe ad5b 2abe adef d7bd ad01 a8bd
000000a0: 5cf1 5ebd 495f 433e d941 87bd cc33 663d
000000b0: 333d 04bd 43aa a23d 20df 1bbe 71e6 db3d
000000c0: 8c23 a63d 6f9e 35be 8dd3 423e 220d 9abd
000000d0: 09d2 2dbd f30a 5abe 0814 093e c7c1 003e
000000e0: bf09 86bd 0ffe 5e3d 0028 5a3e 5221 42be
000000f0: cf55 1abe 1c82 7a3c b422 273a 7382 7ebd
00000100: 4c38 1dbe e6a0 5e3c 6f9b 393d f53a 03be
00000110: b03f 403e aa49 183e 2567 cebd 8388 dcbd
00000120: c8f9 51bc b407 33be 6f1d 17be 30e3 f0bc
00000130: 26c7 a0bc d36d 12be cde4 3f3e 8dca babd
00000140: f3d3 863d 6834 293e f408 283c d030 093e
00000150: c92b a33d 5130 96bd ce81 8dbd e416 863d
00000160: fb68 563e 6c30 873d e246 513e 9c6e b2bd
00000170: 1268 86bc 8def 0b3d a14f 23bd 599e c63d
00000180: eca1 e63c ac54 b63d da66 8d3d 8472 423d
00000190: 0101 ba3d 7841 213d a521 3c3e c8c4 363e
000001a0: 533f 4bbe d6a8 163d 3aab b53d f762 debd
000001b0: 1817 93bc 9514 a1bb 7b06 a1bc b18f 053e
000001c0: 21a4 e33c da86 7fbd 772e 26be ee1e 1939
000001d0: b6f7 f5bd c247 2cbe df8c 45bd a7f1 f23c
000001e0: 5f1f 3abe fe1a 8dbd 2605 f23a b81b f53b
000001f0: be89 253e 5969 b3bc f663 70bd 7134 2b3e
00000200: 2ee5 acbd 2c13 efbd aaf9 ff3c 16d0 5d3d
00000210: e199 66bd dd55 1f3e 0d44 bbbd 0d79 1cbc
00000220: c29b 06be 2ea1 113e 89fc 1e3e 9bbb 2a3e
00000230: 645d 503d 10c3 2fbe 1d7b 1abe 6c1b 3e3e
00000240: 07d8 b33c 779b cfbd 8bff 7bbd 10fd 2bbe
00000250: 5095 c8bd 7eff 1e3e 4e42 203e c906 a3bd
00000260: 35bf 40be 9b28 543e eb10 8f3d 4098 a1bb
00000270: 363a d5bd 3057 6a3c 4812 cdbd 7fb0 32be
00000280: 6704 a53d a9c0 4a3e 3f04 22bc d3a5 b3bd
00000290: e9f5 d63c 2821 d3bc 2b25 21be fa15 423e
000002a0: 7428 003e 76c4 41be 6de0 4a3e 278b 64bc
000002b0: 47c8 f83c 43b7 bc3d 7f5c 363e a3dd e9bd
000002c0: 086a ffbc c50c aabd 5a30 5b3d 5b0d ccbd
000002d0: dc17 133e 0571 223d e990 013d 7328 19be
000002e0: 4e8c 4e3d 9dab 313d 9488 363e de90 273e
000002f0: 1a4d 31be 25b1 d3bd 43ec 88bb 2f56 21be
00000300: a286 003e 905c 89bd 82c6 353e 73d3 3ebd
00000310: 8b1d 2bbe 5cf2 a13d 0829 f4bd 756a 3e3e
00000320: 14ae 20bd f11b 473e 9251 dd3d 06e8 af3d
00000330: 999d a6bd 4e2b 3ebe 9ffc bcbd 35cc 4ebd
00000340: 61b5 7c3d deaf f53a 2ee2 d4bd 9863 d4bd
00000350: 1754 133d ba89 2e3d 7e72 cbbd 5c49 103e
00000360: 7a1a 553e d660 493e 56e9 313e 9041 32be
00000370: b9a8 d83d 607a 96bd 43db 0fbe 60f8 583e
00000380: 7c6c fd3d 68d4 2ebc 80ac c03d 423b 99bd
00000390: d759 d1bc 065c b13d c443 17be f19a 81bd
000003a0: 393c f13d d321 943d d37e 133e 6ed2 363e
000003b0: 80b9 dbbc 210f 393e a7c6 a33d 0527 353d
000003c0: 491e 153e 6d35 50be 7833 4fbe ea49 adbd
000003d0: 059e 95bd 0394 283e 8269 15be e0b1 94bd
000003e0: a9ea 36bd a812 15be 0f55 a03d ee39 1d3e
000003f0: a3b4 043e f50a 533e 9462 febd d39d 0b3e
-0.1069882 -0.06452381 -0.034604803 -0.009118508 -0.18584287 0.1628434 0.08386616 0.09431538
-0.15179852 -0.045337055 -0.052827172 0.1747197 -0.18767624 0.1181617 0.20755763 0.19830443
-0.024335643 0.057913035 -0.024310092 -0.10104335 -0.21035868 -0.17848979 0.09957607 -0.19037984
0.16947782 -0.08214563 0.08447787 -0.13006707 0.1824204 -0.090167046 0.16780989 0.02876891
0.2027637 -0.17820367 -0.025995143 -0.18128684 -0.15220435 -0.16636534 -0.105437614 -0.08203445
-0.054429397 0.19079317 -0.06604356 0.05620174 -0.032284927 0.07942631 -0.15221834 0.107373126
0.08112249 -0.17736219 0.19026013 -0.07522036 -0.042436633 -0.2129324 0.13386548 0.1257392
-0.06544828 0.054441508 0.21304321 -0.18958023 -0.15071796 0.01528981 0.00063757156 -0.062136125
-0.15353507 0.013588166 0.04531425 -0.12815459 0.18774295 0.1487185 -0.10078267 -0.10768225
-0.0128159 -0.17483407 -0.14757322 -0.029405206 -0.019626211 -0.14299707 0.18739624 -0.09120665
0.06583395 0.16523898 0.010256041 0.13397527 0.07967336 -0.073334344 -0.06909524 0.06547335
0.20938484 0.066010326 0.20437196 -0.08712503 -0.016407046 0.034164 -0.039870862 0.09698171
0.028153382 0.08902869 0.06904383 0.04747249 0.09082223 0.039369076 0.1837221 0.17848504
-0.19848375 0.03678211 0.088705495 -0.1085872 -0.017955348 -0.0049157836 -0.01965641 0.13043095
0.027788224 -0.062384464 -0.16228662 0.00014602739 -0.12010138 -0.16824248 -0.04823005 0.029656244
-0.1817603 -0.06889914 0.0018464669 0.007480111 0.16165826 -0.02190082 -0.05868908 0.16719224
-0.0844215 -0.116735786 0.031246979 0.054153524 -0.056299094 0.15560098 -0.09143839 -0.009550345
-0.13145354 0.14221641 0.15526022 0.16673128 0.050870314 -0.17164254 -0.15086026 0.18565148
0.021953596 -0.101370744 -0.061523 -0.16795754 -0.09794104 0.1552715 0.15650293 -0.079602785
-0.1882294 0.20718615 0.06985649 -0.0049314797 -0.104114935 0.014303014 -0.100132525 -0.1745014
0.0805748 0.19800057 -0.009888708 -0.08771863 0.026240306 -0.025772646 -0.15736835 0.18953696
0.12515432 -0.189226 0.19812174 -0.013949192 0.030368937 0.09214642 0.17808722 -0.11419227
-0.03117849 -0.08303217 0.05351291 -0.09963485 0.1436457 0.039658565 0.031632338 -0.14956836
0.050426774 0.043376554 0.17825538 0.16363856 -0.17314568 -0.10336522 -0.004178555 -0.15755533
0.12551358 -0.06707108 0.17751506 -0.046588372 -0.16710488 0.079075545 -0.119218886 0.18595298
-0.039228514 0.19444253 0.10806574 0.08589177 -0.08135528 -0.18571207 -0.09227871 -0.050487716
0.061696414 0.0018744429 -0.10394703 -0.103705585 0.035968866 0.042611815 -0.09933947 0.14090484
0.20810881 0.19665846 0.17374167 -0.17407823 0.10579056 -0.0734756 -0.14048485 0.21188498
0.123742074 -0.010670759 0.09407902 -0.07482006 -0.025555534 0.0866013 -0.14771944 -0.06328381
0.11779065 0.07233014 0.14403848 0.1785371 -0.026821852 0.18072177 0.07996874 0.044226665
0.14562334 -0.2033288 -0.20234478 -0.084613636 -0.073055305 0.16462712 -0.1459103 -0.072604895
-0.044657383 -0.14557898 0.07828724 0.1535413 0.12959532 0.20609649 -0.12421146 0.13634424

critic.fc2.weight f4 [128, 256]
00000000: 38af 7e3d 11d5 6abd be83 edbc 4fb3 013d
00000010: ebb7 4abd 446c 42bb dd2a 393d bc75 34bd
00000020: 8a6b 69bd b226 43bd 55aa 473d 15a7 41bd
00000030: 9558 6d3c 2f88 46bd eef3 483d 3a3b d93c
00000040: 5630 503d 6195 4ebc 1c90 3bbc 9068 3fbd
00000050: 64c3 75bd cbbd 613d c550 e83c 6fd1 eaba
00000060: 4859 87bc 953f 903c fc61 b13c fff1 593c
00000070: f91b 5c3d b283 2ebd 6682 35bc e93e 29bd
00000080: 785a 103d bec3 09bd 7197 18bc b0ae 483d
00000090: 29fb 3c3d fd37 a8bb 3f3a 6f3d 16c9 df3c
000000a0: 7391 4cbc 31ec 743c 5e12 d13a 6beb 463d
000000b0: 0ea8 0ebd 3bb5 afbc 62dd 943c acde 1d3d
000000c0: 52bd f13c 4b51 54bd 5dd3 a73a ecfa e9bc
000000d0: e444 2b3d 4388 2fbd c891 013d 3a4e 1abc
000000e0: 6344 293d 6e1c 25bd a619 8fbc 91ac 31bd
000000f0: f47c 6a3a 2359 f7bc 6db7 4f3d c607 6ebd
00000100: 9e07 b63c 7b52 e13c ff60 f93c 0762 3a3d
00000110: 5ddb 99bc 6321 30bd 417b 4ebd 692e 4dbd
00000120: 00f6 5cbd 86f4 08bb 7498 26bd d68e 69bd
00000130: 6269 eabc c061 60bd 032f 18bb f398 5e3c
00000140: 5909 003d 4adc 463d b198 eebc c727 313d
00000150: cb73 c23c 3add b93c 89d3 30bd 963e e4bc
00000160: b7ab b53c 0074 663d d23b 75bd 94c5 483c
00000170: 7715 c83c eb59 cfbb 2467 a33c 4a03 d1bb
00000180: f1a6 17bd 9565 debc 4c6f 66bd c7e0 d33c
00000190: 666b 5b3d ba69 193d 9a43 27bc 9874 6cbc
000001a0: 1e05 4e3d 87a5 113c 788a 453c 7786 38bd
000001b0: 54dd 4fbd 851e 56bd d5a7 19bd e76f cc3c
000001c0: 3612 443d 0823 713d d9db d1bc 7fdd 47bd
000001d0: fe6f 4bbd 2a5a 313d dc95 443d 6b61 0bbd
000001e0: 2079 633a b853 663d c8fa 063b 94e7 3dbd
000001f0: 014a 08bd 9494 07bd 63a5 d63c 4c7c 783d
00000200: 62ad 54bc da09 42bb 8c24 4d3d f7d1 6a3d
00000210: 13b4 7dbd 0caa 21bd c679 74bd c417 62bc
00000220: e568 2e3d f689 373d dd65 63bc 11f6 513d
00000230: f646 42bd deca 6a3c 5c0a 71bd 5b90 aebc
00000240: 3360 55bd c109 ccbb 06b6 0ebd 5c9a 22bd
00000250: 190b ed3c 83b9 5b3d fe81 7a3d c75f aa3c
00000260: b120 703d 6a9d 79bd 4365 733d cefe c2bb
00000270: cca6 473d 8752 03bd 4057 7ebd 7d1c 343d
00000280: 5fcb 2fbd ea0a 80bd fed3 6c3b 8f9f f5bc
00000290: 773e 74bc 3c6c 81b9 8209 bcbc 3a3a 2dbd
000002a0: 838c 093c 8bd4 f5bc 8c1d c6bc 9297 7a3d
000002b0: 399a 873c 7bd4 09bd 5eb1 7a3b 8657 90bc
000002c0: 08d8 61bd cc70 a83c 3821 0e3d 1b2e c7bb
000002d0: 9523 4abd ea4c eebb a476 553b 3ed6 94bc
000002e0: 9ff3 453d 7c4f 4e3d ff33 25bd f5b7 07bd
000002f0: dc5c 103c 025b 31bd 3990 663d 8554 4abd
00000300: b469 60bd c867 743d 4e15 33bd 0f0a aebc
00000310: 2dab 533d 196f 0cbd d540 533d 5988 da3c
00000320: 5837 093d 3236 be3c 97de 2c3d baa1 f9bc
00000330: eb4d 62bd de34 efbc da01 2fbd 6faa b23c
00000340: 1ed9 7b3d 5c18 45bc c34b 243d 7542 173d
00000350: d6d7 ccb9 143a 3abd 4145 53bb de75 843b
00000360: 0388 db3b 48a9 413c 5ffe 89bc 3e39 ed3b
00000370: 7c8e 26bd 138a 953c 961c e23c b96c deb9
00000380: b800 e53c 28ff e7bc 3483 7d3d 08a3 733d
00000390: 90db eab8 c58a 75bd fd90 4bbb e23e b7bb
000003a0: c973 3cbd e692 7c3d 5edb 5f3d 3871 b5bc
000003b0: 1e0a 073d 04ea 2f3d aa2e 2a3d 214b fb3c
000003c0: f772 7ebc 8668 8ebc e25d 8b3c 16d7 58bd
000003d0: 5bca 63bc a7bf 193d ee42 bd3c 8927 873c
000003e0: e57d 3fbd 2c7b 30bd 2140 5fbd 3c6a 473d
000003f0: 2d79 febc 37ea 593d cc5e 17bd 8b4e 793d
0.06217882 -0.057332102 -0.028993484 0.031665143 -0.049491804 -0.0029666582 0.045206893 -0.044057593
-0.056987323 -0.047644325 0.048746426 -0.047278482 0.014486452 -0.04846972 0.049060754 0.0265175
0.050827347 -0.012608857 -0.011447933 -0.046730578 -0.060000792 0.05511264 0.028358826 -0.0017915199
-0.016522065 0.017608443 0.021653168 0.013302325 0.053737614 -0.042606063 -0.011078453 -0.04131976
0.035242528 -0.03363394 -0.00931345 0.04899472 0.046137962 -0.0051336274 0.058405157 0.027317565
-0.01248585 0.014948891 0.0015950908 0.048564356 -0.03482824 -0.021448722 0.01817197 0.038542435
0.02950922 -0.05183534 0.001280408 -0.028562032 0.041813746 -0.04285456 0.03163317 -0.009418065
0.041324984 -0.040310316 -0.017468285 -0.043377463 0.0008945011 -0.03019387 0.050712038 -0.058112882
0.022220429 0.02750515 0.03044176 0.045503642 -0.018781358 -0.04300059 -0.050410513 -0.05009309
-0.05394554 -0.00208977 -0.040672734 -0.057020985 -0.028614704 -0.05478072 -0.002322138 0.013586271
0.031258915 0.048549928 -0.029125543 0.043250825 0.023736855 0.022688497 -0.043170486 -0.027861875
0.022176607 0.05626297 -0.059871502 0.012254138 0.024424298 -0.0063278577 0.019946642 -0.006378566
-0.037024442 -0.027148047 -0.056258485 0.025864018 0.05356922 0.037454344 -0.010208989 -0.014432095
0.05029785 0.008889562 0.012056939 -0.04505011 -0.050748184 -0.0522752 -0.037513573 0.024955703
0.04786893 0.0588713 -0.025617527 -0.04879522 -0.04966735 0.043298878 0.04799448 -0.034028452
0.0008677412 0.056232184 0.0020596255 -0.04636343 -0.0332737 -0.03310068 0.02620191 0.060665414
-0.012980791 -0.0029607923 0.050083682 0.057329144 -0.06193931 -0.03946881 -0.059686445 -0.0137996115
0.042580504 0.044809304 -0.013879267 0.051260058 -0.047430955 0.014330594 -0.05884777 -0.021309068
-0.052093696 -0.0062267487 -0.03484156 -0.03969799 0.028935956 0.053643715 0.061159126 0.020797623
0.058624927 -0.060941137 0.059422743 -0.0059507852 0.048743054 -0.032061126 -0.062094927 0.04397248
-0.04291856 -0.06252082 0.00361371 -0.02998331 -0.014907471 -0.00024685438 -0.022953752 -0.042291857
0.008395317 -0.030008575 -0.02418401 0.061179705 0.016553031 -0.033649903 0.0038252692 -0.01761986
-0.055137664 0.020561598 0.03469965 -0.0060784942 -0.04935034 -0.0072723525 0.0032571936 -0.018168565
0.04832804 0.05036877 -0.04033279 -0.03313442 0.008811202 -0.043299682 0.056289885 -0.04939701
-0.054788306 0.059669286 -0.04372149 -0.02124503 0.051676918 -0.03428564 0.0515755 0.026676344
0.033500046 0.023219202 0.042204466 -0.030472625 -0.05525009 -0.029200014 -0.042726375 0.021809785
0.061486356 -0.0120297335 0.040111315 0.036928613 -0.00039070722 -0.045465544 -0.0032237323 0.004042371
0.0066995635 0.011820145 -0.016844926 0.00723949 -0.040663227 0.018254315 0.027601521 -0.00042424144
0.027954444 -0.02831991 0.061892703 0.05948165 -0.00011198886 -0.059946794 -0.0031061762 -0.005592213
-0.04600886 0.06166353 0.054652564 -0.022148713 0.032968633 0.042947784 0.04154841 0.030675473
-0.015530339 -0.017383825 0.01701254 -0.052939497 -0.013903226 0.03753629 0.023103204 0.016498344
-0.04675092 -0.043086216 -0.054504517 0.048685297 -0.03106364 0.05320188 -0.03695564 0.06086592
