server/policies/checkpoints/policy_1_900/model.pt (torch, 338258 bytes, 11 tensors)

actor.fc1.weight f4 [256, 21]
000000 02 78 4c 3e 00 68 1c be d7 27 70 3c b4 30 29 3e
       0.19967654 -0.15274048 0.014657936 0.16522485
000010 5e 02 bd 3d f0 37 d6 bd 1b 43 48 3d 2f a0 3b be
       0.09228967 -0.10459888 0.04889212 -0.18322824
000020 94 8d 5d be 99 0b 03 3e 5f ee 01 3e 59 b0 49 be
       -0.21636039 0.12797393 0.12688588 -0.19696178
000030 a1 5c a6 3d 13 ad d4 bd 1d 2f da bd 68 d7 02 be
       0.08123136 -0.10384574 -0.106535174 -0.12777483
000040 0c 85 ba bb aa ae d7 bc e7 4f a6 3d 0e 23 b6 bb
       -0.00569213 -0.026328404 0.08120709 -0.005558378
000050 8d 62 09 3d 28 02 8d 3b 39 42 28 be 48 dc 2f 3c
       0.03354125 0.0043032356 -0.16431512 0.0107336715
000060 a9 ee 0e be d8 04 fe 3c 62 81 1f bd cf 12 01 be
       -0.13958229 0.031008169 -0.03894175 -0.12604831
000070 7d 27 00 3e 79 5a 33 3e 71 12 56 be 37 f9 37 3d
       0.12515064 0.17514981 -0.20905472 0.044915404
000080 0f ec f6 3b 31 9f 01 bc 20 bc 01 3e a7 ef 30 be
       0.0075354646 -0.007911489 0.1266942 -0.1727892
000090 58 4d 69 bd dc 4c 14 be 2d 0e 8d 3d 80 dc b3 3d
       -0.056958526 -0.14482445 0.068874694 0.087822914
0000a0 d2 e7 fc 3d 27 90 47 3e 72 a6 02 3e a6 19 28 be
       0.12348904 0.19488584 0.12758806 -0.16416034
0000b0 64 27 d9 bd 47 c4 24 be d1 c8 69 bd 3d 3c 39 be
       -0.10603216 -0.16090499 -0.05707628 -0.18089385
0000c0 89 23 b6 3d b2 1b b2 3b c1 02 bb 3d 95 19 1f 3d
       0.088934965 0.0054354304 0.09131385 0.038842756
0000d0 57 43 25 3e 60 c7 00 3e b3 d5 c0 3d 08 1b 2b be
       0.1613897 0.12576056 0.0941576 -0.1670953
0000e0 54 8f cf bd 98 5d b9 3d 7d d1 4a 3e ef 14 84 3d
       -0.101347595 0.09051055 0.19806476 0.06449305
0000f0 64 ae e5 bc a6 44 36 3e c5 8c 0d 3d 0f 9f f6 3d
       -0.028037257 0.17799625 0.034558076 0.12042057
000100 dd 48 09 be c0 aa 5d bc d0 36 8b ba 9a 12 1b 3e
       -0.13406701 -0.0135294795 -0.0010621194 0.15143815
000110 d6 ca a7 3b f0 89 c8 3d 4f e1 bc 3c 13 f5 7c 3c
       0.0051206155 0.097919345 0.023056654 0.01543929
000120 d7 45 cb bd 07 6b ad bd 22 a4 2f 3e 2b c4 66 3d
       -0.0992543 -0.084676795 0.17152455 0.056339424
000130 27 43 4b 3e 48 43 33 be 6e 82 83 bc b3 25 c1 3c
       0.19849835 -0.17506135 -0.016053405 0.023577547
000140 d9 7c d0 3d 75 b2 f3 3d 9b ff f7 bd f9 5b 97 bd
       0.10180063 0.11899272 -0.121093 -0.07390589
000150 e0 5f 00 be 5d 1f 44 3e 01 3d 4e bd 3e 50 21 be
       -0.12536573 0.19152589 -0.050351147 -0.15753266
000160 7d 3a 29 3e 31 e8 26 3d 7a 43 3a 3e a6 ce 03 be
       0.16526218 0.04074878 0.18189803 -0.12871799
000170 67 53 a8 3d 45 fe 4f 3d fe b8 03 3e d3 19 1b 3d
       0.08219033 0.0507796 0.12863538 0.037866425
000180 d1 74 5a be 22 62 4a be 50 af 54 3e cf 20 01 be
       -0.21333624 -0.19763997 0.20770001 -0.12610172
000190 7a 1a 31 3d ab ca 2c 3d d7 cd 4f 3e 11 61 28 3e
       0.04323814 0.042185467 0.20293365 0.16443278
0001a0 71 fe 52 3d fa 95 88 bd 00 07 57 bd 60 90 1f bd
       0.051512185 -0.06669231 -0.05249691 -0.038956046
0001b0 99 59 ac 3d 82 7a 12 be 1b a1 b1 bd c9 77 09 3d
       0.08415527 -0.14304546 -0.086733066 0.0335615
0001c0 34 4e 5a 3e 4a d8 36 3e ed 6d 32 3d 1a c6 8a 3d
       0.21318895 0.17855945 0.043561865 0.06776066
0001d0 ae 03 33 3e 00 50 da bd c3 f8 5a 3e 84 42 35 be
       0.17481872 -0.1065979 0.21383958 -0.17701155
0001e0 0e c0 bc ba c0 3a 1f be ad c3 3a 3e d6 87 9d 3d
       -0.0014400498 -0.15549755 0.18238707 0.07691924
0001f0 28 9b e8 3d 71 99 81 3c 89 bc a8 3d c1 bb 1d be
       0.11357719 0.015820237 0.08239085 -0.15403654
000200 55 ab 1c be a8 55 36 3e 41 9e 92 bd b4 51 30 be
       -0.15299733 0.17806113 -0.07159091 -0.17218667
000210 48 c1 41 bd f5 bc 92 3d 5a 56 f8 bd 68 3a f8 3d
       -0.047303468 0.07164947 -0.12125845 0.12120515
000220 b3 a1 6f 3d 3e 96 39 be c6 2e 8e 3d e5 ab 54 be
       0.058503818 -0.18123719 0.06942515 -0.20768698
000230 b7 df 05 be 4e 7d 6a bd 3a c7 2d 3e 6f 17 09 be
       -0.13073622 -0.057248406 0.1697053 -0.13387845
000240 0c 1c be bb 55 be 6a 3d e4 c8 f5 bd f1 b8 5a 3e
       -0.0058016833 0.05731042 -0.120012075 0.21359612
000250 77 09 3f 3c 60 45 32 3d c4 4d da bd f5 cb 22 be
       0.011659971 0.043523192 -0.10659364 -0.15898116
000260 9f 82 57 be f1 63 e4 bc 1b 47 0b 3e 99 97 d5 bd
       -0.21045922 -0.027879687 0.13601343 -0.104293056
000270 34 29 2f bd 67 63 dc 3d 79 5c dc bd 8a 0c 4e 3e
       -0.042763904 0.10761147 -0.10759825 0.20121971
000280 ce 95 09 be 73 52 31 3e c1 8a 26 be 95 ba a7 3d
       -0.13436052 0.17316608 -0.16263868 0.081898846
000290 ac 97 28 bd eb ec 81 3d 08 f5 52 3e 9f 1c 80 3d
       -0.04116027 0.06344017 0.20601285 0.06255459
0002a0 54 7a a1 3d c9 cb bf 3d 23 10 17 3e 4e 49 29 3e
       0.0788466 0.09365041 0.1475225 0.1653187
0002b0 36 13 b8 3d 9c 60 c3 3d 14 3e 25 3d 30 13 c2 3d
       0.08988039 0.09539911 0.040342405 0.09476316
0002c0 4a dd 0a 3e b3 32 32 bd 86 65 2e be 65 6c db bd
       0.13560978 -0.04350538 -0.17030916 -0.10714034
0002d0 60 80 18 be b9 10 49 3e fe f9 29 3e 48 f7 a5 3d
       -0.14892721 0.19635285 0.1659927 0.08103806
0002e0 3a 0e db bd 5e c5 08 3e 0d f3 5c 3e 6d aa 39 3d
       -0.10696073 0.1335654 0.21577092 0.045328546
0002f0 43 94 fd bd 3b da bb bc d4 1b 0c bd 65 6a 2f be
       -0.12381794 -0.022931209 -0.034206226 -0.1713043
000300 a2 41 d9 bd 08 e2 1c 3e e6 1a 0c 3e 9f 85 32 3e
       -0.106082216 0.15320599 0.13682136 0.17433785
000310 50 0b 30 3d 23 04 20 bd a7 b2 5e 3e 1f 11 fb 3c
       0.04297954 -0.039066445 0.21747838 0.030647812
000320 d0 dd aa bd 36 b6 f4 bd fe f3 4b 3e ed c9 23 be
       -0.083430886 -0.119488165 0.19917294 -0.15994997
000330 9d c2 e2 bd 38 fb 3c 3e 22 90 89 3d 3d db 48 3e
       -0.11072276 0.18455207 0.06716944 0.19614883
000340 74 7c 02 3c 28 fc 13 bd c0 ee 77 3c bf 66 39 be
       0.007964242 -0.036129147 0.015132606 -0.18105601
000350 84 a7 39 3e de 79 3e be c0 8a 45 bd 0c 53 6f 3d
       0.18130308 -0.18601176 -0.048228025 0.05842881
000360 8c 16 5e be a2 ee 00 bd a7 c2 7c bd 73 7e a9 3c
       -0.21688288 -0.031477578 -0.061709072 0.020690178
000370 ab 1f b7 bd 99 f5 3a bd ec 43 b3 bd 41 cb 92 3d
       -0.08941587 -0.045644376 -0.087531894 0.07167674
000380 41 0f 0f be 6d 17 b2 3b 51 cf 6e bd b8 ec 0d be
       -0.13970663 0.0054349215 -0.05830318 -0.13859832
000390 28 cc 14 3e cb 79 4f 3e b6 4a 52 3c ca d3 16 bc
       0.14531004 0.20261304 0.012835195 -0.009205768
0003a0 4d 8d 3e be a9 42 d8 3d 2d 35 25 be 11 d8 10 3e
       -0.1860859 0.105595894 -0.16133566 0.14144923
0003b0 1b 1d 34 3e f7 03 ab 3d 9c 19 35 3e d6 ec 2a 3e
       0.17589228 0.083503656 0.1768555 0.16691908
0003c0 16 30 4a 3e 0d 32 28 be 66 49 e6 bd 30 1b 1f bd
       0.19744906 -0.16425343 -0.112444684 -0.038844287
0003d0 fd 2e 36 be 91 9f f0 3d 49 39 84 bc c5 27 20 3b
       -0.17791362 0.11749185 -0.016140597 0.0024437767
0003e0 1e 86 18 be 4f 52 d9 3d 76 02 46 3e 33 7a 94 3c
       -0.14894912 0.10611402 0.19336876 0.018124675
0003f0 80 d7 45 bd 51 c5 e9 3d 58 e8 b7 3d b9 de 59 be
       -0.04830122 0.11414588 0.08979863 -0.21276368

actor.fc1.bias f4 [256]
000000 39 1a 04 bd 07 29 45 3e ef de 27 3e c0 fe 19 be
       -0.03225157 0.19253932 0.16393636 -0.15038586
000010 10 f1 6d 3c 18 49 e6 bc a9 72 de 3d ff 1b 18 3e
       0.014522806 -0.028111026 0.108617134 0.1485443
000020 70 ed 8c bc 99 96 bb bc b6 a5 ef bd 8e 2b 84 3d
       -0.017203063 -0.022898959 -0.11701529 0.0645362
000030 82 c7 a8 3b 5e a1 d1 3c 7b 40 43 bd 94 5e d0 bd
       0.0051507363 0.025589641 -0.047668915 -0.10174289
000040 a6 a9 c7 3b 85 03 5d be a9 d9 76 3c 37 6f b6 bd
       0.0060932217 -0.21583374 0.015066543 -0.08907931
000050 f8 04 bf bd f7 af dc 3d 90 2f 81 3d d4 e0 86 3d
       -0.093271196 0.1077575 0.063079 0.06585851
000060 7c cc 0b be 4a 45 48 be 37 b6 1f be 82 ed 27 be
       -0.13652223 -0.19557682 -0.15596853 -0.16399196
000070 72 d3 01 3e fb af dc bd c2 41 33 be cb 0a 1d 3d
       0.12678316 -0.10775753 -0.17505553 0.03834037
000080 15 f0 ae 3c 94 6b 42 3c c0 e5 d3 3d 7c ad 97 3d
       0.021354714 0.011866469 0.10346556 0.074061364
000090 bd a8 53 3e 98 53 46 3e 60 d7 2e be c2 ad 59 3d
       0.20669837 0.19367826 -0.17074347 0.053144224
0000a0 ac 76 0b 3e f9 10 94 3d b7 29 36 3e d1 0e f9 bc
       0.13619488 0.072298 0.1778935 -0.030402573
0000b0 a9 ce b1 3d 9c 72 06 bb 5c 41 20 3e 20 ac 1e 3e
       0.086819954 -0.002051509 0.15649933 0.15495348
0000c0 7a 6c f0 3d e1 a7 31 bd f9 b1 b5 3d bb dd 25 3e
       0.1173944 -0.043372992 0.08871836 0.16197865
0000d0 1f 31 b6 3c 2d 7d fb 3d 3c e5 35 3d 66 d8 98 3b
       0.02224022 0.12279735 0.044408068 0.0046644686
0000e0 1a 7c b2 3d 7b 3b d3 3d 65 3b 67 bd 8f 55 4d be
       0.08715077 0.103140794 -0.056453127 -0.2005217
0000f0 c6 42 cb bd c9 1e 11 3e b8 d9 67 bc 3c f9 0d 3e
       -0.099248454 0.141719 -0.014151029 0.13864607
000100 7c f4 58 3d e6 79 ac 3d 38 36 bb bd 03 07 20 3e
       0.052967533 0.08421688 -0.09141201 0.15627675
000110 b5 c3 9f 3d 7d 09 3a 3e 02 cf 7e bc 6f bc 92 3c
       0.07801 0.18167682 -0.015552284 0.017912118
000120 77 e5 09 3e fb 17 6b 3d 2e 4c b0 bd aa e0 82 bd
       0.1346644 0.057395916 -0.0860828 -0.063905075
000130 55 d9 35 bc e6 ff bb bd 7f b3 4c 3c b7 12 31 be
       -0.011099179 -0.09179668 0.012493967 -0.17292295
000140 34 69 59 3e 60 01 c3 3c a3 2c 12 3d 5d 10 26 be
       0.21231538 0.023804367 0.0356871 -0.1621718
000150 92 b1 a7 bd 6e 82 46 3e 44 bc 34 be fb 19 81 3d
       -0.08188166 0.19385692 -0.17649943 0.063037835
000160 f3 f8 19 3e e4 14 11 3c f5 0d 2d 3e 79 72 d9 bd
       0.15036373 0.008855078 0.16899855 -0.10617537
000170 d0 c0 92 bd a3 2f 35 be 80 a2 fa bd 18 bd 1f be
       -0.07165682 -0.17693953 -0.12238026 -0.15599477
000180 a8 7d 3e be 29 d7 46 be b5 0a 31 3d 9d 2b 0a 3e
       -0.18602622 -0.19418015 0.0432231 0.134932
000190 e7 11 d9 3d a3 6a 55 be 14 83 5b be f7 2d b6 3c
       0.10599118 -0.2084146 -0.21436721 0.022238715
0001a0 f2 10 76 bd 14 54 15 3c 22 fc bd bd 74 01 64 bd
       -0.060074754 0.009114284 -0.09276606 -0.05566545
0001b0 c6 8d 55 3e b0 21 0b be 11 3e 43 be c2 16 22 3d
       0.20854864 -0.1358707 -0.19066645 0.039572485
0001c0 fa 9a 96 3d d5 a9 ef bc 18 b9 f6 bc 8f b4 08 be
       0.07353778 -0.029255787 -0.030117556 -0.13350128
0001d0 45 df 00 be 4d 86 1d bd fd 46 0b be 8a f6 41 3e
       -0.1258517 -0.038458157 -0.13601299 0.18941703
0001e0 ba 11 08 be 7c 49 2f 3e 41 f0 11 3e bb a3 48 3e
       -0.13288012 0.17117876 0.14251806 0.19593708
0001f0 aa b3 9b bc 8f 69 09 3e 2a 1b d9 3d 94 57 94 3d
       -0.019006569 0.13419174 0.10600884 0.07243267
000200 e3 12 f5 bd a5 ee 10 3e aa 2e e1 3d a9 63 a2 bd
       -0.11966493 0.14153536 0.109952286 -0.07929165
000210 ee f8 bb 3d a0 ee 6c 3c c2 cf 50 be 81 41 32 be
       0.09178339 0.0144611895 -0.20391753 -0.174078
000220 e5 0e 35 be 01 0f 57 3e 21 30 41 be cc b3 be bd
       -0.17681463 0.21001817 -0.18866016 -0.09311637
000230 26 0d 0a 3e 27 41 ba 3d 40 d7 0d 3e 80 3a de 3d
       0.13481578 0.09094458 0.13851643 0.10851002
000240 ec 56 a7 bd 5f 44 58 3d ee 01 3b bd b7 4e b8 3d
       -0.08170876 0.05279958 -0.045656137 0.08999389
000250 9a bb 43 be 1e b3 0d be 5a 32 49 be 00 fb e1 bd
       -0.19114533 -0.13837859 -0.19648114 -0.110342026
000260 ac d2 0d be e9 fe 59 3e 4c 6c 4e 3d 8b 0b 1e 3d
       -0.13849896 0.21288647 0.05039625 0.038585227
000270 93 f3 4b be be c7 34 be 5a 21 5d be f7 3e 79 3d
       -0.19917135 -0.1765432 -0.21594754 0.060851064
000280 d0 5a 3d be 43 36 d5 3d 51 65 9b bd 24 1b 40 3c
       -0.18491673 0.1041074 -0.07587684 0.011725221
000290 96 89 4c be 14 8e 66 bd 6b fd 0b bd c1 f7 38 be
       -0.1997436 -0.05628784 -0.034177225 -0.1806326
0002a0 c0 06 4c 3e 61 4e d2 3c a1 0b 44 be 7a ce 46 be
       0.1992445 0.02567214 -0.19145061 -0.19414702
0002b0 a7 92 44 bd f6 ed 49 3d 73 ec 1b be 67 8e 94 3d
       -0.04799142 0.049299203 -0.15226917 0.072537236
0002c0 7e d8 33 3e c2 16 f6 3c 79 34 ed 3c 88 48 01 bd
       0.17563054 0.030040149 0.028955685 -0.03156331
0002d0 61 93 12 3c 1d 8c 9e 3d 8d 46 59 bd 42 3d 46 be
       0.008946271 0.07741568 -0.053045798 -0.19359306
0002e0 1e 2a 5b 3e 8c cd 43 3d 6a 2a 3c 3d 90 14 0b 3e
       0.21402785 0.047803447 0.045938887 0.13582063
0002f0 02 ae dc 3d 70 a4 13 bd a4 e9 5c bd bd b3 47 be
       0.10775377 -0.03604549 -0.053933755 -0.19502158
000300 a4 ea 98 bd 44 71 1b be ac 7b 4f be 50 06 74 bd
       -0.07466629 -0.15179926 -0.20262021 -0.059576333
000310 e3 e4 da bd 30 87 21 3e a3 dc 83 3c 62 37 26 be
       -0.10688188 0.15774226 0.016096419 -0.16232064
000320 0a f1 a1 bd 7d 5e 49 3e e4 7a f8 3d 0a 16 9a 3d
       -0.07907303 0.1966495 0.121328145 0.07523735
000330 68 4f 98 3d 79 0f 15 3e 9d 08 39 3e 2b fc 82 bd
       0.074370205 0.14556684 0.18069692 -0.063957535
000340 7d d1 07 3d bb f3 32 be ff 59 59 be 53 53 8e 3c
       0.033158768 -0.17475788 -0.21225737 0.017373716
000350 e1 2b 03 be 4d 22 13 3e ff e0 24 3e 27 f3 96 bd
       -0.12809707 0.14368553 0.16101454 -0.073705964
000360 56 e5 dc bc 7b 42 ab 3d 6b 2a 1e 3d e8 27 f2 3d
       -0.026964825 0.083622895 0.03861467 0.11824018
000370 1f 35 36 be 84 12 2f 3d 58 9e 00 be 20 88 5a 3e
       -0.17793702 0.042742267 -0.12560403 0.2134099
000380 06 7b bb bb 8d a6 06 3d e4 74 46 be 25 10 29 be
       -0.0057214526 0.03287368 -0.19380528 -0.16510065
000390 84 0d 1f be d0 eb ba 3d 57 d3 35 3c ef 19 c9 3d
       -0.155325 0.09127009 0.011097751 0.098193996
0003a0 11 c3 22 bd 7b 7d 68 bd e9 ab 16 be e4 52 3a be
       -0.03973681 -0.056760293 -0.14714016 -0.18195683
0003b0 a4 4c 21 be f7 73 d0 3d 99 37 4e 3e 51 3e 30 bd
       -0.15751892 0.101783685 0.20138396 -0.04302818
0003c0 54 8b 48 be 92 d2 c7 3c 7b 98 a3 bd 02 3e 97 bc
       -0.195844 0.0243924 -0.07988068 -0.018462185
0003d0 a8 22 e4 3d 83 e4 fa 3b c3 7c 4e 3e b2 5e 16 be
       0.11139423 0.0076566353 0.2016478 -0.14684561
0003e0 4d 00 29 bd 01 a5 02 be 41 2a ea bd c0 12 0b bd
       -0.041260052 -0.12758256 -0.114338405 -0.03395343
0003f0 b0 42 00 3e 8f 44 39 3e bc 1e 7d bd df 8d ad bd
       0.1252544 0.1809256 -0.06179689 -0.084743254

actor.fc2.weight f4 [128, 256]
000000 b2 6d 18 3d 9e 8e 35 3d ef aa 4b 3d 82 8f 11 bc
       0.03721399 0.044325463 0.04972356 -0.008884313
000010 b1 11 63 3c 57 cd de bc e9 c6 73 bc 74 0b 0a 3d
       0.013859198 -0.027197523 -0.014878967 0.03370233
000020 c8 01 04 3d 84 1d 0e bc 6e b0 a7 3b 2c 42 94 bc
       0.03222826 -0.008674029 0.0051174676 -0.01809796
000030 4f 62 bb bc 96 4f b7 bc 2d af 32 3c 60 cc 47 bd
       -0.022874026 -0.022376817 0.010906023 -0.04877889
000040 24 79 c4 3c 95 89 6e 3d 2c 8a 6b bd cb c0 7f 3c
       0.023983546 0.058236677 -0.057504818 0.01560993
000050 d1 b0 45 bd a2 1c 40 3d 8f f5 23 bd 8d 39 d9 3c
       -0.04826433 0.046902306 -0.040029105 0.0265167
000060 f8 2e 19 3c 98 c4 8a bb de f2 46 3b 5b dc 26 3d
       0.009349577 -0.0042348616 0.0030357162 0.04073749
000070 d5 b8 42 bd 00 08 6f 35 08 53 2d 3c 45 8e 8b bc
       -0.04753955 8.904608e-07 0.010578878 -0.017035613
000080 80 f8 3b 3c ef 52 26 bd c3 13 c0 bc 35 6f 25 3c
       0.011472821 -0.040606435 -0.023446923 0.010097315
000090 54 ca 1f 3d 42 40 62 3d 9f b1 47 bd e2 ff 45 3c
       0.039011315 0.055237062 -0.048753377 0.012084933
0000a0 c4 88 c9 3b 2e 94 5c 3d 83 8e d1 bb ff 37 22 bd
       0.006150337 0.053852253 -0.0063951625 -0.039604183
0000b0 a4 4d 06 3d 6b 39 b4 3c 45 a4 64 bd 5d 51 cf 3c
       0.032788888 0.022000035 -0.055820722 0.025307352
0000c0 2b fd 2f 3d ed 19 63 3d a7 72 b8 bc df d5 d3 3b
       0.04296605 0.055444647 -0.022515608 0.0064647044
0000d0 a1 4a 6d 3d cd 4c 5a bd 54 6e 93 bc 82 88 71 3d
       0.0579325 -0.0532959 -0.017996944 0.058968075
0000e0 03 e4 c0 bc 2e d0 69 bd dd 05 a7 3c e2 1b 49 bd
       -0.023546224 -0.0570833 0.020388538 -0.049098857
0000f0 47 73 bf 3c c5 15 40 bd e9 bc 14 bc 8b 1a 87 bb
       0.023370398 -0.04689576 -0.009078243 -0.004123037
000100 b0 3d 68 bd 94 3c 58 bc fa 15 84 bc a9 40 aa bb
       -0.056699455 -0.013198037 -0.01612376 -0.0051956964
000110 a9 4e b1 3a 5b fb 13 bd bb 4c c8 bc 8c 7f 1d 3d
       0.0013527471 -0.036128383 -0.02445065 0.038451716
000120 c7 77 26 3d 77 cd fe 3b cf 96 fb bc e2 2e ee bc
       0.040641572 0.007775958 -0.03071156 -0.02907509
000130 b0 94 08 3d e8 c1 2d 3b ca 00 e7 bb c2 89 1b bd
       0.033344924 0.0026513282 -0.0070496546 -0.037973173
000140 6a 37 d3 39 81 a5 ae bb 91 96 09 3b 6e 6e 0f 3c
       0.00040286343 -0.005329788 0.0020994286 0.008754356
000150 43 f1 03 ba 68 e2 15 3d bb 3d 8e bc eb 4e 30 3c
       -0.0005033204 0.03659287 -0.01736342 0.010761003
000160 dd 57 fa bc 00 46 72 bd e6 60 25 3d 56 56 85 3c
       -0.030559475 -0.05914879 0.040375613 0.01627652
000170 a7 32 19 bc 17 ec e1 3c 03 bb 47 bd 40 ef 10 3d
       -0.009350455 0.027578397 -0.048762333 0.035384417
000180 39 6e 3d bd db f7 94 3b 20 f3 91 bb de bc 65 3d
       -0.046247695 0.0045461482 -0.0044540316 0.05608832
000190 b3 b8 ca bc 69 4c 97 3c b9 8a c9 3c 53 5f c8 bc
       -0.024746275 0.018469052 0.02460228 -0.024459517
0001a0 fa 41 33 3d 73 41 6b bd e9 77 da 3a 4e fd 20 3d
       0.043764092 -0.057435464 0.0016667816 0.03930407
0001b0 d2 bd 81 3d d9 d9 3f bd 0a d9 78 3d ce 95 1c bd
       0.063350335 -0.046838615 0.06075386 -0.038228802
0001c0 be a2 51 3d 02 19 3b 3d e2 d2 df 3c a2 dd e2 bc
       0.051180594 0.045678146 0.027322236 -0.027693573
0001d0 34 a8 62 bc ea 7b e1 bc e1 ec 03 3d 3a 74 83 3c
       -0.013834048 -0.027524907 0.032208327 0.016046632
0001e0 e4 73 13 bd bd 54 c1 bc 01 0b 92 3a 18 86 6e 3c
       -0.035999194 -0.023599977 0.0011142195 0.014558338
0001f0 52 a0 6f bd 1b ec 22 3d f9 1e a9 3c bc cd c4 bb
       -0.058502503 0.03977595 0.020644652 -0.0060059708
000200 a5 a5 58 bd df 9a e2 3c 6b 3f 3e 3d 4d 28 40 3d
       -0.052892346 0.027661739 0.0464472 0.046913434
000210 6e 5d ac 3c 70 fd 60 bd a8 96 98 3c 6a 5d 3d 3d
       0.021040644 -0.054929197 0.018626526 0.046231665
000220 06 c0 e3 bb da 52 e6 bc a6 10 e1 39 68 ec 1b bd
       -0.006950381 -0.028115679 0.00042927748 -0.03806725
000230 2d 47 34 bd 5d 13 92 3c 15 6a fa 3c 06 aa 2b bd
       -0.04401319 0.017831499 0.030568162 -0.041910194
000240 97 d4 1d 3d ed 50 71 bd b7 95 43 bd 0d f7 13 bd
       0.03853282 -0.058915067 -0.0477502 -0.036124278
000250 0a e5 0c 3d 28 4d da bb 17 46 e6 bb 2a da 0e bc
       0.034398116 -0.00666203 -0.0070273983 -0.008719007
000260 60 8b 31 3c 9c 2b 3b 3d 57 e2 14 3d d6 a2 eb bc
       0.010836452 0.045695886 0.036348667 -0.02876417
000270 94 6b dd bc b1 49 db 3c 75 0e 88 3c 2f 1f 8a bc
       -0.027028836 0.026768537 0.016608456 -0.016860573
000280 d1 73 81 3b 36 98 a0 3a 7e 7d 7e 3d 92 a7 3e bd
       0.003950574 0.0012252394 0.062131397 -0.046546526
000290 05 3c 9d bb d8 6e f4 3c 98 e8 0a 3d 6a 95 31 bd
       -0.0047984147 0.02983801 0.033913225 -0.043355383
0002a0 6c 78 65 bd 59 86 69 3d 7a 8b 89 3c d9 18 03 bd
       -0.056023046 0.05701289 0.01679014 -0.03200612
0002b0 75 14 13 3d ac 49 61 bd 1a 86 1b 3d 72 ae 9b bb
       0.03590818 -0.0550019 0.037969686 -0.00475102
0002c0 09 3a 0b bd 84 91 12 3d e9 e6 e2 bc 5f 5b 32 3d
       -0.033990894 0.035783306 -0.027697997 0.04354417
0002d0 d6 f1 a3 bc ac 44 5f bd 57 ce c0 bc d3 4e 34 3b
       -0.020012777 -0.05450885 -0.02353589 0.0027512803
0002e0 51 d4 ac bc c6 d7 51 bd 5c f7 24 3d 40 ab 28 3d
       -0.021097334 -0.05123117 0.040274963 0.04117894
0002f0 f9 40 3d 3d e3 b4 14 3d 27 c9 e5 3c 6e fa 42 3d
       0.04620454 0.03630532 0.028050018 0.04760211
000300 14 5a 49 3d 86 76 0e bd d0 c8 96 3c 86 b4 bb bc
       0.04915817 -0.034781 0.018406302 -0.022913229
000310 f4 66 6c bd 45 25 77 3d 64 9e 56 3d 9e 5f 17 3d
       -0.05771537 0.060338277 0.052397147 0.036956422
000320 c0 2c 08 bd 14 88 1e bd 3f 44 16 bd 7d fa 6b 3d
       -0.033245802 -0.038703993 -0.03668618 0.05761193
000330 dc 34 35 3d 20 5d 6b 3d 36 9e 97 3c 15 6b 0f 3c
       0.044239864 0.057461858 0.018508058 0.008753558
000340 ae e6 2b bd 58 87 3e 3d 9b a5 1c bd 28 c7 68 3d
       -0.04196804 0.046515793 -0.03824387 0.056830555
000350 bc 47 8f bc 72 44 26 3d ee 95 bd bc 30 d1 05 bd
       -0.01749026 0.04059262 -0.023142781 -0.0326702
000360 6f eb f9 bc 1f 7f 0b 3d b3 22 ef bc 20 c4 70 bd
       -0.030507771 0.03405678 -0.02919135 -0.05878079
000370 89 2c 74 3c 68 4f a9 3c 97 c7 55 3b 94 11 3e 3d
       0.014903196 0.020667747 0.0032620186 0.046403483
000380 48 62 06 bd a3 d7 2d bd be 7d ea bc 3e 51 99 39
       -0.032808572 -0.042441975 -0.028624412 0.00029242964
000390 60 66 78 3c 5e 4f 63 bd be d2 5c bb de c5 7e 3b
       0.015161127 -0.055495612 -0.0033694948 0.0038875262
0003a0 a3 89 7f 3c b7 99 39 3d b7 e3 67 bd 54 d4 38 3d
       0.01559678 0.04531261 -0.05661365 0.045124367
0003b0 d6 cc b2 bc 77 8d 50 bd 27 4d 86 bc 85 5a 3e bd
       -0.021826189 -0.05091616 -0.016394211 -0.046473045
0003c0 21 4c d0 3c 80 0e 15 bd 33 fc 77 bd 8e b7 88 3b
       0.025426926 -0.03639078 -0.06054325 0.004172272
0003d0 21 a0 61 3d d5 83 8d bc 61 c6 62 3d aa df bf 39
       0.05508435 -0.017274776 0.05536497 0.00036597002
0003e0 db 9d c5 bc 09 9f 58 3d 5a 71 10 3c 8a 74 32 3c
       -0.024123123 0.052886043 0.008816088 0.010892043
0003f0 35 89 93 bc 81 c6 e8 3b 89 36 69 bc e0 3b 3c bd
       -0.018009761 0.0071037416 -0.014234194 -0.04595554

actor.fc2.bias f4 [128]
000000 98 89 2d 3b 50 14 fd bb 0f 40 68 3d 6d 10 39 3d
       0.0026479717 -0.0077233687 0.056701716 0.04518168
000010 a5 60 e6 3c 9d 77 d4 bc 36 bc 72 bc d3 b1 4a 3d
       0.028122256 -0.025935942 -0.014815381 0.049485993
000020 00 14 36 bd b4 60 ef 3c e5 c5 51 3d 32 b2 f6 bc
       -0.044452667 0.029220916 0.051214118 -0.030114267
000030 d7 c8 05 3d df 40 d5 bb 46 e8 38 bd 06 c5 6b bd
       0.03266224 -0.0065079774 -0.04514339 -0.057560943
000040 d8 d9 6b bd ff 46 0d bd bd b6 15 bd e5 ae 1e bd
       -0.0575808 -0.034491535 -0.036551226 -0.03874101
000050 29 78 79 3c 33 e9 69 3d ee 0f ef 3c a7 d9 54 bd
       0.015226402 0.05710716 0.0291824 -0.051965382
000060 ae 31 a7 3c ab 47 55 bd f0 1f 71 bd 24 b5 32 bd
       0.020409431 -0.0520703 -0.05886835 -0.04362978
000070 74 ae b6 ba b3 d0 13 3d 47 96 06 3c 7e b2 77 3d
       -0.0013937489 0.036087703 0.00821454 0.060472958
000080 a5 06 2f 3b a8 5e 70 3d 88 58 18 bd fa 1e 1f bd
       0.0026706841 0.05868402 -0.037193805 -0.0388479
000090 ef cc 14 3d 0c ae ac 3c f2 f6 f2 bc b6 ea 39 bd
       0.036328252 0.021079086 -0.029658768 -0.045389853
0000a0 c4 d1 5e 3c 51 56 c5 bc d1 73 c5 3c 9f 5c 59 3b
       0.013599817 -0.02408901 0.024103077 0.0033166779
0000b0 69 49 7b 3d 52 37 cc 3c a6 44 99 3c 2b 1c 6c 3d
       0.061349306 0.024928723 0.018709492 0.05764405
0000c0 82 74 dc 3c 9f 05 49 bd c9 73 ab 3c 3a b9 6f bd
       0.026911024 -0.049077626 0.020929234 -0.058526255
0000d0 e6 e0 82 3c 22 eb 05 3d 6c bf 2b bd 85 28 7d bc
       0.01597638 0.032694943 -0.0419306 -0.015451555
0000e0 97 5a 6f bd 15 b1 d1 bb 81 0d 38 3d 62 f6 32 3c
       -0.058436003 -0.0063992837 0.044934753 0.010923
0000f0 69 58 66 3d eb 34 48 3d af e3 67 3d f1 b7 d1 3c
       0.05623666 0.04887859 0.05661362 0.025600405
000100 bc 65 14 bd 26 ff 7e 3d 56 8e 22 3d 33 1e 53 bd
       -0.036229834 0.062255047 0.039686523 -0.051542472
000110 0e 24 a9 3c a9 47 3c 3d 9e 47 d1 bc 6d 51 b2 3c
       0.020647075 0.045966778 -0.025546845 0.021767342
000120 8a 9e dd bc 19 f9 e7 3c b8 ee c4 bb 2b d0 cd bc
       -0.027053136 0.028317021 -0.006009903 -0.025123676
000130 71 23 1a 3d 60 f2 77 bc 97 f9 42 bd ab 71 32 bd
       0.037631456 -0.01513347 -0.04760131 -0.043565433
000140 4a 00 47 bd 14 7a 5c bd cb 06 58 bd 6d d5 e5 bc
       -0.04858426 -0.05382736 -0.052740853 -0.02805587
000150 a7 0e 6e 3d cd 48 fd 3c 19 db 21 bd fc 00 85 3c
       0.058119442 0.030918503 -0.03951559 0.016235821
000160 c8 d6 5e 3b cf f6 61 3d fa c3 71 3d 6b ea 0b bd
       0.0034002531 0.055167016 0.05902479 -0.034159105
000170 88 68 00 b9 64 a8 2c bc 93 56 a4 bc 90 0d 9e 3c
       -0.00012245972 -0.010538194 -0.020060813 0.019293576
000180 ea 34 28 bd 12 4c 64 3d a2 2e 4d 3d b1 c6 85 3c
       -0.041066088 0.05573661 0.0500933 0.016330095
000190 7f 74 92 bc 7f c5 6a bd a5 90 72 3c 26 67 f6 bc
       -0.017877815 -0.057317253 0.014804994 -0.030078482
0001a0 e3 76 03 bb 54 62 1c bc c2 ec 2b bd 9a 6a 41 3c
       -0.0020059876 -0.009544928 -0.041973837 0.011805201
0001b0 49 80 4a bd 98 64 d1 bc d6 d4 aa bc 8c 54 02 bd
       -0.04943875 -0.025560662 -0.020853441 -0.03181891
0001c0 7e 38 1d bd 6b d2 b1 3c 28 fb 8a bb bc ac 2f bd
       -0.038383953 0.02170678 -0.004241366 -0.04288934
0001d0 d3 9b 26 bd c8 a0 74 bd 22 e3 b8 bc b6 a4 61 3d
       -0.04067595 -0.059723645 -0.022569243 0.05508872
0001e0 41 d0 e8 3c c0 07 b2 37 b4 27 08 bd fe 00 75 3d
       0.028419616 2.1222862e-05 -0.03324099 0.0598154
0001f0 e8 f0 68 3d 5c 7d 98 3a 36 d6 72 bc 0f 6d 38 3d
       0.05687037 0.001163404 -0.01482158 0.04502588

actor.policy_head.weight f4 [50, 128]
000000 bf 9f f3 3c 8e c3 51 3d 7a c6 8e bd 85 77 96 bb
       0.029739259 0.051211886 -0.0697145 -0.0045918846
000010 9a 37 8c bc 3b 85 57 3d 33 a3 a2 3d 45 95 5f 3b
       -0.017116357 0.052617293 0.07941284 0.0034116071
000020 a3 4f 48 bd 89 7f 0d 3d f0 f6 0a 3d b0 77 6b 3d
       -0.048904072 0.034545455 0.033926904 0.05748719
000030 7e b5 3e bc cd 89 7f 3d 78 8b 94 3c ab 36 03 bd
       -0.011639951 0.062387276 0.01813291 -0.032034557
000040 92 ef 8d 3d 47 ad af 3d 9e 32 02 bd 2d dd 66 bc
       0.0693046 0.08577972 -0.031786554 -0.014090818
000050 77 0a 8d 3c 4d db 6d bc e6 8f 3b bd 4e c7 1e 3c
       0.017216904 -0.014517617 -0.04579153 0.009691073
000060 8c 01 a0 bd 03 6a a9 3d fd cd d8 bc 8c b7 6d bc
       -0.07812795 0.08272173 -0.02646541 -0.014509093
000070 25 25 ae 3d 37 7a 59 3d 8b 07 71 3d 26 e6 e9 bc
       0.085031785 0.05309507 0.058845084 -0.028552126
000080 e2 df 7e bd 44 9a 05 bd 90 5b 9e 3c 33 c5 9b bd
       -0.06222523 -0.032617822 0.01933077 -0.07605972
000090 bf ac b4 3d 48 df 59 bc 73 cb c2 3b 95 6d a1 bd
       0.08822011 -0.013297863 0.005944663 -0.07882229
0000a0 fd 58 55 bd d8 6f 2f bc 89 74 a0 3d ec 2e 00 bd
       -0.05208682 -0.010707818 0.07834727 -0.03129475
0000b0 f7 d2 56 3d 5b 3e 03 bd fd a4 99 bc 1f 99 7f bb
       0.052447286 -0.03204189 -0.01875543 -0.003900118
0000c0 34 67 57 bc ec 5a a7 bd 4f 1c 93 bd 12 24 9a 3c
       -0.013147164 -0.08171639 -0.07183134 0.018816028
0000d0 b4 4e 03 bb 0d e6 d6 3c 4f d8 73 bd b3 db 99 bd
       -0.0020035924 0.026232744 -0.05953246 -0.075126074
0000e0 f8 f1 64 3d 42 3e a6 3c c4 de 1c bc eb 0e 91 bc
       0.055894822 0.020293359 -0.009574596 -0.017707309
0000f0 56 5f 91 3d ac bc 87 3d 53 8d 1f bc b2 db 69 bd
       0.07098262 0.06627783 -0.009738284 -0.057094283
000100 70 4e 9f bd 5c 9c 69 3d b3 aa 09 3d c8 86 a9 3d
       -0.07778633 0.05703388 0.033610057 0.082776606
000110 1b 3e c3 bc 16 a3 19 3d b8 bb 06 bd 36 e4 b9 bc
       -0.023833325 0.037509046 -0.032893866 -0.022691827
000120 62 87 9f bd 31 0a a6 3d f4 3c 16 3d 24 39 99 3c
       -0.07789494 0.081074126 0.036679223 0.018704005
000130 a0 0c 8c bc 68 14 a8 3d 38 21 75 bd 5a e4 b3 3d
       -0.017095864 0.08207017 -0.059846133 0.08783789
000140 74 6d 2c 3d 30 a0 f7 3c d7 74 36 bd 1d 3a 73 3d
       0.04209657 0.03022775 -0.04454502 0.059381593
000150 7a c4 87 bd fe c0 85 3d 7b 81 e2 3a 22 e8 d6 bb
       -0.06629272 0.06530951 0.001728102 -0.006558434
000160 5e 9a 01 3d f0 2e e1 3b 6e c1 82 bd bf cc 87 3d
       0.031641357 0.0068720505 -0.0638455 0.06630849
000170 e8 97 c3 bc ea 98 b9 bc f8 f2 04 3d cf 9c 5a bd
       -0.023876145 -0.022655923 0.032458276 -0.0533722
000180 69 47 31 3d b6 08 6d 3d ce 37 9c 3d b7 53 8e bd
       0.043280993 0.057869636 0.076278314 -0.06949561
000190 5b 30 4a bc 5f b1 a7 3d 74 a3 12 3d 80 79 07 3d
       -0.01234063 0.08188128 0.035800412 0.033074856
0001a0 7e a7 3c 3d 1f 79 a2 3d 5b 58 6d bd 5b 66 bb 3c
       0.04605817 0.07933258 -0.05794559 0.022875955
0001b0 35 42 8e bd 70 bc 28 3c 11 4f 9e 3d 81 e9 88 bd
       -0.06946222 0.010298833 0.077299245 -0.06685162
0001c0 0b e5 98 bb 71 ef dc 3b ac 78 7d bd c2 8c 2f 3d
       -0.004665976 0.006742411 -0.06188266 0.042858846
0001d0 23 d3 0a bd 96 16 a9 3d d0 a0 91 3d 27 65 94 bd
       -0.033892762 0.08256261 0.07110751 -0.07245856
0001e0 64 5c fa bc 36 80 a6 3d 57 13 01 bd c5 77 a7 bd
       -0.030561633 0.08129923 -0.031512585 -0.08177141
0001f0 86 d8 a5 bd 2f 76 d3 bb e9 08 89 bd 54 fc 69 bc
       -0.08097939 -0.0064532976 -0.066911526 -0.014281351
000200 3f 23 ab bd 05 bf 7e 3d 4c db c6 bc 50 ee 2a 3d
       -0.08356332 0.06219389 -0.02427449 0.04173118
000210 d8 35 38 3d 1f 12 81 3d 40 da c5 3b 43 d6 f8 bc
       0.044973224 0.063022844 0.0060379803 -0.030375605
000220 e8 ee 87 3d d0 7b ae 3d 8a 5a 0e 3c 15 38 4e bd
       0.066373646 0.08519709 0.008688578 -0.050346453
000230 d4 6d 43 bd 43 58 17 3d d1 a7 ff bc f6 5d d0 bb
       -0.047712162 0.036949407 -0.03120795 -0.0063588573
000240 76 4d 2a bd 96 3c b5 bd 40 3b 47 3d d7 b3 89 3d
       -0.04157778 -0.088494465 0.04864049 0.06723755
000250 81 97 1e 3d d3 2a 94 bd 7c f1 89 bd 2a 8f 2a bd
       0.038718704 -0.072347306 -0.067355126 -0.04164044
000260 52 69 43 3b 03 ca 94 bd 92 c4 1a bc 63 34 c0 bc
       0.0029817414 -0.07265093 -0.00944628 -0.02346248
000270 0e 51 8f 3d 08 fc 3a bb 7c 0d 84 3c 21 3f a8 bd
       0.06997882 -0.002853157 0.016119711 -0.08215166
000280 cb 47 01 3d b2 10 92 bd 15 a2 54 3d 93 ea 32 3c
       0.031562608 -0.07132091 0.051912386 0.010920185
000290 a1 9a 99 bd c6 f0 5a bc 3a 9e c9 3b 38 69 9f bb
       -0.07500196 -0.013363069 0.0061528953 -0.004864838
0002a0 e4 8c fa bc 4f d5 28 3d c6 47 92 3d 19 ae 50 bc
       -0.03058476 0.041219052 0.07142596 -0.012736821
0002b0 2b a7 63 3d 71 1f 29 bc c7 7b a6 bc 32 58 26 3b
       0.055579346 -0.010322438 -0.020322694 0.0025382158
0002c0 d3 70 38 3d 32 22 ae bd ec eb 6a bd 3d 7c 82 bd
       0.045029473 -0.08502616 -0.0573539 -0.06371353
0002d0 f9 95 63 bd 20 4c b4 bd 32 dc fa bb 5a 9a a3 bd
       -0.055562947 -0.08803582 -0.007655644 -0.079884246
0002e0 dd 97 65 3d e4 43 55 3b 56 4b b0 3c f6 43 28 3c
       0.05605303 0.0032541687 0.021520298 0.010270109
0002f0 89 d6 40 bd c0 00 a8 3d 0a 55 f4 bb c8 e6 31 bd
       -0.047079597 0.08203268 -0.0074564265 -0.04343298
000300 2d c7 87 bd ab cc 14 bd 77 c4 98 3d bd 9d 5f 3d
       -0.06629787 -0.036328 0.07459348 0.05459379
000310 50 87 54 3d b0 20 ff bc f7 fe 72 bd 34 fe a3 bd
       0.051886857 -0.031143516 -0.059325185 -0.0800747
000320 c7 ea 7e bd ec e8 26 bd 67 0f 80 3d d1 13 a8 bd
       -0.06223562 -0.040749475 0.06252938 -0.08206905
000330 20 ca 89 3d 1c 0d 79 bd ce db 17 3d 5f 16 a2 3d
       0.067280054 -0.060803518 0.037074856 0.07914423
000340 7a d2 8c bd 82 82 5e 3d ee 61 97 bd ff 84 51 3d
       -0.06876083 0.05432368 -0.073917255 0.051152226
000350 1a 23 52 bd 68 e1 af 3d aa b7 13 3d 84 62 56 3d
       -0.051303007 0.08587915 0.036063828 0.052340046
000360 30 6d 05 3d d8 e3 05 bd 03 6b d1 3c e2 f9 84 3d
       0.032574832 -0.03268799 0.025563722 0.06492974
000370 99 5a 9a 3d 30 b5 41 bd cd f5 e1 3b ef e2 f6 3c
       0.075368114 -0.047291934 0.006895757 0.030137507
000380 ec aa a7 3c 49 7d 7b 3d fa f5 a0 3d 51 50 75 3d
       0.020467244 0.061398778 0.07859416 0.05989105
000390 60 93 6e 3d 39 01 56 3c 21 8b 75 bd 35 d6 e6 3c
       0.058246017 0.013061815 -0.059947137 0.028178314
0003a0 20 12 39 3c 48 ce 0c bd 86 05 34 3d 64 20 8d ba
       0.011295825 -0.034376413 0.04395058 -0.00107671
0003b0 87 25 99 3d 90 06 7f bc 98 88 90 3c e8 ef 3e bd
       0.07477861 -0.0155655295 0.017643258 -0.04661551
0003c0 39 39 25 3d 2e 22 89 bd 1f 76 8a 3d 29 ce 64 3d
       0.040337775 -0.066959724 0.06760811 0.055860672
0003d0 99 c8 44 bc 96 ff 40 3d a0 6d e5 bb 96 15 1f bd
       -0.012010717 0.047118746 -0.0070015937 -0.038838945
0003e0 40 d8 86 bd dd 01 cf 3a fe e2 94 3d eb 95 25 bd
       -0.06584215 0.0015793402 0.07269858 -0.040426176
0003f0 79 a1 45 bb 41 78 2a bd ad d4 8c 3d 51 6c 4f 3d
       -0.003015606 -0.04161859 0.06876502 0.050640408

actor.policy_head.bias f4 [50]
000000 f1 86 a0 bd a4 ac 28 3d b9 ae 1c bd 68 c6 37 bd
       -0.07838238 0.041180268 -0.038252566 -0.04486695
000010 d7 8e 23 3c fc 26 2b bd b8 29 4b 3d 78 d8 7e 3d
       0.009982786 -0.041785225 0.049600333 0.06221816
000020 fe 5a 9a 3d 61 9a 25 3d e4 63 a4 3d 88 9f 89 3c
       0.07536887 0.04043043 0.08026865 0.016799703
000030 ef cd 80 3d f3 d6 9d 3d 78 64 9b bc a2 7e 49 bc
       0.06289279 0.07707014 -0.018968806 -0.012298258
000040 d0 4d 1c bd 80 dc 77 bd 2d 1d 90 bd 32 a7 a4 3c
       -0.038160145 -0.06051302 -0.07036815 0.020099256
000050 64 0e e6 3c 31 ec bc 3c 44 6b e9 bc 5c fc 82 3d
       0.028083034 0.023061844 -0.028493531 0.0639579
000060 ed 09 81 bd 56 2b c6 3c 29 fd 2d 3c 98 ec 35 ba
       -0.06300721 0.024190586 0.01061944 -0.0006939857
000070 64 08 ae bc 7e ca 65 bd 24 52 88 bd 0a 99 34 3d
       -0.021244235 -0.056101315 -0.06656292 0.044091262
000080 66 ea ac 3d ec 33 46 3d 15 21 03 3d 1e da 7a 3b
       0.084431455 0.04838936 0.03201397 0.003827698
000090 6f 38 49 3d 2a 3b 11 bc 5e c4 76 bd f5 bb 8d bd
       0.049126085 -0.0088642035 -0.060245864 -0.069206156
0000a0 5c 86 ab bc c1 b1 a1 3c f2 a9 4b 3d 58 28 88 3d
       -0.020938091 0.01973808 0.04972262 0.0664832
0000b0 f7 70 87 bd 12 6c 26 3d 65 72 16 bd d9 47 68 bb
       -0.06613343 0.040630408 -0.03673019 -0.0035443215
0000c0 56 b1 aa bc 92 92 3b 3d
       -0.020836513 0.045794077

critic.fc1.weight f4 [256, 21]
000000 af 1a 1d 3d 08 dc 84 3d 32 98 4a 3d 08 b2 16 be
       0.038355526 0.0648728 0.04946155 -0.14716351
000010 88 8f d6 3c 7e 9f a3 bd a9 34 02 be ed 52 35 3c
       0.026191488 -0.07989405 -0.12715401 0.011067134
000020 32 7d 01 3d 0a de 4e 3e e5 e3 19 be 9f d2 90 bd
       0.031613536 0.20201889 -0.15028341 -0.07071423
000030 cf d4 c4 bd c8 2f 39 3e 36 ec 53 3e 1b 4c 6f bd
       -0.096109025 0.18084633 0.20695576 -0.05842219
000040 c5 ab 2e be 29 d0 ad 3b 81 c9 bd 3d d9 e1 58 be
       -0.17057712 0.0053043556 0.092669494 -0.21179904
000050 64 c4 da 3d 23 d9 1f be c6 0e f1 bd 73 6f 13 3e
       0.1068199 -0.15610175 -0.11770396 0.14397983
000060 b1 71 7e bd 45 0c 8a 3d 11 8b 4a 3e 32 e5 e8 3d
       -0.062120143 0.067406215 0.19779612 0.113718405
000070 b4 17 c8 3d f2 47 19 3e 77 99 ab bd bf 48 0c 3e
       0.09770146 0.14968851 -0.083788805 0.13699625
000080 8c b8 35 3d 56 78 37 be 3d ba 70 3d aa 1e 42 be
       0.04436545 -0.17916998 0.05877136 -0.1895701
000090 fe 0a 8e bd 20 37 29 3e 7f d6 80 3d 19 45 0e 3e
       -0.0693569 0.16524935 0.06290912 0.13893546
0000a0 35 30 06 3d c7 87 18 3e c2 53 13 be f5 12 aa 3d
       0.032760818 0.14895545 -0.1438742 0.08304397
0000b0 8e a4 ac bd 69 c7 33 3e aa 46 2b 3d 91 c3 5a 3d
       -0.08429824 0.17556538 0.041815437 0.053409163
0000c0 db 85 13 be 68 a8 2d 3d 06 b8 d0 3d a9 d1 a2 3c
       -0.1440653 0.042396933 0.1019135 0.019875364
0000d0 37 8f df 3d d4 33 f5 bd 3c 33 2d 3d 62 42 bb 3b
       0.10915988 -0.11972776 0.04228519 0.0057147006
0000e0 75 98 02 be 93 4f 27 3e 12 06 82 bd 9a c7 f0 3b
       -0.1275347 0.16338949 -0.06348814 0.007348013
0000f0 4c b2 e7 3d 68 82 a6 3a 72 76 82 3b 1a 54 b0 3d
       0.11313304 0.0012703659 0.003981405 0.08609791
000100 44 0b 9e bd 52 2b 4c be 86 43 7e 3d b9 dc 8f 3d
       -0.077169925 -0.199384 0.062076114 0.070245214
000110 85 14 6f bd 1b be 01 be 16 67 41 be 99 89 28 3e
       -0.05836918 -0.12670176 -0.1888698 0.1645874
000120 a9 8f 88 3c a9 f1 8c 3d 14 78 e5 bd 79 b6 9a 3c
       0.016670065 0.068820305 -0.11204544 0.018885838
000130 df de 1e 3d a8 dd e3 3c 02 f0 7a bd fb c4 3e 3e
       0.038786765 0.027815655 -0.061264046 0.1862983
000140 74 06 eb 3d c7 d8 5e 3e f1 f8 9f bd ba 05 15 be
       0.1147584 0.21762381 -0.07811154 -0.14552966
000150 9f 62 3f be 7e a5 00 be 71 d3 af 3c d1 89 0d 3e
       -0.18689965 -0.1256313 0.021463128 0.13822104
000160 54 80 4d be 7c d3 58 3d 55 ce e1 bc b7 0d c1 3d
       -0.20068485 0.052936062 -0.027564207 0.09426444
000170 c1 2e 08 be 95 a3 ad 3a 08 cc 8e bd c9 91 46 be
       -0.13299085 0.0013247604 -0.069725096 -0.1939155
000180 dd 3c 2d be 10 2f ce 3d e0 13 26 be de b1 9c bd
       -0.16917749 0.1006757 -0.16218519 -0.07651113
000190 cc b8 23 bd 1e 4f 3a 3e 82 6f 08 3e fa 2f b9 bc
       -0.039971158 0.18194243 0.13323787 -0.022605885
0001a0 a0 fb 09 3e 00 53 3d be eb 06 ca bd ea 94 25 be
       0.13474894 -0.18488693 -0.09864601 -0.16170087
0001b0 24 91 12 3e 19 e6 cc b9 40 35 a4 3c 67 18 59 bd
       0.14313179 -0.00039081348 0.020044923 -0.053001788
0001c0 10 3e 3d bd 1f 40 06 be d2 ce ad 3d be 9a ba bc
       -0.046201766 -0.13110398 0.084867135 -0.022778865
0001d0 27 5c de 3d 99 5f 41 3e ae fd 4a 3e 5d 0f 28 be
       0.108574204 0.18884124 0.19823334 -0.1641211
0001e0 6c 3a 07 be 50 d4 89 3d 1c 25 37 3d 88 2d 33 3e
       -0.1320588 0.067299485 0.044713125 0.17497838
0001f0 21 79 f4 bd d5 cd 1b 3e 7c 5a 47 be 43 d9 52 3e
       -0.11937166 0.15215237 -0.19468111 0.20590691
000200 0e ed 3b 3e 75 49 52 3e 38 8f 4a be f9 1b 32 be
       0.18352148 0.20535834 -0.19781196 -0.17393483
000210 2f 22 4c be e7 1e d8 bd 07 67 c7 bb fe 60 dd bd
       -0.19934915 -0.10552769 -0.00608528 -0.108095154
000220 29 7f e6 bd 63 b0 02 be 1f e5 34 3e ca 9e 17 be
       -0.112547226 -0.12762599 0.17665528 -0.14806667
000230 66 ef 4c 3e 4f 41 16 be 32 85 0f 3e 41 d1 27 3e
       0.20013198 -0.14673351 0.14015654 0.16388418
000240 68 03 88 bc 7f 4e f6 bd 6f 6e fc 3d 85 9b 94 bd
       -0.016603187 -0.12026691 0.12325751 -0.072562255
000250 c2 ea 0c be b8 c3 c8 bd 9f ad 4e b9 4e 1c 86 bd
       -0.13761428 -0.098029554 -0.0001971037 -0.065483674
000260 0a 3c e1 3d 66 5c 26 be 85 b1 01 bd 49 b0 7d bd
       0.1099778 -0.16246185 -0.031663436 -0.061935697
000270 4e ab cc 3d 81 22 56 3e 9e 8c f5 3d 0e eb 43 bd
       0.09993611 0.209116 0.11989711 -0.047831587
000280 30 d8 3b be a2 e3 40 be 9c cc 4e be 2d f8 dd 3d
       -0.18344188 -0.18836835 -0.2019524 0.108383514
000290 88 9d 2c 3d ca ef 57 3e 13 73 a3 3a d5 6c 55 3e
       0.04214242 0.21087566 0.0012470208 0.20842297
0002a0 84 65 11 bd 44 ec fa bd 5e b8 89 3d 78 cc a5 bd
       -0.035497203 -0.12252095 0.067246184 -0.0809564
0002b0 84 b9 bf bd 01 d7 10 3e 94 6f de bd de 1e 1a 3e
       -0.09361556 0.14144517 -0.108611256 0.15050837
0002c0 e3 06 45 3e f1 1d 8e bd 46 ea 3e be 95 40 50 3e
       0.19240908 -0.069393046 -0.18644056 0.20337136
0002d0 e5 65 d3 3d fe 85 15 be 6a 70 5c be a7 d7 4a be
       0.10322169 -0.14601895 -0.21527258 -0.19808827
0002e0 e1 b0 31 3e c5 b1 fa 3b b8 dd 4b 3e dd 03 5d be
       0.1735263 0.0076505863 0.19908798 -0.21583505
0002f0 0d 96 bb bd 42 fc ae 3b 35 00 6d bd 9b 81 e9 bd
       -0.09159479 0.00534013 -0.057861526 -0.114016734
000300 21 35 17 be 6b 07 b2 bd 41 73 48 be ef 2c d0 3d
       -0.14766361 -0.08692821 -0.19575216 0.101648204
000310 cb bd bc 3d ab b7 05 3e 4b 1b 90 bd 86 a5 43 be
       0.09215888 0.13058345 -0.07036456 -0.19106111
000320 30 9d 10 3e 5d 2d 9e bd c0 f0 c9 bd 98 38 08 bd
       0.14122462 -0.07723496 -0.098603725 -0.033257097
000330 ae f1 22 be 75 c9 a3 3d 81 93 fb 3d 83 2a 99 bc
       -0.15912506 0.07997409 0.122839935 -0.018697029
000340 cc 95 28 3d 9b 13 30 3e ff d1 b9 3d 61 d8 bd bd
       0.041158482 0.17194979 0.09073257 -0.092697866
000350 9d f9 3d bd 83 a3 0e 3c 0e cd 18 3e bc 07 dc bd
       -0.046380628 0.008705976 0.14921972 -0.10743663
000360 68 93 67 3d 1a 80 2e 3d 90 c5 27 bd 5b 2e d4 bd
       0.056537062 0.042602636 -0.040959895 -0.10360404
000370 89 1b 50 be 32 27 2c bd 38 92 3e bd 36 39 4f 3d
       -0.20323004 -0.042029567 -0.046526164 0.05059167
000380 57 7b 29 bd af be 85 bd 97 bf a6 3d b2 d6 07 3e
       -0.04137739 -0.06530511 0.081420116 0.13265494
000390 25 2e 3f 3e d6 ce 32 3e b9 85 86 3b c1 b4 21 3e
       0.18669946 0.17461714 0.0041052965 0.15791608
0003a0 1d f8 66 bd 38 e5 1e 3d ef 44 0e be fd 39 87 bd
       -0.056388963 0.03879282 -0.13893484 -0.06602857
0003b0 6f 2c 5d be e0 a0 b4 bc 3d 80 fb 3d 6f a3 f9 bd
       -0.21598981 -0.022049367 0.12280319 -0.121893756
0003c0 74 ea b8 bd c7 77 00 be 8b 2e 31 3e d0 d0 27 3e
       -0.090290934 -0.12545691 0.17302911 0.1638825
0003d0 e9 f8 08 be 04 0e 53 be 9f 43 62 bc 34 2b 5e 3d
       -0.13376202 -0.20610815 -0.013810067 0.05424042
0003e0 bf 8d 0e 3e 8a 84 e3 3d 01 bf 91 3d 1e a2 ef bd
       0.1392126 0.11109264 0.07116509 -0.11700843
0003f0 b4 d2 98 bd 5a cb 8a 3d 9d cc 23 be 59 22 26 be
       -0.074620634 0.067770675 -0.15996023 -0.1622404

critic.fc1.bias f4 [256]
000000 51 04 47 be 0d 6e 06 be e6 94 67 bd c9 38 c1 3c
       -0.1943524 -0.13127919 -0.056538485 0.023586648
000010 0d de 50 3e 4e 41 2c 3e 82 cd 08 3e 2e e3 78 bd
       0.20397206 0.16821787 0.13359645 -0.06076353
000020 b2 28 1c 3d df a6 8c 3d d7 de 15 3e 3f 7e 09 bd
       0.038124748 0.06867766 0.14635788 -0.033567663
000030 61 d4 98 3d 85 b3 c4 3c 26 4b 2c be a0 ec 14 be
       0.07462383 0.024011383 -0.16825542 -0.1454339
000040 89 df fe bd 8f 3e e4 3d e0 83 47 be 22 38 e9 bd
       -0.1244498 0.111447446 -0.194839 -0.113876596
000050 ec cd 14 3e 36 2f cb bd e3 a0 42 3e b7 42 36 be
       0.14531678 -0.09921114 0.19006686 -0.17798887
000060 43 8c 9f 3d 99 43 4b 3d 68 d5 42 be 26 ac 92 3c
       0.07790425 0.049625013 -0.1902672 0.017904352
000070 35 28 1d bd 18 9f 08 be a8 57 57 3e 0e fc 43 3e
       -0.038368423 -0.1334194 0.21029532 0.1913912
000080 43 b8 fa 3d c8 09 8b bd eb 25 00 bd 55 aa c7 3d
       0.122421764 -0.06788975 -0.03128616 0.09749285
000090 fd 78 26 3e 65 02 26 3e 88 2d f9 3d d1 d6 5a be
       0.16257091 0.16211851 0.121668875 -0.21371008
0000a0 ac 4b 5f 3d 01 ec 24 3d cc 68 5c 3d 76 fe fe 3d
       0.054515526 0.040264133 0.05381088 0.12450878
0000b0 62 8b 5c be b4 85 d7 bd 99 25 ee bb e6 50 47 3e
       -0.21537545 -0.10523549 -0.0072676656 0.19464454
0000c0 99 4b 3d 3e 64 2b 58 3e 0b 22 11 bd e8 4d e2 3d
       0.1848587 0.21110302 -0.035432857 0.11050016
0000d0 5e 4c 39 be 69 89 39 be 89 d6 21 be 91 dd 29 3e
       -0.18095538 -0.18118824 -0.15804495 0.16588427
0000e0 4a 13 69 bd d6 3d 5a bd f8 48 d4 3c 2b f3 2c be
       -0.05690316 -0.053281628 0.0259137 -0.16889636
0000f0 7e 0f 0f bd 85 8f 58 be ba 19 c1 3c f0 d8 34 bd
       -0.034926884 -0.21148498 0.023571838 -0.0441522
000100 f5 cc 2b 3e ba 86 92 3d 26 af 15 be 63 f2 96 bd
       0.16777404 0.07154603 -0.14617595 -0.0737045
000110 6e 3d ba 3b 1b 0e 87 bc 0d 6e 12 be 6a bb 66 3c
       0.0056835925 -0.016486218 -0.14299794 0.014082769
000120 87 72 30 be 17 b3 c6 bc 1f a4 03 3e bb af 80 3d
       -0.17231189 -0.024255319 0.12855576 0.06283518
000130 bf 7f 5d bb 64 12 91 bd f3 a7 58 be fc c7 0f be
       -0.0033798066 -0.07083586 -0.21157818 -0.14041132
000140 02 7b f3 3b 73 6f 16 3e 56 2d ee bd af bb c9 bd
       0.007430435 0.14690952 -0.11629741 -0.09850251
000150 cb 30 23 be 2c a8 2e be 52 8f 32 be a3 3d 39 be
       -0.15936582 -0.1705634 -0.17437485 -0.18089919
000160 e1 99 f7 bc 39 79 2f 3d 23 d6 f9 3b 07 24 5e 3e
       -0.030224742 0.042840216 0.007624404 0.21693431
000170 a1 71 ed bc f4 2f 0c bd eb 02 51 be e6 5b b5 3d
       -0.028984847 -0.03422542 -0.2041127 0.08855419
000180 55 91 a2 3d 60 54 f4 3d 8e a4 5b be 5c 86 4e 3e
       0.07937876 0.11930156 -0.21449491 0.20168442
000190 73 a0 5d 3e 9f 82 02 3e 4f 5f 3f 3e 59 5a 23 3e
       0.21643238 0.1274514 0.18688701 0.15952434
0001a0 e9 eb 1f be 50 d0 87 3d bf b4 f9 3d 45 5f fa 3d
       -0.15617336 0.06631529 0.12192678 0.122252025
0001b0 69 e6 28 be d8 80 02 be 8b 99 09 be 43 a2 17 bd
       -0.16494144 -0.12744462 -0.13437478 -0.03701998
0001c0 f7 3a 7a bd 92 d6 fe bd b5 f8 19 be b5 cf 84 bd
       -0.06109139 -0.1244327 -0.1503628 -0.064849295
0001d0 96 5c 83 3d 78 97 b2 bc 75 ff 40 be 18 a9 37 3d
       0.06414144 -0.021800742 -0.18847449 0.044838995
0001e0 4c f3 dd bd c2 12 5d 3e 83 3c d4 bc eb 5d 51 be
       -0.10837421 0.21589187 -0.02590776 -0.20445983
0001f0 1e ac ef bd 43 43 5c 3e 97 b9 a1 bd 5b 4b 6b 3d
       -0.117027506 0.21510033 -0.078967266 0.05744491
000200 33 3e 1e 3e 44 a9 5c 3e 5d 56 b3 bb 7b db c8 bd
       0.15453415 0.21548945 -0.005472942 -0.098074876
000210 32 35 87 bc 30 12 af 3d fe 84 3e 3e 8c 36 72 bd
       -0.016504858 0.08548391 0.1860542 -0.05913405
000220 92 f9 00 3e 90 d9 3c bc 53 a8 5b be 71 f1 e9 bd
       0.12595204 -0.01152648 -0.2145093 -0.114230044
000230 e4 1f aa 3d 50 a9 e3 bd 87 18 55 3e 4b 54 78 3d
       0.08306864 -0.11116278 0.20810138 0.060627263
000240 05 80 35 bc d3 a9 8a bd 25 fe 4a be 45 82 3a bc
       -0.0110778855 -0.06770673 -0.19823511 -0.011383598
000250 22 c6 0c be e4 3f 3f be 9e 39 03 3e d1 af 43 3e
       -0.13747457 -0.18676716 0.12814948 0.19110037
000260 90 d0 04 3d 95 45 49 be 19 19 01 3c d8 ef 53 be
       0.032425463 -0.1965545 0.007879519 -0.20696962
000270 4e d6 40 be 87 1a 39 bc ba 4c 92 bd a2 33 24 be
       -0.18831751 -0.0112978285 -0.07143541 -0.16035321
000280 f0 58 5b be 2b 38 10 be e6 48 13 3e 65 01 15 be
       -0.21420646 -0.14083926 0.14383277 -0.14551313
000290 9c 2c 00 3e 85 d5 4f 3d e4 f3 14 3e c3 9f 27 be
       0.12517017 0.050740737 0.14546162 -0.16369538
0002a0 be 34 d7 bc b9 e0 b9 3c d3 c0 b1 bd de b5 94 bd
       -0.026270267 0.022690164 -0.086793564 -0.07261251
0002b0 51 c3 52 be 07 ff 6a 3c d1 3c 36 be ba da f7 3d
       -0.2058232 0.01434303 -0.17796637 0.12102266
0002c0 60 bd b2 bd d0 b2 84 bd 4a 41 12 3e c9 91 c0 3d
       -0.08727527 -0.06479418 0.14282718 0.09402806
0002d0 8d d0 e1 bd a8 7e 91 bd 39 e7 0f 3e 6e 32 81 bc
       -0.11026106 -0.07104236 0.14053048 -0.015771117
0002e0 e4 e0 fc 3d b4 9c 25 be 42 49 48 3e 26 ca 9b 3c
       0.12347582 -0.16173059 0.19559196 0.01901729
0002f0 f2 4f e8 3c 42 68 b1 bd 23 0d 77 bd cf 70 29 3e
       0.028358433 -0.08662464 -0.060315263 0.1654694
000300 6b 7e e0 bd ab 12 0b bd 76 8f b5 3d 14 98 c7 bd
       -0.10961612 -0.03395335 0.088652536 -0.097458035
000310 07 35 67 3d 78 86 83 bd 45 ce 45 bb 13 ef 4a 3e
       0.056447055 -0.06422132 -0.003018276 0.19817762
000320 79 fc f2 3d ba c5 b0 3d 40 7a 07 be ff 3c 3a be
       0.118645616 0.08631463 -0.13230228 -0.1818733
000330 0e 70 4f 3e eb 28 18 be f7 57 6b bd 37 04 40 be
       0.20257589 -0.14859359 -0.057456937 -0.18751608
000340 af ff 4d be 2b 5d 50 be ae c3 6d 3d f4 b5 1c 3e
       -0.20117067 -0.20348041 0.058047943 0.15303785
000350 6c 50 2d bd b5 f3 30 3e 1f b7 2e 3e de 8f 92 3c
       -0.042313024 0.17280467 0.17062043 0.017890867
000360 75 5d 30 bd 77 a0 38 be a2 11 8d bd 27 78 a8 3d
       -0.043057878 -0.18029962 -0.06888129 0.08226042
000370 ec 1b f7 3d 2e 22 d6 3d 4b f1 95 bd 79 5e b1 3d
       0.120658726 0.10455738 -0.073214136 0.08660597
000380 78 82 88 bd a3 de 04 be d4 cc 10 be b9 82 57 bc
       -0.0666551 -0.12975554 -0.14140636 -0.013153725
000390 7a e7 b2 bd 67 52 41 be 94 ed c9 3d 1b 93 f7 3d
       -0.08735557 -0.1887909 0.098597676 0.12088605
0003a0 c3 7b 57 3e e3 69 08 be 71 9d 9a bd 80 d7 27 3e
       0.21043305 -0.13321643 -0.07549561 0.163908
0003b0 7f 92 07 bd 08 de cc bd 96 32 57 be 19 86 2f be
       -0.033098694 -0.100032866 -0.21015391 -0.17140998
0003c0 82 ab 0e 3e fa c9 1a 3d 7e e0 2a 3e 93 78 37 3c
       0.13932613 0.037790276 0.166872 0.011198181
0003d0 e2 0c fd bb 50 c0 46 3e 42 24 68 bd 65 a5 4c bd
       -0.007722483 0.19409299 -0.056675203 -0.04996242
0003e0 08 28 d8 3c 45 b3 a0 bc b9 04 49 be 19 64 9e bd
       0.026386276 -0.019616732 -0.19630708 -0.07733936
0003f0 bc fb 06 bc 94 56 67 3d e5 42 16 be d1 78 33 be
       -0.008238729 0.05647905 -0.14673956 -0.17526557
