server/policies/checkpoints/policy_2_420/model.pt (torch, 338258 bytes, 11 tensors)

actor.fc1.weight f4 [256, 21]
000000 da b6 48 3d fc f7 67 3d d6 be 15 bd 61 d4 9c 3d
       0.049002506 0.05663298 -0.03655895 0.076576956
000010 23 a8 20 be 52 df 11 3e 83 99 08 be 33 04 3a 3e
       -0.15689139 0.14245346 -0.1333981 0.18165664
000020 98 61 a5 bd 74 b4 c5 bc 0c a8 af 3d c7 1b 03 3e
       -0.08075255 -0.024133898 0.08576974 0.12803565
000030 d2 6d 0c 3e 95 f4 7b 3d 9b 86 5f 3d b9 5d 24 3e
       0.13713768 0.06151255 0.05457173 0.16051377
000040 53 eb d7 3d 3a 39 67 3d 78 3e 4f be 2e 0e c8 bd
       0.105429314 0.05645106 -0.20238674 -0.097683296
000050 31 6e 98 bc 36 07 12 3d eb 96 d2 bd 5e 90 4d be
       -0.01860723 0.035651408 -0.102826916 -0.20074603
000060 c8 d8 fa bd 8b dd 33 be 77 6c 0b 3e 17 e1 2d 3d
       -0.12248379 -0.1756498 0.13615595 0.04245099
000070 71 4c 07 be a9 28 a6 3d ad d1 4e be 36 9d 26 3e
       -0.13212754 0.08113224 -0.20197172 0.16270909
000080 24 86 f7 3d 3a 6f 31 3d 1a e3 6c bd 41 06 59 3e
       0.12086132 0.043318965 -0.05783377 0.21193792
000090 50 2e 3f be 39 4a 04 3e a4 f7 9b bd 93 87 3f be
       -0.1867001 0.12918939 -0.07615593 -0.18704061
0000a0 f1 37 3a 3e eb ef 4b 3e 3d 0d b1 3d bb e9 12 be
       0.18185402 0.1991574 0.08645103 -0.14346974
0000b0 a4 91 1f 3d fc 57 36 3e ba 94 e5 3d 6c d9 20 3e
       0.038957253 0.17807001 0.11210008 0.1570794
0000c0 9f 21 25 be f7 64 cc 3d 09 6f 46 3e bd f1 96 bc
       -0.16126107 0.09980195 0.19378294 -0.018425817
0000d0 14 0e 2c 3d 3d 31 5f 3d a0 80 27 be 7d 96 e6 3d
       0.042005613 0.054490317 -0.1635766 0.11259172
0000e0 c9 cb f1 bd c4 d4 16 3e 1c 99 0f be 42 36 20 3e
       -0.11806447 0.14729601 -0.1402325 0.15645698
0000f0 87 df 4b bc 50 59 28 3d f9 9b 05 be 7c 1f 5a be
       -0.01244343 0.0411008 -0.1304778 -0.21301073
000100 3d b7 b3 3b a4 9e 31 bd 4f ed 22 3e 9f d8 3d bd
       0.00548449 -0.043364182 0.15910839 -0.046349164
000110 50 4a 00 be 5b c0 f5 bd 0b 7f d1 3d e7 98 f1 3d
       -0.12528348 -0.119995795 0.1022931 0.11796742
000120 ea a1 1d bd a5 3f 12 be 2d 8a d1 3d fe d4 47 be
       -0.03848449 -0.14282091 0.10231433 -0.19514844
000130 83 de d3 3c e8 c5 4a bd 71 cf 3c be da 88 0e be
       0.025862938 -0.049505144 -0.18438508 -0.13919392
000140 a1 81 9a 3d b8 86 56 be 9f 41 ed 3d b0 20 fe bc
       0.07544256 -0.20949829 0.11584782 -0.031021446
000150 4f 59 1c 3e 7d ce 29 3e a5 e0 37 be 6a f0 b4 bd
       0.15268444 0.16582675 -0.17956789 -0.08834918
000160 7e d1 4e 3e 7e f7 59 bc 85 14 9f bd ac 84 8b bc
       0.20197102 -0.013303636 -0.07767586 -0.017031036
000170 bf 43 92 bd d9 3e 7b 3d e1 3b da bd 47 40 d3 bd
       -0.07141828 0.061339233 -0.10655952 -0.10314994
000180 70 de 62 bc 70 d2 05 3e 58 4d b0 3d f9 ee 53 be
       -0.013846979 0.13068557 0.08608502 -0.2069663
000190 62 af 25 bd 0b 4b 26 3e 28 c6 fc 3d 36 f8 b2 bd
       -0.04045046 0.16239564 0.12342483 -0.08738749
0001a0 95 30 15 be ad fc 18 be ca 7f 55 3e 59 21 25 3d
       -0.14569314 -0.14940138 0.20849529 0.040315006
0001b0 ff 36 da bd 61 08 f1 3d 06 66 46 3c e1 37 01 3e
       -0.10655021 0.11769176 0.012109285 0.12618972
0001c0 b0 47 44 be 48 a1 41 be e9 27 af bd 3b ca 33 be
       -0.19167972 -0.1890918 -0.08552534 -0.17557614
0001d0 56 04 b9 bd 4d f9 24 3e eb 9e 3b 3e 10 53 f2 3d
       -0.0903403 0.16110726 0.18322341 0.11832249
0001e0 bf 68 00 be 1b 68 10 bd 49 56 4a be cb 07 36 3d
       -0.12539957 -0.035255533 -0.19759478 0.044441026
0001f0 56 7c 2d be 58 31 cf bb b4 14 a0 bb 64 a5 5a bd
       -0.16941962 -0.006323021 -0.0048852805 -0.053380385
000200 5c dd 21 be 4c 59 10 3e 5a df ef 3d 97 db 8d bc
       -0.15807098 0.14096564 0.11712523 -0.017316623
000210 1e 14 43 be 11 da 83 bd d6 08 15 be 2d 0f da bd
       -0.19050643 -0.06438077 -0.14554152 -0.10647426
000220 a1 c5 83 bd c3 1a 44 3e 6a b9 7d 3c 7f 8d 21 be
       -0.06434179 0.19150834 0.015486101 -0.15776633
000230 40 c0 70 bd 59 84 b8 bd c1 34 27 3d 50 17 97 3c
       -0.058777094 -0.09009618 0.040821794 0.018443733
000240 a7 d8 94 bd 10 f8 31 be 93 9f 26 be 35 8a 78 bd
       -0.07267886 -0.17379785 -0.1627181 -0.06067868
000250 3b df 15 3d 66 12 23 3e 5b c8 bb 3d a1 12 3c 3d
       0.036589842 0.15924987 0.09169074 0.045916203
000260 6d 8e 1c be 35 16 9a 3d 50 1b 05 3e 1a a9 1c be
       -0.15288706 0.07523767 0.129987 -0.15298882
000270 6f 6d 05 3e 16 87 15 bd a2 72 d4 3d 0c 81 b0 3c
       0.13030027 -0.03650578 0.10373427 0.02154591
000280 59 bf 3c 3e c0 e4 8c 3d 82 fa e5 bc 78 eb 31 3d
       0.18432368 0.06879568 -0.028073553 0.04343745
000290 db 2d 91 bd 39 6d f6 bd ab 4b 40 3e 1a 2c ee bc
       -0.07088824 -0.12032551 0.18778865 -0.029073764
0002a0 b1 5e 9d 3d 56 ab 7b 3d d3 7a 43 bc 61 7d 84 bd
       0.076840766 0.061442696 -0.011931139 -0.06469227
0002b0 36 67 b7 bc c5 41 aa bd f3 26 4b be f0 78 26 be
       -0.022388082 -0.08313326 -0.19839077 -0.16257071
0002c0 5f 4f 04 3e 02 88 13 3c ec 6e c3 bd d2 20 32 3e
       0.12920903 0.009004595 -0.09542641 0.17395332
0002d0 75 a6 d5 3d 41 64 ef 3d 61 08 8e 3b f5 08 78 3c
       0.1043214 0.11689044 0.004334495 0.015138854
0002e0 ef 50 2c bd ad 27 3a 3e 3b 72 8a 3d a1 5d 45 be
       -0.04206937 0.18179198 0.06760069 -0.19273998
0002f0 1e dc 4b 3d 6f b9 e7 3d 35 97 3a bc 53 84 5a 3e
       0.049770467 0.113146655 -0.01138859 0.2133954
000300 df df 57 bd 45 da eb 3b 0b 8e 52 be 95 85 41 be
       -0.052703734 0.0071976506 -0.20561998 -0.18898614
000310 60 cc 23 3e 83 63 2b bc 3b 50 00 3e 07 e1 a3 3d
       0.15995932 -0.010460737 0.12530605 0.08001905
000320 b7 fa f0 bd 2c d5 51 3e 50 17 42 3d 61 54 1a 3e
       -0.1176657 0.20491475 0.047385514 0.1507125
000330 e1 ec b5 3d db ac 41 be 19 41 3e 3e 83 9a b8 bc
       0.08883072 -0.18913595 0.1857952 -0.022534614
000340 ff 4b a6 3d 5f 67 a4 bd 37 5b 4f 3e 8b 5c 93 3d
       0.08119964 -0.08027529 0.2024964 0.071953855
000350 ec e5 d3 3d 72 87 56 be 37 cc 5c be 7e 83 57 3e
       0.103465885 -0.20950106 -0.21562277 0.21046254
000360 77 65 08 be d7 2f 4f 3e ea 5d c1 3d f7 fe 39 be
       -0.13319956 0.20233093 0.09441741 -0.18163668
000370 d0 0e e0 3d 6a 85 b1 3c e3 9d e9 3d 12 18 2d be
       0.10940325 0.021670062 0.114070676 -0.16903713
000380 49 0a 3a bd 26 8a 3f be 1a 65 df 3d 62 f2 4a 3e
       -0.045419965 -0.18705043 0.109079555 0.19819024
000390 fe 82 8e bb 61 d7 32 be 07 da 86 bc 90 ff 38 3e
       -0.0043491116 -0.17464973 -0.016461385 0.1806624
0003a0 bf 08 3f 3e 98 bb 93 3d 32 7d 07 3c 6f 99 e0 bc
       0.1865568 0.07213515 0.008269595 -0.027416913
0003b0 e6 9b 5e be e5 98 87 3d 3d 80 18 3d ab 8a 39 3e
       -0.21739158 0.06620959 0.037231673 0.18119304
0003c0 a9 04 47 3d 1c df 32 ba 31 87 c9 3d 60 54 53 be
       0.04858843 -0.0006823407 0.09840239 -0.20637655
0003d0 d5 26 4e bd 9d 6d d4 3d 6b 9b 11 3e fc 41 8d 3c
       -0.05033 0.103724696 0.14219444 0.017243378
0003e0 1c 2c 06 3e 3b 32 80 bd d9 1c 15 bd b2 ab 10 be
       0.13102764 -0.06259581 -0.036404464 -0.14127997
0003f0 c4 f4 a0 bd 45 14 86 3b 67 6b 94 bd de 75 ca 3d
       -0.07859185 0.004091772 -0.07247048 0.09885763

actor.fc1.bias f4 [256]
000000 bb 36 24 3e ca fe 4e be 0a 47 41 3e 04 eb 8e bb
       0.16036503 -0.20214382 0.18874756 -0.004361512
000010 66 8e 04 be 0c 3e 46 3e 3f d1 a6 bd 4f 30 4c be
       -0.12944946 0.19359607 -0.08145379 -0.19940303
000020 be 55 14 be fe 8a 3e bc 7e db 12 3e a5 b6 70 bd
       -0.14485833 -0.011629818 0.14341542 -0.058767933
000030 e4 a1 16 3e b0 79 14 be 49 c6 70 bd b4 78 30 bd
       0.14710194 -0.14499545 -0.05878285 -0.04308386
000040 0e a6 06 3e 4b 37 77 bd 49 af 86 bd 52 9f e3 bd
       0.13149282 -0.060355466 -0.06576402 -0.11114372
000050 e1 64 24 3d f0 ef 32 3e 8c e2 2e 3e ba 30 e8 bd
       0.040135268 0.17474341 0.17078608 -0.11337419
000060 aa fa 96 3d cd fc b6 3c 44 45 0d be 12 af 94 bd
       0.07372029 0.022337342 -0.13795954 -0.072599545
000070 42 3b 22 3d b9 0b bb bd 8e fb ea 3d 45 5a 56 be
       0.039607294 -0.09133095 0.114737615 -0.20932873
000080 52 51 8f bd 5f a2 2b be fc 9d 5c 3b be eb 2c 3c
       -0.069979325 -0.16761158 0.0033663502 0.010554252
000090 1b 64 4c be 9d dd f5 3d ff e1 9b bd 10 40 16 bc
       -0.19960062 0.1200516 -0.07611465 -0.009170547
0000a0 f3 d3 55 be a4 ed f4 3d 4a e5 5b 3e 66 f4 ce bd
       -0.20881633 0.11959389 0.21474186 -0.10105209
0000b0 2a 20 07 be a4 97 2e 3e d9 7f 2f 3e 32 c6 99 3d
       -0.13195863 0.17050034 0.17138614 0.07508506
0000c0 fb 36 c0 bd 35 3c 8e 3d 50 36 07 3e c4 32 d7 bd
       -0.09385487 0.06945077 0.13204312 -0.1050773
0000d0 78 0a 3c be a9 12 16 be 54 a5 0b 3e 3d ed d0 3c
       -0.18363369 -0.14655556 0.13637286 0.025503749
0000e0 bb 70 d3 bd ea 91 15 be 0c 51 b0 bd 17 dd 3e be
       -0.10324236 -0.14606443 -0.086092085 -0.18639027
0000f0 50 7a e9 bd 5f 84 41 3d e6 9c 40 be 1e e6 5a 3e
       -0.114002824 0.04724538 -0.18809852 0.21376845
000100 80 0c 5e be 4e 36 de 3a ad 1d 53 bc e1 93 23 be
       -0.21684456 0.001695344 -0.012885493 -0.1597438
000110 4f f2 44 3e 35 0b ea 3d 4a 70 70 3d 35 e7 1e be
       0.19233058 0.11427919 0.058700837 -0.15517886
000120 dc 59 32 3c c3 92 81 bd 61 f5 05 be 64 c3 ba bd
       0.010885682 -0.06326821 -0.13081886 -0.09119299
000130 9e 60 60 3d 8d aa 62 3d 98 19 34 3e ac cf 1d 3e
       0.05477964 0.05533843 0.17587888 0.15411252
000140 9f f8 1d be ae 0f dc 3d 4e 0a 0a bd fa 71 1f 3d
       -0.15426873 0.10745178 -0.033701234 0.038927056
000150 b3 d9 57 be b1 53 62 bd d9 79 04 3e 73 ca d2 bc
       -0.2107914 -0.055255596 0.12937106 -0.025731301
000160 eb d4 29 3e f0 d2 3b be 3d b8 12 3e 46 5d 4f bd
       0.16585128 -0.18342185 0.14328094 -0.05062606
000170 f1 e9 0b 3e 75 17 01 be 18 39 17 3e 2e 2f 40 be
       0.1366346 -0.12606604 0.14767873 -0.18767998
000180 08 10 39 be ff ce 4e 3d f0 be 0f 3e d0 cb 5b be
       -0.18072522 0.050490376 0.1403768 -0.21464467
000190 42 9e 13 be 45 7a 23 be 80 a7 12 3c 99 a4 db 3c
       -0.1441584 -0.15964611 0.008951068 0.026811885
0001a0 31 54 2a be 4c 7a 81 3c da 51 53 3e 7c c2 b5 3d
       -0.16633679 0.015805386 0.20636693 0.088749856
0001b0 c3 2a 84 bd 91 8e 0a be 16 15 de 3d 03 b3 2b 3e
       -0.06453469 -0.13530947 0.108438656 0.16767506
0001c0 a6 92 38 3e c4 8c 37 3d af f2 22 be 22 03 5c 3e
       0.18024692 0.04481198 -0.15912889 0.2148557
0001d0 f2 4a 7c bc 03 b4 14 be 53 b0 fe bd f7 dc da 3d
       -0.015398728 -0.14521794 -0.12435975 0.10686677
0001e0 5d 23 d2 3d a3 df 68 3c 03 6b 9a bd 38 6e 2d 3e
       0.10260651 0.014213475 -0.07539942 0.16936576
0001f0 03 ef 09 be 4e a1 8e 3d ec 34 22 3d a1 2e 13 3e
       -0.13470082 0.0696436 0.03960125 0.14373256
000200 42 a1 19 3e 25 2e 0e bd 3b 6e fe 3d 43 bb b5 3d
       0.15002921 -0.034711976 0.124233685 0.08873608
000210 3b e2 48 be 87 46 31 3e a3 4b a3 3d 16 5c cb bd
       -0.1961755 0.1731206 0.07973411 -0.099296734
000220 76 83 f5 bd eb 14 ba 3d cb 1f 3e 3e 1c 38 9d bd
       -0.11987965 0.09086021 0.18566816 -0.07676718
000230 82 08 38 3d b8 f4 f4 3d 2a 35 45 3e a1 7c 3a bd
       0.04492999 0.11960739 0.19258562 -0.04552901
000240 c3 68 c0 bd b6 01 a9 bd e7 18 2f 3e 92 73 60 bc
       -0.09394982 -0.082522795 0.17099343 -0.013699429
000250 64 d2 4f be 92 ac 65 bd f4 80 2d 3c b2 f3 47 bc
       -0.20295101 -0.05607278 0.010589827 -0.012204098
000260 22 3b fb bc 8c cd 15 bd e6 a7 04 3e c1 b6 4c be
       -0.030667845 -0.036572978 0.12954673 -0.1999159
000270 d8 97 6f bd 16 40 27 be 91 2a 38 3c bf e2 c3 3d
       -0.05849442 -0.1633304 0.011240617 0.09564733
000280 7b 7a 0a be 66 0f 21 be 36 07 a2 bd 02 26 69 3b
       -0.13523285 -0.1572853 -0.079115316 0.0035575633
000290 08 46 27 be fb 0b b3 bd bf 84 29 3e 68 7d fd bd
       -0.16335309 -0.087425195 0.16554545 -0.12377435
0002a0 dc 22 ad 3d e3 5e 25 3e 5f f9 2a 3e 6b 0b 3b 3e
       0.084539145 0.16149478 0.1669669 0.18266074
0002b0 68 78 5f 3e 74 cf f9 3d 55 bb 49 3e 63 09 51 3e
       0.21823275 0.12197772 0.19700368 0.20413737
0002c0 ed 93 e2 3b 57 7e 2b 3e 28 72 c2 bd b5 87 2a 3e
       0.006914607 0.16747414 -0.0949443 0.1665333
0002d0 0f 95 40 be e2 21 0d 3c a4 ad 35 be 8b 83 52 3e
       -0.18806861 0.008614035 -0.1774202 0.20557992
0002e0 1f f9 d4 bd 34 ef e5 bb 46 20 ee bd 7f 1d 4f 3d
       -0.103990786 -0.0070170406 -0.116272494 0.05056524
0002f0 0b c9 9b bd db 42 16 bd 02 19 5c be 5e ba 31 be
       -0.07606705 -0.036684852 -0.21493915 -0.1735625
000300 ff e3 0e be 7a 6c 9f bc 04 eb d4 bd a0 c2 5b be
       -0.13954161 -0.019460905 -0.10396388 -0.21460962
000310 c6 aa 3d be a9 3c 87 bd 90 62 bd 3c f3 4f 95 3d
       -0.18522176 -0.06603367 0.023118287 0.0729064
000320 bb 96 c5 3d 3f 2f a7 bd 7f 96 39 3e 5a c2 31 be
       0.0964789 -0.08163308 0.18123816 -0.17359295
000330 f5 8d 1a 3d e8 d9 0b bd 4a 80 fc bd 17 11 48 be
       0.037733037 -0.03414336 -0.12329157 -0.1953777
000340 3d 88 02 3e 84 7f 52 be c6 e1 16 3e 5f c5 d2 bc
       0.12747283 -0.20556456 0.14734563 -0.02572888
000350 34 87 51 be 3a 5a cf 3d ba 4a 18 be b7 c1 ae 3c
       -0.20461732 0.10124631 -0.14872256 0.021332605
000360 fc 0b cc bc b6 e2 5c be 50 78 9f 3d 4f 38 2f be
       -0.024908058 -0.21570858 0.0778662 -0.17111324
000370 98 28 b0 3d e3 ce fb 3d 95 01 da 3d 26 08 05 be
       0.08601493 0.1229532 0.10644833 -0.1299139
000380 1b f6 19 3e 55 06 4c be a5 b5 49 3b ed 86 21 3e
       0.15035288 -0.1992429 0.0030778435 0.15774126
000390 80 ab 0e 3e a3 93 1e bd 44 5f 03 be b3 dd 10 bd
       0.1393261 -0.038715016 -0.1282931 -0.03536768
0003a0 5b d0 05 3e a8 c7 8d 3d 2d 08 43 be 7a 2f 48 be
       0.13067763 0.06922847 -0.19046088 -0.19549361
0003b0 fa d4 6b 3d 8c f2 86 3d e9 64 06 be dc b4 33 3d
       0.057576157 0.06589231 -0.13124432 0.043873653
0003c0 64 69 90 bd dc 84 4d bd c0 16 74 bd 5e b6 67 bc
       -0.07051352 -0.050175533 -0.05959201 -0.014142601
0003d0 76 6a 48 be 53 fa ca bd 76 20 55 be ff be 31 be
       -0.19571862 -0.09911027 -0.20813164 -0.17358015
0003e0 7f d7 d6 bd e5 a2 4e be ec 75 55 3d 8c 4e 5f 3d
       -0.10490321 -0.20179327 0.052114412 0.054518268
0003f0 02 90 b2 3b e7 17 83 3d d6 c3 ac 3d 85 6b 3c be
       0.005449296 0.064010434 0.0843579 -0.1840039

actor.fc2.weight f4 [128, 256]
000000 b5 a2 16 3c 52 4f da 3c e1 6e 25 3d bf 6e 33 3d
       0.009194066 0.026649151 0.040388945 0.043806788
000010 b9 01 83 3c fe f0 0d 3c fd ee ef 3c 96 2b 63 3d
       0.015992032 0.008663414 0.029288763 0.05546149
000020 f7 0e 7c bd f5 ff 4d 3c 11 4f 23 bd e8 90 f6 3c
       -0.06153771 0.012573232 -0.039870325 0.030098394
000030 9b e3 97 bc 99 3d 97 3c d6 d0 bf 3b 3d 2f d9 3c
       -0.018541148 0.01846199 0.0058537526 0.026511783
000040 ca 47 4d 3c 0c 01 ae 3c 5f b1 15 3c f5 fc 20 bb
       0.012529323 0.021240734 0.009136527 -0.0024564837
000050 ad ce 08 bd 00 68 55 bc 19 39 c8 3c 82 df e1 3a
       -0.033400226 -0.013025284 0.024441289 0.0017232748
000060 b0 17 1c 3d 14 6f fb 3c 57 cf 4b bc 4b 57 70 3c
       0.038108528 0.030692615 -0.01243957 0.01466925
000070 bf 57 8d bc 54 01 2d 3d db a2 4d bd c0 01 5d bd
       -0.017253755 0.042237595 -0.05020414 -0.053956747
000080 c3 b3 c4 3c 32 a1 47 bd 09 ce 50 bd 53 b4 e1 3c
       0.024011498 -0.048737712 -0.05097774 0.027551806
000090 08 34 79 bd a5 8b d3 3c b0 d6 6f bd 53 9c 22 bd
       -0.060840636 0.025823424 -0.05855435 -0.039699864
0000a0 1c 27 19 3c 1f 74 c3 bc 36 5f 7b 3d d8 59 c4 bc
       0.009347703 -0.023859082 0.061370097 -0.023968622
0000b0 4f db 8e ba 80 16 49 3c 68 40 b4 bc 07 34 2f 3d
       -0.0010899099 0.012273431 -0.022003368 0.042774227
0000c0 90 f2 ec ba 30 97 c7 3c dd 15 37 3d 1a 28 62 3d
       -0.001807766 0.024364084 0.044698585 0.055214025
0000d0 5b 64 cd bc a5 1a e8 bc 5f 9a 45 bc a4 74 11 3d
       -0.025072267 -0.028333018 -0.012060731 0.035511628
0000e0 3e fc 55 3b 6b 4e 65 3c 3d e3 fa 3c 42 2b 71 3d
       0.0032651569 0.013995747 0.030625934 0.058879144
0000f0 31 3d a5 bc 97 a7 c3 bc 81 4c 9a 3c b8 56 c1 3a
       -0.02017078 -0.023883624 0.018835308 0.0014750576
000100 3a f0 18 3d de d1 ca 3c 08 e3 44 3d 11 5e 76 3d
       0.037338473 0.024758276 0.048068076 0.060148302
000110 df b9 1e 3c 9a d8 2d bc 1f ab 34 bb f2 3d 02 bd
       0.00968787 -0.010610724 -0.0027567816 -0.031797357
000120 aa 94 12 bd be cc 2d bd 33 19 13 bd 11 39 4b 3c
       -0.03578631 -0.042431585 -0.035912704 0.012403742
000130 64 67 5a bd 0d 61 29 bc ed af ea 3c 8b 6c 22 bd
       -0.053321257 -0.01033808 0.028648341 -0.039654296
000140 2f 17 42 bd 07 74 e1 3c b0 13 01 bc 92 e6 d0 bb
       -0.04738539 0.027521146 -0.007878229 -0.0063751424
000150 96 f8 68 bb 4c 5d 48 3d c2 ee 6c bd dc 90 57 3d
       -0.003554856 0.0489171 -0.057844885 0.052628383
000160 68 10 3e bc ad 7f da bc f1 76 35 bd 2f 76 c7 3c
       -0.011600591 -0.026672209 -0.044302884 0.024348347
000170 eb a4 24 3d 77 b9 92 bc d1 a3 25 3d 88 9a 31 bd
       0.04019634 -0.017910702 0.04043943 -0.043360263
000180 9c f6 dc 3c c3 81 65 3d 39 69 a4 ba 04 92 33 bd
       0.026973061 0.056031954 -0.0012543566 -0.043840423
000190 3a b0 3e 3d c9 11 d3 3c fd fc 49 3d 8c dd f0 bc
       0.04655478 0.025765317 0.049313534 -0.029402517
0001a0 9c b0 77 bc 9b 57 8b 3c de 71 ed 3c 09 fa 7c 3d
       -0.015117791 0.017009547 0.02898496 0.06176189
0001b0 3b e8 4d 3d a3 7a 1f 3d 7e a6 c4 3a 78 c4 e8 3b
       0.0502703 0.038935315 0.0015003232 0.007103499
0001c0 10 21 46 bd 29 f1 f9 3b e0 9f 47 3d d3 4f 3b bd
       -0.048371375 0.0076276255 0.048736453 -0.045730423
0001d0 d6 f6 79 3c c7 5e 11 bc 9c 8d 39 3b 7f fc 62 3d
       0.015256604 -0.008872694 0.0028313166 0.05541658
0001e0 ad f5 46 3d 8a f4 81 3a 4e 13 5e 3d fd b6 7e 3d
       0.04857414 0.0009914797 0.05421763 0.06218623
0001f0 5f 55 20 bc 1b fb 2f bd e2 92 91 3c e1 7d b5 bc
       -0.009785979 -0.042964082 0.017770234 -0.02215475
000200 d2 65 73 bc 0a c2 16 3d 39 67 8e 3c cd 1e 34 3d
       -0.014855819 0.036806144 0.017383205 0.043974686
000210 a7 ca 17 3b cb ca 3c bd c6 e5 bc 3c dd 9b 78 bc
       0.0023161562 -0.046091836 0.023058783 -0.015173879
000220 41 55 09 3d 32 1b 7a 3d c2 21 01 bd 5c 53 80 3d
       0.03352857 0.06106109 -0.031526335 0.062658995
000230 a4 79 23 3d ff fe 7c 3d a4 6d 2f 3d cf 3a 6f 3c
       0.039910927 0.06176662 0.04282917 0.014601423
000240 75 d0 37 bd a1 96 7c bd 71 75 17 3d d2 d2 33 3d
       -0.044876534 -0.06166709 0.036977235 0.043902226
000250 3c a2 aa bc c1 5a 4e 3c 3e 56 7a 3c 6a b4 87 bc
       -0.020829313 0.01259488 0.015279351 -0.01656552
000260 c3 1b 49 bd 79 ca 14 bd 74 42 c0 bc fc da 3b 3d
       -0.04909874 -0.036325905 -0.023469187 0.045863137
000270 f7 8f 80 3c a5 42 1a ba 2e 35 31 bd f9 e4 c9 bc
       0.015693648 -0.00058845646 -0.043263607 -0.024645315
000280 f0 c1 f0 bb 29 74 67 3d 4e 4b 00 bd 96 d9 24 bc
       -0.007347338 0.056507263 -0.031321816 -0.010061642
000290 dc 3e 51 3d 4e 14 34 3b 29 17 f5 3b 5e 15 2e 3c
       0.051085338 0.0027477923 0.0074795675 0.0106252115
0002a0 cc 69 a3 bc 2c 87 58 3d 90 d0 3d bd 04 50 e5 3c
       -0.019947909 0.052863285 -0.04634148 0.027992256
0002b0 5d ee 03 3c 20 a4 35 3b 65 76 28 bd d2 76 ce bc
       0.008052436 0.0027716234 -0.041128535 -0.025203142
0002c0 61 c5 0b 3d 00 77 ce bb 44 74 33 bc e4 e4 ec bb
       0.034123782 -0.006300807 -0.010953013 -0.0072294343
0002d0 b4 99 c2 bb 88 ad 34 bd 14 ab 35 3d 82 4f 08 3d
       -0.005938733 -0.044110805 0.044352606 0.03327895
0002e0 d1 d8 41 bd 70 83 32 bd 83 59 29 3d 74 8e e0 3c
       -0.047325913 -0.04358238 0.04134513 0.027411677
0002f0 fd d5 f3 3c 19 25 83 bc be df 57 bd 59 4e 6f 3d
       0.029765124 -0.0160089 -0.05270361 0.058424328
000300 7d bf 7c 3d f9 71 47 3c a4 71 5a bd f0 48 89 bb
       0.061706055 0.012173169 -0.053331032 -0.004189603
000310 89 97 2b bd 6b 0d 2f 3c 04 cf 7e 3d 2f 53 3f bd
       -0.041892562 0.010684351 0.062209144 -0.04671019
000320 e9 5a 3e bc d1 07 61 bd b1 71 09 bd e4 fc f9 bc
       -0.011618354 -0.054939095 -0.03355569 -0.030516095
000330 a3 98 b9 bc 70 94 7c bd c5 ef 38 3d 96 15 af bb
       -0.02265579 -0.061665 0.045150537 -0.0053431494
000340 3f 2a 3b bc 64 79 18 bd e9 12 52 3d 3e a3 93 3c
       -0.0114236465 -0.037225142 0.051287565 0.018022176
000350 ea 29 b6 3c b0 06 5c 3b 7f 54 b2 bc 54 e3 f5 3c
       0.022236783 0.0033573322 -0.021768807 0.030015625
000360 f5 77 18 3d 03 81 fb bb 6a c6 c6 3b 6a 68 09 3d
       0.037223775 -0.0076752915 0.0060661333 0.033546843
000370 ea e6 37 bc 30 b3 11 3c b0 53 0b 3c 0d 7f 16 3d
       -0.011224488 0.008892819 0.008503839 0.03674226
000380 49 30 6d 3b 2a 3c da 3c 41 7c 97 3b 7d d0 b4 bc
       0.003619211 0.026640017 0.0046229665 -0.022072071
000390 27 d5 40 3c 16 d1 5c bd d1 9c ae bb 0f 54 0c bd
       0.0117695695 -0.053910337 -0.0053287526 -0.034259852
0003a0 69 3e 5d bd b3 e1 39 bd 63 ec 19 3d 1a d2 70 bd
       -0.054014597 -0.04538126 0.03757895 -0.05879412
0003b0 8d 86 40 3d 3c 76 95 3b 5a b2 48 bd cd c5 00 bc
       0.047003318 0.004561214 -0.048998214 -0.007859659
0003c0 d9 66 68 3c 99 3d 1d 3d 59 55 51 3d ba 69 7b bd
       0.014184677 0.038388822 0.051106784 -0.061380126
0003d0 2a c1 15 3d 9b d7 03 3d 08 25 6a bd 56 7f 74 3d
       0.03656117 0.03218804 -0.057164222 0.05969175
0003e0 ab f4 62 3c 5b 3e 35 3c 6f 37 12 3c 12 e9 e9 3c
       0.013852279 0.01106223 0.008924349 0.02855352
0003f0 34 c8 9a 3c 16 71 12 bc ee ce 91 bb 20 04 36 bd
       0.018894292 -0.008938095 -0.004449717 -0.044437528

actor.fc2.bias f4 [128]
000000 c3 6a cc 3c 5b a9 57 3d 5a c6 82 3c ef b1 20 bd
       0.024953252 0.052651744 0.015963722 -0.03923219
000010 76 5b f4 3c ba c0 d7 3c 95 49 7a 3c 57 67 46 bd
       0.029828768 0.026337016 0.015276332 -0.048438396
000020 ad 60 59 3d 04 a2 52 bd 4e ea 71 3d eb 01 75 3d
       0.053070713 -0.05142404 0.05906134 0.059816282
000030 05 53 2d bd 4b 8f 55 bd bc f4 85 bc 66 c4 17 3c
       -0.0423155 -0.052138608 -0.01635205 0.009263134
000040 77 9f 99 3b c7 c5 5f bd f1 d5 66 3d 2b 82 8c bb
       0.004688199 -0.054631975 0.056356374 -0.004287978
000050 21 14 0f 3d 0d 99 d2 bc c7 6a e0 3c 03 06 ae 3c
       0.034931306 -0.025707746 0.027394665 0.021243101
000060 98 4e 94 bc 32 ca 62 3c 91 4d 67 bd 14 f5 34 3d
       -0.018103883 0.013842152 -0.056470457 0.044179037
000070 62 78 55 bd 24 9f 32 bc 14 c0 60 bd bc 8c 80 3c
       -0.05211676 -0.0109022 -0.05487068 0.015692107
000080 17 db 4c 3b 00 ad 81 3a b6 41 02 3d 4a 68 b3 bc
       0.0031258517 0.0009893477 0.031800948 -0.021900315
000090 45 10 01 3d 39 90 40 bd 00 6d 65 bd de d1 6c bd
       0.031509656 -0.04701254 -0.056012154 -0.057817332
0000a0 b9 e7 ab bb ce 12 f3 3c 4b 1c 75 bd 30 f3 72 bd
       -0.0052461294 0.029672053 -0.059841435 -0.059313953
0000b0 a6 93 1f bd b3 94 5f bd eb d5 26 3d dd 8e 48 3b
       -0.038959168 -0.05458517 0.04073135 0.0030602731
0000c0 9e 68 23 bc 13 7f 36 3d 90 fb 9b bb 93 5a 1b bc
       -0.009973673 0.04455478 -0.004760213 -0.009482044
0000d0 45 88 7b 3d e7 5d dd 3c 38 15 3c 3d 91 f5 25 bd
       0.061409254 0.027022315 0.045918673 -0.040517393
0000e0 3a 22 0e bd 2e 0e 3a 3b a5 fe d6 ba 34 6a ca 3c
       -0.03470061 0.00283898 -0.0016402794 0.024708845
0000f0 58 8e 20 3d a4 be 11 3d 2a 2d 4f 3b 61 a8 6b bd
       0.03919825 0.0355822 0.0031612613 -0.057533626
000100 f6 50 04 bd 6d e2 75 3d 8f 8c 75 bd 30 55 3a 3d
       -0.032303773 0.06003039 -0.0599485 0.045491397
000110 91 aa 89 bc 8b 25 8c bc ea 34 bd 3c 79 86 3d 3d
       -0.016804965 -0.017107746 0.02309652 0.04627082
000120 bc 45 66 bc df cb 3e bd 33 19 3a 3c 20 cf 66 bd
       -0.014054712 -0.046581145 0.011358547 -0.056349874
000130 df f4 aa 3c 17 91 78 3d 1c a9 82 bb bf 91 72 bd
       0.020868717 0.060685243 -0.0039874446 -0.059221026
000140 bc a5 3d bd e5 a9 06 bb 8a 7b 33 3d 4d 90 65 bd
       -0.046300635 -0.0020548042 0.043818988 -0.05604582
000150 cb c3 42 3d 7b 52 fa 3c d0 2e ac bc 42 b6 0a 3d
       0.047550004 0.030556908 -0.021018416 0.03386522
000160 8a a0 c8 3c 27 1a 3c 3d 5e 35 39 bd 9a cc 89 bc
       0.024490613 0.04592338 -0.04521691 -0.016821194
000170 7d dc 42 bd e5 e8 a0 bc eb 57 5a 3d 41 b7 6d 3c
       -0.047573555 -0.019642303 0.0533065 0.014509023
000180 d8 d7 e3 bc fb 2f 2c bd 0b 8a 7c 3d 83 15 00 3d
       -0.027812883 -0.042037945 0.061655086 0.031270515
000190 e6 d8 db 3c d6 f8 32 3d b9 d3 0a 3d 75 27 b6 bc
       0.026836824 0.04369434 0.03389332 -0.022235611
0001a0 50 8e c7 bc 54 25 02 bd 9e 5f ab bc e9 61 17 bd
       -0.024359852 -0.03177388 -0.020919617 -0.03695861
0001b0 62 e8 37 bd 12 b1 78 bd c3 76 56 bd e0 b6 17 bd
       -0.044899352 -0.060715742 -0.052359354 -0.037039638
0001c0 72 f4 5f 3d 73 58 11 bd b6 df f6 bc 09 24 5a bc
       0.05467648 -0.035484742 -0.03013597 -0.0133142555
0001d0 0d 6e 36 bd 58 a4 cc 3c 35 96 d3 bc 9d e4 be 3c
       -0.044538546 0.024980709 -0.02582846 0.02330237
0001e0 d1 71 58 3d 69 30 a2 bc 3d 05 28 bd 12 6d 81 3d
       0.05284292 -0.019798474 -0.04102062 0.06319632
0001f0 c3 02 41 bd e2 fa 46 bd 01 1f f6 bb 8e 5b f6 3c
       -0.047121774 -0.048579104 -0.00751102 0.030072954

actor.policy_head.weight f4 [50, 128]
000000 a4 61 a8 3d be c9 a2 3d da c5 7f bc bc 5f 92 bd
       0.082217485 0.079486355 -0.015611136 -0.07147166
000010 90 86 8d bd e2 a4 9d 3a fc 5d 86 bd 9e fc 35 3d
       -0.069104314 0.0012027288 -0.06560895 0.044430368
000020 65 8f 17 bd 2e 16 1d bd ba 97 a6 3b 18 05 1e 3d
       -0.037001986 -0.03835123 0.005084005 0.038579077
000030 f0 28 3a bd 07 15 a0 bd a6 e9 92 bd 85 a6 54 bd
       -0.045449197 -0.07816511 -0.07173471 -0.051916618
000040 a1 86 9b 3b 40 4c de 3c ac 79 ae 3d 00 66 ae 3d
       0.0047462736 0.027135968 0.08519301 0.08515549
000050 84 6a a7 3c 1c 97 35 3d 1b c9 44 bd c2 79 14 3d
       0.020436533 0.044333562 -0.04804335 0.03624893
000060 db 51 68 bd 22 78 af 3d b6 18 9b bd 5f f7 8c bd
       -0.05671869 0.085678354 -0.075730726 -0.0688312
000070 eb c2 96 bd 53 aa ad 3d 96 66 f3 bc 03 36 4c 3d
       -0.073613964 0.084797524 -0.029712003 0.049856197
000080 88 2a ba 3c 49 ba 1f bc 76 86 88 bc 22 14 a0 3c
       0.022725359 -0.009749004 -0.016665678 0.01954085
000090 c4 ba 59 3d 9c 72 15 bd 27 10 e4 bc 41 06 8a bd
       0.05315663 -0.036486253 -0.027839733 -0.06739474
0000a0 34 23 4f 3d 5a 3e 9e 3d 74 4b b4 bd 40 84 3d 3d
       0.05057068 0.07726736 -0.08803454 0.0462687
0000b0 00 14 95 3d f0 70 27 bd 2e 0a 1c 3c 24 37 42 3d
       0.07279205 -0.04087919 0.009523911 0.047415867
0000c0 a1 32 91 3d d1 41 ac 3c 03 6a 49 bc 84 16 41 3d
       0.07089735 0.021027477 -0.012293342 0.047140613
0000d0 24 26 53 bd 15 f6 ab 3c c2 f7 ac 3c 9e 8a a4 3d
       -0.051550046 0.020991364 0.021114234 0.08034252
0000e0 25 71 43 3d b3 2b a0 3c 54 92 9a bc 6f 6e f4 3c
       0.047715325 0.019552087 -0.018868603 0.029837815
0000f0 44 f6 8f 3d 3f a3 8b 3d b6 26 5d bd f4 58 06 bd
       0.07029393 0.06818246 -0.053991996 -0.032799676
000100 c7 58 2a 3c 09 17 87 3d 4e 8c 72 bd f7 a0 8a bd
       0.010397143 0.065961905 -0.059215836 -0.06768983
000110 db a5 5e 3d d9 18 92 bd 1c 2d 99 bd 5f 77 9f bd
       0.05435739 -0.071336456 -0.07479307 -0.0778644
000120 58 fd 6c bb 06 79 95 bd c2 51 ab bd 59 4e 32 bd
       -0.0036161747 -0.07298474 -0.083652034 -0.04353175
000130 56 ab 02 bb 25 d5 19 3c bf 98 38 3c bb 89 73 3d
       -0.001993855 0.0093891965 0.011266886 0.059457522
000140 6b 6d 90 3c ec 9d 2c 3d 7d ec ad bc 1a cd 10 3d
       0.0176303 0.042142794 -0.02123093 0.03535185
000150 f4 40 88 3d c2 1b 8e bd bd 49 34 bb 2b 00 f9 3c
       0.06653014 -0.06938888 -0.0027509772 0.030395588
000160 0d 42 2f bc 65 fc 80 3d f2 ca a4 3d 86 83 b7 bc
       -0.0106969 0.062981404 0.08046521 -0.022401582
000170 0d 74 92 3d 3e 46 9b 3d 10 cd 5c 3d 95 65 b3 3b
       0.07151041 0.07581757 0.0539065 0.005474756
000180 ef aa 99 3d 80 84 dc 3c 94 5a 65 3d 8e 40 d1 3c
       0.07503306 0.02691865 0.055994585 0.025543477
000190 7a 61 63 bd e6 3d a7 bc 54 70 8c 3d 7e f8 06 bc
       -0.055512883 -0.020415258 0.068573624 -0.008237956
0001a0 08 94 18 3d 4b b3 a4 3b 62 61 8e bd 29 44 8d 3d
       0.03725055 0.005026256 -0.06952168 0.06897766
0001b0 97 45 1e 3b 9a fd 0e bc ab b0 39 bd ae c8 0d 3d
       0.0024150365 -0.0087274555 -0.0453345 0.03461521
0001c0 a3 57 80 bd f8 af 9a bd 04 58 a1 bd 39 bb 0f 3c
       -0.062667154 -0.075530946 -0.07878116 0.008772665
0001d0 74 a2 73 3d 07 ce d0 bb 5e f9 8c bd d1 4b 4b 3d
       0.0594811 -0.0063722166 -0.068835005 0.04963285
0001e0 36 c9 78 3d 9e 39 91 3d 70 98 b7 bc a9 87 ac 3c
       0.060738765 0.07091068 -0.022411555 0.021060782
0001f0 8c 0a 0b 3c a7 32 29 3d 26 bd ce bc cc 77 90 bc
       0.008486401 0.04130807 -0.025236677 -0.017635249
000200 e1 6d 5e bd 0e ae ab bb e7 6e 03 3c 50 80 85 bd
       -0.054304007 -0.005239255 0.008022047 -0.06518614
000210 a4 fe 8a bc 9a 23 88 3d db 35 48 3d ec 85 44 bd
       -0.016967125 0.066474155 0.048879486 -0.04797928
000220 08 95 5d bd 90 85 00 3d cd d6 29 3d 79 90 92 3a
       -0.054097205 0.031377375 0.041464616 0.0011181972
000230 f5 9f 89 39 fd a4 b7 bc 4d a0 49 3d b5 4d 99 3d
       0.00026249854 -0.02241754 0.04922514 0.074855246
000240 89 b7 a4 bc 74 79 07 bd 5a ba 78 bd 3d 30 48 3d
       -0.020107048 -0.03307481 -0.060724594 0.04887413
000250 22 6d 07 3d 8a d2 a8 bd 81 2c 96 3d e9 b1 9a bc
       0.03306306 -0.08243282 0.07332707 -0.018883662
000260 d9 3c 87 bd 25 22 d2 3c 10 42 6e bb b6 e4 8f bd
       -0.06603403 0.025651047 -0.0036355294 -0.07026045
000270 6a 20 87 3d b7 af f7 3c 2d 81 0b 3d ef 34 a1 3d
       0.06597979 0.030235155 0.03405874 0.078714244
000280 a8 e9 e2 bc 4e d8 ad bd 66 5e d6 bc d2 38 8c 3d
       -0.027699307 -0.084885225 -0.02616806 0.06846775
000290 86 9f 14 bd dc 37 9c bc 0c 41 98 bd db 84 8f bc
       -0.036284946 -0.019069605 -0.07434282 -0.017519405
0002a0 1c c8 74 3d be b5 8b bd 20 73 bd bc 5c 69 76 bd
       0.05976115 -0.06821774 -0.023126185 -0.060159072
0002b0 f4 7f cc bc 5c 68 83 3d f5 01 63 bd 79 56 4a 3d
       -0.024963357 0.06416389 -0.05542179 0.049398873
0002c0 7a 56 b3 bd 1a f8 71 bd 96 76 71 bd d0 eb 50 bc
       -0.087567285 -0.0590745 -0.058950983 -0.012751535
0002d0 fd 4a a6 3d 28 94 f5 3c d3 f0 61 3d 34 f6 b7 3c
       0.08119772 0.029977873 0.05516131 0.022456266
0002e0 42 b5 b5 bc ee 0e c9 ba f0 6a 54 bd 55 6d 46 3c
       -0.022181157 -0.0015339532 -0.051859796 0.012111028
0002f0 f9 78 b4 bd a8 e9 73 bd 4e c4 03 3d f7 88 26 3b
       -0.08812136 -0.059549004 0.032169633 0.0025411227
000300 69 b5 12 3b e5 97 93 bc 22 ed a4 bd 60 cb 4f bc
       0.002238596 -0.018016765 -0.08053042 -0.012682766
000310 d3 20 a5 3d ec 0d 84 bd 94 df ec 3c 20 50 f7 3c
       0.08062901 -0.06447968 0.028915204 0.030189574
000320 7e 77 3d 3d 51 33 b4 bd 7a 9c dc 3c b5 80 8b bb
       0.046256535 -0.0879885 0.026930083 -0.0042572864
000330 f9 77 ab 3c a1 61 11 3d fe 26 23 bd 63 45 51 bd
       0.02093123 0.035493497 -0.039832108 -0.051091563
000340 9f 07 38 3d 00 02 34 3d f8 67 06 bd bf 0b 00 bd
       0.044929143 0.04394722 -0.032813996 -0.031261202
000350 2b 08 03 3d 83 31 57 3c 84 e3 8d 3d 07 7a 09 3d
       0.03199021 0.013134363 0.06928161 0.03356364
000360 e0 22 97 3d 8f 98 b1 bd cc 79 45 3c d4 0b 74 3d
       0.07379699 -0.08671676 0.012052964 0.059581593
000370 17 87 a9 bd c1 97 ae 3c 09 ef f4 bc 60 03 94 bd
       -0.082777195 0.021312596 -0.029899137 -0.07227206
000380 7f af 50 3d 83 3d 8a bd 8b bd 1e 3d 32 cd 01 bd
       0.050948616 -0.06750014 0.03875498 -0.03168983
000390 b4 b2 78 bd 17 65 a4 3d cd ce 87 bc 8c 45 61 bd
       -0.0607173 0.08027094 -0.016578102 -0.054997966
0003a0 e3 88 80 3c 97 3c 95 3d 1d 73 24 bd 7b 8b 3c 3d
       0.015690273 0.07286947 -0.040148843 0.046031456
0003b0 c8 3b a0 bd f5 cd ae bd af 41 cb 3c 40 f1 ae bd
       -0.07823902 -0.08535377 0.024811594 -0.085421085
0003c0 d2 84 1c 3c c5 65 72 3d 48 f0 5b bd e9 f0 e7 ba
       0.009553151 0.059179086 -0.053695947 -0.0017695698
0003d0 0e e1 75 bd cb 0c b3 bd a7 49 a9 bd d7 f4 40 3d
       -0.060029082 -0.087426744 -0.08266001 0.047108497
0003e0 b7 37 71 bc df 1b 05 3d 22 dc 42 3b 1e c2 97 3d
       -0.014722756 0.032497283 0.002973326 0.07410072
0003f0 ca d5 ed bc 08 7b fd 3c 86 3a 89 3c 33 5f a5 3d
       -0.029032607 0.030942455 0.016751539 0.080747984

actor.policy_head.bias f4 [50]
000000 29 24 70 3d 69 9c 88 3d 56 78 9d bd cc 57 11 3c
       0.058628235 0.06670458 -0.07688968 0.00887103
000010 38 ec 19 3d 58 0b 55 bd 57 32 76 3d 40 b2 37 bd
       0.03757879 -0.05201277 0.0601066 -0.044847727
000020 4a 49 2a 3c 67 33 0d bd 59 f4 a3 3d 4a 08 09 3d
       0.01039345 -0.03447285 0.0800559 0.03345517
000030 e6 5b 91 3d 8e dd 43 3d fe 6d 71 3c 0d 8a 84 3d
       0.07097606 0.047818713 0.014735697 0.064716436
000040 b4 48 a3 3d b3 7f 23 3c bd aa 94 3d e3 63 10 3d
       0.079728514 0.009979176 0.07259128 0.03525151
000050 61 33 0c bd f8 69 1b bd e2 1f e7 3c e9 6d 93 3d
       -0.034228686 -0.037942857 0.028213445 0.07198698
000060 1a 2b 84 3d fa f9 95 3d e5 3a 26 bd 8f f6 ea bc
       0.064535335 0.0732307 -0.04058351 -0.028682021
000070 bd 75 9c bd f9 ed a1 bd bc ed 79 3d 3c 2a 78 3d
       -0.07639644 -0.07906718 0.061017737 0.060587153
000080 1f 74 1b 3d bb 3d b0 3b e0 24 44 3c ce b9 a7 3d
       0.03795254 0.0053784526 0.011971682 0.08189736
000090 4b 05 f5 bc e8 2f 34 3d 9b 4d 5a bd e0 b0 91 bb
       -0.02990975 0.043991 -0.053296667 -0.004446134
0000a0 07 67 21 3d 81 c3 8f bd 90 e6 1e bd e2 27 40 3b
       0.039404895 -0.07019711 -0.0387941 0.0029320647
0000b0 70 a7 c2 3c bc 19 89 bd d1 f8 fc 3c 9b 1a b2 bd
       0.023761481 -0.066943616 0.030880364 -0.08696481
0000c0 e7 59 a3 3d e0 22 49 bd
       0.07976132 -0.049105525

critic.fc1.weight f4 [256, 21]
000000 9b a1 4c be d6 17 bf 3c 8c 13 47 3e c6 29 8b 3d
       -0.19983523 0.023326796 0.1944105 0.06795077
000010 86 af 02 be ab 54 cb 3d ff 63 df 3d 21 e3 a9 3d
       -0.1276227 0.099282585 0.109077446 0.082952745
000020 6c 82 9a 3d 57 df 0d 3e 2e 6a 9f bd d0 f9 11 3e
       0.07544407 0.13854729 -0.07783924 0.14255452
000030 8b 2b 7e 3c d0 e9 c5 bd 7a f8 a9 bd e4 21 e2 3d
       0.015513311 -0.09663737 -0.08299346 0.110416204
000040 9d cc 07 be 33 1e 9e bd d3 a9 9e bd 64 df 0c be
       -0.13261648 -0.07720604 -0.07747235 -0.13757092
000050 82 ef 4a be 65 59 f8 3d 09 53 09 bd 70 77 37 3e
       -0.19817927 0.12126426 -0.033526454 0.17916656
000060 2c ab 40 3d 19 69 c5 3d fe 91 75 bd 4a 32 1b bd
       0.047038242 0.096391864 -0.059953682 -0.037889756
000070 d8 88 fe bc 11 3f 2f be 8f 70 e3 bd 72 2a 25 3e
       -0.031071112 -0.17113902 -0.11105453 0.16129473
000080 33 55 05 be c0 20 ea bc d9 e7 ad 3d f5 ca 13 be
       -0.13020782 -0.02858007 0.08491487 -0.1443289
000090 7d b5 1f be e2 eb fa 3c 1f fc 1f 3e 78 9d 85 bd
       -0.15596576 0.030630056 0.1562352 -0.065241754
0000a0 3d b9 dd 3a 96 dd cf 3d 09 47 56 be 51 b1 49 be
       0.0016916167 0.10149686 -0.20925535 -0.19696547
0000b0 fc 39 a5 bc 02 03 29 3e aa 6b 81 bd eb d1 0f be
       -0.02016925 0.16505054 -0.063193634 -0.14044921
0000c0 12 6f b4 3d 91 85 19 3e 37 46 be 3d fa e6 54 3e
       0.088102475 0.14992358 0.09290736 0.20791236
0000d0 f9 53 83 3d 9e fa 22 3d 55 19 b2 3d 44 86 12 be
       0.06412501 0.03978979 0.08696238 -0.14309031
0000e0 4b 68 27 bc 22 ae 70 3d 03 0a b5 3c 04 5a d3 3d
       -0.0102177365 0.058759816 0.0220995 0.103199035
0000f0 c7 62 ae 3d a4 76 5c 3d b4 1e 30 be 34 27 08 3e
       0.08514934 0.053824082 -0.17199212 0.13296205
000100 cc 84 1f be 7d 90 1d 3e 47 d0 33 be c9 ca 55 be
       -0.15578002 0.15387149 -0.1755992 -0.20878138
000110 fd 1c 81 3d 09 fe 3c 3e 57 46 4e be a8 70 0b 3e
       0.06304357 0.18456282 -0.2014402 0.13617194
000120 41 4d e3 3d fc 53 7b bd 46 b2 a6 3c 0a 20 ee bd
       0.110987194 -0.06135939 0.02034868 -0.11627205
000130 0c c8 19 be df 56 36 3e df 65 f0 bd 25 34 14 3c
       -0.15017718 0.17806576 -0.1173818 0.009045635
000140 af 93 cc bd 28 cd 47 3e ca 98 f2 bb d6 1a 25 3e
       -0.09989106 0.19511855 -0.007403468 0.16123518
000150 6a 81 55 be 7c ed 20 3e 1b 41 d5 3c 89 5f 1b bc
       -0.20850149 0.15715593 0.026032021 -0.009483227
000160 6c 74 ea bd de b8 c1 bd 64 d5 81 b9 20 fd 42 bd
       -0.11447987 -0.09459089 -0.00024763786 -0.04760468
000170 e3 c6 07 be 15 35 53 be ef bd 52 be 4a 94 19 bd
       -0.13259463 -0.20625718 -0.20580266 -0.037494935
000180 7b 0c 4f 3e d7 ad 87 3d c9 50 2d 3e a1 f8 42 3e
       0.20219605 0.06624954 0.16925348 0.19040157
000190 ff 8f 1d be 24 33 cb 3d a1 bf 47 3d 3b d6 50 3e
       -0.15386961 0.09921864 0.048766736 0.20394222
0001a0 13 b8 31 3e df b1 7d 3c 4b e9 3d 3e 4a cc 5b 3d
       0.17355375 0.015484302 0.18546025 0.053661622
0001b0 06 74 21 3d 4e df 58 3e 93 d1 0f bc 31 a1 05 be
       0.03941729 0.21178934 -0.008777994 -0.13049771
0001c0 29 19 3d be dd 65 9d 3d d8 92 df 3c bf 7e 37 3e
       -0.18466629 0.076854445 0.0272917 0.17919444
0001d0 dc f6 44 be 41 91 35 be c9 5a 57 3e 38 6a 40 bd
       -0.19234794 -0.17731191 0.21030726 -0.046976298
0001e0 36 3b 37 3e 5a c6 aa bd 6f bc 28 be 30 2c 0e 3e
       0.17893681 -0.08338614 -0.16478132 0.13884044
0001f0 74 1a 12 3e 4d 1b 1c 3e d8 57 a0 bd b8 76 31 be
       0.14267904 0.1524479 -0.07829255 -0.17330444
000200 38 68 44 be 15 fe 15 3e 50 fc d7 bd 6a f4 41 be
       -0.19180381 0.14647706 -0.10546172 -0.18940893
000210 dd 6c 0f 3e 39 cf 82 3d 8f 5e f2 bd e1 e4 24 bd
       0.14006372 0.06387181 -0.11834442 -0.04025734
000220 a3 7d a7 bc 75 47 48 3e e3 bc 5a 3e 59 d4 48 3e
       -0.02044565 0.19558509 0.21361117 0.19612254
000230 99 2d a2 bd f3 bd b2 bd d9 88 2c 3e d5 72 cc bc
       -0.07918853 -0.08727636 0.16849078 -0.0249571
000240 46 39 5a 3e 51 f5 07 be 51 85 56 3e 13 ad 11 3e
       0.2131091 -0.13277175 0.20949294 0.14226179
000250 83 26 17 3b 3b 65 1f be dc 9d 8c bd 6f b0 05 3e
       0.0023063726 -0.1556596 -0.06866047 0.13055585
000260 4e 80 c4 3d 80 8e a2 bd 87 eb a9 bd ef 26 46 bd
       0.09594785 -0.07937336 -0.082968764 -0.048376974
000270 45 eb a0 3c c6 96 93 3d 0f 69 12 be 02 4e ed 3d
       0.019643435 0.07206492 -0.14297889 0.115871444
000280 f6 22 32 be 26 51 42 be 32 21 fa bd 9c 61 bf 3d
       -0.17396149 -0.18976268 -0.12213363 0.093447894
000290 de ff 10 3e f4 6e b1 3d 00 b2 e9 bd 90 e2 bf 3d
       0.14160106 0.08663741 -0.11410904 0.09369385
0002a0 ce 8e 29 3e 3d 45 83 3d f8 13 66 3d 9c 9a 85 bd
       0.16558382 0.064096905 0.056171387 -0.0652363
0002b0 4a ce 2f be 00 37 97 3b ec 50 2f be e6 a2 55 be
       -0.17168537 0.004614711 -0.17120713 -0.20862922
0002c0 7a b6 a3 3d 2d 3e 12 3e 71 0a 02 3e d5 a7 cb 3c
       0.07993789 0.1428153 0.12699296 0.024860302
0002d0 71 71 fc bc fd c2 0f 3e 7e 9d 4a 3c 4a a7 8b 3d
       -0.030815812 0.14039226 0.012366651 0.06819017
0002e0 c8 ea 2d be c0 63 91 3d b1 9c 98 3b 3d ac 00 be
       -0.16984093 0.07099104 0.004657351 -0.12565704
0002f0 37 74 1a bd 3c e8 71 bc 96 1c 84 bd 58 aa 8f 3d
       -0.037708487 -0.014764842 -0.06450765 0.07014912
000300 bd d7 ce 3d 66 d6 01 be 12 c7 2b 3c ed 0a 42 bd
       0.100997426 -0.12679443 0.010484474 -0.0473737
000310 e8 9e 45 be 65 13 4e 3e f6 2a 54 3e 73 15 9b 3d
       -0.19298899 0.20124586 0.20719513 0.075724505
000320 7b 75 53 bd 2b 9b 1f 3e 4f f6 6b 3d 9b 88 56 bd
       -0.05162571 0.15586536 0.057607945 -0.05237637
000330 46 0b bb 3d 46 b9 1f be f2 45 cc bd 84 34 4e be
       0.091330096 -0.1559802 -0.099742785 -0.2013722
000340 cf 1c 16 3e 67 7a 29 3e 0b 8c 3d 3c 0a 3e 6b 3d
       0.14659427 0.16550599 0.011569033 0.057432212
000350 46 3e 8d bc 6f fe 47 be 45 42 4b 3e 6a 4e 5c 3c
       -0.017241608 -0.19530652 0.19849499 0.01344643
000360 49 f5 f8 bd bd 26 af 3c 8d d7 88 3d 23 0c 41 be
       -0.121561594 0.021380777 0.06681738 -0.18852286
000370 be cf 29 3e 21 78 41 3e db 45 2f 3e be 6b 0e bd
       0.16583154 0.18893482 0.17116491 -0.03477072
000380 f1 c5 e6 3d 67 be e9 3d 65 e0 a9 3c 21 ca 01 bc
       0.11268223 0.114132695 0.020736882 -0.007921726
000390 13 3c 4f be 9f b7 18 be 90 f4 29 3c a0 95 81 bd
       -0.2023776 -0.14913796 0.01037325 -0.06327367
0003a0 5d 6d 43 3d 6e e3 33 3e 26 6a 14 3e 98 58 41 3e
       0.04771172 0.17567226 0.14493617 0.18881452
0003b0 ca 78 28 3e dc f1 e4 3b 87 e4 ea 3d ae bc 0a 3c
       0.16452327 0.0069868397 0.114693694 0.008467836
0003c0 bb ba c0 bd a3 84 45 3e 5a b2 5a be 70 83 54 be
       -0.09410616 0.19288878 -0.21357098 -0.20753264
0003d0 95 fc 0a 3e 56 8e 0d 3e 5c 4a 9c 3d b6 16 01 3e
       0.13572915 0.13823828 0.076313704 0.1260632
0003e0 13 33 1c 3e 19 a7 c2 3d b4 4b 05 3e 91 6b e9 bd
       0.15253858 0.095045276 0.1301716 -0.1139747
0003f0 13 fe 00 3c 38 94 a2 3d df 00 41 3e 76 a2 0b 3e
       0.007873076 0.07938427 0.18847989 0.13636193

critic.fc1.bias f4 [256]
000000 f4 f0 aa 3d d2 7f 2b bd 8f dc d6 bd 14 60 28 b9
       0.083467394 -0.041869946 -0.10491287 -0.0001605752
000010 b7 c4 01 3c a7 00 62 bd 30 e7 2a 3d 21 42 4d be
       0.007920436 -0.055176403 0.041724384 -0.20044757
000020 5b 38 03 bd 85 68 41 3e 75 8b ac ba f0 42 12 3e
       -0.032036167 0.18887527 -0.001316412 0.14283347
000030 ea 1b 56 3e 5c 0c 08 be 07 6e a7 3d 9f 8f 45 be
       0.20909086 -0.13285965 0.08175283 -0.19293068
000040 70 fd 1d be 56 93 cd 3d 75 09 5b 3d 8a 5f 3b 3e
       -0.1542871 0.10037868 0.053475816 0.18298164
000050 d7 9e 83 bd 42 fe 96 3d c0 d7 94 3c c3 14 5c be
       -0.06426781 0.073727146 0.018169284 -0.21492295
000060 cb 1d f9 3d d1 19 f4 bd 68 6a cd 3d 33 95 01 be
       0.12163886 -0.119189866 0.10030061 -0.12654571
000070 65 f1 70 3d 07 27 ef bc 1e a2 e9 3d 7e 00 de 3d
       0.05882396 -0.029193414 0.114078745 0.108399376
000080 68 0e 47 be 10 b1 a2 bc b2 a8 e7 bd ac d8 33 3e
       -0.1943909 -0.01985982 -0.11311473 0.17563123
000090 d8 9a 5f 3e 23 7a 3b 3d e2 a7 13 3e 92 48 81 3c
       0.21836412 0.045770776 0.14419511 0.015781675
0000a0 8a 12 1e be 29 08 34 3e 05 de 85 bd 4d 73 22 be
       -0.1543676 0.17581238 -0.065364875 -0.15864296
0000b0 b4 7e 51 be f0 13 36 39 1e ff 71 3d d0 bc 2a be
       -0.2045849 0.000173643 0.05908119 -0.16673589
0000c0 13 d3 32 be 4e 73 15 3e 52 31 06 be 1d d3 a6 bd
       -0.17463331 0.14594766 -0.13104752 -0.081457354
0000d0 89 b5 1c be 7a c9 5a 3e 15 39 f2 bd 71 d2 7e 3c
       -0.15303625 0.2136592 -0.11827294 0.015553103
0000e0 3b 10 33 3e a3 04 10 3e 39 e0 55 3e b3 73 31 3e
       0.1748666 0.14064269 0.20886315 0.17329292
0000f0 f5 45 d8 bd d0 02 59 bd 81 2a 44 be a1 fa 64 3d
       -0.10560218 -0.052981198 -0.19156839 0.05590308
000100 84 6f 88 3c f8 85 19 3e 7d 13 59 be c6 98 f9 bd
       0.016654737 0.14992511 -0.2119884 -0.12187342
000110 c7 86 f6 bd 26 cf ad bd a9 b1 40 3e 0c 55 2a be
       -0.120374255 -0.08486776 0.18817772 -0.16634005
000120 6a 76 5e 3e e7 c0 15 bd 51 e8 20 3e aa ac 17 3e
       0.21724859 -0.03656092 0.15713622 0.1481196
000130 59 48 e8 3c ba 2f 43 bd 2e 70 3f 3e c3 a6 80 3d
       0.02835481 -0.047652937 0.18695137 0.06281807
000140 7d eb 49 be 3d 82 e7 bd 85 51 9e bd 3d 0e 19 3d
       -0.19718738 -0.11304138 -0.07730392 0.037367094
000150 fc 05 bc 3d 92 be 5b be ea 3e 48 3d 73 68 87 3d
       0.09180829 -0.21459416 0.048888125 0.06611719
000160 1c 88 1c be 94 06 0f 3e 52 a1 17 bd 04 71 ac bd
       -0.15286297 0.13967353 -0.03701908 -0.084199935
000170 17 02 db bd 7b b9 4b 3c 88 b0 bd bd 81 8e 20 be
       -0.10693758 0.012434359 -0.09262186 -0.15679361
000180 b4 1a a9 bd ed c4 6f 3d 14 d4 ed 3d 59 54 0d 3e
       -0.08257046 0.058537412 0.11612716 0.13801707
000190 6f 84 8d bd c5 ca ec bd 65 66 eb 3d 7e e4 2e bc
       -0.06910025 -0.11562113 0.114941396 -0.010674594
0001a0 a3 1f 0a 3e f5 1e 1f 3d 3e ce a5 bd 54 c7 0f 3e
       0.13488631 0.038847882 -0.08095978 0.14040881
0001b0 36 e8 15 be 9e 45 f1 bd 13 9c 4b 3e 9d c2 1d be
       -0.14639363 -0.117808565 0.19883756 -0.1540627
0001c0 96 57 ae 3d fc 9d a3 3d 5c 3e 10 3d b7 22 42 be
       0.085127994 0.079891175 0.03521572 -0.18958555
0001d0 d2 6b 6f 3d e8 81 4c 3e 88 b5 32 bd c2 c0 d0 bd
       0.058452435 0.1997143 -0.043630153 -0.10193016
0001e0 4b 3b 1e 3d 6f e7 c5 3d ea 6e 3e 3e 5d cc 01 be
       0.038630765 0.09663283 0.18596998 -0.12675615
0001f0 9c 89 1e 3e f6 93 8d 3d aa 82 1d be ef 66 eb bd
       0.15482181 0.06912987 -0.15381876 -0.114942424
000200 ad 3d d2 bd 5e b6 2b 3e de 76 38 be 26 3a 35 be
       -0.1026567 0.16768786 -0.18014094 -0.17697963
000210 7c 35 bb bd b4 36 5b 3d b6 22 1d bc fa 91 a2 bd
       -0.09141061 0.053518966 -0.009590795 -0.07937999
000220 2c 2f 58 be 98 fb 07 be 9b e7 39 bd 8c d9 0e be
       -0.21111745 -0.13279569 -0.04538689 -0.13950175
000230 f8 a5 18 bd 27 35 51 3e 89 2a 11 3e e0 60 a7 bc
       -0.037267655 0.20430432 0.14176382 -0.020431936
000240 54 4e 5a 3d 4f a5 33 3e 00 61 ed 3d 6a 56 36 3e
       0.053297356 0.17543529 0.11590767 0.17806402
000250 a0 03 d1 3d 9c 1b 44 3c 71 34 4f 3e 74 2b dc bd
       0.102057695 0.011969473 0.20234849 -0.107504755
000260 44 e8 4e 3e 86 48 d3 bd 79 f0 3d 3d c2 d3 7b 3d
       0.2020579 -0.10316567 0.04637191 0.061481245
000270 a1 43 c4 3d 0e 0f 89 3d e6 73 26 be df af 50 be
       0.09583212 0.066923246 -0.16255149 -0.2037959
000280 6f 65 01 3c 3e 0b d9 bd 28 06 3e 3e 7c 6d 33 3e
       0.007897719 -0.105978474 0.18557036 0.17522234
000290 b2 89 6c 3d 89 a0 e1 3c ac ee 2a be 0b 16 46 3e
       0.057748504 0.02754237 -0.16692609 0.19344346
0002a0 75 a6 ae 3d e6 a0 f5 bd 62 3d 11 3e 0c 1e 22 be
       0.08527843 -0.119935796 0.14183572 -0.15831774
0002b0 ce 67 0e be b8 86 b7 3d 9f 5b f5 bd 6d 66 6a 3c
       -0.13906786 0.089612424 -0.11980366 0.014306647
0002c0 8b f1 0e be 69 6e c1 3c aa be 28 3e 69 a9 e6 3d
       -0.13959329 0.023612218 0.16478983 0.11262781
0002d0 6c 45 6a 3d 52 24 17 be 50 93 d2 3d f0 20 2f 3c
       0.057195112 -0.14759949 0.10282004 0.010689005
0002e0 9a 41 5f 3e e6 3e 4c be 29 be 8b 3d f3 29 91 bd
       0.21802369 -0.19945869 0.068233795 -0.07088079
0002f0 b1 f2 34 be e0 e6 35 be ab 4e 3f be 18 b8 a1 3d
       -0.17670704 -0.17763853 -0.18682353 0.07896441
000300 8b 28 54 3e 39 a3 bd 3d 44 a9 c5 3d 7d 66 49 be
       0.20718591 0.09259648 0.096514255 -0.19668002
000310 1a f6 05 3e 6f 98 01 be 0c d6 bc bd 53 e5 36 be
       0.13082162 -0.12655805 -0.09220514 -0.17860918
000320 f7 72 b4 bd 04 c7 55 3e 6a e4 99 3d 7a 3d 12 3e
       -0.0881099 0.208767 0.0751427 0.14281264
000330 21 44 f5 3c 18 78 98 bc 14 a8 69 3c 96 fa 5c 3e
       0.029939713 -0.018611953 0.014261264 0.21579966
000340 5b 2d 55 3d 1e 75 0f be fa c1 c5 bd f3 1a 3d 3e
       0.052045207 -0.1400952 -0.09656139 0.18467312
000350 32 d7 84 bd 74 f5 81 3d cc d3 c2 3d 8d dd d5 bc
       -0.06486358 0.063456446 0.09513053 -0.02610662
000360 f5 01 41 bd 85 7e 05 3d 14 5a 73 bc 71 89 d4 bd
       -0.047121007 0.03259136 -0.014853019 -0.10377777
000370 8a c4 72 3d 8b 7f a7 bd 85 e5 b0 bd 7a 1f 03 be
       0.059269466 -0.08178624 -0.086375274 -0.12804976
000380 af e1 48 be 57 a9 da bd b1 f9 fd 3d bd 24 52 3d
       -0.19617341 -0.1067683 0.124011405 0.051304568
000390 fe 79 00 be 40 f8 40 be 87 92 68 bd 33 b2 13 3e
       -0.12546536 -0.188447 -0.056780364 0.14423446
0003a0 e6 90 4a 3d 28 43 0f 3e fd 48 1a 3d 92 f7 f2 3d
       0.049454592 0.13990462 0.037667263 0.118636265
0003b0 6a 12 0e be 80 ab 17 be 4d 18 38 3e ba d6 4d 3e
       -0.13874212 -0.14811516 0.1797802 0.20101443
0003c0 1b 6d 28 be a2 40 32 3e d5 74 bd bd 67 f2 bf bd
       -0.1644787 0.17407468 -0.092507996 -0.093724065
0003d0 23 14 5b 3e 44 ca a2 3d 59 e5 ac bd 01 e0 8a bd
       0.213944 0.07948735 -0.08442182 -0.067810066
0003e0 71 33 92 3d 94 cc f9 3c cc eb d2 bd 0b 8a 5e be
       0.07138718 0.030493058 -0.10298881 -0.21732347
0003f0 44 ab a0 3d 83 95 4a be 75 c3 01 3e 93 9a 27 bc
       0.07845166 -0.19783597 0.12672217 -0.010229724
