debug/policy_1_80/model.pt (torch, 338258 bytes, 11 tensors)

actor.fc1.weight f4 [256, 21]
00000000: 7396 41be 6caf 223e 8c35 413e 7f2b 53be
00000010: f14c b63d 57ab 0e3e 9d8d d83d c45b 2c3d
00000020: 9d3e 61bd f480 283e 5005 41be 515f 3d3d
00000030: 9b01 b5bd cec3 31be d102 543e fc41 ecbd
00000040: d463 cfbd 81a8 52be bafe 373b bdc4 d2bd
00000050: d0b3 5cbe 39dc 65bd 109b a1bd 41c2 5ebd
00000060: 359b d0bd 5233 7bbc 82c6 5b3c 57b9 b93d
00000070: 22b6 b53a a7b7 163e a12d 533e ce0c 45be
00000080: daa5 21be 7f67 b2bd 99ed 2ebe 28af 49be
00000090: 9bbf 513e f348 f23d 7843 ff3d 8ce1 34be
000000a0: 3d23 2fbe daff bfbd e0ef dcbd d03f 33be
000000b0: 8194 4dbc e501 d23d 7bb5 03bd ef7d 3bbe
000000c0: 666e 153e 9f5b ebbd ab3c 493d 76cf ec3c
000000d0: 2752 963d 73f3 753d bad1 c73c 8e36 263d
000000e0: 0e2d 3ebe 7b04 053d bcbe a93c 0875 463e
000000f0: 87b0 2d3e 24d2 ffbd 182a 343e c5a9 f73b
00000100: bee1 c23d 1e7c 2b3d 5dc8 273e b13e 6abd
00000110: 9152 4d3e 0c35 8cbd 88ff a13d 236d 003e
00000120: ca33 9ebd 7475 05be ecb8 9c3d 1fed 1f3e
00000130: 7f7a cd3d 0f26 45bd 6bcb 0e3e d2b5 bf3d
00000140: 3c6a 0a3e fa54 50be 370c 2d3d a9ec 953c
00000150: fe86 17bb 9639 313e a83f c7bd 3ae3 ffbd
00000160: 3423 38be a759 c73d def6 f6bc 0bdb 13be
00000170: a560 f13c 3952 af3d 037d 013d 3b21 393e
00000180: 7de9 403e 9ca1 53be fb7a aabd d73e 8f3d
00000190: 9f8d b3bc b732 2e3e ac4b 083e e360 3c3e
000001a0: 02e8 d0bd 8137 3b3e 202d 493e ddf2 3b3e
000001b0: 70f7 993b 1cf4 fc3d 35a0 aebd c0fe cf3d
000001c0: ee51 b73d 9127 6cbd 336e c93d cb28 f4bd
000001d0: 3b80 45be ce59 2e3e 9f4e 1b3d d6d0 9abc
000001e0: c10d a93d 0630 63bd 4ec8 28be b64f 33bd
000001f0: 21d3 1d3e 6101 c0bc 8459 a7bd ea1f 413d
00000200: cdb2 093e 1e55 b5bd e824 063e 243b 3fbe
00000210: 1894 543e 9be9 a33c d0f8 143e 23c6 533e
00000220: d285 cabc ce89 1a3e 1013 253c 6ea5 debc
00000230: 0573 a1bd 0c48 4d3e 8058 2abe 0eb5 1fbe
00000240: 98a0 023e c7a5 283e 7413 4bbd 0bdf 1bbd
00000250: c1d8 043e 2dfa dd3c b536 a63d 5647 aebd
00000260: 6225 e7bd ae83 c7bd bed4 4f3e 7a0b 7ebc
00000270: 958b 2d3e 574b 243e 6da2 803d cb92 efbd
00000280: d55b 473e b20d e6bd f5c5 1abe 55dc 90bd
00000290: f065 a2ba 46c6 563e fc27 313e 502a 0f3e
000002a0: f962 753c 478e eabd 514e 56bd 9a33 023e
000002b0: 8305 02be 7f2e 46be 613f 0f3d e85b 3cbe
000002c0: 6a78 b3bc 9924 f2bd ae8a 8b3d 944b 2cbe
000002d0: 1d3f 06be 6356 e0bc cffa 443d 3982 3f3d
000002e0: 4553 0ebe 4980 1c3e 01c7 e1bd 4f8b 40be
000002f0: 6b86 0abe 7769 e33d 6a41 f63d 6fc2 6cbd
00000300: 14f9 c6bd 08da 4fbe e703 373e 7bea 32be
00000310: 8788 7bbc 7df0 41be ce26 b5bd 9299 c83b
00000320: 47f8 10be 1836 e0bc ae86 193e 9f4a 44bd
00000330: 65c9 e3bd 79ee 9b3d ed8a ddbd fa18 d5bc
00000340: 3f24 a7bc 3128 1b3c f6d9 08be 7a15 06be
00000350: 9174 22bd 5f46 b8bc 3ab5 36bd 6e4f 583d
00000360: 5451 563e d5ff 1e3d 9153 62bd 369e 58be
00000370: 2cbb 293e 9e11 98ba 4f06 57bb 01ec 2abe
00000380: c4f9 4b3e a009 163d c2ab 4dbe 78d8 143e
00000390: ba2c d2bd e001 bc3d 6933 b5bd f878 453e
000003a0: 9b81 acbd 12a5 de3d 8c83 8d3c 5d8b 833d
000003b0: c6c8 103e b9c4 9d3d 8110 ae3d eea8 45be
000003c0: f5fe c6bd f9af 4a3e 86bd e43d 434b 4bbd
000003d0: 7338 493e 02fc 53be f1cd d3bd f37c b8bd
000003e0: 06df ec3c f8d1 f73d 4e52 393b 5f91 b3bd
000003f0: 4ed0 3c3e eea3 233e 28b1 c4bd 9564 f33b
-0.18905048 0.1588723 0.18868083 -0.20622061 0.08901394 0.13932548 0.105738856 0.042079702
-0.054991353 0.16455442 -0.18849683 0.04623348 -0.08838197 -0.1735985 0.207042 -0.11536023
-0.101264626 -0.20572092 0.0028075413 -0.10291431 -0.21552968 -0.056118224 -0.07890904 -0.054384474
-0.101858534 -0.01533206 0.013414027 0.09068554 0.0013863484 0.14718495 0.20622875 -0.19243166
-0.15785924 -0.087111466 -0.17082824 -0.19695723 0.20483248 0.1183032 0.124640405 -0.17664164
-0.17103286 -0.09374972 -0.1078794 -0.17504811 -0.012547613 0.102542676 -0.032155495 -0.18309759
0.14592895 -0.11492085 0.049130123 0.028907519 0.07339888 0.060046624 0.024391998 0.04057937
-0.18571874 0.032474976 0.020720832 0.19380581 0.16961871 -0.12491253 0.17594182 0.00755808
0.09515713 0.041866414 0.16385026 -0.057188693 0.20051028 -0.068460554 0.07910067 0.12541632
-0.07724722 -0.13033086 0.076524585 0.15617798 0.1003313 -0.048132 0.13944785 0.09360851
0.13517088 -0.20344916 0.042247977 0.018301325 -0.0023121233 0.17307124 -0.09728938 -0.12494512
-0.17982179 0.09733897 -0.030147012 -0.14439027 0.029465029 0.085606046 0.03161336 0.18079083
0.18839069 -0.20667118 -0.08324238 0.069944076 -0.021918116 0.17011534 0.13310117 0.18396334
-0.10200502 0.18282892 0.1964612 0.18354364 0.0046986863 0.12351248 -0.08526651 0.101560116
0.08951174 -0.05765492 0.09835472 -0.11921843 -0.19287197 0.17026445 0.037916776 -0.018898409
0.082545765 -0.05546572 -0.1648266 -0.04377719 0.1541257 -0.023438158 -0.081713706 0.047149576
0.13447113 -0.088541254 0.13100016 -0.18674904 0.20759618 0.020008853 0.1454804 0.20681052
-0.024722014 0.15091631 0.010075346 -0.027178492 -0.07883266 0.20047015 -0.16635323 -0.1559641
0.12756574 0.16469489 -0.0495791 -0.038054507 0.1297331 0.027096832 0.08115903 -0.085097
-0.11286427 -0.09741913 0.20295998 -0.015505666 0.16947778 0.16044365 0.0628098 -0.116979204
0.19468625 -0.11233081 -0.15114577 -0.07073275 -0.0012389999 0.20974073 0.17300409 0.13980985
0.01497721 -0.114529185 -0.052320782 0.12714997 -0.12697415 -0.19353674 0.034972552 -0.18394434
-0.021908004 -0.11823387 0.068135604 -0.16825706 -0.13110013 -0.027384942 0.048090752 0.04675505
-0.13898952 0.15283312 -0.11024285 -0.18803142 -0.13527839 0.111041 0.120241955 -0.057802614
-0.09715477 -0.20298016 0.17872582 -0.1747226 -0.015352375 -0.18939395 -0.08845292 0.0061218226
-0.1415721 -0.027369544 0.14992782 -0.047922727 -0.11122397 0.076138444 -0.108175136 -0.026012886
-0.020403026 0.009470032 -0.13364395 -0.1309413 -0.039661948 -0.022494493 -0.044606425 0.052810125
0.20929462 0.0388182 -0.055255476 -0.21154103 0.16575307 -0.001160193 -0.0032810157 -0.16691591
0.19919497 0.036630273 -0.20085052 0.14535701 -0.10262437 0.09180045 -0.08847696 0.19284427
-0.08423158 0.108713284 0.01727464 0.06423066 0.14139089 0.077035375 0.084992416 -0.19302723
-0.09716598 0.1979369 0.11168961 -0.049632322 0.1965044 -0.20701602 -0.103420146 -0.09008207
0.02891494 0.12100595 0.0028277817 -0.08767962 0.18438837 0.15980503 -0.096041024 0.007427762

actor.fc1.bias f4 [256]
00000000: 099e 3b3d fbe8 803d 8428 87bd 45a6 31be
00000010: 05ea f53b 2d21 183e 9147 dbbd 0157 51bd
00000020: b9cf 16be a36d 56be 155a 08be e01d 973d
00000030: ddd7 173e 8f43 fb3d cc57 9bbd b945 dd3d
00000040: 19e2 c7bc 7044 23bc 8d6b 90bd dd20 333e
00000050: ec89 963c 34e2 8fbd dc11 0a3e 5215 f13d
00000060: bae6 053e 7938 14be d71a 053e 4230 7cbd
00000070: 0e79 32bd a34e 6e3d f151 223e ea1d 253e
00000080: 5644 073e 5b8c 213d 78a9 203c 2f32 0f3e
00000090: ad52 2fbc 5efb 233e 21be 493e db48 2dbd
000000a0: d0bd ce3d d741 bcbd 3e6c 4dbc 96d2 3c3d
000000b0: e9ce bd3c 4840 8ebd e9c4 f03d bfe9 893d
000000c0: 15c6 493e c402 313e 7aa0 673c 1157 1f3e
000000d0: 2551 493e 9b68 013e 2dd9 a53d feff e93d
000000e0: b540 393e 4c77 2cbe 5f0a 43be 736f a03c
000000f0: 760f 073e da1c 58ba 178b b2bc 83f7 043d
00000100: c1d8 06be 2c57 26be f23c 50be c0b5 183e
00000110: 451f 3cbe 79e5 31be bcee 433e 7a19 663d
00000120: 44ad e4bd 544f 34be 7ab8 00be 3c0b 3fbd
00000130: c4b9 5d3d b729 0e3e c9a3 ac3d 1f09 2ebe
00000140: de64 b8bd bd60 383e 4134 043d 08fa 483e
00000150: 1040 07be b5b5 3dbe 529a 53bc c093 493e
00000160: d297 cf3d f861 283d b48a 2c3e 78b3 18be
00000170: 39d0 4c3e ba99 c93d 63fe 1fbe c8d2 2a3d
00000180: d91a 5b3d e5a9 ca3d 093e e03d 484b 583e
00000190: 641a 2ebe ca94 903b f04c 043e 782b b2bd
000001a0: d2bc 26bb 9d8a 223e 6785 1ebe bb27 19be
000001b0: 401b c23d c342 f33d cfb0 4dbe 537f 8cbd
000001c0: c21a 5dbe f361 163e bde6 3e3d 2195 433e
000001d0: 165b f23d df19 3a3c 3fd7 18be e681 43be
000001e0: 2e01 b2bd 4dd5 0a3e 2cef d33d e45c 0b3e
000001f0: bc66 873d 6716 cb3c 1beb 243d ba55 203e
00000200: 9e01 9dbd 0534 ebbd dc70 2bbd 9284 963b
00000210: 434e 38bd bb08 573d 35c4 a3bd 40e0 013e
00000220: 98fd 78bc 2bd5 cdbc bdae 4abe 201b f7bd
00000230: 9298 ec3d f17d 7b3d b223 15be eaf2 0b3e
00000240: 0faa f6bd f3a1 413d 3d10 8abd e8c2 ddbd
00000250: da6c 453e 8a02 af3d 2723 99bd d611 173e
00000260: 5347 813d 6e60 583e e051 3fbe 755d 5a3e
00000270: e0d3 29bd b7c5 043d 6021 ff3d 325a b8bd
00000280: 3f9b 203d 0870 123e 25a4 f03b c2e5 c63d
00000290: fe8f 09bd 0c2c 21be ca27 a73d 44a4 13be
000002a0: eeea 523e 7450 f03a 0aff b83d 020c 2fbe
000002b0: f644 f8bd b4a4 353d 8416 82bc 8f17 033e
000002c0: 067a 1ebd 225c f43d d477 2f3e 14fc 983d
000002d0: 173a 00be 8004 4dbe e966 bebd 3845 26be
000002e0: 526d a63b 06a7 013c 777e 23be 2df3 1ebe
000002f0: b388 573e d62b db3d 0411 27bd 4e95 0d3e
00000300: 64cf 8b3d 65fd 3ebe 4793 acbd bae2 ed3d
00000310: a08b 203e 5657 dbbd e656 20be a699 0abe
00000320: 6935 abbd 1727 2fbe c15b cbbd 143d 39be
00000330: c539 323d 6e3f b4bd c4aa fbbd f1e4 cc3d
00000340: 180e 21be a3d8 d63d 793d bbbb 2805 ab3d
00000350: 7cb6 323e 43ab f2bd e21e 083e d77e f63d
00000360: 6a0c 02be b529 223c 7ff3 18be ba42 4b3d
00000370: 713a 5e3e 12cb 0e3e 05dd 613d 5fa5 2ebd
00000380: 173b fb3d 4fc5 1fbe fbc0 cb3d 7101 5bbe
00000390: 97f5 50be f432 27be dd03 b8bc c5e7 773c
000003a0: 111c 8ebc cd96 36be 42ea 153e 6abb 57be
000003b0: 6b16 303e 9010 b8bd 89f1 4abe edd9 9ebb
000003c0: 7090 1cbd 79fc d03d 3476 f13d f183 d63d
000003d0: 073f a43d 7c11 de3d d353 0a3d f62b 4ebe
000003e0: fef1 023e b002 3bbe 628a 26be 21d6 19be
000003f0: 7965 d13c 84df 4cbe c0e2 173e 7510 bf3d
0.04580501 0.062944375 -0.065995246 -0.17348583 0.007504704 0.14856406 -0.107070096 -0.051108364
-0.14727677 -0.2094026 -0.13315614 0.07378745 0.14828439 0.12268745 -0.07585105 0.10804314
-0.024399804 -0.009965047 -0.07051764 0.17493005 0.018376313 -0.07025567 0.13483375 0.11771645
0.13076296 -0.14474668 0.1299852 -0.06156946 -0.043572478 0.058180463 0.1585157 0.16124693
0.13209662 0.039440494 0.0098060295 0.13983987 -0.010700864 0.16013858 0.19701435 -0.04230581
0.100947976 -0.091922455 -0.012538014 0.046099268 0.023169952 -0.069458544 0.11756308 0.06734037
0.19704469 0.17286211 0.014137382 0.15560557 0.1965986 0.1263756 0.080980636 0.1142578
0.1809109 -0.16842383 -0.19046925 0.019584393 0.13189492 -0.00082440453 -0.021794839 0.032462608
-0.13168623 -0.16244191 -0.20335749 0.14913082 -0.18371303 -0.17372693 0.19134039 0.05617664
-0.1116586 -0.17608386 -0.12570372 -0.046641573 0.054132238 0.138831 0.08429677 -0.16995667
-0.09003614 0.18005653 0.032276396 0.1962663 -0.13208032 -0.18526347 -0.012915211 0.19685268
0.10136379 0.041109055 0.16849786 -0.14912212 0.20001306 0.09843774 -0.15624385 0.041704923
0.0534924 0.09895686 0.10949332 0.21122468 -0.17002255 0.0044122683 0.12919974 -0.08699697
-0.0025442136 0.1587319 -0.15480576 -0.14956562 0.09477854 0.11877968 -0.20086978 -0.06860223
-0.21592239 0.14685802 0.046606768 0.19099857 0.118337795 0.011358707 -0.1492586 -0.19092521
-0.08691631 0.1355793 0.10348353 0.13609654 0.06611392 0.024790956 0.040263277 0.15657702
-0.07666324 -0.11484531 -0.041855678 0.0045934403 -0.04499651 0.05249856 -0.07996408 0.12683201
-0.01519718 -0.02512606 -0.1979322 -0.120657206 0.11552538 0.061399404 -0.14564398 0.13666883
-0.12044155 0.047273587 -0.067413785 -0.10828191 0.19279805 0.08545406 -0.07477408 0.14752898
0.06312432 0.21130535 -0.18683577 0.21324714 -0.041461825 0.032415118 0.12457538 -0.090015784
0.039210554 0.14300549 0.0073437863 0.097117916 -0.033584587 -0.15739459 0.08161886 -0.14418131
0.20597431 0.0018334524 0.0903302 -0.17094424 -0.12122528 0.044346526 -0.015879877 0.12801956
-0.03869059 0.119316354 0.17135555 0.07469955 -0.1252216 -0.20021248 -0.09296972 -0.16237342
0.00507895 0.007913357 -0.15966211 -0.15522452 0.2104824 0.107017204 -0.04078771 0.13826486
0.06826666 -0.1865135 -0.084265284 0.1161551 0.15678263 -0.107100174 -0.15658149 -0.13535175
-0.083597966 -0.17104755 -0.0992961 -0.18089706 0.043512125 -0.08801161 -0.1228843 0.100046046
-0.15728033 0.10490539 -0.005714115 0.08350593 0.17452425 -0.11849072 0.13293031 0.120359115
-0.12700048 0.009897639 -0.14936636 0.049624182 0.21701981 0.13944653 0.05514242 -0.04263818
0.1226713 -0.15602611 0.099489175 -0.21387269 -0.20406185 -0.16328031 -0.02246278 0.015130942
-0.017347367 -0.17830963 0.14640144 -0.21067587 0.17196052 -0.08987534 -0.19818701 -0.004847756
-0.038223684 0.10204405 0.117901236 0.104743846 0.08019834 0.10843179 0.033771347 -0.20133957
0.12787625 -0.18262744 -0.16263726 -0.1502309 0.025561081 -0.2000714 0.14832592 0.09329311

actor.fc2.weight f4 [128, 256]
00000000: abe3 513d 779f 683c e2d7 f93c a551 633d
00000010: e4f5 003a 6f19 363d ff59 78bd 3cf1 763d
00000020: 3e73 7bbd ed5b 1d3c 7c37 3c3c 2e06 1f3d
00000030: 2371 2dbd b74d 1e3d e5ed 683a 06f4 4a3d
00000040: 9477 803d 5ea6 59bc 3200 b43c 95db d6bc
00000050: ed7b 84bc 9653 643c 304a 34bd d575 313c
00000060: f96b f63c 397e 1a3d 556d 7b3d fd28 66bd
00000070: 32d1 e73a 1168 6aba 468a c73b 29a4 7ebc
00000080: a45d d73c 9016 89bc 0360 51bd b56c d33c
00000090: 133d 183d d641 223d 242c babc 4e5a 293d
000000a0: 8b50 293d 06d3 643d fe5a f63c 64ea 4f3d
000000b0: 41cc bb3c 5586 01bd a6b2 283b 3fe5 c5bc
000000c0: c90b f83c 18f3 523d cda3 3fbd d421 2cbc
000000d0: 47eb 463d f001 62bd ef2d db3c 0499 7abb
000000e0: 799b ccbc c3e0 2bbd 8987 a2bc 8487 3bbd
000000f0: cee3 febc 61e0 12bd 94fb 1ebd 88f5 f6bc
00000100: 6d65 723d 94b7 163d 66c3 76bd 3d8d f43c
00000110: 119e 4b3d fbe1 033d cc96 e83b a893 68bd
00000120: daf8 11bd ee48 f33c 38c6 513d aba5 f2bc
00000130: 8c5a 6c3b 61dd 373d dd72 fabc 3de2 72bd
00000140: 4b0d 213d 48ef e5bc abbc 71bd 52c9 323d
00000150: d794 143c 7a94 1fbd 7057 71bd f0a3 e4bc
00000160: 00fe c9bc 62a7 1f3d f828 3fbd 0283 563d
00000170: 3d74 cdbb 482d 603d 3b0a 64bd 81ab 163d
00000180: f016 21bd da6f 0a3d 0178 a93c 6a45 76bc
00000190: 07ed fb3c ece6 4b3d b486 2d3d fa02 70bb
000001a0: a96c 4cbd 4b6f b93b a8b0 98bc 04b0 a4bb
000001b0: 5d73 583d b654 34bd d16c 0dbd d1df 8d3c
000001c0: e747 e4bc b70a 3bbd 88c1 d63c 9d35 b3bc
000001d0: 1f70 6ebd c21e 94bb 38d3 743d 8569 5dbc
000001e0: ae9c 6e3d 9cd1 44bd c78e 81bc cdc5 b63c
000001f0: 54b0 b6ba fd20 1b3d c15d f0bc cfaf 65bd
00000200: 6c21 dbbc 6826 4ebd d15a adbc ce03 b5bb
00000210: 8dd6 38bd f689 e0bc 6cb7 18bd ecd1 edbb
00000220: b316 40bc e26a 4ebd 3406 0f3d 3299 8b3c
00000230: d4a4 d7bb 3564 bf3c 8c02 00bd a451 d5bc
00000240: 7b3d 073c 5972 073d 7a88 ef3c b707 053d
00000250: 6233 56bd 8106 23bd 006b 90bc 81c6 353d
00000260: 0dbb 713d 4cd2 633d c50c 30bd 0c7d 463d
00000270: 024b 36bd 9388 7a3d 9225 edbc 7c09 513d
00000280: 7bb1 803d 365a b53c 848a 763c b958 b73c
00000290: f59e 13bd 993f 13bd c642 c5ba 8ef3 723c
000002a0: 55ff 07bd 9e0e d3bc a6a2 323d b663 883a
000002b0: 0f13 ce3c 5cb9 733c 0ece ce3c 8d67 f23c
000002c0: d134 323c 654a 7e3d 50dd 973c 77c5 b93c
000002d0: 7168 f9bc 58ab 62bc 881f 5e3d 43de bb3c
000002e0: a52c 943c 7084 333c c080 e43b 0b56 fd3c
000002f0: f4da 3e3d 96d2 7b3d c03e be38 d63b e13c
00000300: d6eb fbbc 14a1 453c c0cd 473b 1d35 87bc
00000310: aee2 a3bb f2a7 8cbc 7270 6dbc 1d3f 6e3d
00000320: 44f0 44bd 7746 5f3d 9817 fdbc 3d84 e7bc
00000330: 865a 46bc 27f2 f0bc c107 7b3d a141 653d
00000340: 06d0 163d 6d32 2fbd 05b8 41bd 07e3 863c
00000350: 03fa 603c d348 61bb e779 df3c ac0e 7abc
00000360: 8c2c 5d3d d16f da3b 678a c7bc e077 5f3d
00000370: 25ec 833b 4265 7c3d 0c07 04bb bd97 5e3c
00000380: cdef e3ba a667 7e3d a9ac c93c 7344 483d
00000390: f5b0 57bd 2663 0fbd d400 ebbb 1a5d b23c
000003a0: b709 12bd 8988 4b3d f553 933c 324c 5ebc
000003b0: daed 463d 90ca cb3c 9ae1 22bd 628c 18bd
000003c0: 87ab 153c 472a 733d 9936 72bd fe40 363d
000003d0: cea1 2ebd 45ff 353d f03f c4ba dee8 c73a
000003e0: 5cd9 043d 2875 7abc fee5 57bc 6bf2 163d
000003f0: 094e 183d fb84 19bc 6ee8 0e3d 27d5 083d
0.05124251 0.014198176 0.030498449 0.055497784 0.0004919453 0.04445785 -0.060632702 0.060288653
-0.0613892 0.009604436 0.011487838 0.038824253 -0.042344224 0.038648333 0.00088855467 0.049549125
0.06272808 -0.013284294 0.02197275 -0.026227752 -0.016172374 0.013935944 -0.044016063 0.010831316
0.030080782 0.03771803 0.061383564 -0.056191433 0.0017686246 -0.00089418987 0.0060894815 -0.0155420685
0.026289769 -0.016734391 -0.051116955 0.025808671 0.03716762 0.039613567 -0.022726126 0.041345887
0.041336577 0.05586531 0.030072685 0.05076064 0.022924544 -0.03162225 0.0025741248 -0.024157165
0.030279057 0.051501364 -0.046787072 -0.010506112 0.04856422 -0.05517763 0.026755301 -0.0038238177
-0.024976479 -0.041962396 -0.019840019 -0.045783535 -0.031114485 -0.035858516 -0.038814142 -0.030146375
0.05917876 0.036796167 -0.06024494 0.029852504 0.04971129 0.032197934 0.0070980545 -0.05678144
-0.035637714 0.029697862 0.051214427 -0.029620012 0.0036064712 0.044888858 -0.03057235 -0.05929779
0.039319318 -0.0280682 -0.05901782 0.043649025 0.009068689 -0.038959958 -0.058921278 -0.027910203
-0.02465725 0.038977988 -0.04666993 0.052371033 -0.00626996 0.054730684 -0.05567382 0.036784653
-0.039328516 0.033798076 0.020687105 -0.015031198 0.030752672 0.04978077 0.04236479 -0.0036622868
-0.049908314 0.005659019 -0.018638924 -0.0050258655 0.052844394 -0.0440261 -0.034527604 0.017318638
-0.027866317 -0.045664515 0.02621533 -0.02187615 -0.058212396 -0.004520268 0.059771746 -0.013513927
0.05825489 -0.04805146 -0.015815152 0.022311116 -0.0013938048 0.037873257 -0.02934158 -0.056075867
-0.026749335 -0.050329596 -0.021161469 -0.005524135 -0.045126487 -0.027409535 -0.0372843 -0.0072576907
-0.011724162 -0.0503949 0.034918025 0.017040823 -0.0065809283 0.023363212 -0.03125243 -0.026039906
0.008254404 0.033068035 0.029239882 0.03247806 -0.052295096 -0.039801124 -0.017629147 0.04437876
0.059016276 0.055620477 -0.042980928 0.048459098 -0.044505127 0.061165404 -0.028948579 0.051034436
0.06283852 0.022137742 0.015047673 0.022381173 -0.036040265 -0.035949323 -0.0015049807 0.014828576
-0.033202488 -0.025763806 0.043612145 0.0010405693 0.025155572 0.014875736 0.025244739 0.029590392
0.01087685 0.062082667 0.018538147 0.022677166 -0.03044531 -0.013834797 0.05422929 0.022933131
0.018087694 0.0109568685 0.006973356 0.030924818 0.04659553 0.061480127 9.071594e-05 0.027494352
-0.030752104 0.01206233 0.0030487627 -0.016504819 -0.0050013876 -0.017169926 -0.014492141 0.05816566
-0.048080698 0.05451056 -0.03089504 -0.028261298 -0.012106543 -0.029412342 0.06128669 0.05597079
0.03681948 -0.0427727 -0.047294635 0.016465677 0.013731482 -0.0034375682 0.027279807 -0.015262287
0.05399756 0.0066661616 -0.024357988 0.05455768 0.0040259534 0.061620004 -0.0020145802 0.013585982
-0.0017390192 0.062110566 0.024618464 0.048893403 -0.052658994 -0.035006665 -0.0071717296 0.02177291
-0.035653796 0.049690757 0.01798437 -0.013567971 0.048566677 0.024876863 -0.03976593 -0.037243254
0.009135134 0.05936649 -0.0591341 0.044495575 -0.042634778 0.044432897 -0.0014972668 0.0015251895
0.032433853 -0.015286721 -0.013177393 0.03685228 0.037183795 -0.009370084 0.03488963 0.033406403

actor.fc2.bias f4 [128]
00000000: c472 863c b93b 43bc 4d37 7cbc 9729 58bd
00000010: 5771 5bbc 107f 2d3c 179e f73c c50a 963c
00000020: a7e4 2dbd 20f2 c53c a373 47bd 40b1 2eb8
00000030: 577e af3c ac11 033d e021 323d e430 90bc
00000040: c440 14bc 48ae d4bc 8a3e 123c 7d41 023d
00000050: 6e7f 1cbc 0087 0939 8365 6a3d 8a0b 7bbd
00000060: 595c c5bc 3e7c 3e3d afcc a73c 79db f83c
00000070: a4c3 82bc 8170 a8bc 1b78 483d 8203 9f3c
00000080: c2a1 383d a050 7bbd e4dc 4abb 8b6d 203c
00000090: 71a2 5d3c c98f e93c d8e1 e83c e729 0cbd
000000a0: 5d5e 1cbd 2ba1 ab3b c21a cab9 8712 16bc
000000b0: 2928 68bd c362 313c 52e6 723c 3736 cabc
000000c0: f751 a0bc f353 c63c 0456 6cbd f2ab 62bd
000000d0: a452 07bd 14ab 6e3d ba6c 2fbd 2744 683d
000000e0: c0b9 7abd fcfd ff3c 1832 613b 7585 7f3d
000000f0: 692e 52bd 4c3f 23bc 698c 873c 19e1 17bd
00000100: 99a5 523d 8cab 16bb 0a52 063d f83c e03c
00000110: 91b6 44bd 371e 293d 6db0 083d 098b d33c
00000120: a15f 9f3c 322b 60bb f3d0 ffbc f210 1b3d
00000130: 9716 393c 4e79 dbbb ebe6 273d 5958 5a3d
00000140: defc 2a3b 5c13 393b 0fd6 393d 4b54 0b3a
00000150: 1009 e03c b3da 473d 7bba ff3c f65b 06bb
00000160: a55b 493d 14ec 6cbd 0073 e0bc a242 e23c
00000170: ba28 c8bb 225a cdbc d8ff 23bd 3b0e 483d
00000180: 0ed2 533d 08da 043d c600 d43c da31 2fbd
00000190: 91da 0fbd 6adb b33c 1afc fb3c 3012 b3bb
000001a0: 9acb e63c a106 963c 7592 4abd 8714 273d
000001b0: 1c32 983c dbfa 68bd f4de 39bc 6811 b23c
000001c0: 510a 32bd c8e3 d5bb bf27 1dbc 7796 9c3c
000001d0: c7ff c13c a2ea 32bc 086a dcbb 6704 6cbd
000001e0: 69a5 403d 8d50 d9bc f73e 803d ef15 4a3d
000001f0: 3ee8 183d 1bf4 373d b532 81bc 7a99 4a3c
0.016412146 -0.011916094 -0.015394044 -0.05277404 -0.013393722 0.010589376 0.03022675 0.018315682
-0.042454388 0.024163306 -0.048694264 -4.164991e-05 0.021422548 0.031999275 0.043489337 -0.017601438
-0.009048644 -0.02596201 0.008926043 0.031800736 -0.009551866 0.0001311563 0.057225715 -0.0612903
-0.024091886 0.046505205 0.020483343 0.03037809 -0.01596243 -0.020561459 0.048942667 0.019410852
0.04507614 -0.061356187 -0.0030954415 0.009791742 0.013527499 0.028510945 0.028428003 -0.03421965
-0.03817593 0.0052377186 -0.00038548379 -0.009159691 -0.056678925 0.010826769 0.01482542 -0.024684055
-0.019570334 0.024209952 -0.05769922 -0.05533976 -0.033037797 0.05826862 -0.0428283 0.05670562
-0.0612123 0.031249039 0.0034362134 0.062383134 -0.05131379 -0.009963822 0.016546445 -0.037079904
0.051427457 -0.0022990433 0.032793082 0.027372822 -0.04802567 0.04128858 0.033371378 0.025823133
0.01945478 -0.0034205434 -0.031227564 0.037857957 0.01129689 -0.0066978103 0.040991705 0.05330691
0.0026090662 0.00282403 0.045370158 0.000531499 0.027348071 0.048792552 0.03121685 -0.002050159
0.049159665 -0.05784233 -0.027398586 0.027619664 -0.0061083706 -0.025067393 -0.040038913 0.048841696
0.051713996 0.032434493 0.025879275 -0.04277215 -0.03512055 0.02195521 0.03075986 -0.0054648146
0.028173257 0.018313708 -0.04945608 0.04079106 0.018578582 -0.05687986 -0.01134466 0.021736816
-0.04346687 -0.006527398 -0.009591996 0.019114716 0.023681534 -0.010920199 -0.006726507 -0.057621386
0.047032747 -0.026527667 0.062620096 0.049337324 0.03733086 0.04491053 -0.01577125 0.012365693

actor.policy_head.weight f4 [50, 128]
00000000: e2f6 99bd a6a8 683d 0dbb 5b3d 9cd4 543d
00000010: 7d32 9dbd e306 433d 0ac7 433d 9fb4 f13c
00000020: a73b 433d 180e a83d 9b63 2dbc cdd5 6c3d
00000030: ef86 933c 914c 8abd 7606 c3bc 2095 92bd
00000040: ee7e b4bd 181e ab3c c93e 0f3d 1172 613d
00000050: 95b7 e8bc 9797 853d 579a 123b e725 443d
00000060: 03de aebd fd3c 16bd 9aa4 613d 4872 d5bb
00000070: 35c8 f63c aa13 9f3d 3bfa ad3d d120 a03d
00000080: 3dad 9e3d 2bf7 ad3c c677 e03c da69 0d3c
00000090: 9908 4ebd b1b7 393d 7630 84bd 53c3 16bd
000000a0: 8cc7 00bd 9b29 2a3d 59e2 633d 3baa d53c
000000b0: 933e e33c 71b4 38bd c2bc 2f3d e231 4e3d
000000c0: ed38 8d3d beeb fb3c 761b 7fbb 96f8 023d
000000d0: c974 7ebd 0404 afbd 83b9 c03c c15e bf3c
000000e0: 1e70 963b bff5 87bc 1d9e 3c3d 40a4 443d
000000f0: b003 93bd 5c27 16bd 3bd8 cabb c282 a8bd
00000100: 0cf1 af3a ec18 61bc 36a8 22bd 81ff 49bd
00000110: a11c a23d b7bd 593d 77ce bebc 8311 23bd
00000120: 7fd3 8f3d 58a7 7bbd 4adf 88bd 4404 953d
00000130: 154e 353d 8cf3 2e3a 6451 903d aab5 89bc
00000140: d72c 9e3d 3395 54bd e9d1 7e3d 80c4 9d3b
00000150: 898e babc 2fe5 4a3c 62cc 9c3d e27d a7bd
00000160: e552 ba3c 4425 a63d fcc4 95bd dde7 473d
00000170: 056f 6cbd f9c2 30bd fc29 a73c e372 fb3c
00000180: 2723 6c3b 4741 3dbd d6d7 833d 48af 973d
00000190: 5469 943d cccf 4bbd 5ea1 703d 1f25 413c
000001a0: e1f2 4cbd 847b 0a3c 98d7 873d a225 923d
000001b0: 88c1 8c3d cebb 2ebd 38a5 a3bd 8ca9 943d
000001c0: 2698 83bc 67e5 6dbd ffa0 2f3d f27c 7dbd
000001d0: 0cf9 8fbd 5728 433d 4f34 14bb 3ca5 08bd
000001e0: 4077 2c3d 6874 68bd 1626 2ebd b5b4 91bc
000001f0: 1754 cdbc 449f 903d 327b ac3d bf2e b2bd
00000200: 203e b03d aea0 5b3d 4ae7 203d 16f4 8bbc
00000210: 29e8 853d ead3 93bd b6a5 8f3d 17f2 12bd
00000220: 81f8 96bd 131e 4f3d 7df7 a5bd d0e8 a6bc
00000230: 1774 2dbc 4438 493d d98d 8b3d b953 7bbd
00000240: af9f 1d3d cb3f 1bbd 5fd7 22bc 60e9 cd3c
00000250: 3d38 b8bc f362 253c c719 933c 2417 93bd
00000260: fab1 8bbd 6d59 f83a 09ea 98bd a13e a6bd
00000270: b15a 7bbd 80c5 93bd 6ac2 063d c809 f5bc
00000280: fbfb 9e3d 8565 903d 12c0 08bc 32ba 013d
00000290: 0689 253d e693 683d 8f9e 94bd 6179 0d3c
000002a0: 66fc 293d 6e8d bbbc 9af8 4b3d a3c9 fabb
000002b0: aa03 953c ab18 33bd 16e0 263c e0ad 9bbd
000002c0: 8341 a5bd 3d28 85bd 0926 33bd 8cea 203d
000002d0: 1c20 ebbc 3e45 77bd 1590 9fbc ba12 90bb
000002e0: a473 8b3b e53b a73d 3a2a 9cbc e57a 65bd
000002f0: e378 953c 882c ad3d 4558 a23c 6e11 0c3d
00000300: f35c 7f3d 2fd5 9d3d 0051 92bd 362c 97bd
00000310: 10eb 38bd b5a9 7fbd d4b6 3138 24ae 7f3c
00000320: b5ff 383d a4ff 31bb 2b2a 313d 9785 97bd
00000330: 794b 773d 6112 973d a724 c0bb ab14 923c
00000340: 6bc7 98bd 9c78 88bd 6f61 b7bc 0829 1c3d
00000350: 78a6 9d3d 1447 5cbd 8ed9 cb3c b7a2 70bc
00000360: 6cf0 27bd e725 693d f8c6 393d c9f9 5ebd
00000370: 6dd7 b73c 3e5e 9ebd 0419 513d efb4 8d3c
00000380: e49b 19bd ae83 8fbd 45dc d5bb 0264 2a3d
00000390: ce06 dcbc 3841 3cbd 68dc a13d cfff 2e3d
000003a0: 4a3e 8ebd 86ae 22ba cbe8 373d 41dc 84bd
000003b0: 2acc 20bd 0c36 63bc c3ba 69bc f2f7 6ebb
000003c0: 05e4 393c aa04 0c3d 1a3d 193d 963d 5dbd
000003d0: 15cb cdbc 66df ac3d cf3d 203d e112 a0bd
000003e0: 225e cf3c 636d 18bd 43cd b2bc eb81 473d
000003f0: c0f6 913d 56a6 acbd 870a 87bc 6a80 853d
-0.07517792 0.05680146 0.053645182 0.051960573 -0.076756455 0.04761399 0.04779724 0.029505072
0.04766431 0.08205813 -0.01058283 0.057821084 0.018008677 -0.06752885 -0.023806792 -0.071573496
-0.088132724 0.020888373 0.034971986 0.055040423 -0.028407851 0.06523054 0.0022369826 0.04788771
-0.08538439 -0.036679257 0.055088617 -0.0065138675 0.030124763 0.077674225 0.08494993 0.07818759
0.07747886 0.021236023 0.027400862 0.008631194 -0.050301168 0.045341197 -0.06454556 -0.03680737
-0.031440303 0.041543584 0.055635784 0.026082149 0.027739799 -0.045093957 0.042904623 0.05034054
0.06895623 0.03075206 -0.003892628 0.03197535 -0.062123094 -0.08545688 0.023525959 0.023360612
0.004591002 -0.016596673 0.046049226 0.048008204 -0.07178438 -0.03665863 -0.0061903275 -0.08228065
0.0013423278 -0.013738852 -0.0397112 -0.049315933 0.07915617 0.05315944 -0.02329181 -0.039811622
0.070227616 -0.06143889 -0.06683214 0.07276204 0.044263918 0.00066738646 0.07046774 -0.016810257
0.07723396 -0.0519001 0.062211905 0.0048146844 -0.022773044 0.012383743 0.076561704 -0.08178307
0.022744605 0.081125766 -0.073129624 0.048805106 -0.057723064 -0.04315469 0.020405762 0.03069443
0.0036031695 -0.04620483 0.06437652 0.07406479 0.07246652 -0.049758717 0.05874764 0.0117886355
-0.050036315 0.0084523 0.06632918 0.07136084 0.06872851 -0.042659573 -0.07990497 0.07258901
-0.016063761 -0.058080103 0.042878147 -0.061886735 -0.07029924 0.047645893 -0.0022614186 -0.033360705
0.042105913 -0.05675164 -0.04251679 -0.017786363 -0.025064511 0.070616275 0.08421935 -0.08700322
0.086055994 0.053620033 0.039283074 -0.017084163 0.06538422 -0.07218154 0.07014029 -0.035875406
-0.07371617 0.05056579 -0.08103845 -0.020374686 -0.01058676 0.049125925 0.06814165 -0.06135914
0.038482364 -0.037902635 -0.009939044 0.025135696 -0.022487754 0.010094392 0.017956628 -0.07182148
-0.06821056 0.0018947549 -0.07466514 -0.08117414 -0.061365787 -0.072154045 0.03290025 -0.02991189
0.07762905 0.07050613 -0.008346574 0.03167171 0.04041388 0.056781672 -0.07256805 0.008634896
0.04150047 -0.022894587 0.04979763 -0.0076534315 0.018190224 -0.043724697 0.010185262 -0.076015234
-0.08069136 -0.065018155 -0.043737445 0.03928618 -0.028701834 -0.06036877 -0.019477883 -0.0043967636
0.004255729 0.08165721 -0.019063104 -0.056025404 0.01824612 0.08455759 0.01981748 0.03419631
0.062344503 0.07706677 -0.07144356 -0.073814794 -0.045146048 -0.062417705 4.237036e-05 0.015605483
0.045165736 -0.002716043 0.043253105 -0.07398527 0.06037471 0.073765524 -0.0058637443 0.01783212
-0.07459911 -0.066636294 -0.022385327 0.038125068 0.07697767 -0.053778723 0.024884012 -0.014687232
-0.04100077 0.056920912 0.045355767 -0.054437432 0.02244159 -0.07732819 0.051049247 0.01729819
-0.037502185 -0.07007538 -0.0065265023 0.04159928 -0.026858713 -0.045960635 0.07903367 0.042724427
-0.069454744 -0.00062058156 0.044899743 -0.064873226 -0.039257206 -0.013867866 -0.014265719 -0.0036463705
0.011345868 0.034184135 0.037411787 -0.05401381 -0.025121251 0.08441047 0.039121445 -0.07816101
0.02531344 -0.037213694 -0.021826392 0.048707884 0.07127142 -0.084301636 -0.016484512 0.06518634

actor.policy_head.bias f4 [50]
00000000: dc26 333c 8c6f 10bd 51a6 a43d 8981 a8bc
00000010: fd88 5a3d b1fe a03d 9426 3a3b 742e 11bc
00000020: 1b5b fe3c 3bcc 893c 808d 023d c8b1 9b3c
00000030: f6bf d03c 68e9 553d bcf4 24bd e6b4 713b
00000040: 1c0c 713d 2f1d 34bd 0386 a73c 246f e0bc
00000050: b547 9dbd d51a 60bd 795f 4f3d 307b 943d
00000060: 3f8d 58bd 775c 33bd 75b4 14bd 6444 963d
00000070: b0ee 313d b4c2 923d 58a3 443c ab48 b43d
00000080: 12eb e1bc b616 9bbc 5114 ae3d 8e71 ebbc
00000090: f8be a83c a873 393b c2d4 9fbd 57be 5fbb
000000a0: 39c1 aabc 0878 d83c 4653 1fbd 4731 55bd
000000b0: 60c0 b43b 57bd 8abd d1eb b3bd ac55 4c3d
000000c0: 3e0d ca3c 92eb 993d
0.010934558 -0.03526263 0.08039535 -0.02056958 0.0533533 0.078610785 0.0028404342 -0.008861173
0.031049302 0.016821017 0.031873226 0.019005671 0.02548216 0.052224547 -0.04027246 0.0036881506
0.05884944 -0.043973144 0.020449644 -0.027396746 -0.07679693 -0.05471309 0.05062816 0.07250059
-0.052869078 -0.043789353 -0.03630491 0.07337263 0.04344052 0.07166043 0.012001835 0.08802923
-0.02757791 -0.018931728 0.08499969 -0.02874067 0.020598873 0.0028297696 -0.07804252 -0.003414055
-0.020844089 0.026424423 -0.038897775 -0.052048948 0.005516097 -0.06774395 -0.08785213 0.04988639
0.024664517 0.075156346

critic.fc1.weight f4 [256, 21]
00000000: 1c03 063d 21e1 433e 3f61 043d 9283 00bd
00000010: 1529 abbd 7e93 c83c fd0c a6bc 0523 49be
00000020: 929a 1d3e 156d 11be 9b0b 9bbd 33cf 253c
00000030: bd0c a3bd b6c7 0cbd bdcb 21be f056 4b3e
00000040: 9fe5 50be 0d87 48be 9f12 083e 9e0e ef3d
00000050: e7f9 c83d 17df 1cbd e24a e5bc 7cfe 053d
00000060: 0ae0 333a 975c 2fbe 7b6b ecbc 74e5 9d3d
00000070: 4960 4c3d 5579 bc3d af03 babd 905f f4bd
00000080: 7aa0 423e afba 39bd 966d bdbd ecfe f8bd
00000090: a01f 56be 46f2 563e d0fd 293e ce04 bbbd
000000a0: 20b8 9abd 37d4 083e 429b 31be 4472 3c3e
000000b0: c4c6 e5bd 5aa7 443e 410b 9abd 5659 32bc
000000c0: d87e 713d f973 f23c d975 fdbc 0c6d 7d3c
000000d0: 541f f53d dbac 963d d9a6 c7bc 1a3a 403e
000000e0: 7748 e83c 7e36 f3bd c2dd 453d 8a64 f63d
000000f0: 5e89 513e 2134 0abe 3578 3a3d 5cb5 073e
00000100: 46b3 45be 13f3 cdbd 6d69 d0bd bdf5 843d
00000110: f5eb 5ebe 84e0 25be f93a 4bbe 5f8e c5bd
00000120: 31df 3d3e b068 e3bd b8fd 09bd 18c3 5e3e
00000130: add2 4bbe d98a 39be 7451 f33d d0b1 93bd
00000140: 43e3 6e3d 56fa 4ebd 92f8 c33c 60eb cbbc
00000150: f8e2 e33d e14b ef3d f2cf 4cbe fe8e 373d
00000160: ec89 cfbd f61d 2a3e 7836 323e 79d7 183e
00000170: f6af 8bbc 7655 cbbd 06e7 d5bd efdc 3b3e
00000180: d14a d9bd 280b ca3a 7aad f3bb 7fd4 103e
00000190: f917 13bc 6b95 033e dd95 863d 6118 f73d
000001a0: 73f7 2abe c1a2 823d 2e04 a0bc 7ef6 3cbe
000001b0: 0841 723d 2c8c 13be 7823 263e 2c22 363e
000001c0: 9cf4 71bd 44d2 b33d bc58 28be ddb8 9a3d
000001d0: 2c7f 08be 9187 163e 7cbe 96bd c3bf c6bd
000001e0: 7173 58be 6074 94bc fefa 01bd da31 44be
000001f0: ed1b 2e3e 1ba3 2abe 1408 1cbe 75e8 1d3e
00000200: e862 a83d 1171 b3bd 561e 49be ca68 db3d
00000210: 377f d33d 3d5d 9cbc 4ccc 1dbe e917 363e
00000220: 67b5 fbbd a884 1cbe 57d5 c5bd ab42 5e3e
00000230: f71a 1e3c 6289 df3d f60c b23b 3a21 f93b
00000240: ab91 4c3e d2fd b13d 7ecd fdbd f528 49be
00000250: f396 233e e965 2bbd 5d30 5c3e c821 09be
00000260: be6a c5bc 77ef 283d df9f 143e a471 ad3c
00000270: 680d 4f3e eaac 92bd 9e79 223e 34d3 b93b
00000280: 330b 4f3d b1ad 473e 61f5 5d3e 496f f0bd
00000290: 8d81 40bd 54fe 46be e8d0 b33d 1a8d 0bbe
000002a0: 256e 5cbe f570 9dbd 009e 90bd bb10 11be
000002b0: ea6c 26be b8e5 593e fcab 5ebe a19b 19bd
000002c0: 6da0 05be e4ca 41be 77c1 cc3d 04c9 cc3d
000002d0: 38a3 80bd eb6a 9c3d 2dec 5f3e 3e10 5a3e
000002e0: ec8b 823d b499 e7bd 5f6a 253e 7e82 35be
000002f0: a12c 88bd 681a 36be 627b a33d 6a3e 10be
00000300: 327a 5abe 4698 a43d e8bb 51be 19a8 b23d
00000310: 6583 20be af51 563e 68b7 543e f20e f2bd
00000320: 8297 a03d 491a 0bbe f3c8 1b3d 3fb9 a8bd
00000330: f0b7 56be 59dc 203e b29a 333e ecfa 2bbe
00000340: ae64 cdbc b155 8f3d 08ee 133d 1aac 6a3d
00000350: 3cf9 7d3c 485d 0e3d 1c9f 3cbe b233 163e
00000360: 9919 df3d 0927 d13d 1686 423e 43cc 2cbe
00000370: ddfc 47be b445 083e a9db 493e 3f2c 6b3d
00000380: 0ce8 ba3c 2f70 50be e64e a43d 9d14 1cbe
00000390: d06e 54be 20d9 5bbe 03d1 04be 2dc9 273d
000003a0: f83e dbbd fad4 33bc dd4e 363c 2cb1 45bd
000003b0: 0b4a 3dbd 1846 cc3d 55d6 2fbd 4400 ca3c
000003c0: 4824 18be 08ea 4ebe e10d d63d 2b2e 453e
000003d0: ce71 19bd cd0c 123e 78f6 393d c0a8 3d3d
000003e0: 156e f8bd e0f8 47bd 4623 8dbd f6ed 54bc
000003f0: 4397 2f3e 8228 01be 85ff 153c f9df f93c
0.03271781 0.19128849 0.032319304 -0.031375475 -0.08357445 0.024484392 -0.020269865 -0.19642265
0.15390995 -0.14201768 -0.07570573 0.010120201 -0.07961414 -0.034370147 -0.15800376 0.19857383
-0.20400093 -0.19582768 0.13288353 0.1167271 0.0981329 -0.038298693 -0.027989808 0.0327134
0.00068616925 -0.17125164 -0.028859844 0.0770978 0.049896512 0.0920283 -0.09082734 -0.119322896
0.1900653 -0.04534405 -0.092494175 -0.121579975 -0.20910501 0.20990857 0.16600728 -0.09131776
-0.0755465 0.13362204 -0.17344382 0.18402964 -0.11219552 0.19204465 -0.07521678 -0.010885557
0.05895886 0.029596316 -0.030939983 0.015467893 0.11968866 0.07357188 -0.024371551 0.18772164
0.028354866 -0.11875628 0.048307188 0.12030895 0.20462558 -0.13496448 0.045524795 0.13252777
-0.19306669 -0.10056128 -0.10176358 0.06492183 -0.21769698 -0.16198927 -0.19846715 -0.09646296
0.18542172 -0.11103952 -0.03368923 0.2175411 -0.19904585 -0.18119372 0.1188077 -0.072116494
0.058322202 -0.050531708 0.023922238 -0.024892509 0.11127275 0.11684395 -0.200012 0.044814102
-0.101337284 0.16612992 0.1740359 0.14925946 -0.017051678 -0.0992841 -0.10444455 0.18345998
-0.10609973 0.0015414702 -0.0074364515 0.14143561 -0.0089778835 0.12849967 0.06571553 0.12065197
-0.16695957 0.06378699 -0.019533243 -0.18453404 0.05914405 -0.1440894 0.16224468 0.17786473
-0.05907117 0.08780339 -0.164401 0.07554791 -0.13329762 0.14700152 -0.07360551 -0.097045444
-0.21137787 -0.018121898 -0.031733505 -0.19159642 0.1700284 -0.16663782 -0.15237457 0.15420707
0.0822199 -0.087618 -0.19640478 0.10713346 0.10326999 -0.019087428 -0.15409964 0.17782559
-0.12290459 -0.1528498 -0.09659832 0.2170512 0.009649984 0.109148756 0.005433674 0.007602838
0.19977443 0.086909905 -0.1239271 -0.1964453 0.15975551 -0.041845236 0.21502824 -0.13391793
-0.02409875 0.041243996 0.14514111 0.021172352 0.20219958 -0.07161887 0.15866706 0.0056709293
0.05054779 0.19499852 0.21675636 -0.11739976 -0.04699855 -0.19432956 0.0878008 -0.13628045
-0.21526392 -0.076875605 -0.07061386 -0.14166538 -0.16252485 0.21279037 -0.21745294 -0.037501935
-0.13049479 -0.18925053 0.09997838 0.09999278 -0.062811315 0.076375805 0.21867438 0.21295258
0.06374344 -0.113086134 0.16153859 -0.1772556 -0.06649137 -0.1778351 0.07982518 -0.14086309
-0.21335676 0.08036856 -0.20481837 0.08723468 -0.15675123 0.20929597 0.20773089 -0.11819257
0.07841398 -0.13584246 0.038033437 -0.08238458 -0.20968604 0.15709056 0.1753948 -0.16794938
-0.025072422 0.06998766 0.036115676 0.057293035 0.015501317 0.03475693 -0.1842007 0.14668158
0.10893554 0.102125235 0.18996462 -0.16874795 -0.19530053 0.1330784 0.197127 0.057415243
0.022815727 -0.20355295 0.08022861 -0.15242238 -0.20745397 -0.21469545 -0.12970357 0.04096334
-0.1070537 -0.010976071 0.011127201 -0.048264667 -0.04621319 0.09974307 -0.042929012 0.02465833
-0.1485759 -0.20206463 0.10451866 0.19255893 -0.03746205 0.14262696 0.045401067 0.04630351
-0.121303715 -0.04882133 -0.068914935 -0.012996187 0.17147546 -0.12613109 0.009155159 0.030502306

critic.fc1.bias f4 [256]
00000000: be5a 7f3d 1fbd 42be 7b2e 58be 0334 543e
00000010: 5a49 8cbd 33bb cf3d 06eb 8fbc fb1c 1cbe
00000020: 732d b33d 101d 223e 9c4b ec3d 9c24 b73d
00000030: 11c2 51be 5c15 eebd 6c94 cc3d 66ae 223d
00000040: 6096 533d aa97 f6bb abe6 053e cfcc 4f3e
00000050: 6056 373e 779e 373d 7e30 5a3e 7990 0e3d
00000060: 0dde a33d 07e4 9e3d 1cf3 dfbc a19e dbbd
00000070: 19da 323e 8f26 073e 67f0 db3a bacf 4b3e
00000080: f498 ab3d 43a2 c7bd 54f6 8e3d a553 a1bd
00000090: d74c 203d 9872 0bbe 4696 1ebe 1435 e0bd
000000a0: 83da 023e f984 07be 28d6 a73d f7f2 c13d
000000b0: 60ac 10be bd58 52bd 9312 5f3e 4ba8 8e3d
000000c0: 52e3 dabd 3009 b53c f909 9dbd 5d2f 42be
000000d0: eff7 433e 2a21 cbbd 166f 813d 5b68 ba3c
000000e0: 7ead 453e 109c 3dbe 216d d9bd 0693 ddbd
000000f0: be13 44be ecc7 27bb 7add 43bd 2eae 823d
00000100: be6d ff3c a036 25be 37dc 0abe b1d4 30be
00000110: 59f1 513e e3ed 423d 5f71 1b3d f17f 073e
00000120: 4b9d 363e 3dc6 4d3e a6f1 c13d 7b27 12be
00000130: e202 f13c 2f45 46be 4152 3cbe 0cee be3d
00000140: bec4 53be 9333 aebd 4522 55bd 7b8b 1cbd
00000150: 1047 d6bd 608d cebc 9135 a9bd 128d 4b3e
00000160: 3d52 0b3e 510b 49be 2979 abbd 03a5 4a3e
00000170: 70ea 3a3e b9f0 8d3d d2f2 47be bdf7 12be
00000180: 9c3d 1b3e f111 a73d d36b fcbd aeab 253e
00000190: cfe2 98bd 36b9 0ebd c125 35be 8470 563e
000001a0: c3a9 403e 5de4 59be ea20 223e 5c48 3a3d
000001b0: 4064 8c3d 2ba6 a8bd 2f85 803d 95ac 493e
000001c0: 961b dd3c 31ac b63d 9223 9b3d 3a9e 513e
000001d0: df6e 19bd 0a3b 243b 5119 b33d 5957 b6bd
000001e0: ecc7 a7bd dd4b debc 9002 e93d 861d 6a3d
000001f0: 16a8 573e 4195 26be 1cb2 5b3e 44d8 263e
00000200: fc05 21be 0145 54be 90c0 2cbe d68d 2b3c
00000210: 6f20 b9bd 3e5e 4bbe cec3 ef3c e334 4c3e
00000220: 981f 7b3d 8719 a13d ac42 ccbd 12b4 21be
00000230: f209 173e f02d 40be 2a3f c93d eaf3 233e
00000240: baad a83d b00b 5a3e 5cfa 213e b739 3dbe
00000250: 3674 87bd 5757 12be 765d 023d 141a 273e
00000260: 01f1 4fbe 5f3a 503e c58e 6f3b efdd d1bd
00000270: 6cd5 34bd 8627 053e ba6e 17be 2398 153e
00000280: ccd0 813d 79d3 debd 2fe5 4b3e c061 433d
00000290: b0a5 143e 0944 38be c727 f8bd ab32 16bd
000002a0: d1a1 f1bd 788c 103e 5956 92bd 91d4 f63c
000002b0: 4573 883d 1e64 16be 6c4d 3abe 67db 053e
000002c0: df42 39be d92a 1fbd 66b8 4f3e f219 3c3e
000002d0: 39fe 923d aef8 a5bd 733b 0e3e 6fbf e23b
000002e0: c8b4 4bbe 00cf 4f3c 52a2 b13d 4ca4 853d
000002f0: 5f05 bfba 2d4b 4c3e 4d2c 623d 63d8 0ebe
00000300: ef03 ab3d 06bf 6bbd feed 523e 642d e03d
00000310: 5bbd 2a3c 2e07 13be 4850 473e 9548 45be
00000320: d418 733d bbbc 0e3e d8c4 143e 404b 26be
00000330: 755c 3a3e a0a8 e83d 01bd 91bd e5c3 143e
00000340: 9908 023e 0c2a 003e 6764 41be a05c 23be
00000350: ba0c 3bbe 8bdc a2bd f12d c13c 0aef 0ebe
00000360: 855c 9c3d 2dfc 3cbd 81e4 aebd a607 58bc
00000370: f23e 143e 9aee dcbd 113c f93c 1857 443e
00000380: 5580 a8ba 92b1 173d a116 e73c 3fe1 91bd
00000390: 9a18 fb3d 916e bebd 1538 46be 5c0e 7dbd
000003a0: 1199 b4bd 33e6 903d 1c78 4abe 998a 18be
000003b0: 45c4 db3c 9b80 22bc ff6e 02be 48e3 443e
000003c0: e617 11bd e1cc 153e 0099 fd3d 8208 0a3e
000003d0: 4079 0dbd 5a28 1e3c cf06 db3d c159 77bd
000003e0: 4de3 dabc 0268 7dbd 7602 6dbd ef06 433e
000003f0: e33d 4cbe daba 63bd d2ea 3bbe 6728 3fbe
0.062342398 -0.19017456 -0.21111481 0.20722966 -0.06849928 0.10143127 -0.017568123 -0.1524543
0.08748903 0.15831399 0.11537859 0.089425296 -0.20484187 -0.11625168 0.09989247 0.0397171
0.05165708 -0.007525404 0.13076274 0.20292972 0.17904043 0.04482886 0.21307561 0.03480575
0.08001337 0.077583365 -0.027337603 -0.107236154 0.1746601 0.13198303 0.001678002 0.1990346
0.08378783 -0.09747746 0.06980577 -0.07877282 0.03913578 -0.13617933 -0.15487012 -0.10947624
0.12778668 -0.13234319 0.08195144 0.0947017 -0.14128256 -0.05135416 0.21784429 0.06965693
-0.10687889 0.022099108 -0.07667918 -0.1896338 0.19137548 -0.09918435 0.06320016 0.022754839
0.19304463 -0.18516564 -0.10616518 -0.10819058 -0.19148156 -0.002560134 -0.04781864 0.063808784
0.031180259 -0.16134119 -0.13560568 -0.17268635 0.20502223 0.047590148 0.037949916 0.132324
0.1783344 0.20095153 0.09469919 -0.14272873 0.02942032 -0.19362329 -0.18390752 0.093227476
-0.2068052 -0.08505931 -0.052034635 -0.038218956 -0.10462773 -0.025213897 -0.0826217 0.19878033
0.1360559 -0.19633223 -0.08372719 0.1978951 0.18253493 0.0693068 -0.19526222 -0.14352317
0.15160221 0.08157719 -0.12325253 0.16178772 -0.07465135 -0.0348446 -0.17690183 0.20941359
0.18814759 -0.2127852 0.15832868 0.045479164 0.06855059 -0.08234819 0.06275403 0.19694741
0.026990693 0.08919562 0.07575144 0.20470515 -0.03745925 0.0025059604 0.08745063 -0.08903379
-0.08192429 -0.027135784 0.11377442 0.057157062 0.21060213 -0.16267873 0.21454662 0.16293436
-0.15724939 -0.20729448 -0.16870332 0.010470828 -0.09039389 -0.1986017 0.029268172 0.1994205
0.061309427 0.07866197 -0.09973654 -0.15791348 0.14749888 -0.18767524 0.09826501 0.16011015
0.08236261 0.21293521 0.15818161 -0.18479048 -0.06613962 -0.1429113 0.031827413 0.16318542
-0.2030678 0.20334767 0.0036553603 -0.102474086 -0.044148847 0.13003358 -0.14788333 0.14608817
0.06338653 -0.10880179 0.19911645 0.047700644 0.1451633 -0.17994703 -0.12116962 -0.036669414
-0.11798442 0.14116085 -0.07145376 0.030130656 0.06662611 -0.14686629 -0.18193597 0.13071977
-0.18091916 -0.038859222 0.20285186 0.18369272 0.071773954 -0.081040725 0.13889866 0.0069197933
-0.19893181 0.01268363 0.08673538 0.06525478 -0.0014573744 0.19950552 0.05521803 -0.13949732
0.0835036 -0.05755522 0.205986 0.109461576 0.010421122 -0.14358208 0.19464219 -0.19265969
0.05934985 0.13939182 0.14528215 -0.16239643 0.18199332 0.11360288 -0.07116128 0.14527853
0.12698592 0.1251604 -0.18885957 -0.15953302 -0.18266574 -0.079522215 0.023581477 -0.13958374
0.07634834 -0.04613893 -0.085396774 -0.013185417 0.14477137 -0.10787697 0.03042415 0.19173849
-0.0012855629 0.03703458 0.028209032 -0.071230404 0.12260552 -0.092984326 -0.19357331 -0.061781272
-0.088182576 0.07075157 -0.1977238 -0.14896621 0.026826987 -0.009918357 -0.12737654 0.19227326
-0.035423182 0.14628936 0.12382698 0.13479808 -0.03453946 0.009653175 0.10694658 -0.06038833
-0.026719714 -0.061866768 -0.057863675 0.19045614 -0.19945483 -0.055598117 -0.18351296 -0.18667756

critic.fc2.weight f4 [128, 256]
00000000: 972f f33b 7818 3d3c e249 3ebd 4d7f 153d
00000010: 017e 5b3c 9893 4c3d cbb8 2a3d ad6b 873b
00000020: 45ef 283d 00f2 49bd 5a8b 8b3c 68f3 3bbd
00000030: 9bf9 51bd 5a06 413d 1f5f bebc a371 233d
00000040: c8d0 123c 3da6 753c aac7 5c3d 364f 223d
00000050: ea2e 46bd 5f43 2c3d 8d8d 633d ddca 6ebc
00000060: 948d 71bc 9ae6 5b3d 8bfb 4dbd 5ed0 0e3d
00000070: a370 3c3d f1d6 2abd 670a e83c 0d7f 21bd
00000080: 9639 58bd 18f4 1d3d f749 70bd 2bb0 d0bb
00000090: 5656 51bd 0eb1 74bc 6f75 913c f4f3 573d
000000a0: ed06 18bd 8b23 273c f98d 05bc d088 0abb
000000b0: 0b87 5fbd ca2c 05bd 677d 413d eb04 adbc
000000c0: 731b 5f3d a400 973c 52e3 00bc 5316 103d
000000d0: 4e11 973b 239b 483c a186 663c cf41 18bd
000000e0: b3fe 52bc acce 823c 8ba5 b23b e1b9 5dbc
000000f0: a56f 7bbd 9d80 473d 66f5 90bc 3893 6e3d
00000100: 40ac 59bd 674a 03bd 5094 32bc c53c 673c
00000110: fa9c bdbc 8819 ba3c a8ce 263d dc2b 803d
00000120: 903f 43bd 7ce3 a63c c6b1 373d eddf 8e3c
00000130: 1e4d 32bd ed5b f73c 230e a1bc e21c 023c
00000140: 675b 3c3d ed3e 51bd 5c96 4bbd 467e c0bc
00000150: 6cc4 c63c d2e1 0ebd 107a 1dbd ca9c 3dbd
00000160: 5bee 04bd 8b28 243d dc10 32bc 4ef8 3a3d
00000170: 93bd f8bc 738e 01bd c47f 933c e3ae 223d
00000180: c6c5 3e3d 6fb5 703d aa52 23bc 6adc 6dbd
00000190: 61b5 fb3c 086a 1fbd e647 66bc 1e62 643d
000001a0: 996d 533d 815e 08bd 6a5e 2dbc b133 91bb
000001b0: 3711 8d3c 658b 483d 0f9f 853b 312f 5e3c
000001c0: 9ab8 14bd 5a93 153c e433 57bd caac 38bd
000001d0: 227f c8bb 5109 073d bfdf 2fbd f50b fbbc
000001e0: 9298 33bd c6f2 5dbd ff38 07bd 4bc5 eabc
000001f0: ce04 413d e0b6 de3b 18ee 103d 1347 133d
00000200: 4ed5 0d3d 270b d63c 0cc0 dc3c af6b c63c
00000210: be41 88bc 3e1f 6bbd ba91 20ba 81bd cdba
00000220: 0903 f8bb b1f0 f73c 3300 3bbc 3544 2ebd
00000230: 05d8 f8bc 0fba 4b3c f235 0f3d cb93 833c
00000240: 402f 153d bb96 74bd 54dd 5fbc 9b73 0fbd
00000250: bee3 5abd bd62 4dbd 6f37 cfbc a335 453d
00000260: 2674 8dbc 5d8b 3b3d f551 493d 7c43 373d
00000270: cc63 5f3d a198 d03c 97a8 28bc 314a 8dbc
00000280: 6d9e 13bd 320c 0f3d d4d3 2e3a 2ab6 5ebd
00000290: e31c 3ebd 4d60 253c 50cf bbbc 82e2 763d
000002a0: 2177 d9bc 50f3 363c 67a8 c73c 7ce0 5a3d
000002b0: a705 d53a 6e18 3eba 329b 693d d7df c8ba
000002c0: 2c0f f53c c4ce 033d 404f a13c d1f1 3b3d
000002d0: b3e2 363c c242 62bd 4704 52bc f264 ccbc
000002e0: 520b 8b3a dbf9 013d da75 d0bc 0f8d 6e3d
000002f0: 42a6 11bd 795c 723d c13b 293d 6394 cebb
00000300: 9cf8 7bbb a05e f0bc 2a69 55bd fba2 64bd
00000310: 1b41 013c 4875 f4bc 933c 753c 9549 383d
00000320: 7f6f dcbc efd0 00bd cbda 26bb fea8 a83c
00000330: 6461 1e3d 0930 27bd 19cc 3dbd 8a8c 473d
00000340: ea2e c5bc 55a8 32bc 9868 523d 614a a23b
00000350: 48dd f33c d29d 6f3d 08c1 863c 4d6b bebc
00000360: 0e50 353d ad71 753d 937b 27bd f42e 983c
00000370: 357f 3bbd 16eb d83b baa3 073b 2f20 00bd
00000380: 0f18 e03c 6e19 163d eadc 74bd a906 133d
00000390: 9976 babc d20e 2d3c d7f6 053b a03a 7fbd
000003a0: a409 1bbd 26d5 663d da3f c33c 30a6 0fbd
000003b0: 4412 5fbc e40d 57bd 9474 553d 124c 613d
000003c0: b179 be3b ce8a 243d a858 92ba fc42 4f3d
000003d0: c9cd 5cbd 042e adbb 15ff 9939 6d06 ed3c
000003e0: 8d15 51bd ead1 38bd 1f8c f1bc 92ef 2d3d
000003f0: a316 47bd e9a1 80bc 3434 c63c 351f e1bc
0.0074214446 0.011541478 -0.04645718 0.036498357 0.013396741 0.049945444 0.04168014 0.004132709
0.04124381 -0.049303055 0.017034221 -0.045886427 -0.051263433 0.047125198 -0.023238717 0.039903294
0.00896091 0.014993248 0.053901352 0.039626323 -0.048384584 0.042056438 0.055554915 -0.014574734
-0.0147432275 0.053686716 -0.05028872 0.034866683 0.046005856 -0.04170889 0.028325273 -0.039427806
-0.052789293 0.038562864 -0.05866429 -0.006368657 -0.051107727 -0.014934791 0.017756192 0.052722886
-0.03711598 0.010201345 -0.008151525 -0.0021138676 -0.054572146 -0.032513417 0.047238734 -0.02112051
0.054469537 0.018432923 -0.007866697 0.03517754 0.004610217 0.012244019 0.014070184 -0.037172135
-0.012878108 0.01596769 0.005451863 -0.0135330865 -0.06138577 0.04870664 -0.01769514 0.058245867
-0.053142786 -0.032053377 -0.010899618 0.01411361 -0.023146141 0.022717252 0.040724427 0.062583655
-0.04766804 0.020372145 0.044847272 0.01744076 -0.043530576 0.0301952 -0.019660061 0.0079414565
0.045985606 -0.0510854 -0.04970394 -0.023497712 0.024263583 -0.034883328 -0.038446486 -0.046292104
-0.032453876 0.040077727 -0.010868277 0.045646958 -0.030363834 -0.03162999 0.01800526 0.039717566
0.04657533 0.05876678 -0.009968439 -0.05807153 0.030726137 -0.03891948 -0.014055228 0.055757634
0.051618192 -0.03329325 -0.010581592 -0.004431211 0.017220123 0.048961062 0.004077799 0.013561056
-0.036308862 0.00912937 -0.05253972 -0.04508666 -0.006118671 0.03296787 -0.04293799 -0.03064535
-0.043846674 -0.054186605 -0.03301334 -0.02865853 0.047123723 0.0067967027 0.035383314 0.035956454
0.03462725 0.026128365 0.026947044 0.02422127 -0.01663291 -0.05740284 -0.00061252306 -0.0015696735
-0.007568721 0.030266138 -0.011413622 -0.042545516 -0.030376444 0.012434497 0.034963556 0.016061684
0.036422014 -0.05971406 -0.013663609 -0.03502236 -0.053439848 -0.050142992 -0.025294987 0.048146855
-0.017267298 0.045787204 0.049150426 0.044742092 0.054538533 0.025463404 -0.010294101 -0.017247291
-0.03603976 0.03492374 0.0006669138 -0.054372944 -0.046414267 0.010093761 -0.022926003 0.06027461
-0.026546063 0.011166409 0.024372293 0.05343674 0.0016252295 -0.0007251565 0.05703277 -0.0015325499
0.029914461 0.03217961 0.01969111 0.04588491 0.011162448 -0.055239446 -0.012818403 -0.024950478
0.0010608232 0.03173242 -0.025446821 0.058239993 -0.035558946 0.05917022 0.04131675 -0.00630431
-0.0038447743 -0.029341996 -0.052102245 -0.055819493 0.0078890575 -0.02984108 0.014968055 0.04499205
-0.026908634 -0.031449255 -0.002546 0.020588394 0.038667098 -0.040817294 -0.04633722 0.048718013
-0.024070222 -0.010904391 0.05136928 0.0049527143 0.029768601 0.05850012 0.016449466 -0.023244524
0.0442658 0.059922863 -0.040889334 0.018577076 -0.04577561 0.0066198213 0.0020696954 -0.031280693
0.027355222 0.036645345 -0.059780993 0.035895023 -0.02276163 0.0105626155 0.0020441317 -0.06231177
-0.03785099 0.056355618 0.023834158 -0.035070598 -0.013615195 -0.05250348 0.05211313 0.055004187
0.0058128466 0.040171437 -0.0011165338 0.05060099 -0.05390719 -0.0052850265 0.00029372485 0.028933728
-0.051045943 -0.045122065 -0.02948576 0.0424648 -0.048605572 -0.015702205 0.024194814 -0.027480701
