client/temp_files/thread_1/policies/policy_0/model.pt (torch, 288402 bytes, 11 tensors)

actor.fc1.weight f4 [256, 8]
000000 d3 04 3f be 0a 9c 83 be 39 9c 95 be f6 2e 24 3e
       -0.18654184 -0.25704986 -0.2922075 0.16033539
000010 a7 94 65 3e 9b e0 22 be 9f db a1 be 38 46 63 3e
       0.22419988 -0.15905993 -0.3161287 0.22194755
000020 a2 89 31 bd 91 85 8d be 24 e5 c6 3d 77 2e 67 bb
       -0.043344148 -0.27640966 0.09711674 -0.0035275498
000030 1a 51 97 3d cf b8 e1 bc d2 63 1c 3e 81 42 1e be
       0.07388516 -0.027553944 0.15272453 -0.15455057
000040 b2 51 02 3e 0f 9e f8 bc 7d 71 ee 3c 41 33 0c be
       0.12726477 -0.030348806 0.02910685 -0.13691427
000050 75 e5 a3 3e ad 54 46 3d 7a 1a b2 bc 4b 89 c6 bb
       0.32011 0.048420597 -0.02174114 -0.006058847
000060 fc 8a 43 3e 55 35 8a be f5 20 a7 be 46 68 48 be
       0.19095987 -0.26993814 -0.32642332 -0.19571027
000070 46 9f b2 bd 3a b5 30 3e ea c8 cc 3d c4 b8 28 be
       -0.08721785 0.17256632 0.09999259 -0.16476732
000080 22 96 6d be 88 c5 ac be 64 72 ac 3e 79 42 45 3d
       -0.23201802 -0.33744454 0.33681023 0.048159096
000090 09 8a aa 3e 83 3e 3d bd 90 87 84 3d f5 7d 04 3e
       0.33308437 -0.046202194 0.06471169 0.12938674
0000a0 13 7f 14 3d be 2c 5d be 0f da 0e 3e 91 4c aa bd
       0.036254 -0.21599099 0.1395037 -0.08315385
0000b0 5a 46 e5 3c 51 91 e9 bd 24 9c 83 be bc 36 92 be
       0.027987648 -0.1140467 -0.25705063 -0.28557384
0000c0 e3 e9 ac bb 01 ea ab 3e 7e 76 a5 be 7c 19 a6 be
       -0.005276905 0.33576968 -0.32316965 -0.32441318
0000d0 4f 5e b1 3e e1 2c 74 3d 96 fc 3a 3e 16 f3 24 3d
       0.34642264 0.059613112 0.18260416 0.040270887
0000e0 23 c4 15 3e b6 e9 3b 3e 56 a2 c4 bd 14 ce 92 3e
       0.14625601 0.18350872 -0.096012756 0.2867285
0000f0 3e 02 28 bc d7 51 62 3e 31 e2 97 3d 96 48 b1 3e
       -0.010254441 0.22101532 0.074161895 0.3462569
000100 2c 55 a7 3e 74 d3 e9 3d c8 f2 d7 bd 19 17 aa 3e
       0.32682168 0.114172846 -0.10544354 0.33220747
000110 1b 0e c8 bd 11 f1 52 be db 71 55 be 1d d9 82 3e
       -0.097683154 -0.20599772 -0.20844214 0.2555627
000120 ae 30 51 3e 68 b7 f9 bd 04 db c2 3d af 42 ac 3e
       0.20428726 -0.12193185 0.0951443 0.33644626
000130 72 ba 97 3e 77 e1 73 be f2 05 64 3e f5 f2 a2 be
       0.29634434 -0.23816477 0.22267893 -0.31825987
000140 13 d1 23 3e 9f 75 93 3e eb ff af 3e 45 a2 e2 bd
       0.15997724 0.28800675 0.34374937 -0.11066107
000150 01 4b 48 be c6 2f a5 3c 2a 18 2f be 24 c1 29 3e
       -0.19559862 0.020164382 -0.17099062 0.16577584
000160 a6 a4 9e 3e 48 10 98 3e aa b2 8b be b8 8e a2 bd
       0.30984992 0.29699922 -0.27284747 -0.07937378
000170 b7 07 82 bc 61 d7 b1 be 99 31 18 be 5d 7d 59 3e
       -0.01587282 -0.34734634 -0.1486267 0.21239229
000180 7e b3 f9 bd 9d 09 bf 3d ae 3c 18 be 65 10 72 3c
       -0.121924385 0.093280055 -0.14866897 0.014774417
000190 2c 62 6a be 39 9c 4d bd b4 35 b1 bd 1c bb b4 3e
       -0.22889012 -0.050197814 -0.08652821 0.35299003
0001a0 5a 58 a7 3c 7f e9 32 3d ef 9b 8a 3e 56 02 b2 3e
       0.020427871 0.04367971 0.27072093 0.34767407
0001b0 94 28 a9 be 3d 4c de bd d3 0c 89 bd 22 bb 76 3e
       -0.3303877 -0.10854385 -0.06691899 0.24094823
0001c0 b7 ff 0e 3e d7 33 9f 3e dc 53 9b be 4e 74 52 be
       0.13964735 0.31094238 -0.30337417 -0.20552179
0001d0 ac 93 ca 3d fd d5 d8 3d 6d 7d 05 3e d4 43 b7 bd
       0.098914474 0.1058769 0.13036127 -0.08948484
0001e0 56 78 c2 39 5c 81 ae 3d 40 45 44 be a3 82 7b 3c
       0.0003709222 0.08520767 -0.19167042 0.01535097
0001f0 6e af 4b be 14 0a 35 3e bb fa 62 3d 49 a3 8d be
       -0.1989114 0.17679626 0.055414896 -0.2766364
000200 d6 2f 15 3d b2 80 e7 bc 3a eb 8a 3e dc 4f 91 3e
       0.036422573 -0.028259609 0.2713259 0.2838124
000210 26 de 51 3e 74 b6 a0 be 89 6a 88 3d f1 c8 b2 bd
       0.20494899 -0.313892 0.06660945 -0.08729733
000220 72 f1 93 3e 4b cc 19 bd dc 09 a7 3d ed d7 2e 3e
       0.28895146 -0.037548345 0.081561774 0.17074557
000230 6e 26 6d 3e 4e b9 55 bb 2e 3a a0 be 00 72 82 3e
       0.23159191 -0.003261167 -0.31294388 0.254776
000240 59 e0 45 bd 4f 48 a5 3d 10 24 55 3e 5f 6b 8f be
       -0.048309658 0.080704324 0.20814538 -0.28011605
000250 ba 85 38 bd 78 65 4a bd 57 19 48 3d 20 84 ad 3e
       -0.045049407 -0.049413174 0.04885229 0.33889866
000260 60 d5 37 be e8 83 39 3e 57 76 9b 3e 03 ea 65 3e
       -0.1795249 0.18116724 0.30363724 0.2245255
000270 ba ef 79 be f6 45 ae be b2 e3 7c be 08 96 ea bd
       -0.24407855 -0.3403775 -0.24696234 -0.114543974
000280 34 ae 52 be 7e 3d 44 3e 5c cc 35 be e2 d2 b3 be
       -0.20574266 0.19164082 -0.17753738 -0.35121828
000290 2b b3 48 be 94 f8 a8 3e ee 97 a0 3e 78 8e cb bc
       -0.19599597 0.3300215 0.31365913 -0.024848208
0002a0 ec 6b 8b bd d7 f1 ee bd f7 0c 0c be ab 43 92 3e
       -0.06807694 -0.11667221 -0.1367682 0.28567252
0002b0 4c 68 88 be a2 59 94 be ee fa 78 be 7f 7b 83 3e
       -0.26642072 -0.28974634 -0.24314472 0.25680158
0002c0 6e 02 d5 bd c4 4a a4 be c0 60 8e 3e 68 3e 15 be
       -0.10400854 -0.32088292 0.2780819 -0.14574587
0002d0 66 74 67 bd 13 c1 81 3e b6 15 a8 3b e3 1f 2e be
       -0.05650749 0.25342616 0.0051295413 -0.17004351
0002e0 08 f8 26 b9 f4 20 97 3e 73 1b a4 bd 2b 35 69 3e
       -0.00015923392 0.2951733 -0.08013048 0.22774188
0002f0 8a 43 95 bd 10 e9 d5 3d 12 ad f0 3c b6 f7 93 be
       -0.07288273 0.10444844 0.029379401 -0.28899926
000300 7a cd 5f 3e 20 e3 ab 3d e9 eb aa be e9 e9 23 be
       0.21855727 0.0839293 -0.3338311 -0.16007198
000310 c3 c8 aa be f3 2a 0d 3d be a5 8c be 95 47 88 be
       -0.33356294 0.034464788 -0.274702 -0.26617113
000320 ce 03 93 3d 77 29 26 3d 5c 0f 4c be 6d fc 2e 3e
       0.0717846 0.040566888 -0.19927734 0.1708848
000330 e2 da b2 be fe 6a b6 bd cd 14 ef 3d 6d b6 d6 3d
       -0.3493262 -0.08907126 0.11673889 0.10484014
000340 c0 50 6a be ef 56 92 be be fd a7 be f2 44 39 be
       -0.22882366 -0.2858195 -0.32810777 -0.18092707
000350 b8 d1 30 bb 86 86 16 3e 3b ce ab be d7 d7 89 3d
       -0.002698047 0.14699754 -0.3355578 0.06730621
000360 a7 dd a2 3c cd 83 ad be 80 78 4b be 18 91 cb 3d
       0.019881083 -0.3388962 -0.19870186 0.09939784
000370 1f 59 94 be 5d 8e ff 3d a6 21 82 3e 82 ff d5 bd
       -0.28974244 0.124783255 0.25416297 -0.10449125
000380 17 e4 4e 3c 4e 1f d2 3c 8d 85 a7 be 4e 92 20 bd
       0.012627623 0.025649693 -0.3271908 -0.039202027
000390 ce 76 cf 3d 4b f9 35 be 4f 97 9f be 1e 3d 9d 3d
       0.10130082 -0.17770879 -0.31170127 0.07677673
0003a0 8f b5 92 be c7 63 1e 3d b9 79 0d be 2a 74 81 3e
       -0.28654143 0.038669374 -0.13815965 0.2528394
0003b0 05 35 ba 3d 07 87 95 3e c9 35 08 be 65 04 07 3e
       0.09092144 0.2920458 -0.13301767 0.1318527
0003c0 77 56 18 3e 91 8f 9f 3e 6d 26 9d be b0 ed ae be
       0.14876734 0.3116422 -0.3069338 -0.34165716
0003d0 78 36 3a 3d c0 0f a2 3e c1 65 74 be 93 f8 97 3d
       0.0454621 0.3165264 -0.23866941 0.07420459
0003e0 a9 12 41 be cd e1 16 3e bd 43 a2 3e 8b bc a5 3c
       -0.18854775 0.14734574 0.31692305 0.020231506
0003f0 51 16 06 3e 44 95 a8 be ff 11 23 be 5f c2 a4 3d
       0.1309445 -0.3292638 -0.15924834 0.08044886

actor.fc1.bias f4 [256]
000000 b7 54 87 3e e9 23 2a 3e bc 85 9b 3e cb b7 03 3d
       0.2643182 0.16615261 0.3037547 0.0321577
000010 fa f4 a7 be d4 89 0f 3c 48 cb a0 3e ef ae ba bc
       -0.3280409 0.008760888 0.3140509 -0.022788493
000020 90 ea a6 3d 92 9f 78 be 75 6a 8f bc 2c 33 95 ba
       0.08150208 -0.24279621 -0.017506817 -0.0011383048
000030 9f 7c 55 bd 30 97 2e 3e a6 9e 5b be b7 8c 9b 3e
       -0.0521208 0.17049861 -0.21447238 0.30380794
000040 d7 8d a5 3e 5e c4 a8 3e 5d 70 59 3d 32 0d 80 3e
       0.32334778 0.32962316 0.053085674 0.25010067
000050 a5 5b 5f 3d 68 5a 83 3e b4 7c 64 be 58 03 32 bb
       0.05453076 0.25654912 -0.22313195 -0.0027162638
000060 ec 89 a7 3e 4a c2 6f 3e 64 92 59 3e db cb 11 be
       0.32722414 0.23413959 0.2124725 -0.14237921
000070 37 de ac bd da 51 9c 3e 93 5a 90 be b2 7f 4c 3c
       -0.084408216 0.30531198 -0.28194103 0.012481617
000080 49 78 66 be e0 13 6e be a7 d4 0c 3e 47 32 56 be
       -0.22506823 -0.23249769 0.13752995 -0.20917617
000090 20 25 65 be 9c 5a b4 be 8d a2 26 be 2c 50 d4 bd
       -0.22377443 -0.3522538 -0.16272946 -0.10366854
0000a0 ea ee 00 bc 70 20 26 be 3b 42 28 3e 57 0a cc 3d
       -0.007869462 -0.16223311 0.16431515 0.0996291
0000b0 2a 58 84 be 45 92 af bc 71 15 0a be 52 1b 09 3e
       -0.25848514 -0.021432051 -0.13484742 0.13389328
0000c0 23 c4 5f 3e 32 42 3b 3e 00 f1 96 3d 8d 1c a8 be
       0.21852164 0.1828697 0.07370186 -0.32834283
0000d0 3f 53 a1 bd 2e e7 67 be 86 16 99 be 61 f0 87 bd
       -0.07877206 -0.22646782 -0.29899997 -0.066376455
0000e0 c6 c0 82 3e fb ca b2 3e 3d d6 86 be 6c b6 c2 3d
       0.255377 0.34920487 -0.26335326 0.095074505
0000f0 65 9d 92 be a6 0f 0f 3e 88 3a 92 be 87 8c a6 be
       -0.28635707 0.13970813 -0.2856028 -0.3252909
000100 9d 09 a8 be 98 b5 53 3e 78 ef 72 bd 45 57 8d 3e
       -0.32819834 0.20674741 -0.059310406 0.27605644
000110 29 ac 96 3e 3e 25 a0 3e 44 ef b3 bd 80 e8 9e 3e
       0.29428223 0.31278414 -0.08785871 0.31036758
000120 41 cf b3 3e 95 a9 3e 3c 03 96 4c be 28 18 96 bd
       0.3511906 0.011637111 -0.199791 -0.07328826
000130 47 d9 04 be 3a ed c5 bc 91 66 77 be 09 bf 95 3e
       -0.1297351 -0.02416097 -0.2416022 0.2924731
000140 f8 3b b7 3d 61 a1 ff 3d d1 d8 8c 3e 95 eb 83 bd
       0.08946985 0.124819525 0.27509168 -0.06441418
000150 2c 69 d1 3d 0d 66 c1 bd 58 58 87 3e 70 41 e4 3d
       0.10225138 -0.09443293 0.26434588 0.11145294
000160 4c 27 3e 3e 29 9e 2c be c2 9b d2 bc c7 eb 0a 3e
       0.18569678 -0.16857208 -0.025709037 0.13566504
000170 0d 69 7a be aa ef 93 3e b6 aa 2e 3d de 38 98 be
       -0.24454136 0.28893787 0.04264327 -0.29730886
000180 31 19 d6 3d b7 bf 0c be e0 c6 a2 3e 50 04 6b be
       0.10454024 -0.13745008 0.31792355 -0.22950864
000190 9e 89 8c be b9 d9 1a bd 85 79 88 3e 3d f7 0c bd
       -0.27448744 -0.037805293 0.26655212 -0.034415472
0001a0 6a 9e 59 be 95 6b 5e be 48 18 f0 3d a1 9e 9a 3e
       -0.21251836 -0.21720727 0.11723381 0.3019915
0001b0 bd e7 28 3e 91 31 07 be d0 be 86 bd 54 e5 ac 3d
       0.16494651 -0.13202502 -0.06579363 0.08442178
0001c0 a9 aa a2 bd 88 4c 90 be c8 57 9d be 0f 28 43 be
       -0.07942707 -0.2818339 -0.30731034 -0.1905825
0001d0 8b a1 74 be 54 a9 4a 3e 16 b9 1c 3e 4c 76 7d 3e
       -0.23889749 0.19791156 0.1530498 0.24752158
0001e0 f5 6a 6c be ae fe 8e 3d 0e e7 43 be 94 b9 54 be
       -0.23087676 0.0698217 -0.19131109 -0.20773917
0001f0 d6 85 48 3e f3 55 a1 be 17 ef 18 be c9 94 06 3e
       0.19582304 -0.31510887 -0.14934956 0.13142695
000200 78 02 46 3e c9 19 9b be dc 35 78 be 57 fd 4c 3e
       0.19336879 -0.3029311 -0.24239296 0.20018516
000210 32 12 b1 be 89 c7 4e be 85 92 47 3e c0 d7 a6 bb
       -0.34584194 -0.20193304 0.19489487 -0.0050916374
000220 b4 55 9b be 11 79 3d bd b5 27 5b 3e 71 05 71 3e
       -0.30338824 -0.046258036 0.21401866 0.23537232
000230 d9 e0 c1 3d 92 54 a1 be f6 e2 4f 3e 08 d2 9e be
       0.094667144 -0.31509835 0.20301422 -0.31019616
000240 e3 51 3f be de ac 8f 3e b1 da 76 3e 87 04 cd bd
       -0.18683581 0.28061575 0.24106862 -0.10010629
000250 45 91 6e be 8c af 9f 3e 0c f1 15 be ae 16 f8 3d
       -0.23297603 0.3118862 -0.14642733 0.12113701
000260 58 25 b1 3e 5f cd 0c 3e 90 28 b1 be b3 ed 82 be
       0.34598804 0.13750218 -0.3460126 -0.25571975
000270 4a 8b 5f 3e 93 e5 8d 3e 0d 39 52 bc f1 07 ef bd
       0.21830478 0.27714214 -0.012830985 -0.116714366
000280 f6 91 70 3d 5a ef 5c bc 5f 69 32 be 8d bb b3 be
       0.05873295 -0.0134848 -0.17423008 -0.35104027
000290 c4 79 0f 3c 53 09 05 bd cf e5 ea bc 8c 18 f9 3d
       0.0087570585 -0.032479595 -0.028674034 0.12162885
0002a0 0f d8 79 be 95 44 97 be 3b 66 a4 3e 41 3f 51 be
       -0.24398826 -0.2954451 0.32109246 -0.20434286
0002b0 5a 89 87 bc dd 23 99 be 72 ea a8 3e 24 24 95 be
       -0.016544987 -0.29910174 0.32991368 -0.29129136
0002c0 66 d5 a2 3e 46 d1 78 3e 90 02 cf bd 55 6e bd 3d
       0.31803435 0.24298581 -0.10107911 0.0924956
0002d0 54 f6 1d 3e df ce 8a be 4d 51 70 be bf 48 89 3e
       0.15425998 -0.27110955 -0.23468514 0.26813313
0002e0 89 bd 9c 3c 18 ac 82 3d 38 54 fe bd 55 31 72 3d
       0.019133346 0.063804805 -0.12418407 0.059129078
0002f0 ef 6c 9c 3e 2e 81 4e 3e ff f8 16 3e 73 53 3f 3e
       0.3055186 0.20166466 0.14743422 0.18684177
000300 4a e9 af 3e 79 4a e1 bd ff ce 6b be 66 14 49 bd
       0.34357673 -0.11000533 -0.23028181 -0.04909172
000310 df ae a5 3e ba a3 a1 be 8e ff 7e 3e a7 ed 1a be
       0.3235998 -0.31570226 0.24902174 -0.1512972
000320 55 6d ab be 15 46 a8 3e 02 ef 51 3e 6d fb 10 3e
       -0.3348185 0.32865968 0.2050133 0.14158411
000330 98 18 66 bc d7 9c a0 3d b1 8e c5 3d b7 5e cd bd
       -0.01404395 0.07842415 0.09646357 -0.10027831
000340 74 0d a5 be f2 26 8f 3d e5 4f 92 3e d1 79 2c be
       -0.32236826 0.0698985 0.2857658 -0.16843344
000350 45 7e 84 be 16 17 1f 3e ac ff 95 3e 3b f8 94 3e
       -0.25877586 0.1553615 0.29296625 0.29095635
000360 c4 bb 64 bd aa 08 a2 3e 85 ae 48 bd 45 8d e0 bd
       -0.05584313 0.31647235 -0.04899456 -0.10964445
000370 fb af 5d 3d 90 54 0c 3e 20 6e 87 bd 21 47 58 be
       0.054122906 0.13704133 -0.066128016 -0.21120884
000380 66 7d 93 3e 63 dd cc bd 25 f8 35 3c 5d ef 13 3e
       0.2880661 -0.10003164 0.011106526 0.14446779
000390 b3 11 59 be 71 8c a9 be fc 40 b0 3e dd 4c 92 be
       -0.21198158 -0.3311496 0.3442458 -0.28574267
0003a0 81 6a 06 3e 6a 4c 9b be e0 05 25 bd f7 df f7 bd
       0.13126566 -0.30331737 -0.040288806 -0.12103265
0003b0 11 8d d4 bc 9d 0d 69 be e7 a1 9b 3e 05 96 89 be
       -0.025946172 -0.227591 0.3039696 -0.26872268
0003c0 79 27 a4 3e 2c 74 82 3a fc 88 06 3d f0 d6 71 be
       0.32061365 0.0009952835 0.032845482 -0.23617148
0003d0 7f 9b 73 3e 86 cb 5a 3d 1e 13 89 be 30 ba 11 3e
       0.23789786 0.05341675 -0.26772398 0.14231181
0003e0 8a 53 0b be 5d 58 87 bd d4 e6 08 3e 72 b6 0e 3e
       -0.13606086 -0.06608651 0.13369304 0.13936785
0003f0 e7 aa 9c be 92 12 35 3e 9c c1 48 3e cb cb 57 be
       -0.30599138 0.17682865 0.19605106 -0.21073835

actor.fc2.weight f4 [128, 256]
000000 8b 6a 7e ba 6e ba ae bc 4d a4 6d 3d 16 37 73 bd
       -0.0009705207 -0.021329131 0.058018018 -0.059378706
000010 d6 47 26 bd 19 fc 59 3d e9 47 09 3c 57 18 22 bd
       -0.04059585 0.053218935 0.008378961 -0.039573994
000020 09 93 5b 3d b8 7d 62 bd 8f 73 56 3d 75 f2 72 3d
       0.05360702 -0.055295676 0.0523563 0.059313256
000030 b8 56 2b 3b 02 f4 4e 3a 2e e7 67 3d 1e 26 68 bd
       0.0026144218 0.00078946364 0.056616955 -0.056676976
000040 d4 52 ef bc 0c 21 37 3b f2 22 54 bc 1a d0 5a bc
       -0.0292143 0.0027943281 -0.012947785 -0.013355279
000050 73 2e 5c 3a 2e 2b 59 bc eb 9c 4a bd 41 b0 ba 3c
       0.00083992555 -0.013254924 -0.049466055 0.022789123
000060 c8 c0 06 3d 7e b2 5e 3d fc c3 4d 3c c0 f7 2a bd
       0.032898694 0.054369442 0.012558933 -0.04174018
000070 0c 3b f0 bc 55 c9 29 3d 48 06 fc bb 55 a9 6b 3d
       -0.02932503 0.04145177 -0.0076911785 0.057534534
000080 43 93 22 bd 44 fc bc 3b 1b 35 db bc 55 e8 d6 bc
       -0.03969122 0.005767377 -0.026758721 -0.026233831
000090 d3 6c f0 3c 3f d2 86 3c a3 0f 3c 3d f8 db 48 3b
       0.029348766 0.016457675 0.04591335 0.003064869
0000a0 e4 4f 2a bd 25 23 e3 3a 8d b5 8a 3c 65 10 79 3d
       -0.041580096 0.00173292 0.016932273 0.06080665
0000b0 cd 65 70 bd 5e 83 52 3c dc c6 a8 bc 0d bf a9 3c
       -0.058690835 0.012848703 -0.020602636 0.020720983
0000c0 18 ca 99 3b cc c0 4c bb 66 4f 0e bc fa ff 6e bd
       0.004693281 -0.0031242846 -0.008685922 -0.058349587
0000d0 de 48 0d bd 53 16 1d 3d cb 16 65 3d 31 4b 81 bc
       -0.03449332 0.03835137 0.05592994 -0.015782924
0000e0 16 7d 85 3c 50 da 5e bd cd 02 5f 3d 43 c5 be bc
       0.016294997 -0.054407418 0.05444603 -0.023287421
0000f0 46 9c d4 3c 4e 43 57 3d 18 f0 1d 3d e7 fb 6b bc
       0.025953423 0.05255442 0.03855905 -0.01440332
000100 c7 90 56 bc 1a d0 83 b9 77 e9 dc bc 61 71 cf ba
       -0.013096041 -0.00025141315 -0.026966793 -0.0015826636
000110 e8 98 1a bd d9 88 21 bd 50 ec 13 bc 33 e3 bd 3c
       -0.03774348 -0.03943715 -0.009028509 0.023179626
000120 90 c5 b2 3c e7 f7 16 ba cd 7e ec 3c a6 e4 39 bc
       0.02182272 -0.0005758986 0.028869057 -0.011346018
000130 b7 47 65 3d b4 69 0e bc ea dc 24 bd 06 6f 65 bc
       0.055976596 -0.008692194 -0.040249743 -0.014003521
000140 57 f9 92 bc cb e8 21 bd 50 84 51 bd 84 35 0b 3d
       -0.01794116 -0.03952865 -0.051151574 0.033986583
000150 e7 c4 fd 3c aa f5 1b 3d 31 23 4d bd 16 8a 18 bd
       0.03097768 0.03807608 -0.05008239 -0.037241064
000160 6f d4 09 3d 58 e1 da bc 3c 87 ca 3c e8 f7 4a 3d
       0.033649858 -0.02671878 0.024722688 0.049552828
000170 f7 d4 63 3d 55 1d 22 3d f0 2e 74 3d 4a f4 6c 3d
       0.05562302 0.039578754 0.059615076 0.05785016
000180 82 f6 13 bd 17 72 2a bc 10 26 59 bd d9 4f 1b 3c
       -0.03612376 -0.010403178 -0.053014815 0.009479486
000190 f7 19 50 3b d5 40 51 bc b3 1f 67 3d d5 9d cc bc
       0.0031753758 -0.012771805 0.056426715 -0.024977604
0001a0 d8 fa 8c bc 51 ba 4d bd 6e 0d 37 3d 39 46 68 3d
       -0.017209455 -0.050226513 0.044690542 0.056707595
0001b0 a5 7b 7d bc d0 da 07 3d b5 33 3d 3d d1 05 e4 3c
       -0.015471374 0.03316766 0.04619189 0.027834805
0001c0 95 c8 9e bc 13 73 55 3d 5c 68 b3 3c dd ce 1c 3d
       -0.019382754 0.052111696 0.021900348 0.038283218
0001d0 c9 81 ba bc ba 0b 72 3d 84 fc 5a bd 8e 19 4a bc
       -0.022766965 0.059093215 -0.053463474 -0.012335194
0001e0 ec 0f be 3c a3 b7 33 bd a5 c3 19 3d 1e 26 6b bd
       0.023200952 -0.0438763 0.037540097 -0.0574094
0001f0 b9 a2 75 bd b6 d0 30 bd 2e 02 4b bd 76 13 47 3d
       -0.059969638 -0.043167792 -0.049562626 0.048602544
000200 56 60 4b 3d 1f d5 4f 3d 5e c6 2b bd 42 2b 64 bb
       0.04965242 0.050740357 -0.041937225 -0.0034815823
000210 a2 1b 7b bc b9 4c 12 bc b6 aa de 3b c5 fb 3a 3c
       -0.015326412 -0.008929425 0.0067952527 0.011412566
000220 4f af fa 3c 20 ce 66 bb 81 1f 56 3d f6 d7 3a bd
       0.030601172 -0.0035218075 0.05227614 -0.045616113
000230 93 69 35 3d 8e 71 1a bd 24 a1 39 3a 94 3e 79 3d
       0.044290137 -0.03770595 0.0007081202 0.060850695
000240 40 d0 12 bd 2a 8d be bc d7 3d 88 bc de 3f 86 bc
       -0.035843134 -0.023260672 -0.01663105 -0.016387876
000250 18 ce 08 3d 8b 72 7a 3d 6c a3 4b bd 45 cd af 3c
       0.03339967 0.061144393 -0.049716398 0.021460185
000260 41 16 6b 3c ff c5 0e bd 16 76 0c bd bf ae 09 3d
       0.014348567 -0.034856793 -0.034292303 0.033613916
000270 99 42 20 3d 41 af 69 bb d7 2f 00 bd 21 ac 6f bc
       0.039126012 -0.0035657438 -0.031295624 -0.014628441
000280 53 55 23 bd 09 e9 cd bc 21 4f 36 3d 37 72 8a 3b
       -0.039876293 -0.025135534 0.044509057 0.0042250413
000290 ea 01 6b bc 76 00 63 bc 5a 4c 18 3d 77 c6 0b bd
       -0.014343718 -0.01385509 0.03718219 -0.034124818
0002a0 61 13 77 bd c0 b7 1e bd a3 a6 03 3d f4 c7 a9 bc
       -0.060321216 -0.038749456 0.03214134 -0.020725228
0002b0 cb a8 d4 3c 07 c7 3d 3d 47 3f 28 bd ce cc 06 3c
       0.025959393 0.046332385 -0.04107597 0.00822754
0002c0 89 2c 62 bd f8 2a 4f bd 01 61 18 3d 6a 30 3a bd
       -0.055218253 -0.050578088 0.037201885 -0.045456327
0002d0 6e a9 d8 3c b4 c7 7b bc 68 00 52 bd ea 96 45 bc
       0.026447978 -0.015367437 -0.05126992 -0.0120599065
0002e0 e9 f9 c4 3c fe 6e 74 bd 63 77 c2 bc 5f 28 e1 3c
       0.024044948 -0.059676163 -0.023738569 0.02748507
0002f0 f1 ad ef 3c 5a d1 e6 ba 4a 96 fc bc 71 5c 3e 3d
       0.029257746 -0.0017609999 -0.030833382 0.046474878
000300 c2 df 12 bd 4d 61 55 bc ed c1 63 bd f1 02 ae bc
       -0.035857923 -0.013023687 -0.055604864 -0.021241637
000310 fb 10 71 bd 24 52 38 bd e4 24 4d bd a7 87 76 bd
       -0.058854084 -0.04500021 -0.05008401 -0.060187962
000320 cf c5 53 3c d9 fd 91 3c 60 b7 41 bd 65 a0 6b 3d
       0.012925579 0.01782124 -0.04729402 0.05752601
000330 06 00 73 3d d9 06 31 bd 4c c6 3d bc 24 91 32 bd
       0.059326194 -0.04321942 -0.011582922 -0.043595448
000340 9b b9 4f bc b9 6f 6f 3d 7b aa 46 bd 69 bd e6 3c
       -0.012678529 0.058456156 -0.048502427 0.02816649
000350 92 66 22 3d 09 96 29 3d a6 2a 03 bd e9 ca 56 bd
       0.0396486 0.04140285 -0.032023095 -0.052439604
000360 5b d1 f9 3c ae 20 cd 3c 15 f1 5e 3d d1 ce 5e 3d
       0.030495336 0.025039997 0.054429132 0.054396454
000370 89 ea 62 3d 24 52 2d bd a0 60 29 3d 69 cf 32 3d
       0.05539945 -0.042314664 0.041351914 0.043654833
000380 38 93 d2 bc b3 c0 c1 ba a8 e2 34 3d a1 10 b8 ba
       -0.025704965 -0.001478216 0.04416147 -0.0014043042
000390 d0 a9 66 3d bc 5b 0f 3c bc 33 24 bd 1b d2 f7 bc
       0.05631429 0.0087498985 -0.0400884 -0.030251553
0003a0 0c c5 80 3d e0 7c 4e bd db 3f 15 bd 83 1a 2c bd
       0.06287584 -0.05041206 -0.03643785 -0.04201747
0003b0 d3 be ed 3b fa 63 32 bd e4 72 a5 bc 70 3e d1 3b
       0.007255414 -0.043552376 -0.020196386 0.006385617
0003c0 ff 0b c9 3c 2a 65 5d bd 3a ec 16 3d 29 80 2c bd
       0.024541853 -0.054051556 0.036846377 -0.04211441
0003d0 de 0b 76 bd 46 5a 68 3c b2 2a 1a bd ee 14 1b bc
       -0.06006991 0.014181679 -0.037638374 -0.009465439
0003e0 7c 6a 23 bd c5 20 03 bd f4 56 fc 3b 8f d8 65 3c
       -0.039896473 -0.032013673 0.0077007953 0.014028682
0003f0 23 78 3a 3d 36 92 7b bd fd 79 64 3d 85 17 1a bc
       0.045524728 -0.061418734 0.0557804 -0.009405022

actor.fc2.bias f4 [128]
000000 1a c2 71 bd 59 fd 74 bd 94 2c 98 3c 73 01 69 3d
       -0.059023 -0.059811924 0.018575944 0.056886148
000010 82 30 41 bc 4d 23 49 3d fc cd fb 3c 3b fa 35 3d
       -0.01179135 0.04910593 0.03073787 0.04442809
000020 eb 27 62 bc 98 1e 3a 3d f8 c0 4e 3d 6d 1e 2a 3c
       -0.0138034625 0.045439333 0.050476998 0.010383231
000030 b7 bf 1d 3d 3d 1a 0e bd 29 50 1e bc 5e 5a f3 bb
       0.03851291 -0.03469299 -0.009662666 -0.007426544
000040 c5 7f 4b 3d 00 f1 50 3c 21 1f fc ba eb f3 2c 3d
       0.049682397 0.012752771 -0.0019235351 0.042224806
000050 90 73 fe bb fe 21 3a bc 0c 8f 71 bd e1 cb cb 3c
       -0.007765241 -0.011360643 -0.05897431 0.02487749
000060 de b1 c4 ba 57 af c1 bb 65 7f d8 3b e9 48 eb bc
       -0.0015006622 -0.0059107947 0.0066069835 -0.02872129
000070 8e 90 97 bc 9f 00 e7 3c 7e c6 ea bb cf d3 36 3c
       -0.018501546 0.028198538 -0.0071647754 0.011158898
000080 59 96 0b 3d 9a 65 43 3d ef 4e 88 3c 8b 44 c8 bc
       0.03407893 0.047704317 0.016639201 -0.024446746
000090 ae 8a dc 3c 9b b5 4f 3a 61 49 7b bd 29 42 b1 bc
       0.026921596 0.00079234847 -0.061349276 -0.021637993
0000a0 ef 22 10 bd e5 be 7a bc 27 5a 11 bd a3 a5 bf bc
       -0.035189565 -0.015304302 -0.035486367 -0.023394411
0000b0 8d e0 5f 3c ba 8c 50 3d 04 94 56 3c 1b 3a 13 bd
       0.013664377 0.050915457 0.013096813 -0.035944086
0000c0 16 f7 e5 bb 0b 41 0b ba 87 d1 d3 bc 83 03 78 bd
       -0.0070179803 -0.00053121214 -0.025856746 -0.060550224
0000d0 53 df 41 3d e6 be 49 3d 3b a2 58 bd b0 8b 6d bd
       0.04733212 0.04925432 -0.05288909 -0.057994545
0000e0 6a de 1c bd 51 67 08 3d a1 70 21 3d cf 87 22 3d
       -0.038298048 0.033301655 0.039414052 0.0396803
0000f0 e2 97 e1 bc 71 c6 da 3c 21 04 c7 bc e0 76 11 3d
       -0.027538244 0.026705952 -0.024293961 0.03551376
000100 09 88 46 3c 7b 79 08 3d b5 2f 6f 3d 12 e6 33 3d
       0.012117394 0.033318978 0.058395106 0.043920584
000110 85 86 89 bc 51 c7 2a 3c ce 9c 11 bd 71 7d 61 3d
       -0.016787777 0.010423497 -0.03554993 0.05505127
000120 8f f3 3f bb 05 90 42 3d ed 96 4b 3d 38 24 16 3d
       -0.002928946 0.04750063 0.04970448 0.036655635
000130 0a 05 27 bd a1 31 b5 bc 11 88 01 bd c4 26 c4 bb
       -0.04077629 -0.022118391 -0.031623904 -0.0059860665
000140 99 d6 53 3d ae 9f 45 3d a2 d9 6a bd 42 af f3 3c
       0.05171833 0.048247986 -0.057336457 0.029746655
000150 e1 cf 51 3d dc 9d 2b 3d 62 ca 58 3d c6 3c 75 3d
       0.05122364 0.041898593 0.052927382 0.05987241
000160 1a 41 4b 3d 68 58 4a bd c5 19 c2 3c 57 50 42 bc
       0.049622633 -0.049400717 0.023693928 -0.011859975
000170 d4 78 db bc 2a 6d e5 3c b1 a1 37 3d 97 5f 47 bc
       -0.026791014 0.028006155 0.044831935 -0.0121687865
000180 d7 36 b5 3c ad 23 46 3d a2 d8 38 3c 64 7a 67 bd
       0.022120876 0.048373867 0.011282118 -0.056513205
000190 7c 1a c7 3c 08 74 34 bc 21 05 76 bb 43 67 b7 bc
       0.02430462 -0.011013992 -0.0037539678 -0.022388106
0001a0 f4 de 70 3d dd 11 1c 3c 39 7a 92 bc bd de 3e 3c
       0.058806375 0.009525743 -0.017880546 0.011649785
0001b0 20 26 2e bd 45 5e 68 bd ec 9c 03 bd dc b2 14 3d
       -0.042516828 -0.056730527 -0.032132074 0.036303386
0001c0 de 53 44 3b 31 13 d1 bc 54 b6 5a bd 1a fe 24 bd
       0.0029957215 -0.025521846 -0.053396538 -0.040281393
0001d0 80 da 66 3d 86 63 19 3d f1 45 ac 3c 50 c1 14 3d
       0.05636072 0.03744843 0.021029444 0.03631717
0001e0 d3 76 0d 3d c6 6b 2b 3d 3a 58 5e 3c 92 42 84 bb
       0.034537148 0.041850828 0.01357084 -0.004036256
0001f0 ae aa 95 bc 30 37 ff bb 4a d0 77 bd 0d cb e0 bb
       -0.018269863 -0.0077885613 -0.060501374 -0.006860143

actor.policy_head.weight f4 [5, 128]
000000 cb 16 33 3d 64 f1 44 bd 0a f1 50 3d 70 2c 24 bd
       0.04372291 -0.04808177 0.051011123 -0.04008144
000010 d9 92 90 3c 35 49 d1 bc d5 d4 ae 3d 57 fd a2 3d
       0.017648147 -0.025547603 0.08536688 0.07958477
000020 17 eb 02 bd d6 a6 81 bd 21 86 67 bd 70 8c 8a 3d
       -0.03196248 -0.063306496 -0.0565244 0.067650676
000030 c6 8d 3b 3c 8d f0 51 3d 18 4f 19 3d de fc 99 3d
       0.011447376 0.051254798 0.037428945 0.07518934
000040 97 5c c2 3c 3f 1b 4c bd 18 16 8a 3d 6c e1 a8 3d
       0.02372579 -0.04983067 0.06742495 0.08246121
000050 02 76 c6 3b dc 2c 6d bc fe b1 0a 3d bb 89 91 3d
       0.006056548 -0.014476027 0.033861153 0.07106348
000060 aa 38 9d bc 0e 47 e6 3b d7 87 6a 3d b5 d8 7b 3d
       -0.019192059 0.0070275133 0.057258453 0.061485965
000070 f7 d0 47 bd 40 4b 83 3b 77 9d 97 3d dd 1f 72 bd
       -0.04878327 0.0040067732 0.07403081 -0.05911242
000080 94 d4 19 3b 3e 57 73 3c 06 be 3f bd 01 29 a5 3d
       0.0023472654 0.014852343 -0.04681208 0.080644615
000090 80 da 7c 3d ba ee 1f 3d 27 b4 e8 bc c4 86 ef bc
       0.061731815 0.039046027 -0.028406216 -0.029239066
0000a0 12 ce 16 3d f0 d5 4a bd 31 96 91 3c 03 99 24 3d
       0.036817618 -0.049520433 0.017771812 0.040184986
0000b0 82 b1 89 bd 33 9f e0 bc 80 e7 d7 3c 1c f9 7d 3d
       -0.0672331 -0.027419662 0.026355505 0.062005147
0000c0 b8 ad 81 3d 55 e7 ca b9 a8 c2 55 3d 96 a3 e9 bc
       0.06331962 -0.00038700798 0.05218759 -0.028520387
0000d0 dd f7 c9 3c 88 56 0a 3d e4 29 88 3d 1d 29 68 3b
       0.024654323 0.03377393 0.06648615 0.0035424896
0000e0 17 bf 6a bd 87 4c 82 3d 5a 99 c5 bc e7 cb 2b 3d
       -0.057311144 0.06362253 -0.024120975 0.041942503
0000f0 69 11 af bc 08 c3 96 3d d5 41 8d bd 2f d5 32 3c
       -0.021370606 0.07361418 -0.06897322 0.010915085
000100 d1 41 a6 bc de 29 0e 3b 32 45 3e bc b0 19 3f bd
       -0.020295056 0.0021692435 -0.011613177 -0.046655357
000110 0a 2e 8b bd ac 6a 92 3d b1 82 73 3d 9a 4c fc ba
       -0.06795891 0.07149252 0.05945081 -0.0019248903
000120 54 c2 ef 3a ce b3 2a bd df 30 8d bd 04 34 05 bd
       0.0018292167 -0.04167538 -0.06894087 -0.03252031
000130 88 55 b2 bd fc fe 9f 3d 7c 52 33 3d 13 c6 8d 3d
       -0.0870772 0.07812306 0.043779835 0.06922545
000140 47 da 05 3d b7 37 85 3d 85 3f 66 bb a9 51 92 bd
       0.03267887 0.065047674 -0.0035133075 -0.07144482
000150 39 62 41 3d 23 cb 68 bd 6f 4f 0c bd 3b 1c 85 3d
       0.047212813 -0.05683435 -0.03425544 0.06499525
000160 15 85 57 3d 6f cc 89 bd 57 6c ad bd 03 94 b3 bd
       0.05261715 -0.06728446 -0.0846793 -0.08768465
000170 ca f6 32 bd 5a d7 94 3d 29 17 7d bd 78 f2 7d 3c
       -0.043692388 0.072676376 -0.061789665 0.015499704
000180 35 13 f5 bc 5d 0a 68 3d 2b 1f 9a bd 07 52 5a 3c
       -0.029916385 0.05665051 -0.07525476 0.013325221
000190 4f 91 18 bc cb db 28 3d 0b be 0b bd e3 1f 72 3d
       -0.009311988 0.041225236 -0.034116786 0.05911244
0001a0 83 16 43 3d ca 3b 8b 3d 5e b8 b6 3c d6 29 17 bd
       0.04762889 0.06798513 0.02230471 -0.036905132
0001b0 33 f9 46 bd 6d b0 97 3d fd 1f 83 3d 1a e1 c7 bc
       -0.0485775 0.074066974 0.06402586 -0.024399329
0001c0 7a fb 1e 3d ad 7b 33 bd e7 49 eb bc 18 66 69 bd
       0.038814045 -0.04381912 -0.028721763 -0.05698213
0001d0 42 69 09 bd f8 c4 88 bd ff 1e 84 bd ba cb 2b 3c
       -0.033547647 -0.06678194 -0.064512245 0.010485584
0001e0 c2 6b 39 bd 1b 0b a6 bd cf 9b 10 bd 15 c2 93 3d
       -0.04526878 -0.08107587 -0.03530484 0.072147526
0001f0 1b 0d 70 bd 64 4f 98 3d 15 51 2c bd 72 ae b4 3c
       -0.05860625 0.074370176 -0.042069513 0.022055838
000200 3e cf 3c 3d 10 5b af 3d 05 b4 85 3c 64 1b 7e 3d
       0.04609608 0.08562291 0.016321192 0.06203784
000210 e2 ca 29 bb d4 14 8c 3d cc 29 75 bd 4b e4 a3 bd
       -0.002590828 0.0683991 -0.059854314 -0.08002528
000220 67 cd 43 3d 81 eb 82 bd 71 9c 06 bc b8 53 13 3d
       0.04780331 -0.06392575 -0.0082160095 0.035968512
000230 d0 07 0f bc cb 3f b2 3d 7a db 2f 3d c8 e6 84 3c
       -0.00872989 0.08703574 0.04293392 0.016223326
000240 1f 48 28 3d cc 19 8a 3d 1b ca 2b bd ec 59 66 bd
       0.041084405 0.067432016 -0.04194079 -0.0562381
000250 bb ff 3f bd 3d 1b e5 bc 49 f0 a3 bd c9 c5 91 3d
       -0.046874743 -0.02796709 -0.08004815 0.07117803
000260 af f6 8c 3d f0 65 51 3d 5e fc 9c 3d cd ea a1 bd
       0.06882989 0.051122606 0.07665323 -0.07906113
000270 81 73 91 bd ac 82 5a bc e6 1e 90 bc ce 69 35 3b
       -0.07102109 -0.013336819 -0.017592859 0.0027681473
000280 7d bb 91 ba 52 31 f7 3c 35 45 cb bc 27 17 69 bd
       -0.0011118498 0.030174885 -0.024813274 -0.056906845
000290 49 80 ad bd 14 d8 a2 3a dd d1 ee bc 35 ca db bc
       -0.08471734 0.0012424015 -0.029152805 -0.026829818
0002a0 a0 b1 8f 3d c3 3d 2f 3d 00 85 9d bc 89 1a 7a 3d
       0.07016301 0.04278351 -0.019228458 0.061060462
0002b0 87 49 eb bc 4f 01 0c bd 18 ee a6 3c fd c0 47 3d
       -0.028721584 -0.034180935 0.020377204 0.048768032
0002c0 e3 58 e1 bc c6 ef 87 3d bd 0d 9f bd 68 9a ac bd
       -0.027508205 0.0663753 -0.07766292 -0.08427888
0002d0 50 fd 95 3c d8 61 25 39 d4 43 d8 3c b8 e4 83 3c
       0.018309265 0.00015772076 0.02639953 0.016100273
0002e0 d3 bc ec bc de 14 98 bd 35 d5 77 3d 28 8e b1 3d
       -0.028898632 -0.07425855 0.060506064 0.08669692
0002f0 31 c8 c9 3c 33 32 f5 3c 65 ec 80 3d 45 9a 81 3d
       0.024631592 0.029931163 0.06295089 0.06328253
000300 21 45 77 bd aa a5 90 bc 53 ff 64 3d 64 67 83 3d
       -0.06036866 -0.01765712 0.05590756 0.064162046
000310 da ca 4c bd 44 ad b3 3c c9 9d f1 3c c6 1c 72 3d
       -0.04999814 0.021933205 0.029494183 0.05910947
000320 e0 b0 a7 3d 15 12 4f bb e4 91 80 bc 55 6f 36 3d
       0.08188033 -0.003159647 -0.015694566 0.04453977
000330 c6 c8 9e 3c e8 77 34 3c 3a d3 08 3c 6e f7 83 3d
       0.019382846 0.011014916 0.008351142 0.06443678
000340 3f 03 11 bd e2 1b 4f 3c 7d 61 85 3d 3b 5a 97 bd
       -0.035403486 0.012640925 0.06512735 -0.07390257
000350 2e 86 83 3d ec 06 89 3d 1e 84 aa bd f5 e5 5c bd
       0.06422077 0.06690773 -0.083259806 -0.05393024
000360 2e a7 a6 bd 0c 79 6d 3c 18 13 43 bd ca a1 e7 ba
       -0.08137356 0.014494192 -0.04762563 -0.0017672118
000370 6a bb a6 bd 24 af a3 bb 05 e1 48 bd 71 e1 ad 3c
       -0.08141215 -0.0049952436 -0.04904272 0.021225663
000380 a3 a9 72 bc 80 c1 a4 3d 86 33 fe bb e5 b3 a8 bc
       -0.014810952 0.0804472 -0.007757607 -0.020593593
000390 9d 94 7c 3d 5a 20 d9 bc fc 8a 54 3c fa 0f 54 bc
       0.061665166 -0.026504684 0.01297259 -0.012943262
0003a0 37 c4 37 bd 7a a6 a0 3d 5d 0f 83 3d 83 1b 13 3c
       -0.04486486 0.07844253 0.06399415 0.008978727
0003b0 55 9b 99 3d ab f9 d1 bb 2f 1d 21 3d be 60 ac 3d
       0.0750033 -0.0064079366 0.039334472 0.084168896
0003c0 41 8f 16 3d 90 f3 9f bd 09 aa 8b bd 33 c9 56 3c
       0.03675771 -0.07810128 -0.06819541 0.013109493
0003d0 63 04 60 bd dc ca 76 bd f7 9d a9 bd ce 1a 6c 3d
       -0.054691684 -0.060252056 -0.082820825 0.05764275
0003e0 bf 61 e5 bc 77 ce 65 3d fc 24 f6 bc 3d 5f e2 3c
       -0.02800071 0.056105103 -0.030046932 0.027633304
0003f0 ea f9 74 3c 57 19 26 bd b2 c1 8d 3c f8 b2 45 bb
       0.014952162 -0.04055151 0.017304275 -0.0030166488

actor.policy_head.bias f4 [5]
000000 ba 0d 19 3d 1a 42 c3 3c 22 f3 e4 3c 4e 16 7b 3c
       0.037366606 0.02383523 0.027947966 0.015325142
000010 2c e6 ec 3a
       0.0018073968

critic.fc1.weight f4 [256, 8]
000000 9d 96 98 3c 0f f4 27 3d 5b a6 4b 3c 84 f1 28 be
       0.018626506 0.041004237 0.012429799 -0.16498381
000010 e2 24 aa 3e 41 a9 29 bd d1 2e 59 bd 56 79 9b bd
       0.33231264 -0.04142118 -0.053023163 -0.07591502
000020 9a 87 1e 3e c7 34 71 3d db 85 ce bd e0 75 24 be
       0.15481415 0.058888223 -0.10084125 -0.1606059
000030 72 3a a0 3e 6a bd 44 bc 1d eb 68 be 5f 28 6b 3e
       0.3129459 -0.01200805 -0.22745939 0.22964619
000040 20 9c a3 be 74 ad b5 3c 40 2d 7f bd 10 8d 19 3d
       -0.3195505 0.022177435 -0.062299013 0.037488043
000050 1d 44 4c 3e b4 9c b2 3d 13 2b 09 be 8c 16 ff 3d
       0.19947858 0.08721295 -0.13395338 0.12455472
000060 9d b0 ac 3e cf 2c 19 3e bc 26 d7 3c e4 96 15 bc
       0.33728495 0.149585 0.026263587 -0.009130213
000070 69 b5 a4 be 7a 2b 66 be db a2 a9 be 2a 6a 93 3e
       -0.32169655 -0.22477522 -0.3313206 0.28791934
000080 de bf b3 3e d2 3b 37 3d 09 86 6f 3e 9c da 62 be
       0.3510732 0.044734783 0.23390974 -0.22153705
000090 33 21 ce 3d f5 7f af 3d e6 13 81 be ea c1 16 3d
       0.10064926 0.08569328 -0.25210494 0.036806025
0000a0 8e 0c ad be 12 8c 7c bd 4d 6e a2 be 9f 5e 0e 3e
       -0.3379864 -0.06165702 -0.31724778 0.13903283
0000b0 00 63 8e 3e 95 76 b6 3d 64 07 b3 be 40 87 6d be
       0.27809906 0.089093365 -0.34966576 -0.23196125
0000c0 37 93 a0 3e 89 5a 3e be aa 38 7a 3e 70 9f 4a 3e
       0.31362316 -0.18589224 0.24435678 0.19787383
0000d0 17 77 16 3e df f2 bf 3d 2a 20 74 3d f1 be ac bc
       0.14693867 0.09372496 0.059600987 -0.021087142
0000e0 77 27 a6 be a1 03 e7 bc 69 1a 84 3e 22 15 a5 3d
       -0.32451984 -0.028199973 0.258014 0.080606714
0000f0 ab 81 61 bd 3b c2 14 bd 96 30 9e 3c 8f 74 37 3e
       -0.0550553 -0.036318045 0.019310277 0.17915557
000100 d7 c4 0f be 83 cf c6 ba 05 76 41 3e 5f 3a 3c be
       -0.14039932 -0.0015168044 0.18892677 -0.18381642
000110 ed ec 9f be 7a f0 ed 3d aa 17 7a 3d 27 43 66 be
       -0.31235448 0.11618133 0.061057724 -0.22486554
000120 ae 36 82 bd b2 f9 bb 3d 3a cd 38 be 9d 1c ab bd
       -0.063580856 0.09178485 -0.18047038 -0.08355067
000130 fc 79 04 3e 4b c9 30 3e c1 7b 92 3d 7b 4a 05 be
       0.12937158 0.17264287 0.071525104 -0.13016693
000140 da f8 7d 3e 3b 1c ad bd d4 41 b2 3e 7e 34 97 bc
       0.2480196 -0.0845265 0.34815848 -0.018457647
000150 1d 25 1e 3c 51 8a 75 3e 4a 03 14 bd 74 68 52 be
       0.009652403 0.23978545 -0.03613595 -0.20547658
000160 e6 09 40 be 8b 29 02 3d 32 05 84 bd 42 52 06 bc
       -0.18753776 0.0317779 -0.064463034 -0.008198323
000170 c5 33 ce 3d 24 d9 1e 3d 01 60 be 3d b4 6c 3e 3e
       0.10068468 0.0387813 0.09295655 0.18596154
000180 49 56 7a bd b0 2d 14 bd d6 b5 75 be 94 e4 fa 3d
       -0.061117444 -0.036176383 -0.23995146 0.12250629
000190 ee 45 ac 3e fd e3 9a be ac 06 91 3e f1 cc 03 3e
       0.33647102 -0.30252066 0.28325403 0.12871148
0001a0 27 ed a0 3d de 01 91 be be 63 ad 3e 31 37 22 be
       0.07857733 -0.28321737 0.3386516 -0.15841366
0001b0 ab 07 08 3e 2f 15 4e 3e 32 e5 83 3e 9c 4d a5 be
       0.13284175 0.20125268 0.257608 -0.32285774
0001c0 fe 61 31 3e 11 ce 95 3e f6 69 14 3e 0c 3e 05 bb
       0.17322537 0.2925878 0.14493546 -0.0020331172
0001d0 34 b0 a3 be e6 b2 b2 3e e6 ea 4f 3e 50 e4 72 3e
       -0.3197037 0.34902114 0.2030445 0.23719907
0001e0 ca b7 8d bc cb 2a 33 3d d7 b1 58 3d b6 c3 17 3b
       -0.017299552 0.043741982 0.052903976 0.0023157424
0001f0 fa d3 a5 3e 88 f7 0f be 7a cd d8 3a 8c 92 45 be
       0.32388288 -0.1405927 0.0016540729 -0.19294184
000200 74 90 5a 3e 67 00 45 3e 22 8e b8 3d d1 05 37 be
       0.21344167 0.19238435 0.09011485 -0.17873313
000210 f5 ac c1 3d 82 20 c0 bc c1 a7 f7 3c c3 a5 fa bd
       0.09456817 -0.023453001 0.030231358 -0.12238648
000220 61 8d 07 3e 58 03 16 be 08 bd 09 3e 63 24 bf 3d
       0.13237526 -0.14649713 0.13451016 0.09333112
000230 93 83 8f be d6 10 03 3e 72 6f 32 be 9e b7 9c be
       -0.2803007 0.12799391 -0.17425326 -0.3060884
000240 5d e2 53 3e 2a 1c 56 3e 2a 21 85 be cc f8 20 3d
       0.2069182 0.20909181 -0.26001865 0.03929977
000250 51 4e 86 3e 93 ac 93 3d e6 9a 82 3e c0 13 46 3d
       0.26231626 0.0721065 0.25508803 0.04835868
000260 f5 09 ae 3e 18 87 80 3e 65 55 af bd 25 6a e5 3d
       0.33991972 0.25103068 -0.085612096 0.11201886
000270 25 d5 ae 3e e3 33 d4 3d 03 3a a3 3d 51 58 97 bd
       0.3414699 0.10361459 0.07970049 -0.07389892
000280 d8 df 51 bc 8b 52 f8 bd cd d5 60 be ae 2c a1 3e
       -0.012809716 -0.12125119 -0.21956559 0.314794
000290 c4 34 93 3e 34 0e a8 3e 20 59 3c 3e 07 b1 2b 3e
       0.28751194 0.32823336 0.18393373 0.1676675
0002a0 d3 01 e6 3c 94 4e 3d 3e 79 9d d0 bd 92 ce 99 3d
       0.028077042 0.18487006 -0.101862855 0.07510103
0002b0 4a fc 82 be ca 86 57 bd 6d a4 6c be 42 3c 94 be
       -0.25583106 -0.05261878 -0.23109598 -0.28952223
0002c0 5c ba 9b 3e 52 3e 8a bd f8 ac 82 3c da e0 a1 3e
       0.30415618 -0.06750168 0.015951619 0.3161686
0002d0 cc 2e 2e bd 31 8d 64 3e 23 c9 3c be 8a e9 4b 3e
       -0.042525098 0.22319485 -0.18436103 0.19913307
0002e0 98 1c ad 3e cb 36 60 3d 84 91 09 3e a6 7e 8e bd
       0.33810878 0.054739755 0.13434416 -0.0695775
0002f0 49 86 90 bd 84 37 8a be f4 76 59 3c 0a 36 55 3e
       -0.07056863 -0.2699548 0.01327299 0.20821396
000300 27 ee e0 3d c3 8a b0 3e 2d 75 38 be 8f 92 86 3e
       0.10982924 0.34480867 -0.18013449 0.2628369
000310 47 1c ee 3c ec 96 99 3c 82 55 fa bc 3d ea b1 bc
       0.029066218 0.018748723 -0.030558351 -0.021718139
000320 0d 9b 48 be b5 1a 2c 3e c5 f4 89 3d d6 4b af bd
       -0.19590397 0.16807063 0.06736139 -0.085593864
000330 df 33 fe bc 9b 39 99 be 8e 4a 02 be 0d c2 48 3e
       -0.031030593 -0.29926762 -0.12723753 0.19605274
000340 a9 71 85 be ce 99 be bc 05 62 63 3e b0 68 92 be
       -0.26063278 -0.0232667 0.2220536 -0.28595495
000350 78 17 30 3e 45 2e 8f be fc 4d b3 3e bb 08 69 3c
       0.17196453 -0.27964988 0.35020435 0.014223273
000360 cb 79 b9 bb b6 68 17 3e c2 c0 70 3e 77 c6 b2 3d
       -0.005660271 0.14786038 0.23511031 0.087292604
000370 73 9a fe 3c e2 6e 58 be d8 43 62 be 28 92 63 3e
       0.031079507 -0.21136048 -0.22096193 0.22223723
000380 3b 0f 1b bd 2a 62 9b 3d ab 9a 49 3e ff 3d 88 3d
       -0.03785632 0.07587083 0.19687907 0.0665245
000390 77 24 5c 3e b2 d3 0f 3e b2 f3 85 be 4d 7f 80 3d
       0.21498285 0.14045599 -0.26162487 0.06274281
0003a0 62 49 67 be c0 57 52 be 6c c3 b2 bd 66 5b 4f bd
       -0.22586587 -0.20541286 -0.0872868 -0.050624274
0003b0 5f 8a 28 be ec 6b 5c 3e 81 01 a4 3e 1c a1 36 3d
       -0.16459034 0.21525544 0.32032397 0.04458724
0003c0 f2 32 1c be 0a 84 5a 3d 9b 12 2e 3d 3a 6f 8a 3e
       -0.15253809 0.05334858 0.042498212 0.27037984
0003d0 bb 96 91 3e 28 89 9d 3e 9a 95 8d ba 69 35 ba 3d
       0.2843531 0.30768704 -0.0010802031 0.090922184
0003e0 f9 a4 2a bc 6e 58 76 3d 0a ed 92 be 3d 56 04 3e
       -0.010415309 0.060142927 -0.2869647 0.12923522
0003f0 2d 16 b1 3d 43 a5 04 be 5c 56 66 be 1f 2d a3 3e
       0.08646808 -0.12953667 -0.22493881 0.31870362

critic.fc1.bias f4 [256]
000000 9f 6f 8c bd 7f da 60 3d f1 7f ac 3d 0a aa b1 3d
       -0.068572275 0.054895874 0.084228404 0.086750105
000010 c6 b3 ad 3e c4 be 98 3e c6 8b c9 bd 46 ce d4 3d
       0.3392622 0.29833043 -0.09841113 0.10390906
000020 2e 59 2b be 7f e2 ae be bd 4b 2b be 91 d3 f8 bc
       -0.16733238 -0.34157178 -0.1672811 -0.03037432
000030 91 f6 9d be 10 34 dc bd 66 fc a9 3e 73 4e b4 3e
       -0.30852178 -0.10752118 0.33200377 0.35216102
000040 76 61 56 bd 55 f9 a9 3e be 8a 0c be 9a 0f 43 be
       -0.05233904 0.33198038 -0.13724801 -0.1904892
000050 40 16 89 be 67 8b 90 3e f0 26 63 bc 51 6f 9c 3e
       -0.26774788 0.28231356 -0.013864264 0.30553678
000060 7b a9 a2 3d fa 46 81 bd e2 21 20 3e f0 0e a7 3e
       0.07942482 -0.06312366 0.15637925 0.32628584
000070 fc 82 b1 bd 9b 39 7f 3e 10 c2 9f be 30 33 f6 3c
       -0.086675614 0.24924318 -0.31202745 0.030053705
000080 64 cd 5a be dc 73 a1 be e3 98 65 3e 06 4b 0c be
       -0.21367413 -0.31533706 0.22421603 -0.13700494
000090 19 ab fe 3d ea 50 da 3d 33 01 d2 3d e6 78 91 3b
       0.12434978 0.106599644 0.10254135 0.004439461
0000a0 8d b7 7c be f2 40 48 3e bd 7c 51 3c bc 9c ab 3e
       -0.24679394 0.19556025 0.012786088 0.33518016
0000b0 58 87 53 be 61 d6 7d 3e d7 50 6a be c3 6d 1b be
       -0.20657098 0.2478881 -0.228824 -0.1517859
0000c0 bd b0 6a bd 76 d4 6a 3e 75 0e 81 3e a3 4e 80 be
       -0.057297457 0.2293261 0.25206342 -0.25059995
0000d0 48 8b 55 be e7 5f a2 be bf a5 4e 3e 29 5b a3 be
       -0.20853913 -0.31713793 0.20180415 -0.31905487
0000e0 bb 0d 1b 3d a3 2c 76 be e4 23 94 3e a4 ed 4c 3d
       0.03785489 -0.24040465 0.28933632 0.05003132
0000f0 83 17 3d be 25 99 52 3e b7 bb 58 3e c7 c8 85 bd
       -0.18466 0.20566233 0.21165358 -0.06532436
000100 d1 a4 86 be a8 aa a5 be b0 1d 04 3c bf cf f0 3d
       -0.2629762 -0.32356763 0.008063719 0.117583744
000110 76 b4 83 be bd 78 d2 bd 5f 7c b8 bd 29 26 2c bd
       -0.25723618 -0.10276935 -0.09008097 -0.04202858
000120 96 00 07 3e f0 b0 ab 3e 89 b1 ae be 12 71 92 3e
       0.13183817 0.3353343 -0.34119824 0.2860189
000130 eb d5 82 be 2e 55 86 be 3e 4e dd 3d f3 12 98 be
       -0.2555383 -0.26236862 0.10805939 -0.29701957
000140 3e 4c b8 3d 68 99 6c be 58 45 1f 3e f8 d8 b1 3d
       0.08998917 -0.23105395 0.15553796 0.08683962
000150 83 73 cf bd 10 a3 e3 bd a3 d8 b3 be 0c 33 09 3d
       -0.10129454 -0.11115086 -0.35126218 0.033495948
000160 fd 69 7f 3e a4 81 02 3c 28 11 98 be f0 ba 17 3d
       0.24942775 0.007965479 -0.2970059 0.037043512
000170 ac 3a b7 bc b8 4b 8b be 7c f6 85 bc fc 95 a8 3d
       -0.022366844 -0.27206206 -0.016352884 0.08231732
000180 f2 4a 66 bc 83 27 4e 3e 7d 85 22 3e 11 5d 5c 3e
       -0.014055954 0.2013226 0.15871234 0.21519877
000190 f7 c2 86 bd a5 20 a7 be ec 4c 71 3c 0a 20 85 3e
       -0.06580155 -0.32642093 0.014727812 0.26001006
0001a0 95 c1 cc 3c a9 ea 20 bc 3d de 89 3e 12 3b 02 be
       0.02499465 -0.009821572 0.26927367 -0.12717846
0001b0 65 11 0f 3e 96 f8 7c be 34 c1 4d 3d a9 2c 05 3e
       0.13971479 -0.24704203 0.05023308 0.13005318
0001c0 96 79 4e 3e 8c fe 97 be bc 79 9e be 11 c2 35 be
       0.20163569 -0.2968639 -0.3095225 -0.17749812
0001d0 d2 d5 a9 3e 1b c7 ba 3d 5d 78 b1 be ef 53 5d be
       0.33170944 0.091200076 -0.34662142 -0.2161405
0001e0 87 1a 18 be 69 c6 f6 3d 26 53 55 3e 60 aa 86 be
       -0.1485387 0.120495625 0.208325 -0.2630186
0001f0 dc 69 3e be ee 47 fd 3d fb df 38 3c 35 43 9b 3d
       -0.1859507 0.12367235 0.01128387 0.07581178
000200 ff a8 cf bd fc 63 da 3d f3 53 48 3e 38 1a 90 be
       -0.10139655 0.10663602 0.19563274 -0.28145003
000210 89 7f 4a be d3 9d 78 be 2d 84 20 3e 4d 4e 8c be
       -0.19775213 -0.24278955 0.15675421 -0.2740349
000220 5f d6 4f be d9 76 a8 3d fa 83 3a 3d eb 49 34 be
       -0.2029662 0.082257934 0.04553602 -0.17606322
000230 01 89 55 3e f4 17 ee 3c be 0d 31 3c a1 a9 aa be
       0.20853044 0.029064156 0.010806499 -0.33332542
000240 62 61 aa be 99 13 75 3e aa 3c 6c bc d3 45 c9 3c
       -0.33277422 0.23933257 -0.01441876 0.024569428
000250 7c 10 6b 3e 80 e4 16 3e 20 33 ae 3e d6 06 40 3c
       0.22955507 0.14735603 0.3402338 0.01172038
000260 d9 0b 37 be 37 b6 81 3d 43 7e 3d 3e 35 0f f3 bd
       -0.17875613 0.06333583 0.18505196 -0.11868135
000270 fd 42 58 3e 57 64 e1 3d 2e 81 98 3c 83 4f 6a 3d
       0.21119304 0.110054664 0.018616285 0.057204735
000280 05 e1 0a 3e 33 e5 46 be 67 9f 8a be 54 a5 76 3d
       0.135624 -0.1942337 -0.2707474 0.060216263
000290 7b 53 93 bc bf a6 22 3e 2d ad ca 3d 91 20 cf bc
       -0.017984143 0.15883921 0.09896312 -0.025284084
0002a0 1c cd b3 3d b8 02 7f 3e 56 3a 99 3e 70 74 1b bd
       0.08779356 0.24903381 0.2992732 -0.03795284
0002b0 d5 59 8b 3e e3 66 a6 3c 0d 36 02 3e 9b e4 a6 be
       0.27216974 0.020312732 0.12715931 -0.32596287
0002c0 48 70 86 be 98 a8 99 3e 03 d3 15 3e 97 f0 8d 3e
       -0.2625754 0.3001144 0.14631276 0.27722618
0002d0 74 b3 b3 be 5c 2e 7f 3e 2c b5 4f 3e c0 cd b2 3e
       -0.3509785 0.24920028 0.20283955 0.349226
0002e0 16 43 63 bd 8e 2f c5 bd 0b 2a 87 3e ac 5f 9c be
       -0.0554839 -0.09628211 0.26399264 -0.30541742
0002f0 fb 44 c5 3d 23 9e 29 be bc 1d 8e 3c 2a fa 1b be
       0.096322976 -0.1656423 0.017348163 -0.15232149
000300 ea 29 6e 3e cf 6b 29 be 64 09 b5 3c 11 76 08 bc
       0.23258176 -0.16545032 0.022099204 -0.0083289305
000310 97 f2 01 3e bd b5 c2 3d 27 5b 6c bd 06 6d d5 3d
       0.12690197 0.0950732 -0.057704117 0.10421185
000320 5f 7d db 3d d4 82 9d 3e e8 c7 64 3e df 05 70 3e
       0.10717272 0.30763876 0.22341883 0.2343974
000330 c8 0e 51 3e 47 31 8a 3d f7 f8 85 be ec dd 3d 3e
       0.20415795 0.0674768 -0.26166508 0.18541688
000340 c7 6e 7d 3d ae 02 a3 3d d2 13 b5 3d db 70 6d 3e
       0.061873224 0.079594955 0.08841671 0.23187582
000350 28 f7 aa 3e 0f 10 b1 be d5 49 db bc f6 5f 94 3e
       0.3339169 -0.34582564 -0.026768604 0.28979462
000360 a8 c7 96 be e0 9a 27 be 52 e2 5c 3e 44 71 87 be
       -0.294492 -0.16367674 0.2157071 -0.26453602
000370 d9 52 9f 3e 00 26 d7 bc fc 0f 43 3e a4 90 1e 3e
       0.31117895 -0.026263237 0.19049066 0.15484864
000380 24 c1 91 bd 35 a5 96 3d 40 16 7f be 30 1a 9b 3e
       -0.07116917 0.073557295 -0.24910831 0.30293417
000390 55 53 b4 3d d2 07 d9 3d 25 c9 86 3e 6d e4 9d be
       0.08804957 0.10597195 0.26325336 -0.30838338
0003a0 3a ce 4c 3e af 0a 9b 3e cb d9 b4 3e f6 2a 94 3e
       0.20000544 0.30281588 0.35322413 0.28939027
0003b0 2c 5d 5f 3e 79 04 9c 3d 49 37 b2 be d8 50 83 be
       0.21812886 0.076180406 -0.34807804 -0.25647616
0003c0 ea e2 34 3e a4 87 a1 3e 0a 14 9f be c7 f0 6c 3e
       0.17664686 0.31548798 -0.31069976 0.23138724
0003d0 4a f1 14 be 68 0c 52 3d 8c 19 97 bd 6f 25 30 be
       -0.1454517 0.051281363 -0.073779196 -0.1720178
0003e0 a6 ab 9b be a5 09 8a be 26 f2 fd bd d9 ec b3 3e
       -0.30404395 -0.26960483 -0.12399702 0.35141638
0003f0 c0 66 88 be b2 df 9d 3e 36 38 f5 3c 4a 22 18 3e
       -0.26640892 0.30834728 0.02993403 0.1485683
