server/policies/checkpoints/policy_2_600/model.pt (torch, 338258 bytes, 11 tensors)

actor.fc1.weight f4 [256, 21]
0	0xbe1e52bb	-0.15461247
1	0xbe101f68	-0.1407448
2	0x3d4b5bcb	0.049648087
3	0xbdf5d7f5	-0.12004081
4	0xbd351b38	-0.04421541
5	0x3e08a1e2	0.13343003
6	0xbca4e1aa	-0.020127136
7	0xbd867232	-0.0656475
8	0x3e3f415f	0.18677281
9	0x3e4551bc	0.1926946
10	0xbe49fd7f	-0.19725607
11	0xbd04f1ff	-0.032457348
12	0x3c9f5b0b	0.019452592
13	0x3cab753e	0.020929929
14	0x3d46b01f	0.048507806
15	0xbdd3aed5	-0.10336081
16	0xbe04c311	-0.12965037
17	0x3de33558	0.11094159
18	0x3e514b56	0.20438895
19	0xbd95d0de	-0.07315229
20	0xbe3f6c2b	-0.18693607
21	0x3e559386	0.20857057
22	0x3bc9f070	0.0061626956
23	0x3e0462e2	0.12928346
24	0xbd1f5bf2	-0.038906045
25	0xbd74cb97	-0.05976447
26	0x3d1a2275	0.037630517
27	0x3e36d936	0.17856297
28	0x3d84cf9a	0.06484909
29	0x3e3d1795	0.18466027
30	0x3dbd67ae	0.09248291
31	0xbd17f97e	-0.03710317
32	0x3d061061	0.032730464
33	0x3e5367b8	0.20645034
34	0x3c088c4a	0.008334229
35	0xbe5527cb	-0.20815961
36	0x3c74848c	0.01492418
37	0xbcb3c031	-0.02194223
38	0xbdaa4ada	-0.08315058
39	0x3db53692	0.08848299
40	0x3cd68b71	0.026189538
41	0xbdd0bf62	-0.101927534
42	0x3e33a80a	0.1754457
43	0x3e29a4e2	0.16566804
44	0xbe383472	-0.17988756
45	0xbd22823f	-0.039674994
46	0xbe4993c9	-0.19685282
47	0x3e0c13d6	0.13679442
48	0xbd423079	-0.04740951
49	0xbe00d7e9	-0.12582363
50	0xbdf52259	-0.11969442
51	0xbb1a996b	-0.002358998
52	0xbdf0d2c4	-0.1175895
53	0xbe575fce	-0.2103264
54	0xbe3f70d8	-0.1869539
55	0x3e1d61ce	0.15369341
56	0x3db2cfc3	0.08731034
57	0xbe50d45b	-0.20393507
58	0x3d9610e8	0.07327443
59	0xbe208324	-0.15675026
60	0x3e1a8ecb	0.15093534
61	0x3d094a59	0.03351817
62	0x3cc8a618	0.024493262
63	0x3ce7d11b	0.028297951
64	0xbddb2b52	-0.10701622
65	0x3e2de8bf	0.16983317
66	0x3e24941e	0.16072127
67	0x3e54252f	0.2071731
68	0xbdc73646	-0.09727149
69	0x3e1914a3	0.14949279
70	0xbca96efc	-0.020682804
71	0xbded252d	-0.11579356
72	0xbe54fc26	-0.20799312
73	0xbdb76384	-0.08954528
74	0x3dd4b8ca	0.10386808
75	0xbc1e9e08	-0.009681232
76	0x3e5c357f	0.21504782
77	0x3ddb8ad1	0.107198365
78	0x3dfcf9fb	0.123523675
79	0x3b256993	0.002523993
80	0x3cf0fec2	0.029418353
81	0xbd139494	-0.036030367
82	0xbe2a7146	-0.16644773
83	0x3cf8fbd9	0.030393528
84	0x3d97a6e5	0.074048795
85	0x3e4d2960	0.20035315
86	0xbdb7000f	-0.08935558
87	0x3caa9d38	0.02082692
88	0xbd238695	-0.03992327
89	0x3e3df35a	0.18549863
90	0x3e074acc	0.13212126
91	0xbe219c73	-0.15782337
92	0x3d8df30b	0.069311224
93	0x3c015f97	0.007896326
94	0x3d59df90	0.05319172
95	0x3cc1bba4	0.023649044
96	0xbd4683c7	-0.048465516
97	0x3e6067bc	0.21914572
98	0xbc94bee3	-0.018157428
99	0x3dfe1ff7	0.124084406
100	0x3dcc18aa	0.09965642
101	0xbe0c0d3a	-0.1367692
102	0x3ddeb7bc	0.10874888
103	0x3e2ec15c	0.17065948
104	0x3e594fe1	0.21221878
105	0xbd0098bd	-0.031395663
106	0xbe1ca76d	-0.15298243
107	0xbd1881d7	-0.0372332
108	0xbdcd3ea4	-0.100217134
109	0x3d412dce	0.047162823
110	0x3b5234bc	0.003207489
111	0x3d5e054f	0.05420428
112	0xbcc29645	-0.023753295
113	0x3e0966ee	0.13418171
114	0xbe57b4fb	-0.21065132
115	0x3dd1cb3e	0.102438435
116	0x3df74893	0.12074389
117	0xbe56c9a1	-0.20975353
118	0x3e300209	0.17188276
119	0x3caada5a	0.020856071
120	0x3ccd13b1	0.025033804
121	0x3ddd85fb	0.1081657
122	0x3db5a99d	0.08870242
123	0x3e12932c	0.14313954
124	0x3cf053c2	0.029336814
125	0x3dbe77a6	0.09300165
126	0x3e09497d	0.1340694
127	0x3d2b0045	0.041748304
128	0x3e26cff3	0.16290264
129	0x3c97aa74	0.018513896
130	0x3be6ca2a	0.007043143
131	0xbdb2005f	-0.08691477
132	0xbe51ba2f	-0.2048118
133	0xbe135a77	-0.14389978
134	0xbe24cafe	-0.1609306
135	0x3dd25a3c	0.10271117
136	0x3d7a943c	0.061176524
137	0xbddab52f	-0.10679089
138	0x3cf25058	0.029579327
139	0xbe1dc422	-0.1540685
140	0xbdf31816	-0.118698284
141	0xbe5e900f	-0.21734641
142	0x3df61a10	0.1201669
143	0x3e1d12c0	0.15339184
144	0x3d8f08e9	0.06984121
145	0x3e15856f	0.14601682
146	0xbe537529	-0.20650162
147	0xbe122d03	-0.14274983
148	0x3d916f52	0.07101311
149	0xbcaf3245	-0.021386275
150	0x3d5d6609	0.054052386
151	0xbd47347d	-0.04863404
152	0xbde1c6ff	-0.110242836
153	0x3a5fcc44	0.0008537213
154	0xbc26636e	-0.010155542
155	0xbd81d10e	-0.06338702
156	0x3cd03a08	0.025418296
157	0x3e0f6640	0.14003849
158	0x3c2662e5	0.010155414
159	0xbe2e4b95	-0.1702102
160	0xba802be6	-0.0009778708
161	0xbda97ae7	-0.08275395
162	0x3d6a0372	0.057132192
163	0x3e26dcb2	0.16295126
164	0xbdcda2fb	-0.10040852
165	0x3db8a119	0.09015102
166	0x3e4bfe9c	0.19921345
167	0xbcf7bce0	-0.03024143
168	0xbc244108	-0.01002527
169	0x3dbc9873	0.09208765
170	0x3e5ac9c0	0.21366024
171	0x3e443c59	0.19163646
172	0x3e5d0d27	0.21587048
173	0xbd2f78f3	-0.042839956
174	0xbe012528	-0.1261183
175	0x3d416a25	0.047220368
176	0x3e20b6a5	0.15694673
177	0xbe19c1f2	-0.1501539
178	0x3d3acf08	0.045607597
179	0x3e438997	0.19095455
180	0xbc66f342	-0.014096083
181	0xbe053763	-0.1300941
182	0xbd4bbc4a	-0.049740113
183	0xbda68331	-0.081304915
184	0xbe29e3b7	-0.16590773
185	0x3da6fc0a	0.081535414
186	0x3e1cb01a	0.15301552
187	0x3de781e3	0.11304071
188	0xbe1983c4	-0.14991671
189	0x3c95b88f	0.018276481
190	0x3e10c5a1	0.1413789
191	0xbc6b7c47	-0.014372892
192	0xbb009c92	-0.0019624573
193	0xbd730693	-0.05933244
194	0x3e14406a	0.14477697
195	0x3d9160f6	0.07098572
196	0xbda56163	-0.08075216
197	0x3dbcd6f9	0.0922069
198	0xbe4840fd	-0.19556041
199	0xbdf63f93	-0.120238446
200	0xbe2f14c6	-0.17097768
201	0x3e15f176	0.14642891
202	0xbe173f06	-0.14770135
203	0x3de083ea	0.109626606
204	0x3e49097e	0.19632527
205	0x3ddc5e06	0.10760121
206	0x3e24c259	0.16089763
207	0xbcfbbee5	-0.030730674
208	0x3e29e5ab	0.16591518
209	0xbda14baf	-0.078757636
210	0x3d12037e	0.03564786
211	0xbd2f9633	-0.04286785
212	0xbde05b14	-0.10954872
213	0x3e28b112	0.16473797
214	0x3e142dee	0.14470646
215	0x3d07c02e	0.03314226
216	0xbe239779	-0.15975751
217	0xbc2cd6c1	-0.010549248
218	0xbd4be889	-0.04978231
219	0xbe3c34de	-0.18379542
220	0x3e3dfb9d	0.18553014
221	0xbe5e26d3	-0.21694498
222	0xbc092255	-0.008370002
223	0x3d38035d	0.044925082
224	0xbbe269b8	-0.0069095753
225	0xbdbc1bd9	-0.09184999
226	0xbdd69461	-0.1047752
227	0x3e4ff22a	0.20307222
228	0xbe0c3818	-0.13693273
229	0xbe2134c7	-0.15742789
230	0xbd63e894	-0.055641726
231	0xbe07f48f	-0.13276885
232	0xbe00f5a8	-0.1259371
233	0xbe393d2e	-0.18089744
234	0xbdfd4cb5	-0.12368146
235	0x3d8440b9	0.06457657
236	0x3c1c414c	0.009537052
237	0x3ddeba85	0.108754195
238	0x3e18fe71	0.14940812
239	0xbdef5a2a	-0.11687119
240	0xbe2ece0a	-0.17070785
241	0x3c9fcc2c	0.019506536
242	0xbde227e3	-0.11042764
243	0x3d9d17ca	0.07670553
244	0x3e08da13	0.13364439
245	0x3e1224fa	0.14271918
246	0x3dd0d124	0.101961404
247	0x3e16c2cc	0.14722747
248	0x3da75fcb	0.08172568
249	0xbdae7f44	-0.08520368
250	0xbd8355b1	-0.06412829
251	0x3d02ff5f	0.031981822
252	0xbe15cd98	-0.14629209
253	0xbd08f0a4	-0.033432618
254	0xbd8f1170	-0.06985748
255	0x3d6c9ff0	0.057769716

actor.fc1.bias f4 [256]
0	0x3e1f69f3	0.1556776
1	0x3d269a70	0.040674627
2	0x3e36b191	0.17841174
3	0xbd83822f	-0.06421315
4	0xbe3124e4	-0.17299229
5	0x3e4ef1f1	0.20209481
6	0x3dab8cec	0.08376488
7	0x3e11dd19	0.14244498
8	0xbe1aa283	-0.15101056
9	0xbd5ead9d	-0.05436479
10	0xbe4f819d	-0.20264287
11	0xbe26e45e	-0.16298053
12	0x3d6613e6	0.05617132
13	0xbd9bbeea	-0.07604773
14	0xbd653127	-0.05595508
15	0x3c875d8b	0.016524097
16	0xbd8fa92f	-0.07014691
17	0x3e45df2b	0.19323413
18	0xbd8ecebe	-0.06973027
19	0x3e1c329c	0.15253681
20	0x3bd43f8c	0.006477302
21	0xbd816741	-0.06318522
22	0xbe50323a	-0.2033166
23	0xbde7f4b4	-0.1132597
24	0xbe34862a	-0.17629305
25	0x3e06aed0	0.13152623
26	0xbd6753e1	-0.056476478
27	0x3c873ed9	0.01650946
28	0x3e501bc7	0.20323096
29	0xbbe2b641	-0.006918699
30	0x3e3761a3	0.17908339
31	0x3da0bc33	0.07848396
32	0xbe149991	-0.14511706
33	0xbd7f5144	-0.06233336
34	0x3e5d77d0	0.21627736
35	0x3e44dc34	0.19224626
36	0xbd6851e2	-0.056718715
37	0xbcddcf6d	-0.027076447
38	0x3e3c001e	0.1835942
39	0x3dfbc8ac	0.122941345
40	0xbd3e51c0	-0.04646468
41	0x3e20a473	0.15687732
42	0x3d6471ae	0.055772476
43	0xbdf2f462	-0.118630186
44	0x3e336398	0.17518461
45	0x3d2e9383	0.042621147
46	0x3e585c08	0.21128857
47	0xbdbbd9bf	-0.09172391
48	0xbd536f47	-0.051619794
49	0x3cc98cb8	0.024603233
50	0xbe2094cc	-0.15681762
51	0xbe3e46e4	-0.1858173
52	0xbe05ea80	-0.13077736
53	0xbbb36755	-0.0054749646
54	0xbe01eedb	-0.12688772
55	0xbdf613c8	-0.12015492
56	0xbe27b1e0	-0.16376448
57	0xbd61e9ea	-0.05515472
58	0xbdc95068	-0.098297894
59	0xbc08911a	-0.008335376
60	0xbe587708	-0.21139157
61	0xbd53b7da	-0.051689006
62	0xbc307e30	-0.010772273
63	0x3e124000	0.14282227
64	0xbe2cca6a	-0.1687409
65	0xbdabdaa3	-0.08391311
66	0xbe3163b4	-0.1732319
67	0x3e01881c	0.12649578
68	0xbdd257b4	-0.10270634
69	0x3e58e6e1	0.21181823
70	0x3d539182	0.05165244
71	0xbe510e95	-0.20415719
72	0x3d533e2f	0.051572975
73	0x3c5bc762	0.013414236
74	0xbd30f18a	-0.0431991
75	0xbd2e54eb	-0.042561453
76	0x3e133a98	0.1437782
77	0x3e418132	0.1889694
78	0xbd2a3acb	-0.041559976
79	0x3c29af02	0.0103566665
80	0x3de9988f	0.11406051
81	0x3e150d66	0.14555892
82	0x3db0b6e8	0.086286366
83	0xbe2f75b3	-0.17134742
84	0x3ba1ba94	0.004935572
85	0xbd693ff0	-0.05694574
86	0x3e03fa38	0.1288842
87	0x3e0bd9a7	0.13657247
88	0xbe3ce3d9	-0.18446292
89	0x3b68678c	0.003546211
90	0xbd2cc366	-0.042178534
91	0xbc24b9d0	-0.010054067
92	0xbd59715d	-0.053086627
93	0xbb832c5b	-0.0040030903
94	0x3e2bf9f6	0.16794571
95	0x3d8e19e4	0.06938532
96	0x3d56f133	0.05247612
97	0x3e366bc1	0.17814542
98	0x3b60df67	0.0034312846
99	0x3e193395	0.14961083
100	0x3e1c940f	0.15290855
101	0xbe185c03	-0.1487885
102	0x3e53098f	0.20609115
103	0x3e3b781f	0.18307541
104	0xbdc2738a	-0.094946936
105	0xbc4480cb	-0.011993597
106	0xbde46d11	-0.11153615
107	0x3e1db102	0.15399554
108	0x3d855980	0.065112114
109	0xbd4e9e80	-0.050444126
110	0x3d69218a	0.05691675
111	0xbdcc5590	-0.09977257
112	0xbe122a38	-0.14273918
113	0x3c9c497d	0.01907801
114	0xbca9fcc0	-0.020750403
115	0xbe5dbc29	-0.21653809
116	0x3e04e480	0.12977791
117	0x3d81308c	0.06308088
118	0xbe4c589e	-0.1995568
119	0xbdbddd21	-0.092706926
120	0xbd86105b	-0.06546088
121	0xbd72d5e3	-0.05928601
122	0xbe2d5c1d	-0.1692967
123	0x3e540aaf	0.207072
124	0xbe437bf6	-0.19090256
125	0xbe170f86	-0.14752015
126	0x3d95b8ba	0.073106244
127	0xbd2da88d	-0.04239707
128	0xbda89a69	-0.082325764
129	0x3cbf88a4	0.023380585
130	0x3ddb48de	0.10707258
131	0x3e00b3ab	0.12568538
132	0xbe3c2027	-0.1837164
133	0x3dfb3442	0.12265827
134	0x3d8a4dd9	0.067531295
135	0x3e15f769	0.1464516
136	0xbe1572b6	-0.1459454
137	0xbc85cb01	-0.016332151
138	0x3d17e110	0.03707987
139	0x3e5de8c6	0.21670827
140	0x3c1c80e4	0.009552214
141	0x3d3138f8	0.04326722
142	0xbd8da90b	-0.06917008
143	0xbe06758c	-0.13130778
144	0xbd3c5252	-0.045976944
145	0x3e5ecf5a	0.21758786
146	0x3c7c74af	0.015408679
147	0xbe1c1082	-0.15240672
148	0x3d6f2ee1	0.058394317
149	0x3ca1320a	0.01967718
150	0x3c06a350	0.008217648
151	0x3dcf88e1	0.101335295
152	0xbdb216fd	-0.08695791
153	0xbe2ca8d3	-0.16861276
154	0x3d55614f	0.052094754
155	0x3e01e2ae	0.12684128
156	0xbe0a2b56	-0.13493094
157	0x3e232f13	0.15935926
158	0x3cb84cb2	0.022497509
159	0x3c9ac6b6	0.01889358
160	0xbe312bce	-0.17301866
161	0x3d013cf0	0.031552255
162	0xbe5e52bc	-0.21711248
163	0xbd9adad9	-0.07561273
164	0x3dfdc940	0.12391901
165	0x3d5943d2	0.053043194
166	0x3e25bd02	0.16185382
167	0x3e1f67d8	0.15566957
168	0xbde708de	-0.11280988
169	0xbe33c82c	-0.17556828
170	0xbd146a8a	-0.036234416
171	0x3de6aa13	0.11262908
172	0x3bcc6ad1	0.0062383194
173	0xbe55de92	-0.20885685
174	0x3e24dae5	0.16099127
175	0x3dfec827	0.1244052
176	0x3dfd4f4f	0.123686425
177	0x3d7b9f46	0.06143119
178	0x3d86ce2d	0.06582294
179	0x3dd5478e	0.104140386
180	0x3e3fac58	0.18718088
181	0xbe06ef1f	-0.13177155
182	0x3d0f7478	0.035023183
183	0x3e4d2f4d	0.20037575
184	0x3dfd0f78	0.12356466
185	0x3deaae6f	0.11459052
186	0xbe206cbb	-0.15666477
187	0xbd9b6c15	-0.075889744
188	0xbdc0e524	-0.09418705
189	0x3d02aa97	0.03190097
190	0x3e02ebe7	0.12785302
191	0xbdd92d0b	-0.106042944
192	0x3e24bbc7	0.16087256
193	0x3e161f49	0.14660372
194	0x3e601b2c	0.21885365
195	0xbd5d8dc6	-0.054090284
196	0x3d460183	0.048341285
197	0x3dc201f0	0.09473026
198	0x3de4a58b	0.11164387
199	0xbbf907f8	-0.007599827
200	0xbe1061c5	-0.14099796
201	0x3e1781c1	0.14795591
202	0xbe297b57	-0.16550957
203	0xbdfd4bdf	-0.12367987
204	0x3e55e0f1	0.2088659
205	0xbc33e596	-0.0109800305
206	0xbde6019d	-0.112307765
207	0xbdb5e5db	-0.08881732
208	0x3e09fc1b	0.13475077
209	0x3dc8bcf0	0.09801662
210	0x3e0f07bf	0.13967799
211	0xbc4a98d7	-0.012365541
212	0x3e53b7e0	0.20675611
213	0xbdc3cc85	-0.095604934
214	0xbe23feab	-0.16015117
215	0x3c6f38e6	0.014600968
216	0xbd7c1169	-0.06154004
217	0x3de6f949	0.11278016
218	0x3dcf1ded	0.1011313
219	0xbdf9fd13	-0.12206473
220	0x3e1356f8	0.14388645
221	0xbd269d37	-0.040677276
222	0x3d889240	0.0666852
223	0xbdd46ce2	-0.1037233
224	0x3e5f7857	0.2182325
225	0x3d6b7bf9	0.057491276
226	0x3d161706	0.03664305
227	0xbe49fa9e	-0.19724509
228	0xbe3679de	-0.17819926
229	0x3d9c4379	0.07630057
230	0x3e3b9865	0.18319853
231	0xbe1e8c2a	-0.15483156
232	0x3d4e3768	0.05034581
233	0xbd6623e8	-0.056186587
234	0x3d215e9b	0.039396863
235	0x3c30906e	0.010776622
236	0x3cfd16c2	0.03089464
237	0xbd690c2c	-0.056896374
238	0x3b629872	0.0034575728
239	0x3cb0c5cf	0.021578697
240	0xbc4e74ce	-0.012601091
241	0xbdb0e473	-0.08637323
242	0xbe4c8787	-0.19973575
243	0x3dcad064	0.099030286
244	0xbe1b1531	-0.15144803
245	0x3dcb02ef	0.09912669
246	0x3e579388	0.21052372
247	0xbdc324b7	-0.09528487
248	0x3e3fadf9	0.18718709
249	0xbe35e712	-0.17763928
250	0xbdf79fab	-0.12091001
251	0x3e542917	0.207188
252	0x3d705e43	0.058683645
253	0xbd7164c4	-0.05893399
254	0xbcac8188	-0.021057859
255	0x3dce3310	0.10068333

actor.fc2.weight f4 [128, 256]
0	0xbc5531b1	-0.013012336
1	0xbcd5b386	-0.02608658
2	0xbd740892	-0.059578486
3	0xbcabb756	-0.020961445
4	0xbc1b825f	-0.009491532
5	0x3cfc80c4	0.030823119
6	0xbd38c533	-0.04510994
7	0x3b461eb0	0.0030230694
8	0x3d0fcd67	0.035107996
9	0x3d1c2f6a	0.038131155
10	0xbc4588ce	-0.012056543
11	0xbc37d2b2	-0.011219667
12	0xbd69f35b	-0.057116847
13	0x3d14fda8	0.036374718
14	0xbcda49a4	-0.026646443
15	0x3d202c44	0.039104715
16	0x3d3fc418	0.04681787
17	0xbcb65c37	-0.022260768
18	0x3c7e4104	0.015518431
19	0x3d6599c6	0.056054853
20	0xbd1eb4b8	-0.038746566
21	0xbd6b715c	-0.057481155
22	0xbce709dc	-0.028202944
23	0xbcffe959	-0.031239199
24	0xbbf83f04	-0.0075758714
25	0x3d554942	0.052071817
26	0x3b22e44a	0.002485531
27	0xbd029e16	-0.031889044
28	0xbd5b6f30	-0.053572834
29	0x3d4eefab	0.050521534
30	0xbcc21101	-0.023689749
31	0x3cd1eed2	0.025626574
32	0x3c02a35d	0.007973519
33	0x3c797e30	0.015227839
34	0x3d3389a8	0.04383245
35	0xbd18d0de	-0.037308566
36	0x3cd5e608	0.026110664
37	0x3d317bc8	0.043330938
38	0xbcba9830	-0.022777647
39	0xbd4198d5	-0.047264893
40	0xbd78d6fa	-0.060751893
41	0xbd5dbd10	-0.054135382
42	0xbcc5e9f0	-0.024159402
43	0x3d62fcbc	0.055416808
44	0x3c183d97	0.009292028
45	0x3cd2ca84	0.025731333
46	0xbd4870a0	-0.048935533
47	0xbd5e9227	-0.0543386
48	0xbbec7f60	-0.0072173327
49	0x3d22cf96	0.03974875
50	0x3cd17bc2	0.025571708
51	0xbd2b56d8	-0.041830868
52	0xbd4434f6	-0.04790207
53	0xbbc1f149	-0.005918656
54	0xbc9d054d	-0.019167567
55	0xbc9cac01	-0.019124987
56	0x3ca1e0c4	0.019760497
57	0x3c3d48ca	0.011552999
58	0xbc5ca619	-0.013467335
59	0xbcbc33e6	-0.022973966
60	0xbd013e67	-0.031553652
61	0xbd0e3cca	-0.03472594
62	0xbaae82c4	-0.0013314118
63	0x3d3a7abe	0.045527212
64	0x3d053e64	0.032530203
65	0x3ae54118	0.0017490713
66	0xbcdd5365	-0.027017305
67	0xbd33cd0b	-0.043896716
68	0xbd3bcda1	-0.0458504
69	0x3c5e5dbc	0.013572153
70	0x3bbde372	0.005794936
71	0x3d275020	0.040847898
72	0x3d3eec57	0.04661211
73	0xbceae998	-0.02867584
74	0x3d37f3e4	0.044910327
75	0xbc6ad298	-0.014332436
76	0x3cc90802	0.024539951
77	0x3caa5b73	0.02079556
78	0x3d733a45	0.059381742
79	0x3d61ce3a	0.055128314
80	0x3d8044e5	0.062631406
81	0xbc9b4b27	-0.018956734
82	0xbbeff193	-0.007322499
83	0xbd7431b1	-0.059617702
84	0x3c807972	0.01568291
85	0xbceed1fa	-0.029152859
86	0xbceb8933	-0.028751945
87	0x3d0fdb6b	0.035121363
88	0xba9df91a	-0.0012052387
89	0xbc45b6f5	-0.012067546
90	0xbd71f4de	-0.059071414
91	0x3d4925aa	0.049108185
92	0xbbbd9855	-0.0057859817
93	0xbd60e105	-0.054902095
94	0xbc06759a	-0.008206749
95	0x3d573c5c	0.052547798
96	0xbd60fdc1	-0.0549295
97	0x3ca233af	0.019800035
98	0x3cb8998f	0.02253416
99	0x3d3d809b	0.046265226
100	0xbc8a2d68	-0.016867355
101	0xbb53a9c2	-0.0032297228
102	0xbd67d97a	-0.056603886
103	0xbd772f09	-0.06034759
104	0xbb635fcd	-0.0034694553
105	0xbcef9dc3	-0.029250031
106	0x3b8ea250	0.0043528453
107	0x3d629756	0.055320106
108	0x3ba6f649	0.0050952774
109	0xbd5465ff	-0.051855084
110	0xbc5618cf	-0.013067438
111	0xbcaa4433	-0.020784473
112	0xbc71bbcb	-0.014754246
113	0xbc017c35	-0.007903148
114	0x3d5893ff	0.052875515
115	0x3be03ec4	0.0068434197
116	0x3d4a84a1	0.04944289
117	0x3d7b7be8	0.061397463
118	0xbb22a2ae	-0.0024816203
119	0x3d0a58f2	0.03377623
120	0xbb35c69b	-0.0027736786
121	0xbcb607e0	-0.022220552
122	0x3c9b55de	0.018961843
123	0x3d338b16	0.043833815
124	0x3ce8733c	0.02837526
125	0xbd60b481	-0.054859642
126	0x3bb88480	0.0056310296
127	0xbd775e9b	-0.060392957
128	0xbc796e65	-0.015224074
129	0xbd22ff70	-0.039794385
130	0x3cf5fc6c	0.03002759
131	0xbd38878b	-0.04505114
132	0xbcb498e1	-0.022045555
133	0x3d647e8f	0.05578476
134	0x3d2f6629	0.042822037
135	0x3d4c6031	0.049896423
136	0xbd66049e	-0.056156747
137	0xbd0fbca7	-0.035092022
138	0x3d2f7209	0.04283336
139	0xbc8612d4	-0.0163664
140	0xbb5026ae	-0.0031761336
141	0x3d443eba	0.047911383
142	0xbcdeb3af	-0.02718529
143	0x3cef1a82	0.029187445
144	0xbd250fee	-0.040298395
145	0x3d56bc26	0.052425526
146	0xbd4bfcbb	-0.04980157
147	0xbb7657d0	-0.0037588961
148	0xbd3c9e14	-0.046049193
149	0x3d59fbdc	0.053218707
150	0x3c90bc4f	0.017667918
151	0xbd666ef7	-0.056258168
152	0xbd5bd271	-0.05366749
153	0x3d818d38	0.063257635
154	0x3ca3557f	0.019938229
155	0xbc5f4f55	-0.013629754
156	0x3ca0c380	0.019624472
157	0x3d07c129	0.033143196
158	0xbd44382b	-0.04790513
159	0x3cfa90d8	0.030586645
160	0x3d73aef7	0.05949303
161	0x3d4be478	0.04977843
162	0x3c8465c9	0.016161816
163	0x3c90ac77	0.017660363
164	0x3ccc6f9f	0.024955569
165	0x3cc7395a	0.02431934
166	0xbd141dab	-0.036161106
167	0x3d0bd6cc	0.034140393
168	0xbc0a77de	-0.00845143
169	0x3cef5f6e	0.02922031
170	0x3d809f15	0.062803425
171	0xbbc83bba	-0.0061106356
172	0xbcd71b2d	-0.026258076
173	0x3d442a87	0.04789212
174	0x3ca5c191	0.020233901
175	0xbd087ef8	-0.03332421
176	0xbc282853	-0.01026352
177	0xbc3b978e	-0.011449708
178	0x3ce8d097	0.028419776
179	0xbd322729	-0.043494377
180	0xbc5ecca1	-0.013598592
181	0xbcf4a537	-0.029863937
182	0x3c2b8744	0.010469262
183	0x3b3a2b4e	0.002840716
184	0xbc3b98d8	-0.011450015
185	0x3d7490bb	0.05970834
186	0xbcff2eb9	-0.031150209
187	0xbbb4b69d	-0.0055149333
188	0x3c3cf608	0.011533268
189	0x3cd4ef46	0.025993
190	0xbb95f1ac	-0.0045759287
191	0x3ca9fc2d	0.02075013
192	0xbc6e6415	-0.014550229
193	0x3d035a8a	0.032068767
194	0xbceef488	-0.029169336
195	0xbc802c59	-0.015646147
196	0x3bab57b8	0.0052289627
197	0x3d123ae1	0.035700683
198	0x3d2e9179	0.042619202
199	0x3b9b5571	0.00474041
200	0x3c5b3988	0.013380416
201	0xbd2c09d5	-0.042001564
202	0xbc5a0a1b	-0.013308073
203	0x3c8ff301	0.017571928
204	0xbc9e93c4	-0.01935757
205	0xbc0b9f49	-0.008521863
206	0xbbc89258	-0.006120961
207	0xbcd39695	-0.025828639
208	0x3cbbbac2	0.022916202
209	0x3bdc7ebe	0.006728976
210	0x3c11cd69	0.008899071
211	0x3d0cd8b9	0.03438637
212	0x3c143b09	0.009047278
213	0x3ca9bc95	0.020719806
214	0x3cf32e4d	0.029685164
215	0x3d006791	0.03134877
216	0xbd72bf18	-0.059264272
217	0x3aeea646	0.0018207512
218	0xbd241559	-0.04005942
219	0x3c27cdd2	0.0102419425
220	0xbcfa3807	-0.030544294
221	0x3cb3caf9	0.02194737
222	0x3b55a047	0.0032596753
223	0xbd31d4be	-0.043415777
224	0x3d3193a1	0.04335368
225	0xbd5e877e	-0.054328434
226	0xbcc3b955	-0.023892084
227	0x3cf77cd9	0.0302109
228	0x3cd48bc0	0.025945544
229	0x3cdfb39b	0.027307322
230	0x3cef2455	0.02919213
231	0x3d1d5c5c	0.03841816
232	0xbbef1e8b	-0.007297342
233	0xbc3d562f	-0.011556192
234	0x3ce16857	0.027515573
235	0x3d78d6aa	0.060751595
236	0x3d7c44ca	0.06158904
237	0x3d71c79c	0.059028253
238	0xbd710bb0	-0.058849037
239	0xbc56a2e5	-0.0131003605
240	0xbd4f32b7	-0.050585475
241	0x3a3505d8	0.0006905473
242	0x3d4f6ccf	0.050640877
243	0xbcb4d559	-0.022074388
244	0xbd39226a	-0.045198835
245	0x3b89b7b8	0.004202809
246	0x3c522faa	0.012828747
247	0x3c9688de	0.01837581
248	0x3c2d86fd	0.010591266
249	0x3ca364e3	0.019945567
250	0x3be24c98	0.0069061033
251	0x3cadcc6d	0.021215642
252	0x3d21ccfe	0.039502136
253	0x3b78e86d	0.0037980333
254	0xbcb17f81	-0.021667244
255	0xbc475235	-0.012165596

actor.fc2.bias f4 [128]
0	0xbc13e994	-0.009027857
1	0x3d4f38a8	0.05059114
2	0x3d73321a	0.059373952
3	0xbc189d1a	-0.0093148
4	0xba92d122	-0.0011201242
5	0xbccc3ea1	-0.024932208
6	0x3d6ccaa0	0.057810426
7	0xbc7d0255	-0.0154424505
8	0xbcd41d79	-0.02589296
9	0x3c14b632	0.009076642
10	0xbd760f0f	-0.060072955
11	0x3c4aae07	0.012370593
12	0xbd342ae0	-0.0439862
13	0xbd4ac4d4	-0.049504116
14	0xbd19a121	-0.03750718
15	0xbc0cad7f	-0.008586287
16	0x3d6d0cce	0.05787354
17	0xbd566446	-0.052341722
18	0xbbe56726	-0.0070008216
19	0x3c3778c8	0.01119823
20	0x3d0eb1da	0.03483758
21	0x3cb27005	0.02178193
22	0xbcea3704	-0.028590687
23	0x3d52d678	0.051474065
24	0xbd5fe545	-0.054662008
25	0xbd5dc759	-0.05414519
26	0xbcf013a4	-0.02930624
27	0x3d45c155	0.04828008
28	0xbc8029eb	-0.015644988
29	0x3d7d6b2c	0.061869785
30	0x3c26cc07	0.01018048
31	0x3d371f7b	0.044707756
32	0xb9bb5f3e	-0.0003573838
33	0x3cc06a13	0.02348808
34	0xbca5f775	-0.020259598
35	0xbd2a6c7b	-0.04160736
36	0x3ce5cada	0.028050829
37	0x3d300aea	0.04297916
38	0xbd42a752	-0.04752285
39	0x3cee6e6c	0.029105388
40	0xbbff25de	-0.0077864965
41	0x3c188c7b	0.009310837
42	0xbd746391	-0.059665266
43	0x3d4acbd6	0.0495108
44	0x3d052ddf	0.03251445
45	0x3d0d5b79	0.034511063
46	0x3d2c91f9	0.042131398
47	0xbd48b473	-0.049000215
48	0xbd3e550f	-0.046467837
49	0xbd6adf49	-0.057341848
50	0xbd737cb8	-0.059445113
51	0x3d7d2bd8	0.06180939
52	0xbcf7755c	-0.030207328
53	0x3d2ea3e1	0.042636756
54	0xbc7c5a28	-0.015402354
55	0xbc4fe563	-0.012688967
56	0xbccd4e57	-0.02506177
57	0xbcb90c5b	-0.0225889
58	0x3d3e4462	0.046451934
59	0x3c7396db	0.01486751
60	0x3cf46d1d	0.029837186
61	0xbd31cea9	-0.043409977
62	0x3bd155d5	0.006388406
63	0xbd080a1f	-0.033212777
64	0x3d57874a	0.052619256
65	0xb8e43228	-0.000108812295
66	0xbd13c71b	-0.036078554
67	0xbccd3ec3	-0.025054341
68	0xbd069057	-0.032852497
69	0x3d6629e1	0.056192283
70	0xbc916210	-0.017746955
71	0xbbd6ef86	-0.006559315
72	0xbcc891f9	-0.024483668
73	0x3d1c2992	0.038125582
74	0xba487ddf	-0.0007648151
75	0xbd59de41	-0.053190473
76	0x3bc50bca	0.0060133683
77	0x3c3ceccc	0.011531066
78	0xbcb19098	-0.021675393
79	0xbd74b666	-0.05974426
80	0x3ccfceb6	0.025367122
81	0xbd1c859c	-0.038213357
82	0xbba4caed	-0.0050290735
83	0x3d788d13	0.060681414
84	0x3bfa9261	0.0076468443
85	0x3d4540a2	0.04815734
86	0x3cc342c4	0.023835547
87	0xbcb58ef5	-0.022162894
88	0x3d1a06e9	0.037604246
89	0x3ce0068e	0.027346876
90	0x3d7e4c48	0.062084466
91	0xbd406cac	-0.046978638
92	0xbd259902	-0.040429123
93	0xbb07490b	-0.0020642902
94	0x3c8b9c73	0.017042374
95	0xbc964e37	-0.018347843
96	0xbaab64c8	-0.00130763
97	0xbd4d55de	-0.050130717
98	0x3d74cc74	0.059765294
99	0xbc9644f4	-0.018343426
100	0x3cd72157	0.026261015
101	0x3cfeabee	0.031087842
102	0xbd3f66ba	-0.046728827
103	0xbd08dfeb	-0.03341667
104	0xbd471833	-0.048607063
105	0x3d7169ff	0.058938976
106	0xbd625f7d	-0.055266846
107	0xbd359b69	-0.044337664
108	0x3cb97818	0.022640273
109	0x3d272219	0.040804002
110	0xbcb7d8a3	-0.022442168
111	0xbd68f7b2	-0.056876846
112	0x3b07f416	0.0020744852
113	0x3d5abd02	0.05340291
114	0xbd0b2b78	-0.033977002
115	0xbc8e0fc6	-0.017341506
116	0x3c135ab0	0.00899379
117	0xbd65b546	-0.05608108
118	0xbc374300	-0.011185408
119	0xbd3a9227	-0.045549538
120	0x3d2058fe	0.03914737
121	0xbd0e246e	-0.03470271
122	0x3d4f4a23	0.05060781
123	0x3bf32bcd	0.007420993
124	0x3d054825	0.032539506
125	0x3afe4a8c	0.0019400879
126	0x3d2daafe	0.0423994
127	0x3d5f653b	0.0545399

actor.policy_head.weight f4 [50, 128]
0	0x3da5d39d	0.08097003
1	0xbd13bc9e	-0.03606855
2	0xbcd57b85	-0.026059875
3	0xbd117efb	-0.03552149
4	0x3d061e95	0.03274401
5	0xbd1b290f	-0.037880953
6	0x3d195c85	0.03744175
7	0x3d065e21	0.032804612
8	0xbc3d39e0	-0.011549443
9	0x3d94fc5c	0.07274696
10	0xbdac2341	-0.08405162
11	0x3c1ff087	0.009761936
12	0xbccb2391	-0.024797233
13	0x3d524fc8	0.051345617
14	0xbd43eafa	-0.047831513
15	0x3d1789b6	0.036996566
16	0xbd51ed22	-0.051251538
17	0x3d89d1b7	0.06729453
18	0x3d9d7995	0.076892056
19	0x3c241f59	0.0100172395
20	0x3cb47bc0	0.022031665
21	0x3cf806cd	0.03027668
22	0x3d421344	0.047381654
23	0x3d8544e3	0.0650728
24	0xbd47612e	-0.048676662
25	0xbcededf9	-0.029044138
26	0xbd80f2c5	-0.062963046
27	0xbc94e10e	-0.01817372
28	0xbd738a48	-0.059458047
29	0x3d9df89b	0.07713433
30	0xbda2489c	-0.079240054
31	0x3d1ba613	0.038000178
32	0x3d6ef845	0.058342237
33	0xbd954aa1	-0.07289625
34	0x3d82c7e1	0.0638578
35	0x3cc001ac	0.023438297
36	0xbd74435d	-0.059634555
37	0xbc62e44c	-0.0138483755
38	0xbb973ce8	-0.004615415
39	0xbd694577	-0.056951012
40	0xbd8efa18	-0.06981295
41	0xbd02be69	-0.03191987
42	0xbbcd7064	-0.0062695015
43	0x3cc8f8ff	0.024532793
44	0xbd4daa48	-0.05021122
45	0x3db2ca7a	0.087300256
46	0xbd1e3293	-0.03862245
47	0x3d99e0ea	0.07513602
48	0xbc305412	-0.010762231
49	0xbae2c964	-0.0017302451
50	0xbcf92ee4	-0.030417867
51	0xbcac5da6	-0.021040749
52	0xbcc3b3ac	-0.023889385
53	0xbb821ff9	-0.0039710966
54	0xbb82b142	-0.003988416
55	0x3d26b150	0.040696442
56	0x3d93d236	0.07217829
57	0x3da8c242	0.08240177
58	0xbd8b76d4	-0.06809774
59	0x3d939c6b	0.07207569
60	0xbd621b3c	-0.055201754
61	0xbd413819	-0.04717264
62	0xbda8f2d7	-0.08249443
63	0x3daf3989	0.08555896
64	0xbd89a588	-0.06721026
65	0x3db1d25f	0.08682703
66	0xbbfedf78	-0.0077781044
67	0xbdb3771d	-0.087629534
68	0xbd9bcbaf	-0.07607209
69	0xbc48623f	-0.012230455
70	0x3cc28c36	0.023748498
71	0x3baa47c9	0.0051965457
72	0x3c25091a	0.010072971
73	0xbc8cbade	-0.017178949
74	0xbcdb38dc	-0.026760511
75	0xbd7a4f8b	-0.061111014
76	0x3cb653e5	0.0222568
77	0xbd0113b0	-0.031512916
78	0xbc8b97b1	-0.017040106
79	0x3cb8a99a	0.02254181
80	0x3d7730aa	0.060349144
81	0xbb9b9364	-0.004747795
82	0x3c91f9fd	0.017819399
83	0x3b5ac17a	0.0033379481
84	0x3c5c3ab8	0.013441734
85	0xbd8512ba	-0.064977124
86	0xbd5cabb7	-0.053874698
87	0xbccef6d9	-0.02526419
88	0x3d6c74af	0.057728466
89	0x3d934275	0.0719041
90	0xbcb33399	-0.02187519
91	0xbc236485	-0.009972696
92	0x3d61c7d4	0.05512221
93	0x3daa2b58	0.083090484
94	0x3d208987	0.039193656
95	0xbd756171	-0.05990738
96	0xbd82f8c5	-0.06395105
97	0xbcd26f42	-0.025687817
98	0xbc13c9d5	-0.0090202885
99	0xbd08f8e4	-0.033440486
100	0x3d77e884	0.06052448
101	0x3c687a4c	0.014189314
102	0x3d9ae96a	0.075640514
103	0x3da467ef	0.08027636
104	0x3d404b5b	0.046946865
105	0xbd05ca32	-0.03266353
106	0xbd3e4aca	-0.046458043
107	0xbd9dce2c	-0.0770534
108	0xbd33a492	-0.04385812
109	0x3d1c9835	0.038231093
110	0x3cbd0bfe	0.023077007
111	0x3d423fa2	0.047423966
112	0xbccc6bc2	-0.024953727
113	0xbb80f52e	-0.0039354777
114	0x3d153b3a	0.036433436
115	0x3cc083b3	0.0235003
116	0x3cb342a9	0.021882372
117	0xbd9461ca	-0.07245214
118	0x3d9b9025	0.07595853
119	0xbc96bb5f	-0.018399892
120	0xbd2c5179	-0.042069886
121	0xbda127f4	-0.078689486
122	0xbbf39ebe	-0.007434695
123	0xbd89c0ea	-0.067262486
124	0x3d932041	0.07183886
125	0x3c85d778	0.016338095
126	0x3d9f8d92	0.07790674
127	0xbcb292d1	-0.021798523
128	0x3d8345ce	0.064097986
129	0xbd694418	-0.056949705
130	0xbcbbd8c2	-0.022930507
131	0xbd93fabb	-0.072255574
132	0xbc71624f	-0.014732911
133	0xbdaeb8a5	-0.08531312
134	0xbd151225	-0.036394257
135	0x3c1c2433	0.009530115
136	0x3d2d803c	0.042358622
137	0xbc0010d4	-0.007816512
138	0xbd5824ec	-0.052769586
139	0x3d858532	0.065195456
140	0xbd1947ad	-0.03742187
141	0xbcf38bb9	-0.02972971
142	0x3cd0aac3	0.02547205
143	0x3c1d9126	0.009617126
144	0xbd5d0a28	-0.053964764
145	0x3d8418a0	0.06450009
146	0xbda7effe	-0.08200072
147	0xbd09465a	-0.033514358
148	0xbd8feff2	-0.07028188
149	0xbd98c1ad	-0.07458816
150	0x3ba5f3a4	0.0050644446
151	0xbd44ac94	-0.048016146
152	0x3ca7489a	0.020420361
153	0xbd263a83	-0.040583145
154	0x3db13154	0.08651987
155	0x3cad86a8	0.021182373
156	0xbb4c698b	-0.0031190838
157	0x3d57a92a	0.05265156
158	0xbd06b2a6	-0.032885216
159	0x3c9714a6	0.018442463
160	0xbb92a331	-0.0044750203
161	0xbd57fe5f	-0.05273282
162	0x3b8173ce	0.0039505726
163	0xbd6b703d	-0.057480086
164	0xbc481a22	-0.012213262
165	0x3d1d277a	0.038367726
166	0xbcec2469	-0.028825955
167	0x3daeef1d	0.08541701
168	0xbd144591	-0.036199156
169	0x3d16b933	0.036797713
170	0xbcf82c18	-0.030294463
171	0x3d8d3f77	0.068968706
172	0xbacea060	-0.0015764348
173	0xbd232cb1	-0.039837543
174	0xbcf97552	-0.03045145
175	0x3d74d03a	0.059768893
176	0x3cfe199f	0.031018076
177	0x3cba14fc	0.022715084
178	0x3c981f6c	0.01856967
179	0xbccd1f2a	-0.025039274
180	0x3d966c4c	0.07344875
181	0xbd4525f7	-0.04813191
182	0xbcc89ddf	-0.024489341
183	0x3cca93d3	0.024728691
184	0x3d3cd1f1	0.046098653
185	0xbd9fe46c	-0.0780724
186	0x3c7140aa	0.01472489
187	0x3cdaf62e	0.026728716
188	0x3a7d0cca	0.000965309
189	0xbda9e38f	-0.082953565
190	0xbd5ae03d	-0.053436507
191	0x3da48148	0.08032471
192	0xbd321490	-0.04347664
193	0x3d43427b	0.047670823
194	0x3d5e3ce1	0.054257277
195	0x3d02f5e8	0.031972796
196	0x3d834963	0.06410482
197	0x3ca9f19a	0.020745087
198	0x3d9b2df1	0.07577122
199	0x3d13101d	0.03590404
200	0xbc9e63f2	-0.019334767
201	0xbd9a7bc2	-0.07543136
202	0xbd48d146	-0.049027704
203	0x3b8bb496	0.004263471
204	0xbd6e5d4a	-0.058194436
205	0xbda43eaa	-0.08019765
206	0xbcfde0f9	-0.030991064
207	0x3d9e1988	0.077197134
208	0x3a9377b4	0.0011250884
209	0x3bf3a5eb	0.0074355504
210	0xbb868274	-0.0041049067
211	0x3d449f8d	0.048003722
212	0xba1c76d2	-0.00059686333
213	0x3c1e549a	0.009663725
214	0x3d84de71	0.0648774
215	0x3daf3d74	0.08556643
216	0xbd3a6297	-0.04550418
217	0x3cdbf3bf	0.026849626
218	0x3db3238f	0.08747017
219	0xbd22f6e4	-0.039786234
220	0x3b835f8d	0.0040091933
221	0x3da2eb9c	0.07955095
222	0x3dac9bc6	0.08428149
223	0xbd3050bf	-0.043045755
224	0x3b50ca90	0.0031859018
225	0xbd294d3e	-0.04133343
226	0xbd47d916	-0.048791014
227	0xbd18117d	-0.037126053
228	0x3c41267e	0.011788962
229	0xbd9fa295	-0.07794682
230	0xbca40950	-0.020023972
231	0xbd1624b9	-0.036656115
232	0xbd8ca3a5	-0.0686715
233	0xbc63cea7	-0.01390425
234	0xbd22640b	-0.03964619
235	0x3cbefc33	0.023313617
236	0x3d9a3a9c	0.0753071
237	0x3ad9da54	0.0016620853
238	0xbd871f71	-0.06597794
239	0x3d70589b	0.05867825
240	0xbce81062	-0.028328124
241	0x3cd437bc	0.025905482
242	0xbcdb0677	-0.026736481
243	0xbd359a32	-0.044336505
244	0x3d9b7168	0.0758999
245	0x3b8269e1	0.003979907
246	0x3db405e1	0.08790184
247	0xbd7f7383	-0.06236602
248	0xbc64bf00	-0.013961554
249	0x3d8094e1	0.062783964
250	0xbd8f41b0	-0.06994951
251	0x3d95894d	0.07301579
252	0x3d86af60	0.06576419
253	0x3da1ecc9	0.07906491
254	0xbd96d85f	-0.07365488
255	0x3ca90ba2	0.02063543

actor.policy_head.bias f4 [50]
0	0x3d72840c	0.05920796
1	0xbd2fd0aa	-0.042923607
2	0x3d5415b8	0.051778525
3	0x3da5506e	0.08071981
4	0x3cc29f42	0.02375758
5	0x3d19a971	0.037515108
6	0x3d67fb3b	0.056636076
7	0xbd8d9713	-0.06913581
8	0x3da0fecc	0.07861099
9	0x3daf7ce5	0.085687436
10	0x3d55871e	0.05213081
11	0x3cf936ee	0.0304217
12	0x3a188406	0.0005818013
13	0x3d554263	0.052065264
14	0x3bb9b72c	0.0056675877
15	0xbd89c283	-0.06726553
16	0x3c71a222	0.014748128
17	0x3c801553	0.015635168
18	0xbd0f7fb5	-0.0350339
19	0xbd94cc58	-0.07265538
20	0xbdb22a8d	-0.08699522
21	0x3cc0c5cf	0.023531822
22	0x3d9a3d2d	0.075311996
23	0xbda63ce8	-0.08117086
24	0x3d2b439e	0.04181253
25	0x3da2f509	0.07956893
26	0x3d74211a	0.05960188
27	0x3cd0909a	0.025459576
28	0x3b2d348c	0.0026429025
29	0xbd6d9883	-0.058006775
30	0x3cd1d9e0	0.025616586
31	0xbcc24b27	-0.023717476
32	0x3b9c1342	0.004763038
33	0xbd540ded	-0.051771093
34	0x3d0681d5	0.03283866
35	0x3d0a3fab	0.033752125
36	0x3da1c59b	0.078990184
37	0xbd57f8a9	-0.052727375
38	0x3aed6afc	0.0018113549
39	0xbc1fc7cc	-0.009752225
40	0xbd0bc1b9	-0.034120295
41	0xbd871f5c	-0.06597778
42	0x3d8b7ca0	0.0681088
43	0x3d9f7dc4	0.0778766
44	0x3daabc1e	0.08336662
45	0x3d82d175	0.06387607
46	0xbce80ea1	-0.028327288
47	0xbcf7839a	-0.03021412
48	0x3bd3fcac	0.00646933
49	0xbdac104a	-0.084015444

critic.fc1.weight f4 [256, 21]
0	0x3e133a04	0.143776
1	0x3e02e0a5	0.12781008
2	0xbe03c690	-0.12868714
3	0x3dc8054f	0.097666375
4	0xbe0cd591	-0.13753344
5	0x3e47864c	0.19484824
6	0xbe0018bb	-0.12509434
7	0x3e38bdf0	0.18041205
8	0xbd13e64d	-0.036108304
9	0xbe5c2911	-0.2150004
10	0x3e25cbd3	0.16191034
11	0x3c7c5a6c	0.015402418
12	0x3c1f0f14	0.009708185
13	0x3d76c626	0.060247563
14	0xbd038582	-0.032109745
15	0xbdd8d019	-0.105865665
16	0xbe1dfeea	-0.15429273
17	0x3d7a9f10	0.06118685
18	0x3d27f6bc	0.04100679
19	0x3d920beb	0.071311794
20	0xbc57530a	-0.013142357
21	0x3e2ced5f	0.16887425
22	0xbe033434	-0.12812883
23	0xbdcb57db	-0.099288665
24	0x3e58f2b2	0.21186331
25	0x3d729951	0.059228245
26	0xbe292e3a	-0.1652154
27	0x3e3605ac	0.17775601
28	0x3c888b36	0.016667943
29	0xbd03e998	-0.032205194
30	0x3e26c8c6	0.16287526
31	0x3dafc0ee	0.0858172
32	0x3d4d062b	0.05005471
33	0xbe586194	-0.21130973
34	0x3debbe06	0.115108535
35	0x3de765fd	0.112987496
36	0x3e2bab41	0.16764547
37	0xbd5bdac1	-0.053675417
38	0x3e5692e3	0.2095447
39	0xbdce23c1	-0.10065413
40	0x3e0e4df3	0.13896923
41	0x3e06ca7d	0.1316318
42	0xbe47da9c	-0.19516987
43	0x3c6f6d3d	0.014613447
44	0xbd921893	-0.071335934
45	0xbe41c54a	-0.18922916
46	0x3dd61bb7	0.10454505
47	0xbe27dfbf	-0.16393946
48	0x3df5728f	0.11984741
49	0xbe3029a8	-0.1720339
50	0xbc67c161	-0.014145226
51	0x3ce0799c	0.027401738
52	0xbc0cb05c	-0.008586969
53	0x3d319c15	0.043361742
54	0x3e424876	0.18972954
55	0x3d569280	0.052385807
56	0xbdce05d7	-0.100597076
57	0xbe54fc10	-0.20799279
58	0xbdaa3c39	-0.08312268
59	0xbe2fbb2a	-0.17161241
60	0x3d183515	0.037159998
61	0x3e37a704	0.17934805
62	0x3e081245	0.1328822
63	0x3d12038b	0.03564791
64	0xbd3de39a	-0.046359636
65	0x3db6a566	0.08918266
66	0xbe2bf64a	-0.1679317
67	0xbe118d3f	-0.14214037
68	0x3d691a85	0.056910057
69	0x3c247f27	0.010040081
70	0xbd9daed5	-0.07699362
71	0xbe564996	-0.20926508
72	0x3e284c6f	0.16435407
73	0xbd2a9228	-0.04164329
74	0x3d4bac69	0.04972497
75	0x3ce11dbe	0.027480002
76	0xbd20330a	-0.039111175
77	0x3df7a8d1	0.12092746
78	0x3df7db2c	0.121023506
79	0x3e465dc7	0.1937171
80	0xbdf33fff	-0.11877441
81	0xbe353dcb	-0.17699353
82	0x3ced375b	0.02895706
83	0x3de97e82	0.114010826
84	0x3d1142f0	0.035464227
85	0xbd9bd5a3	-0.07609107
86	0xbb86cf49	-0.004114066
87	0x3e0e3214	0.13886291
88	0x3aa7ee1b	0.001281205
89	0xbe2ab792	-0.16671589
90	0xbe164a1e	-0.14676711
91	0x3e407f0d	0.18798466
92	0x3d5c565c	0.053793296
93	0xbe365cd7	-0.17808853
94	0x3e104fcd	0.14092942
95	0x3df2a252	0.118473664
96	0xbde3ff05	-0.111326255
97	0x3d38b924	0.04509844
98	0xbe42a57f	-0.19008444
99	0x3e5c6ab7	0.21525083
100	0xbe4b04b9	-0.1982602
101	0xbe170de0	-0.14751387
102	0xbe1b3e41	-0.15160467
103	0xbcf9b1eb	-0.030480346
104	0xbe545db4	-0.2073887
105	0x3e357623	0.17720847
106	0x3dd6e9ea	0.10493834
107	0xbe21751a	-0.15767327
108	0xbc6652a7	-0.014057792
109	0x3df16304	0.11786464
110	0xbe1b9f25	-0.15197428
111	0x3d28c799	0.041205976
112	0x3dd2c060	0.10290599
113	0xbc540908	-0.012941606
114	0xbd8fd0c9	-0.070222445
115	0xbdacb196	-0.08432309
116	0xbe2413ee	-0.16023228
117	0xbe3bdead	-0.18346663
118	0x3e47d94d	0.19516487
119	0x3bbc7dd5	0.005752305
120	0xbdf55b13	-0.11980262
121	0x3e44e1d3	0.1922677
122	0xbd7345d7	-0.059392776
123	0xbdb8ddbc	-0.090266675
124	0xbe58ccfe	-0.21171948
125	0xbe15d75f	-0.14632939
126	0x3e3f8053	0.18701296
127	0xb9e6145c	-0.00043884187
128	0xbc2776e5	-0.010221218
129	0xbe44f5d8	-0.19234407
130	0x3d9fab92	0.07796396
131	0xbd4d2a88	-0.05008939
132	0xbd85f520	-0.065408945
133	0x3dba7e77	0.091061525
134	0x3cc7a181	0.024369003
135	0x3da60986	0.08107285
136	0x3de13755	0.10996882
137	0xbd92198e	-0.071337804
138	0xbdd9d1a6	-0.106356904
139	0x3d87cf15	0.06631295
140	0x3e0e336c	0.13886803
141	0x3e2c89b7	0.16849409
142	0x3cb36fcd	0.021903897
143	0xbd38b6c4	-0.045096174
144	0x3e4b9f17	0.19884907
145	0x3e538c15	0.20658906
146	0x3e3d2bf6	0.18473801
147	0xbdc8e506	-0.09809308
148	0xbdedd71d	-0.11613295
149	0x3db1db8b	0.086844526
150	0x3d268db4	0.040662482
151	0xbe09e4c6	-0.13466176
152	0xbdc6c518	-0.097055614
153	0x3da6c950	0.08143866
154	0xbe2c3c2d	-0.1681983
155	0xbdd66767	-0.10468941
156	0x3e55d0a8	0.20880377
157	0x3e3108cf	0.17288516
158	0xbe3f3c9a	-0.18675461
159	0x3dfae127	0.12249976
160	0x3d22ef59	0.03977904
161	0x3e28bff6	0.16479477
162	0x3c269d79	0.01016938
163	0xbe5aaf4f	-0.21355937
164	0x3dc57ca2	0.096429124
165	0xbe45f9e1	-0.19333602
166	0xbe20bcd8	-0.15697038
167	0xbe110f0b	-0.14165895
168	0xbdea5ac0	-0.114430904
169	0x3d6c182f	0.05764025
170	0x3e35791f	0.17721985
171	0x3db44746	0.08802657
172	0x3db69d8a	0.08916767
173	0xbd533aad	-0.05156963
174	0x3e4105de	0.18849894
175	0xbdea8c7f	-0.11452579
176	0xbdb73462	-0.08945538
177	0xbe370609	-0.17873396
178	0x3de1a670	0.110180736
179	0xbe3519f6	-0.17685685
180	0x3e307001	0.17230226
181	0x3c8c813c	0.017151468
182	0xbe27704d	-0.16351433
183	0x3c94241d	0.018083626
184	0x3de8b6ad	0.11362968
185	0xbe090b24	-0.13383156
186	0x3d8561da	0.06512804
187	0x3d1ab658	0.037771553
188	0xbdc37bbd	-0.095450856
189	0x3e535e15	0.20641358
190	0xbd65b564	-0.05608119
191	0x3dbb6774	0.091505915
192	0x3d5084c1	0.050907854
193	0x3e3a7329	0.18207993
194	0xbe3312da	-0.1748766
195	0x3e543bc2	0.20725921
196	0x3e52cfa9	0.20587029
197	0x3e305970	0.17221618
198	0xbe27cf86	-0.16387758
199	0x3e003e2b	0.12523715
200	0x3e21f68c	0.15816706
201	0x3de34d02	0.110986724
202	0xbe42ad3b	-0.19011395
203	0x3da0b27b	0.078465424
204	0x3d1eb370	0.038745344
205	0xbe3098c7	-0.1724578
206	0xbdb8b745	-0.09019331
207	0xbb31ca12	-0.00271285
208	0xbe5cb796	-0.21554407
209	0x3e2ee659	0.17080058
210	0x3dca596f	0.09880339
211	0x3da73945	0.0816522
212	0xbe5a3294	-0.21308357
213	0x3e3c3cf1	0.18382622
214	0xbd5d870c	-0.05408387
215	0x3e58792c	0.21139973
216	0x3e15b906	0.14621362
217	0x3daab8a9	0.083360024
218	0x3d7c33a9	0.061572704
219	0x3e2ded06	0.16984949
220	0xbe5b53ea	-0.2141873
221	0x3e390915	0.18069871
222	0x3db809c0	0.08986235
223	0x3dd3e210	0.103458524
224	0x3d710799	0.058845136
225	0x3d63554a	0.05550126
226	0xbe0a355f	-0.13496922
227	0x3dbff8b8	0.09373611
228	0xbd597af3	-0.05309577
229	0x3ddf5df5	0.10906593
230	0x3cf6ae5a	0.030112434
231	0x3e0ef551	0.13960768
232	0xbd93a0d6	-0.072084114
233	0x3df8de6b	0.12151798
234	0x3de84728	0.11341697
235	0xbe3ef915	-0.18649705
236	0xbd08090f	-0.033211764
237	0x3dd1088e	0.1020671
238	0x3e125933	0.1429184
239	0xbe2f9118	-0.17145193
240	0xbcf12abd	-0.029439325
241	0xbd28c942	-0.04120756
242	0xbe5add4f	-0.21373485
243	0x3e5483f8	0.20753467
244	0x3e13e619	0.14443244
245	0x3dade233	0.0849041
246	0xbe2b6290	-0.16736817
247	0xbdaf5fd9	-0.08563203
248	0x3e41bc8e	0.18919584
249	0xbe4f5e43	-0.20250802
250	0x3c1758e7	0.009237505
251	0x3e1d0908	0.15335476
252	0x3de22174	0.11041537
253	0x3d4950cf	0.04914933
254	0x3df9d932	0.1219963
255	0x3df33433	0.118751906

critic.fc1.bias f4 [256]
0	0x3e45c1a8	0.19312155
1	0xbe57c862	-0.21072534
2	0xbd0acaf0	-0.033884943
3	0xbd14d92f	-0.036339935
4	0xbe3f67d4	-0.18691951
5	0xbe39698d	-0.1810667
6	0xbe5f0a6a	-0.21781316
7	0xbe32d25c	-0.17463058
8	0x3dcec133	0.100954436
9	0xbdf75e90	-0.12078583
10	0xbe5631ba	-0.20917407
11	0xbe492951	-0.19644667
12	0xbe00e0cb	-0.12585752
13	0x3d2b6f33	0.041854095
14	0xbdf38f57	-0.11892574
15	0x3d58d0f3	0.052933645
16	0x3cc6ac30	0.024252027
17	0x3bfefe3a	0.007781771
18	0x3e01a61c	0.12661022
19	0x3d5cf09e	0.053940408
20	0x3ca32c14	0.019918479
21	0xbdfa33aa	-0.122168854
22	0xbe438a9a	-0.19095841
23	0x3dfc9d32	0.1233467
24	0xbe53cda2	-0.20683911
25	0x3e38cb6c	0.1804635
26	0xbe0fb6ce	-0.14034578
27	0xbe227239	-0.15863885
28	0xbdd979c0	-0.10618925
29	0x3e5717a6	0.21005115
30	0x3ca73789	0.020412223
31	0xbe59c80b	-0.21267717
32	0xbd9a3007	-0.07528692
33	0xbda264be	-0.07929371
34	0xbd38dcbe	-0.04513239
35	0xbe02e360	-0.12782049
36	0x3e2ea18a	0.1705381
37	0xbc3f417e	-0.011673329
38	0x3dece061	0.115662344
39	0x3e2157a7	0.15756093
40	0xbdc0fa4c	-0.0942274
41	0xbe0b0a81	-0.13578226
42	0x3e4134f9	0.18867864
43	0xbe256fed	-0.16155978
44	0xbd515e63	-0.051115405
45	0x3d553292	0.05205018
46	0xbc5d1ee2	-0.013496133
47	0x3cbb9605	0.022898683
48	0xbe3f99ad	-0.18710966
49	0x3d94ab6d	0.072592594
50	0xbd8a4b4f	-0.06752645
51	0xbdbdc351	-0.09265769
52	0xbcfed6ba	-0.031108249
53	0x3dbc8fae	0.09207092
54	0xbcf5e10c	-0.030014537
55	0x3e4e8995	0.20169671
56	0xbe51b7db	-0.20480292
57	0x3e4b8f7a	0.1987895
58	0xbc81d16e	-0.015846934
59	0xbe3ec5b0	-0.186301
60	0xbdf1da6b	-0.11809238
61	0x3d9772bf	0.07394933
62	0xbe5b4e77	-0.2141665
63	0xbe1bd927	-0.15219556
64	0xbc4d4dc8	-0.0125307515
65	0x3da462bf	0.08026647
66	0x3c8015d9	0.015635418
67	0xbd89ddd7	-0.06731766
68	0xbcd0c94b	-0.025486609
69	0xbd855a72	-0.06511392
70	0x3de656da	0.11247034
71	0x3e0f5a8b	0.13999383
72	0x3cdbdf52	0.026839886
73	0xbe3be7ac	-0.18350095
74	0xbd7d2ac8	-0.061808378
75	0x3d78c63b	0.060735922
76	0xbe158af4	-0.14603788
77	0x3e21e01a	0.15808144
78	0xbdadfb02	-0.084951416
79	0x3ceac50e	0.028658416
80	0x3d7c763e	0.061636202
81	0xbdcba4c2	-0.099435344
82	0x3e5b4c05	0.21415718
83	0xbdca80f5	-0.09887878
84	0x3c17f466	0.009274578
85	0x3e5b2e0a	0.21404281
86	0xbe379528	-0.17927992
87	0x3e37911d	0.1792645
88	0xbac0b21f	-0.0014701522
89	0x3db454a8	0.088052094
90	0x3d8b6563	0.06806447
91	0x3e520fe0	0.20513868
92	0xbe5dede1	-0.21672775
93	0x3d626e0a	0.055280723
94	0xbe36b5d5	-0.17842801
95	0x3dc9e673	0.09858408
96	0xbe03c2c0	-0.1286726
97	0xbe544b3b	-0.20731823
98	0xbdd46d0b	-0.10372361
99	0x3d5b36ac	0.053518936
100	0x3d36d8c4	0.044640318
101	0x3e43718c	0.19086283
102	0xbe1b364b	-0.1515743
103	0x3e35ca3b	0.17752926
104	0x3e1a9bc9	0.1509849
105	0xbd9477fd	-0.072494484
106	0xb9eaf2ad	-0.00044812766
107	0xbd4435f5	-0.04790302
108	0x3e0c0606	0.13674173
109	0xbe1f4e95	-0.1555732
110	0x3dc14285	0.09436516
111	0x3d959274	0.07303324
112	0x3e22b189	0.15888037
113	0x3caa93df	0.020822464
114	0xbdb75b71	-0.08952988
115	0x3cd38432	0.025819872
116	0xbde48856	-0.111588165
117	0x3e1b5cf7	0.15172182
118	0x3e577d6b	0.21043937
119	0xbe189338	-0.1489991
120	0xbe50c248	-0.20386612
121	0x3c4a807f	0.012359737
122	0xbbc68a4d	-0.006058967
123	0x3d5626d2	0.052283116
124	0x3e14523e	0.14484498
125	0x3d08be72	0.033384748
126	0x3dea5c33	0.11443367
127	0xbce3e85c	-0.027820759
128	0x3e5e6b2a	0.21720567
129	0x3e264565	0.1623741
130	0x3d507590	0.050893366
131	0x3d7fc240	0.06244111
132	0xbdb0dd84	-0.08636001
133	0xbe280c89	-0.16411032
134	0xbcd6291c	-0.02614265
135	0xbe5937c6	-0.21212682
136	0x3e350748	0.17678559
137	0x3d415cdc	0.0472077
138	0x3e1efa0a	0.1552507
139	0xbbc88bb8	-0.0061201714
140	0x3e4dabb4	0.20085031
141	0xbd28368d	-0.04106765
142	0x3e262009	0.16223158
143	0x3d407737	0.046988692
144	0x3dca44e8	0.09876424
145	0x3d911022	0.07083155
146	0xbd9c80d6	-0.07641761
147	0xbc9c8479	-0.019106137
148	0xbe540bbc	-0.20707601
149	0xbdd00b0e	-0.101583585
150	0x3cf1730b	0.029473802
151	0xbe3e6494	-0.18593055
152	0xbe04d8dd	-0.12973352
153	0x3d30943c	0.043110117
154	0x3e1a7bc0	0.1508627
155	0xbe30757a	-0.17232314
156	0x3c2570cf	0.010097696
157	0xbe0f2e5f	-0.13982533
158	0xbd4d0550	-0.050053895
159	0x3d5040b1	0.050842945
160	0xbe2bc00c	-0.16772479
161	0x3e347fdc	0.176269
162	0x3e542432	0.20716932
163	0x3d27fa92	0.041010447
164	0x3e0e1acd	0.13877411
165	0xbda77c37	-0.08177989
166	0xbdf2e561	-0.11860157
167	0xbe2f245e	-0.17103717
168	0x3d8691aa	0.06570752
169	0x3d8a1116	0.0674154
170	0x3cddbca4	0.02706749
171	0xbd966457	-0.07343357
172	0xbd93522f	-0.0719341
173	0x3b8e5d84	0.004344644
174	0xbe5e1f30	-0.21691585
175	0x3dd7dd6b	0.10540279
176	0x3d12be5e	0.03582608
177	0xbe002604	-0.12514502
178	0xbd7da8fa	-0.061928727
179	0x3dd140cc	0.10217437
180	0xbd8b65c4	-0.0680652
181	0x3e161905	0.14657982
182	0xbcfac304	-0.030610569
183	0x3e1c14e9	0.15242352
184	0xbdb67c9d	-0.08910487
185	0x3dddf2a0	0.10837293
186	0x3dd909c5	0.105975665
187	0xbe324dc7	-0.17412482
188	0x3e0f1044	0.13971049
189	0xbd27d893	-0.040978026
190	0x3e2764b8	0.16347015
191	0xbe58f578	-0.21187389
192	0x3d307a21	0.04308522
193	0xbce037e4	-0.0273704
194	0xbe08813b	-0.13330548
195	0xbd7dfac0	-0.062006712
196	0xbe323a3e	-0.1740503
197	0xbe188fc2	-0.14898589
198	0xbe272e9b	-0.16326372
199	0xbe428c43	-0.18998818
200	0x3d69a07c	0.057037815
201	0xbe51bbf6	-0.20481858
202	0xbd792565	-0.060826678
203	0x3e2e633f	0.17030047
204	0xbd257457	-0.040394153
205	0xbd862440	-0.06549883
206	0x3e0b4028	0.13598692
207	0xbe0b9538	-0.13631141
208	0xbe16f131	-0.14740445
209	0x3ca6b31d	0.02034908
210	0x3e414fe3	0.1887813
211	0xbe2d233a	-0.16907969
212	0x3c9bfede	0.019042429
213	0x3af59285	0.0018735683
214	0xbe56ca61	-0.20975639
215	0x3d9923c5	0.074775256
216	0x3dd82da7	0.105555825
217	0xbe3e2c8b	-0.1857168
218	0xbdf595f2	-0.119914904
219	0x3cce10dd	0.025154525
220	0x3dac458b	0.08411702
221	0x3e549b45	0.20762356
222	0x3d0d21b9	0.03445599
223	0x3e0960ca	0.13415828
224	0xbd98b79d	-0.074568965
225	0x3de2cafb	0.11073872
226	0xbe2a828e	-0.16651365
227	0x3e5df58e	0.21675703
228	0xba3d4290	-0.00072196964
229	0xbe40a02a	-0.18811098
230	0x3e1e45bc	0.15456289
231	0x3e2f35e3	0.171104
232	0x3e00aeb9	0.12566651
233	0x3e235dd1	0.15953757
234	0xbc4f5b0b	-0.012655984
235	0x3d6df738	0.058097094
236	0xbe45dd5e	-0.19322726
237	0xbe467119	-0.19379081
238	0xbe4d9fb0	-0.20080447
239	0xbdbdb621	-0.09263254
240	0x3e02b929	0.12765945
241	0xbbd5858d	-0.0065161646
242	0x3d973a0b	0.07384118
243	0xbdd8d4cd	-0.105874635
244	0x3e07ac6a	0.13249364
245	0xbdb65cbc	-0.089044064
246	0xb9bdc06d	-0.00036192258
247	0x3db9c3d5	0.09070555
248	0x3e5b0926	0.21390209
249	0xbe18876c	-0.1489541
250	0x3dea0f97	0.11428755
251	0xbe313ca1	-0.17308284
252	0xbe1d2e92	-0.15349796
253	0xbe37b234	-0.17939073
254	0xbd6ed07c	-0.058304295
255	0x3e53dc18	0.20689428
