server/policies/checkpoints/policy_2_120/model.pt (torch, 338258 bytes, 11 tensors)

actor.fc1.weight f4 [256, 21]
-0.19173051 -0.112780884 0.04531756 -0.1936115 -0.17964913 -0.118899636 0.067646734 -0.14954998
-0.08443139 -0.05921758 -0.05451028 0.106825285 0.06917565 -0.011075379 0.13331185 0.093149826
0.1273947 0.16526493 0.114093296 0.15255731 -0.19388673 0.08338628 0.15726247 0.087108426
-0.020866172 -0.06876409 0.09003428 0.15233488 0.19178294 0.080158986 0.012798479 0.16429324
0.11073961 -0.09740245 -0.118003786 0.11248099 -0.103937045 -0.062125657 0.084778786 0.037710566
0.09176403 0.10959418 -0.19774441 0.12966356 -0.21628308 0.0650493 -0.08589623 0.13368528
0.052603636 -0.13518809 -0.12945022 0.17793643 0.12536708 -0.024534471 -0.20762132 -0.07193958
-0.14442372 0.11677033 0.13287747 0.049331613 0.1280975 0.16010171 0.08285424 0.20955664
-0.034107946 0.029563136 -0.09860946 0.04306955 0.18663882 -0.14296755 -0.04002835 -0.108597375
0.046715647 0.207594 0.055760235 0.20465687 0.20048152 0.19726452 0.014064116 -0.10556553
0.08568874 -0.14153497 0.1265199 0.06374608 -0.065671384 -0.039217804 0.13902447 0.15979317
-0.064673245 -0.1916909 -0.19897754 -0.045056768 -0.17511956 0.04853238 -0.15889114 -0.030270275
-0.20114236 0.113159806 -0.16479686 0.17966478 -0.10542877 0.15710191 0.11253099 -0.0838697
0.013446758 0.19132987 -0.17975916 -0.10774869 0.04756321 -0.21235143 -0.14294367 0.19515805
-0.046670504 -0.062088206 0.13828944 -0.06619141 -0.13208754 0.14681017 -0.18078524 -0.20384058
0.19055854 0.15890577 -0.19299409 -0.046782654 -0.21520628 -0.021164233 0.010613485 -0.124854
0.046939865 -0.10939162 -0.13151614 -0.1614226 0.1992331 0.06297014 0.17800124 0.11901867
-0.18764992 -0.17904535 -0.18476358 0.0026993065 0.0007206723 -0.038311925 -0.02359811 0.014802254
0.102746546 0.12213391 -0.09264287 0.12251786 0.034109347 0.05725006 0.017128853 -0.0148331225
0.082167454 -0.11551559 -0.11749241 -0.06465556 0.04089279 0.02726854 0.08647621 0.069026306
0.2015419 0.1644143 -0.10346489 -0.10151167 -0.109066 -0.026592808 0.20752577 -0.09572771
-0.21303101 0.04589036 -0.048303142 -0.018933397 0.063811585 0.030790498 0.068949535 -0.13606438
-0.041502252 0.17177258 -0.019679483 0.08498054 -0.1533363 -0.18767132 0.04921955 0.052364044
0.20210609 -0.20729937 -0.18967153 0.0035084293 -0.10600604 -0.053260542 -0.15213421 -0.09302551
-0.10131373 -0.0980743 -0.091697626 0.036536954 -0.098946 -0.08509438 0.07856031 0.21327387
0.058117844 0.0062672393 -0.06536575 -0.112815 0.19316626 -0.0047766697 -0.15867604 0.16103734
-0.005731777 0.04586118 -0.118974574 0.14584297 0.0885545 0.124676384 0.11330595 0.07260798
0.012342782 -0.014900062 -0.15900734 -0.19275968 -0.19275042 0.09414563 -0.04776187 0.08284553
-0.09425947 0.0107023185 -0.039466612 0.027845912 -0.04080055 -0.20322524 -0.18982837 -0.14245553
0.15885632 -0.122703455 0.011600658 0.029390518 0.18853661 -0.15187354 0.03700722 0.15347426
0.12311367 -0.1484106 0.10284662 -0.14650582 0.1748185 0.15245779 -0.18984583 -0.2021161
0.19054262 0.1296002 -0.08527945 0.18112133 -0.1714032 -0.13022803 0.10911605 0.052199397
00000000: 0155 44be aaf9 e6bd e89e 393d 1842 46be
00000010: f1f5 37be a781 f3bd 5f8a 8a3d a123 19be
00000020: 5dea acbd 228e 72bd 2c46 5fbd 37c7 da3d
00000030: f7ab 8d3d 8275 35bc e782 083e 56c5 be3d
00000040: c273 023e 363b 293e bfa9 e93d fc37 1c3e
00000050: 3e8a 46be 6dc6 aa3d 6a09 213e e765 b23d
00000060: 89ef aabc 30d4 8cbd e563 b83d adfd 1b3e
00000070: bf62 443e 652a a43d b6b0 513c 7d3c 283e
00000080: 73cb e23d f07a c7bd f8ab f1bd 6f5c e63d
00000090: f2dc d4bd 7977 7ebd 80a0 ad3d 6576 1a3d
000000a0: c8ee bb3d ea72 e03d 837d 4abe 86c6 043e
000000b0: 5079 5dbe 9138 853d 5dea afbd cbe4 083e
000000c0: e976 573d bf6e 0abe 998e 04be f834 363e
000000d0: 3a60 003e 84fc c8bc af9a 54be 0f55 93bd
000000e0: d0e3 13be 4825 ef3d 0811 083e f20f 4a3d
000000f0: fe2b 033e b4f1 233e 7caf a93d 0496 563e
00000100: c6b4 0bbd 642e f23c c2f3 c9bd b269 303d
00000110: 3f1e 3f3e 1666 12be c4f4 23bd 4d68 debd
00000120: e858 3f3d 8693 543e d864 643d 9291 513e
00000130: 074b 4d3e b6ff 493e 2e6d 663c be32 d8bd
00000140: 947d af3d 8bee 10be 6f8e 013e 4e8d 823d
00000150: b87e 86bd d9a2 20bd 6e5c 0e3e d2a0 233e
00000160: 6873 84bd 9f4a 44be c5c0 4bbe 728d 38bd
00000170: 8b52 33be e4c9 463d 5cb4 22be 5ef9 f7bc
00000180: 43f8 4dbe 54c0 e73d 82c0 28be 0bfa 373e
00000190: 0aeb d7bd 53df 203e a676 e63d e1c3 abbd
000001a0: ca4f 5c3c faeb 433e c912 38be 58ab dcbd
000001b0: a4d1 423d a772 59be d35f 12be 83d7 473e
000001c0: 9229 3fbd 3450 7ebd bf9b 0d3e 5d8f 87bd
000001d0: f541 07be 6855 163e c41f 39be 96bb 50be
000001e0: c721 433e 32b8 223e 3ea0 45be 2b9f 3fbd
000001f0: 095f 5cbe 9d60 adbc 2fe4 2d3c 74b3 ffbd
00000200: 0444 403d b708 e0bd 2bac 06be f74b 25be
00000210: c303 4c3e 7df6 803d f545 363e 0fc0 f33d
00000220: 4d27 40be aa57 37be aa32 3dbe d9e6 303b
00000230: 80eb 3c3a f7ec 1cbd d350 c1bc 2785 723c
00000240: c86c d23d 5821 fa3d 8cbb bdbd a5ea fa3d
00000250: 3eb6 0b3d 0a7f 6a3d cf51 8c3c a006 73bc
00000260: 6947 a83d 7093 ecbd dc9f f0bd 226a 84bd
00000270: 337f 273d 4662 df3c 701a b13d aa5d 8d3d
00000280: 0061 4e3e 395c 283e 66e5 d3bd 5ae5 cfbd
00000290: ff5d dfbd 29d9 d9bc a381 543e e40c c4bd
000002a0: cd24 5abe 88f7 3b3d 84d9 45bd 361a 9bbc
000002b0: a6af 823d 5b3c fc3c 6a35 8d3d 7654 0bbe
000002c0: 44fe 29bd 27e5 2f3e de36 a1bc 470a ae3d
000002d0: 3104 1dbe e92c 40be 709a 493d ae7b 563d
000002e0: e6f4 4e3e 4946 54be 4139 42be aded 653b
000002f0: b219 d9bd ba27 5abd 12c9 1bbe 2984 bebd
00000300: 937d cfbd 2edb c8bd f7cb bbbd c6a7 153d
00000310: 33a4 cabd f645 aebd 3ae4 a03d 7764 5a3e
00000320: fa0c 6e3d 6a5d cd3b 7ade 85bd 8d0b e7bd
00000330: 60cd 453e 9c85 9cbb f97b 22be f9e6 243e
00000340: a1d1 bbbb efd8 3b3d f1a8 f3bd dc57 153e
00000350: 105c b53d 5556 ff3d f30c e83d 7eb3 943d
00000360: 6139 4a3c 641f 74bc d2d2 22be cb62 45be
00000370: 5e60 45be 6dcf c03d f3a1 43bd ebaa a93d
00000380: 1c0b c1bd c758 2f3c bea7 21bd 1c1d e43c
00000390: 7a1e 27bd 471a 50be 5e62 42be dddf 11be
000003a0: 3bab 223e f34b fbbd b010 3e3c 62c4 f03c
000003b0: be0f 413e bd84 1bbe e294 173d 5b28 1d3e
000003c0: 0523 fc3d f3f8 17be 40a1 d23d 9f05 16be
000003d0: 9f03 333e e51d 1c3e f266 42be 86f7 4ebe
000003e0: 9b1d 433e eab5 043e fea6 aebd df77 393e
000003f0: 5284 2fbe 7f5a 05be 3c78 df3d 09cf 553d

actor.fc1.bias f4 [256]
0.022732807 -0.19077069 -0.09450639 0.080293395 0.20376939 -0.18742043 -0.012662953 0.20708153
0.15861121 -0.013672429 0.11396852 0.0347527 -0.16933814 0.17024694 -0.16370776 0.016463589
-0.075469114 0.20316228 -0.09249706 0.12824571 0.08379627 -0.02935831 0.13817862 0.15343332
-0.10051692 0.07481421 0.013755678 0.19494161 0.08612447 0.15396568 0.12848708 0.040342335
0.15174799 0.010043876 0.19291192 -0.07135256 0.20063463 -0.16937298 0.06054279 -0.025986262
-0.061090395 0.2075408 0.027243132 -0.16484693 -0.14458258 -0.02750066 0.032336816 -0.08750664
-0.06735059 0.1811985 -0.029996628 -0.06521316 -0.08094779 0.014444373 -0.025738237 0.040001027
0.12389636 0.12500863 -0.113454625 -0.15537186 0.05371778 0.08596901 0.187605 -0.11566925
0.004679622 0.099656865 0.21219137 -0.14356153 -0.08556593 0.029887008 -0.1339866 -0.082985386
0.06887047 0.078778945 0.18185525 -0.19391538 0.0780052 -0.16608961 -0.16371585 -0.1323921
0.02741441 0.054540932 0.11783289 -0.13846259 0.20618369 0.1454749 0.13046136 0.024140656
0.2044145 0.19590889 0.14611498 -0.1276134 0.10195681 -0.08823256 -0.12483624 -0.15116471
-0.046367537 -0.08100071 -0.21457422 -0.20751373 -0.11144739 -0.17796564 0.18326578 -0.14491051
-0.046701048 0.12796262 0.18595792 0.07279112 -0.06537294 0.041606735 -0.11546807 -0.21414022
-0.17054406 -0.041409492 0.17767334 0.21706216 -0.077128544 -0.03080476 0.044135354 -0.11755798
0.02724587 0.023844078 0.19784248 -0.071890555 -0.17497493 0.097064644 -0.10751014 -0.20267846
0.1326288 -0.0066878973 0.21667334 -0.083339795 0.16870196 -0.19722249 -0.18093805 -0.14161019
0.06621013 -0.10964571 -0.08248269 0.09791593 0.09266013 0.18917656 -0.022344956 -0.017816707
-0.122000255 0.055029128 -0.11564511 0.17169517 0.042461075 -0.063510805 0.081616156 -0.14588338
0.17673716 0.10335928 0.13405669 -0.018018067 -0.1432384 0.026009213 0.034445014 -0.05631243
-0.060086325 -0.1789238 -0.066795774 0.1890977 -0.08292693 -0.13693403 -0.16439062 0.073431544
-0.049562067 0.058306318 0.18480319 0.14590795 0.04503126 -0.03176988 -0.15501565 -0.027380057
-0.21255833 -0.15689619 -0.05022969 0.18106893 -0.19350255 -0.13231385 -0.16464627 0.031306397
-0.056108613 -0.010622716 0.11239762 0.020829918 -0.0010946237 0.09758237 -0.0057250867 -0.21242365
-0.03512615 -0.15455253 -0.014394258 0.12872995 -0.022990674 0.04398506 -0.17862616 -0.07072886
0.074524194 -0.030011289 -0.14527225 0.047020808 -0.17540888 -0.115802206 -0.21405052 0.1557792
-0.18456425 0.19273365 -0.0850779 -0.123279385 0.008508759 -0.071709454 0.1494222 -0.053875204
0.013628579 0.042311408 -0.20377767 0.037221793 -0.19819012 0.04461207 -0.090264186 -0.19916409
0.07042795 0.19861008 0.111589864 0.02874875 0.09254049 -0.1417141 -0.086246215 0.21485142
0.050971407 -0.11395552 -0.12097844 -0.006818194 -0.14499123 0.18667147 0.013405831 -0.08023052
-0.16872045 -0.082624204 0.09827797 0.20948014 -0.06418865 0.12501098 0.08491379 -0.20192124
-0.11695052 0.116094545 0.1548629 -0.19225945 -0.0956823 -0.21620856 0.07623762 -0.063458286
00000000: 273a ba3c 6459 43be 918c c1bd dd70 a43d
00000010: eca8 503e 24eb 3fbe 4678 4fbc 2e0d 543e
00000020: fa6a 223e 5302 60bc 5468 e93d d958 0e3d
00000030: fa66 2dbe 3755 2e3e 02a3 27be a6de 863c
00000040: 8d8f 9abd c609 503e 196f bdbd d852 033e
00000050: 619d ab3d d780 f0bc b27e 0d3e a01d 1d3e
00000060: d1db cdbd 3138 993d 7f5f 613c c69e 473e
00000070: 0762 b03d 2ea9 1d3e 1e92 033e 013e 253d
00000080: d363 1b3e 128f 243c b48a 453e 4a21 92bd
00000090: 2a73 4d3e 1c70 2dbe b7fb 773d 24e1 d4bc
000000a0: ec39 7abd 9385 543e fd2c df3c a2cd 28be
000000b0: 750d 14be 1049 e1bc 9c73 043d ae36 b3bd
000000c0: 1bef 89bd 198c 393e 7dbb f5bc 7a8e 85bd
000000d0: f4c7 a5bd 17a8 6c3c ffd8 d2bc 1ed8 233d
000000e0: 60bd fd3d 4302 003e e65a e8bd cd19 1fbe
000000f0: 2d07 5c3d 8510 b03d 861b 403e 00e4 ecbd
00000100: 8457 993b e618 cc3d b248 593e cb01 13be
00000110: 313d afbd 99d5 f43c c933 09be 3ef4 a9bd
00000120: f60b 8d3d db56 a13d 4338 3a3e c191 46be
00000130: 31c1 9f3d 6513 2abe 21a5 27be cb91 07be
00000140: 2f94 e03c 5066 5f3d 5f52 f13d 23c9 0dbe
00000150: d121 533e 5ff7 143e aa97 053e a0c2 c53c
00000160: 0952 513e 579c 483e 2a9f 153e 16ad 02be
00000170: bbce d03d 46b3 b4bd 25aa ffbd ecca 1abe
00000180: e3eb 3dbd b3e3 a5bd 58b9 5bbe 7b7e 54be
00000190: 873e e4bd a03c 36be 06aa 3b3e 6c63 14be
000001a0: 9949 3fbd a208 033e c16b 3e3e 8313 953d
000001b0: 3fe2 85bd d36b 2a3d 867a ecbd 9347 5bbe
000001c0: 1aa3 2ebe 009d 29bd 00f0 353e 8b45 5e3e
000001d0: 92f5 9dbd 445a fcbc 46c7 343d 3dc2 f0bd
000001e0: bb32 df3c a854 c33c 3897 4a3e 5b3b 93bd
000001f0: a12c 33be d4c9 c63d 472e dcbd f18a 4fbe
00000200: d8cf 073e 2626 dbbb 9edf 5d3e 0eae aabd
00000210: 35c0 2c3e b1f4 49be d347 39be 4302 11be
00000220: 2d99 873d ee8d e0bd afec a8bd 2688 c83d
00000230: 98c4 bd3d 80b7 413e c50c b7bc 58f4 91bc
00000240: 45db f9bd 3966 613d 58d7 ecbd dcd0 2f3e
00000250: aaeb 2d3d f411 82bd 5f26 a73d 7462 15be
00000260: 96fa 343e 08ae d33d 2846 093e a09a 93bc
00000270: 16ad 12be 4611 d53c 3716 0d3d dda7 66bd
00000280: 141d 76bd cd37 37be 39cc 88bd d4a2 413e
00000290: 98d5 a9bd 6f38 0cbe 0456 28be 4763 963d
000002a0: 9801 4bbd 9bd2 6e3d 0c3d 3d3e e568 153e
000002b0: b372 383d 2221 02bd 6cbc 1ebe 244c e0bc
000002c0: e4a8 59be 65a9 20be a6bd 4dbd 226a 393e
000002d0: 8825 46be 487d 07be 0899 28be 233b 003d
000002e0: 25d2 65bd e60a 2ebc b930 e63d 81a3 aa3c
000002f0: 7a79 8fba 44d9 c73d 8299 bbbb 9685 59be
00000300: 70e0 0fbd 0543 1ebe e5d5 6bbc c9d1 033e
00000310: f056 bcbc ae29 343d c7e9 36be 4bda 90bd
00000320: 24a0 983d 3cda f5bc 40c2 14be e498 403d
00000330: 639e 33be b529 edbd 0f30 5bbe 9584 1f3e
00000340: 69fe 3cbe f85b 453e 523d aebd e779 fcbd
00000350: 5268 0b3c 68dc 92bd 2202 193e 3fac 5cbd
00000360: 674a 5f3c ba4e 2d3d 18ab 50be e175 183d
00000370: 5af2 4abe 25bb 363d 6edc b8bd acf1 4bbe
00000380: 873c 903d 7160 4b3e 3a89 e43d 8082 eb3c
00000390: de85 bd3d 801d 11be dba1 b0bd 0302 5c3e
000003a0: 65c7 503d 8361 e9bd 8bc3 f7bd 286b dfbb
000003b0: 9578 14be ce26 3f3e 21a4 5b3c e64f a4bd
000003c0: 0ec5 2cbe e136 a9bd f645 c93d f681 563e
000003d0: 5775 83bd e102 003e 48e7 ad3d 71c4 4ebe
000003e0: c183 efbd fac2 ed3d 6194 1e3e a9df 44be
000003f0: 15f5 c3bd c765 5dbe 7822 9c3d 6bf6 81bd

actor.fc2.weight f4 [128, 256]
-0.02500744 0.031122854 0.019417219 -0.050589565 -0.041852772 0.037215665 -0.023174787 -0.06106146
-0.0028285247 -0.020336911 -0.022619722 -0.03509791 -0.009887298 0.048984375 -0.019947788 -0.046537545
-0.024742365 0.0585011 0.0033735698 0.007941425 -0.040297735 -0.017621472 -0.018472975 0.023304204
-0.044455357 0.013243259 0.016403746 -0.05434546 -0.037616678 -0.060744517 -0.0110581815 -0.06124893
0.037220787 -0.058855806 -0.048997685 0.05259282 -0.011649209 -0.006744814 0.026528228 -0.041496035
0.03273656 0.035233654 0.035622858 -0.009722021 -0.05240953 0.0010509107 0.02353477 -0.053456403
-0.036014244 0.03145295 0.036695424 -0.006579368 0.041732907 0.037216846 0.053465877 -0.0083620045
-0.010681453 -0.04288039 -0.00014265126 -0.046886966 -0.059488606 -0.045750443 0.033750035 -0.029194467
-0.05678143 -0.028249482 -0.00131818 0.060521323 -0.025381407 -0.017252233 0.021418784 0.018097514
0.019321539 -0.011243637 -0.019664902 0.046645503 -0.035397157 0.043264497 0.025219744 0.0011131512
0.058436915 0.032968823 -0.027052457 -0.023247655 -0.021321421 0.049906548 0.01611402 -0.038584486
-0.013996956 -0.051888544 -0.0052464134 -0.001030945 -0.02297163 -0.049523022 0.0028901186 -0.04596956
-0.014961809 -0.032877017 0.023053098 0.03219066 0.017129717 -0.052083626 -0.013375588 -0.008624397
0.040306017 -0.06087566 -0.001988726 0.020346053 0.060046256 0.008576754 0.04703705 0.054938365
-0.047660977 0.036431894 -0.030309878 0.031870402 -0.018820414 0.015032967 0.057839584 0.01708172
0.05909192 -0.031005573 -0.03655158 0.04585966 -0.03015846 0.043877535 -0.023525182 0.022002913
0.031083746 0.05282297 0.055284724 -0.05848767 -0.04406217 -0.0104361195 0.0049098255 0.01695919
0.022206765 -0.04322344 -0.009785158 -0.05287899 0.016865183 0.031954043 0.009670055 -0.009145188
-0.059181813 0.020414006 0.056264427 0.045743927 0.04427524 0.034304347 -0.053015415 -0.0157234
0.04342183 0.040091198 0.02214406 0.0013037792 -0.014277371 0.0262139 0.0029773137 -0.027041897
0.018828843 0.038549535 0.039483313 0.0595292 -0.0027244429 -0.048567932 0.048488345 0.04455123
-0.018517597 0.05261782 0.038090773 -0.022473555 0.0071638483 -0.053867497 0.0577168 -0.005171339
0.032583933 -0.061277177 -0.0033418 -0.029173361 -0.048676353 -0.046181094 0.0037234484 0.014918061
-0.047154084 -0.046824988 -0.00018319851 -0.04054596 -0.017765773 -0.040005106 0.0141582815 -0.059814505
-0.040688243 0.05332635 0.014286528 0.054726794 0.006136444 0.017872008 -0.02644441 -0.037208285
-0.02418675 -0.012297149 -0.020442398 -0.05096601 -0.04400839 -0.016269155 0.05230337 0.057245642
-0.010430606 -0.060847566 0.0008699915 -0.019816622 -0.028113103 0.048867244 -0.032542896 -0.0064660124
-0.059074685 -0.03629791 0.006589822 -0.054618068 -0.046531256 -0.058131065 0.039027907 -0.030270966
-0.05137979 -0.0017870602 -0.057936165 0.025414608 0.036726568 0.024170343 0.026925065 0.0029462697
0.04885877 0.022723166 -0.015521951 -0.04966146 -0.04549948 -0.005669396 -0.022359623 0.008813152
0.04148502 -0.051793944 0.041495513 -0.0133462725 -0.029274683 0.008505806 0.0596568 0.036596578
0.049126916 -0.004713628 0.021657744 -0.058185887 0.014826147 0.0008145132 0.061066244 -0.017579105
00000000: 67dc ccbc 5bf5 fe3c dc10 9f3c 0137 4fbd
00000010: d06d 2bbd 746f 183d 0dd9 bdbc 951b 7abd
00000020: c55e 39bb 9899 a6bc ff4c b9bc d3c2 0fbd
00000030: 55fe 21bc d7a3 483d 8b69 a3bc 279e 3ebd
00000040: 80b0 cabc d99e 6f3d 1c17 5d3b c01c 023c
00000050: 3d0f 25bd e85a 90bc a354 97bc 75e8 be3c
00000060: d216 36bd 41fa 583c 2661 863c 5899 5ebd
00000070: f213 1abd 3ecf 78bd 602d 35bc 28e0 7abd
00000080: d374 183d c912 71bd ccb1 48bd 926b 573d
00000090: 53dc 3ebc 9a03 ddbb ba51 d93c bff7 29bd
000000a0: c516 063d 2a51 103d 46e9 113d 1d49 1fbc
000000b0: 60ab 56bd b6be 893a fdcb c03c 1af5 5abd
000000c0: ac83 13bd cfd4 003d f14d 163d bd97 d7bb
000000d0: 20f0 2a3d b170 183d 09ff 5a3d ca00 09bc
000000e0: 4301 2fbc 59a3 2fbd a894 15b9 8c0c 40bd
000000f0: 53aa 73bd d164 3bbd 7a3d 0a3d 3c29 efbc
00000100: a593 68bd 756b e7bc c8c6 acba 35e5 773d
00000110: abec cfbc 8e54 8dbc 7276 af3c 3d41 943c
00000120: 3448 9e3c 3b37 38bc 4a18 a1bc 5b0f 3f3d
00000130: 9cfc 10bd 1d36 313d a399 ce3c 28e7 913a
00000140: 8c5b 6f3d 510a 073d 1d9d ddbc de71 bebc
00000150: 43aa aebc cf6a 4c3d 8d01 843c c40a 1ebd
00000160: 7d53 65bc 1589 54bd 1bea abbb c620 87ba
00000170: 002f bcbc a7d8 4abd 2568 3d3b 944a 3cbd
00000180: 6022 75bc 0daa 06bd dad9 bc3c 5ada 033d
00000190: 9f53 8c3c a455 55bd 4825 5bbc 584d 0dbc
000001a0: ec17 253d c258 79bd 4955 02bb c4ac a63c
000001b0: 10f3 753d 8385 0c3c eca9 403d 0d07 613d
000001c0: 2838 43bd 9c39 153d 6c4c f8bc 8a8a 023d
000001d0: 452d 9abc d54c 763c 33e9 6c3d f7ee 8b3c
000001e0: 5e0a 723d 66ff fdbc 1cb7 15bd 57d7 3b3d
000001f0: e00e f7bc eeb8 333d e2b7 c0bc 743f b43c
00000200: 57a3 fe3c e65c 583d 3c72 623d c490 6fbd
00000210: 897a 34bd 42fc 2abc 9ae2 a03b 00ee 8a3c
00000220: f6ea b53c 100b 31bd ed51 20bc a497 58bd
00000230: da28 8a3c 3ee2 023d 266f 1e3c b3d5 15bc
00000240: a168 72bd 463b a73c 8775 663d fc5d 3b3d
00000250: f459 353d b782 0c3d b126 59bd 5cce 80bc
00000260: 17db 313d ab36 243d 7667 b53c 92e3 aa3a
00000270: a2eb 69bc 88be d63c 091f 433b f886 ddbc
00000280: f23e 9a3c 1ee6 1d3d 41b9 213d e4d4 733d
00000290: 918c 32bb 2bef 46bd b79b 463d 5a7b 363d
000002a0: 37b2 97bc c985 573d 1205 1c3d 761a b8bc
000002b0: b7be ea3b 2aa4 5cbd 7468 6c3d 5674 a9bb
000002c0: bb76 053d c7fd 7abd 1a02 5bbb f9fc eebc
000002d0: db60 47bd 6328 3dbd 1905 743b e26a 743c
000002e0: a424 41bd 8fcb 3fbd fa18 40b9 8513 26bd
000002f0: 8789 91bc 65dc 23bd 23f8 673c 0e00 75bd
00000300: b7a8 26bd bb6c 5a3d 0b12 6a3c 3429 603d
00000310: 3914 c93b 5168 923c f3a1 d8bc b767 18bd
00000320: 4b23 c6bc fb79 49bc d176 a7bc bcc1 50bd
00000330: 2442 34bd e446 85bc 0f3c 563d 687a 6a3d
00000340: 22e5 2abc 4c3b 79bd 2410 643a 7856 a2bc
00000350: 734d e6bc 0529 483d b34b 05bd d8e0 d3bb
00000360: 4cf8 71bd 1ead 14bd 6fef d73b 32b7 5fbd
00000370: 8f97 3ebd d71a 6ebd badb 1f3d d1fa f7bc
00000380: 9d73 52bd ca3b eaba 794e 6dbd 4c32 d03c
00000390: 996e 163d e200 c63c f491 dc3c 3416 413b
000003a0: 2220 483d ef25 ba3c c84f 7ebc d169 4bbd
000003b0: aa5d 3abd 57c6 b9bb 872b b7bc 0a65 103c
000003c0: 32ec 293d e325 54bd 33f7 293d 53aa 5abc
000003d0: 76d1 efbc f05b 0b3c b05a 743d 4be6 153d
000003e0: 4e39 493d c774 9abb 956b b13c 5354 6ebd
000003f0: 5ee9 723c 0e85 553a 9920 7a3d 0e02 90bc

actor.fc2.bias f4 [128]
0.037241366 -0.025583941 -0.03604288 -0.034331 0.030097462 0.007432657 -0.0020480051 0.041274928
0.006099272 0.044686433 -0.020460572 0.0066555925 0.052981574 0.03595089 -0.023051608 -0.008569425
0.0012659254 -0.04755218 0.045243006 -0.011977045 0.019876543 -0.05850002 -0.028348379 -0.004918787
-0.055112947 0.025631798 0.058548573 -0.012967925 -0.059172165 -0.0023887986 0.013690519 0.00073269417
-0.029273147 -0.046289675 -0.043809883 -0.01673397 0.05326322 0.062023543 -0.0616362 0.053517047
0.046747066 -0.030723501 -0.013318744 0.014207023 -0.046865437 -0.04453973 -0.033365443 0.02881663
-0.024849735 -0.010018481 0.041038673 0.019842181 0.04634398 -0.005881712 0.018305229 -0.05472757
-0.04990388 0.025800308 0.040474728 -0.009100746 -0.05008427 0.047996428 -0.026150437 0.03585381
0.014821694 0.027753482 -0.013555107 -0.008003525 0.02142157 -0.027821977 -0.034144558 -0.046860214
0.023307668 0.014386695 -0.026147394 0.013827155 -0.027317775 0.05174064 -0.049964957 0.019252317
-0.023257483 -0.03175747 -0.031513523 -0.03936387 0.03564945 0.05059921 -0.046995558 0.00094190065
-0.015753869 0.04499128 -0.012311778 -0.042697303 -0.010619068 -0.014242867 -0.0017293317 0.0311053
-0.028025504 -0.0010926791 -0.005407223 0.046621587 -0.04061963 -0.031188548 0.037613418 0.049569033
0.04243521 -0.0589028 -0.046963695 -0.047049783 -0.038263686 -0.035378143 0.05103003 0.0496944
-0.052957706 0.04723026 0.016777225 0.03618246 0.04900428 -0.031175727 -0.015034231 -0.019015487
-0.03576078 -0.009817733 -0.018773632 -0.0009442819 0.023002641 0.0046887156 0.05641556 -0.010598052
00000000: 678a 183d 6a95 d1bc b3a1 13bd aa9e 0cbd
00000010: f48e f63c a58d f33b d337 06bb e60f 293d
00000020: 67dc c73b 1f09 373d ee9c a7bc 2817 da3b
00000030: 3503 593d 3e41 133d bad6 bcbc c666 0cbc
00000040: 68ed a53a 13c6 42bd bb50 393d 5e3b 44bc
00000050: 22d4 a23c b89d 6fbd dc3a e8bc c72d a1bb
00000060: 1dbe 61bd c7f9 d13c a1d0 6f3d 6b77 54bc
00000070: 835e 72bd 648d 1cbb 334e 603c 4612 403a
00000080: 3dce efbc 3e9a 3dbd fe71 33bd ae15 89bc
00000090: 892a 5a3d 660c 7e3d 3d76 7cbd b134 5b3d
000000a0: da79 3f3d daaf fbbc dc36 5abc 93c4 683c
000000b0: f9f5 3fbd 4b6f 36bd 34aa 08bd da10 ec3c
000000c0: ac91 cbbc 8e24 24bc 2b18 283d 128c a23c
000000d0: 2fd3 3d3d 60bb c0bb d9f4 953c 042a 60bd
000000e0: 0368 4cbd 2b5b d33c d4c8 253d 4c1b 15bc
000000f0: 2a25 4dbd e797 443d 7139 d6bc 72db 123d
00000100: b1d6 723c 455b e33c 3d16 5ebc 3821 03bc
00000110: 4a7c af3c eaea e3bc 2adb 0bbd 7ff0 3fbd
00000120: b9ef be3c 2cb6 6b3c 0f33 d6bc 4b8b 623c
00000130: 87c9 dfbc feed 533d 0ea8 4cbd 09b7 9d3c
00000140: 7a86 bebc 1f14 02bd 5314 01bd 023c 21bd
00000150: 2805 123d 1e41 4f3d 6a7e 40bd e2e9 763a
00000160: 420e 81bc c748 383d 57b7 49bc 5ee3 2ebd
00000170: 99fb 2dbc ea5a 69bc beaa e2ba 8bd0 fe3c
00000180: be95 e5bc 3a38 8fba 132f b1bb 47f6 3e3d
00000190: c560 26bd 207f ffbc 8710 1a3d e608 4b3d
000001a0: 8bd0 2d3d 1044 71bd 015d 40bd 46b7 40bd
000001b0: 62ba 1cbd ace8 10bd dd04 513d 5b8c 4b3d
000001c0: 2eea 58bd 8474 413d 6470 893c 0f34 143d
000001d0: b6b8 483d 3d64 ffbc 2352 76bc 5ec6 9bbc
000001e0: e579 12bd 8fda 20bc 29cb 99bc b089 77ba
000001f0: 0970 bc3c cca3 993b 0114 673d 74a3 2dbc

actor.policy_head.weight f4 [50, 128]
0.032013744 0.03384948 0.024249772 0.084370606 -0.06923238 -0.08757485 0.082285434 0.009371602
-0.059939846 0.015603326 -0.034990173 -0.01220793 0.086232975 0.063164525 0.07570733 -0.02413517
0.06604197 0.038619388 -0.031484183 -0.047587324 -0.041375943 0.016583782 0.04638791 -0.082649
-0.053694263 -0.075530685 0.081912324 -0.025076024 0.013704273 -0.055568304 -0.059007615 0.055001598
0.074665874 -0.006597221 -0.06935225 -0.016549822 -0.025358615 -0.037915338 -0.025350463 0.028472092
-0.0020197923 -0.076467015 -0.0062220953 0.0030052387 0.07360388 -0.051511597 0.06752706 0.061961267
0.071272485 -0.07302865 0.06757601 -0.060232393 0.06379816 0.061755113 -0.024453903 0.04537152
0.087559424 0.074223556 0.038440276 -0.0075726197 0.043996826 0.033822484 -0.012111038 0.014737586
-0.08701602 -0.068270005 0.02331314 -0.08165738 0.064667486 0.087171175 0.0627421 0.042146504
0.017611552 0.083928764 -0.02308776 0.040366024 0.06078378 -0.054509573 0.04264121 -0.019437812
0.030181784 0.049797293 -0.07058091 -0.02642922 -0.070515566 -0.073451266 0.012815468 -0.014736069
0.011422163 -0.06851058 -0.08536564 -0.08174286 -0.037868466 -0.07853188 -0.0762565 -0.030701812
0.07776335 0.013191247 0.06625042 -0.022778608 0.05914038 -0.0075386562 -0.071511246 -0.032598566
0.031188909 0.0023551648 -0.019168308 0.06363291 0.077658206 0.055860683 -0.00069906056 0.071263164
0.047479324 0.0029160872 0.06826884 0.04916713 -0.029363452 0.053676847 0.058322854 -0.06357731
0.057622448 0.07214256 0.075374834 0.04555038 -0.074294984 -0.002443116 0.050489414 0.04668169
-0.0047401725 0.033106666 0.006426099 0.040606678 -0.030389018 -0.055403467 -0.023826888 -0.02350849
0.056423083 -0.022698302 -0.08465991 0.061972186 -0.019260306 -0.037816852 -0.0630057 -0.008393006
0.061198343 -0.020690806 0.04708099 -0.011172996 -0.031348474 0.03279835 0.03944519 -0.08069284
-0.035122827 0.021032838 0.025926247 0.06622595 -0.063253835 -0.030048553 0.0010681795 0.037188917
-0.08140684 0.019533 -0.039373826 0.054368086 -0.012759396 0.017492346 -0.07948833 0.02974295
0.044359166 -0.06486606 0.08608539 0.002809668 -0.022464795 0.06602937 -0.034473874 0.009322218
-0.014657054 -0.06535688 0.022832137 0.06372557 -0.059498146 -0.05964641 -0.022439005 -0.037744794
-0.07787939 -0.018309282 -0.06869236 0.0150116 0.021761142 -0.013492352 0.04049686 0.07295881
-0.041292287 0.08032487 0.038676474 0.03989501 0.021644996 0.031902354 -0.037548434 -0.014860464
0.0840574 -0.043927196 -0.07390686 0.06914646 0.058591396 -0.033209883 0.050154496 0.0064372024
0.053005382 -0.05396977 0.021498816 0.051600102 0.050572913 -0.035523716 -0.0133990515 0.057156388
0.03596397 -0.033858832 0.050843015 0.053516798 -0.032884818 0.04429181 -0.055397786 -0.029143678
0.048746567 0.05103303 0.05033771 0.08164397 -0.08358165 -0.049070247 -0.0227933 -0.04417091
-0.06983398 0.08084507 -0.03986497 0.05471747 -0.054104347 0.042607646 -0.0757727 0.04736958
-0.028533867 0.008977615 0.013579073 -0.06660296 -0.04726735 -0.0020557374 0.032969873 -0.05950899
0.05534527 -0.0074044657 0.015434574 -0.037967674 0.008174899 0.018307013 -0.057030242 -0.051988713
00000000: d820 033d c1a5 0a3d 75a7 c63c 7fca ac3d
00000010: b5c9 8dbd 715a b3bd 4485 a83d 598b 193c
00000020: 7c83 75bd 18a5 7f3c db51 0fbd c503 48bc
00000030: ea9a b03d 675c 813d 720c 9b3d 1fb7 c5bc
00000040: 0341 873d 5d2f 1e3d 8ff5 00bd edea 42bd
00000050: d279 29bd b6da 873c 4001 3e3d e143 a9bd
00000060: 84ee 5bbd d5af 9abd a6c1 a73d 3c6c cdbc
00000070: e387 603c 979b 63bd f8b1 71bd 5b49 613d
00000080: 6cea 983d 802d d8bb 8d08 8ebd 7e93 87bc
00000090: dfbc cfbc 1d4d 1bbd c6ab cfbc 4e3e e93c
000000a0: 7e5e 04bb bd9a 9cbd b8e2 cbbb 8af3 443b
000000b0: a2bd 963d d3fd 52bd a14b 8a3d 19cb 7d3d
000000c0: 4ff7 913d 0b90 95bd 4b65 8a3d 3eb6 76bd
000000d0: 9ca8 823d eef2 7c3d 8d53 c8bc 7dd7 393d
000000e0: 5b52 b33d 8502 983d 8d73 1d3d bd23 f8bb
000000f0: 0436 343d 7289 0a3d 606d 46bc ea75 713c
00000100: 7535 b2bd 25d1 8bbd 33fb be3c fc3b a7bd
00000110: 6370 843d cd86 b23d ee7e 803d d0a1 2c3d
00000120: 1a46 903c d8e2 ab3d 8b22 bdbc d856 253d
00000130: 6af8 783d 6e45 5fbd 8da8 2e3d 0c3c 9fbc
00000140: ca3f f73c 3ff8 4b3d b98c 90bd 1782 d8bc
00000150: 776a 90bd 9e6d 96bd f8f7 513c 8e6f 71bc
00000160: 0624 3b3c 464f 8cbd 2ed4 aebd cd68 a7bd
00000170: f71b 1bbd 53d5 a0bd 5e2c 9cbd 5e82 fbbc
00000180: 6442 9f3d 1a20 583c 4dae 873d 349a babc
00000190: 2f3d 723d d506 f7bb 7d74 92bd 1386 05bd
000001a0: e27f ff3c 1c59 1a3b db06 9dbc f951 823d
000001b0: 440b 9f3d 2cce 643d 2941 37ba 6cf2 913d
000001c0: ae79 423d d31b 3f3b 89d0 8b3d 7963 493d
000001d0: 9f8b f0bc 41dc 5b3d f2e3 6e3d d234 82bd
000001e0: 8405 6c3d 7abf 933d 1f5e 9a3d 0993 3a3d
000001f0: f827 98bd af1c 20bb fdcd 4e3d 4d35 3f3d
00000200: 7353 9bbb db9a 073d 0792 d23b 3053 263d
00000210: 64f2 f8bc bfee 62bd 9b30 c3bc e094 c0bc
00000220: e41b 673d caf1 b9bc 2d62 adbd 8cd6 7d3d
00000230: cac7 9dbc d8e5 1abd 2209 81bd d282 09bc
00000240: 1dab 7a3d c47f a9bc ffd7 403d f10e 37bc
00000250: 4267 00bd 9057 063d 4891 213d 4a42 a5bd
00000260: f4dc 0fbd 0f4d ac3c 4863 d43c 79a1 873d
00000270: 3a8b 81bd 6228 f6bc 2802 8c3a 6853 183d
00000280: a1b8 a6bd ac03 a03c 7346 21bd 12b1 5e3d
00000290: c90c 51bc 1c4c 8f3c c7ca a2bd 7da7 f33c
000002a0: f5b1 353d 7fd8 84bd 894d b03d 6822 383b
000002b0: 1708 b8bc 683a 873d 7a34 0dbd 37bc 183c
000002c0: 2424 70bc d4d9 85bd 760a bb3c 8d82 823d
000002d0: 54b4 73bd cb4f 74bd 01d2 b7bc 499a 1abd
000002e0: 3b7f 9fbd 59fd 95bc 94ae 8cbd 37f3 753c
000002f0: 6c44 b23c 070f 5dbc 09e0 253d 6e6b 953d
00000300: 1a22 29bd 5e81 a43d 396b 1e3d f368 233d
00000310: d950 b13c 0bac 023d 63cc 19bd 4e79 73bc
00000320: 4926 ac3d 01ed 33bd 7b5c 97bd a99c 8d3d
00000330: 88fd 6f3d 1607 08bd cd6e 4d3d 2bef d23b
00000340: 2c1c 593d 680f 5dbd 491e b03c a15a 533d
00000350: 8b25 4f3d 5181 11bd b287 5bbc d11c 6a3d
00000360: f54e 133d 8faf 0abd c440 503d 6e34 5b3d
00000370: 3bb2 06bd 546b 353d cae8 62bd b9be eebc
00000380: 7baa 473d 0308 513d ea2e 4e3d f434 a73d
00000390: db2c abbd e2fd 48bd 04b9 babc 8eec 34bd
000003a0: 1e05 8fbd 1a92 a53d 7349 23bd 6d1f 603d
000003b0: 859c 5dbd 5b85 2e3d b82e 9bbd 9b06 423d
000003c0: dbbf e9bc d916 133c c37a 5e3c 2267 88bd
000003d0: 699b 41bd 8db9 06bb 6b0b 073d b3bf 73bd
000003e0: b9b1 623d 29a1 f2bb 4ce1 7c3c fe83 1bbd
000003f0: 03f0 053c 97f8 953c 8b98 69bd 1ef2 54bd

actor.policy_head.bias f4 [50]
-0.0023946364 -0.02362324 -0.0511402 0.0022938321 0.08454988 -0.008242839 0.040396273 0.08723471
0.0074309832 0.030580653 0.057751246 -0.008396773 -0.03673043 -0.07548121 0.020350581 -0.030754553
0.05120801 -0.013016769 0.07753636 -0.043723345 0.015375963 -0.058921732 0.01560431 -0.07692006
0.0056128083 0.08512658 -0.034827814 -0.00506731 -0.06766563 -0.042790283 -0.035996746 0.051405292
-0.017950041 -0.0032525393 0.070358224 0.038586225 0.075906135 -0.07753906 -0.06230572 -0.07026506
-0.035914816 -0.06958461 -0.06001149 -0.025117492 0.070362896 -0.07610347 0.04885361 0.08469421
-0.039129734 0.07119038
00000000: 55ef 1cbb 8685 c1bc 6378 51bd 1e54 163b
00000010: 7d28 ad3d f90c 07bc 9076 253d 1da8 b23d
00000020: 9b7f f33b 4784 fa3c 928c 6c3d 9e92 09bc
00000030: a672 16bd e595 9abd 43b6 a63c f9f0 fbbc
00000040: 7ebf 513d 4944 55bc 62cb 9e3d 4017 33bd
00000050: 77eb 7b3c ea57 71bd 38a9 7f3c 4488 9dbd
00000060: a6eb b73b d856 ae3d 9ca7 0ebd ad0b a6bb
00000070: 4794 8abd dd44 2fbd 5371 13bd 5b8e 523d
00000080: f70b 93bc 8e28 55bb f917 903d 970c 1e3d
00000090: ad74 9b3d cccc 9ebd 4834 7fbd 21e7 8fbd
000000a0: 6a1b 13bd 6082 8ebd 9cce 75bd 33c3 cdbc
000000b0: 6c1a 903d 23dc 9bbd b91a 483d 2874 ad3d
000000c0: 8046 20bd 43cc 913d

critic.fc1.weight f4 [256, 21]
0.12193672 -0.18950893 -0.05375358 -0.10328879 -0.14692602 0.1952412 -0.0644065 -0.055862103
-0.005020156 -0.2011529 -0.00910967 0.13086013 -0.16041988 0.13207424 -0.10586595 0.11227425
-0.046676006 0.10186989 0.1709819 -0.10356861 0.1559114 -0.19534996 0.07727555 0.08634636
-0.022679267 -0.037432138 0.14600791 0.0673916 0.21547855 -0.008449571 -0.12306799 -0.06016672
-0.049068645 -0.053742163 -0.13135335 0.1349059 0.0023764956 -0.10649748 -0.16642655 0.17498086
0.17872563 -0.07147357 -0.16717435 -0.08052238 -0.19796273 -0.008329281 -0.067762524 0.18181622
-0.038996637 0.021043496 -0.14920351 -0.027860016 -0.11326725 -0.18749705 -0.0719962 0.14786553
-0.18132198 0.088074416 -0.1726988 -0.062150184 -0.21552654 0.190989 0.133428 0.2140588
-0.124856025 0.21180154 0.21482772 -0.13213077 -0.095996186 0.039463464 -0.090373054 0.19023953
-0.1556687 -0.20330077 0.020973662 0.048703503 -0.19025256 -0.12910014 -0.13579711 -0.20672542
-0.062262733 0.0886835 0.0035281407 -0.18526481 0.03734914 0.094792396 0.14271897 0.093765624
0.18331341 0.20359926 0.04039717 0.1758668 -0.1544642 -0.010357663 0.1686988 -0.058307588
-0.21099429 -0.01846729 0.1336771 -0.022964844 0.08168565 -0.004730744 0.13303134 0.056932434
-0.16422586 0.17613387 -0.08259329 0.037213873 -0.09981417 -0.14432557 0.21318609 -0.16944274
-0.029641157 -0.15753391 -0.028950553 -0.10215576 -0.06043613 -0.014479963 0.056966994 -0.04898346
0.19788502 0.048021782 -0.069347 -0.06682082 -0.14404118 -0.08930837 0.18794219 -0.07331259
-0.016714295 -0.030647961 -0.1808106 0.13514557 0.16029197 0.16895823 0.18079014 0.15259093
0.1492675 0.15868399 0.10369831 0.115382455 0.111617856 -0.097075105 0.1913973 -0.069966264
-0.16269197 -0.17502765 0.17804211 -0.15736936 0.09274705 -0.030597892 -0.20827931 -0.17391314
-0.11353533 0.10843237 -0.056890357 0.11270127 -0.11934078 0.17584805 0.12948234 -0.10912705
0.08794819 -0.15879345 0.053406913 0.11867858 -0.1433378 -0.0058036717 0.20282805 0.13913466
0.14493626 0.039349508 0.0010444244 -0.10026555 -0.1973269 0.08893346 -0.015644778 0.21416718
-0.21554881 0.16583113 0.070818774 0.10066944 -0.14990821 -0.12970817 0.019616213 0.025670668
-0.11962041 -0.1923367 0.19943531 0.21665072 0.088594705 0.15948553 0.1446909 0.1745789
0.18032767 -0.13282298 -0.21686584 -0.16752206 0.21024048 -0.11343643 0.18594618 0.08025857
0.09114571 0.091744944 -0.060919836 -0.004012408 0.08592243 -0.08517363 0.034137942 -0.12219725
0.1762466 0.037562896 -0.17901483 -0.047822367 -0.018223977 -0.009895349 -0.21491295 0.18727283
0.13745153 -0.015326229 0.14149222 -0.097367644 -0.11705365 -0.023289328 -0.06472433 0.1250343
-0.14725594 -0.19869398 0.17430781 -0.21402198 0.17622818 0.017748581 -0.09115649 0.1778012
-0.13614954 -0.1027634 0.12243268 -0.05908153 -0.21597518 0.0017571484 0.0053936476 0.0045188917
0.02065317 -0.039100528 0.057334673 -0.06167616 0.15560532 0.12116129 -0.18523654 -0.11133817
-0.10762397 0.17774051 -0.17247741 0.046127655 0.15903091 0.047792926 -0.14549738 -0.050476115
00000000: f6b9 f93d a10e 42be b72c 5cbd 1389 d3bd
00000010: c673 16be 4fed 473e 8ee7 83bd a9cf 64bd
00000020: 1f80 a4bb 07fb 4dbe ba40 15bc 3300 063e
00000030: 1c45 24be 783e 073e 3fd0 d8bd 0bf0 e53d
00000040: 572f 3fbd 29a1 d03d e115 2f3e c81b d4bd
00000050: 3da7 1f3e d209 48be a542 9e3d 5cd6 b03d
00000060: dfc9 b9bc 7152 19bd 1983 153e 9b04 8a3d
00000070: 69a6 5c3e 1270 0abc 120b fcbd 6171 76bd
00000080: 34fc 48bd be20 5cbd 7e81 06be c624 0a3e
00000090: fbbe 1b3b 5a1b dabd b96b 2abe 2f2e 333e
000000a0: da03 373e bc60 92bd c12f 2bbe ebe8 a4bd
000000b0: beb6 4abe 8977 08bc 14c7 8abd 082e 3a3e
000000c0: f0ba 1fbd 6963 ac3c cec8 18be b03a e4bc
000000d0: a9f8 e7bd 3aff 3fbe be72 93bd 106a 173e
000000e0: 78ac 39be 5c60 b43d f4d7 30be 3191 7ebd
000000f0: fdb2 5cbe 9f92 433e 5aa1 083e 3b32 5b3e
00000100: 84b4 ffbd 81e2 583e ccfb 5b3e 4a4d 07be
00000110: a699 c4bd 71a4 213d 8215 b9bd 27ce 423e
00000120: 9e67 1fbe 142e 50be f5d0 ab3c 537d 473d
00000130: 91d1 42be d432 04be 660e 0bbe d4af 53be
00000140: 3507 7fbd b29f b53d 6138 673b 0fb6 3dbe
00000150: 69fb 183d 8422 c23d ec24 123e 3108 c03d
00000160: 83b6 3b3e 537c 503e 8177 253d 6d16 343e
00000170: dd2b 1ebe 30b3 29bc 61bf 2c3e f0d3 6ebd
00000180: e30e 58be b748 97bc a6e2 083e c520 bcbc
00000190: ce4a a73d 5b04 9bbb 5e39 083e fc31 693d
000001a0: d32a 28be 705c 343e ac26 a9bd 936d 183d
000001b0: 5f6b ccbd 15ca 13be 744d 5a3e 6682 2dbe
000001c0: 03d2 f2bc 9250 21be b629 edbc 0a37 d1bd
000001d0: e08b 77bd 5e3d 6dbc 3956 693d e1a2 48bd
000001e0: 5fa2 4a3e 7db2 443d cd05 8ebd 5bd9 88bd
000001f0: 887f 13be 4fe7 b6bd eb73 403e e924 96bd
00000200: 6bec 88bc 6f11 fbbc 6a26 39be 9a63 0a3e
00000210: 9423 243e 6303 2d3e 0d21 393e cc40 1c3e
00000220: 94d9 183e 0e7e 223e c85f d43d a34d ec3d
00000230: e797 e43d 50cf c6bd a7fd 433e 794a 8fbd
00000240: b998 26be 733a 33be ac50 363e 6f25 21be
00000250: 2af2 bd3d 6ea8 fabc 2c47 55be 4916 32be
00000260: 3685 e8bd ca11 de3d dd05 69bd eccf e63d
00000270: f068 f4bd 8311 343e 0597 043e 017e dfbd
00000280: 2e1e b43d c09a 22be 35c1 5a3d c10d f33d
00000290: 25c7 12be ba2c bebb 28b2 4f3e 5179 0e3e
000002a0: 2c6a 143e f32c 213d 11e5 883a 0658 cdbd
000002b0: 1010 4abe bf22 b63d 7a29 80bc a44e 5b3e
000002c0: d4b8 5cbe a3cf 293e 6f09 913d c82b ce3d
000002d0: 8a81 19be 38d2 04be 2eb2 a03c 4b4b d23c
000002e0: 8cfb f4bd e9f3 44be c538 4c3e b0d9 5d3e
000002f0: 2471 b53d 2d50 233e da29 143e d0c4 323e
00000300: d1a7 383e bf02 08be 1412 5ebe e78a 2bbe
00000310: 4849 573e 5c51 e8bd ad68 3e3e 9b5e a43d
00000320: 9aaa ba3d c6e4 bb3d 1487 79bd 857a 83bb
00000330: 19f8 af3d 836f aebd 3ad4 0b3d 8d42 fabd
00000340: fd79 343e 8ddb 193d aa4f 37be 63e1 43bd
00000350: 734a 95bc 1a20 22bc 2412 5cbe 73c4 3f3e
00000360: 18c0 0c3e dd1a 7bbc 56e3 103e b068 c7bd
00000370: d3b9 efbd 43c9 bebc 318e 84bd fe08 003e
00000380: 43ca 16be 6f76 4bbe bf7d 323e 9428 5bbe
00000390: 2975 343e 7965 913c 41b0 babd 8511 363e
000003a0: c96a 0bbe 9e75 d2bd fcbd fa3d 79ff 71bd
000003b0: 9928 5dbe 1e50 e63a 32bd b03b 3613 943b
000003c0: d630 a93c e027 20bd c3d7 6a3d 24a0 7cbd
000003d0: 0057 1f3e 6923 f83d a6ae 3dbe 4405 e4bd
000003e0: f569 dcbd 9c01 363e eb9d 30be 5af0 3c3d
000003f0: 00d9 223e 84c2 433d 44fd 14be 0bc0 4ebd

critic.fc1.bias f4 [256]
-0.15572934 -0.048259318 -0.06733499 -0.14529335 -0.029116392 0.12920633 -0.026154501 0.050478976
0.19623357 0.089538686 0.091589995 0.05853459 0.16897145 0.12654611 -0.21255158 0.1705514
-0.06962277 0.15580517 -0.12533642 -0.023867887 -0.027600516 -0.12251997 -0.08965527 -0.012914635
-0.02836166 -0.08730552 0.1535248 -0.050480288 0.018240316 -0.015527404 -0.11473436 -0.006755504
-0.20519388 -0.17510223 0.13012935 0.19663864 0.12975076 -0.061258487 -0.08102256 0.08326068
0.07010118 0.14870173 -0.10738032 -0.02987409 0.13857202 0.054160427 0.16693255 -0.022820486
0.035406414 0.004922974 -0.07398023 0.18538219 0.07550149 0.16573623 0.0127616115 -0.0026982902
0.15486704 -0.18745483 -0.2061347 -0.17106561 0.1890465 0.045034263 0.053447936 0.15494587
-0.21150145 -0.029915443 -0.05868463 0.017722508 -0.19027337 0.039180983 -0.15384555 0.115240745
-0.15887922 0.10205782 -0.18581186 0.050891437 0.090485424 -0.0911128 0.19692475 0.16354229
0.057241723 0.048601586 -0.15929593 0.019689318 -0.08632834 -0.10279282 0.08152693 0.16511033
-0.0852638 -0.1525206 0.099490926 0.17976424 0.047062427 -0.13490258 0.035201658 -0.18222792
-0.10119904 0.016526503 -0.05562534 -0.035445232 -0.07916509 -0.15619296 -0.15760359 0.02681492
0.18473788 0.1250474 -0.06763064 -0.038764864 -0.012673211 -0.14299473 0.006529384 -0.1843944
-0.05254098 -0.06040573 0.06050493 -0.092887826 -0.008168223 0.15551718 -0.04737559 0.18866849
0.07713867 0.12773557 0.063264504 0.10350066 -0.067685604 -0.13196011 -0.10460041 -0.18452716
-0.08299727 -0.19680455 0.12505746 0.18104775 -0.18638946 0.1272016 -0.038057625 0.091726296
0.062024888 -0.1459742 -0.017182207 -0.14236629 -0.20412047 0.115410045 -0.12849085 0.1117795
-0.2049408 -0.032172754 0.107719466 -0.011529788 0.031931277 0.16491465 -0.09105282 -0.097493656
0.05707411 -0.17847988 -0.17453516 0.12963289 0.08662123 0.08122539 0.005454525 -0.17324944
-0.09948729 0.14090383 0.062955394 0.17244264 -0.014125592 0.1503874 0.13245568 -0.13487235
0.04372698 -0.13848664 -0.074907415 -0.053142898 0.027202899 0.13200116 -0.18683343 -0.13840759
-0.15296978 -0.0004155676 -0.1518014 -0.12732188 -0.018820837 0.1883008 -0.010306528 0.19069603
-0.21020871 0.19363421 -0.19703846 -0.21735078 -0.19372979 0.08180118 0.07831972 -0.093052305
-0.08216252 0.052202836 -0.114317186 -0.21266021 -0.17544694 0.16854987 0.20121852 -0.13412753
-0.14073747 -0.11853127 -0.11399122 -0.08255395 0.03421202 -0.20745206 0.029105308 -0.18461241
-0.16339354 0.15520792 0.019308003 -0.13893273 0.17313376 -0.12749268 0.09644434 0.06517542
-0.16339965 -0.17669715 -0.08285192 0.14932789 0.03390134 -0.07305736 0.1916978 0.10866472
-0.1907497 0.12331496 -0.10122596 0.04604564 0.056194536 -0.183357 0.09875956 -0.0030147298
0.03013239 0.051992398 0.10382359 0.15133151 -0.06950357 -0.04418738 -0.12154527 0.0021700864
-0.11280699 -0.115954556 -0.13588051 -0.1531663 0.16423455 -0.13439618 0.20878781 0.069666885
-0.06325284 -0.18602537 -0.034760263 0.07869271 0.19123599 -0.068171866 0.06322128 0.10094015
00000000: 8377 1fbe 90ab 45bd ede6 89bd c8c7 14be
00000010: 8085 eebc aa4e 043e f741 d6bc 0bc3 4e3d
00000020: 74f1 483e 0f60 b73d 8993 bb3d f7c1 6f3d
00000030: da06 2d3e 4e95 013e 1fa7 59be 07a5 2e3e
00000040: 6296 8ebd 648b 1f3e 3158 00be 9686 c3bc
00000050: 7a1a e2bc c0eb fabd 2f9d b7bd e897 53bc
00000060: b656 e8bc 3dcd b2bd 9b35 1d3e 6bc4 4ebd
00000070: b76c 953c a766 7ebc d9f9 eabd 465d ddbb
00000080: 581e 52be 004e 33be a140 053e a45b 493e
00000090: 62dd 043e 2eea 7abd 28ef a5bd 9384 aa3d
000000a0: 3591 8f3d 4445 183e 37ea dbbd 82ba f4bc
000000b0: d3e5 0d3e 53d7 5d3d 5ef0 2a3e 07f2 babc
000000c0: 5106 113d e650 a13b f282 97bd d4d4 3d3e
000000d0: 86a0 9a3d c2b6 293e 1416 513c ccd5 30bb
000000e0: 7795 1e3e 29f4 3fbe fa14 53be d32b 2fbe
000000f0: 6895 413e d975 383d 39ec 5a3d 21aa 1e3e
00000100: d693 58be 3b11 f5bc 4b5f 70bd cb2e 913c
00000110: 06d7 42be 3d7c 203d b089 1dbe 5703 ec3d
00000120: 3cb1 22be b103 d13d 7745 3ebe 8a73 503d
00000130: 6c50 b93d 5999 babd a4a6 493e a177 273e
00000140: 4c76 6a3d 7512 473d 791e 23be 7e4b a13c
00000150: eacc b0bd 0b85 d2bd 97f7 a63d af12 293e
00000160: ca9e aebd 5c2e 1cbe e6c1 cb3d 1e14 383e
00000170: 88c4 403d e723 0abe 9d2f 103d f599 3abe
00000180: 7141 cfbd 9762 873c 66d7 63bd 052f 11bd
00000190: 4f21 a2bd 0cf1 1fbe d662 21be f7aa db3c
000001a0: ed2b 3d3e 6d0c 003e ef81 8abd e8c7 1ebd
000001b0: 4da3 4fbc 366d 12be 71f4 d53b e3d1 3cbe
000001c0: 3635 57bd 006c 77bd 04d4 773d f93b bebd
000001d0: 03d4 05bc e53f 1f3e e80c 42bd 5032 413e
000001e0: e1fa 9d3d 1dcd 023e d290 813d 27f8 d33d
000001f0: c09e 8abd 8d20 07be bd38 d6bd b0f4 3cbe
00000200: 79fa a9bd 2287 49be 100f 003e 9564 393e
00000210: e1dc 3ebe 2341 023e 50e2 1bbd ffda bb3d
00000220: cf0d 7e3d 437a 15be b3c1 8cbc 78c8 11be
00000230: f504 51be 1a5c ec3d 1b93 03be a7ec e43d
00000240: 00dc 51be 94c7 03bd 069c dc3d 70e7 3cbc
00000250: 5fca 023d 63df 283e e779 babd c1aa c7bd
00000260: 8bc6 693d 6ec3 36be 58b9 32be 7cbe 043e
00000270: 7966 b13d 7f59 a63d dfbb b23b 4d68 31be
00000280: febf cbbd 1849 103e c2ee 803d ce94 303e
00000290: 076f 67bc 28ff 193e 76a2 073e fa1b 0abe
000002a0: 101b 333d 71cf 0dbe 0f69 99bd 5eac 59bd
000002b0: 9dd8 de3c 502b 073e 4351 3fbe b8ba 0dbe
000002c0: 1ca4 1cbe 8ae0 d9b9 d471 1bbe ab60 02be
000002d0: 282e 9abc edd1 403e b6dc 28bc d245 433e
000002e0: f440 57be 0c48 463e 73c4 49be 3491 5ebe
000002f0: 1a61 46be 6187 a73d 1766 a03d 3592 bebd
00000300: d344 a8bd a4d2 553d 211f eabd 99c3 59be
00000310: 5da8 33be 5698 2c3e 3a0c 4e3e ba58 09be
00000320: 7c1d 10be 86c0 f2bd 3b74 e9bd 0c12 a9bd
00000330: e721 0c3d 506e 54be 416e ee3c 090b 3dbe
00000340: a350 27be d3ee 1e3e d12b 9e3c 6244 0ebe
00000350: fa49 313e 718d 02be 9c84 c53d b17a 853d
00000360: 3d52 27be 19f0 34be 44ae a9bd 69e9 183e
00000370: 22dc 0a3d 199f 95bd 6e4c 443e 9c8b de3d
00000380: e453 43be 8e8c fc3d 8e4f cfbd 5a9a 3c3d
00000390: 3e2c 663d f0c1 3bbe 7442 ca3d c692 45bb
000003a0: 34d8 f63c fbf5 543d 76a1 d43d a6f6 1a3e
000003b0: e357 8ebd d3fd 34bd baec f8bd 0238 0e3b
000003c0: 5a07 e7bd 9579 edbd 4324 0bbe a0d7 1cbe
000003d0: 1a2d 283e 279f 09be 79cc 553e 83ad 8e3d
000003e0: b48a 81bd 6f7d 3ebe c760 0ebd a529 a13d
000003f0: 5ed3 433e b19d 8bbd 297a 813d b6b9 ce3d

critic.fc2.weight f4 [128, 256]
-0.035078656 -0.010722478 0.012565499 -0.05095425 0.05264594 -0.015754491 0.061124954 -0.028520782
0.02593299 -0.056633633 0.004757706 0.032835606 0.014853511 -0.0027625218 -0.00436187 -0.0507332
-0.021388847 -0.012106888 -0.046963282 -0.0014690764 -0.059299793 -0.0014390479 -0.027783792 0.032489244
-0.051482815 0.06061655 -0.045651156 -0.05774529 -0.023241535 -0.01605218 -0.04224182 0.06016773
-0.030178284 -0.039093442 0.056900796 0.05851681 -0.046841603 -0.0015608257 -0.0055166516 -0.00071004324
0.053446066 -0.01806887 0.052056983 -0.054042343 -0.030709393 0.0144524975 -0.017047325 -0.05043219
-0.025679853 0.01054261 -0.04997618 0.04354553 0.016420756 -0.029362258 -0.034374546 0.03435495
0.05211971 0.0052628834 -0.0434805 0.05924089 -0.0067554303 -0.0071447277 -0.033463657 -0.04844905
0.01656175 -0.046372727 -0.023137718 -0.059550174 0.062311035 -0.025985178 0.009467151 -0.03508073
-0.031274267 0.010780988 -0.005045147 0.015887467 -0.041748982 0.025935836 -0.038538788 -0.008790698
-0.057266783 -0.046290852 -0.047662217 -0.020836905 -0.041866295 -0.013473473 -0.032898825 0.017880598
0.0029635145 0.061198875 -0.03675419 0.016038952 -0.024974616 -0.04805215 0.019388132 -0.05408558
-0.059630107 0.034308642 -0.05389983 0.045703504 0.027290564 -0.0064955666 -0.042254865 -0.014868277
-0.043402415 0.022606743 0.03987606 0.012654168 0.05613694 -0.01947715 -0.06197664 -0.0060201944
-0.026644282 0.018523136 0.008180207 -0.021238152 0.032268867 -0.055792667 -0.048877195 -0.010360257
0.0061439225 0.04505235 -0.009662739 -0.00045608066 0.061733432 0.004719496 -0.03683627 0.062121123
-0.019053461 -0.042813785 -0.006306742 -0.060500488 -0.022765102 0.030964995 0.059101246 -0.027826916
0.048200823 0.044397928 -0.019611258 -0.030998833 -0.051471975 0.048209254 -0.007180568 0.027099688
-0.034667578 0.060704138 0.016769148 0.060921833 -0.06048262 0.007863522 0.04439281 -0.05339285
0.011489366 0.019398369 0.049732577 -0.02896654 0.04755374 -0.031048654 0.003246856 -0.032897666
-0.01167702 -0.03425624 0.061002452 -0.010367493 0.020449536 -0.053469118 0.024666332 -0.043865316
-0.042250574 -0.0038372632 -0.05090601 -0.031367976 -0.010794852 -0.051010232 0.0538458 0.05857613
-0.04952203 0.0031131173 0.05790604 -0.022179443 0.04262363 0.013694556 -0.014769651 0.016033884
0.031643763 -0.059507314 0.04290274 -0.00980865 -0.0013481103 0.05428269 -0.0018704454 -0.0042451248
0.006994934 0.037566643 -0.032268595 -0.024250014 0.049727023 0.0074226256 0.047038946 0.015612162
-0.05146701 0.059892327 0.0029861447 -0.05245783 -0.028149597 0.04810038 0.026486628 0.007401045
-0.029224345 -0.03628255 0.005230523 0.030538779 0.04935448 0.002836429 -0.019138603 -0.034495853
-0.057840686 -0.020529825 0.03458699 0.043471903 0.009530813 0.038676042 -0.059488837 -0.0072868327
-0.0011037638 -0.06214805 0.039235912 -0.0042030644 0.011701045 0.05798845 -0.0053052823 -0.04125309
-0.047695145 -0.035358544 -0.033450384 0.058159564 0.0010526271 0.032049578 0.052891802 0.027530843
0.05115184 -0.041530564 0.03139482 0.029480606 -0.060314707 -0.03315372 0.004396041 0.019912126
-0.035164155 -0.054332282 0.012985788 -0.005180816 0.015819192 -0.0321528 -0.028759139 -0.0132243475
00000000: a3ae 0fbd 55ad 2fbc 86df 4d3c 67b5 50bd
00000010: 45a3 573d 900f 81bc 295e 7a3d 6aa4 e9bc
00000020: 6c71 d43c abf8 67bd 88e6 9b3b a17e 063d
00000030: 245c 733c 6d0b 35bb 04ee 8ebb 9ecd 4fbd
00000040: aa37 afbc f85b 46bc 925c 40bd 068e c0ba
00000050: 57e4 72bd 6f9e bcba d69a e3bc 7113 053d
00000060: a5df 52bd 0f49 783d b5fc 3abd 5386 6cbd
00000070: 0865 bebc dd7f 83bc c205 2dbd 7072 763d
00000080: 7338 f7bc 7220 20bd cf10 693d 53af 6f3d
00000090: fbdc 3fbd 9f94 ccba 07c5 b4bb 3222 3aba
000000a0: 43ea 5a3d 2b05 94bc b439 553d 815b 5dbd
000000b0: 4492 fbbc 2bca 6c3c d5a6 8bbc fc91 4ebd
000000c0: 8e5e d2bc e9ba 2c3c d3b3 4cbd cc5c 323d
000000d0: d284 863c 1e89 f0bc 53cc 0cbd c7b7 0c3d
000000e0: 7a7b 553d 4474 ac3b 9c18 32bd 93a6 723d
000000f0: a85c ddbb 521e eabb 3011 09bd 8372 46bd
00000100: 82ac 873c 54f1 3dbd 508b bdbc e2ea 73bd
00000110: db39 7f3d dede d4bc 1c1c 1b3c d0b0 0fbd
00000120: 7219 00bd bea2 303c c351 a5bb 6f26 823c
00000130: fb00 2bbd 6477 d43c d9da 1dbd dc06 10bc
00000140: 9390 6abd 7a9b 3dbd 7539 43bd 28b2 aabc
00000150: fe7b 2bbd d7bf 5cbc ebc0 06bd 557a 923c
00000160: 8637 423b acab 7a3d 908b 16bd 1f64 833c
00000170: 9197 ccbc 55d2 44bd dcd3 9e3c d788 5dbd
00000180: b33e 74bd 3887 0c3d 11c6 5cbd 9933 3b3d
00000190: 7690 df3c c3d8 d4bb 7013 2dbd 139a 73bc
000001a0: bbc6 31bd c731 b93c 1455 233d 6d53 4f3c
000001b0: d9ef 653d 8b8e 9fbc 38db 7dbd 0d45 c5bb
000001c0: 1c45 dabc d5bd 973c 4606 063c a2fb adbc
000001d0: 5c2c 043d da86 64bd 7433 48bd 11be 29bc
000001e0: f552 c93b d088 383d 7750 1ebc 1c1e efb9
000001f0: 32dc 7c3d 00a6 9a3b a1e1 16bd b872 7e3d
00000200: 0116 9cbc 825d 2fbd c9a8 cebb 5ccf 77bd
00000210: e17d babc 4daa fd3c 2614 723d 46f5 e3bc
00000220: 3a6e 453d 9ada 353d caa7 a0bc 44f1 fdbc
00000230: 47d4 52bd 1177 453d f84a ebbb 2a00 de3c
00000240: 97ff 0dbd e7a4 783d 745f 893c 2c89 793d
00000250: a0bc 77bd 00d6 003c 3cd5 353d 76b2 5abd
00000260: e53d 3c3c 54e9 9e3c 63b4 4b3d 3d4b edbc
00000270: b6c7 423d bf59 febc 34c9 543b b4bf 06bd
00000280: f950 3fbc 4550 0cbd b5dd 793d 6bdc 29bc
00000290: c985 a73c 6f02 5bbd 0c11 ca3c 1eac 33bd
000002a0: f00e 2dbd 987a 7bbb d282 50bd b57b 00bd
000002b0: e4dc 30bc 1bf0 50bd 6a8d 5c3d 86ed 6f3d
000002c0: 9dd7 4abd 7105 4c3b e22e 6d3d aab1 b5bc
000002d0: 1e96 2e3d 225f 603c 68fc 71bc 7e59 833c
000002e0: e49c 013d f1bd 73bd c9ba 2f3d 76b4 20bc
000002f0: 13b3 b0ba 8757 5e3d bc29 f5ba b01a 8bbb
00000300: c235 e53b 7bdf 193d 132c 04bd f7a7 c6bc
00000310: 90ae 4b3d 7f39 f33b e9ab 403d 27ca 7f3c
00000320: 12cf 52bd a851 753d 32b3 433b 06de 56bd
00000330: fc99 e6bc e704 453d 7cfa d83c 7784 f23b
00000340: e567 efbc 039d 14bd cf64 ab3b 762c fa3c
00000350: ec27 4a3d 62e3 393b 8fc8 9cbc 864b 0dbd
00000360: 5bea 6cbd 2a2e a8bc 16ab 0d3d 980f 323d
00000370: 2127 1c3c c56a 1e3d 91aa 73bd 62c6 eebb
00000380: 2bac 90ba f48e 7ebd d6b5 203d dcb9 89bb
00000390: bdb5 3f3c 4c85 6d3d efd7 adbb 00f9 28bd
000003a0: fc5b 43bd 1fd4 10bd 4503 09bd b938 6e3d
000003b0: 4ef8 893a 6b46 033d 13a5 583d 5d88 e13c
000003c0: 9784 513d f41b 2abd db97 003d 5081 f13c
000003d0: 8e0c 77bd 32cc 07bd aa0c 903b c11e a33c
000003e0: 4a08 10bd 878b 5ebd 58c2 543c d6c3 a9bb
000003f0: 4097 813c a8b2 03bd 4998 ebbc efaa 58bc
